Assets/results/coin_shooter2/CoinChaser.onnx (onnx, 372431 bytes, 13 tensors)

network_body.observation_encoder.processors.0.normalizer.running_mean f4 [68]
0.9545743 0.0025535182 0.00034558904 0.22697893 0.9583756 0.0020543344 0.00042238645 0.22637999
0.9516753 0.0024959198 0.00047998462 0.22757939 0.95960444 0.002476721 0.0003263896 0.22445723
0.95528466 0.0029183056 0.00053758273 0.22769202 0.95804954 0.0019007387 0.0004607853 0.22126536
0.9583179 0.0034174924 0.0004799847 0.22789373 0.95539975 0.00157435 0.00032638962 0.21553588
0.9607564 0.0027263125 0.00044158578 0.22713602 0.9556685 0.002303927 0.00040318703 0.2095271
0.962926 0.0022847261 0.00061438046 0.22401613 0.95720446 0.002476721 0.00028799087 0.20431224
0.963502 0.0023231262 0.0004991842 0.21977425 0.95914376 0.0025727174 0.00015359513 0.19968523
0.9640972 0.002092732 0.00057598157 0.21334922 0.96244574 0.0019967377 0.00026879145 0.19579959
0.9634826 0.002611116 0.00049918424 0.20785539
00000000: fb5e 743f ed58 273b 2d30 b539 2a6d 683e
00000010: 1a58 753f 03a2 063b c073 dd39 28d0 673e
00000020: fea0 733f 9692 233b 72a6 fb39 920a 693e
00000030: a3a8 753f 7c50 223b 451f ab39 1ed8 653e
00000040: 898d 743f 0b41 3f3b 91ec 0c3a 1928 693e
00000050: bc42 753f 3522 f93a 8e95 f139 6393 623e
00000060: 5254 753f 02f8 5f3b 75a6 fb39 f95c 693e
00000070: 1495 743f 6c5a ce3a 461f ab39 70b5 5c3e
00000080: 22f4 753f efab 323b a484 e739 5896 683e
00000090: b1a6 743f 7bfd 163b d962 d339 468e 563e
000000a0: 5182 763f 58bb 153b 600e 213a 7c64 653e
000000b0: 5a0b 753f 7c50 223b 7bfd 9639 3a37 513e
000000c0: 11a8 763f 973f 183b afdb 023a 800c 613e
000000d0: 728a 753f 099b 283b 610e 2139 497a 4c3e
000000e0: 13cf 763f 3726 093b 78fd 163a 3878 5a3e
000000f0: d862 763f b3db 023b 94ec 8c39 b07f 483e
00000100: cca6 763f 421f 2b3b b0db 023a 0bd8 543e

network_body.observation_encoder.processors.1.normalizer.running_mean f4 [20]
0.43321508 0.0009407699 0.051799934 0.33847842 0.44673127 0.0008255733 0.050148796 0.34301165
0.43686286 0.001036767 0.055102237 0.34534487 0.47794956 0.00063357985 0.051550336 0.3588755
0.47000107 0.00095996953 0.058078133 0.36463615
00000000: 5ece dd3e 009e 763a 2b2c 543d 0b4d ad3e
00000010: f6b9 e43e 496b 583a d368 4d3d 399f af3e
00000020: 7dac df3e 21e4 873a e2b2 613d 0bd1 b03e
00000030: ceb5 f43e d316 263a 7226 533d 88be b73e
00000040: fba3 f03e 77a6 7b3a 56e3 6d3d 97b1 ba3e

network_body.observation_encoder.processors.2.normalizer.running_mean f4 [5]
1.5300902 2.407778 -0.24481905 0.81240565 0.48465005
00000000: ffd9 c33f 0919 1a40 d8b1 7abe d1f9 4f3f
00000010: 0d24 f83e

network_body._body_endoder.seq_layers.0.weight f4 [256, 93]
0.09673724 0.16924658 0.13393271 -0.08239594 -0.0837689 0.10841105 -0.15841326 -0.055309497
0.0069514993 0.18132673 0.08198765 -0.14729251 -0.11840934 -0.054078367 0.12246983 -0.053394344
0.058507223 -0.09278323 0.10283155 0.067839205 0.05176363 0.13973528 -0.0986082 -0.15716931
-0.10950378 -0.0018572143 0.052478343 -0.054332726 -0.064737834 -0.020103835 0.10628425 0.05170324
-0.085846774 -0.085310295 -0.050114535 -0.046451133 0.009081542 0.033398736 -0.0984558 -0.10404301
-0.08517266 -0.02057628 0.021910977 0.032109577 0.16475476 -0.039024666 0.2762485 0.013002195
-0.16984206 0.18417174 -0.10434971 -0.076028444 -0.14235638 -0.10211895 0.033957962 0.17363329
-0.10903898 0.019315487 -0.024523662 -0.15378922 -0.12665662 0.013312549 0.06399029 0.0645645
0.0095134815 0.0037052613 0.13132463 0.002114816 -0.1698266 0.067918696 -0.06966228 -0.008418791
-0.025427064 0.0312423 0.05939339 0.23674372 0.032492027 0.12632217 0.13581666 0.09561742
-0.093707904 -0.06467314 -0.01576298 0.048338085 0.124307446 -0.043548126 0.11453753 -0.12243821
-0.059299454 0.02162236 -0.09096248 -0.111082196 -0.043806676 -0.061672922 -0.0197837 0.011056461
0.06540284 -0.14796059 0.12602474 0.03751797 -0.06765805 0.029292587 0.09092194 -0.10912044
-0.034396492 0.11255563 -0.059339896 0.04181533 -0.043626238 -0.15448667 -0.026313692 0.1649097
0.11231678 -0.1115774 -0.055900738 -0.04076483 -0.10034713 -0.06839001 0.09560475 -0.18983527
-0.014560488 0.054423597 -0.035277683 0.12835176 -0.05675737 -0.046898887 0.0057304422 0.05352494
0.022036502 -0.047103047 0.09158492 0.12236541 0.03470433 0.056538563 0.115623884 -0.020819541
0.13339704 -0.12855281 0.19362895 -0.090129524 0.14460473 -0.06386473 -0.2605462 -0.23707384
0.13707064 0.10997773 0.04274254 0.015102352 0.002971109 0.012443097 -0.039443314 0.01541624
-0.19422793 0.008982986 -0.12358804 0.01943174 0.087783754 -0.07420735 -0.023797005 0.0046642344
-0.039956544 0.055940084 0.0074370895 0.032750238 -0.023503298 0.056414265 -0.11023789 -0.14700817
0.12962593 -0.0692466 0.022063712 0.055865455 0.044704407 0.096011154 -0.0334011 -0.006062571
-0.011150674 0.08020174 -0.07441906 -0.073069446 0.014120565 0.02006703 0.014739774 -0.07302027
0.050784737 0.020569304 -0.23676461 0.0033909213 -0.12786485 -0.09565791 0.09907262 0.10898975
0.009570139 0.04883951 -0.042617444 -0.18186644 -0.2221595 0.124850035 -0.17682894 0.11133264
-0.20448117 0.13082562 0.027497053 0.056827046 -0.114542566 -0.08333374 -0.115860246 -0.111387566
0.10041266 0.050206766 0.027209383 0.036173675 0.21466829 0.017307146 -0.14786129 0.13329995
-0.0082046045 -0.17242253 -0.069079764 -0.046278115 -0.20522052 0.06831707 -0.025804946 -0.022283008
0.120102614 0.13059959 0.047591362 0.17528205 0.0027217283 -0.14117444 -0.059450146 0.0848867
0.015198029 -0.0072560282 -0.013533334 0.09537199 -0.22515294 0.21916045 -0.009823462 -0.07834802
-0.076828234 0.08876851 -0.057456054 -0.030206433 -0.24286358 0.0433934 0.021283923 -0.20899472
-0.029879985 0.08451889 0.21328156 0.12707394 0.13717134 0.17001075 -0.15890424 -0.120282575
00000000: 2d1e c63d fa4e 2d3e a825 093e 34bf a8bd
00000010: 078f abbd 9d06 de3d 1637 22be 368c 62bd
00000020: 67c9 e33b b7ad 393e 24e9 a73d d9d3 16be
00000030: 9980 f2bd 4781 5dbd 76d1 fa3d 07b4 5abd
00000040: 45a5 6f3d 2205 bebd 5999 d23d 48ef 8a3d
00000050: 1a06 543d c416 0f3e 19f3 c9bd fef0 20be
00000060: 8543 e0bd c56d f3ba 88f3 563d fe8b 5ebd
00000070: 4595 84bd ccb0 a4bc 8fab d93d c7c6 533d
00000080: 6fd0 afbd 2ab7 aebd e644 4dbd 8b43 3ebd
00000090: bfca 143c 1dcd 083d 32a3 c9bd 8014 d5bd
000000a0: 016f aebd 968f a8bc a67e b33c 5585 033d
000000b0: 79b5 283e 54d8 1fbd 7270 8d3e 2907 553c
000000c0: 14eb 2dbe 8497 3c3e 4db5 d5bd cdb4 9bbd
000000d0: dfc5 11be bd23 d1bd 8117 0b3d edcc 313e
000000e0: d44f dfbd 833b 9e3c d9e5 c8bc ec7a 1dbe
000000f0: 46b2 01be e11c 5a3c 570d 833d 643a 843d
00000100: 6fde 1b3c f8d3 723b f779 063e ba98 0a3b
00000110: 06e7 2dbe f518 8b3d 19ab 8ebd f8ee 09bc
00000120: 6b4c d0bc daef ff3c 7c46 733d f26c 723e
00000130: 5c16 053d 995a 013e 8613 0b3e 11d3 c33d
00000140: eee9 bfbd 5a73 84bd 5d21 81bc 28fe 453d
00000150: e794 fe3d 855f 32bd a792 ea3d e2c0 fabd
00000160: fce3 72bd 6021 b13c 894a babd 107f e3bd
00000170: a16e 33bd bf9c 7cbd 6d11 a2bc 2926 353c
00000180: edf1 853d fb82 17be a10c 013e 71ac 193d
00000190: 4e90 8abd 02f7 ef3c 4835 ba3d 8a7a dfbd
000001a0: 56e3 0cbd 9183 e63d 640e 73bd 8d46 2b3d
000001b0: 6db1 32bd c131 1ebe d08f d7bc 17de 283e
000001c0: 5706 e63d b182 e4bd 2cf8 64bd 06f9 26bd
000001d0: cc82 cdbd 1010 8cbd 6ccc c33d 2d64 42be
000001e0: 1d8f 6ebc 47eb 5e3d 557f 10bd a56e 033e
000001f0: 6a7a 68bd 0c19 40bd 6fc6 bb3b f83c 5b3d
00000200: e585 b43c 20ef 40bd e090 bb3d b79a fa3d
00000210: 2126 0e3d fb94 673d 37cc ec3d be8d aabc
00000220: 3c99 083e 59a3 03be ab46 463e d495 b8bd
00000230: 4313 143e 83cb 82bd 5066 85be 7cc3 72be
00000240: 3f5c 0c3e 013c e13d cd12 2f3d db6f 773c
00000250: f0b6 423b 22de 4b3c 508f 21bd 6694 7c3c
00000260: b0e3 46be 602d 133c ba1b fdbd 502f 9f3c
00000270: f8c7 b33d 06fa 97bd f0f1 c2bc 6fd6 983b
00000280: 79a9 23bd 6e21 653d d4b2 f33b 1d25 063d
00000290: fd89 c0bc a512 673d 67c4 e1bd 4f89 16be
000002a0: a9bc 043e 29d1 8dbd f5be b43c 2dd3 643d
000002b0: f81b 373d 7fa1 c43d 98cf 08bd 88a8 c6bb
000002c0: 51b1 36bc cf40 a43d 0569 98bd 6fa5 95bd
000002d0: f159 673c 9d63 a43c 187f 713c a78b 95bd
000002e0: a803 503d f580 a83c 6c72 72be 383a 5e3b
000002f0: 01ef 02be 4be8 c3bd 96e6 ca3d 0536 df3d
00000300: 13cc 1c3c f00b 483d a18f 2ebd 323b 3abe
00000310: c87d 63be 60b1 ff3d a512 35be 5e02 e43d
00000320: 8363 51be 27f7 053e 8041 e13c 7ac3 683d
00000330: 4b95 eabd e1aa aabd 2348 edbd 2a1f e4bd
00000340: 27a5 cd3d 9ca5 4d3d 36e6 de3c d92a 143d
00000350: 01d2 5b3e b7c7 8d3c f368 17be c87f 083e
00000360: 9b6c 06bc 888f 30be b179 8dbd 1f8e 3dbd
00000370: 5425 52be d2e9 8b3d e564 d3bc db8a b6bc
00000380: 5cf8 f53d e6bb 053e 29ef 423d 237d 333e
00000390: 065f 323b 0890 10be ff81 73bd 14d9 ad3d
000003a0: 2701 793c fac3 edbb ebba 5dbc 6452 c33d
000003b0: 7e8e 66be 996b 603e 96f2 20bc ed74 a0bd
000003c0: 1f58 9dbd 44cc b53d 0a57 6bbd 7b73 f7bc
000003d0: 3bb1 78be 47bd 313d 9f5b ae3c b602 56be
000003e0: dfc6 f4bc 3d18 ad3d 7b66 5a3e ac1f 023e
000003f0: a576 0c3e 4c17 2e3e cbb7 22be b656 f6bd

network_body._body_endoder.seq_layers.0.bias f4 [256]
0.009392841 -0.009184579 -0.01030093 0.006736965 0.002089144 0.0110346805 -0.0013905925 0.0076623214
-0.0041790297 -0.003066174 -0.0067759287 0.010833024 0.006166562 0.00079754426 0.0061378484 0.00870132
0.010154775 0.011632343 0.004408329 0.0045796386 -0.006917496 -0.010840545 0.0041094627 -0.007880173
0.007258455 0.008960278 -0.004302756 0.009679221 -0.0021384314 0.003732693 0.0091917915 0.0013166855
-0.004236285 0.009088077 0.007747552 0.011555333 0.00812003 -0.0010298052 0.0030706709 -0.00030324704
0.006722017 -0.0062959087 -0.0040508728 0.010400854 -0.0042877938 0.0055898475 -0.003748551 -0.002089405
-0.0011104594 0.010274542 -0.004610599 0.011389027 0.002398169 0.011813035 0.003273524 -0.008163163
0.007619576 -0.004882277 0.00796196 0.0021086785 -0.0050872373 -0.0043901466 0.010053483 0.0038818372
-0.0062709544 -0.0065856087 -0.009428938 0.0077432105 -0.005735324 -0.007154665 -0.0043150717 -0.00790806
-0.00480042 0.0032290677 0.008193389 -0.0050224317 -0.0061707203 0.00310008 0.009091208 -0.007397269
0.0073351013 0.0026060059 -0.00038793113 0.009218347 0.0006649929 0.005230806 0.006813141 0.007869829
-0.008047306 -0.00603171 -0.0031767504 0.009365017 0.013397477 0.0073140725 -0.011491405 0.006228239
0.004811704 0.012995572 -0.010387218 -0.008360652 0.006251294 -0.005998977 0.008060538 0.00419522
-0.003676828 0.009733254 9.067335e-05 0.00724485 0.010608227 -0.002349856 0.0072547975 -0.0054461965
-0.006408936 -0.0013250067 -0.0073055066 0.00676913 0.011645445 -0.005924361 0.002698284 0.0033769887
-0.0022095318 0.007587724 0.002136772 -0.0013899406 -0.004524428 0.005468979 0.0064195953 -0.005187225
0.0010903067 -0.00079474255 0.010943835 0.012831229 0.0040696254 -0.005419098 -0.0071393284 -0.0067184586
-0.00043881638 0.0010030563 0.0072610984 0.009220144 0.0042476705 -0.0003332199 0.0069850823 -0.0065360703
-0.004638738 0.009291053 0.0012692298 0.011318606 0.0050343736 0.0048421617 0.008408797 0.0003052957
0.0072331857 0.0026890484 -0.007850596 -0.0061102216 -0.010612666 0.0071374658 -0.008387353 0.0055210036
-0.0059726248 -0.0044557527 0.00038031262 -9.896079e-05 -0.007855425 0.008411582 0.012036676 0.006080721
0.0017598766 0.0012123749 -0.0023083591 0.0024137902 -0.0060657514 0.001142507 -0.004640238 0.0045186034
-0.0047836625 0.0045278543 0.0019531639 -0.0040218653 0.0044382685 0.006783276 0.0034326774 0.010206799
0.0104315905 0.0024232448 -0.0009349788 -0.005096995 0.0007833707 0.0096182255 0.0084989 0.0053745867
0.0019880494 -0.0011283938 0.0049121017 -0.0009474009 -0.006548466 -0.0029065611 -0.0054177544 0.0115257
0.00908365 -0.0045217997 0.00054424326 -0.00855211 -0.0012933667 -0.0082712695 0.005035137 -0.00012549073
0.0018230971 0.005508946 0.004321596 0.00702005 -0.00085844676 0.0031652264 0.00040946295 -0.0014762774
-0.00089394 -0.0075571826 0.01131239 -0.0027539448 0.011277885 -0.004000227 0.0027997617 -0.0023135757
0.006024773 -0.008151343 -0.007475823 0.0038355521 0.008438744 1.327023e-05 -0.0003792317 0.001329471
0.0110806795 -0.008184809 0.0009921034 0.0041405493 -0.0047615524 -0.002467703 0.010185306 -0.0059853815
0.010369713 0.0030417829 -0.0018910058 0.0063139345 -0.0005881934 0.009568119 0.00020678765 0.002338089
-0.0050091264 0.0024841616 -0.011547563 0.0034296208 -0.0070898635 0.0065152254 -0.009602349 0.0062609836
00000000: 6ee4 193c eb7a 16bc 3bc5 28bc c2c1 dc3b
00000010: 05ea 083b ceca 343c 8b44 b6ba 3614 fb3b
00000020: 3ef0 88bb ddf1 48bb 9c08 debb ff7c 313c
00000030: df10 ca3b 4a12 513a 0120 c93b fb8f 0e3c
00000040: 3760 263c 9595 3e3c be73 903b cb10 963b
00000050: 2aac e2bb 8b9c 31bc aca8 863b d71b 01bc
00000060: 55d8 ed3b 21ce 123c 22fe 8cbb 9895 1e3c
00000070: ed24 0cbb 32a0 743b 2b99 163c a294 ac3a
00000080: 89d0 8abb 28e6 143c 2ddf fd3b 9452 3d3c
00000090: e009 053c 87fa 86ba 4f3d 493b 21fd 9eb9
000000a0: 5e44 dc3b e94d cebb 2fbd 84bb 5868 2a3c
000000b0: 9f80 8cbb 0a2b b73b 40aa 75bb 66ee 08bb
000000c0: d68c 91ba 8d56 283c 8214 97bb 0b99 3a3c
000000d0: 992a 1d3b 768b 413c 9f88 563b cabe 05bc
000000e0: a3ad f93b 82fb 9fbb e172 023c c131 0a3b
000000f0: d7b2 a6bb 38db 8fbb 5db7 243c 6c66 7e3b
00000100: 947c cdbb 17cc d7bb d57b 1abc c2ba fd3b
00000110: 63ef bbbb ae71 eabb 7265 8dbb cf90 01bc
00000120: d74c 9dbb c49e 533b 903d 063c 3693 a4bb
00000130: c133 cabb b62a 4b3b 4af3 143c ca64 f2bb
00000140: 4a5b f03b 86c9 2a3b 3c63 cbb9 8d08 173c
00000150: eb52 2e3a 2e67 ab3b c540 df3b 75f0 003c
00000160: d9d8 03bc a7a5 c5bb 0731 50bb ba6f 193c
00000170: 1781 5b3c e3aa ef3b 7246 3cbc 4116 cc3b
00000180: 80ab 9d3b 61eb 543c 262f 2abc 1efb 08bc
00000190: a8d7 cc3b 1193 c4bb 5910 043c 0e78 893b
000001a0: f0f6 70bb 3a78 1f3c e227 be38 3566 ed3b
000001b0: 21ce 2d3c 0b00 1abb a7b9 ed3b 0276 b2bb
000001c0: 0d02 d2bb d9ab adba 0863 efbb 94cf dd3b
000001d0: 89cc 3e3c 2421 c2bb b2d5 303b 7850 5d3b
000001e0: cbcd 10bb 71a2 f83b 1609 0c3b ab2e b6ba
000001f0: a741 94bb 1f35 b33b 785b d23b 99f9 a9bb
00000200: 9fe8 8e3a 4556 50ba c54d 333c 133a 523c
00000210: 7e5a 853b b092 b1bb 07f1 e9bb 8426 dcbb
00000220: f010 e6b9 fc78 833a 82ee ed3b 1610 173c
00000230: 0b30 8b3b 05b4 aeb9 1ee3 e43b 882c d6bb
00000240: 8e00 98bb 8039 183c 495c a63a ad71 393c
00000250: 63f7 a43b ffaa 9e3b 0dc5 093c 1810 a039
00000260: 5c04 ed3b bf3a 303b c99f 00bc 4138 c8bb
00000270: bfe0 2dbc 67e1 e93b 1c6b 09bc 89e9 b43b
00000280: 02b6 c3bb 9001 92bb b264 c739 2b89 cfb8
00000290: 0ab4 00bc bbd0 093c 7a35 453c c940 c73b
000002a0: a9ab e63a 8de8 9e3a d747 17bb ae30 1e3b
000002b0: 36c3 c6bb 2cc0 953a 230d 98bb cb10 943b
000002c0: 45c0 9cbb 655e 943b a700 003b dac9 83bb
000002d0: e56e 913b 3e46 de3b c5f6 603b 6b3a 273c
000002e0: 43e9 2a3c 4dcf 1e3b 5d19 75ba b104 a7bb
000002f0: 1e5b 4d3a c395 1d3c f83e 0b3c 4d1d b03b
00000300: ef49 023b 9de6 93ba b2f5 a03b 005b 78ba
00000310: 8494 d6bb 017c 3ebb 6b87 b1bb 4ad6 3c3c
00000320: 97d3 143c 9b2b 94bb 8cab 0e3a 261e 0cbc
00000330: 2f86 a9ba 3884 07bc cafd a43b 2996 03b9
00000340: fdf4 ee3a 6384 b43b 2d9c 8d3b 7308 e63b
00000350: 6309 61ba b06f 4f3b 30ad d639 a67f c1ba
00000360: 4c57 6aba 3ea2 f7bb 9a57 393c 877b 34bb
00000370: e1c6 383c 5614 83bb 357c 373b 5c9f 17bb
00000380: 766b c53b 368d 05bc c0f7 f4bb e35d 7b3b
00000390: a842 0a3c 34a3 5e37 9ed3 c6b9 a541 ae3a
000003a0: bd8b 353c 9419 06bc 7709 823a 72ad 873b
000003b0: cc06 9cbb 30b9 21bb 45e0 263c 0521 c4bb
000003c0: bbe5 293c a658 473b a0db f7ba 1fe5 ce3b
000003d0: fe30 1aba 9ac3 1c3c 23d5 5839 a03a 193b
000003e0: 9923 a4bb 51cd 223b fd31 3dbc 7dc3 603b
000003f0: 1652 e8bb ac7d d53b 2c53 1dbc f028 cd3b

network_body._body_endoder.seq_layers.2.weight f4 [256, 256]
-0.0031087056 0.021965675 -0.046218 -0.022684397 0.046920206 0.002265086 -0.03711049 -0.043718863
-0.005135239 0.064857885 0.0073155295 0.09381365 0.030984344 0.1198783 0.023346467 -0.08186198
-0.064788036 -0.16964535 -0.044875838 -0.0077029667 -0.057220243 -0.114452325 -0.03970047 0.030368518
-0.013699727 -0.002670585 0.03358627 0.02879293 0.104602195 0.00044579714 -0.061552115 -0.028139425
-0.046441 0.09716732 0.037638262 0.027309708 0.0182372 0.12923276 0.11183334 -0.018946929
0.036891107 0.08770303 0.034582872 0.10323786 -0.10683234 0.021377204 0.02764563 -0.072085135
0.0073686214 0.025673183 -0.006818883 -0.051668175 -0.07484681 -0.22938545 0.035311103 -0.06360761
-0.043743294 0.031784873 -0.015029553 0.051770054 -0.06517858 -0.08828528 0.030915413 -0.031771574
0.026083075 0.03505295 0.05001766 0.055209193 -0.014437445 -0.04090796 0.058960926 0.047972046
-0.058998514 0.03739335 0.0095159905 0.004755701 0.04129452 0.0640081 0.08030948 0.055215787
-0.04835137 0.052927673 -0.033717617 -0.033908922 0.08433214 0.047155205 0.098916315 -0.0035851626
0.08096411 0.008197886 0.008030934 -0.06823706 0.00703707 0.060481 -0.03424507 -0.09329753
-0.107131645 0.013939942 0.05546989 0.03701218 0.003254018 -0.009536827 0.10031787 -0.013407079
0.0022784872 -0.006448837 -0.017530354 0.03923142 0.05789957 -0.122330174 0.013662981 -0.027500525
0.112014316 0.06542487 0.058214918 0.008287286 0.013399913 -0.12256879 0.04484555 0.04565867
0.07769489 -0.094691634 -0.06222978 -0.021406464 -0.022604547 0.027528152 0.043138564 -0.056357924
-0.050848223 -0.031723082 -0.040815488 0.056154743 0.037177462 -0.05903836 -0.024105774 0.009814038
0.011215355 -0.021731555 -0.045638748 0.12338091 0.029779026 0.08428329 -3.5486984e-05 0.031432945
-0.061781082 0.11327001 0.048390623 0.03868962 0.017317833 0.0035802517 -0.025667284 -0.11884308
-0.104515985 0.053533763 0.06514882 0.012728879 0.04355158 -0.03342379 0.09028047 0.08325479
-0.026056265 -0.017037561 0.017959623 0.15773894 0.11496147 0.056389436 -0.0046498887 -0.0077093546
0.038311765 0.04449077 0.010595029 -0.020496573 -0.031244533 0.055419516 0.07528241 -0.02729618
-0.010648155 0.021003868 -0.049669843 0.078368194 0.042529922 -0.112698466 -0.0027553032 -0.0050047017
0.09203319 0.020388044 -0.1200498 -0.008276037 -0.016758405 -0.012562079 -0.0066966414 -0.029733941
0.0366731 0.029411705 -0.031439953 -0.13087209 0.04251084 0.03198506 -0.015884306 -0.07779289
-0.05389467 0.025941102 0.030014586 0.0082017165 -0.09496662 0.027196774 0.019704817 0.0940733
-0.014540526 0.001099929 0.05434275 -0.024247717 -0.07225067 0.017950019 -0.011721914 -0.0839754
-0.06699347 0.0993985 0.012894736 -0.039658103 -0.06347515 -0.10384231 0.07399235 0.013678751
0.009746948 0.0383149 0.04639757 -0.051803444 0.011243361 0.09010832 -0.012139044 -0.00044067166
0.037394464 -0.086598 0.056052845 -0.06741961 0.0016498535 -0.16392696 0.06084052 -0.050815675
-0.020294493 0.12044329 -0.03380606 0.044501565 -0.07048195 -0.022167612 -0.08382186 0.045922328
-0.004962487 -0.015198539 -0.0505164 0.11834616 0.031308323 -0.0032902556 0.08183618 -0.025352871
00000000: 6dbb 4bbb 5cf1 b33c 164f 3dbd a1d4 b9bc
00000010: 672f 403d d671 143b 2b01 18bd 8d12 33bd
00000020: 8245 a8bb 36d4 843d 1cb7 ef3b 5f21 c03d
00000030: e1d2 fd3c c182 f53d 1741 bf3c 41a7 a7bd
00000040: 97af 84bd 83b7 2dbe bacf 37bd 2b69 fcbb
00000050: c65f 6abd fb65 eabd f69c 22bd 66c7 f83c
00000060: d274 60bc fb04 2fbb c291 093d 27df eb3c
00000070: ad39 d63d e1b9 e939 121e 7cbd a784 e6bc
00000080: eb38 3ebd a9ff c63d 942a 1a3d 9cb8 df3c
00000090: 2e66 953c 9855 043e e108 e53d 9736 9bbc
000000a0: 211b 173d a59d b33d c5a6 0d3d 5f6e d33d
000000b0: eaca dabd 3f1f af3c 1779 e23c 5fa1 93bd
000000c0: 7a74 f13b 9150 d23c f070 dfbb 02a2 53bd
000000d0: 4949 99bd 05e4 6abe 60a2 103d b544 82bd
000000e0: 2b2c 33bd db30 023d 843e 76bc d60c 543d
000000f0: 597c 85bd eace b4bd 5242 fd3c e922 02bd
00000100: 2cac d53c af93 0f3d 51df 4c3d 0923 623d
00000110: 098b 6cbc 1b8f 27bd 0381 713d 567e 443d
00000120: 6da8 71bd c529 193d f5e8 1b3c b6d5 9b3b
00000130: 7124 293d ae16 833d 4c79 a43d f329 623d
00000140: 160c 46bd b0ca 583d 7c1b 0abd 15e4 0abd
00000150: 54b6 ac3d d125 413d a394 ca3d 0cf5 6abb
00000160: 83d0 a53d 6d50 063c 2e94 033c dfbf 8bbd
00000170: 3997 e63b edba 773d 8f44 0cbd c712 bfbd
00000180: d667 dbbd 5b64 643c 6534 633d 159a 173d
00000190: 5d41 553b 5a40 1cbc 7573 cd3d 5da9 5bbc
000001a0: ac52 153b c450 d3bb d19b 8fbc 20b1 203d
000001b0: 1928 6d3d 3e88 fabd b2da 5f3c c848 e1bc
000001c0: c367 e53d 79fd 853d c472 6e3d 66c7 073c
000001d0: 4f8b 5b3c 5905 fbbd f8af 373d 9604 3b3d
000001e0: 801e 9f3d b0ed c1bd a7e4 7ebd 9c5c afbc
000001f0: 2c2d b9bc b882 e13c 10b2 303d 91d7 66bd
00000200: 3a46 50bd 10f0 01bd 242e 27bd 8402 663d
00000210: 6547 183d 35d2 71bd 7979 c5bc 0fcb 203c
00000220: 9cc0 373c 6006 b2bc b2ef 3abd 21af fc3d
00000230: 25f3 f33c b89c ac3d dcd7 14b8 d5bf 003d
00000240: 290e 7dbd 1bfa e73d 3f35 463d 0279 1e3d
00000250: 21de 8d3c a8a2 6a3b 3244 d2bc 0064 f3bd
00000260: 7a0c d6bd 3846 5b3d bf6c 853d ca8c 503c
00000270: 2463 323d 62e7 08bd f8e4 b83d 7d81 aa3d
00000280: f373 d5bc 5b92 8bbc 0f20 933c 5186 213e
00000290: eb70 eb3d 9cf8 663d 185e 98bb c19e fcbb
000002a0: ccec 1c3d f43b 363d c696 2d3c 6ee8 a7bc
000002b0: 89f4 ffbc 93ff 623d aa2d 9a3d 3d9c dfbc
000002c0: 9975 2ebc 4e10 ac3c 9b72 4bbd 817f a03d
000002d0: db33 2e3d 74ce e6bd 5192 34bb 7bfe a3bb
000002e0: e67b bc3d d404 a73c abdc f5bd 3798 07bc
000002f0: ec48 89bc 2ed1 4dbc 806f dbbb 9894 f3bc
00000300: 8836 163d d1f0 f03c 2ec7 00bd 5503 06be
00000310: d91f 2e3d c402 033d ce1f 82bc e151 9fbd
00000320: a8c0 5cbd 6f82 d43c 26e1 f53c 7e60 063c
00000330: dc7d c2bd c5cb de3c ff6b a13c 81a9 c03d
00000340: 633b 6ebc 7e2b 903a 8196 5e3d 26a3 c6bc
00000350: 29f8 93bd eb0b 933c 450d 40bc 4bfb abbd
00000360: df33 89bd 7191 cb3d 7144 533c 8970 22bd
00000370: 42ff 81bd 47ab d4bd 4d89 973d d71c 603c
00000380: aab1 1f3c 16f0 1c3d 610b 3e3d d92f 54bd
00000390: 1336 383c b68a b83d d7e2 46bc f309 e7b9
000003a0: f02a 193d 4b5a b1bd ab97 653d 4b13 8abd
000003b0: e63f d83a 78dc 27be e933 793d 1924 50bd
000003c0: a340 a6bc f9aa f63d 3978 0abd 4647 363d
000003d0: d758 90bd da98 b5bc ccaa abbd 0d19 3c3d
000003e0: 5c9c a2bb 4b03 79bc 49ea 4ebd 795f f23d
000003f0: 283d 003d 54a1 57bb ba99 a73d d3b0 cfbc

network_body._body_endoder.seq_layers.2.bias f4 [256]
-0.010758282 0.006166463 0.0014089058 -0.008334721 -0.005649991 -0.007865817 -0.0060009006 -0.00088945124
-0.0041348957 -0.0018380476 0.008934586 0.005940418 0.0048358627 -0.005100747 -0.0015237383 -0.0077655762
-0.00927587 -0.0007394927 -0.0014225009 0.0067765596 0.0008450205 0.003057277 -0.00906387 0.0009044194
-0.0021876025 -0.004658062 0.0024761031 -0.0026896263 -0.009846247 0.00015657382 0.008828209 -0.009688066
-0.0010862554 -0.0060228594 0.009066835 0.010905376 0.007114739 -0.007242371 -0.0050187437 -0.0079776365
0.009169014 -0.008986407 0.0018876849 -0.00546296 0.004566392 -0.008644275 0.006795112 -0.0019321077
0.0027713557 0.009022066 0.0027572436 0.008570184 0.0020525968 0.0050662374 0.008627433 -0.00550671
0.0054038977 -0.008419711 -0.0051539307 0.0042739366 0.0009829474 0.0022473184 -0.0028376076 -0.0012630898
-0.0053972118 -0.0049171494 0.001388499 -0.00561831 -0.0048607998 0.004500989 0.0032665082 -0.009609582
0.008101969 0.0024827295 -0.00838935 0.006367874 -0.008094968 -0.011754727 0.004982887 -0.010983171
-0.0018813895 0.0033979497 -0.010927409 -0.009271714 0.008640813 -0.00044757113 -0.002654188 0.0062693744
0.010848686 0.006425831 0.0070738615 0.009807039 -0.0046906876 0.008215032 0.0036566101 0.008348797
0.009863205 0.00068081607 0.00039847053 -0.0013816309 0.0025509747 -0.008080798 0.0060744504 -0.0004642381
-0.0008582994 0.0035744705 -0.0031404675 -0.0048459773 0.0055617117 -0.0016460451 -0.0069826497 0.0068442128
0.0016159723 0.012213847 -0.008751496 0.010727223 -0.008966372 -0.007871035 -0.0047810324 -0.0028331026
-0.0058589876 0.00095022726 0.0050923196 -0.007221227 0.0020850254 -0.008823043 0.01128057 6.848268e-05
0.004490801 -0.005167712 -0.00019569525 -0.006453765 0.0033292656 -0.0073690056 0.000982467 -0.011562088
-0.0035306774 -0.007665684 0.010131478 -0.0013141773 0.00676263 -0.009194959 0.00839162 0.005325845
-0.009221763 0.009103543 -0.0109699685 0.009067551 -0.012104829 -0.011088241 0.009058739 0.008622442
0.009275397 0.010494909 -0.0038352343 0.010329519 0.0012911349 -0.0060711615 0.0014570985 -0.010984966
0.007888333 0.00816165 -0.00010952563 0.0094145965 0.0072384877 -0.0071249176 -0.0060465415 0.008348654
-0.011240225 0.012438426 -0.0030222277 0.004081639 -0.010281838 0.0041738255 -0.0010004302 0.006070648
-0.003688604 0.007242904 0.009259828 -0.011373928 0.008684848 -0.002588322 -0.00027093766 -0.009733641
0.006350076 -0.0018980153 -0.010363117 0.008914655 0.007926229 0.009373152 0.008871622 -0.0038514633
0.004212467 -0.006135915 0.0033333693 0.009613307 0.009323851 -0.0043944074 -0.010600579 0.008082236
0.0036234045 0.01096474 -0.009022456 0.0065229973 0.0075501692 0.011607313 0.005792713 -0.0029560423
0.0037617988 -0.0034517562 0.010865618 0.005501619 -0.004646381 -0.005545921 -0.010208681 0.00042064564
0.010173172 0.00716979 0.005058493 0.007987752 -0.0032587026 0.0012380494 -0.008379996 -0.008343645
-0.004417505 -0.009905821 0.0024871046 0.009273625 0.004904593 0.0039939443 0.011761818 0.004269733
-0.0075325775 -0.0050640106 -0.00030001395 0.010432557 -0.0078105414 0.0067515657 -0.007191994 0.010227427
0.003964685 0.0012443716 -0.0018902468 0.011697661 -0.0004771953 0.005943878 -8.075038e-05 0.009835358
-0.006406933 0.0097579835 0.0058091627 -0.0066308286 0.003399444 -0.003658234 -0.0025756184 -0.0021243787
00000000: 8143 30bc 0a10 ca3b 09ab b83a 5b8e 08bc
00000010: 8f23 b9bb a1df 00bc 34a3 c4bb 102a 69ba
00000020: 057e 87bb a5ea f0ba 5f62 123c d7a7 c23b
00000030: 2876 9e3b 2b24 a7bb 2cb8 c7ba 6076 febb
00000040: d2f9 17bc 84da 41ba 3673 baba e70d de3b
00000050: 5e84 5d3a 995c 483b a080 14bc 8f16 6d3a
00000060: e15d 0fbb a8a2 98bb 1e46 223b 7144 30bb
00000070: 2752 21bc f72d 2439 31a4 103c b2ba 1ebc
00000080: af60 8eba 685b c5bb 108d 143c 76ac 323c
00000090: c222 e93b 6951 edbb 4674 a4bb a2b4 02bc
000000a0: a239 163c b93b 13bc 326c f73a a102 b3bb
000000b0: aca1 953b b8a0 0dbc 88a9 de3b c73e fdba
000000c0: a29f 353b 4ad1 133c dfb2 343b f569 0c3c
000000d0: dc84 063b ae02 a63b 145a 0d3c a271 b4bb
000000e0: 2e13 b13b d4f2 09bc 4ee2 a8bb 610c 8c3b
000000f0: 3ed6 803a bf47 133b 28f7 39bb 438e a5ba
00000100: 18db b0bb 0a20 a1bb 4cfe b53a cd19 b8bb
00000110: 5847 9fbb 087d 933b ea12 563b 8271 1dbc
00000120: 1fbe 043c 4ab5 223b 7c73 09bc 99a9 d03b
00000130: c2a0 04bc e696 40bc 7c47 a33b c2f2 33bc
00000140: f598 f6ba 23b0 5e3b e008 33bc 63e8 17bc
00000150: 3292 0d3c fba7 eab9 e3f1 2dbb 536f cd3b
00000160: b0be 313c c78f d23b dacb e73b b4ad 203c
00000170: 57b4 99bb 5798 063c bda3 6f3b 65c9 083c
00000180: 4899 213c cb78 323a cfe9 d039 d717 b5ba
00000190: 412e 273b 5365 04bc 2f0c c73b fc64 f3b9
000001a0: 7fff 60ba aa41 6a3b 4dd0 4dbb 01cb 9ebb
000001b0: 053f b63b 1cc0 d7ba b6ce e4bb 6b45 e03b
000001c0: 08cf d33a 961c 483c 6f62 0fbc 3cc1 2f3c
000001d0: b1e7 12bc 83f5 00bc 35aa 9cbb 93ab 39bb
000001e0: c0fc bfbb ac18 793a 79dd a63b 0ba0 ecbb
000001f0: eca4 083b 868e 10bc 24d2 383c 5c9e 8f38
00000200: 9227 933b e955 a9bb 8b33 4db9 1b7a d3bb
00000210: cf2f 5a3b b377 f1bb 1fc6 803a e96e 3dbc
00000220: f062 67bb 6b30 fbbb 80fe 253c 7940 acba
00000230: 0d99 dd3b 74a6 16bc 017d 093c 6d84 ae3b
00000240: e116 17bc 0727 153c 62bb 33bc 1190 143c
00000250: 5553 46bc 74ab 35bc 1b6b 143c 2545 0d3c
00000260: d6f7 173c d7f2 2b3c 8e58 7bbb 253d 293c
00000270: 4c3b a93a 98f0 c6bb 1dfc be3a 49fa 33bc
00000280: 113e 013c 71b8 053c 20b1 e5b8 ae3f 1a3c
00000290: d630 ed3b 2478 e9bb 1122 c6bb cbc8 083c
000002a0: ec28 38bc 8aca 4b3c 9110 46bb 45bf 853b
000002b0: 2775 28bc 96c4 883b de20 83ba 49ec c63b
000002c0: 82bc 71bb e255 ed3b 89b6 173c b659 3abc
000002d0: e54a 0e3c d6a0 29bb a30c 8eb9 d979 1fbc
000002e0: 4c14 d03b d3c6 f8ba 10ca 29bc c60e 123c
000002f0: 04dd 013c d991 193c 485a 113c d568 7cbb
00000300: bc08 8a3b c90f c9bb a874 5a3b 2281 1d3c
00000310: 11c3 183c f6fe 8fbb 0dae 2dbc 5b6b 043c
00000320: a476 6d3b 74a5 333c ecd2 13bc debe d53b
00000330: 6967 f73b 992c 3e3c ccd0 bd3b 29ba 41bb
00000340: 8388 763b dc36 62bb b405 323c ed46 b43b
00000350: ab40 98bb 8fba b5bb 5042 27bc 1a8a dc39
00000360: 60ad 263c 8ff0 ea3b b7c1 a53b 0fdf 023c
00000370: f58f 55bb 0b46 a23a 404c 09bc c9b3 08bc
00000380: b8c0 90bb 064c 22bc b1fe 223b 67f0 173c
00000390: b5b6 a03b a2df 823b a4b4 403c 1ee9 8b3b
000003a0: d7d3 f6bb 00f0 a5bb 314b 9db9 51ed 2a3c
000003b0: 92ef ffbb 3d3c dd3b d2aa ebbb f090 273c
000003c0: 30ea 813b 2f1a a33a 28c2 f7ba 8ca7 3f3c
000003d0: 1230 fab9 ddc4 c23b 8858 a9b8 7b24 213c
000003e0: 40f1 d1bb f3df 1f3c ca5a be3b 6c47 d9bb
000003f0: 35c9 5e3b fbbe 6fbb b5cb 28bb 2939 0bbb

action_model._continuous_distribution.log_sigma f4 [1, 5]
0.010071387 0.0008914851 0.0077490625 0.0076192413 -0.020747997
00000000: 7502 253c 8db2 693a d9eb fd3b d4aa f93b
00000010: b4f7 a9bc

action_model._continuous_distribution.mu.weight f4 [5, 256]
-0.009170261 -0.006036443 -0.0015491274 0.012640094 0.0046135094 -0.017778337 0.016655266 0.0021940093
-0.0050013606 -0.008951761 -0.026485987 0.014960419 -0.010895613 -0.0151331425 0.0039248997 0.005913063
-0.011497346 -0.013008718 0.0083363075 -0.011785326 -0.022447476 0.011499342 -0.0054372074 -0.019383479
-0.014272028 0.014562349 0.0043860697 -0.022324804 -0.00085671124 0.003057718 -0.010687478 0.009946813
-0.011089797 0.0061519425 0.004441613 -0.002333508 0.01954026 0.009739536 0.013548043 -0.0033313932
0.005490153 -0.0035679538 -0.006579415 0.014253764 -0.006923272 0.017218273 -0.011906695 0.0029018573
-0.022457877 0.005772334 -0.01128798 -0.023426872 -0.016967537 -0.008669157 0.0053330474 -0.0107138865
-0.0033209715 -0.01305165 0.024760904 0.022136081 -0.005003045 -0.018914888 -0.006948568 0.01771302
-0.0036435085 -0.015748382 0.015519689 0.00806494 0.012146516 0.011208349 0.026611894 -0.010891148
0.011400266 0.0014828093 -0.003923392 -0.0038907244 0.0077444175 -0.02342965 0.0068089985 -0.0019782935
0.02418258 0.028254682 -0.002963256 0.007594547 0.01996951 -0.017247677 0.0065145004 -0.013594208
-0.006037829 -0.0018685393 0.0128747495 -0.031422418 0.008142989 0.0065515223 0.021641467 -0.0032644887
0.0016134953 0.0064980336 0.0094623435 -0.00677154 -0.0009968479 0.008822163 -0.0018405942 0.0027662818
0.008161778 0.003879508 -0.0028646926 -0.01125839 0.021612126 -0.00071840436 0.0043807174 -0.00055417063
-0.0062355674 -0.004988287 0.011478632 0.0012636298 -0.02855061 -0.0038688967 -0.0046718214 -0.024002174
0.006194721 0.007971708 0.030245453 0.024235068 0.001361851 0.0070605637 0.002702934 -0.023204364
-0.00869776 -0.021187788 0.01663176 -0.02092627 0.015142376 0.0070456406 0.026032675 -0.007923138
0.014259707 -0.01334108 -0.002058499 -0.009905338 0.009827573 -0.024044102 -0.007674935 -0.0017026223
0.0071152323 0.0034928035 -0.007633547 -0.020117983 -0.0013496698 -0.0018240247 0.00862592 -0.0012993142
-0.017452786 -0.0018573954 0.012265355 -0.0017471258 0.007359434 -0.011734842 -0.010513169 0.01978553
0.002810882 -0.0032778694 -0.013851421 0.020765709 0.015883949 0.006934484 0.022319151 0.015227846
-0.008277695 -0.0036994326 -0.021669531 -0.021313071 -0.00978093 -0.026396802 -0.011625739 -0.011143793
-0.0129934065 -0.0003224606 0.011158488 -0.016801925 0.008588504 -0.0004251043 -0.036064662 -0.0017895971
-0.013193398 0.010144062 -6.701506e-05 -0.001750728 0.0017843406 -0.0013703725 0.0053598937 0.0019314861
-0.0018656475 -0.018108781 0.01989922 -0.0023873968 0.013871868 0.006183343 0.0142447585 0.010581856
-0.009072268 -0.0022690434 0.0036083779 0.0031832675 -0.013294453 0.0030260223 -0.018518856 -0.010648338
-0.012192476 0.011884679 -0.007793576 -0.004465046 0.0111653 -0.0054288297 0.0003757536 0.0042481627
0.009582795 0.0077537787 0.024755143 -0.009250785 0.025317525 0.008692691 -0.021278383 0.0044215634
0.007870075 0.00043680344 0.002570402 0.001936244 0.021303944 -0.0066378415 0.004665474 -0.02062063
-0.015619723 0.009741355 0.0052057533 0.0015587535 -0.020539632 0.008430465 -0.019446036 0.016114378
-0.019616777 -0.006268819 0.009539121 -0.010267993 0.017183233 0.012941809 -0.009641495 0.016299134
-0.009248434 0.01422873 0.0046312846 -0.0070375814 -0.0055492874 0.014047662 0.0106380135 0.009344952
00000000: dd3e 16bc 5bcd c5bb 170c cbba 6618 4f3c
00000010: ec2c 973b e0a3 91bc a070 883c 5ec9 0f3b
00000020: 74e2 a3bb 68aa 12bc 24f9 d8bc 8c1c 753c
00000030: 8383 32bc 00f1 77bc 729c 803b 5ec2 c13b
00000040: 5d5f 3cbc 8522 55bc 0295 083c 3d17 41bc
00000050: c5e3 b7bc bc67 3c3c 9a2a b2bb 1aca 9ebc
00000060: 39d5 69bc eb96 6e3c 05b9 8f3b 82e2 b6bc
00000070: eb94 60ba ff63 483b 881a 2fbc f5f7 223c
00000080: fbb1 35bc 3c96 c93b f38a 913b c5ed 18bb
00000090: e512 a03c 9392 1f3c 9cf8 5d3c 8153 5abb
000000a0: bee6 b33b 55d4 69bb 2298 d7bb 9f88 693c
000000b0: 9ddc e2bb 560d 8d3c 4c14 43bc 162d 3e3b
000000c0: 95f9 b7bc d925 bd3b 38f1 38bc b6e9 bfbc
000000d0: 81ff 8abc 1409 0ebc d8c0 ae3b 4c89 2fbc
000000e0: a8a4 59bb 96d6 55bc 61d7 ca3c ba56 b53c
000000f0: 95f0 a3bb 65f3 9abc d0b0 e3bb e51a 913c
00000100: eec7 6ebb c002 81bc 4b46 7e3c cf22 043c
00000110: 2e02 473c 39a3 373c 3001 da3c c970 32bc
00000120: 2ec8 3a3c d35a c23a cc8f 80bb 86fb 7ebb
00000130: e2c4 fd3b 8aef bfbc 051e df3b 42a6 01bb
00000140: 8c1a c63c 5d76 e73c 3033 42bb addb f83b
00000150: 1997 a33c 004b 8dbc 9777 d53b 3eba 5ebc
00000160: fbd8 c5bb c6e9 f4ba 9df0 523c cbb4 00bd
00000170: 2c6a 053c 27ae d63b 7249 b13c 08f1 55bb
00000180: eb7b d33a 75ed d43b f207 1b3c cbe3 ddbb
00000190: aaa8 82ba d58a 103c 1840 f1ba 824a 353b
000001a0: fab8 053c 583f 7e3b 91bd 3bbb 1c75 38bc
000001b0: ea0b b13c 4d53 3cba 1f8c 8f3b c345 11ba
000001c0: bb53 ccbb c974 a3bb df10 3c3c 61a0 a53a
000001d0: f8e2 e9bc 518d 7dbb 1416 99bb 35a0 c4bc
000001e0: 16fd ca3b c49b 023c 50c5 f73c 9f88 c63c
000001f0: 2380 b23a 4d5c e73b b523 313b 1417 bebc
00000200: 0d81 0ebc 0392 adbc 543f 883c 926d abbc
00000210: ba17 783c 1edf e63b 7a42 d53c 0dd0 01bc
00000220: 8ca1 693c 8c94 5abc e2e7 06bb 004a 22bc
00000230: d403 213c 23f8 c4bc 057e fbbb 862a dfba
00000240: e526 e93b 85e7 643b d522 fabb 78ce a4bc
00000250: 67e7 b0ba 1d14 efba bb53 0d3c c04d aaba
00000260: 25f9 8ebc d973 f3ba a1f4 483c d0ff e4ba
00000270: 6827 f13b 7f43 40bc 6d3f 2cbc 4415 a23c
00000280: c636 383b 86d1 56bb 12f1 62bc d91c aa3c
00000290: 0e1f 823c ab3a e33b a7d6 b63c 377e 793c
000002a0: 2b9f 07bc 2e72 72bb 4d84 b1bc c098 aebc
000002b0: 3240 20bc 1b3e d8bc e279 3ebc 7594 36bc
000002c0: 4ce2 54bc ee0f a9b9 17d2 363c 31a4 89bc
000002d0: ccb6 0c3c 89e0 deb9 8ab8 13bd ea90 eaba
000002e0: 1f29 58bc 4833 263c 708a 8cb8 af78 e5ba
000002f0: 89e0 e93a 129e b3ba 0ca2 af3b eb29 fd3a
00000300: be88 f4ba de58 94bc b003 a33c df75 1cbb
00000310: d546 633c a49d ca3b d962 693c 855f 2d3c
00000320: daa3 14bc 3bb4 14bb 897a 6c3b 5e9e 503b
00000330: fad0 59bc 3b50 463b dbb4 97bc 5e76 2ebc
00000340: f3c2 47bc f5b7 423c 4161 ffbb 854f 92bb
00000350: aaee 363c 53e4 b1bb cb00 c539 2c34 8b3b
00000360: 2801 1d3c 6913 fe3b 4ccb ca3c 9b90 17bc
00000370: b366 cf3c ca6b 0e3c 0150 aebc c3e2 903b
00000380: 7df1 003c c402 e539 3174 283b 91c9 fd3a
00000390: 9c85 ae3c 4082 d9bb d5e0 983b 98ec a8bc
000003a0: dee9 7fbc 349a 1f3c 0695 aa3b 174f cc3a
000003b0: bb42 a8bc ef1f 0a3c 4b4d 9fbc 4d02 843c
000003c0: 5db3 a0bc aa6a cdbb f949 1c3c 163b 28bc
000003d0: dac3 8c3c e209 543c 5cf7 1dbc c385 853c
000003e0: be86 17bc 9f1f 693c 08c2 973b 839b e6bb
000003f0: ccd6 b5bb 2a28 663c 104b 2e3c 921b 193c

action_model._continuous_distribution.mu.bias f4 [5]
0.0011697081 0.0029291492 0.004737941 -0.0038930045 -0.010846356
00000000: e450 993a f8f6 3f3b bb40 9b3b c721 7fbb
00000010: eab4 31bc

onnx::Div_71 f4 [68]
0.20828214 0.050657652 0.019096304 0.16988981 0.19977713 0.045489714 0.021009699 0.16956674
0.21449655 0.050088834 0.022337273 0.17001548 0.1969338 0.04989777 0.018587155 0.16948579
0.20672467 0.05412013 0.023590116 0.16861264 0.2005243 0.04377585 0.021903709 0.16884868
0.19990923 0.058523584 0.022337276 0.16904597 0.20647079 0.039888225 0.018587157 0.16557434
0.19422333 0.05232664 0.021461368 0.16843951 0.20587689 0.048143715 0.02054809 0.16382505
0.188994 0.04794482 0.02516351 0.16674109 0.20244302 0.049897753 0.017524473 0.1629729
0.18757696 0.04834178 0.022762561 0.16551335 0.1980057 0.050845813 0.01314423 0.16189432
0.18609945 0.045908086 0.024389533 0.16320747 0.19016545 0.044854753 0.01696816 0.16116844
0.18762441 0.05122008 0.022762563 0.16238837
00000000: ea47 553e 667e 4f3d da6f 9c3c 98f7 2d3e
00000010: 6092 4c3e 6c53 3a3d 881c ac3c e7a2 2d3e
00000020: fca4 5b3e f329 4d3d a8fc b63c 8a18 2e3e
00000030: 04a9 493e 9b61 4c3d 1744 983c af8d 2d3e
00000040: a2af 533e 12ad 5d3d 0f40 c13c cba8 2c3e
00000050: 3e56 4d3e 4e4e 333d 686f b33c abe6 2c3e
00000060: 01b5 4c3e 6db6 6f3d aafc b63c 631a 2d3e
00000070: 146d 533e d661 233d 1844 983c 528c 293e
00000080: 7be2 463e 7554 563d c0cf af3c 687b 2c3e
00000090: 64d1 523e 5832 453d 7854 a83c c1c1 273e
000000a0: a587 413e ca61 443d b523 ce3c 2dbe 2a3e
000000b0: 394d 4f3e 9661 4c3d 7c8f 8f3c 5ee2 263e
000000c0: 2d14 403e 0802 463d 8d78 ba3c 557c 293e
000000d0: 02c2 4a3e b343 503d e55a 573c a0c7 253e
000000e0: db90 3e3e 1e0a 3c3d 8fcc c73c dc1f 273e
000000f0: bbba 423e 9eb9 373d d000 8b3c 5709 253e
00000100: 9d20 403e 26cc 513d 8e78 ba3c 2349 263e

onnx::Div_74 f4 [20]
0.49553907 0.030969081 0.2216662 0.2582806 0.49717364 0.029053254 0.21829589 0.2578715
0.49601707 0.032479085 0.22822183 0.26179114 0.49953276 0.02554169 0.22116084 0.26084578
0.49911842 0.031276938 0.23393215 0.2661841
00000000: 4cb7 fd3e dfb2 fd3c 77fc 623e 5b3d 843e
00000010: 8b8d fe3e 1701 ee3c f588 5f3e bc07 843e
00000020: f3f5 fd3e ca08 053d fcb2 693e 7d09 863e
00000030: c2c2 ff3e ce3c d13c fd77 623e 948d 853e
00000040: 738c ff3e 3f1c 003d e98b 6f3e 4849 883e

onnx::Div_77 f4 [5]
17.87456 1.4128819 6.6825967 1.071727 0.49978343
00000000: 19ff 8e41 50d9 b43f d5d7 d540 5a2e 893f
00000010: 9de3 ff3e
