Assets/results/4/CoinChaser/CoinChaser-999983.onnx (onnx, 439515 bytes, 13 tensors)

network_body.observation_encoder.processors.0.normalizer.running_mean f4 [100]
00000000: 06bf 743f b406 f63b 9b3b c73a fce5 843e
00000010: 6002 763f ea55 dc3b c193 c63a 8209 843e
00000020: f18b 733f 082c 043c 4911 c93a 9f1d 853e
00000030: 4b1b 773f 840d c63b 3972 c63a cc9a 823e
00000040: 2a97 723f af87 083c ead6 c63a e5e8 843e
00000050: a8cb 773f d66b b83b 5959 c43a 0a92 803e
00000060: 91fc 713f 2316 0a3c 83b1 c33a 4556 843e
00000070: 9d49 783f b415 ab3b 82ca c53a 3f4b 7c3e
00000080: 37bf 713f a6a9 053c 0306 c03a b578 833e
00000090: 6a8a 783f eeae 9b3b 4ce3 c73a fff5 763e
000000a0: a6c7 713f 9722 ff3b 438c c03a 3565 823e
000000b0: d9ac 783f 9908 913b 7740 c23a 225b 713e
000000c0: ce14 723f 9814 ed3b 41e8 c23a 8945 813e
000000d0: 6cc4 783f daa1 813b c937 c43a a9be 6b3e
000000e0: caaa 723f 7531 d33b faeb c53a 092d 803e
000000f0: 1eeb 783f 63da 683b 6e6e c33a a040 663e
00000100: 0c66 733f 4ae9 ba3b e1d6 c63a 2986 7e3e
00000110: 8207 793f a580 563b ec4c c33a ced6 603e
00000120: a91d 743f f20c ad3b f0a8 c53a 21da 7c3e
00000130: fd34 793f 9d27 403b 8fdf c43a 6bb4 5b3e
00000140: d1d1 743f 3f94 a53b 3a44 c53a 6974 7b3e
00000150: 5972 793f 2c21 323b 0362 c23a 2b1b 573e
00000160: a47e 753f d8a1 9e3b 2f2f c63a e750 7a3e
00000170: 14a5 793f 019b 313b 65fd c13a 3120 533e
00000180: 691b 763f c474 973b cf09 c33a d969 793e
0.9560398 0.0075081233 0.0015200259 0.25956714 0.96097374 0.006724109 0.0015150235 0.25788504
0.9513541 0.0080671385 0.0015340234 0.25999162 0.9652602 0.0060440917 0.0015140242 0.25508726
0.9476191 0.008333131 0.001517025 0.25958934 0.9679513 0.0056280894 0.0014980241 0.2511142
0.9452601 0.008428129 0.0014930222 0.25847068 0.96987325 0.005221093 0.0015090259 0.24638079
0.94432396 0.008158123 0.0014650229 0.2567803 0.97086203 0.004751078 0.0015250235 0.24117278
0.94445264 0.007786106 0.0014690239 0.2546784 0.97138745 0.0044260737 0.0014820237 0.2356992
0.94562995 0.007235121 0.0014870242 0.25248364 0.97174716 0.003956062 0.0014970239 0.2302195
0.94791853 0.0064451047 0.0015100234 0.2503436 0.9723376 0.003553056 0.001491023 0.2248559
0.95077586 0.0057040798 0.001517024 0.24855866 0.9727708 0.0032730487 0.0014900244 0.21956941
0.9535776 0.005281084 0.0015080255 0.24692585 0.9734648 0.0029320486 0.0015020239 0.21455543
0.95632654 0.0050530727 0.001505024 0.24556126 0.97440106 0.0027180417 0.0014830235 0.21006458
0.95896363 0.0048410706 0.0015120263 0.24444924 0.97517514 0.0027100446 0.0014800249 0.20617749
0.96135575 0.004622074 0.0014880243 0.24356784

network_body.observation_encoder.processors.1.normalizer.running_mean f4 [52]
00000000: 87f5 e63e fd9c 403b f5e7 c43d 8371 dc3e
00000010: 92c6 e83e bf63 363b f10b c33d 0955 dc3e
00000020: 34a4 e53e 37fc 493b 3147 c63d 867b dc3e
00000030: 9f1b eb3e 63fc 2a3b d925 c13d cd3e dc3e
00000040: e0d1 e43e bf5f 523b 7cfc c73d fca2 dc3e
00000050: 51e0 ed3e c1f1 1d3b e400 bf3d cf23 dc3e
00000060: 72a1 e43e 7ab2 5a3b 681c c93d b7d1 dc3e
00000070: 1c32 f13e e4c4 143b 5420 bc3d bdf8 db3e
00000080: c225 e53e cea4 613b 7c6a c93d 5d19 dd3e
00000090: 2d12 f53e 1cce 0e3b a7ff b83d 7cbc db3e
000000a0: ad46 e63e 2361 653b 0c43 ca3d 256c dd3e
000000b0: da1f f93e 1223 073b ceed b53d 73a1 db3e
000000c0: c6d6 e73e b00c 693b 806d ca3d e8e3 dd3e
0.45109197 0.0029390447 0.09614555 0.43055353 0.45463997 0.002783045 0.09523762 0.43033627
0.4485184 0.0030820498 0.096815474 0.4306299 0.4591951 0.0026090376 0.09431047 0.43016663
0.44691372 0.0032100526 0.097649544 0.43093097 0.46460202 0.0024100395 0.09326342 0.4299607
0.44654423 0.003337054 0.09819871 0.4312875 0.47108543 0.0022700364 0.091858536 0.4296321
0.4475537 0.0034430507 0.098347634 0.43183413 0.4786543 0.0021790331 0.09033137 0.4291724
0.44975796 0.0035000525 0.098760694 0.4324657 0.48657113 0.0020620269 0.08883248 0.42896613
0.45281047 0.003556054 0.09884167 0.4333794

network_body.observation_encoder.processors.2.normalizer.running_mean f4 [5]
00000000: e836 09bf 5224 39c1 ee14 9ebf 28ca 813f
00000010: ed32 8e3e
-0.53599405 -11.571367 -1.2350137 1.0139818 0.27773228

network_body._body_endoder.seq_layers.0.weight f4 [256, 157]
00000000: 2410 73bd 9591 513d 0010 d0bc f43f 9ebd
00000010: ab13 1a3e 0d3d 283e 33f6 9cbd 00d3 a5bd
00000020: d91f 9e3c 585a a43b 76b2 18bd 70c7 82bd
00000030: 7e63 20bd cc62 8fbb 407f c0bd 8295 4b3d
00000040: d503 71bc 12e5 1d3e 80e0 6c3a b6bf 54bb
00000050: c5d1 153d ae2e cb3b ee07 63bd c340 bb3c
00000060: c7e3 553d 6f83 43bd 5da0 b8bd b527 55bd
00000070: e339 cf3d ff62 2cbd 8b5b 853d 9ae5 7abd
00000080: 6bed c73d f028 6bbc c40c 3bbe f7f0 2cbe
00000090: d33c 4dbd 2183 863d 8ead 71bd ed0f a13c
000000a0: 1641 54bd c91c 44bc 6368 fc3c 6524 253d
000000b0: 4e8f 97bd 276c a8bd 971a a83c f054 223c
000000c0: 9718 dc3b ba51 0f3d c2ac b9bd c2e8 96bd
000000d0: 21b4 ad3d 8e27 0ebd 901d f93c a885 b73d
000000e0: 743b 5cbc 2402 073d 9f1b ac3d ed03 02bd
000000f0: 9a9b 87bb acb7 4fbd 51ae 44be 9805 1c3e
00000100: d267 57bd b1a5 723e 9aac c1bd e83e 8c3d
00000110: 21ab c2bc 6462 2e3d 1091 1dbd 5e26 3d3e
00000120: b934 9a3d aa22 bb3d a2f6 173e 2b85 b4bd
00000130: 5a4d 103c e361 e53c ecc6 263d 6b21 4a3d
00000140: 2ab9 1a3c b57a debc d876 36bd 9885 5f3d
00000150: 6e33 f3bd cd1e db3d 24b1 acbd b9aa dc3d
00000160: 1d40 3bbd 5f87 353b 9e83 20bc 7a45 ddbd
00000170: 4639 0dbd f3ae 1c3d ee51 35bd 309e 953d
00000180: b0a0 e33d 03d7 6a3d e5b3 71bd 67c8 803d
00000190: 06fc ffbc 0517 8c3d 1008 a9bc abd0 6a3d
000001a0: a00c 1bbe f7e9 333e 4564 813d 7735 13be
000001b0: 4921 d33b 4b67 a03d e4f6 f3b8 5eaa 843d
000001c0: 9852 6a3d 0473 c0bc 36da 1c3d e3fe c93d
000001d0: 74ba 793d 4a52 053e 19d8 cc3d 225a 01ba
000001e0: 61a6 44bd b17a 023e 3ea8 52bd 10ae e5bd
000001f0: ca1f c33c 58e1 d8bd 6539 313e c491 d53d
00000200: 6be2 bdbd f1da 1d3d 1293 d6bc f10b 84bd
00000210: dc54 3cbd 96d8 27bd bcae a23d 16f0 c2bd
00000220: 8d3f c6bc aa6f 613c 00e0 48bb 006a 683c
00000230: 049e 983d 63ef 573d 8252 34be decf c53b
00000240: 0bd1 c7bc 06fb 85bc 75cd 24be f8d4 a5bd
00000250: bb45 e43c 3b54 733d 4111 933d d2e6 c23d
00000260: 33f6 9cbc c3d8 babb 4209 eebc 0a30 393d
00000270: 9136 e03d 6fc1 a23d e2ce 063d 1fe5 9cbd
00000280: 9863 f3bd 58ad 233e a025 c33c 7450 50be
00000290: c919 20be 74c1 e63d da73 c1bb dbf0 cebc
000002a0: 2440 51bc 1c62 60bd d0bd 9bbb 310f c33c
000002b0: 0926 543d 2f56 da3d af10 5d3d 6ae2 09bd
000002c0: ec6e 0dbd 51c6 863d eaed ca3b 0555 cc3c
000002d0: 7157 ca3d 6a2c 75bd 2917 0c3e ad4a 1ebd
000002e0: ae3d 5e3c dc51 7dbe a475 d23c 0ec8 74bd
000002f0: 6499 c6bd d409 583c a058 3d3d e366 af3c
00000300: 23f8 a63d 4bc8 263d a1c8 44bb 3a7f cfbd
00000310: f393 85bd c350 873d 5bd2 1ebe 97f3 31bc
00000320: de5d 54bc cf23 043e e578 913b 721d 6e3d
00000330: e2fa 6b3d 841e a5bd 2296 973d a98b a53d
00000340: c4d8 efbd 59e5 87bd 27c6 6a3d 0dd8 1bbd
00000350: 3b25 563d bd22 cd3d 56a2 4b3d f276 ffbd
00000360: d011 f13d 6873 8f3d c954 383e 7043 0dbd
00000370: 02e3 3a3e da94 343d b185 94bd 3324 6dbc
00000380: 6540 f93d 56f2 87bd d833 3e3e 5a5c 233e
00000390: 90fb aa3d 85f1 a43b 5957 8a3d e964 9e3d
000003a0: bdba d13d ee2a 843d 7350 433d dc53 a33b
000003b0: 37cd 0f3e 0cd9 e73d b2c1 36bd 5a11 86bc
000003c0: e63c 273e 7ca2 36be 4b03 30bd 6be3 943d
000003d0: e3ad 83bc 6966 563c 465d 99bc 6f4b d63c
000003e0: 5650 753e 81bd 633d 8f87 85bd ced7 013d
000003f0: 5dfe d5bc 60c4 d93d 99fe a6bd 0478 813d
-0.059341565 0.05116423 -0.025398254 -0.07727042 0.15046565 0.16429539 -0.07664146 -0.08096886
0.019302296 0.0050156526 -0.03727957 -0.06385696 -0.039157383 -0.004375791 -0.09399271 0.04970313
-0.014710386 0.15419415 0.00090361387 -0.0032462901 0.036577005 0.006200633 -0.055427484 0.02285803
0.05221918 -0.047732767 -0.09014962 -0.05203982 0.10118463 -0.042086598 0.06511601 -0.06125412
0.09762081 -0.014353022 -0.18266588 -0.16888796 -0.050106835 0.065679796 -0.059003405 0.019660914
-0.051819883 -0.011969754 0.030811494 0.04031791 -0.0740038 -0.082237534 0.020520492 0.009907946
0.0067167985 0.03499005 -0.09066154 -0.07368614 0.084816225 -0.03470569 0.030409604 0.0896104
-0.013441909 0.032961026 0.08403706 -0.031742025 -0.004138422 -0.050712273 -0.19207121 0.15236509
-0.052589245 0.23696019 -0.09456749 0.06847936 -0.023763241 0.0425743 -0.03846842 0.18471667
0.07529587 0.09137471 0.14840177 -0.08814462 0.008807505 0.028000778 0.04071705 0.049348276
0.009443561 -0.02715812 -0.044546932 0.054570764 -0.11875044 0.10699234 -0.084322244 0.1077475
-0.04571544 0.0027699096 -0.009797005 -0.10804267 -0.03447845 0.038252782 -0.044267587 0.073055625
0.11114633 0.057333957 -0.05900945 0.06288224 -0.031248104 0.06840328 -0.020633727 0.057327908
-0.15141535 0.1756972 0.06317953 -0.14375864 0.006443177 0.078322016 -0.0001163313 0.064778075
0.057207674 -0.023492344 0.03829404 0.09863069 0.06096883 0.13019672 0.10002155 -0.00049343903
-0.048010234 0.12742116 -0.05142998 -0.112148404 0.02381887 -0.10589856 0.1730705 0.10428193
-0.092717014 0.038538877 -0.026193175 -0.0644759 -0.045979366 -0.040978037 0.07943484 -0.09518449
-0.024200225 0.013759533 -0.0030651093 0.014185429 0.07452014 0.05271853 -0.17609599 0.0060367426
-0.024391672 -0.016355049 -0.16094 -0.08097261 0.027865281 0.0594065 0.07181025 0.09516682
-0.019160366 -0.0057021095 -0.029057149 0.04521183 0.10947908 0.07947051 0.032912143 -0.07660889
-0.118842304 0.15984094 0.023821652 -0.2034319 -0.15634836 0.11267367 -0.005903703 -0.025261333
-0.01277164 -0.054781064 -0.004752852 0.023810955 0.051794086 0.106609695 0.05397099 -0.03366319
-0.03452961 0.065807946 0.0061929123 0.024942884 0.098799594 -0.05985681 0.1368071 -0.038645435
0.01356451 -0.24738258 0.025690861 -0.0597611 -0.09697226 0.013185937 0.046227098 0.021411365
0.08152797 0.040718358 -0.003002681 -0.101316884 -0.0652236 0.06607201 -0.15509932 -0.010861299
-0.012961833 0.12904285 0.0044394606 0.05813355 0.057612307 -0.08062461 0.074016824 0.08083279
-0.11711267 -0.066355415 0.05731788 -0.03804784 0.0522816 0.100163914 0.049715362 -0.12473859
0.117709756 0.07004434 0.18001093 -0.03448814 0.18250659 0.04408727 -0.07252062 -0.014473963
0.121704854 -0.06638019 0.18574464 0.15953198 0.08348763 0.005033674 0.067549415 0.07734091
0.102406956 0.06453501 0.047684144 0.004984362 0.14043127 0.11320695 -0.044618316 -0.016365696
0.16331825 -0.1783542 -0.04297189 0.07269939 -0.016074127 0.01308594 -0.018721234 0.026159016
0.23956427 0.055600647 -0.065199964 0.031699948 -0.026122266 0.10633159 -0.081540294 0.06321719

network_body._body_endoder.seq_layers.0.bias f4 [256]
00000000: d89e e3bb 60bf a43b 08fc a7ba a188 473c
00000010: 6e38 aa3c cb52 d0bb c142 f53c 069c 243b
00000020: b20a 9d3c 22d0 303d 589e 193c ee46 b03c
00000030: ba50 ec3c b60f e73b 2eb6 6c3a 64f2 e23b
00000040: 6659 89bb 6526 843b 09ce b43b e6d3 acbb
00000050: 889d 93bc 2bb3 4bbc 0ce5 1fbd 72aa 143c
00000060: 87c4 933c 922f bd3c e73b 353c f2f3 7e3c
00000070: 7f56 403c 9508 5cbc 4116 693c 77d4 0abd
00000080: 1679 4a3c 58fc 70bc 587d 3e3d aab1 363d
00000090: 4a1d 40bc c68c 2abc 797b 21bd ff2e 033d
000000a0: 0237 a63c eb7c 353c dd9f c939 d569 b13c
000000b0: de53 143c 8f9f 093d 50e6 753c aac1 1f3d
000000c0: e2f6 2fbd c749 003c 05c4 473a 028f c2bb
000000d0: 088e c63b 95a4 d5bc 0a7e 073c c750 d13b
000000e0: fd5f 9c3c 83b5 acba 4882 b53b accf a039
000000f0: f532 013d 3c78 5e3c 9088 773d 746f 103d
00000100: bb89 a23c be6f f33c 8534 883c 9202 4bbc
00000110: 39a5 b73c 7c78 983b 74e1 20bb b318 7ebc
00000120: 7ad3 b13a e6c4 153d fcc8 d93c abac 1e3a
00000130: 7603 193c 55e0 7b3b 5162 31bb a7db ffba
00000140: 00f1 4abc c248 313c baff 093b f1d8 b1bb
00000150: 58a8 cc3c c6c6 2dbb 859b 6bbc 3303 bb3c
00000160: 69f0 1d3d ee38 023d 746c 9d3b 154a ac3b
00000170: 708c fa3a 0536 a23b bff9 55bb 5a20 1a3c
00000180: 3420 1c3b e537 25bd 22dc d2bc d103 88bc
00000190: 6119 493d 3bfe 493c 6242 e6bc cbbf 0cbc
000001a0: 6a8c 09bd 5661 da3c 63c5 383a f6fb c5bb
000001b0: e0d5 b03c 69b3 ee3c 3293 aabc 6a05 373d
000001c0: 7443 caba a34f cebc 7e57 4b3c af68 313d
000001d0: 8aff 563b 104e 9abb dd52 613d 3f62 073d
000001e0: d100 c4bc b6f8 883c c7f9 77bb d490 29bd
000001f0: 4866 653c 7a7f 003d 2b87 1c3c 5f2a c63c
00000200: 3c75 24bc 950e c63b 6803 ba3c 6849 d63c
00000210: 2f06 af3c a696 c23c f3e3 8bbc 3fb5 7abb
00000220: 17e9 be3c b44b e13c ecd4 5f3c 1616 babb
00000230: a83c 3f3d acd0 193d a400 5dbc ac14 aebc
00000240: 4aba 8cbc 2067 50bc 499f 253c 1ac6 9b3c
00000250: 30a3 12bc 1c03 41bc 600f c8bc b29c 513d
00000260: 2bcf 55bb 4d30 a5bc c086 ecbb c537 a83c
00000270: cae7 db3c 1134 f7bc 2270 483c 76f1 a5bb
00000280: d7c3 12bc f9db 943c b172 3a3b 3155 ff3c
00000290: 988e 14bd 2cee 8a3c 8337 9a3c 769a 6fbc
000002a0: 6b85 8ebb 4a86 823c b8e5 21bc fffc 0a3c
000002b0: 3354 91bc ad63 36bc 3ec6 13bc 5fc1 433b
000002c0: c3e7 7c3b c1ef 173b 4428 c23c 2763 193c
000002d0: c6d7 57bc 100d 163d 9882 d0bc fc95 8b3c
000002e0: 7a14 8dbb eb7f 9abc fba0 bcbc 385a 1bbd
000002f0: 7d0c 42ba e3cb 953c 1f8f e2bb a435 57bb
00000300: 86ac bebc 41ab 013d 5ca8 013d 90eb e83c
00000310: dc84 75bc 3e8d 45bc 9724 803c ffad 093d
00000320: 170e dfbb 3fb1 9d3c 1716 e63c 1081 643b
00000330: a950 c1bc e330 02ba 6aae f33c 2acb f03b
00000340: ddcf 113c 2ed3 f1bc fcea d63c eed1 033c
00000350: 6174 ccbb bfb2 2e3c 1b9c 06bb 1e5d f83c
00000360: d3fa 113d 65ea 85bc 9e60 61bc 9c7b 9d3c
00000370: 48ae 183d 80d6 973c 09f8 97bc 1fce 42bb
00000380: 3c52 02bd 35fd fe3c 83f0 9bbc a1c8 743b
00000390: b7c2 163d 6392 563d 4be4 1cbb e702 36bb
000003a0: ca46 19bd 9f4d 413b db9d 433d dade b73c
000003b0: ca30 3dbc 347d dbbc 7160 b13c ab6b eabb
000003c0: 3bf2 0d3d 3eca 27bc 555d 4d3b b234 37bb
000003d0: f7f0 583b 1e45 073c 0e7d a0bc b9d6 dd3b
000003e0: 3e8b 1e3c 8e6d 9fbc 7efa c4bb af8f cbb9
000003f0: b4cd 1d3b b5a7 e53c a777 673d bb50 72bb
-0.006946426 0.0050276965 -0.00128162 0.012178571 0.02077886 -0.006357526 0.029939057 0.0025117411
0.019170139 0.04316724 0.009376131 0.021518197 0.028847087 0.0070514334 0.00090298324 0.006925868
-0.0041915653 0.0040328973 0.0055177254 -0.0052742837 -0.018019453 -0.012432854 -0.039036795 0.00907384
0.018038047 0.023093972 0.011061645 0.015561091 0.011739372 -0.0134297805 0.014226497 -0.03389403
0.012357971 -0.014708601 0.046506256 0.044603027 -0.011725733 -0.01040954 -0.039424393 0.03202724
0.020289902 0.011077146 0.00038456815 0.02165691 0.009053199 0.033599433 0.015008524 0.03900305
-0.042960055 0.00783009 0.0007620457 -0.005937458 0.006059412 -0.026079455 0.008269796 0.0063878032
0.01908874 -0.0013176653 0.0055392124 0.00030672306 0.031542737 0.013578471 0.06043297 0.03526254
0.019841066 0.029716369 0.016626606 -0.0123907495 0.022417651 0.0046530347 -0.0024548443 -0.015508818
0.0013567053 0.03656473 0.026585095 0.0006052951 0.009339204 0.0038433273 -0.0027066658 -0.0019520418
-0.01238656 0.0108205695 0.0021056966 -0.0054274728 0.024982616 -0.0026516183 -0.01438034 0.022828674
0.03855935 0.031792574 0.0048041884 0.0052578547 0.001911534 0.0049502873 -0.003265008 0.009407127
0.0023822905 -0.04033651 -0.025739733 -0.016603382 0.04909647 0.01232868 -0.028107826 -0.008590649
-0.033581175 0.026657742 0.0007048456 -0.006041999 0.021586359 0.029138284 -0.020822141 0.044682898
-0.001543148 -0.025184458 0.0124109965 0.043312725 0.0032806122 -0.004709013 0.055010665 0.03305268
-0.02392617 0.016720157 -0.0037838088 -0.041397884 0.0140014365 0.03137157 0.009553711 0.024190126
-0.0100377165 0.006044219 0.022706702 0.02615805 0.021365253 0.023753475 -0.017076468 -0.0038255004
0.023304505 0.027501918 0.013661604 -0.0056789024 0.046688706 0.03755252 -0.013488922 -0.021250091
-0.017178673 -0.012719899 0.010108777 0.01901536 -0.00895004 -0.0117805265 -0.024421394 0.051174827
-0.0032624702 -0.020164633 -0.007218212 0.020534405 0.026843924 -0.030176194 0.012233766 -0.005064185
-0.008957825 0.018171297 0.002844971 0.031168552 -0.0362688 0.016959272 0.018825298 -0.014624229
-0.0043494008 0.015933175 -0.009881429 0.0084831705 -0.017740345 -0.011132163 -0.009019433 0.0029869897
0.003859029 0.0023183676 0.02370084 0.009362019 -0.013174003 0.03663355 -0.025452897 0.017039292
-0.0043054195 -0.018859824 -0.02302598 -0.037927836 -0.00074023736 0.018285697 -0.006914034 -0.0032838369
-0.023275625 0.03165746 0.0316547 0.028432637 -0.014985289 -0.012057601 0.015642447 0.0336132
-0.0068070996 0.019249557 0.028086705 0.0034866966 -0.023598032 -0.0004966391 0.029746253 0.007348438
0.008899656 -0.029519644 0.026235096 0.008045657 -0.0062394594 0.010662734 -0.0020539823 0.03031784
0.035639595 -0.01634712 -0.0137559455 0.01922398 0.037275583 0.018534899 -0.01855089 -0.0029724909
-0.031816706 0.031126598 -0.019035583 0.003735103 0.03680679 0.0523857 -0.0023939784 -0.0027772726
-0.037421025 0.0029495729 0.047757965 0.022445131 -0.011547277 -0.0267931 0.021652432 -0.0071539483
0.034654837 -0.010241089 0.0031336148 -0.0027954993 0.003310261 0.008256225 -0.01959088 0.0067699817
0.009676753 -0.01946142 -0.0060113063 -0.0003882623 0.0024078907 0.02803407 0.056510594 -0.0036974389

network_body._body_endoder.seq_layers.2.weight f4 [256, 256]
00000000: 88a3 143d 98d2 07bd 3ba3 08be 432e 29bc
00000010: 8e4c 2fbb fc7d f83c 0bd2 fabd 8456 e03b
00000020: d880 e33d 2132 70bd 1ddd e03c ebd3 8e3a
00000030: d106 233c 4552 1c3d 87e0 5bbd f0aa 353c
00000040: 9065 543d 1b71 073d 6dbc b93d 2a4f 923c
00000050: 212f 3f3c 7768 ba3c b64c 9b3d 2b62 0a3d
00000060: a12e 2cbd b273 c13d f1c2 7bba ed8a 233c
00000070: aa21 afbc da3a d43d c5c2 f9bc 4d9b 9cbd
00000080: ccb8 edbc 317d b4bd c050 663d d5fd ad3d
00000090: 6985 993c eb3f 95bc bd21 28bc a1cf 023e
000000a0: a5f6 ba3d 0309 88bc 8278 b83c e3de 8bbc
000000b0: 041b 06be 2f02 32bd 1859 ccbd c391 593d
000000c0: f854 5dbd 9a24 cb3c 9796 abbd 1416 ef3c
000000d0: c26e a83d ad67 323d 0507 86bd 9856 2fbc
000000e0: dd3e 4e3d dfcf 3abd 54a6 5ebd f1af 153d
000000f0: 5c5b 563c 5923 ad3a 16cd 1dbc 711e 913d
00000100: 27fc c03d 4fec 67bd 85d2 74bd 92aa e23b
00000110: be51 a73d 66ca d13d a74d 17be a8f4 1c3d
00000120: b745 d93c f0cd ee3d d008 723d b18a 5a3c
00000130: 2b82 3f3c 8da8 163e e5ff 763d afff 6b3d
00000140: da82 ebbc b5fd a4bd d0da 883d 9caf 9f3d
00000150: 3d8a 88bd 4eae 3cbc 18be 8c3d 9ece 5ebd
00000160: ec5a 35bc 21ed 00bd 7b7e 763d 177a 273d
00000170: d32a 52bd fe0c 83bd b279 d93c ee97 ad3c
00000180: ac79 49bc 1a4f fbbd 585f 17bc 0f19 f8bc
00000190: a6f3 e2bc 6320 9bbd d0e0 b6bd 3c90 7f3d
000001a0: 5537 593d 35b9 47bd f5e6 debd b030 893c
000001b0: 46fb 0ebd b386 06bc d448 973d e520 29bd
000001c0: eaf0 3b3d d527 c6bd 9112 91bd 7549 933d
000001d0: 2915 333a fb1c 8abd 6de8 093e 05de cfbd
000001e0: 2069 db3a 9208 3fbb 78d5 703a 23e0 96bd
000001f0: fe0b 8ebd 0357 cc3d 0005 5c3c ad3a 56bd
00000200: 21df 0b3d f94a 7bbd 9537 c33d 491c 61bd
00000210: 307b e73b 0c16 99bd 171b 87bd 1204 2a3c
00000220: 0b82 983c 212c 113e 59c7 0a3e 235a febc
00000230: 3c79 70bb b4ad fdbd 4702 b2bc 4585 02be
00000240: dec2 1abe 2d33 d1bc 7f15 a1bd db39 823c
00000250: 77fb 06be aabf c3bd a4a0 4b3c ad0d d6bd
00000260: 6084 2d3d 73b5 f4bd c86f b83c 8c6f f5bd
00000270: 54d8 55bd 7b39 dabd ccd5 4d3d 2179 663d
00000280: 6ba6 8f3d 4624 343d cfd3 b7ba d135 043d
00000290: d1d7 54ba 47c5 183d d211 c8bd f69a 49bb
000002a0: 83c8 963c 78dd 0d3d b473 58bd fde4 d3bd
000002b0: edf2 f53c 014c c53c 2bae 043d cbd6 063d
000002c0: 7791 49bd 720c 48bd 2739 f63d add0 8dbc
000002d0: 1e85 5fbc 66d9 a23c b215 1bbd cafb b7bd
000002e0: 5cfb 423d 2202 d0bc 41e4 e0bd a8f5 24bd
000002f0: 1783 fe3d 4781 e6bd 5f40 8b3c aa3b d63b
00000300: 6c7e 0a3d 909d 79bb 0559 8f3d 787a 053d
00000310: cd15 15bd b99f 193d f56a d0bc 2b51 243c
00000320: aacf 8ebc 257a 613d 4d45 feba ab5d 0d3e
00000330: 5e10 65bd c95a fabb 65ac 8abd 44a1 cf3d
00000340: 518f bd3c 55ba 943d c87f 663d d297 9d3d
00000350: eced a3bd 9ef1 f33c d61c 04bc 34f4 3b3d
00000360: d4c9 f5bc b1a0 bdbc c0b9 0d3b fa5b af3d
00000370: 9229 a33d f121 4f3d 510c 83ba 6801 4f3d
00000380: 7e6a 11bd 1e62 ae3c 938b 32bc d845 043d
00000390: 0f8c dabc 1844 a63d 9d7d 12be 8085 93bc
000003a0: 7517 87bc 6dd9 12bd 9f66 e2bc 9936 e93c
000003b0: eedd c13d 5184 06be e735 53bd c8f5 203d
000003c0: ebbc d23d 5342 df3d 6ea8 32b9 cfc9 89bc
000003d0: 28f1 e63c e3dd 51bd c6cc 1fbc c252 2b3d
000003e0: cc05 843d e21c 3e3b 9012 dfbd 41f2 7dbb
000003f0: 6302 babc 69d9 1dbd df98 dd3d 8f33 043d
0.036288768 -0.033159822 -0.13343517 -0.010325971 -0.002674851 0.030333512 -0.12247094 0.006846251
0.11108559 -0.058641557 0.027449185 0.0010896897 0.009950356 0.038164396 -0.053680923 0.011088118
0.05185467 0.03306685 0.090691425 0.017860014 0.011668951 0.02275489 0.07582991 0.033785027
-0.042036656 0.09445895 -0.00096039387 0.009981853 -0.021378357 0.103627875 -0.030488381 -0.07646809
-0.029018782 -0.08812941 0.056229353 0.0849568 0.018740373 -0.018218955 -0.01026195 0.12774517
0.09129075 -0.01660586 0.0225184 -0.017074054 -0.13096243 -0.043459114 -0.09977931 0.053117525
-0.05403611 0.024797726 -0.08378332 0.029185332 0.082242504 0.043555904 -0.065443076 -0.010701798
0.05035292 -0.045608398 -0.05435784 0.036544744 0.013083305 0.0013209387 -0.009631416 0.07085884
0.09423094 -0.056621846 -0.05977108 0.006917306 0.08169888 0.102436826 -0.14775716 0.03831926
0.0265225 0.11660373 0.059090436 0.013338731 0.011688749 0.14712735 0.060302634 0.057616886
-0.028748918 -0.08056203 0.0668236 0.07797167 -0.06666992 -0.011516167 0.06872195 -0.054396264
-0.011069041 -0.031476144 0.060179215 0.04088792 -0.05131037 -0.063989624 0.026547287 0.02119061
-0.012297075 -0.12270947 -0.00923904 -0.030285386 -0.027704071 -0.07574537 -0.08929598 0.062393412
0.053031284 -0.04876061 -0.10883895 0.016746849 -0.0349076 -0.008210826 0.07386938 -0.041291136
0.04588405 -0.09675566 -0.070836194 0.07191745 0.0006831461 -0.06743809 0.1346757 -0.10149769
0.0016739704 -0.0029149395 0.0009187083 -0.073669694 -0.06935881 0.09977534 0.0134289265 -0.05230205
0.03414834 -0.061350796 0.09532086 -0.054958615 0.0070642456 -0.07474908 -0.06596964 0.010376947
0.018616697 0.1417699 0.13552608 -0.03104884 -0.0036693355 -0.12386647 -0.021729602 -0.12746151
-0.15113398 -0.025537098 -0.07865428 0.015896728 -0.13181864 -0.095580414 0.012428436 -0.10451827
0.04236257 -0.11948671 0.022514239 -0.119841665 -0.05220826 -0.10655495 0.05025272 0.05626786
0.070141636 0.043979906 -0.0014024916 0.032277886 -0.00081193174 0.037297513 -0.09769024 -0.003076253
0.018406158 0.034635037 -0.052844718 -0.103464104 0.030023063 0.024084093 0.032392662 0.032919686
-0.04921099 -0.048839994 0.1202262 -0.017311418 -0.013642577 0.019879054 -0.037862487 -0.08983572
0.047602996 -0.025391642 -0.10981036 -0.04027334 0.12427347 -0.112551264 0.016998468 0.006537874
0.03381197 -0.00380883 0.06999401 0.0325875 -0.036397744 0.03750584 -0.025441626 0.010029118
-0.017433006 0.055048127 -0.0019399315 0.13805263 -0.055923812 -0.007640217 -0.06771163 0.10138181
0.023139628 0.072621025 0.056274205 0.07694973 -0.08004364 0.029778298 -0.008063516 0.045887187
-0.030003466 -0.023147913 0.0021625608 0.08562465 0.07966913 0.05056948 -0.0009998177 0.05053845
-0.03550195 0.02128702 -0.010897535 0.03229317 -0.026678113 0.081184566 -0.1430573 -0.018007994
-0.016490677 -0.035851885 -0.027636824 0.028468417 0.09466158 -0.13136412 -0.051565077 0.039296895
0.102899395 0.10901322 -0.00017038148 -0.016819863 0.028191164 -0.051237 -0.009753412 0.04182697
0.06446418 0.0029008915 -0.108922124 -0.003874913 -0.022706216 -0.038537417 0.108201735 0.032275733

network_body._body_endoder.seq_layers.2.bias f4 [256]
00000000: fe1c 013d 2d69 9b3c 1d07 63ba af0c c33b
00000010: 56af 91bc 0033 b2bc f23c 3abc 0bb7 38bc
00000020: 1b2a cc3a 0602 34bb c864 d9bc 260c 62bb
00000030: 2832 d4bc c96d 14bc adcd 773c 1d95 af3b
00000040: fcf2 37bc 3200 083d 0c98 c7ba 0191 273c
00000050: 4386 a3ba 0faf 74bc 2315 33bc 4a92 fa3c
00000060: 4e45 e23c cd19 4b3b 8662 5f3c 6f0d 80bc
00000070: 167a acbb 31a9 8c3c 11e6 2cbc 6b6f 053d
00000080: 6cae ef3b 0467 ce3c 2b09 353c fd8d 523c
00000090: 8d96 18bc 0041 953c f51d 4a3c d2f8 e63c
000000a0: 2789 893b a333 40bb cd6f 703b fcec c4bc
000000b0: 67a4 223c eecf 84bc b847 b0bc fee9 723c
000000c0: bb1c 8b3c 50c7 79bc 37b2 cb3c e726 56bc
000000d0: 6181 b1bc bf55 a53c 9929 d13c c328 113b
000000e0: 0a42 0b3d 0315 21bc 8172 c83c c948 f73c
000000f0: adc9 03bc 77df 43bc 2067 063d 5ac5 673c
00000100: 6390 853c 5f2a 7e3c 4e1d e73c b951 0e3d
00000110: d53f 753c 02a0 23bb 1d5a 6cbb cbbe 393c
00000120: e389 fcba 101b c33c 8879 03bc 1edd 9cbc
00000130: 3cb1 c43a 8872 103c b142 173c 3b69 69bb
00000140: edd2 323c 2eda 5c3c f6d1 b93b 66bc 9a3c
00000150: dab3 1d3d 24c4 0c3a 5125 9b3c d346 1bbb
00000160: 34b2 873c c58e 93bc 53d6 01bc 164a 903c
00000170: 1473 083d 0c53 93bb 193b 953b 696d 203b
00000180: f0d8 9d3b 08b9 75bc eaf4 943b 33ae ce3c
00000190: 30e4 f23b 8357 943c d7e7 163d 9de9 a5bb
000001a0: b723 023d 897f 2b3c 1dfc d53c a990 e03a
000001b0: 7f85 7d3c 8414 933c 7a86 48bc a65a 493c
000001c0: dbb9 7b3c ab1f ab3c 1e6e 72bb ab89 2b3c
000001d0: a349 193d 2bb1 f43b 5de1 28bc 417b 88bb
000001e0: 7284 e6bb 0ae6 85bc 2d07 31bc 501d 66bc
000001f0: 7beb 273b 4244 9c3c 0485 88bc bc9f 07bc
00000200: 208e 82bb b236 a83b d084 423c 010f 043d
00000210: f563 6e3b 0f99 713c fa12 d2bc cb2b 573c
00000220: 0ff1 cbbb 3187 b83c 2ecb 823c 298b 893c
00000230: 809d 44bc 1fcc 7abb 6612 053c d494 233c
00000240: 6b5e 313c 7166 cdbc 481d 01bb 840a b23c
00000250: c2d6 f3ba c150 33bc 7653 bcbb 4358 ccba
00000260: 897a 0f3b eeec 973c 93cb 01bd 68c8 05bc
00000270: 7608 393c 1ea4 89bc 2aac 133d c9f8 21ba
00000280: daed 1cbb 8741 a13c d88c ae3c 40e6 613b
00000290: fb17 eebb 6faf 823c f1e5 2f3b 1aaf 77bc
000002a0: 4e76 1b3d 7ac8 323b 28a4 113c 8f45 19bc
000002b0: 360a d9bc c214 0d3c b3b8 e93b 6716 d83c
000002c0: 50ac ab3c 6e09 5e3c aa32 103d 9c67 ef3c
000002d0: 014f 813c 4056 c33a 7ce7 c13c bc27 ae3c
000002e0: b421 37ba dd58 42bc 4e22 663d dccb 9d3a
000002f0: e1b8 9e3c 663d 9bbb 16b3 3f3c 9eb8 2e3b
00000300: 5487 8cbc a1cc 053d 0788 08b9 7d4f 183d
00000310: 69b6 9ebc cc6a 4b3c b1ac 563d 3297 443c
00000320: 488e 5fba 22c3 cdbb 2683 223b 8b4c 073c
00000330: 119f 68bb 85f2 443a 4eb0 14bb 7eb4 963b
00000340: bb02 463c f547 2e3c b99c 22bb aa58 e7bc
00000350: 71fa 743c 75e0 eabb f10c 823c 9c83 43bc
00000360: 5efc 7b3c d082 203c e748 0d3d deb1 a5bc
00000370: b8ed 1339 dd0c d23a e785 b6bc f663 8dbb
00000380: 516a 7cbb 05c4 86bb 876d 32bb 038d 17bb
00000390: 1a87 623b 7bb6 4cbc b2be abbc 3d31 873c
000003a0: 01ca cabc a149 213c 66e7 253d f0bc c1bc
000003b0: 2195 25bd 7f48 08bc a8a8 58bc 470b 6d3c
000003c0: e4ba 673c 5096 133b 96fe 88bc a77c 9b3c
000003d0: e4f9 063d a70d bb3b 2311 773c 237a b2bc
000003e0: f809 04bc e402 31bc e223 453c 00e9 86bc
000003f0: f028 093d 1c13 d13c a6d9 7e3c 4085 c63c
0.03152179 0.01897105 -0.0008660423 0.0059524397 -0.017783802 -0.021752834 -0.01136707 -0.01127411
0.0015576513 -0.0027467026 -0.026537314 -0.0034492104 -0.025902823 -0.009059378 0.0151247205 0.005358352
-0.011227366 0.03320331 -0.0015227809 0.010227443 -0.0012475926 -0.014934315 -0.010930332 0.030587334
0.027620938 0.003099072 0.01363433 -0.015631406 -0.005263577 0.01717052 -0.010552899 0.03257696
0.007314494 0.025195606 0.011049549 0.012851235 -0.009313238 0.018219471 0.012336244 0.028194819
0.004197258 -0.0029327653 0.0036687732 -0.024038784 0.009926892 -0.01621243 -0.021518573 0.014826296
0.016981473 -0.015245274 0.024865253 -0.0130707985 -0.021668138 0.020182488 0.02553253 0.002214954
0.033998527 -0.00983167 0.024468662 0.030186074 -0.008043689 -0.011955134 0.03281319 0.014146173
0.0163042 0.015513032 0.028212216 0.034745906 0.014968832 -0.0024967198 -0.0036064454 0.0113369925
-0.0019267168 0.023816615 -0.008024581 -0.019148406 0.0015006433 0.008816369 0.009232209 -0.00356157
0.010914546 0.0134797525 0.0056707812 0.018888664 0.038501598 0.00053698034 0.018938692 -0.0023693338
0.016564466 -0.018012414 -0.007924634 0.017613452 0.033312872 -0.004495984 0.004554164 0.0024479276
0.0048171207 -0.014997728 0.0045457976 0.025229549 0.007412456 0.018108135 0.036842193 -0.0050632493
0.03177234 0.0104674185 0.026121194 0.0017132956 0.0154737225 0.017954119 -0.012239093 0.012289679
0.015364136 0.020889124 -0.0036991904 0.010469834 0.03742374 0.007467409 -0.010307637 -0.0041650836
-0.0070348317 -0.016345043 -0.0108049335 -0.014045075 0.0025622535 0.019075517 -0.01666499 -0.00827783
-0.003984228 0.0051334733 0.011872485 0.03224087 0.0036375497 0.014745965 -0.025643814 0.013133
-0.006223805 0.022525402 0.015966024 0.01678999 -0.012000442 -0.0038268638 0.008122062 0.009984214
0.010825734 -0.025073262 -0.001970129 0.02173353 -0.0018603432 -0.010944546 -0.005747254 -0.0015590269
0.0021893105 0.018545594 -0.031688284 -0.008165456 0.011293521 -0.01680189 0.03605286 -0.00061787345
-0.0023945482 0.019684566 0.021307394 0.0034469515 -0.0072660423 0.015952794 0.0026839937 -0.015117431
0.03795462 0.0027280138 0.008889236 -0.009354963 -0.026494127 0.008610906 0.0071326136 0.02637787
0.020956188 0.013552053 0.035204567 0.02922421 0.015784742 0.0014903024 0.02366995 0.021259181
-0.0006985918 -0.011862007 0.05618506 0.0012038904 0.019375267 -0.004737544 0.011700412 0.0026660333
-0.017154373 0.032665852 -0.00013020645 0.03718518 -0.01937409 0.012415599 0.052410785 0.011998938
-0.00085279765 -0.006279365 0.002479741 0.008257995 -0.0035495202 0.0007512945 -0.0022688094 0.004599153
0.012085612 0.010637273 -0.0024812652 -0.02824052 0.014952288 -0.0071678706 0.015875312 -0.011933234
0.015379993 0.009796813 0.034493353 -0.020226415 0.0001410757 0.0016025562 -0.022280646 -0.004314895
-0.0038515518 -0.004112723 -0.0027225928 -0.002312482 0.003456539 -0.012494679 -0.020964954 0.01650297
-0.024754526 0.009844215 0.040503882 -0.023649663 -0.040425424 -0.008318066 -0.0132238045 0.014468021
0.014143679 0.0022520013 -0.016722959 0.018980337 0.032953158 0.0057084146 0.015079769 -0.021786755
-0.008059017 -0.010803912 0.012032481 -0.016468525 0.033486307 0.025521807 0.015554821 0.02423346

action_model._continuous_distribution.log_sigma f4 [1, 6]
00000000: b7a5 863d 1179 08bb 3693 ee3d a03b 073d
00000010: aa95 b6bb 5665 a13d
0.06574576 -0.0020824114 0.11649172 0.033015847 -0.0055720406 0.078806564

action_model._continuous_distribution.mu.weight f4 [6, 256]
00000000: 797e b3bc 6428 0a3d ce87 8fbb e981 12bc
00000010: d613 bfbc 2f97 b8bd 9d0a 7abd d5f0 8a3b
00000020: b685 9d3c b7c3 c73c f42c 053c 3e9f b739
00000030: 9af6 773c 7e0a fc3b 7ec5 d63c 38d8 cdbc
00000040: f2ed ad3c 9018 863c 4209 053d 363a ed3b
00000050: 39e7 bb3c b3e8 5ebc 912d 8dbd ad1e ee3b
00000060: a3f9 8a3d 37bd e9bc 0f11 40bc b841 03bd
00000070: 5202 633c d3dc 693c f67b 26bd c74c 0c3d
00000080: bb54 ad3c 0e9b f13b b9e2 9fbc 3363 263d
00000090: 6f5d 873c a99c 6d3b 4434 d03c 8a32 67bb
000000a0: 8bbc 7bbd c82f beb8 ce6e 013c 7c50 9dbd
000000b0: dae3 3fbc 3be3 e6bc d74a b4bc 2f7d e93c
000000c0: 4cff 043d 6063 c7bb 278a d13c eb04 8dbb
000000d0: bc0a df3c 4756 993c 9949 553c 6d56 1abd
000000e0: be83 893c 6877 c4bb 6dd0 6c3d 0da3 6c3d
000000f0: 91a9 813c 3864 16bc e302 d83c 7018 073d
00000100: e3b9 c6bb 9d2a 34bc 4b75 f13c 4301 683d
00000110: e374 aa3b 242c b33c 6fa5 063d e4d8 cc3c
00000120: c0e1 2e3c 997b c13c 7d38 ff3b 66ed 00bd
00000130: a996 133d 2370 a5bc 849a a8b9 e3e5 003c
00000140: 6dc3 35bd 5eae f6bc d48b f33c 86f0 b0bb
00000150: dcc6 1f3d c259 2abd cfd7 c43c 5539 da3c
00000160: 3a90 5ebc cf87 88bc 7406 e73c 3816 2ebb
00000170: 5711 013d 59cc 51bd 81dd 44bc 52b3 0a3d
00000180: d105 673c d7ab efbc 3599 673c 92fb f13c
00000190: 8147 1abc 94c3 f5bb 72cd 503b 8680 803a
000001a0: 1cae 52bc 6ea1 9d3c cb91 5c3d d544 34bd
000001b0: 3a79 013d a6c7 2b3c 5c4c d53c 1ac9 21bd
000001c0: 0e19 0e3b 8969 c63c d4f0 a33c ef74 133d
000001d0: 9a94 413d c6b7 803c c8bb ab3c ff44 503d
000001e0: e6e2 02bd a310 c4bc 65df 18bd b20b 90bc
000001f0: 8f1d 5ebc b21c 0c3d f47b 153c 8149 09bd
00000200: 920b 12bd 85f1 02bb ba21 c7bc 707b 293c
00000210: 3e18 36bd 38c3 b63c e688 25bd 9443 783c
00000220: 3073 89bc df00 303c f27c 19bd 4f9c b2bc
00000230: a5f1 a1bc e37e 8aba afee 84bb 5f39 733c
00000240: 1443 bd3b 46f5 27bc fbe7 6b3b 2be3 433d
00000250: 215b cc3a 78a2 b4bc 0f5d 85bc 7ce6 3cbc
00000260: fde4 71bb ba07 203c 470b 20bc 9896 a93c
00000270: d6b5 15bd 413b 063c 179d 553d cec0 643b
00000280: 13cd 3ebd 4107 fabc e0ac 163d 05a0 7b3d
00000290: d844 cbbc 974c 7c3b c8e3 b0bc 0666 2a3d
000002a0: 7548 223d f540 e23b be9b e3bb 73ed 01bd
000002b0: 2afe ecbc 63b2 ca3c b6e5 fcbc bd41 d7bc
000002c0: f215 b93c c415 af3c 8897 fbbb 86aa 253c
000002d0: 499d 33b9 ef32 3cbc 9a3b 063d ee93 373d
000002e0: df75 003d 2ae8 c13b f816 a53d ccb4 23bd
000002f0: 6581 4d3b babb 00bc db69 ffbb 9548 93bc
00000300: 7f48 eebb 65f7 483d 731a 193d 938b 94bc
00000310: c3e9 85bc 75c1 413c 6ad3 1dbd 5a32 dc39
00000320: caca 103d d48c a5bc eba0 82bc 1496 803c
00000330: 41c2 c33b 7134 41bb 6840 103b 6902 a43c
00000340: 4b12 993c 2b56 143d 5a98 cc3b 4606 86bd
00000350: 89a5 753c d8f3 513c 23c5 35bb 1ab3 04bc
00000360: 20d0 a23c 266e 3a3d f3f7 b53c 74c9 e6bc
00000370: fe79 353d ae84 f13b 075a e53c 78de a2bd
00000380: 2730 90bc f11e 0e3c fe98 6e3c 65dd b43b
00000390: 350d 9a3c 9548 35bc dc98 2bbd d7c4 113d
000003a0: fe29 85bc ffb5 99bd 8245 7c3d 4317 333c
000003b0: bde0 d0bc 29b6 08ba e75c 5c3c 82ae 303c
000003c0: 9ae0 d33b 45e5 4cbc 942f 12bd e4a8 c13c
000003d0: ea17 aa3c c994 8fbc 4b58 103c 2ba3 b93b
000003e0: 1574 7cbb 1ce0 f7ba f6c8 b83c 39a9 5f3b
000003f0: f3ec 863d 6933 0b3c fbf5 4d3d b2c8 823b
-0.021910893 0.033729926 -0.004380203 -0.008942106 -0.023324888 -0.09013211 -0.061045278 0.004240135
0.019228797 0.024385316 0.008128393 0.00035023125 0.015134478 0.0076916805 0.026217218 -0.025127515
0.021231625 0.016369134 0.032479532 0.0072396053 0.022937404 -0.0136052845 -0.06893457 0.0072668404
0.06785896 -0.028532607 -0.011722817 -0.032045096 0.013855534 0.01427384 -0.040645562 0.034252908
0.021158567 0.0073732203 -0.01951729 0.040621947 0.016524045 0.0036256707 0.025415547 -0.0035277926
-0.061459105 -9.068806e-05 0.007899953 -0.07681367 -0.011712039 -0.028184524 -0.022008343 0.028502075
0.032470033 -0.0060848445 0.025578571 -0.004303565 0.027226798 0.018717898 0.013018035 -0.03768008
0.016786452 -0.0059956796 0.057815958 0.057772685 0.015827926 -0.009179167 0.026368564 0.03298229
-0.00606464 -0.010996488 0.029474875 0.05664183 0.0052019223 0.021871634 0.032872614 0.025005765
0.01067394 0.023618506 0.0077887163 -0.0314764 0.036032353 -0.020195073 -0.0003215858 0.007867309
-0.044375826 -0.030112442 0.029729761 -0.0053997664 0.039008006 -0.041589506 0.024028687 0.026638666
-0.013584191 -0.016666321 0.02820132 -0.0026563536 0.031510677 -0.05122027 -0.012015701 0.03386242
0.014100508 -0.029256744 0.0141356485 0.029538903 -0.009416462 -0.0075001214 0.0031860736 0.0009803928
-0.012858894 0.019242015 0.053849977 -0.044010956 0.03160975 0.010484612 0.026037388 -0.039498426
0.0021682414 0.024220245 0.020012297 0.03600019 0.047260858 0.01571263 0.020963565 0.05084705
-0.03195467 -0.023933714 -0.03732242 -0.017583702 -0.013556852 0.034207053 0.009123791 -0.033517364
-0.035655566 -0.0019980383 -0.024308074 0.010344371 -0.044456713 0.022309884 -0.04041376 0.015152831
-0.016778558 0.010742395 -0.037472673 -0.02180305 -0.019768545 -0.001056638 -0.0040567736 0.014845221
0.0057758186 -0.010251349 0.0035996425 0.047824066 0.0015591123 -0.022050127 -0.016279725 -0.011529561
-0.003691017 0.009767467 -0.009768314 0.020701692 -0.036550365 0.008192838 0.052151766 0.003490496
-0.046582293 -0.030521037 0.03678596 0.061431903 -0.0248131 0.00384978 -0.02159299 0.041601203
0.03961988 0.006904716 -0.006946056 -0.03172059 -0.028929789 0.024743265 -0.030871253 -0.026276464
0.022593472 0.021372683 -0.007677976 0.010111457 -0.00017129364 -0.011486753 0.032771684 0.04481881
0.03136241 0.0059175687 0.080610216 -0.039967343 0.0031357643 -0.0078572575 -0.0077946014 -0.017978946
-0.007271826 0.04906406 0.03737874 -0.01813296 -0.016346818 0.011825909 -0.0385317 0.00041999185
0.035349645 -0.020208754 -0.015945872 0.015696563 0.0059740846 -0.002948072 0.0022011045 0.02002068
0.01868548 0.03621499 0.0062437477 -0.06544165 0.01499308 0.012814485 -0.002773591 -0.008099342
0.019874632 0.045515202 0.022212958 -0.028172232 0.044305794 0.007370553 0.02799703 -0.07952589
-0.017601086 0.008674369 0.014562843 0.0055195563 0.018805126 -0.011064668 -0.041893825 0.03558811
-0.016255375 -0.07505416 0.061589725 0.010930839 -0.025497789 -0.0005215132 0.013449884 0.010783793
0.0064659836 -0.012505834 -0.035689905 0.023640104 0.020763356 -0.017527001 0.008810113 0.005665203
-0.0038521339 -0.0018911394 0.022556763 0.0034127964 0.06588163 0.008496144 0.050283413 0.00399121

action_model._continuous_distribution.mu.bias f4 [6]
00000000: 1c15 9f3c 39c7 c3bb 3b6a 9e3c de4d 9cbc
00000010: 451d c2bc 6c66 433a
0.019419245 -0.005974677 0.019337764 -0.019080099 -0.023695597 0.0007453922

onnx::Div_71 f4 [100]
00000000: 2dee 513e 4ccd b03d da9f 1f3d 3afd 343e
00000010: 1a4f 463e 5362 a73d b05c 1f3d 0854 343e
00000020: d84b 5c3e bd36 b73d 4a5b 203d 3214 353e
00000030: c685 3b3e 0ac0 9e3d 414f 1f3d 2032 333e
00000040: 9924 643e 272f ba3d a277 1f3d f8b2 343e
00000050: 345b 343e 0a39 993d 9377 1e3d fd8a 313e
00000060: 02ee 683e c73b bb3d 2d34 1e3d 42fc 333e
00000070: 380b 2f3e 199c 933d e60b 1f3d d64a 2f3e
00000080: cdcc 6a3e 353c b83d 43b7 1c3d bbcd 323e
00000090: f93b 2c3e 21d8 8c3d c5e2 1f3d 3bd2 2c3e
000000a0: 478c 6a3e 3e05 b43d feed 1c3d 3e25 313e
000000b0: 0ab8 2a3e d8f6 873d db9e 1d3d c20f 2a3e
000000c0: 9b30 683e 1e95 ad3d e4e2 1d3d 2259 2f3e
000000d0: 4aac 293e 1793 803d 196a 1e3d ab32 273e
000000e0: 9687 633e cfe5 a33d 9e19 1f3d a1a9 2d3e
000000f0: a3f0 273e a1c0 733d f318 1e3d 5544 243e
00000100: e686 5d3e 6c3f 9a3d c377 1f3d fd54 2c3e
00000110: 6aa8 263e f4fc 693d 5a0b 1e3d 5e41 213e
00000120: 5973 573e 4773 943d b9fe 1e3d ce17 2b3e
00000130: b994 243e 0482 5d3d 9dad 1e3d e620 1e3e
00000140: 3045 513e 983a 913d 43d6 1e3d eb36 2a3e
00000150: 22bb 213e 2d4b 553d 75ac 1d3d 5f84 1b3e
00000160: d622 4b3e ee29 8e3d 8634 1f3d 257e 293e
00000170: af53 1f3e 94fa 543d af83 1d3d 2435 193e
00000180: 475f 453e c6ed 8a3d 72f0 1d3d 1cfd 283e
0.20501013 0.08632907 0.038970806 0.17674723 0.19366112 0.08173051 0.038906753 0.1761018
0.21513307 0.089459874 0.03914956 0.17683485 0.1831275 0.07751472 0.03889394 0.1749959
0.22279586 0.09091025 0.03893245 0.17646396 0.17612916 0.074815825 0.038688254 0.17338176
0.22747043 0.09142261 0.038623977 0.17576697 0.17094123 0.07207508 0.038829707 0.17118391
0.22929688 0.089958586 0.03826071 0.17461292 0.16819753 0.06877161 0.039034624 0.16877072
0.22905074 0.08790062 0.038312905 0.17299363 0.16671768 0.066388786 0.038481575 0.16607574
0.22674792 0.084757075 0.038546458 0.17123845 0.1656963 0.06278055 0.0386754 0.16327922
0.2221969 0.08002817 0.03884279 0.1695924 0.1640039 0.059509877 0.038598012 0.16041692
0.21633491 0.07531628 0.038932573 0.16829295 0.16275182 0.057126 0.038585044 0.15747592
0.21040095 0.0724855 0.03881714 0.167083 0.16072358 0.05407907 0.03873979 0.15442237
0.20436549 0.07091254 0.038778555 0.16622512 0.15794042 0.052073646 0.038494546 0.15187214
0.19837508 0.06941591 0.03886845 0.16552027 0.15559267 0.051996782 0.03845566 0.14961678
0.19274627 0.06783633 0.038559385 0.16502804

onnx::Div_74 f4 [52]
00000000: e6c5 fe3e 7ac4 5d3d fdee 963e 1412 933e
00000010: e2f1 fe3e 45d2 573d 6b4b 963e 15d0 923e
00000020: e7a3 fe3e e314 633d 0767 973e f040 933e
00000030: 7f25 ff3e 53fc 503d 4ca3 953e 878a 923e
00000040: b58d fe3e cfba 673d a3fb 973e a77c 933e
00000050: a35b ff3e 94e1 483d 23e4 943e aa32 923e
00000060: 8f88 fe3e 6741 6c3d 025d 983e 0fab 933e
00000070: 7292 ff3e 31fa 423d 38e1 933e fdca 913e
00000080: 9696 fe3e 65f6 6f3d 4e77 983e b5c7 933e
00000090: 55c4 ff3e 3909 3f3d ccc4 923e b358 913e
000000a0: 72b4 fe3e 34ef 713d 42c0 983e a1e4 933e
000000b0: 82e8 ff3e 3ad9 393d 65aa 913e e3f1 903e
000000c0: 8edb fe3e 16db 733d 8fce 983e 49fd 933e
0.4976036 0.054142453 0.2947921 0.2872473 0.49793917 0.052690763 0.29354414 0.2867438
0.49734423 0.05543984 0.2957079 0.2876048 0.49833295 0.051021885 0.29226148 0.28621313
0.4971749 0.05657464 0.2968417 0.2880604 0.498746 0.049043253 0.29080305 0.2855428
0.4971356 0.05767956 0.2975846 0.28841445 0.49916416 0.047601882 0.28882766 0.2847518
0.49724263 0.05858459 0.29778522 0.28863302 0.49954477 0.046639655 0.2866577 0.28387985
0.49747044 0.059066013 0.2983418 0.28885368 0.49982077 0.04537318 0.28450313 0.28309545
0.49776882 0.05953511 0.29845092 0.2890418

onnx::Div_77 f4 [5]
00000000: cdeb 7341 4db3 1b44 c0e6 a740 d99c af3f
00000010: cf50 e53e
15.245069 622.8016 5.2469177 1.3719741 0.44788215
