Assets/results/4/CoinChaser/CoinChaser-1000.pt (torch, 877684 bytes, 36 tensors)

network_body.observation_encoder.processors.0.normalizer.running_mean f4 [100]
000000 b4 35 7e 3f 00 00 00 00 00 00 00 00 94 a0 08 3e
       0.99300694 0.0 0.0 0.13342506
000010 a5 b8 7e 3f 00 00 00 00 00 00 00 00 1e ef 09 3e
       0.99500495 0.0 0.0 0.13470122
000020 0f 7d 7f 3f 00 00 00 00 00 00 00 00 6a 49 0b 3e
       0.998002 0.0 0.0 0.13602224
000030 96 3b 7f 3f 00 00 00 00 00 00 00 00 29 ed 0a 3e
       0.99700296 0.0 0.0 0.13567032
000040 2d 77 7e 3f 00 00 00 00 00 00 00 00 c3 7b 0c 3e
       0.994006 0.0 0.0 0.13719086
000050 96 3b 7f 3f 00 00 00 00 00 00 00 00 9b be 08 3e
       0.99700296 0.0 0.0 0.1335396
000060 96 3b 7f 3f 00 00 00 00 00 00 00 00 6d ad 0b 3e
       0.99700296 0.0 0.0 0.13640375
000070 96 3b 7f 3f 00 00 00 00 00 00 00 00 1e 00 06 3e
       0.99700296 0.0 0.0 0.13085982
000080 87 be 7f 3f 00 00 00 00 00 00 00 00 23 3d 0d 3e
       0.99900097 0.0 0.0 0.13792853
000090 87 be 7f 3f 00 00 00 00 00 00 00 00 6d b6 05 3e
       0.99900097 0.0 0.0 0.13057871
0000a0 87 be 7f 3f 00 00 00 00 00 00 00 00 f3 8c 0f 3e
       0.99900097 0.0 0.0 0.14018612
0000b0 96 3b 7f 3f 00 00 00 00 00 00 00 00 44 c2 03 3e
       0.99700296 0.0 0.0 0.12867075
0000c0 87 be 7f 3f 00 00 00 00 00 00 00 00 34 69 0e 3e
       0.99900097 0.0 0.0 0.1390732
0000d0 96 3b 7f 3f 00 00 00 00 00 00 00 00 7e b7 03 3e
       0.99700296 0.0 0.0 0.12862965
0000e0 87 be 7f 3f 00 00 00 00 00 00 00 00 ec 7c 0c 3e
       0.99900097 0.0 0.0 0.13719529
0000f0 96 3b 7f 3f 00 00 00 00 00 00 00 00 0e 8d 01 3e
       0.99700296 0.0 0.0 0.12651464
000100 87 be 7f 3f 00 00 00 00 00 00 00 00 ca d7 09 3e
       0.99900097 0.0 0.0 0.13461223
000110 96 3b 7f 3f 00 00 00 00 00 00 00 00 eb cc ff 3d
       0.99700296 0.0 0.0 0.12490257
000120 87 be 7f 3f 00 00 00 00 00 00 00 00 40 cf 06 3e
       0.99900097 0.0 0.0 0.13164997
000130 2e 77 7e 3f 00 00 00 00 00 00 00 00 c0 80 fa 3d
       0.99400604 0.0 0.0 0.12231588
000140 87 be 7f 3f 00 00 00 00 00 00 00 00 ee d4 07 3e
       0.99900097 0.0 0.0 0.1326482
000150 a5 b8 7e 3f 00 00 00 00 00 00 00 00 7d 06 f8 3d
       0.99500495 0.0 0.0 0.121106125
000160 87 be 7f 3f 00 00 00 00 00 00 00 00 ba b6 07 3e
       0.99900097 0.0 0.0 0.13253298
000170 b4 35 7e 3f 00 00 00 00 00 00 00 00 8c 39 f7 3d
       0.99300694 0.0 0.0 0.12071523
000180 0f 7d 7f 3f 00 00 00 00 00 00 00 00 c7 98 08 3e
       0.998002 0.0 0.0 0.1333953

network_body.observation_encoder.processors.0.normalizer.running_variance f4 [100]
000000 00 6f fe 40 00 00 80 3f 00 00 80 3f 49 83 9b 41
       7.95105 1.0 1.0 19.439104
000010 67 33 bf 40 00 00 80 3f 00 00 80 3f bd 22 a0 41
       5.9750247 1.0 1.0 20.016962
000020 8a be 3f 40 00 00 80 3f 00 00 80 3f 4a 1c 9f 41
       2.9960046 1.0 1.0 19.888813
000030 b2 6c 7f 40 00 00 80 3f 00 00 80 3f f4 02 a4 41
       3.9910092 1.0 1.0 20.501442
000040 62 d9 de 40 00 00 80 3f 00 00 80 3f 6a ba 9c 41
       6.964036 1.0 1.0 19.591022
000050 b2 6c 7f 40 00 00 80 3f 00 00 80 3f 42 09 9e 41
       3.9910092 1.0 1.0 19.75452
000060 b3 6c 7f 40 00 00 80 3f 00 00 80 3f 77 04 99 41
       3.9910095 1.0 1.0 19.12718
000070 b2 6c 7f 40 00 00 80 3f 00 00 80 3f a1 18 99 41
       3.9910092 1.0 1.0 19.137026
000080 47 df ff 3f 00 00 80 3f 00 00 80 3f 1c 85 97 41
       1.9990014 1.0 1.0 18.939995
000090 47 df ff 3f 00 00 80 3f 00 00 80 3f 0a ee 97 41
       1.9990014 1.0 1.0 18.99123
0000a0 47 df ff 3f 00 00 80 3f 00 00 80 3f c2 82 98 41
       1.9990014 1.0 1.0 19.063847
0000b0 b2 6c 7f 40 00 00 80 3f 00 00 80 3f c2 ab 93 41
       3.9910092 1.0 1.0 18.458866
0000c0 47 df ff 3f 00 00 80 3f 00 00 80 3f fd db 95 41
       1.9990014 1.0 1.0 18.732416
0000d0 b2 6c 7f 40 00 00 80 3f 00 00 80 3f 22 50 92 41
       3.9910092 1.0 1.0 18.289127
0000e0 47 df ff 3f 00 00 80 3f 00 00 80 3f 63 4e 90 41
       1.9990014 1.0 1.0 18.038275
0000f0 b2 6c 7f 40 00 00 80 3f 00 00 80 3f a6 30 8f 41
       3.9910092 1.0 1.0 17.898754
000100 47 df ff 3f 00 00 80 3f 00 00 80 3f 46 ed 8b 41
       1.9990014 1.0 1.0 17.490856
000110 b2 6c 7f 40 00 00 80 3f 00 00 80 3f f9 39 8d 41
       3.9910092 1.0 1.0 17.653307
000120 47 df ff 3f 00 00 80 3f 00 00 80 3f 06 95 89 41
       1.9990014 1.0 1.0 17.197765
000130 62 d9 de 40 00 00 80 3f 00 00 80 3f 44 37 8d 41
       6.964036 1.0 1.0 17.651985
000140 47 df ff 3f 00 00 80 3f 00 00 80 3f 56 42 8a 41
       1.9990014 1.0 1.0 17.28239
000150 69 33 bf 40 00 00 80 3f 00 00 80 3f 74 f4 8e 41
       5.9750257 1.0 1.0 17.869362
000160 47 df ff 3f 00 00 80 3f 00 00 80 3f 25 07 89 41
       1.9990014 1.0 1.0 17.128489
000170 fe 6e fe 40 00 00 80 3f 00 00 80 3f 76 44 8e 41
       7.951049 1.0 1.0 17.783428
000180 89 be 3f 40 00 00 80 3f 00 00 80 3f 04 91 87 41
       2.9960043 1.0 1.0 16.945808

network_body.observation_encoder.processors.1.normalizer.running_mean f4 [52]
000000 15 89 28 3f 00 00 00 00 22 ad a3 3c 83 c7 5f 3e
       0.6583417 0.0 0.019980017 0.21853451
000010 e9 11 2a 3f 00 00 00 00 41 0b b4 3c a2 9a 5f 3e
       0.6643358 0.0 0.021978023 0.21836331
000020 23 06 28 3f 00 00 00 00 3f 0b b4 3c 61 a1 60 3e
       0.65634364 0.0 0.021978019 0.21936561
000030 7d 4d 29 3f 00 00 00 00 5f 69 c4 3c 6a 58 61 3e
       0.6613386 0.0 0.023976026 0.22006384
000040 5f fa 25 3f 00 00 00 00 41 0b b4 3c 9a 60 65 3e
       0.6483516 0.0 0.021978023 0.22400132
000050 50 d6 2a 3f 00 00 00 00 30 dc ab 3c 49 8e 61 3e
       0.66733265 0.0 0.020979017 0.22026934
000060 bb 41 27 3f 00 00 00 00 4f 3a bc 3c 2e 57 67 3e
       0.6533467 0.0 0.022977022 0.2259185
000070 e7 11 2a 3f 00 00 00 00 23 ad a3 3c 08 6d 60 3e
       0.66433567 0.0 0.019980019 0.21916592
000080 9c 47 28 3f 00 00 00 00 25 ad a3 3c 99 01 68 3e
       0.6573427 0.0 0.019980023 0.2265686
000090 8d 23 2d 3f 00 00 00 00 08 4f 93 3c ac 38 5f 3e
       0.6763237 0.0 0.017982021 0.21798962
0000a0 60 fa 25 3f 00 00 00 00 23 ad a3 3c 2f 37 6a 3e
       0.64835167 0.0 0.019980019 0.22872613
0000b0 ba f3 2f 3f 00 00 00 00 17 7e 9b 3c 3f c2 60 3e
       0.6873127 0.0 0.018981023 0.21949099
0000c0 42 00 27 3f 00 00 00 00 15 7e 9b 3c de d8 6a 3e
       0.6523477 0.0 0.018981019 0.22934291

network_body.observation_encoder.processors.1.normalizer.running_variance f4 [52]
000000 1e 27 62 43 00 00 80 3f 9f cd a4 41 4f 57 05 42
       226.1528 1.0 20.6004 33.335262
000010 7e 37 60 43 00 00 80 3f c1 21 b4 41 aa c7 07 42
       224.21677 1.0 22.516481 33.944984
000020 3e c8 62 43 00 00 80 3f c0 21 b4 41 c7 fd 07 42
       226.7822 1.0 22.51648 33.99783
000030 9e 31 61 43 00 00 80 3f 89 65 c3 41 fe 10 0c 42
       225.19382 1.0 24.424578 35.016594
000040 41 38 65 43 00 00 80 3f c1 21 b4 41 9b 08 0d 42
       229.21974 1.0 22.516481 35.258404
000050 c5 38 5f 43 00 00 80 3f ba 79 ac 41 fc ef 0d 42
       223.22176 1.0 21.559437 35.48436
000060 16 b6 63 43 00 00 80 3f b0 c5 bb 41 ce e5 0e 42
       227.71127 1.0 23.471527 35.72442
000070 7e 37 60 43 00 00 80 3f 9d cd a4 41 54 16 0b 42
       224.21677 1.0 20.600397 34.771805
000080 f1 77 62 43 00 00 80 3f 9f cd a4 41 6a a0 0d 42
       226.46852 1.0 20.6004 35.406654
000090 fd 20 5c 43 00 00 80 3f 1b 69 95 41 3c d1 08 42
       220.12886 1.0 18.676321 34.20433
0000a0 41 38 65 43 00 00 80 3f 9e cd a4 41 17 a1 12 42
       229.21974 1.0 20.600399 36.657314
0000b0 fc 20 58 43 00 00 80 3f 69 1d 9d 41 0a b1 0c 42
       216.12885 1.0 19.63936 35.17289
0000c0 57 04 64 43 00 00 80 3f 6a 1d 9d 41 a3 e7 11 42
       228.01695 1.0 19.639362 36.476208

network_body.observation_encoder.processors.2.normalizer.running_mean f4 [5]
000000 be 76 cf bf df 08 05 40 3f b2 3a 40 2b 25 41 3f
       -1.6208112 2.0786664 2.9171293 0.7544734
000010 e2 ac fc 3e
       0.4935065

network_body.observation_encoder.processors.2.normalizer.running_variance f4 [5]
000000 6d 7f 6a 44 a4 94 b6 44 ba ad ba 45 85 e6 68 44
       937.991 1460.645 5973.716 931.60187
000010 32 35 7b 43
       251.2078

network_body.processors.0.normalizer.running_mean f4 [100]
000000 b4 35 7e 3f 00 00 00 00 00 00 00 00 94 a0 08 3e
       0.99300694 0.0 0.0 0.13342506
000010 a5 b8 7e 3f 00 00 00 00 00 00 00 00 1e ef 09 3e
       0.99500495 0.0 0.0 0.13470122
000020 0f 7d 7f 3f 00 00 00 00 00 00 00 00 6a 49 0b 3e
       0.998002 0.0 0.0 0.13602224
000030 96 3b 7f 3f 00 00 00 00 00 00 00 00 29 ed 0a 3e
       0.99700296 0.0 0.0 0.13567032
000040 2d 77 7e 3f 00 00 00 00 00 00 00 00 c3 7b 0c 3e
       0.994006 0.0 0.0 0.13719086
000050 96 3b 7f 3f 00 00 00 00 00 00 00 00 9b be 08 3e
       0.99700296 0.0 0.0 0.1335396
000060 96 3b 7f 3f 00 00 00 00 00 00 00 00 6d ad 0b 3e
       0.99700296 0.0 0.0 0.13640375
000070 96 3b 7f 3f 00 00 00 00 00 00 00 00 1e 00 06 3e
       0.99700296 0.0 0.0 0.13085982
000080 87 be 7f 3f 00 00 00 00 00 00 00 00 23 3d 0d 3e
       0.99900097 0.0 0.0 0.13792853
000090 87 be 7f 3f 00 00 00 00 00 00 00 00 6d b6 05 3e
       0.99900097 0.0 0.0 0.13057871
0000a0 87 be 7f 3f 00 00 00 00 00 00 00 00 f3 8c 0f 3e
       0.99900097 0.0 0.0 0.14018612
0000b0 96 3b 7f 3f 00 00 00 00 00 00 00 00 44 c2 03 3e
       0.99700296 0.0 0.0 0.12867075
0000c0 87 be 7f 3f 00 00 00 00 00 00 00 00 34 69 0e 3e
       0.99900097 0.0 0.0 0.1390732
0000d0 96 3b 7f 3f 00 00 00 00 00 00 00 00 7e b7 03 3e
       0.99700296 0.0 0.0 0.12862965
0000e0 87 be 7f 3f 00 00 00 00 00 00 00 00 ec 7c 0c 3e
       0.99900097 0.0 0.0 0.13719529
0000f0 96 3b 7f 3f 00 00 00 00 00 00 00 00 0e 8d 01 3e
       0.99700296 0.0 0.0 0.12651464
000100 87 be 7f 3f 00 00 00 00 00 00 00 00 ca d7 09 3e
       0.99900097 0.0 0.0 0.13461223
000110 96 3b 7f 3f 00 00 00 00 00 00 00 00 eb cc ff 3d
       0.99700296 0.0 0.0 0.12490257
000120 87 be 7f 3f 00 00 00 00 00 00 00 00 40 cf 06 3e
       0.99900097 0.0 0.0 0.13164997
000130 2e 77 7e 3f 00 00 00 00 00 00 00 00 c0 80 fa 3d
       0.99400604 0.0 0.0 0.12231588
000140 87 be 7f 3f 00 00 00 00 00 00 00 00 ee d4 07 3e
       0.99900097 0.0 0.0 0.1326482
000150 a5 b8 7e 3f 00 00 00 00 00 00 00 00 7d 06 f8 3d
       0.99500495 0.0 0.0 0.121106125
000160 87 be 7f 3f 00 00 00 00 00 00 00 00 ba b6 07 3e
       0.99900097 0.0 0.0 0.13253298
000170 b4 35 7e 3f 00 00 00 00 00 00 00 00 8c 39 f7 3d
       0.99300694 0.0 0.0 0.12071523
000180 0f 7d 7f 3f 00 00 00 00 00 00 00 00 c7 98 08 3e
       0.998002 0.0 0.0 0.1333953

network_body.processors.0.normalizer.running_variance f4 [100]
000000 00 6f fe 40 00 00 80 3f 00 00 80 3f 49 83 9b 41
       7.95105 1.0 1.0 19.439104
000010 67 33 bf 40 00 00 80 3f 00 00 80 3f bd 22 a0 41
       5.9750247 1.0 1.0 20.016962
000020 8a be 3f 40 00 00 80 3f 00 00 80 3f 4a 1c 9f 41
       2.9960046 1.0 1.0 19.888813
000030 b2 6c 7f 40 00 00 80 3f 00 00 80 3f f4 02 a4 41
       3.9910092 1.0 1.0 20.501442
000040 62 d9 de 40 00 00 80 3f 00 00 80 3f 6a ba 9c 41
       6.964036 1.0 1.0 19.591022
000050 b2 6c 7f 40 00 00 80 3f 00 00 80 3f 42 09 9e 41
       3.9910092 1.0 1.0 19.75452
000060 b3 6c 7f 40 00 00 80 3f 00 00 80 3f 77 04 99 41
       3.9910095 1.0 1.0 19.12718
000070 b2 6c 7f 40 00 00 80 3f 00 00 80 3f a1 18 99 41
       3.9910092 1.0 1.0 19.137026
000080 47 df ff 3f 00 00 80 3f 00 00 80 3f 1c 85 97 41
       1.9990014 1.0 1.0 18.939995
000090 47 df ff 3f 00 00 80 3f 00 00 80 3f 0a ee 97 41
       1.9990014 1.0 1.0 18.99123
0000a0 47 df ff 3f 00 00 80 3f 00 00 80 3f c2 82 98 41
       1.9990014 1.0 1.0 19.063847
0000b0 b2 6c 7f 40 00 00 80 3f 00 00 80 3f c2 ab 93 41
       3.9910092 1.0 1.0 18.458866
0000c0 47 df ff 3f 00 00 80 3f 00 00 80 3f fd db 95 41
       1.9990014 1.0 1.0 18.732416
0000d0 b2 6c 7f 40 00 00 80 3f 00 00 80 3f 22 50 92 41
       3.9910092 1.0 1.0 18.289127
0000e0 47 df ff 3f 00 00 80 3f 00 00 80 3f 63 4e 90 41
       1.9990014 1.0 1.0 18.038275
0000f0 b2 6c 7f 40 00 00 80 3f 00 00 80 3f a6 30 8f 41
       3.9910092 1.0 1.0 17.898754
000100 47 df ff 3f 00 00 80 3f 00 00 80 3f 46 ed 8b 41
       1.9990014 1.0 1.0 17.490856
000110 b2 6c 7f 40 00 00 80 3f 00 00 80 3f f9 39 8d 41
       3.9910092 1.0 1.0 17.653307
000120 47 df ff 3f 00 00 80 3f 00 00 80 3f 06 95 89 41
       1.9990014 1.0 1.0 17.197765
000130 62 d9 de 40 00 00 80 3f 00 00 80 3f 44 37 8d 41
       6.964036 1.0 1.0 17.651985
000140 47 df ff 3f 00 00 80 3f 00 00 80 3f 56 42 8a 41
       1.9990014 1.0 1.0 17.28239
000150 69 33 bf 40 00 00 80 3f 00 00 80 3f 74 f4 8e 41
       5.9750257 1.0 1.0 17.869362
000160 47 df ff 3f 00 00 80 3f 00 00 80 3f 25 07 89 41
       1.9990014 1.0 1.0 17.128489
000170 fe 6e fe 40 00 00 80 3f 00 00 80 3f 76 44 8e 41
       7.951049 1.0 1.0 17.783428
000180 89 be 3f 40 00 00 80 3f 00 00 80 3f 04 91 87 41
       2.9960043 1.0 1.0 16.945808

network_body.processors.1.normalizer.running_mean f4 [52]
000000 15 89 28 3f 00 00 00 00 22 ad a3 3c 83 c7 5f 3e
       0.6583417 0.0 0.019980017 0.21853451
000010 e9 11 2a 3f 00 00 00 00 41 0b b4 3c a2 9a 5f 3e
       0.6643358 0.0 0.021978023 0.21836331
000020 23 06 28 3f 00 00 00 00 3f 0b b4 3c 61 a1 60 3e
       0.65634364 0.0 0.021978019 0.21936561
000030 7d 4d 29 3f 00 00 00 00 5f 69 c4 3c 6a 58 61 3e
       0.6613386 0.0 0.023976026 0.22006384
000040 5f fa 25 3f 00 00 00 00 41 0b b4 3c 9a 60 65 3e
       0.6483516 0.0 0.021978023 0.22400132
000050 50 d6 2a 3f 00 00 00 00 30 dc ab 3c 49 8e 61 3e
       0.66733265 0.0 0.020979017 0.22026934
000060 bb 41 27 3f 00 00 00 00 4f 3a bc 3c 2e 57 67 3e
       0.6533467 0.0 0.022977022 0.2259185
000070 e7 11 2a 3f 00 00 00 00 23 ad a3 3c 08 6d 60 3e
       0.66433567 0.0 0.019980019 0.21916592
000080 9c 47 28 3f 00 00 00 00 25 ad a3 3c 99 01 68 3e
       0.6573427 0.0 0.019980023 0.2265686
000090 8d 23 2d 3f 00 00 00 00 08 4f 93 3c ac 38 5f 3e
       0.6763237 0.0 0.017982021 0.21798962
0000a0 60 fa 25 3f 00 00 00 00 23 ad a3 3c 2f 37 6a 3e
       0.64835167 0.0 0.019980019 0.22872613
0000b0 ba f3 2f 3f 00 00 00 00 17 7e 9b 3c 3f c2 60 3e
       0.6873127 0.0 0.018981023 0.21949099
0000c0 42 00 27 3f 00 00 00 00 15 7e 9b 3c de d8 6a 3e
       0.6523477 0.0 0.018981019 0.22934291

network_body.processors.1.normalizer.running_variance f4 [52]
000000 1e 27 62 43 00 00 80 3f 9f cd a4 41 4f 57 05 42
       226.1528 1.0 20.6004 33.335262
000010 7e 37 60 43 00 00 80 3f c1 21 b4 41 aa c7 07 42
       224.21677 1.0 22.516481 33.944984
000020 3e c8 62 43 00 00 80 3f c0 21 b4 41 c7 fd 07 42
       226.7822 1.0 22.51648 33.99783
000030 9e 31 61 43 00 00 80 3f 89 65 c3 41 fe 10 0c 42
       225.19382 1.0 24.424578 35.016594
000040 41 38 65 43 00 00 80 3f c1 21 b4 41 9b 08 0d 42
       229.21974 1.0 22.516481 35.258404
000050 c5 38 5f 43 00 00 80 3f ba 79 ac 41 fc ef 0d 42
       223.22176 1.0 21.559437 35.48436
000060 16 b6 63 43 00 00 80 3f b0 c5 bb 41 ce e5 0e 42
       227.71127 1.0 23.471527 35.72442
000070 7e 37 60 43 00 00 80 3f 9d cd a4 41 54 16 0b 42
       224.21677 1.0 20.600397 34.771805
000080 f1 77 62 43 00 00 80 3f 9f cd a4 41 6a a0 0d 42
       226.46852 1.0 20.6004 35.406654
000090 fd 20 5c 43 00 00 80 3f 1b 69 95 41 3c d1 08 42
       220.12886 1.0 18.676321 34.20433
0000a0 41 38 65 43 00 00 80 3f 9e cd a4 41 17 a1 12 42
       229.21974 1.0 20.600399 36.657314
0000b0 fc 20 58 43 00 00 80 3f 69 1d 9d 41 0a b1 0c 42
       216.12885 1.0 19.63936 35.17289
0000c0 57 04 64 43 00 00 80 3f 6a 1d 9d 41 a3 e7 11 42
       228.01695 1.0 19.639362 36.476208

network_body.processors.2.normalizer.running_mean f4 [5]
000000 be 76 cf bf df 08 05 40 3f b2 3a 40 2b 25 41 3f
       -1.6208112 2.0786664 2.9171293 0.7544734
000010 e2 ac fc 3e
       0.4935065

network_body.processors.2.normalizer.running_variance f4 [5]
000000 6d 7f 6a 44 a4 94 b6 44 ba ad ba 45 85 e6 68 44
       937.991 1460.645 5973.716 931.60187
000010 32 35 7b 43
       251.2078

network_body._body_endoder.seq_layers.0.weight f4 [256, 157]
000000 66 7c 5d bd c4 69 00 bd 89 db 3c 3b 7a 6b 17 be
       -0.054073714 -0.031350866 0.0028817377 -0.14787093
000010 f6 67 ba 3c c1 5d 7a 3d a3 2b a5 bc 25 0a 6e bd
       0.02275465 0.061124567 -0.02016241 -0.058115143
000020 0f e7 e5 3d df 58 23 3c 15 a5 5e be 69 8d a8 3c
       0.112257116 0.009969919 -0.21742661 0.020575242
000030 5e 0b ae 3c 3d b4 fb 3c e6 8c ad bb 84 bd 76 3d
       0.021245655 0.030725593 -0.0052963374 0.06023933
000040 fa 3d 4e 3e 6b dc 35 3e 20 81 1b be 33 22 d2 3c
       0.2014083 0.17759864 -0.15185976 0.025651073
000050 93 17 07 3d c7 af 26 3d 35 d7 f6 3d 3a 7c 19 be
       0.032981467 0.040694978 0.12052766 -0.14988795
000060 91 44 44 bd 1c 66 ab bd 71 de 3b 3e c8 f1 01 bd
       -0.047916953 -0.08369085 0.18346573 -0.03172472
000070 b7 1e 8f bd 0b 99 68 bc 66 ca 26 bc db 97 84 bd
       -0.0698828 -0.014196645 -0.0101800915 -0.06474277
000080 26 86 08 3d 7e 23 1c 3e eb 46 6b bc 1b 7e 5b bd
       0.03333106 0.15247914 -0.01436017 -0.05358706
000090 80 bf 19 3e 5e c8 d2 3d 67 0b d8 bd ed ab 53 be
       0.15014458 0.10292123 -0.1054905 -0.20671053
0000a0 f0 f3 a3 38 9e 37 43 be 34 2d 4a be 22 ad 9c bd
       7.8178826e-05 -0.19064185 -0.19743806 -0.0765021
0000b0 99 ab 21 3d 33 3d b0 bd cb a9 ca bc 56 9d 5a bd
       0.03947029 -0.08605423 -0.024739167 -0.053372703
0000c0 0e 6d 5d 3c 95 b5 1a be 6c 14 85 3b 65 2a be 39
       0.01351477 -0.1510833 0.0040612724 0.0003627121
0000d0 48 c7 06 be dc 3d 6c bd 0f cf fe 3c 06 82 7a bc
       -0.13161957 -0.05767618 0.031104593 -0.015289789
0000e0 ec 78 1b 3d 1d 18 31 3d d2 63 a7 3c e6 24 d5 3d
       0.037957117 0.043235887 0.02043334 0.104074284
0000f0 7a 1a af bc ad 49 3c bc 07 93 33 bd bd 42 dc bd
       -0.02137493 -0.011492175 -0.043841388 -0.10754917
000100 4e 63 44 3d cc db a0 bd d9 88 20 3e aa ee e5 bd
       0.047946267 -0.07854423 0.15677203 -0.11227162
000110 e1 23 23 3e 54 9c 08 be 2d bc 82 bd bb fb bf 3d
       0.15931655 -0.13340884 -0.06383548 0.09374186
000120 f9 ab b2 bd 2c 98 b9 bd 0a 04 08 bd 52 67 cf 3d
       -0.087242074 -0.090622276 -0.033206977 0.10127129
000130 0e 7b ec 3b 92 02 4f 3c a8 1e 30 3d d9 97 cb bd
       0.0072168177 0.01263489 0.042997986 -0.09941072
000140 eb 11 2c 3e 06 5d 73 bd 29 82 4e bd 18 83 7a bc
       0.1680371 -0.059414886 -0.0504171 -0.015290044
000150 b2 9a c3 3c e4 ca ca bd 3e b1 09 3d e6 5f 50 bd
       0.023877475 -0.099019796 0.033616297 -0.050872706
000160 49 07 54 3c 4e e6 a3 3d 81 c4 16 bd 50 bb bb bd
       0.01294119 0.080029115 -0.036808494 -0.091665864
000170 3f c0 ea bc c4 c8 39 bd 94 4a 94 3d de 2e 9a 3c
       -0.028656123 -0.04535748 0.07240787 0.018821176
000180 77 ed 44 bd 7a 87 aa 3d 91 31 9a bc 95 7c 3f be
       -0.048078027 0.08326621 -0.018822463 -0.18699868
000190 75 8b 73 bd aa 3f 2a be 80 08 70 be ea ee 64 3b
       -0.05945917 -0.16625848 -0.23440742 0.0034932443
0001a0 34 2f 11 3e 97 04 6b 3d 30 a2 68 bc 41 96 91 bc
       0.14178163 0.057377424 -0.014198825 -0.017771842
0001b0 09 f0 3e 3a 84 12 c6 3d ca 3e 8e 3d 64 94 aa 3d
       0.0007283693 0.096715 0.0694557 0.083290845
0001c0 a7 46 d6 3b 0b b9 a5 bd 20 1b a1 bd 33 5e 45 3c
       0.006539184 -0.08091935 -0.07866502 0.012046385
0001d0 6f 1e 1a bc 57 df ad 3d 1b 81 98 3c 06 d5 6f 3c
       -0.00940667 0.08489864 0.01861625 0.014638191
0001e0 ea a6 cc bd 45 6f bc 3d 6d 73 20 bc 3a ca 67 bc
       -0.09992774 0.092009105 -0.009793145 -0.014147336
0001f0 08 72 01 be d4 b1 3e bd 82 75 9c bc 53 46 25 3e
       -0.12641156 -0.04655631 -0.019099 0.16140108
000200 10 56 b9 ba af 0a 0c 3d 5b df d5 3d 2f f9 09 be
       -0.0014140029 0.034189876 0.10442992 -0.13473962
000210 33 d4 41 bc 30 fa 4b 3d a5 d9 91 3c fd f1 1a 3e
       -0.011830377 0.049799144 0.017803976 0.15131374
000220 3c bd 89 bc be 2c 14 bd 7b eb ce 3c b0 27 08 be
       -0.016813867 -0.036175482 0.02525877 -0.1329639
000230 63 7e 3a be 89 15 f8 bc ba eb 1b bd 9e 56 d1 bc
       -0.18212275 -0.030283706 -0.038066603 -0.025553998
000240 a2 2a e5 3c 91 3b 59 bd 6e 2c 02 3e 37 39 38 be
       0.02797443 -0.053035323 0.12712261 -0.17990576
000250 99 96 a4 bd 6c af 71 3d fd d8 bc 3d 28 80 0e 3e
       -0.08036537 0.059005186 0.09221075 0.13916075
000260 8e a7 f4 3d 49 66 d6 3c d8 0d 2e bd 47 9b 9f 3d
       0.11946021 0.02617182 -0.04249367 0.07793289
000270 4b f4 8c 3b 06 a9 10 bc 41 b5 ba bd a6 f1 ab bd
       0.004301583 -0.008829361 -0.09116603 -0.083957
000280 90 1a 4a 3c 5a ad 5a bd e5 7b 0b 3e 93 da 28 3d
       0.012335435 -0.053387977 0.13621481 0.041224074
000290 7c a4 14 be 81 7a 68 bc 07 4b 16 bc b4 d7 1d 3d
       -0.14515871 -0.014189363 -0.009173161 0.03853579
0002a0 b7 0d 09 3d d4 ae d6 3d f6 2c 3d bd e5 69 9a 3c
       0.033460345 0.104825646 -0.046185456 0.018849323
0002b0 fb 20 ae bc 75 43 a0 bd c9 47 03 3e 12 33 a6 3d
       -0.02125596 -0.078253664 0.12820353 0.0811521
0002c0 1b 07 cb 3d 39 f4 62 3e 41 7d 7a 3d b5 2e 35 bd
       0.09913465 0.22163476 0.061154608 -0.044233996
0002d0 93 40 8e 3c 5e a9 a4 b9 c4 77 b6 3c 51 50 e4 bc
       0.017364776 -0.00031406706 0.022273906 -0.02787033
0002e0 ad 11 c7 3d 42 e1 f6 bd 38 a7 ac bc 88 ed 88 3d
       0.09720168 -0.12054683 -0.02107583 0.066859305
0002f0 f7 92 a6 3d fc ce af 3d a4 ed 41 bd 06 3e df bd
       0.081335 0.08584401 -0.047345772 -0.10900502
000300 c5 eb ef 3c 75 6f 63 bd c0 f1 09 be 33 9c fd 3c
       0.029287228 -0.055526216 -0.13471127 0.03095827
000310 22 d1 48 39 42 60 9f bd 88 ad d9 bb f3 81 cd bd
       0.00019151394 -0.077820316 -0.006643001 -0.100345515
000320 6c ad a5 bd 71 8b fe bd d8 9e 17 3d 1c 5c 86 bd
       -0.08089718 -0.1242894 0.03701672 -0.06560537
000330 38 c0 1a be aa 90 e2 3c 6d f8 a0 3b 0c 55 91 3c
       -0.15112388 0.027656872 0.004912427 0.017740749
000340 8c b2 66 be a6 cc 8e 3d 19 60 bc 3c a5 ec 6f bd
       -0.22529048 0.06972627 0.022995042 -0.05857529
000350 a5 54 94 3c a2 52 7c bd e6 4e 96 3d 36 c4 34 bc
       0.018106768 -0.061602242 0.073392674 -0.011033108
000360 9c 38 08 3d 16 40 87 bd 17 07 a3 3d 15 58 14 39
       0.033257112 -0.0660402 0.07960337 0.00014147193
000370 1d 0d b6 3d d7 6c e4 bb d1 63 b5 bd 47 b3 a1 3d
       0.0888922 -0.0069709825 -0.08856929 0.078955226
000380 8a fd 75 3d 02 a0 b8 3c 1c 5b 84 bc a0 84 7f bc
       0.060056247 0.022537235 -0.016156726 -0.015595585
000390 8b 69 99 bd e2 99 99 bd 39 4f 43 bd 41 e4 44 bc
       -0.07490834 -0.07500054 -0.047682974 -0.012017311
0003a0 cf f7 98 3d 84 27 a9 3d 8f 3b 3b 3e af 75 ba 3d
       0.07469141 0.0825949 0.18284439 0.091044776
0003b0 08 11 c4 3d b5 60 8e 3b ec e1 86 bd da f9 16 3e
       0.09573561 0.0043450245 -0.0658606 0.14743748
0003c0 2f c3 d6 bd aa 2b b7 3d c0 14 6f 3c ea 8b 03 3e
       -0.10486447 0.08943875 0.0145923495 0.12846342
0003d0 63 30 3a bb ef d3 a6 bc 9a 69 91 3c b4 1e 0e 3c
       -0.0028410188 -0.02036473 0.01775055 0.008674312
0003e0 ba e1 25 3d c4 b0 af 3c cd b4 0d 3e 39 da 29 bd
       0.040498473 0.021446593 0.13838501 -0.04146788
0003f0 b5 a7 3f 3c d0 1a a0 bd dc ce da bd b5 20 4a 3d
       0.011697699 -0.07817614 -0.106839865 0.049347598

network_body._body_endoder.seq_layers.0.bias f4 [256]
000000 00 00 00 00 00 00 00 00 00 00 00 00 00 00 00 00
       0.0 0.0 0.0 0.0
000010 00 00 00 00 00 00 00 00 00 00 00 00 00 00 00 00
       0.0 0.0 0.0 0.0
000020 00 00 00 00 00 00 00 00 00 00 00 00 00 00 00 00
       0.0 0.0 0.0 0.0
000030 00 00 00 00 00 00 00 00 00 00 00 00 00 00 00 00
       0.0 0.0 0.0 0.0
000040 00 00 00 00 00 00 00 00 00 00 00 00 00 00 00 00
       0.0 0.0 0.0 0.0
000050 00 00 00 00 00 00 00 00 00 00 00 00 00 00 00 00
       0.0 0.0 0.0 0.0
000060 00 00 00 00 00 00 00 00 00 00 00 00 00 00 00 00
       0.0 0.0 0.0 0.0
000070 00 00 00 00 00 00 00 00 00 00 00 00 00 00 00 00
       0.0 0.0 0.0 0.0
000080 00 00 00 00 00 00 00 00 00 00 00 00 00 00 00 00
       0.0 0.0 0.0 0.0
000090 00 00 00 00 00 00 00 00 00 00 00 00 00 00 00 00
       0.0 0.0 0.0 0.0
0000a0 00 00 00 00 00 00 00 00 00 00 00 00 00 00 00 00
       0.0 0.0 0.0 0.0
0000b0 00 00 00 00 00 00 00 00 00 00 00 00 00 00 00 00
       0.0 0.0 0.0 0.0
0000c0 00 00 00 00 00 00 00 00 00 00 00 00 00 00 00 00
       0.0 0.0 0.0 0.0
0000d0 00 00 00 00 00 00 00 00 00 00 00 00 00 00 00 00
       0.0 0.0 0.0 0.0
0000e0 00 00 00 00 00 00 00 00 00 00 00 00 00 00 00 00
       0.0 0.0 0.0 0.0
0000f0 00 00 00 00 00 00 00 00 00 00 00 00 00 00 00 00
       0.0 0.0 0.0 0.0
000100 00 00 00 00 00 00 00 00 00 00 00 00 00 00 00 00
       0.0 0.0 0.0 0.0
000110 00 00 00 00 00 00 00 00 00 00 00 00 00 00 00 00
       0.0 0.0 0.0 0.0
000120 00 00 00 00 00 00 00 00 00 00 00 00 00 00 00 00
       0.0 0.0 0.0 0.0
000130 00 00 00 00 00 00 00 00 00 00 00 00 00 00 00 00
       0.0 0.0 0.0 0.0
000140 00 00 00 00 00 00 00 00 00 00 00 00 00 00 00 00
       0.0 0.0 0.0 0.0
000150 00 00 00 00 00 00 00 00 00 00 00 00 00 00 00 00
       0.0 0.0 0.0 0.0
000160 00 00 00 00 00 00 00 00 00 00 00 00 00 00 00 00
       0.0 0.0 0.0 0.0
000170 00 00 00 00 00 00 00 00 00 00 00 00 00 00 00 00
       0.0 0.0 0.0 0.0
000180 00 00 00 00 00 00 00 00 00 00 00 00 00 00 00 00
       0.0 0.0 0.0 0.0
000190 00 00 00 00 00 00 00 00 00 00 00 00 00 00 00 00
       0.0 0.0 0.0 0.0
0001a0 00 00 00 00 00 00 00 00 00 00 00 00 00 00 00 00
       0.0 0.0 0.0 0.0
0001b0 00 00 00 00 00 00 00 00 00 00 00 00 00 00 00 00
       0.0 0.0 0.0 0.0
0001c0 00 00 00 00 00 00 00 00 00 00 00 00 00 00 00 00
       0.0 0.0 0.0 0.0
0001d0 00 00 00 00 00 00 00 00 00 00 00 00 00 00 00 00
       0.0 0.0 0.0 0.0
0001e0 00 00 00 00 00 00 00 00 00 00 00 00 00 00 00 00
       0.0 0.0 0.0 0.0
0001f0 00 00 00 00 00 00 00 00 00 00 00 00 00 00 00 00
       0.0 0.0 0.0 0.0
000200 00 00 00 00 00 00 00 00 00 00 00 00 00 00 00 00
       0.0 0.0 0.0 0.0
000210 00 00 00 00 00 00 00 00 00 00 00 00 00 00 00 00
       0.0 0.0 0.0 0.0
000220 00 00 00 00 00 00 00 00 00 00 00 00 00 00 00 00
       0.0 0.0 0.0 0.0
000230 00 00 00 00 00 00 00 00 00 00 00 00 00 00 00 00
       0.0 0.0 0.0 0.0
000240 00 00 00 00 00 00 00 00 00 00 00 00 00 00 00 00
       0.0 0.0 0.0 0.0
000250 00 00 00 00 00 00 00 00 00 00 00 00 00 00 00 00
       0.0 0.0 0.0 0.0
000260 00 00 00 00 00 00 00 00 00 00 00 00 00 00 00 00
       0.0 0.0 0.0 0.0
000270 00 00 00 00 00 00 00 00 00 00 00 00 00 00 00 00
       0.0 0.0 0.0 0.0
000280 00 00 00 00 00 00 00 00 00 00 00 00 00 00 00 00
       0.0 0.0 0.0 0.0
000290 00 00 00 00 00 00 00 00 00 00 00 00 00 00 00 00
       0.0 0.0 0.0 0.0
0002a0 00 00 00 00 00 00 00 00 00 00 00 00 00 00 00 00
       0.0 0.0 0.0 0.0
0002b0 00 00 00 00 00 00 00 00 00 00 00 00 00 00 00 00
       0.0 0.0 0.0 0.0
0002c0 00 00 00 00 00 00 00 00 00 00 00 00 00 00 00 00
       0.0 0.0 0.0 0.0
0002d0 00 00 00 00 00 00 00 00 00 00 00 00 00 00 00 00
       0.0 0.0 0.0 0.0
0002e0 00 00 00 00 00 00 00 00 00 00 00 00 00 00 00 00
       0.0 0.0 0.0 0.0
0002f0 00 00 00 00 00 00 00 00 00 00 00 00 00 00 00 00
       0.0 0.0 0.0 0.0
000300 00 00 00 00 00 00 00 00 00 00 00 00 00 00 00 00
       0.0 0.0 0.0 0.0
000310 00 00 00 00 00 00 00 00 00 00 00 00 00 00 00 00
       0.0 0.0 0.0 0.0
000320 00 00 00 00 00 00 00 00 00 00 00 00 00 00 00 00
       0.0 0.0 0.0 0.0
000330 00 00 00 00 00 00 00 00 00 00 00 00 00 00 00 00
       0.0 0.0 0.0 0.0
000340 00 00 00 00 00 00 00 00 00 00 00 00 00 00 00 00
       0.0 0.0 0.0 0.0
000350 00 00 00 00 00 00 00 00 00 00 00 00 00 00 00 00
       0.0 0.0 0.0 0.0
000360 00 00 00 00 00 00 00 00 00 00 00 00 00 00 00 00
       0.0 0.0 0.0 0.0
000370 00 00 00 00 00 00 00 00 00 00 00 00 00 00 00 00
       0.0 0.0 0.0 0.0
000380 00 00 00 00 00 00 00 00 00 00 00 00 00 00 00 00
       0.0 0.0 0.0 0.0
000390 00 00 00 00 00 00 00 00 00 00 00 00 00 00 00 00
       0.0 0.0 0.0 0.0
0003a0 00 00 00 00 00 00 00 00 00 00 00 00 00 00 00 00
       0.0 0.0 0.0 0.0
0003b0 00 00 00 00 00 00 00 00 00 00 00 00 00 00 00 00
       0.0 0.0 0.0 0.0
0003c0 00 00 00 00 00 00 00 00 00 00 00 00 00 00 00 00
       0.0 0.0 0.0 0.0
0003d0 00 00 00 00 00 00 00 00 00 00 00 00 00 00 00 00
       0.0 0.0 0.0 0.0
0003e0 00 00 00 00 00 00 00 00 00 00 00 00 00 00 00 00
       0.0 0.0 0.0 0.0
0003f0 00 00 00 00 00 00 00 00 00 00 00 00 00 00 00 00
       0.0 0.0 0.0 0.0

network_body._body_endoder.seq_layers.2.weight f4 [256, 256]
000000 f2 da 85 3d 56 64 5b bd 49 9b c6 bc a3 a4 d2 3c
       0.06535901 -0.053562485 -0.024243968 0.02571327
000010 b8 4b ea bd 06 2f 30 bd 79 df d0 bc 14 e4 38 3d
       -0.114402235 -0.043013595 -0.025497185 0.045139387
000020 1e c7 ba bd 24 b4 b5 3a 78 4c b4 3c 79 8d 36 bc
       -0.0912001 0.001386289 0.02200912 -0.011142128
000030 c8 89 d5 3c 16 f2 31 3d 7e c6 23 3d b9 9a 97 3d
       0.026066676 0.04344376 0.03998422 0.07402558
000040 c3 6c fa 3d 87 83 cd bc 13 5e ba 3c 84 fa 66 3c
       0.12227776 -0.025087131 0.022749936 0.0140978135
000050 ee 4f 6d 3d f2 41 d6 bd c5 71 57 bd 43 b3 13 bb
       0.057937555 -0.10461797 -0.052598733 -0.0022537268
000060 82 dc a3 bb fa b7 53 bd 8c 41 44 bd ff 21 9e bd
       -0.005000652 -0.051689126 -0.047914073 -0.07721328
000070 1b 9f 3a 3c 39 9b bd 3d f2 46 bf bd 9e c9 dd bc
       0.011390473 0.09258122 -0.093397036 -0.027073678
000080 a7 cc 95 3d 60 ca 86 3c 9f f5 0e 3c 4d fe c4 3b
       0.07314425 0.016453922 0.008725553 0.0060117603
000090 13 36 bb bd 08 d3 ae 3d ad c2 25 3e 51 5f aa 3c
       -0.09141173 0.08536345 0.16187544 0.020797404
0000a0 5e 65 3a 3c 99 b3 e6 bc 54 18 cb bc 9c cc 93 3d
       0.011376707 -0.02816181 -0.024791874 0.072167605
0000b0 d0 17 47 bd 8e 10 3f 3d 97 5e 5a 3d a4 dd fe 3a
       -0.048606694 0.046646647 0.053312864 0.0019444716
0000c0 e5 6f 79 bd af 18 8e 3d 37 80 87 bc 08 20 91 3d
       -0.060897727 0.06938302 -0.01654063 0.070861876
0000d0 e1 54 26 be a1 2a 28 bd bf d6 61 bd 9f bf af bc
       -0.16243316 -0.04105628 -0.05513644 -0.021453677
0000e0 04 0c 95 bb 38 c0 f4 bc d1 b8 d6 3c 50 f4 2e 3d
       -0.0045485515 -0.029876813 0.026211174 0.042713463
0000f0 cd 97 91 3b 28 f1 a5 bd 33 00 aa bd 42 e2 9a 3b
       0.004443145 -0.081026375 -0.08300819 0.004726679
000100 7f 93 d0 3d 06 d5 b9 3d e7 dc de bc 16 3b 02 3c
       0.10184383 0.09073834 -0.027204944 0.0079486575
000110 8a 53 7c 3c 7d 51 1c 3c c1 2f 59 3d fe 70 15 bd
       0.015400777 0.009540913 0.053024057 -0.03648471
000120 05 72 93 3d bc ec 40 bd 6c 42 70 3d 2a 25 ef bd
       0.07199482 -0.047100767 0.058657095 -0.1167701
000130 da 62 50 bd 05 07 22 bd 95 ab 02 be 59 4b 18 be
       -0.050875522 -0.039557476 -0.12760766 -0.14872493
000140 3a 81 b5 3c db 3f 99 3d 32 7b 9f bb 50 c4 23 bd
       0.022156347 0.074828826 -0.004866981 -0.03998214
000150 d4 bb 26 3d 34 a2 75 3d d8 7d 8c 3d 07 c5 33 3d
       0.04070647 0.059969142 0.0685994 0.04388907
000160 5d 3f 5d 3d bc 26 d0 bd 19 e6 c8 bc 3b f9 8e 3d
       0.054015506 -0.10163638 -0.024523782 0.06981131
000170 7d de f7 3d cc 26 98 bd 73 8d d6 3c 50 4c b2 bd
       0.12102983 -0.07429275 0.026190495 -0.08705962
000180 24 e6 fa bc 6a 64 7a bb cc 02 a1 3b a2 13 ea bb
       -0.030627318 -0.0038206824 0.0049136635 -0.0071434537
000190 a6 33 72 bd 2b c4 0e bd 53 23 0f be 96 43 88 3d
       -0.059131287 -0.03485505 -0.13978319 0.06653516
0001a0 ba 2b f0 bb a3 a0 be 3d 34 43 22 3c c5 ab f7 3d
       -0.0073294314 0.09307983 0.009903718 0.12093309
0001b0 d7 f0 12 be 2d fb 4d 3d c0 91 9a 3b 76 ac 08 3d
       -0.14349686 0.050288368 0.004717082 0.033367597
0001c0 4e e1 9c 3d 3f 43 4b bd 2d d8 07 3b f5 7e fb 3c
       0.07660161 -0.049624678 0.0020728216 0.030700186
0001d0 b5 35 e1 3c 28 ec b1 3c ca d0 0e bd 80 49 e2 bc
       0.02749143 0.021719053 -0.034867086 -0.027622938
0001e0 52 52 2c 3d c7 1d 7f bc 61 f2 3c 3d 73 2c 1a bd
       0.042070694 -0.015571064 0.046129588 -0.037640046
0001f0 b5 ce ad 3c 18 2f 10 3d cf db 22 3c 3f 5f 9c 3d
       0.02121673 0.035201162 0.009940102 0.07635354
000200 a6 61 90 bd f4 db 05 3a a3 33 b6 bc e8 58 e0 b8
       -0.07049875 0.0005106323 -0.02224142 -0.000106977124
000210 3a a0 24 bd 94 3e a8 bc cd 1a be bc c6 11 fd bd
       -0.040191866 -0.020537652 -0.023206139 -0.12356906
000220 45 99 9f 3c 8c a2 b4 bc 1d fb 1b 3d b4 7e c2 3d
       0.019482264 -0.022050165 0.038081277 0.09496823
000230 28 9e 79 bd cf ab fe 3b 5c 2b 9b 3d c7 23 63 3d
       -0.060941845 0.007771946 0.075766295 0.05545404
000240 cb f6 0b bc 52 8b d1 3d 55 df 3c 3d 19 1c 25 3e
       -0.008542727 0.10231651 0.046111424 0.16124
000250 7c 3a 3c 3c 66 e4 29 bc cb e5 61 bd ad 53 40 bd
       0.011488553 -0.010369396 -0.05515079 -0.0469548
000260 77 46 2f bd 69 82 a5 bb 24 a0 91 bd d9 6b 2e 3b
       -0.04279181 -0.0050509465 -0.071106225 0.0026614575
000270 4d 44 b2 bd 2d 77 4e 3d 8b 28 a1 bd 22 16 d7 3b
       -0.087044336 0.050406624 -0.07869061 0.0065639177
000280 33 89 3a bc 23 35 b9 3d 19 a4 99 bd 44 39 8f 3d
       -0.01138525 0.09043338 -0.07502002 0.069933444
000290 60 65 82 3d 13 af 2c 3c ed c3 8b bb e9 ab 80 bb
       0.06366992 0.010539788 -0.0042652995 -0.0039267433
0002a0 69 af 52 3d 93 e3 e6 bc 50 78 4f bd 25 9c b6 3c
       0.051436815 -0.028184688 -0.05065185 0.022291252
0002b0 40 3a c3 ba f2 10 6f bd aa 31 af 3c ca 6a ef bd
       -0.0014894679 -0.05836577 0.021385986 -0.1169029
0002c0 f8 db 2c 3d c3 5d 85 bd 69 3d b2 3b 81 02 8d 3d
       0.042201966 -0.06512024 0.0054394496 0.06885243
0002d0 5b c5 cd 3d a3 f5 f0 bc e5 73 4a 3d 44 96 60 bc
       0.10047408 -0.029414004 0.049426932 -0.013707701
0002e0 d1 3a 8b 3c be db b6 3b ff b4 17 bb f1 4a 3c 3d
       0.01699582 0.0055803945 -0.0023148654 0.045969907
0002f0 ff 41 6b bd 94 38 0f 3d a4 a3 d9 bd 9e be e6 bc
       -0.057435986 0.034966066 -0.10626915 -0.028167065
000300 2c 1f 8b 3d e7 6b ff 3c ac ba db 3b 56 2c c9 bd
       0.06793055 0.031179382 0.0067056026 -0.098229095
000310 b3 97 d1 ba 24 b1 a1 3d 4d 9e 01 3e b5 93 81 bc
       -0.0015990644 0.07895115 0.12658043 -0.015817503
000320 2b 1d c6 3d 1b 71 cd 3c 63 dc b6 bd bc 1e f5 ba
       0.09673532 0.025078347 -0.08928754 -0.0018701176
000330 cb 90 a6 bd a8 00 a3 3d 2a c7 4a 3d 6f 30 1f 3e
       -0.08133086 0.079591095 0.049506344 0.1554582
000340 26 ac ce bc 45 3c 28 bd cf 0f 19 3c e3 4b 8f 3d
       -0.025228571 -0.041073103 0.009342148 0.06996896
000350 ee c5 eb ba 16 a9 87 3d 71 09 03 bd ad 69 c3 bc
       -0.0017988065 0.066240475 -0.031991426 -0.023854101
000360 85 16 02 bd ff 2a ce 3d e7 e4 68 3d 32 5b 59 3c
       -0.031759758 0.100667946 0.056858923 0.013266372
000370 6b 3e cc 3d 88 1a 07 bd 68 72 25 3d cb 55 1a 3d
       0.09972843 -0.032984287 0.04039231 0.037679475
000380 fe 03 00 3d d7 20 00 3c 7e 57 84 3c 76 79 48 bc
       0.031253807 0.00782033 0.016155 -0.01223599
000390 26 1c 99 bd b2 a0 c1 bd e3 78 b7 3d 19 12 f3 bd
       -0.07476072 -0.09454478 0.08958604 -0.11868686
0003a0 0b 25 93 bd dc 08 d2 3c f4 9a 94 3d d8 b5 bc bc
       -0.071848 0.02563899 0.072561175 -0.023035929
0003b0 6d 07 25 bb 4f f7 af 3d c0 25 7c 3d 12 0b a3 bd
       -0.0025181428 0.08592092 0.06155944 -0.07961096
0003c0 b5 a1 d4 3c 4b 54 9f 3d 07 04 d0 bd 74 51 9a bd
       0.025956014 0.077797495 -0.10157018 -0.07535067
0003d0 5c 40 12 be 40 e2 71 3b c3 3b 17 3e 9f 13 df bd
       -0.14282364 0.0036908537 0.14768891 -0.10892414
0003e0 62 34 8f bd b1 3c 84 3d 41 8c 4f bd 35 19 cc 3c
       -0.06992413 0.064568885 -0.050670866 0.024914363
0003f0 bf 79 da 3c ef db f5 bc 15 6b 49 bd 14 76 50 3c
       0.026669381 -0.0300121 -0.049174387 0.0127234645

network_body._body_endoder.seq_layers.2.bias f4 [256]
000000 00 00 00 00 00 00 00 00 00 00 00 00 00 00 00 00
       0.0 0.0 0.0 0.0
000010 00 00 00 00 00 00 00 00 00 00 00 00 00 00 00 00
       0.0 0.0 0.0 0.0
000020 00 00 00 00 00 00 00 00 00 00 00 00 00 00 00 00
       0.0 0.0 0.0 0.0
000030 00 00 00 00 00 00 00 00 00 00 00 00 00 00 00 00
       0.0 0.0 0.0 0.0
000040 00 00 00 00 00 00 00 00 00 00 00 00 00 00 00 00
       0.0 0.0 0.0 0.0
000050 00 00 00 00 00 00 00 00 00 00 00 00 00 00 00 00
       0.0 0.0 0.0 0.0
000060 00 00 00 00 00 00 00 00 00 00 00 00 00 00 00 00
       0.0 0.0 0.0 0.0
000070 00 00 00 00 00 00 00 00 00 00 00 00 00 00 00 00
       0.0 0.0 0.0 0.0
000080 00 00 00 00 00 00 00 00 00 00 00 00 00 00 00 00
       0.0 0.0 0.0 0.0
000090 00 00 00 00 00 00 00 00 00 00 00 00 00 00 00 00
       0.0 0.0 0.0 0.0
0000a0 00 00 00 00 00 00 00 00 00 00 00 00 00 00 00 00
       0.0 0.0 0.0 0.0
0000b0 00 00 00 00 00 00 00 00 00 00 00 00 00 00 00 00
       0.0 0.0 0.0 0.0
0000c0 00 00 00 00 00 00 00 00 00 00 00 00 00 00 00 00
       0.0 0.0 0.0 0.0
0000d0 00 00 00 00 00 00 00 00 00 00 00 00 00 00 00 00
       0.0 0.0 0.0 0.0
0000e0 00 00 00 00 00 00 00 00 00 00 00 00 00 00 00 00
       0.0 0.0 0.0 0.0
0000f0 00 00 00 00 00 00 00 00 00 00 00 00 00 00 00 00
       0.0 0.0 0.0 0.0
000100 00 00 00 00 00 00 00 00 00 00 00 00 00 00 00 00
       0.0 0.0 0.0 0.0
000110 00 00 00 00 00 00 00 00 00 00 00 00 00 00 00 00
       0.0 0.0 0.0 0.0
000120 00 00 00 00 00 00 00 00 00 00 00 00 00 00 00 00
       0.0 0.0 0.0 0.0
000130 00 00 00 00 00 00 00 00 00 00 00 00 00 00 00 00
       0.0 0.0 0.0 0.0
000140 00 00 00 00 00 00 00 00 00 00 00 00 00 00 00 00
       0.0 0.0 0.0 0.0
000150 00 00 00 00 00 00 00 00 00 00 00 00 00 00 00 00
       0.0 0.0 0.0 0.0
000160 00 00 00 00 00 00 00 00 00 00 00 00 00 00 00 00
       0.0 0.0 0.0 0.0
000170 00 00 00 00 00 00 00 00 00 00 00 00 00 00 00 00
       0.0 0.0 0.0 0.0
000180 00 00 00 00 00 00 00 00 00 00 00 00 00 00 00 00
       0.0 0.0 0.0 0.0
000190 00 00 00 00 00 00 00 00 00 00 00 00 00 00 00 00
       0.0 0.0 0.0 0.0
0001a0 00 00 00 00 00 00 00 00 00 00 00 00 00 00 00 00
       0.0 0.0 0.0 0.0
0001b0 00 00 00 00 00 00 00 00 00 00 00 00 00 00 00 00
       0.0 0.0 0.0 0.0
0001c0 00 00 00 00 00 00 00 00 00 00 00 00 00 00 00 00
       0.0 0.0 0.0 0.0
0001d0 00 00 00 00 00 00 00 00 00 00 00 00 00 00 00 00
       0.0 0.0 0.0 0.0
0001e0 00 00 00 00 00 00 00 00 00 00 00 00 00 00 00 00
       0.0 0.0 0.0 0.0
0001f0 00 00 00 00 00 00 00 00 00 00 00 00 00 00 00 00
       0.0 0.0 0.0 0.0
000200 00 00 00 00 00 00 00 00 00 00 00 00 00 00 00 00
       0.0 0.0 0.0 0.0
000210 00 00 00 00 00 00 00 00 00 00 00 00 00 00 00 00
       0.0 0.0 0.0 0.0
000220 00 00 00 00 00 00 00 00 00 00 00 00 00 00 00 00
       0.0 0.0 0.0 0.0
000230 00 00 00 00 00 00 00 00 00 00 00 00 00 00 00 00
       0.0 0.0 0.0 0.0
000240 00 00 00 00 00 00 00 00 00 00 00 00 00 00 00 00
       0.0 0.0 0.0 0.0
000250 00 00 00 00 00 00 00 00 00 00 00 00 00 00 00 00
       0.0 0.0 0.0 0.0
000260 00 00 00 00 00 00 00 00 00 00 00 00 00 00 00 00
       0.0 0.0 0.0 0.0
000270 00 00 00 00 00 00 00 00 00 00 00 00 00 00 00 00
       0.0 0.0 0.0 0.0
000280 00 00 00 00 00 00 00 00 00 00 00 00 00 00 00 00
       0.0 0.0 0.0 0.0
000290 00 00 00 00 00 00 00 00 00 00 00 00 00 00 00 00
       0.0 0.0 0.0 0.0
0002a0 00 00 00 00 00 00 00 00 00 00 00 00 00 00 00 00
       0.0 0.0 0.0 0.0
0002b0 00 00 00 00 00 00 00 00 00 00 00 00 00 00 00 00
       0.0 0.0 0.0 0.0
0002c0 00 00 00 00 00 00 00 00 00 00 00 00 00 00 00 00
       0.0 0.0 0.0 0.0
0002d0 00 00 00 00 00 00 00 00 00 00 00 00 00 00 00 00
       0.0 0.0 0.0 0.0
0002e0 00 00 00 00 00 00 00 00 00 00 00 00 00 00 00 00
       0.0 0.0 0.0 0.0
0002f0 00 00 00 00 00 00 00 00 00 00 00 00 00 00 00 00
       0.0 0.0 0.0 0.0
000300 00 00 00 00 00 00 00 00 00 00 00 00 00 00 00 00
       0.0 0.0 0.0 0.0
000310 00 00 00 00 00 00 00 00 00 00 00 00 00 00 00 00
       0.0 0.0 0.0 0.0
000320 00 00 00 00 00 00 00 00 00 00 00 00 00 00 00 00
       0.0 0.0 0.0 0.0
000330 00 00 00 00 00 00 00 00 00 00 00 00 00 00 00 00
       0.0 0.0 0.0 0.0
000340 00 00 00 00 00 00 00 00 00 00 00 00 00 00 00 00
       0.0 0.0 0.0 0.0
000350 00 00 00 00 00 00 00 00 00 00 00 00 00 00 00 00
       0.0 0.0 0.0 0.0
000360 00 00 00 00 00 00 00 00 00 00 00 00 00 00 00 00
       0.0 0.0 0.0 0.0
000370 00 00 00 00 00 00 00 00 00 00 00 00 00 00 00 00
       0.0 0.0 0.0 0.0
000380 00 00 00 00 00 00 00 00 00 00 00 00 00 00 00 00
       0.0 0.0 0.0 0.0
000390 00 00 00 00 00 00 00 00 00 00 00 00 00 00 00 00
       0.0 0.0 0.0 0.0
0003a0 00 00 00 00 00 00 00 00 00 00 00 00 00 00 00 00
       0.0 0.0 0.0 0.0
0003b0 00 00 00 00 00 00 00 00 00 00 00 00 00 00 00 00
       0.0 0.0 0.0 0.0
0003c0 00 00 00 00 00 00 00 00 00 00 00 00 00 00 00 00
       0.0 0.0 0.0 0.0
0003d0 00 00 00 00 00 00 00 00 00 00 00 00 00 00 00 00
       0.0 0.0 0.0 0.0
0003e0 00 00 00 00 00 00 00 00 00 00 00 00 00 00 00 00
       0.0 0.0 0.0 0.0
0003f0 00 00 00 00 00 00 00 00 00 00 00 00 00 00 00 00
       0.0 0.0 0.0 0.0

action_model._continuous_distribution.log_sigma f4 [1, 5]
000000 00 00 00 00 00 00 00 00 00 00 00 00 00 00 00 00
       0.0 0.0 0.0 0.0
000010 00 00 00 00
       0.0

action_model._continuous_distribution.mu.weight f4 [5, 256]
000000 d6 d5 24 3c c6 e4 b8 3c 18 53 2e 3c ef 55 a2 ba
       0.010060748 0.022570025 0.010639928 -0.0012385229
000010 10 a3 c4 bb 9b 76 02 bd b0 91 5f 3b ac de 3a 3b
       -0.006000884 -0.031851392 0.0034113936 0.002851407
000020 f3 dc 91 bb 96 d5 08 bc a0 09 71 3c 27 e0 de bb
       -0.004451388 -0.008351704 0.014711767 -0.0068016234
000030 09 16 42 bc c7 cb bb bb 88 50 ee 3b 37 5b 08 bd
       -0.011846074 -0.0057310793 0.0072727837 -0.033290114
000040 4f 4b 4b 3c 01 00 9c 3c 2f f3 46 3c ef c2 fd 3b
       0.012408092 0.01904297 0.01214294 0.007744185
000050 4d d3 3c bc 6c 72 4c 3c 82 a1 6f bc 52 ae e3 bb
       -0.011524987 0.012478452 -0.014625909 -0.006948271
000060 18 4b 45 3a b7 d5 03 3c 6e 91 c1 bb 18 8a 40 3c
       0.00075261435 0.008046559 -0.005907229 0.011751674
000070 f4 53 9e bc 07 79 17 bc dc 20 91 3b ea da 46 3b
       -0.019327141 -0.009245164 0.004428966 0.0030342885
000080 ef f3 3a bc 18 50 5b 3c dc 59 85 bc 33 2f 82 3c
       -0.011410697 0.013385795 -0.0162782 0.015891647
000090 d5 0a 4d 3c 9b ed 03 bd 47 d7 1a bc 64 4c c2 3b
       0.01251479 -0.03220902 -0.00945074 0.0059295166
0000a0 f4 c2 32 bc 8b 19 15 bb df 28 81 bc 47 21 e6 bb
       -0.010910738 -0.002275082 -0.01576656 -0.00702301
0000b0 2c d5 87 bb fa ec 28 3c 32 0f a8 bb af 85 09 3c
       -0.004145285 0.010310406 -0.0051287645 0.008393689
0000c0 87 50 01 3c 43 7c 04 3c c3 ce 85 3c 65 a4 41 b9
       0.007892734 0.008086267 0.016333943 -0.00018467156
0000d0 df 65 b4 3a a0 81 f1 bb 2a 86 fd b9 10 7d cf bb
       0.001376327 -0.007370189 -0.0004835588 -0.0063320473
0000e0 0d a0 b1 3b 50 a4 d3 3c e8 0e 52 3a a0 7c 27 ba
       0.005420691 0.025835186 0.00080130855 -0.0006389115
0000f0 d3 f7 da bc df 4c 3b 3c b0 51 6f 3b 76 94 12 bc
       -0.0267295 0.011431902 0.0036517195 -0.008946529
000100 52 f3 19 3b 13 c7 8e 3c 03 f5 2c bc 2f 33 07 3c
       0.0023490977 0.01742891 -0.010556462 0.008251949
000110 9b fb 47 bc 3c 30 a6 3b 64 23 85 bb 07 48 d8 3b
       -0.0122059835 0.005071668 -0.004063057 0.006600383
000120 90 5b 15 3c 79 86 82 3b 46 26 bf 3b f9 d1 83 bb
       0.0091160685 0.0039833155 0.00583342 -0.0040228334
000130 a0 8c cb bb 02 5e 0d 3c 0b 76 a3 bc c3 13 ca bc
       -0.006211832 0.00862837 -0.019953748 -0.024667626
000140 63 ec 16 3c 13 00 b5 3c f3 5d fd bc d8 22 e1 3b
       0.009211632 0.022094762 -0.030928588 0.006870609
000150 13 50 e6 3c e8 5d 45 bb 30 42 ba 3c 19 cb c5 3b
       0.028114354 -0.0030115787 0.022736639 0.006036174
000160 17 3f d4 bb 97 81 21 bc 73 41 9a 3a a3 c8 e7 3b
       -0.0064772475 -0.009857557 0.0011768773 0.0070734783
000170 a3 8c f4 bc 20 35 52 3c f6 bc 1a 3c b2 b8 04 bc
       -0.029852217 0.012830049 0.009444466 -0.008100675
000180 4f e5 8a bc 62 86 0a 3c 2d 7b 05 bb fd 16 07 ba
       -0.016955046 0.008454891 -0.0020367608 -0.0005153267
000190 fc 90 bf 3b 4a 9e f5 3b 53 68 04 bb dc 19 9f bc
       0.005846141 0.007495676 -0.0020203784 -0.01942151
0001a0 93 37 b8 3c cd 49 5b 3c 24 1c 81 ba e2 cd ca bc
       0.022487437 0.013384295 -0.0009850306 -0.024756376
0001b0 67 cf e8 3b 45 f1 6a 3c 11 ea 3b bc a7 d4 66 bc
       0.0071048024 0.01433975 -0.01146938 -0.014088786
0001c0 10 46 c0 bb 07 f2 da bb fc 3f a7 bb 77 a5 96 3c
       -0.005867727 -0.006681684 -0.005104063 0.018389447
0001d0 a3 a6 96 bc 9b 84 5c bc e3 cd 5b ba 43 3d 14 bc
       -0.018390005 -0.01345935 -0.00083848665 -0.009047809
0001e0 87 c3 ae bc 8c 1d 10 39 ab b4 56 ba db 87 95 3b
       -0.02133347 0.00013743917 -0.0008190374 0.0045633144
0001f0 f2 23 d6 bc 15 a1 5f 3b db d6 4a bc fb d2 93 bb
       -0.026140187 0.0034123112 -0.012380327 -0.004511235
000200 56 05 2b 3c 4b 78 52 3c 90 03 8e bc a0 fe 28 3d
       0.010438284 0.012846063 -0.017335683 0.041258454
000210 5d 42 27 3b d2 28 63 bc af a7 0c bc 13 ac e0 bb
       0.0025521733 -0.013864713 -0.008584901 -0.0068564503
000220 81 bc 44 3b ef 23 bf 3b 2f c7 07 bc 75 49 e3 3c
       0.0030019584 0.005833141 -0.008287235 0.027744988
000230 24 90 81 bc df 32 e2 3b 63 69 b2 bc e0 b7 f7 b9
       -0.015815802 0.006903037 -0.021778768 -0.0004724851
000240 b3 ea 15 3c 8d e8 02 3c 5b e2 29 bc 10 f9 f8 3a
       0.009150195 0.007990015 -0.010368909 0.0018995125
000250 56 fd 8e 3c 0d ab 20 bc c8 e5 63 3c 2c 5c c3 3c
       0.017454784 -0.009806407 0.013909765 0.023847662
000260 3a 6d 13 bc f6 a8 30 bc 33 23 f5 bb 5a ff c8 bb
       -0.00899821 -0.010782471 -0.0074810027 -0.006133956
000270 42 eb 37 bc 73 2a c9 3c 42 f7 fc bb 00 75 fd 3b
       -0.011225523 0.024556374 -0.007719905 0.0077348948
000280 8f 82 2a 3c f7 a8 dc bb d0 ee dc bb 38 02 a1 3b
       0.010407104 -0.0067340094 -0.006742336 0.0049135946
000290 ab 95 9d 3c 83 98 82 3c 8e d4 38 bc 6b c5 db bb
       0.019236406 0.015941864 -0.011281146 -0.0067068837
0002a0 1f d4 5e bc 6b 4d b7 bb 00 55 6c bb 1d 4f 6e bb
       -0.013600378 -0.0055939457 -0.0036061406 -0.0036363073
0002b0 07 57 17 bd c5 58 0e bc 9f 85 66 bc 5e e3 c5 bb
       -0.03694823 -0.0086881565 -0.014069944 -0.006039067
0002c0 e4 64 84 bc e8 2d d8 bb 55 82 56 bc c8 f4 c7 bb
       -0.01616139 -0.0065972693 -0.013092597 -0.0061021782
0002d0 18 3b 75 3b af b1 37 3b 63 0a 38 3c e2 c5 ac 37
       0.0037419256 0.0028029492 0.011232945 2.0596144e-05
0002e0 4a a3 5f bc 8b df 5b 3c c1 0d ae 3a 13 a2 e8 ba
       -0.013649771 0.013419996 0.0013279245 -0.0017748497
0002f0 53 63 7e 3c 32 15 72 3b f0 fd 16 b8 50 ec 3a 3b
       0.01552661 0.0036938903 -3.5999285e-05 0.00285222
000300 06 1c 3a 3b f0 b6 f1 3b 00 19 a5 3b ef 06 58 bc
       0.002839805 0.007376544 0.0050383806 -0.013185247
000310 36 37 86 bb 07 fa 8a ba a9 b6 20 bd e6 ed 05 3c
       -0.004095937 -0.0010603078 -0.0392367 0.008174395
000320 87 d0 d3 b7 66 69 87 3c ca 9d 2b bc 22 a9 1a bc
       -2.5250263e-05 0.01652975 -0.010474632 -0.0094397385
000330 52 0a a6 bb 6c 47 84 3c 64 34 0f bc 87 b7 de 3a
       -0.0050671482 0.016147338 -0.008740518 0.0016991951
000340 0b 46 d8 3c 6b a1 c0 3b 44 de 32 bc f3 a0 f9 bb
       0.026400587 0.0058786175 -0.01091725 -0.0076180636
000350 bb ea 82 bc bc ab 1b 3b 8b 0b 26 bd 67 2d 3b 3c
       -0.015981069 0.0023753485 -0.040538352 0.011424399
000360 5b 22 94 ba cb bd 73 3b 3a 5e d1 3b c7 16 24 3b
       -0.0011301743 0.0037191983 0.0063894065 0.002503799
000370 5d f6 d4 3b 0d 0c d7 ba 2f f3 c5 3c 22 ef 6f 3b
       0.0064990954 -0.001640679 0.02416381 0.003661104
000380 81 3e 42 3b 7e 17 48 bb af 5b bb 3b 2a eb 0d bc
       0.0029639306 -0.003053158 0.0057177166 -0.0086620245
000390 ff 08 10 bc e7 b8 fe 3a fb 86 8c bc 51 d9 3d 3c
       -0.008791207 0.0019433767 -0.017154207 0.011587457
0003a0 cd 6e 9f 3c 6b 9f 29 3c 0d 5a 78 3c e0 97 a4 bc
       0.019462014 0.01035295 0.0151581885 -0.02009195
0003b0 dd 05 8d 3c b1 14 a6 3b 80 cc 4f 3c 0f e4 70 bc
       0.01721471 0.0050683846 0.012683034 -0.014702811
0003c0 5d 1c 04 3b 3a c5 de 3b 8b 88 de bb b4 4b 26 bb
       0.0020158507 0.0067984136 -0.0067911795 -0.0025374712
0003d0 35 39 5f 3b 8b 4d a4 3b 0d e2 10 bc 25 52 88 3c
       0.0034061198 0.0050141267 -0.008842957 0.016640732
0003e0 ad f7 0e 3c 13 7d 16 3c fa ed 0b bc cf 22 91 3c
       0.008726043 0.009185093 -0.008540625 0.017716793
0003f0 84 fe 22 3b 9f 26 b7 bc 63 37 68 3b 2f d2 03 3b
       0.0024870941 -0.022357283 0.0035433404 0.0020114293

action_model._continuous_distribution.mu.bias f4 [5]
000000 00 00 00 00 00 00 00 00 00 00 00 00 00 00 00 00
       0.0 0.0 0.0 0.0
000010 00 00 00 00
       0.0

network_body.observation_encoder.processors.0.normalizer.running_mean f4 [100]
000000 b4 35 7e 3f 00 00 00 00 00 00 00 00 94 a0 08 3e
       0.99300694 0.0 0.0 0.13342506
000010 a5 b8 7e 3f 00 00 00 00 00 00 00 00 1e ef 09 3e
       0.99500495 0.0 0.0 0.13470122
000020 0f 7d 7f 3f 00 00 00 00 00 00 00 00 6a 49 0b 3e
       0.998002 0.0 0.0 0.13602224
000030 96 3b 7f 3f 00 00 00 00 00 00 00 00 29 ed 0a 3e
       0.99700296 0.0 0.0 0.13567032
000040 2d 77 7e 3f 00 00 00 00 00 00 00 00 c3 7b 0c 3e
       0.994006 0.0 0.0 0.13719086
000050 96 3b 7f 3f 00 00 00 00 00 00 00 00 9b be 08 3e
       0.99700296 0.0 0.0 0.1335396
000060 96 3b 7f 3f 00 00 00 00 00 00 00 00 6d ad 0b 3e
       0.99700296 0.0 0.0 0.13640375
000070 96 3b 7f 3f 00 00 00 00 00 00 00 00 1e 00 06 3e
       0.99700296 0.0 0.0 0.13085982
000080 87 be 7f 3f 00 00 00 00 00 00 00 00 23 3d 0d 3e
       0.99900097 0.0 0.0 0.13792853
000090 87 be 7f 3f 00 00 00 00 00 00 00 00 6d b6 05 3e
       0.99900097 0.0 0.0 0.13057871
0000a0 87 be 7f 3f 00 00 00 00 00 00 00 00 f3 8c 0f 3e
       0.99900097 0.0 0.0 0.14018612
0000b0 96 3b 7f 3f 00 00 00 00 00 00 00 00 44 c2 03 3e
       0.99700296 0.0 0.0 0.12867075
0000c0 87 be 7f 3f 00 00 00 00 00 00 00 00 34 69 0e 3e
       0.99900097 0.0 0.0 0.1390732
0000d0 96 3b 7f 3f 00 00 00 00 00 00 00 00 7e b7 03 3e
       0.99700296 0.0 0.0 0.12862965
0000e0 87 be 7f 3f 00 00 00 00 00 00 00 00 ec 7c 0c 3e
       0.99900097 0.0 0.0 0.13719529
0000f0 96 3b 7f 3f 00 00 00 00 00 00 00 00 0e 8d 01 3e
       0.99700296 0.0 0.0 0.12651464
000100 87 be 7f 3f 00 00 00 00 00 00 00 00 ca d7 09 3e
       0.99900097 0.0 0.0 0.13461223
000110 96 3b 7f 3f 00 00 00 00 00 00 00 00 eb cc ff 3d
       0.99700296 0.0 0.0 0.12490257
000120 87 be 7f 3f 00 00 00 00 00 00 00 00 40 cf 06 3e
       0.99900097 0.0 0.0 0.13164997
000130 2e 77 7e 3f 00 00 00 00 00 00 00 00 c0 80 fa 3d
       0.99400604 0.0 0.0 0.12231588
000140 87 be 7f 3f 00 00 00 00 00 00 00 00 ee d4 07 3e
       0.99900097 0.0 0.0 0.1326482
000150 a5 b8 7e 3f 00 00 00 00 00 00 00 00 7d 06 f8 3d
       0.99500495 0.0 0.0 0.121106125
000160 87 be 7f 3f 00 00 00 00 00 00 00 00 ba b6 07 3e
       0.99900097 0.0 0.0 0.13253298
000170 b4 35 7e 3f 00 00 00 00 00 00 00 00 8c 39 f7 3d
       0.99300694 0.0 0.0 0.12071523
000180 0f 7d 7f 3f 00 00 00 00 00 00 00 00 c7 98 08 3e
       0.998002 0.0 0.0 0.1333953
