Assets/results/4/CoinChaser/CoinChaser-499893.onnx (onnx, 439515 bytes, 13 tensors)

network_body.observation_encoder.processors.0.normalizer.running_mean f4 [100]
00000000: 7eeb 763f 8a28 973b da7d e139 475b 613e
00000010: 4ddf 773f 493e 8e3b fb19 d939 c25e 603e
00000020: 31ee 753f cd2e ad3b befa eb39 75f5 613e
00000030: ad97 783f 2cb0 873b ed7d e139 3433 5f3e
00000040: 5012 753f af2d b93b e64b dd39 6e9a 623e
00000050: fbfb 783f 573a 8b3b 10cf d239 fca0 5d3e
00000060: 4375 743f 95aa c33b 76db d339 ef3f 633e
00000070: 613f 793f 7636 883b cde1 e939 f3d7 5b3e
00000080: 2705 743f 4e83 d43b 05cf d239 42ab 633e
00000090: fb4f 793f 9ef7 863b 3620 ef39 04dc 593e
000000a0: 5fd0 733f 816d dd3b f900 d739 bfeb 633e
000000b0: 0d5d 793f 49ac 843b feb5 d039 f7c4 573e
000000c0: 00d5 733f 6cd6 dc3b 603f dc39 7916 643e
000000d0: d35f 793f 4ce0 793b e632 db39 e1e2 553e
000000e0: 111b 743f 8840 d03b d696 e339 2c57 643e
000000f0: 265f 793f 838d 6d3b 7a26 da39 0e0b 543e
00000100: d86e 743f a956 c33b 65a3 e439 86f0 643e
00000110: d952 793f bae1 693b f9ce d239 466d 523e
00000120: f0c0 743f d917 c23b f44b dd39 c692 653e
00000130: 7c50 793f 0ebd 5e3b 0201 d739 fef0 503e
00000140: 5b0d 753f ae6f c53b 6adb d339 8d5b 663e
00000150: f15d 793f a4ac 5a3b f7b5 d039 dcd0 4f3e
00000160: 8763 753f ca02 c33b 5a3f dc39 d538 673e
00000170: 0367 793f 5a58 5e3b 076b ca39 d3ee 4e3e
00000180: a1a2 753f b40f c03b 76c2 d139 1252 683e
0.9645308 0.004612987 0.0004300911 0.22007476 0.96825105 0.004340921 0.00041408822 0.21911147
0.96066576 0.00528512 0.0004500951 0.2206629 0.9710644 0.0041408744 0.00043009166 0.21796876
0.9573107 0.005651198 0.00042208954 0.22129223 0.9725949 0.004248898 0.00040208595 0.21643442
0.9549143 0.0059712627 0.00040408567 0.22192357 0.97362334 0.004156883 0.00044609458 0.21469097
0.9532036 0.0064853793 0.00040208563 0.22233298 0.97387666 0.0041188737 0.0004560963 0.21275336
0.95239824 0.0067574386 0.0004100872 0.22257899 0.9740761 0.0040488583 0.00039808446 0.2107123
0.9524689 0.0067394283 0.00042008888 0.22274198 0.9741184 0.0038128076 0.00041808857 0.20887329
0.953538 0.006355349 0.00043409195 0.22298878 0.9741081 0.0036247678 0.00041608867 0.20707342
0.95481634 0.0059612584 0.00043609287 0.22357377 0.9739204 0.0035687522 0.00040208528 0.20549497
0.956069 0.005923253 0.00042208994 0.22419271 0.97388434 0.0033987197 0.00041008746 0.20404431
0.95723504 0.006025276 0.00040408532 0.22495861 0.9740897 0.0033367062 0.00039808426 0.20294517
0.9585499 0.00595126 0.0004200887 0.22580273 0.9742281 0.0033927173 0.00038608184 0.20208292
0.95951277 0.005861247 0.0004000847 0.22687557

network_body.observation_encoder.processors.1.normalizer.running_mean f4 [52]
00000000: 3735 fa3e b95e f43a 415c 613d 58ed bc3e
00000010: 7c0c fb3e eb24 ea3a f927 603d 2a0b bd3e
00000020: dd80 f93e ac90 f83a b8e8 623d 31db bc3e
00000030: 4a3f fc3e 7d5b e93a af0a 5f3d 8b4a bd3e
00000040: 121a f93e c9b8 053b 7f7b 643d b7e0 bc3e
00000050: dad4 fd3e 79e6 e43a 6d41 5d3d 509b bd3e
00000060: 431e f93e f9bb 103b dbc4 653d cf16 bd3e
00000070: 1f9c ff3e d964 df3a c66f 5b3d 5cf2 bd3e
00000080: 033e f93e ec66 1c3b 4251 673d ba78 bd3e
00000090: aeee 003f 4dca d73a fec7 593d 685c be3e
000000a0: 45f5 f93e 5ebe 233b b1f2 683d 5f00 be3e
000000b0: 6412 023f 22a0 d93a 9a26 583d f2eb be3e
000000c0: c00a fb3e 8193 2d3b ad9e 6a3d 0bac be3e
0.48868725 0.0018643952 0.05501962 0.3689983 0.49032962 0.0017863786 0.05472562 0.3692258
0.48731127 0.0018964014 0.05539772 0.3688598 0.49267036 0.0017803755 0.054453548 0.36970934
0.48652703 0.002040433 0.055781838 0.36890194 0.49576455 0.0017463706 0.054017473 0.37032557
0.486559 0.0022084697 0.05609594 0.36931464 0.49923798 0.0017043605 0.053573392 0.37098968
0.48680124 0.0023865057 0.056473978 0.3700617 0.50364196 0.0016463489 0.053169243 0.37179875
0.48819938 0.0024985294 0.056872074 0.37109658 0.5080931 0.001660351 0.05277119 0.37289387
0.4903164 0.0026485624 0.05728023 0.37240633

network_body.observation_encoder.processors.2.normalizer.running_mean f4 [5]
00000000: 5936 45bf 8198 2a40 efc3 3ebf 84c4 673f
00000010: c6f1 a03e
-0.7703605 2.665558 -0.7451772 0.90534234 0.31434458

network_body._body_endoder.seq_layers.0.weight f4 [256, 157]
00000000: 391a 7ebd 268e 1c3d 6055 3a3c 264c c6bd
00000010: f98c 233e 7c5f 1c3e aa74 24bd 0c31 adbd
00000020: 5c6b 0c3d 68ed cebc 13b1 02bc 8755 89bd
00000030: 3723 14bd d887 a6bc 51bb f3bd a814 153d
00000040: 9ca6 7cbc 3f4f 153e cca0 b63c ceca 81bb
00000050: 6228 393d 116b 2ebb 6bc9 35bd 1cae 093d
00000060: 781e 103d eec5 45bd e509 9ebd b9c5 81bd
00000070: ef59 ac3d 4ec8 afbc 30c5 a73d aa04 58bd
00000080: 8443 b83d 9229 a3bc a833 33be d043 20be
00000090: 3149 6fbd 7396 a23d 756c 34bd 2782 5dbc
000000a0: 667e 8fbd 305d 1e3c a0f3 383d 1337 593d
000000b0: b468 b4bd 3fcf 26bd 3bfd 2c3d 4b70 60bc
000000c0: 8bac 493c 73a0 cc3c 4094 b1bd 6827 59bd
000000d0: c8f4 a13d da05 f7bc 761c 353d 8770 ac3d
000000e0: 30d1 96bc dde5 213d 40bb 983d 2afd c3bc
000000f0: ba4f 3ebc 75b8 1fbd f002 2abe 0710 103e
00000100: ac00 d0bc 9979 5f3e fb27 a6bd e22f ca3d
00000110: 95c8 96bc f091 2d3d a6d6 babc b140 393e
00000120: f79a b13d 5c5a aa3d f8e2 143e 38e3 83bd
00000130: 3f20 de3b 1f73 063d d6f0 4d3d 16c6 253d
00000140: 5cc6 6aba bfdb 0abc c35d d5bc 0ff2 7a3d
00000150: 89c0 d1bd 8661 a73d 5b89 bdbd 5361 d43d
00000160: 0fa5 1abd b9e0 0ebb 2a48 123c fff7 c0bd
00000170: 053c 18bd d704 623d b202 28bd da32 a83d
00000180: 5ccf a93d 6814 943d bb0e 44bd 1916 3d3d
00000190: b9b7 b1bc 5624 6e3d b60e 26bd 2c09 543d
000001a0: 2363 15be bb2e 2f3e 0314 4e3d 645b 1cbe
000001b0: 521c d83c f9a8 693d 9f45 6dbc 2ceb a23d
000001c0: 2a13 8a3d 3085 0cbd 955b 0b3d a864 c73d
000001d0: b945 9f3d 153c 013e 1eb0 b53d 8f39 4fbb
000001e0: 8e81 06bd 644b d83d 5301 2abd ff57 d3bd
000001f0: a279 bf3c 5beb abbd 15e9 313e 74c1 ca3d
00000200: 503d 95bd da29 ff3c 8bb9 53bc 1d90 5dbd
00000210: c7b8 fbbc 7f6a 3dbd 4dce bf3d 79f4 c2bd
00000220: f8fb 05bc dfdf 313c c6c6 023c e439 9b3c
00000230: adcf a43d 1fcb 393d f6ba 22be bc6b 233c
00000240: 80d6 b23a 06c5 36bd 4092 1dbe dfd9 96bd
00000250: 4514 6e3c ba01 6d3d 32b6 d23d 6def cd3d
00000260: 2724 b43b 109d c8bb 5849 6b3c 3509 463d
00000270: f914 bd3d 79a8 0f3d 5c45 843d 4b84 99bd
00000280: 203c fcbd 91ed 0e3e 64fe 253d 76c3 5bbe
00000290: c9de 0bbe f817 613d b9fc 143d c447 acbc
000002a0: ce11 15bd 2fa8 4cbd 49fa 77bc 436f b1b9
000002b0: c89a 9a3d 8c5f c03d 70b5 6d3d 8558 c4bc
000002c0: 886c c3bb 5b6c 933d c7cc e1ba 50e9 a03c
000002d0: f25b e13d a61f 98bd f1b8 063e fca3 89bc
000002e0: 081f 143d 48c9 80be cc53 803c 7c49 75bd
000002f0: dc7e ddbd f1d0 50bc 9440 893d a63d fb3c
00000300: b333 a63d 7590 6a3d 79d6 6fbc b50a d0bd
00000310: fa96 91bd 7f95 323d d94e 19be 0c63 e3bb
00000320: a8b3 76bc 7954 fc3d 6a80 74bb dc2e 513d
00000330: 42cf 7c3d 8cd1 babd 24f7 803d f5c3 ae3d
00000340: 142c edbd 6aa7 81bd 4564 403d f3e0 5fbd
00000350: 03c3 7a3d f542 ca3d 3a88 2a3d d99f e7bd
00000360: 7a41 cb3d 2e25 bb3d 896a 173e 177a 8fbd
00000370: 2f02 363e 86a3 df3c 4804 8dbd 3916 a9bb
00000380: 8742 ef3d de75 28bd d458 103e 5c13 203e
00000390: 4fa9 b53d f82b 5cbb e2e6 063d b9da b73d
000003a0: b4de c63d cc9c a43d 833f e93c 91e5 f9bc
000003b0: 71cb 133e 5035 e53d bb67 59bd f727 b1bb
000003c0: f5d6 103e c199 2abe 2830 6cbd cbff 2d3d
000003d0: 95ef eabc 3d84 813b 3729 04bd e401 163d
000003e0: cb89 683e 1e79 853d f3d8 5cbd 4f63 babb
000003f0: 8d34 2abd a43c b73d 1e9e 48bd a3bb 893d
-0.062036727 0.0382215 0.011372894 -0.09682493 0.15971746 0.152708 -0.040150322 -0.084566206
0.034282073 -0.025259688 -0.007976788 -0.06705766 -0.036166396 -0.020328447 -0.11900962 0.036396652
-0.015420582 0.14581011 0.02229347 -0.003960944 0.045204528 -0.002661411 -0.04438154 0.03361331
0.035185307 -0.048284464 -0.07716731 -0.06336541 0.08415591 -0.021457817 0.081919074 -0.052738823
0.089972526 -0.019917283 -0.17500174 -0.15650868 -0.05841941 0.07938852 -0.044048745 -0.0135198
-0.070065305 0.009665772 0.045154214 0.05303104 -0.08809033 -0.04072499 0.042233687 -0.013698648
0.012309204 0.024978852 -0.086708546 -0.053016096 0.079080164 -0.030154157 0.044216596 0.084199004
-0.018410295 0.039525855 0.0745759 -0.023924429 -0.011615688 -0.03899427 -0.16602683 0.14068614
-0.025390945 0.2182373 -0.081130944 0.09872414 -0.018406192 0.042375505 -0.02280743 0.18091084
0.08672135 0.08318016 0.14539707 -0.06439823 0.0067787464 0.03282463 0.050278507 0.040472113
-0.00089559495 -0.008475243 -0.026045686 0.061266 -0.10241801 0.08172898 -0.09254714 0.103701256
-0.03775507 -0.0021801426 0.008928338 -0.094223015 -0.037166614 0.055180397 -0.041018195 0.08212824
0.08291504 0.07230455 -0.04786561 0.046163652 -0.021694051 0.05814012 -0.040541373 0.05176656
-0.14588599 0.1710767 0.050312053 -0.15269238 0.026380692 0.05704591 -0.014481931 0.07955012
0.067419365 -0.034306705 0.034022886 0.097359955 0.077769704 0.12620576 0.08871482 -0.003162
-0.032838397 0.105612546 -0.04150517 -0.10319518 0.023373429 -0.083945 0.1737407 0.099001795
-0.07287085 0.031147886 -0.012922655 -0.054092515 -0.030727757 -0.04624414 0.093655206 -0.09519286
-0.00817775 0.010856598 0.007981962 0.018948503 0.080474235 0.045359727 -0.15891632 0.009974416
0.0013644248 -0.04462149 -0.15387821 -0.07365774 0.0145312 0.057862975 0.10288657 0.100554325
0.0054974738 -0.006122239 0.014360748 0.048348624 0.09232516 0.035072777 0.06458542 -0.07495936
-0.123161554 0.13957812 0.04052581 -0.21461281 -0.13659205 0.0549545 0.036373828 -0.021030314
-0.036393933 -0.04996508 -0.015135356 -0.00033842967 0.075490534 0.09393224 0.05803436 -0.02396799
-0.0059638657 0.071984015 -0.0017227166 0.019642502 0.11003865 -0.074279115 0.13156487 -0.016801827
0.036162406 -0.25153565 0.015664957 -0.059884533 -0.10815212 -0.012745128 0.067017704 0.030669045
0.081153296 0.05726667 -0.014638537 -0.10158292 -0.071088746 0.0435996 -0.14971484 -0.0069392975
-0.015057482 0.123207994 -0.0037307986 0.05107008 0.061721094 -0.09121999 0.06297138 0.085334696
-0.11580673 -0.0633076 0.046970624 -0.054657888 0.061221134 0.09876052 0.041633822 -0.113097854
0.09924598 0.09137951 0.14786734 -0.07005709 0.1777427 0.027299654 -0.06885582 -0.00516012
0.11682611 -0.041128032 0.14096385 0.15632385 0.08870184 -0.0033595543 0.03293503 0.08977265
0.09710446 0.08037719 0.028472668 -0.030504974 0.14433075 0.11191809 -0.05307744 -0.0054063755
0.141445 -0.16660215 -0.057663113 0.04248027 -0.028678695 0.0039525316 -0.032265868 0.036622897
0.22708814 0.06517242 -0.053917836 -0.005688108 -0.041554023 0.08947113 -0.048978917 0.06725242

network_body._body_endoder.seq_layers.0.bias f4 [256]
00000000: bbef 69bc 21c1 683b 42d3 4e3b 7961 b23b
00000010: a351 b43c 4b29 93bb be2b ee3c e410 ff3a
00000020: b090 863c 0c52 973c b342 0d3b 0fca 493c
00000030: a6dd b83c 7711 a33a 82c3 ccba b1b9 02bb
00000040: 4086 a9bb 5038 853b a124 173c 8af7 a2bb
00000050: 1764 8bbc e0a5 74bc ce2b f2bc abd6 043c
00000060: 00fb 893c fd4b 603c 0c8a 403a 3c8e c33c
00000070: 2e07 043b 0b2d dc3b 0327 1d3c 7eff 9cbc
00000080: 0fbd 1cbc 60e4 bebb 9f61 383d b75f 2e3d
00000090: a74e 2bbc b394 34bc a8d6 00bd 8e0f 003d
000000a0: 5dc1 b13c 4a8a 2a3c bec5 643b 34f1 fd3b
000000b0: b104 133c c1c1 f23c 1c7c aa3c 9e96 363d
000000c0: 0aa4 12bd c5de 953c bab6 7bba 12d6 cebb
000000d0: 17b7 173c 1b0c 7ebc cd12 453c 71ef 0f38
000000e0: 6ea1 143c 053e f8bb 16b9 7f3c 78af 56bb
000000f0: 595d 933c d893 653c 5aed 363d ec01 a23c
00000100: 7482 ed3c 9389 ae3c 78a4 1f3c ce28 17bc
00000110: 5181 c33b 6c9b 873b 6d8c d33b 0e94 88bc
00000120: d13f 333c 7bcc b93c 45d5 ee3c 30ff 64bb
00000130: a8d4 9c3b a72d b5bb 06b1 ce3a 1857 2b3c
00000140: b09c 8fbc ec08 8e3c 77e8 c43b 6938 2bbc
00000150: 94f0 753c 072f 70bb cb29 e0bb 0118 5f3c
00000160: d743 d23c 5b65 da3c 7a84 25bc 275c e83b
00000170: bb4f d1ba f328 663b 0b66 323c efae bc3a
00000180: 7d6e 323c c720 02bd d05b 86bc fe4e 33bc
00000190: 8835 503d 8e53 b33b 26ca 66bc 1ca2 0ebc
000001a0: 5c02 9cbc 2045 a93c a8f4 5c3a f6eb 11bc
000001b0: 0f56 1c3c 9e71 f33c 08f0 29bb 2410 003d
000001c0: 7695 9338 491d 56bc 75b6 06bb 3c16 b93c
000001d0: 9ca3 e43b 919c 7cbc 237e 5c3d 6e4d 0e3d
000001e0: b1ce 85bc 5ba8 d53c 719f 27bb 4292 8fbc
000001f0: 132d 863c 7a22 143d 3f1f 173c 720e ab3c
00000200: b01e dfbb 1dfd ef39 5532 bc3c d5e8 fe3c
00000210: 1bf3 ab3c 3b76 ac3c 77ae a8bc 0647 8fbb
00000220: 0b00 6d3c 2a36 de3c 7632 973c beff 0e3b
00000230: 35be 2b3d 3063 e23c 26b9 95bc a00e 82bc
00000240: 93e5 b5bc 5716 ecbc 6505 6e3c edd6 b63b
00000250: 3a30 11bc 80ac 76bc fdf3 3ebb 50c9 263d
00000260: 100a 5cb9 eede cc39 5207 43bc 5346 003c
00000270: 1cf5 e23c ffe2 c3bc 2424 b03c 94ea 54bc
00000280: 57e8 99bb 9c6c 1a3c ff38 4c3c caee 043d
00000290: 2536 d1bc a190 df3c c601 653c 02d8 59bc
000002a0: 9e77 abbb d69d de3c c82e 703b 66f3 bb3b
000002b0: 790a a5bc 5fae b83a ecbf 11bb 4498 763c
000002c0: fb49 8ebb c281 e7bb 311c 8c3c 3f97 2e3c
000002d0: 889b fbbb 0771 b13c 723d d4bc 2bf2 533c
000002e0: abb6 d6bb 5cc1 29bb 7a94 1ebc 0007 9bbc
000002f0: a2a2 843b 27e7 a73c 4710 e2b9 789c 913b
00000300: 6906 bfbb da9e d63c d76a 023d 76be 353c
00000310: 7643 80bc 9b3d 1f3b e014 4e3c c65f 9e3c
00000320: 4f43 f53b 9beb ba3c 2a96 f13c fcd0 863b
00000330: 95ce c9bc 8a6c 413b d82a 103d 67a9 953c
00000340: 90ac 013b 239f a2bc 5958 dc3c 380c 133c
00000350: 0d0e 08bc 0b1b c83c 0548 b5bb f705 c93c
00000360: 9222 f43c 1627 1dbb 4c82 5dbc 0d48 9c3c
00000370: 4f3a e33c 2bde bd3c 6ed1 e6ba 29df cdb9
00000380: bb26 86bc 4465 063d 9cd0 84bc 3988 6a3b
00000390: e158 953c c045 2a3d 4b3c 4b3b 7e60 65bb
000003a0: bb88 09bd 4f09 e3bb 1a9d 093d 4b41 a23c
000003b0: cf75 00bb 3281 71bc 82ce c13c fb0f ff3b
000003c0: a61c d43c 583f b0bb 9ec1 ab3c cda7 2cbc
000003d0: bc97 24bc 9696 b33b 036f 4dbc 93e6 a8ba
000003e0: cd24 1d3c 5247 a4bc 6503 cabb 52bb ac3b
000003f0: b977 943a 4e97 c63b 4222 2d3d 0aa0 85b9
-0.014278348 0.0035515504 0.0031559025 0.0054437486 0.022011584 -0.0044910065 0.029073592 0.001945999
0.016426414 0.01847174 0.0021554648 0.012316241 0.022566628 0.0012441118 -0.0015622231 -0.0019947106
-0.0051734746 0.004065551 0.009225042 -0.0049733566 -0.0170155 -0.014932126 -0.029561903 0.008107821
0.016843319 0.013689992 0.00073447893 0.023871534 0.002014588 0.0067192367 0.009591821 -0.019164797
-0.009566559 -0.0058255643 0.045014974 0.04257175 -0.010455764 -0.011021781 -0.031454712 0.031264834
0.021698648 0.010408947 0.0034907903 0.007749701 0.0089732865 0.029633405 0.020811133 0.044577233
-0.03580097 0.018294701 -0.00096021185 -0.0063121403 0.009259961 -0.015505816 0.012028408 3.4316854e-05
0.009071691 -0.0075757527 0.015608093 -0.0032758396 0.017988848 0.0140122995 0.04465995 0.019776307
0.028992869 0.021305835 0.009743802 -0.009226037 0.0059663435 0.004138401 0.006455949 -0.01667216
0.010940508 0.022680512 0.02915443 -0.0034942143 0.004786093 -0.005529124 0.001576931 0.0104577765
-0.01753077 0.017338239 0.0060091573 -0.010450461 0.015010972 -0.0036649124 -0.0068409196 0.013616563
0.025667114 0.026659658 -0.010102386 0.0070910635 -0.0015969196 0.0035119622 0.010888587 0.0014395396
0.0108906 -0.03176954 -0.016401201 -0.010944126 0.0508323 0.005472607 -0.014086282 -0.008705642
-0.019044094 0.020662844 0.00084287906 -0.008906355 0.009542002 0.029717263 -0.0025930423 0.031265393
7.0373455e-05 -0.013068506 -0.002055553 0.02259361 0.0069775116 -0.015418188 0.05383123 0.03474181
-0.01633391 0.026081255 -0.0025577212 -0.017525796 0.016378915 0.036165692 0.009223758 0.020880911
-0.006809078 0.00045774216 0.022973219 0.031116882 0.020989945 0.02105247 -0.020591004 -0.0043724803
0.014465342 0.027125437 0.018456679 0.0021819915 0.041929442 0.027635187 -0.018276762 -0.015876114
-0.022204196 -0.028819246 0.014527653 0.0055798204 -0.008861596 -0.015055776 -0.0029137128 0.04071933
-0.00020984584 0.00039076008 -0.011903601 0.007829267 0.027704768 -0.023911951 0.021501608 -0.012995381
-0.0046968865 0.009425309 0.012464761 0.03245429 -0.025538513 0.027290644 0.013977474 -0.013296129
-0.0052327653 0.027174871 0.0036648978 0.0057358025 -0.020146595 0.0014090053 -0.0022239638 0.015050951
-0.0043423153 -0.007065029 0.017103286 0.010656177 -0.007678453 0.021660341 -0.025908206 0.012936155
-0.0065525374 -0.0025902605 -0.009678954 -0.018924236 0.0040477077 0.020495964 -0.00043118207 0.0044437014
-0.0058296216 0.026198793 0.03184017 0.011092773 -0.015657168 0.0024298194 0.012578219 0.019332778
0.0074848305 0.022817424 0.02949055 0.0041142683 -0.024634639 0.0029514157 0.03519711 0.018269254
0.0019786693 -0.019851273 0.026897596 0.008975081 -0.008304131 0.024426958 -0.005532267 0.024538977
0.02980164 -0.0023979596 -0.013519835 0.019077325 0.027737765 0.023177227 -0.0017610022 -0.00039266914
-0.01637589 0.03281142 -0.016212754 0.0035786761 0.018230857 0.041570425 0.003101128 -0.003500014
-0.033577662 -0.0069286 0.03359709 0.019806525 -0.001960147 -0.014740275 0.02365804 0.0077838874
0.025892567 -0.005378645 0.020966347 -0.010538054 -0.010045942 0.0054805977 -0.012538674 -0.0012886099
0.0095912935 -0.02005354 -0.0061649554 0.0052713538 0.0011327184 0.0060605174 0.042269 -0.00025486975

network_body._body_endoder.seq_layers.2.weight f4 [256, 256]
00000000: e176 e03c 7c7e 12bd 8608 edbd ce8d 29bc
00000010: ae99 413c 4773 813c ea30 02be d4d1 d83c
00000020: f8b4 db3d bbee 55bd c83d b93c 5829 f939
00000030: 5923 963c a792 483d b597 2cbd 0356 c6bc
00000040: 532d 4f3d c3af d73c ec32 7a3d 9ea3 0a3d
00000050: 3dc8 293c 5168 353d 9554 233d 51b0 283d
00000060: 871b f0bc f88a 4c3d 5181 ffbb 16f3 70bb
00000070: c1b0 b7bc 5ed7 023e e52f f2bc 2716 91bd
00000080: cfaa 90bc db5a 75bd 586b 423d 667f 9a3d
00000090: 6498 3ebc 37b2 c7bc 0940 5ebc e0be ea3d
000000a0: 2262 e13d c5e6 a13c a97b 823c 6ed4 b8bb
000000b0: c95d e7bd d457 c2bc bdb4 adbd c051 793d
000000c0: 64d8 83bd 363f a13b 3f30 c4bd b072 eb3c
000000d0: e66b a03d efd8 1f3d 8d80 91bd db52 6bbb
000000e0: c0fa 6a3d 81cc 83bd f37e 34bd 5ea0 fa3c
000000f0: f294 783c beab 3f3c 28fe a93c 9be7 223d
00000100: 3c46 d83d 670e 14bd ea69 e0bc 40f5 8c3c
00000110: dd8b 613d 6eb5 cf3d 7169 04be 73da bf3c
00000120: 4a52 b83c bfa2 023e a42c 0d3d e1d6 12b7
00000130: 3148 593c 5e51 083e aa6c 373d 4221 3a3d
00000140: c295 3abd 4801 92bd 5860 633d f156 5c3d
00000150: 399b 69bd 45ca d7bc 9328 713d f5db 32bd
00000160: b362 f5bc 2ce3 1abd 08e4 7a3d 8bce 173d
00000170: 38f7 80bd 39fb 93bd f9a4 343d c24a 28bb
00000180: 77aa e1bc 1f2f 01be e431 5abc e9a1 27bd
00000190: db21 d5bc 54c0 87bd 9dfd d0bd bd22 583d
000001a0: 6531 4a3d daf9 0fbd dbca e3bd d2bd a73c
000001b0: c8b4 c8bc e9dc c1bc 7477 a23d 14b4 0ebd
000001c0: 0c08 1e3d 33dc 98bd 02d4 25bd 5db8 4b3d
000001d0: 37f4 7dbb 5afb 16bd 35b9 143e ea86 eebd
000001e0: 2a44 333c bc30 9ebb e4a2 3abc 12e4 6cbd
000001f0: 82e7 66bd 7131 b93d 59cf 643c 15c8 3ebd
00000200: 2edf c43c 58c4 6fbd b746 a73d ab5b 4dbd
00000210: b389 ad3c 9aaa 6ebd ded4 24bd 592f ad3b
00000220: a813 923a 0098 083e 1839 e13d 665e 01bd
00000230: ec44 213c 27c9 19be 3598 a43b 9627 eebd
00000240: 8f7e 04be c57a 90bc 9ca3 9abd 4b2d d63b
00000250: 3316 eabd 62cd 94bd 7485 f03c 98d6 acbd
00000260: e30d 643d 2d6b e1bd b7d7 e33c 43e6 fcbd
00000270: adc5 24bd 708e e6bd 1a32 773d 2a7e 3e3d
00000280: d74e 8a3d a122 5d3d 1747 35bb 8b1f 023d
00000290: 6364 91bc b0b3 ce3c 2b3f edbd 4df9 003d
000002a0: 3b2a d13c 82fa b43c b986 1fbd 1667 b8bd
000002b0: 3fa8 f73c b5c5 373c c0c9 53b9 c40c d03c
000002c0: 2f46 7bbd 831f 3bbd 6b09 a23d 9244 48b9
000002d0: c05a babc 3391 a83c d53b cebc b159 a6bd
000002e0: 2f51 d63c 3a98 9abc 2c41 ccbd b58e 49bd
000002f0: 3617 fc3d 34db dbbd bb26 9ebb 6e64 783c
00000300: abb9 c73c 557b 913b bc8d 843d 5dd3 3c3c
00000310: 1e81 6dbd fff7 1b3d 81f9 69bc 96bd 1f3a
00000320: d873 65bc b74e e73c ec89 04bc ba31 043e
00000330: 96a1 d9bc 8e01 3f38 b5ff 86bd 43a0 b63d
00000340: 9291 9dbb 05e7 a93d 08de a93d 2b19 9c3d
00000350: 43cf 85bd ce50 1a3d be2d 6dbc 9750 043d
00000360: be15 05bd 9413 06bd 3f6c 85bc 45c0 de3d
00000370: a109 903d 5f88 473d a68b c03a cf78 7b3d
00000380: da37 2cbc 63fd dc3c 21b6 4ebb 54e2 1e3d
00000390: 043e 4cbd d390 983d 89f3 f9bd e51e 93bc
000003a0: e049 09bc e9a2 b4bc df2a 37bd 556e 163d
000003b0: 8478 c83d 54ad e0bd 35fb 59bd a645 fe3c
000003c0: 374d ca3d db8b ae3d 3a27 8c3b a8f8 bdbc
000003d0: a6e1 163d 7a61 70bd f84c 68bc 6ade 793d
000003e0: 01f4 603d 5aa0 d9ba 9317 d2bd 941d c7bb
000003f0: b03c ecbc 5b8f 8cbd 36ab 963d 6e0d f03c
0.027400436 -0.035765156 -0.11573891 -0.01034875 0.011816425 0.015802039 -0.12713972 0.026467241
0.107278764 -0.052229624 0.022612467 0.00047523784 0.018327402 0.048967984 -0.042136867 -0.024210935
0.050580334 0.026328927 0.06108372 0.033847444 0.010362682 0.044288937 0.039875586 0.041183773
-0.029310001 0.04993722 -0.007797398 -0.0036765984 -0.02242315 0.12777469 -0.029563854 -0.07084303
-0.017659573 -0.0599011 0.047465652 0.075438306 -0.011633012 -0.024376972 -0.013565072 0.11462188
0.110050455 0.01976336 0.015928106 -0.005640558 -0.11297185 -0.02372352 -0.08481739 0.06086898
-0.064377576 0.0049208654 -0.09579515 0.02874121 0.0783308 0.039025243 -0.07104597 -0.003590754
0.05736804 -0.064354904 -0.04406638 0.030594047 0.01517223 0.011698661 0.020751074 0.039771657
0.10560271 -0.036146548 -0.027394254 0.017206788 0.055065025 0.10142027 -0.12930848 0.023419594
0.022500176 0.12757395 0.0344664 -8.7523085e-06 0.013261841 0.13312289 0.044781365 0.045441873
-0.045552976 -0.07129151 0.055511802 0.05379385 -0.057032797 -0.026341567 0.058876585 -0.0436668
-0.02995429 -0.037814304 0.061252624 0.03706221 -0.06297153 -0.07225651 0.044102643 -0.0025679325
-0.027547104 -0.12615632 -0.013317559 -0.040925894 -0.02601712 -0.066284806 -0.10204623 0.052767504
0.049363513 -0.035150386 -0.11122676 0.020476256 -0.024500266 -0.023664908 0.0793294 -0.034839705
0.038581893 -0.07463875 -0.04048539 0.04973637 -0.00387503 -0.0368608 0.14523776 -0.116468266
0.010941545 -0.004827587 -0.011391375 -0.057834692 -0.056373127 0.09042633 0.013965451 -0.04657753
0.024032202 -0.058536857 0.08167785 -0.05013625 0.021183824 -0.058268167 -0.04024207 0.0052851853
0.0011144774 0.13339233 0.10997218 -0.031584166 0.009843092 -0.1501814 0.0050230273 -0.11628644
-0.12938903 -0.017636666 -0.07550737 0.006536161 -0.114300154 -0.07265736 0.02936051 -0.08439368
0.055677306 -0.1100677 0.027812822 -0.123486064 -0.04022758 -0.112576365 0.060350515 0.04650704
0.06753319 0.053988103 -0.002766078 0.031768363 -0.017748063 0.025232166 -0.11584314 0.03148775
0.025532832 0.022092108 -0.03894684 -0.09004037 0.030231593 0.011216571 -0.00020197686 0.025396712
-0.06134623 -0.04568435 0.079119526 -0.00019099031 -0.022748351 0.020577049 -0.025175015 -0.08122576
0.026161758 -0.018871415 -0.09973368 -0.04920836 0.12309115 -0.10735169 -0.0048263944 0.015160663
0.024380526 0.004439751 0.06472346 0.011525002 -0.057984464 0.038078304 -0.014280678 0.0006093619
-0.01400467 0.028235776 -0.008089524 0.12909594 -0.026566308 4.5539397e-05 -0.06591741 0.08917286
-0.004808613 0.082960166 0.08294302 0.07621988 -0.06533673 0.037674718 -0.014476238 0.03230342
-0.032491438 -0.032733515 -0.016286967 0.10876516 0.070330866 0.048714038 0.0014690056 0.06139451
-0.010511363 0.026976293 -0.0031541663 0.038790062 -0.04986383 0.07449498 -0.12204654 -0.017959068
-0.00837943 -0.022050338 -0.04471862 0.036726315 0.097886115 -0.1097056 -0.053218085 0.03103907
0.09878009 0.08522769 0.004277137 -0.023189858 0.03683629 -0.05868671 -0.014178507 0.061003126
0.0549202 -0.0016603575 -0.10258403 -0.006076524 -0.028837532 -0.068632804 0.07356875 0.029303279

network_body._body_endoder.seq_layers.2.bias f4 [256]
00000000: bcdb bb3c 9ecf a63c fbbf 8039 03f0 0d3b
00000010: edc8 8bbc 2214 97bc ee0b 89bc 024d 9cbb
00000020: cb21 e1bb 9acc 773b 7cad 92bc cce2 a1bb
00000030: 08ae aebc 5024 45bc 1b4c b23c 5f97 99bb
00000040: 37cb f8bb bc56 c73c a7a7 f4ba 9589 a93b
00000050: 4a62 4ebc 7219 55bc 2b72 4cbc 15be fc3c
00000060: 34c2 b43c 9062 00bc da35 703c 82f2 3ebc
00000070: da87 733b ad50 203c f075 7ebc 8c2d f13c
00000080: 4244 38bc c717 b33c 76d6 8d3c 31a3 c43b
00000090: f5f2 363b 9051 633c f254 4f3c 7bdf d03c
000000a0: 9b43 dd3b bc82 e9b9 cf52 f53b 7cd8 9fbc
000000b0: 4063 d33b 6285 74bc 19bf a6bc c59d 103c
000000c0: 53e3 cb3b af32 35bc 1498 ee3c 6e80 86bc
000000d0: 750f e1bc 13e7 2f3c 5d89 a53c 4613 163c
000000e0: d8de cc3c 5d00 81bb 99a5 dd3c 1141 dc3c
000000f0: e9ff 92bc f485 c6bc 68e2 ce3c 5b38 063c
00000100: 4c75 293c 99fd e93a 598c 973c 5010 de3c
00000110: c817 a73b 7827 f9bb e5b6 05bc 5175 053c
00000120: 061e bbbb f4bc ae3c 8856 96bc 82cf 83bc
00000130: 84d9 8fbb cf47 c93b 8af2 6ab6 5dc5 fe3b
00000140: 95b3 603b 68e5 8d3b 426f 26bc 6181 963c
00000150: 0465 043d 1cdc f0bb 3a7e b43c d977 343a
00000160: 7190 4f3c 66cb c73b 985f bfbb db77 133c
00000170: 2be8 fe3c 2146 d5bb d8cf 123c 596e 34bb
00000180: afc9 5cbc dcf0 27bc 267c 1ebc 547e cf3c
00000190: 355f c33b 6008 c53b 6042 f23c ec2c fd3b
000001a0: bcb3 da3c 0101 47bc dec5 693c 608b 4fbc
000001b0: 53a7 a53b 249c 863c a306 36bc 6437 573c
000001c0: 3bc6 3a3c 1279 8d3c 4a96 86bc 85d9 793b
000001d0: d37c 153d e7d2 fbbb 8b13 86bb 8480 b7bb
000001e0: 8152 5cbb 497c 6dbc 3c67 82bc 5fe5 c5bb
000001f0: 3650 283a 0105 f33a 3d0c 94bc 98dc dabb
00000200: c055 f6bb 1c05 b33b 8eeb 4c3c 8913 e13c
00000210: 7602 6cbc 0f95 673c 5854 a6bc 44a8 903c
00000220: 3e9a ebbb 1425 a23c 15d5 4f3c 33ba 323c
00000230: 78d0 0fbc 12f7 0cbc 8867 e43b 5e6e f73b
00000240: 915b 013c 8c19 7cbc d209 bd3b 63dd b43c
00000250: 7483 08bc 0f22 84bb 8d9c 38bc 3211 edbb
00000260: 7b68 2abc cc04 e83c 5172 b8bc b17f fcbb
00000270: f1b3 813c d7a2 b1bc 851c e83c 8440 e5bb
00000280: 0f5a f9bb a4f1 9a3c 8afc 713c a2f4 b7bb
00000290: aea2 983a 02be 253c 2379 cd3b b981 3cbc
000002a0: d8a4 f53c 3dfa c33b 1151 3f3c dff7 48bc
000002b0: 0623 a3bc eeb7 223b 8fb3 113b a913 973c
000002c0: 15d5 993c f56d 5b3c 1f29 b33c 7db8 ec3c
000002d0: 8479 2f3c 8a2c 1cbc 1b4f c43c f8d5 793c
000002e0: a2be 0ebb e278 59bc 1ea6 463d 6415 d03b
000002f0: 5697 9e3c 1eb4 5cbc f716 2a3c 9814 58bb
00000300: bf45 d8bc d606 cf3c 0faf 9dbc 561d 9e3c
00000310: 4897 93bc c791 373c cfb2 f83c 2def e8ba
00000320: a564 2fbc d3ec 1c3b 766d 203c a155 553c
00000330: 71e6 29bc 9718 01bc 4efe b8bb 8a50 2fbc
00000340: b334 b03b 0425 b43b da5b c13b 9ca6 88bc
00000350: 4df1 893c 5fe6 dfbb 496b 813c d44b 42bc
00000360: 3189 b23a 17a0 c23b 8334 d93c 66b0 4bbc
00000370: 344a 393c 3d5f 8c3b 00bd a7bc be2f afba
00000380: f7a3 46bc 911d 12bc 4f9b 30bb 33b4 213b
00000390: b59e d3bb fc13 383b 5fc9 cebc 4fc9 803c
000003a0: 4de9 fdbc faf0 773b 1e27 5a3c 677a ccbc
000003b0: 6bd0 ecbc 3f80 10bc eca0 febb 208e 923c
000003c0: d63d 813c cff8 573b caa3 1ebc 865f df3b
000003d0: 5c81 013d a4af aabb 91aa 503c fac5 bbbc
000003e0: 8bdc 44bb 7c97 38bc ca2b 193c 69ea acbc
000003f0: 4d2b cf3c e0fc ee3c 57d8 813c 0346 af3c
0.022931926 0.020362671 0.000245571 0.002165795 -0.017063582 -0.018442217 -0.016729321 -0.0047699222
-0.0068704835 0.003781116 -0.01790499 -0.0049403664 -0.021323219 -0.012032583 0.021764806 -0.0046872343
-0.0075925845 0.02433335 -0.0018665687 0.0051738718 -0.012596676 -0.013006555 -0.012478392 0.030852357
0.02206526 -0.007835999 0.014661277 -0.011654498 0.0037159831 0.00978486 -0.015531048 0.029440664
-0.011246743 0.021861924 0.017314177 0.0060008992 0.002791581 0.0138744265 0.01265453 0.025497189
0.006752444 -0.00044538628 0.007486678 -0.019512407 0.0064510405 -0.014924379 -0.020354794 0.008826678
0.0062221675 -0.011059447 0.02912525 -0.016418662 -0.02747319 0.010736245 0.020207101 0.009159869
0.025008604 -0.003936811 0.027056502 0.026886495 -0.017944293 -0.024233796 0.025254443 0.008192147
0.010342907 0.0017852067 0.01849954 0.027107388 0.0050992705 -0.007603582 -0.008161281 0.008145646
-0.005710366 0.021330334 -0.018351808 -0.016090158 -0.0043899436 0.0061425935 -3.5009894e-06 0.0077749924
0.0034286727 0.004330326 -0.010158362 0.01837224 0.0323229 -0.007350458 0.022032846 0.0006884314
0.012668715 0.006097245 -0.005840253 0.009000744 0.031116566 -0.006508604 0.008960687 -0.0027531593
-0.0134758195 -0.010250296 -0.009673154 0.025328793 0.0059622773 0.0060129613 0.029572666 0.0077263024
0.026697032 -0.012146235 0.014268367 -0.012667507 0.005055347 0.016431876 -0.011109981 0.013135765
0.011399801 0.017269645 -0.016429085 0.0038124037 0.036495995 -0.0076850536 -0.004091685 -0.005600037
-0.0033618512 -0.014494964 -0.015918367 -0.006039306 0.0006420644 0.001854092 -0.018072242 -0.006679129
-0.0075175464 0.0054632556 0.0125073325 0.027475135 -0.014404884 0.014134659 -0.02030389 0.01765836
-0.007190018 0.01979307 0.01268508 0.010908651 -0.00877773 -0.008603828 0.0069703497 0.0075509986
0.007895366 -0.01538695 0.005768993 0.022078222 -0.008332122 -0.0040323804 -0.011267793 -0.007234716
-0.010400887 0.0283226 -0.022515448 -0.0077056517 0.015832873 -0.021684093 0.028333912 -0.0069962163
-0.007609613 0.018914051 0.014769683 -0.0056138793 0.0011645162 0.010116102 0.006270544 -0.011505538
0.02998583 0.0059807585 0.011677043 -0.012266128 -0.019914161 0.002482887 0.002223227 0.018441992
0.018778363 0.013392915 0.021870194 0.028896565 0.010710124 -0.009532103 0.023963502 0.015248768
-0.0021781106 -0.01327345 0.048498265 0.006350206 0.019359272 -0.013470678 0.010381452 -0.003297126
-0.026400445 0.025271814 -0.019248514 0.019301098 -0.018016472 0.01120419 0.0303587 -0.0017771475
-0.010705148 0.002394487 0.0097917225 0.013020904 -0.010369883 -0.007879398 -0.00564555 -0.010700354
0.005377376 0.0054975767 0.005900842 -0.016681008 0.016838694 -0.0068328823 0.015798228 -0.011858899
0.0013621208 0.0059394944 0.026514297 -0.012432193 0.011309195 0.004283814 -0.020475864 -0.0013365669
-0.012124053 -0.008918182 -0.002694804 0.0024674057 -0.0064581283 0.0028088083 -0.025242506 0.015720991
-0.030995036 0.0037832842 0.01331499 -0.02496071 -0.028907975 -0.008819639 -0.007770648 0.017890036
0.015776556 0.0032954698 -0.009682605 0.006816807 0.031617507 -0.0052089263 0.012735979 -0.022921551
-0.003003868 -0.011266585 0.009348819 -0.02110787 0.025289202 0.029173315 0.01585023 0.021395689

action_model._continuous_distribution.log_sigma f4 [1, 6]
00000000: 7dea 953d 3482 263d e622 bf3d 087d 843d
00000010: 3b50 5ebc 07f1 9d3d
0.07320116 0.040651515 0.09332828 0.0646916 -0.013568933 0.07711988

action_model._continuous_distribution.mu.weight f4 [6, 256]
00000000: 1b40 d4bb 3301 fd3c 46bc 6939 7976 0dbb
00000010: 8cc9 d9bc 86dc 91bd b03b f1bc e486 84bb
00000020: 4529 0d3c 16e5 eb3c 2502 1cbc c7fd 2d3c
00000030: 1a63 683c cabc 5abc b532 5e3c e378 39bc
00000040: 491c c4bb 0399 1d3c 8010 c03c e25c 513c
00000050: 9cbc a63c 75ff b5bb 8b54 45bd 20f6 9e3b
00000060: a94b 423d 9e0d 8dbc 04cd 1cbc 362c c4bc
00000070: 9733 d43b ef7e 26bb 3aa9 48bc ffdc d23c
00000080: 65d0 453b 45d4 843c 4d8d f7bb 6424 f33c
00000090: b91b 813c e2b1 2c3c a05f e23c 1e91 5abb
000000a0: 0a13 46bd 0bc2 3a3b 42eb 173c cb8f 7bbd
000000b0: cf36 2dbc 0281 55bc dede a6bc 58ed 8f3c
000000c0: 165b ac3c f8b2 d4bb 3e4b de3c 4940 44bc
000000d0: d2e2 20bb ee49 8f3c 6d3a 703c 675e fabc
000000e0: 388f ba3b 7faf 2dbb e1db 013d bfc6 0a3d
000000f0: a340 b73b 5b5b 27bc 8544 8f3c e939 e23c
00000100: c1ab 30bb f5e2 13bb 66be f53c 4275 323d
00000110: 37cb 353c 870c 933c e095 993c 599a 093c
00000120: d9fa e33b d833 f33c b786 8d3c e131 eebc
00000130: 380d 1b3d 87d8 75bc eb67 ac3a 7029 7f3c
00000140: 64d7 22bd d37c b7bc ea5e e13c 9e91 dabb
00000150: b194 203d 87f1 e0bc 01e9 3d3c 54c4 f23b
00000160: 2330 56bc 7d9e febb f47a 833c 0fde 883b
00000170: 527f ce3c e41b 23bb 365b 4abc 3979 bc3c
00000180: 527a aa3b f06a 95bc d41d 5b3c 9713 863c
00000190: 625e b5bc e08f e7bb 2dab 113c 8ce7 7bbc
000001a0: cff8 32bb 02b5 163c ef6f d33c 273a 64bc
000001b0: dfd4 a93c f015 9f3a bbb2 bb3c c2e5 f6bc
000001c0: 7d52 0f3c 4eb0 4b3c b7e3 973c 3a5e 023d
000001d0: 79cc 143d 0722 543c c1bc 523c c631 d43c
000001e0: a95c a0bc 96c7 6ebc 953b febc c532 4dbc
000001f0: 805d 753b 9f18 d93c 6b0d 81bb 4290 90bc
00000200: 29d5 00bd 84fd 6abb 8c79 96bb 71dd 863c
00000210: 77f7 99bc c275 663c 1004 8dbc 412d 053c
00000220: d35b 95bb cd55 9e3c 9be3 44bc 347b b7bc
00000230: 92a7 debc c5e4 debb a16c d43b 32d5 843c
00000240: 758d 6f3c 8b62 42bc bae9 61bc 2fb9 3a3d
00000250: a453 643a d911 d5bc e2b3 e2bc d3b4 39bb
00000260: 7f12 16bc 27e9 573c 27ff d4ba ff15 003b
00000270: fbea d0bc cbe3 b5bb e3bf dc3c d89e ed3b
00000280: cecd f7bc ff61 a1bc 54f5 e93c adf2 fe3c
00000290: be8e 48bc f171 8e3b bc04 24bc 1d27 863c
000002a0: f773 a53c ee33 2c3c d32a 17bc 44ce dbbc
000002b0: e92e a3bc 2c23 09ba 3474 e1bc aa0d 33bc
000002c0: 8375 1e3c 4ff1 953c 9e8e dabb 4a29 da3b
000002d0: 92cf 013b 5e13 86bc 665a d13c 6b25 0d3d
000002e0: 6a1d d83c a868 ad3b 24c4 6f3d 0c3e 22bd
000002f0: 66c7 b33a 5a9b 713a aca3 843b 6e52 72bc
00000300: fb07 80bb 2d9b 213d bbb9 6a3c 9cb1 92bc
00000310: 2059 6bbc 9547 cb3c 8826 f3bb 8707 463c
00000320: 4697 b43c 5bff 11bc e1b2 1cbc dd29 e43b
00000330: 33e4 e93b 4a2f 9abb db46 bc3c 0693 8b3c
00000340: 980f c83a b20f 9c3c 3c47 d7bb dd0c 3fbd
00000350: 7714 573c eb8f 713c edd2 d9bb 5d73 30bc
00000360: f9ad 5a3c dc1e 243d e44c 3d3c 0c99 22bc
00000370: 2c34 973c 76d8 893b ec33 033d af9e 4bbd
00000380: c959 46bc 1fbc 723c bd29 763c 1500 573c
00000390: 33e4 c93c 454d 15bc 9c9f f1bb 8271 ba3c
000003a0: e813 ecbb 452d 41bd 4edd 3a3d dd3f ccbb
000003b0: c285 cfbc 09a8 0bbc 61f5 363a 4f3e 353c
000003c0: 0cbe 5f39 b39f f3bb 511b b9bc b559 ca3b
000003d0: 26cc ad3c 4a6f abbc ffb1 d03b 2a2e 663a
000003e0: 26aa f73a 1a58 683b 49b0 953c 7edf 693b
000003f0: 1b99 3c3d 8105 bf3c db9a 2a3d 6bc0 f339
-0.0064773685 0.03088436 0.00022290749 -0.0021585508 -0.026585363 -0.0712214 -0.029447407 -0.0040444005
0.008615796 0.02879576 -0.009521996 0.010619587 0.014183784 -0.013350675 0.013561894 -0.011320326
-0.005984817 0.009619 0.023445368 0.012778493 0.020353608 -0.0055541345 -0.04817633 0.0048511177
0.047435436 -0.017218407 -0.009570364 -0.023946863 0.0064758766 -0.0025405248 -0.012247378 0.025740145
0.0030184027 0.0162145 -0.007554686 0.029680438 0.01576029 0.010540457 0.027633488 -0.0033350657
-0.048358 0.0028497006 0.009272398 -0.06141643 -0.010572149 -0.013031246 -0.020369943 0.017569229
0.021039527 -0.0064910613 0.027135488 -0.011978217 -0.0024549258 0.017491307 0.014662367 -0.030562593
0.0056933425 -0.002650231 0.031703833 0.033880945 0.005592422 -0.010214652 0.017488727 0.027615504
-0.0026957842 -0.0022565697 0.029998016 0.043568857 0.0110958135 0.01795031 0.018748224 0.008398616
0.0069573936 0.029687807 0.017276151 -0.029076518 0.037854403 -0.015005237 0.0013153529 0.015573844
-0.039756194 -0.022398388 0.027511079 -0.006670191 0.039204303 -0.02745892 0.011591197 0.007408658
-0.013073 -0.007770358 0.01604984 0.004176862 0.025207195 -0.002488845 -0.012350848 0.023007022
0.00520257 -0.018239468 0.013373811 0.016366763 -0.022139732 -0.007066712 0.008890909 -0.015375029
-0.0027308946 0.009198429 0.02581021 -0.01392988 0.020731388 0.0012137275 0.022912374 -0.030138854
0.008747694 0.012432171 0.0185412 0.031828143 0.036327813 0.012947566 0.012862385 0.02590264
-0.019575434 -0.014573952 -0.03103427 -0.012524311 0.0037439764 0.026500998 -0.003938367 -0.017646912
-0.031453285 -0.0035856673 -0.0045921262 0.016463013 -0.018794758 0.014066162 -0.017213851 0.008128465
-0.0045580654 0.019328022 -0.012017156 -0.022397615 -0.027179513 -0.006802174 0.006482676 0.01621494
0.014621128 -0.011864315 -0.013788635 0.04558676 0.0008709973 -0.026009487 -0.027673665 -0.002833654
-0.009159683 0.013178146 -0.0016250358 0.001954436 -0.025502672 -0.0055508367 0.026946967 0.0072516017
-0.030249503 -0.019700048 0.028559364 0.031121576 -0.012241064 0.004347079 -0.010010894 0.016376073
0.020196898 0.010510428 -0.009226519 -0.026831754 -0.01991983 -0.0005231376 -0.02752123 -0.010928551
0.009671572 0.018303541 -0.0066698333 0.006657754 0.001980756 -0.016366657 0.0255558 0.034459513
0.026381213 0.005292017 0.058536664 -0.039609954 0.0013716042 0.00092165696 0.0040478315 -0.014790161
-0.0039072013 0.039454628 0.014326508 -0.017906956 -0.014364511 0.024814406 -0.007420365 0.012086756
0.022044789 -0.008910979 -0.009564132 0.0069629983 0.007137799 -0.0047053443 0.022983005 0.01703788
0.0015263436 0.019050453 -0.006569771 -0.046643127 0.013127438 0.014743785 -0.0066474588 -0.010769692
0.013347142 0.040068492 0.011553977 -0.0099241845 0.018457495 0.0042067124 0.03203194 -0.04971188
-0.012106367 0.014815359 0.0150246 0.013122578 0.024644947 -0.009112661 -0.0073737632 0.022759203
-0.0072045214 -0.047162313 0.04562121 -0.006233199 -0.025332335 -0.008523949 0.00069793133 0.011062219
0.00021337735 -0.007434809 -0.022596033 0.0061752447 0.02121551 -0.02092709 0.006368875 0.00087806827
0.0018895313 0.0035452903 0.018272536 0.003568619 0.04604445 0.023318054 0.041651588 0.00046491934

action_model._continuous_distribution.mu.bias f4 [6]
00000000: 5173 613c 7d4b 2abb 2e3b 5e3c 2cf0 2abc
00000010: 9f45 d8bc feb8 ecbb
0.013760404 -0.0025984936 0.013563914 -0.010433238 -0.026400385 -0.007224201

onnx::Div_71 f4 [100]
00000000: 6f68 3d3e 95ce 8a3d e13f aa3c 054d 263e
00000010: 4f8b 333e faab 863d 5b11 a73c f431 253e
00000020: 500f 473e 9185 943d 3025 ae3c 203a 273e
00000030: 05a8 2b3e 068c 833d 1140 aa3c d52a 243e
00000040: 0a03 4f3e 878c 993d 84aa a83c 16ec 273e
00000050: f02f 273e 623e 853d 28a4 a43c e5f4 223e
00000060: 067a 543e 97cf 9d3d 5e0c a53c dfd0 283e
00000070: aa1b 243e b6cc 833d 585f ad3c aba5 213e
00000080: 6f46 583e 356b a43d 0fa4 a43c 863d 293e
00000090: 4e56 233e d532 833d 904b af3c 6b6d 203e
000000a0: aa09 5a3e eece a73d 4b43 a63c 695a 293e
000000b0: 37ba 223e 7615 823d 47d3 a33c 23eb 1e3e
000000c0: 7fe1 593e 0396 a73d 9f44 a83c 6c3d 293e
000000d0: 5899 223e d580 7c3d 94de a73c e2f4 1d3e
000000e0: 228a 573e 0fc6 a23d 3e09 ab3c c91e 293e
000000f0: 28a1 223e 9d39 763d 4278 a73c aefb 1c3e
00000100: 56b2 543e d9ad 9d3d 926d ab3c cd5f 293e
00000110: f433 233e c052 743d 60a4 a43c 4df3 1b3e
00000120: addd 513e c12d 9d3d a1aa a83c ceb2 293e
00000130: 0950 233e e374 6e3d 6843 a63c e7cc 1a3e
00000140: 1430 4f3e 8684 9e3d fc0b a53c 6533 2a3e
00000150: 3aaf 223e 9247 6c3d 4dd3 a33c bd39 1a3e
00000160: 5a1d 4c3e 3d8c 9d3d bc44 a83c ea99 2a3e
00000170: 1343 223e a53e 6e3d 8f59 a13c 9583 193e
00000180: 2cd5 493e f85b 9c3d d63b a43c 186a 2b3e
0.1849687 0.06777684 0.020782413 0.16240318 0.17533611 0.06575771 0.020394018 0.16132337
0.19439435 0.07252038 0.021257967 0.16330767 0.16763313 0.06423192 0.020782502 0.16031964
0.20216003 0.074975066 0.02058912 0.16398653 0.1632688 0.06506039 0.020097807 0.15913732
0.20749673 0.0770561 0.020147499 0.16485928 0.16026178 0.0643553 0.021163628 0.15785854
0.21120618 0.080282606 0.02009776 0.16527376 0.15950891 0.0640618 0.021398336 0.1566674
0.21292749 0.081937656 0.02029576 0.16538395 0.15891348 0.063517496 0.019998206 0.15519385
0.21277426 0.08182909 0.020540534 0.16527337 0.15878808 0.0616463 0.020491876 0.15425447
0.21048787 0.07947933 0.02087843 0.1651565 0.15881789 0.060113538 0.020443086 0.15330383
0.20771155 0.076991744 0.02092627 0.16540451 0.15937787 0.05964923 0.020097911 0.1522953
0.20494719 0.076747425 0.020589175 0.16572115 0.159485 0.05821694 0.020295814 0.15117227
0.20233184 0.077401206 0.020147316 0.16621168 0.15887156 0.057685442 0.019998217 0.15061088
0.19933072 0.07692764 0.020540588 0.16660276 0.158459 0.05816521 0.019696025 0.14991601
0.19710225 0.07634729 0.020048063 0.1673969

onnx::Div_74 f4 [52]
00000000: 7cef ff3e 38ca 303d d47e 693e 3a27 843e
00000010: 00f4 ff3e d30f 2d3d 2be8 683e 9300 843e
00000020: 27eb ff3e f04b 323d db3f 6a3e 5b4b 843e
00000030: 37f9 ff3e 99c5 2c3d 605c 683e 89e9 833e
00000040: 66e8 ff3e 17ec 383d 2803 6b3e 0c6f 843e
00000050: e9fd ff3e 4a1e 2b3d 5c7b 673e acc5 833e
00000060: 9be8 ff3e 005d 403d 33a2 6b3e 1199 843e
00000070: 1300 003f d80d 293d 2095 663e 5f9f 833e
00000080: 68e9 ff3e 37f1 473d 1261 6c3e b1c5 843e
00000090: 81fe ff3e 0d29 263d 9ec2 653e 8185 833e
000000a0: 05ee ff3e de90 4c3d 1c29 6d3e 1c04 853e
000000b0: b2f7 ff3e fbdc 263d 5bf2 643e dd80 833e
000000c0: f3f3 ff3e 0899 523d 66f5 6d3e db40 853e
0.499874 0.0431616 0.22802287 0.25811177 0.49990845 0.04225142 0.22744815 0.25781688
0.49984095 0.04352945 0.22875921 0.25838742 0.49994823 0.04218063 0.22691488 0.2576411
0.49981993 0.045147028 0.22950423 0.25865972 0.49998406 0.041776933 0.22605652 0.2573675
0.4998215 0.04696369 0.23011093 0.2589803 0.50000113 0.041272968 0.22517824 0.25707528
0.49982762 0.048814025 0.23083904 0.25932077 0.4999886 0.040566493 0.22437522 0.25687793
0.49986282 0.049942844 0.23160213 0.25979698 0.49993664 0.040738087 0.22358076 0.25684252
0.49990806 0.051415473 0.23238143 0.26026043

onnx::Div_77 f4 [5]
00000000: c763 8341 7c01 b33f e197 b940 f266 9c3f
00000010: 06b3 ed3e
16.42372 1.3984828 5.79979 1.2218916 0.46425647
