Assets/results/4/CoinChaser/CoinChaser-512.pt (torch, 877642 bytes, 36 tensors)

network_body.observation_encoder.processors.0.normalizer.running_mean f4 [100]
000000 ff 01 7c 3f 00 00 00 00 00 00 00 00 17 0f 8c 3d
       0.98440546 0.0 0.0 0.06838816
000010 7f 01 7d 3f 00 00 00 00 00 00 00 00 f0 06 8c 3d
       0.9883041 0.0 0.0 0.06837261
000020 ff 01 7c 3f 00 00 00 00 00 00 00 00 93 65 8e 3d
       0.98440546 0.0 0.0 0.069529675
000030 bf 81 7c 3f 00 00 00 00 00 00 00 00 17 30 8e 3d
       0.98635477 0.0 0.0 0.06942766
000040 bf 81 7c 3f 00 00 00 00 00 00 00 00 ba 96 93 3d
       0.98635477 0.0 0.0 0.07206483
000050 ff 01 7c 3f 00 00 00 00 00 00 00 00 da 46 91 3d
       0.98440546 0.0 0.0 0.07093592
000060 bf 81 7c 3f 00 00 00 00 00 00 00 00 13 14 9f 3d
       0.98635477 0.0 0.0 0.07767501
000070 ff 01 7c 3f 00 00 00 00 00 00 00 00 cf 70 95 3d
       0.98440546 0.0 0.0 0.07296907
000080 7f 02 7b 3f 00 00 00 00 00 00 00 00 66 b1 af 3d
       0.98050684 0.0 0.0 0.08578758
000090 bf 81 7c 3f 00 00 00 00 00 00 00 00 5c 84 9c 3d
       0.98635477 0.0 0.0 0.07642433
0000a0 fe 02 7a 3f 00 00 00 00 00 00 00 00 c7 82 d1 3d
       0.97660816 0.0 0.0 0.10230022
0000b0 7f 01 7d 3f 00 00 00 00 00 00 00 00 bd ac a2 3d
       0.9883041 0.0 0.0 0.079431035
0000c0 fe 03 78 3f 00 00 00 00 00 00 00 00 12 9a fd 3d
       0.9688109 0.0 0.0 0.12382902
0000d0 ff 01 7c 3f 00 00 00 00 00 00 00 00 71 b1 aa 3d
       0.98440546 0.0 0.0 0.083346255
0000e0 fd 05 74 3f 00 00 00 00 00 00 00 00 66 e1 0e 3e
       0.9532164 0.0 0.0 0.1395317
0000f0 7f 01 7d 3f 00 00 00 00 00 00 00 00 12 7f b1 3d
       0.9883041 0.0 0.0 0.08666815
000100 3c 86 73 3f 00 00 00 00 00 00 00 00 65 15 1b 3e
       0.951267 0.0 0.0 0.1514488
000110 3f 81 7d 3f 00 00 00 00 00 00 00 00 d2 d5 b8 3d
       0.9902534 0.0 0.0 0.09025158
000120 7c 07 71 3f 00 00 00 00 40 80 ff 3a b0 5e 2b 3e
       0.94152045 0.0 0.0019493178 0.16735339
000130 3f 81 7d 3f 00 00 00 00 00 00 00 00 0c 49 bf 3d
       0.9902534 0.0 0.0 0.093401045
000140 7c 08 6f 3f 00 00 00 00 00 00 00 00 97 14 3a 3e
       0.9337232 0.0 0.0 0.18171917
000150 7f 01 7d 3f 00 00 00 00 00 00 00 00 32 b4 c6 3d
       0.9883041 0.0 0.0 0.09702338
000160 fb 09 6c 3f 00 00 00 00 40 80 ff 3a c2 b3 39 3e
       0.9220273 0.0 0.0019493178 0.18134978
000170 3f 81 7d 3f 00 00 00 00 00 00 00 00 76 61 ce 3d
       0.9902534 0.0 0.0 0.10077183
000180 7a 0b 69 3f 00 00 00 00 40 80 ff 3a 82 b8 47 3e
       0.91033137 0.0 0.0019493178 0.19503978

network_body.observation_encoder.processors.0.normalizer.running_variance f4 [100]
000000 03 01 0e 41 00 00 80 3f 00 00 80 3f e6 7a 19 40
       8.875247 1.0 1.0 2.3981261
000010 25 c1 dd 40 00 00 80 3f 00 00 80 3f 66 c0 14 40
       6.929827 1.0 1.0 2.324243
000020 03 01 0e 41 00 00 80 3f 00 00 80 3f 1f d0 2a 40
       8.875247 1.0 1.0 2.6689527
000030 8e f1 fc 40 00 00 80 3f 00 00 80 3f ba 0b 1a 40
       7.9044867 1.0 1.0 2.4069657
000040 8e f1 fc 40 00 00 80 3f 00 00 80 3f 65 b2 40 40
       7.9044867 1.0 1.0 3.0108883
000050 03 01 0e 41 00 00 80 3f 00 00 80 3f 94 87 22 40
       8.875247 1.0 1.0 2.539525
000060 8c f1 fc 40 00 00 80 3f 00 00 80 3f 7f e5 88 40
       7.9044857 1.0 1.0 4.2780147
000070 03 01 0e 41 00 00 80 3f 00 00 80 3f 5e 44 23 40
       8.875247 1.0 1.0 2.5510478
000080 91 e1 2c 41 00 00 80 3f 00 00 80 3f 3a 95 c6 40
       10.80507 1.0 1.0 6.205716
000090 8e f1 fc 40 00 00 80 3f 00 00 80 3f 3b ff 3b 40
       7.9044867 1.0 1.0 2.937453
0000a0 40 82 4b 41 00 00 80 3f 00 00 80 3f 82 b7 39 41
       12.719299 1.0 1.0 11.607302
0000b0 25 c1 dd 40 00 00 80 3f 00 00 80 3f b8 dc 43 40
       6.929827 1.0 1.0 3.0603466
0000c0 00 02 84 41 00 00 80 3f 00 00 80 3f 5a 08 97 41
       16.500977 1.0 1.0 18.879078
0000d0 03 01 0e 41 00 00 80 3f 00 00 80 3f 90 53 67 40
       8.875247 1.0 1.0 3.6144753
0000e0 7e 04 bf 41 00 00 80 3f 00 00 80 3f d5 5a c2 41
       23.877193 1.0 1.0 24.294352
0000f0 25 c1 dd 40 00 00 80 3f 00 00 80 3f e5 d2 7d 40
       6.929827 1.0 1.0 3.965997
000100 df 40 c6 41 00 00 80 3f 00 00 80 3f ac 3e d2 41
       24.781675 1.0 1.0 26.280602
000110 cc 70 be 40 00 00 80 3f 00 00 80 3f 68 bf 8e 40
       5.951269 1.0 1.0 4.460865
000120 06 f7 e9 41 00 00 80 3f 20 c0 ff 3f 35 46 f3 41
       29.245617 1.0 1.9980507 30.40928
000130 cc 70 be 40 00 00 80 3f 00 00 80 3f ac b8 99 40
       5.951269 1.0 1.0 4.803793
000140 82 fc 02 42 00 00 80 3f 00 00 80 3f 57 70 07 42
       32.74659 1.0 1.0 33.859707
000150 25 c1 dd 40 00 00 80 3f 00 00 80 3f b7 0a a8 40
       6.929827 1.0 1.0 5.251308
000160 3e 86 17 42 00 00 80 3f 20 c0 ff 3f c2 05 e8 41
       37.881096 1.0 1.9980507 29.002811
000170 cc 70 be 40 00 00 80 3f 00 00 80 3f 5e 6a b2 40
       5.951269 1.0 1.0 5.5754843
000180 40 80 2b 42 00 00 80 3f 20 c0 ff 3f f4 06 02 42
       42.875244 1.0 1.9980507 32.50679

network_body.observation_encoder.processors.1.normalizer.running_mean f4 [52]
000000 70 20 3f 3f 00 00 00 00 00 00 00 00 c5 40 37 3e
       0.7465887 0.0 0.0 0.17895801
000010 b1 a0 3e 3f 00 00 00 00 00 00 00 00 a4 ca 36 3e
       0.74463946 0.0 0.0 0.17850739
000020 30 a0 3f 3f 00 00 00 00 36 80 ff 3a 61 bc 37 3e
       0.748538 0.0 0.0019493166 0.17942955
000030 31 a0 3f 3f 00 00 00 00 00 00 00 00 67 1d 37 3e
       0.7485381 0.0 0.0 0.1788231
000040 b0 a0 3e 3f 00 00 00 00 36 80 7f 3b 7e 9e 38 3e
       0.7446394 0.0 0.0038986332 0.1802921
000050 f1 1f 40 3f 00 00 00 00 00 00 00 00 9d 43 38 3e
       0.7504874 0.0 0.0 0.17994542
000060 f0 21 3c 3f 00 00 00 00 2c a0 bf 3b 85 d5 39 3e
       0.73489285 0.0 0.0058479514 0.18147857
000070 b0 a0 3e 3f 00 00 00 00 36 80 ff 3a dc 44 3a 3e
       0.7446394 0.0 0.0019493166 0.1819033
000080 6f 22 3b 3f 00 00 00 00 2c a0 bf 3b 92 06 3c 3e
       0.73099416 0.0 0.0058479514 0.18361881
000090 b1 a0 3e 3f 00 00 00 00 36 80 ff 3a 5c e9 3b 3e
       0.74463946 0.0 0.0019493166 0.18350738
0000a0 f0 21 3c 3f 00 00 00 00 2c a0 bf 3b e3 b2 3d 3e
       0.73489285 0.0 0.0058479514 0.18525271
0000b0 b0 a0 3e 3f 00 00 00 00 36 80 ff 3a c5 d4 3d 3e
       0.7446394 0.0 0.0019493166 0.18538196
0000c0 f0 21 3c 3f 00 00 00 00 2c a0 bf 3b f2 75 40 3e
       0.73489285 0.0 0.0058479514 0.18794993

network_body.observation_encoder.processors.1.normalizer.running_variance f4 [52]
000000 ef 1c c4 42 00 00 80 3f 00 00 80 3f f6 8d d2 40
       98.05651 1.0 1.0 6.579829
000010 72 18 c5 42 00 00 80 3f 00 00 80 3f c0 ab c7 40
       98.547745 1.0 1.0 6.2397156
000020 6d 1f c3 42 00 00 80 3f 20 c0 ff 3f 4e f0 df 40
       97.56138 1.0 1.9980507 6.998084
000030 6f 1f c3 42 00 00 80 3f 00 00 80 3f fe 82 c1 40
       97.56139 1.0 1.0 6.0472403
000040 72 18 c5 42 00 00 80 3f 3f 80 3f 40 be 8c ec 40
       98.547745 1.0 2.9922025 7.3921804
000050 ed 1f c2 42 00 00 80 3f 00 00 80 3f 33 22 c0 40
       97.062355 1.0 1.0 6.0041747
000060 0c e4 c9 42 00 00 80 3f 8d e0 7e 40 80 f6 f8 40
       100.945404 1.0 3.9824555 7.7800903
000070 74 18 c5 42 00 00 80 3f 20 c0 ff 3f 3c 0f ca 40
       98.54776 1.0 1.9980507 6.3143597
000080 1c c1 cb 42 00 00 80 3f 8d e0 7e 40 23 10 01 41
       101.87717 1.0 3.9824555 8.06644
000090 72 18 c5 42 00 00 80 3f 20 c0 ff 3f 60 af cc 40
       98.547745 1.0 1.9980507 6.396408
0000a0 0d e4 c9 42 00 00 80 3f 8d e0 7e 40 5e 19 05 41
       100.94541 1.0 3.9824555 8.318693
0000b0 71 18 c5 42 00 00 80 3f 20 c0 ff 3f 5c 1e d0 40
       98.54774 1.0 1.9980507 6.503706
0000c0 0a e4 c9 42 00 00 80 3f 8d e0 7e 40 d1 aa 09 41
       100.94539 1.0 3.9824555 8.604203

network_body.observation_encoder.processors.2.normalizer.running_mean f4 [5]
000000 05 25 c5 c1 19 82 15 40 69 57 33 c1 c8 a1 3f 3f
       -24.643076 2.3360655 -11.20884 0.74856234
000010 31 a1 bd 3e
       0.37037042

network_body.observation_encoder.processors.2.normalizer.running_variance f4 [5]
000000 38 6a 73 44 8a 99 45 44 b8 54 d0 44 ad 20 ea 43
       973.65967 790.39905 1666.6475 468.25528
000010 5c 42 f1 42
       120.62961

network_body.processors.0.normalizer.running_mean f4 [100]
000000 ff 01 7c 3f 00 00 00 00 00 00 00 00 17 0f 8c 3d
       0.98440546 0.0 0.0 0.06838816
000010 7f 01 7d 3f 00 00 00 00 00 00 00 00 f0 06 8c 3d
       0.9883041 0.0 0.0 0.06837261
000020 ff 01 7c 3f 00 00 00 00 00 00 00 00 93 65 8e 3d
       0.98440546 0.0 0.0 0.069529675
000030 bf 81 7c 3f 00 00 00 00 00 00 00 00 17 30 8e 3d
       0.98635477 0.0 0.0 0.06942766
000040 bf 81 7c 3f 00 00 00 00 00 00 00 00 ba 96 93 3d
       0.98635477 0.0 0.0 0.07206483
000050 ff 01 7c 3f 00 00 00 00 00 00 00 00 da 46 91 3d
       0.98440546 0.0 0.0 0.07093592
000060 bf 81 7c 3f 00 00 00 00 00 00 00 00 13 14 9f 3d
       0.98635477 0.0 0.0 0.07767501
000070 ff 01 7c 3f 00 00 00 00 00 00 00 00 cf 70 95 3d
       0.98440546 0.0 0.0 0.07296907
000080 7f 02 7b 3f 00 00 00 00 00 00 00 00 66 b1 af 3d
       0.98050684 0.0 0.0 0.08578758
000090 bf 81 7c 3f 00 00 00 00 00 00 00 00 5c 84 9c 3d
       0.98635477 0.0 0.0 0.07642433
0000a0 fe 02 7a 3f 00 00 00 00 00 00 00 00 c7 82 d1 3d
       0.97660816 0.0 0.0 0.10230022
0000b0 7f 01 7d 3f 00 00 00 00 00 00 00 00 bd ac a2 3d
       0.9883041 0.0 0.0 0.079431035
0000c0 fe 03 78 3f 00 00 00 00 00 00 00 00 12 9a fd 3d
       0.9688109 0.0 0.0 0.12382902
0000d0 ff 01 7c 3f 00 00 00 00 00 00 00 00 71 b1 aa 3d
       0.98440546 0.0 0.0 0.083346255
0000e0 fd 05 74 3f 00 00 00 00 00 00 00 00 66 e1 0e 3e
       0.9532164 0.0 0.0 0.1395317
0000f0 7f 01 7d 3f 00 00 00 00 00 00 00 00 12 7f b1 3d
       0.9883041 0.0 0.0 0.08666815
000100 3c 86 73 3f 00 00 00 00 00 00 00 00 65 15 1b 3e
       0.951267 0.0 0.0 0.1514488
000110 3f 81 7d 3f 00 00 00 00 00 00 00 00 d2 d5 b8 3d
       0.9902534 0.0 0.0 0.09025158
000120 7c 07 71 3f 00 00 00 00 40 80 ff 3a b0 5e 2b 3e
       0.94152045 0.0 0.0019493178 0.16735339
000130 3f 81 7d 3f 00 00 00 00 00 00 00 00 0c 49 bf 3d
       0.9902534 0.0 0.0 0.093401045
000140 7c 08 6f 3f 00 00 00 00 00 00 00 00 97 14 3a 3e
       0.9337232 0.0 0.0 0.18171917
000150 7f 01 7d 3f 00 00 00 00 00 00 00 00 32 b4 c6 3d
       0.9883041 0.0 0.0 0.09702338
000160 fb 09 6c 3f 00 00 00 00 40 80 ff 3a c2 b3 39 3e
       0.9220273 0.0 0.0019493178 0.18134978
000170 3f 81 7d 3f 00 00 00 00 00 00 00 00 76 61 ce 3d
       0.9902534 0.0 0.0 0.10077183
000180 7a 0b 69 3f 00 00 00 00 40 80 ff 3a 82 b8 47 3e
       0.91033137 0.0 0.0019493178 0.19503978

network_body.processors.0.normalizer.running_variance f4 [100]
000000 03 01 0e 41 00 00 80 3f 00 00 80 3f e6 7a 19 40
       8.875247 1.0 1.0 2.3981261
000010 25 c1 dd 40 00 00 80 3f 00 00 80 3f 66 c0 14 40
       6.929827 1.0 1.0 2.324243
000020 03 01 0e 41 00 00 80 3f 00 00 80 3f 1f d0 2a 40
       8.875247 1.0 1.0 2.6689527
000030 8e f1 fc 40 00 00 80 3f 00 00 80 3f ba 0b 1a 40
       7.9044867 1.0 1.0 2.4069657
000040 8e f1 fc 40 00 00 80 3f 00 00 80 3f 65 b2 40 40
       7.9044867 1.0 1.0 3.0108883
000050 03 01 0e 41 00 00 80 3f 00 00 80 3f 94 87 22 40
       8.875247 1.0 1.0 2.539525
000060 8c f1 fc 40 00 00 80 3f 00 00 80 3f 7f e5 88 40
       7.9044857 1.0 1.0 4.2780147
000070 03 01 0e 41 00 00 80 3f 00 00 80 3f 5e 44 23 40
       8.875247 1.0 1.0 2.5510478
000080 91 e1 2c 41 00 00 80 3f 00 00 80 3f 3a 95 c6 40
       10.80507 1.0 1.0 6.205716
000090 8e f1 fc 40 00 00 80 3f 00 00 80 3f 3b ff 3b 40
       7.9044867 1.0 1.0 2.937453
0000a0 40 82 4b 41 00 00 80 3f 00 00 80 3f 82 b7 39 41
       12.719299 1.0 1.0 11.607302
0000b0 25 c1 dd 40 00 00 80 3f 00 00 80 3f b8 dc 43 40
       6.929827 1.0 1.0 3.0603466
0000c0 00 02 84 41 00 00 80 3f 00 00 80 3f 5a 08 97 41
       16.500977 1.0 1.0 18.879078
0000d0 03 01 0e 41 00 00 80 3f 00 00 80 3f 90 53 67 40
       8.875247 1.0 1.0 3.6144753
0000e0 7e 04 bf 41 00 00 80 3f 00 00 80 3f d5 5a c2 41
       23.877193 1.0 1.0 24.294352
0000f0 25 c1 dd 40 00 00 80 3f 00 00 80 3f e5 d2 7d 40
       6.929827 1.0 1.0 3.965997
000100 df 40 c6 41 00 00 80 3f 00 00 80 3f ac 3e d2 41
       24.781675 1.0 1.0 26.280602
000110 cc 70 be 40 00 00 80 3f 00 00 80 3f 68 bf 8e 40
       5.951269 1.0 1.0 4.460865
000120 06 f7 e9 41 00 00 80 3f 20 c0 ff 3f 35 46 f3 41
       29.245617 1.0 1.9980507 30.40928
000130 cc 70 be 40 00 00 80 3f 00 00 80 3f ac b8 99 40
       5.951269 1.0 1.0 4.803793
000140 82 fc 02 42 00 00 80 3f 00 00 80 3f 57 70 07 42
       32.74659 1.0 1.0 33.859707
000150 25 c1 dd 40 00 00 80 3f 00 00 80 3f b7 0a a8 40
       6.929827 1.0 1.0 5.251308
000160 3e 86 17 42 00 00 80 3f 20 c0 ff 3f c2 05 e8 41
       37.881096 1.0 1.9980507 29.002811
000170 cc 70 be 40 00 00 80 3f 00 00 80 3f 5e 6a b2 40
       5.951269 1.0 1.0 5.5754843
000180 40 80 2b 42 00 00 80 3f 20 c0 ff 3f f4 06 02 42
       42.875244 1.0 1.9980507 32.50679

network_body.processors.1.normalizer.running_mean f4 [52]
000000 70 20 3f 3f 00 00 00 00 00 00 00 00 c5 40 37 3e
       0.7465887 0.0 0.0 0.17895801
000010 b1 a0 3e 3f 00 00 00 00 00 00 00 00 a4 ca 36 3e
       0.74463946 0.0 0.0 0.17850739
000020 30 a0 3f 3f 00 00 00 00 36 80 ff 3a 61 bc 37 3e
       0.748538 0.0 0.0019493166 0.17942955
000030 31 a0 3f 3f 00 00 00 00 00 00 00 00 67 1d 37 3e
       0.7485381 0.0 0.0 0.1788231
000040 b0 a0 3e 3f 00 00 00 00 36 80 7f 3b 7e 9e 38 3e
       0.7446394 0.0 0.0038986332 0.1802921
000050 f1 1f 40 3f 00 00 00 00 00 00 00 00 9d 43 38 3e
       0.7504874 0.0 0.0 0.17994542
000060 f0 21 3c 3f 00 00 00 00 2c a0 bf 3b 85 d5 39 3e
       0.73489285 0.0 0.0058479514 0.18147857
000070 b0 a0 3e 3f 00 00 00 00 36 80 ff 3a dc 44 3a 3e
       0.7446394 0.0 0.0019493166 0.1819033
000080 6f 22 3b 3f 00 00 00 00 2c a0 bf 3b 92 06 3c 3e
       0.73099416 0.0 0.0058479514 0.18361881
000090 b1 a0 3e 3f 00 00 00 00 36 80 ff 3a 5c e9 3b 3e
       0.74463946 0.0 0.0019493166 0.18350738
0000a0 f0 21 3c 3f 00 00 00 00 2c a0 bf 3b e3 b2 3d 3e
       0.73489285 0.0 0.0058479514 0.18525271
0000b0 b0 a0 3e 3f 00 00 00 00 36 80 ff 3a c5 d4 3d 3e
       0.7446394 0.0 0.0019493166 0.18538196
0000c0 f0 21 3c 3f 00 00 00 00 2c a0 bf 3b f2 75 40 3e
       0.73489285 0.0 0.0058479514 0.18794993

network_body.processors.1.normalizer.running_variance f4 [52]
000000 ef 1c c4 42 00 00 80 3f 00 00 80 3f f6 8d d2 40
       98.05651 1.0 1.0 6.579829
000010 72 18 c5 42 00 00 80 3f 00 00 80 3f c0 ab c7 40
       98.547745 1.0 1.0 6.2397156
000020 6d 1f c3 42 00 00 80 3f 20 c0 ff 3f 4e f0 df 40
       97.56138 1.0 1.9980507 6.998084
000030 6f 1f c3 42 00 00 80 3f 00 00 80 3f fe 82 c1 40
       97.56139 1.0 1.0 6.0472403
000040 72 18 c5 42 00 00 80 3f 3f 80 3f 40 be 8c ec 40
       98.547745 1.0 2.9922025 7.3921804
000050 ed 1f c2 42 00 00 80 3f 00 00 80 3f 33 22 c0 40
       97.062355 1.0 1.0 6.0041747
000060 0c e4 c9 42 00 00 80 3f 8d e0 7e 40 80 f6 f8 40
       100.945404 1.0 3.9824555 7.7800903
000070 74 18 c5 42 00 00 80 3f 20 c0 ff 3f 3c 0f ca 40
       98.54776 1.0 1.9980507 6.3143597
000080 1c c1 cb 42 00 00 80 3f 8d e0 7e 40 23 10 01 41
       101.87717 1.0 3.9824555 8.06644
000090 72 18 c5 42 00 00 80 3f 20 c0 ff 3f 60 af cc 40
       98.547745 1.0 1.9980507 6.396408
0000a0 0d e4 c9 42 00 00 80 3f 8d e0 7e 40 5e 19 05 41
       100.94541 1.0 3.9824555 8.318693
0000b0 71 18 c5 42 00 00 80 3f 20 c0 ff 3f 5c 1e d0 40
       98.54774 1.0 1.9980507 6.503706
0000c0 0a e4 c9 42 00 00 80 3f 8d e0 7e 40 d1 aa 09 41
       100.94539 1.0 3.9824555 8.604203

network_body.processors.2.normalizer.running_mean f4 [5]
000000 05 25 c5 c1 19 82 15 40 69 57 33 c1 c8 a1 3f 3f
       -24.643076 2.3360655 -11.20884 0.74856234
000010 31 a1 bd 3e
       0.37037042

network_body.processors.2.normalizer.running_variance f4 [5]
000000 38 6a 73 44 8a 99 45 44 b8 54 d0 44 ad 20 ea 43
       973.65967 790.39905 1666.6475 468.25528
000010 5c 42 f1 42
       120.62961

network_body._body_endoder.seq_layers.0.weight f4 [256, 157]
000000 e8 cc 07 bd 62 e0 11 3e 48 8e 3f be 8e a7 08 be
       -0.0331544 0.14245752 -0.1870662 -0.13345167
000010 1d d5 7a 3d 29 bd 20 be 4a 98 fc bd b3 d4 ba bd
       0.061238397 -0.15697159 -0.12333734 -0.091226004
000020 df 68 e9 3c 0d cb 38 be 60 75 61 bd 4f a2 c8 3c
       0.02849239 -0.18046208 -0.05504358 0.024491457
000030 17 30 64 3d 08 f1 45 3d 9b 4c 0c bd 00 89 db 3d
       0.055709925 0.04832557 -0.034252744 0.1071949
000040 33 d9 87 3d bd 3f 81 3d ce 34 0c 3e f6 f9 31 3d
       0.06633224 0.06310985 0.13692018 0.043451272
000050 f9 c9 0f 3d 57 08 45 bd 31 89 a8 3d f3 7f e4 3d
       0.035104726 -0.048103657 0.08229292 0.11157217
000060 ca 53 ab bc 59 5a a3 bd 9f 2d be 3d de bf 02 bd
       -0.020913977 -0.07976217 0.09286045 -0.03192126
000070 ea 36 c7 3d 04 c3 af 3d 26 33 dd bd 10 14 2f 3e
       0.09727271 0.08582118 -0.108007714 0.17097497
000080 83 aa 24 bd 6c 66 6c bd 27 1f a2 bd f6 00 53 bd
       -0.040201675 -0.057714865 -0.07916098 -0.05151459
000090 67 ab 49 3d 46 0a 04 3c 1b 96 e9 3b 85 d1 48 bd
       0.049235728 0.00805909 0.0071284897 -0.04902794
0000a0 93 14 df 3d b7 c6 01 be e8 fb bf 3d 2c 72 02 bd
       0.10892596 -0.1267346 0.09374219 -0.031847164
0000b0 c3 af b2 bc 8f 62 c2 bd f3 9a 1d 3e 99 f5 22 bd
       -0.021812325 -0.09491455 0.1539114 -0.039785
0000c0 f0 bc 63 3d e2 54 2d be 49 4b 54 3d 78 ed 09 3e
       0.055600107 -0.16926911 0.05182961 0.13469493
0000d0 b8 fb 62 3d 9f d3 1a 3e 4c 7d 16 bd 62 ae b1 bd
       0.05541584 0.1511979 -0.036740586 -0.08675839
0000e0 92 0a 80 bb 4c c8 aa 3d 9e d1 fe 3c 32 4e 2a bd
       -0.00390751 0.08338985 0.031105813 -0.04157848
0000f0 e6 da 6d bd 3c 22 88 3d 3b e5 3a bd f1 e5 27 be
       -0.058070086 0.06647155 -0.045628767 -0.1639631
000100 3d 22 03 3d 95 51 a9 39 e3 e6 63 bd 30 5b c8 bd
       0.032015074 0.00032294975 -0.055640113 -0.09783018
000110 01 1a 05 bd ab f1 5d bb 52 30 e5 bc 0f c3 2d 3c
       -0.032495502 -0.003386597 -0.027977142 0.010605588
000120 ae f7 c5 3c 7c 8f b5 3d 39 7f 82 3d 57 78 b9 3c
       0.024165954 0.08865258 0.06371922 0.02264039
000130 a6 b6 38 3d cf 5e d6 3d f5 5d 36 3d 61 13 b0 3d
       0.045096062 0.10467302 0.0445232 0.08597446
000140 39 aa 91 3c 26 5e a8 bd a8 c1 03 bd 83 c0 ff 3c
       0.017781364 -0.082210824 -0.032167107 0.031219726
000150 15 87 b4 bc 78 f2 b6 3d 56 d7 b6 3d a4 80 85 3d
       -0.022037068 0.08932966 0.08927791 0.06518677
000160 07 32 0b 3d dc cd 93 bd ea 33 cc 3d e4 eb 8a bd
       0.033983257 -0.07216999 0.09970839 -0.06783274
000170 02 a9 32 be eb bc be 3d 45 a4 40 3d e5 65 17 be
       -0.17447284 0.09313377 0.04703166 -0.14784963
000180 5a d2 97 3d 5c 0d ef 3d 5a 2d f4 bd 72 8e 6d 3d
       0.07413168 0.1167247 -0.119227126 0.057997175
000190 9c 41 a6 bb 0f f0 10 3d 24 af 8d bd cc 3a 3e be
       -0.005073739 0.035385188 -0.06918171 -0.18577117
0001a0 2b ac 0f be b2 93 16 3d 63 58 81 3c 80 64 56 bd
       -0.1403052 0.036761947 0.015789216 -0.052341938
0001b0 bd e3 08 3e 00 47 18 3e a2 1f ee bd bb 22 b5 bc
       0.13368125 0.14870834 -0.11627127 -0.022111287
0001c0 2b 9c 17 3e 34 82 0d 3d d9 22 48 bd c5 be f5 3d
       0.14805667 0.034548 -0.04886136 0.11999277
0001d0 2f 31 03 3d e4 a1 6e bd 61 1b 15 3d 3c 3c 31 3d
       0.032029327 -0.05825986 0.036403064 0.043270335
0001e0 a3 a9 08 bc ca 8f ca 3d 0d 1f 5f be f6 97 88 3b
       -0.008341226 0.09890707 -0.21789189 0.004168506
0001f0 c7 b8 ad bd b7 2a 12 3d f4 6f bd bc 81 52 42 3e
       -0.08482509 0.035685267 -0.023124672 0.18976785
000200 01 a4 e2 bd 7e d9 17 be d4 fe e3 bd eb 98 d1 3d
       -0.110664375 -0.1482906 -0.11132589 0.10234245
000210 0c 71 cf bc 76 1a cd 3c 12 4b e4 bd 98 05 a3 3d
       -0.02532246 0.025037032 -0.11147131 0.07960051
000220 39 0d b7 bd 46 5d ef bd 31 1d 14 bd 16 cf c5 bd
       -0.08938069 -0.11687712 -0.03616065 -0.09658639
000230 bb cc 91 3d 63 d1 92 bd e1 65 15 3d 61 73 ce 3d
       0.07119127 -0.071688436 0.036474112 0.100806005
000240 f1 94 5c bd 91 37 10 bc 38 0c 9f 3d 65 b6 1d 3d
       -0.05385298 -0.008802311 0.077660024 0.038504023
000250 06 f1 8c 3d ac f0 4c bb 58 66 8c 3d 74 5b b2 3d
       0.06881909 -0.0031271381 0.06855458 0.087088495
000260 81 b0 9e 3c ce 8f 59 bd c2 30 9a bd 44 e4 bc bd
       0.019371273 -0.05311566 -0.07528831 -0.09223226
000270 33 bf a6 bd c3 64 20 3d 1d 41 db bd 00 e3 be bc
       -0.08141937 0.039158594 -0.10705779 -0.023301601
000280 05 bf 5b 3d 85 fc 1c be bd 84 bb bc 4e b9 aa 3d
       0.053648967 -0.15330704 -0.022890443 0.08336125
000290 7a b4 98 bc c9 9d 08 bc 38 d6 b6 3c 32 88 03 be
       -0.018640745 -0.0083384 0.022318944 -0.12844923
0002a0 5b 7b a9 bd 8f 58 d5 3c 68 4b 7d 39 27 6d de bd
       -0.08275481 0.026043205 0.00024156051 -0.10860663
0002b0 dd 5b 5a bd 3c dc 1c be 80 2c 44 bc f5 ff ed ba
       -0.053310264 -0.15318388 -0.0119735 -0.0018157946
0002c0 91 46 0c bd da 9c 31 bd 98 95 89 3c 32 55 2a be
       -0.034246985 -0.043362476 0.016794965 -0.16634062
0002d0 8c 42 00 be 91 63 a4 bc 72 57 3b 3d 5c 4a 45 3e
       -0.12525386 -0.020067008 0.04573769 0.19266647
0002e0 e6 a5 51 3d ca 64 6e 3d f1 41 84 3d 74 75 5f bd
       0.051183604 0.05820159 0.0645789 -0.05455537
0002f0 5c 82 14 bc 96 9b a8 3d 84 cb 9d 3d a4 1d b4 bb
       -0.009064283 0.08232801 0.07704833 -0.0054966975
000300 38 e4 1c 3e 72 2f af bd bb 36 89 bc 89 89 85 3d
       0.15321434 -0.08553971 -0.01674973 0.065203734
000310 6a 3a a8 3c d1 62 cb 3c 42 5d 2d bd a7 2e 5b bd
       0.020535666 0.024827393 -0.042325266 -0.053511288
000320 fc 08 5e bc 9d 9e 33 bc 7d de 25 3c 1a 30 08 bd
       -0.013551947 -0.010963109 0.010123846 -0.033249
000330 51 ad c8 3d b5 8e b9 3d 35 c2 af 3d 0b 1d 4b 3e
       0.097986825 0.09060422 0.08581964 0.19835298
000340 0d 1d 19 be 4b d4 bd 3d 39 0a 29 bb 23 f8 fc 3d
       -0.14952488 0.09269007 -0.0025793447 0.12352016
000350 f7 12 08 bd a5 1e 8f 3d 58 dc 94 bd b7 94 b9 3d
       -0.03322121 0.06988267 -0.0726859 0.09061568
000360 4c b8 a2 bd 0c 89 77 3d 35 18 c3 3d 4d de 86 bd
       -0.07945308 0.060433432 0.095261015 -0.06585369
000370 ce 29 51 3c 07 7f 10 3d bf 21 2d 3c f1 20 a8 3d
       0.012766315 0.035277393 0.010567128 0.08209408
000380 d4 ca 86 3d be 2a d2 bd 68 6f 20 be 88 47 b5 3d
       0.06581655 -0.10262059 -0.15667498 0.08851534
000390 21 1c e1 bd 47 56 5d 3c 6d 1b 39 3d d6 7b 1e 3e
       -0.10991693 0.01350934 0.04519217 0.15476927
0003a0 f6 26 84 3c d6 dc 55 3d 4c 22 9b 3d a6 3b 0e be
       0.01613186 0.05221256 0.07574901 -0.13889942
0003b0 c0 62 3c be 23 f3 cd 3d c9 49 fb ba 1e a3 96 bd
       -0.18397045 0.1005614 -0.001917177 -0.07355331
0003c0 8a e8 e1 3d 44 e2 ea 3c 6b b9 16 be d9 fc af 3c
       0.110306814 0.028672345 -0.14719169 0.021482872
0003d0 db b9 22 be cc 26 3b ba c8 86 ab bc 62 dd 0e be
       -0.1589121 -0.0007139265 -0.020938292 -0.13951638
0003e0 fe 64 b0 3d aa a8 0a 3e 2c 0e 8d bc c0 33 96 3d
       0.08613013 0.13540903 -0.017218672 0.07334089
0003f0 82 95 15 3d 68 c9 f1 3d 85 c8 95 bd 99 df 99 bc
       0.036519535 0.11805993 -0.07313637 -0.018783377

network_body._body_endoder.seq_layers.0.bias f4 [256]
000000 00 00 00 00 00 00 00 00 00 00 00 00 00 00 00 00
       0.0 0.0 0.0 0.0
000010 00 00 00 00 00 00 00 00 00 00 00 00 00 00 00 00
       0.0 0.0 0.0 0.0
000020 00 00 00 00 00 00 00 00 00 00 00 00 00 00 00 00
       0.0 0.0 0.0 0.0
000030 00 00 00 00 00 00 00 00 00 00 00 00 00 00 00 00
       0.0 0.0 0.0 0.0
000040 00 00 00 00 00 00 00 00 00 00 00 00 00 00 00 00
       0.0 0.0 0.0 0.0
000050 00 00 00 00 00 00 00 00 00 00 00 00 00 00 00 00
       0.0 0.0 0.0 0.0
000060 00 00 00 00 00 00 00 00 00 00 00 00 00 00 00 00
       0.0 0.0 0.0 0.0
000070 00 00 00 00 00 00 00 00 00 00 00 00 00 00 00 00
       0.0 0.0 0.0 0.0
000080 00 00 00 00 00 00 00 00 00 00 00 00 00 00 00 00
       0.0 0.0 0.0 0.0
000090 00 00 00 00 00 00 00 00 00 00 00 00 00 00 00 00
       0.0 0.0 0.0 0.0
0000a0 00 00 00 00 00 00 00 00 00 00 00 00 00 00 00 00
       0.0 0.0 0.0 0.0
0000b0 00 00 00 00 00 00 00 00 00 00 00 00 00 00 00 00
       0.0 0.0 0.0 0.0
0000c0 00 00 00 00 00 00 00 00 00 00 00 00 00 00 00 00
       0.0 0.0 0.0 0.0
0000d0 00 00 00 00 00 00 00 00 00 00 00 00 00 00 00 00
       0.0 0.0 0.0 0.0
0000e0 00 00 00 00 00 00 00 00 00 00 00 00 00 00 00 00
       0.0 0.0 0.0 0.0
0000f0 00 00 00 00 00 00 00 00 00 00 00 00 00 00 00 00
       0.0 0.0 0.0 0.0
000100 00 00 00 00 00 00 00 00 00 00 00 00 00 00 00 00
       0.0 0.0 0.0 0.0
000110 00 00 00 00 00 00 00 00 00 00 00 00 00 00 00 00
       0.0 0.0 0.0 0.0
000120 00 00 00 00 00 00 00 00 00 00 00 00 00 00 00 00
       0.0 0.0 0.0 0.0
000130 00 00 00 00 00 00 00 00 00 00 00 00 00 00 00 00
       0.0 0.0 0.0 0.0
000140 00 00 00 00 00 00 00 00 00 00 00 00 00 00 00 00
       0.0 0.0 0.0 0.0
000150 00 00 00 00 00 00 00 00 00 00 00 00 00 00 00 00
       0.0 0.0 0.0 0.0
000160 00 00 00 00 00 00 00 00 00 00 00 00 00 00 00 00
       0.0 0.0 0.0 0.0
000170 00 00 00 00 00 00 00 00 00 00 00 00 00 00 00 00
       0.0 0.0 0.0 0.0
000180 00 00 00 00 00 00 00 00 00 00 00 00 00 00 00 00
       0.0 0.0 0.0 0.0
000190 00 00 00 00 00 00 00 00 00 00 00 00 00 00 00 00
       0.0 0.0 0.0 0.0
0001a0 00 00 00 00 00 00 00 00 00 00 00 00 00 00 00 00
       0.0 0.0 0.0 0.0
0001b0 00 00 00 00 00 00 00 00 00 00 00 00 00 00 00 00
       0.0 0.0 0.0 0.0
0001c0 00 00 00 00 00 00 00 00 00 00 00 00 00 00 00 00
       0.0 0.0 0.0 0.0
0001d0 00 00 00 00 00 00 00 00 00 00 00 00 00 00 00 00
       0.0 0.0 0.0 0.0
0001e0 00 00 00 00 00 00 00 00 00 00 00 00 00 00 00 00
       0.0 0.0 0.0 0.0
0001f0 00 00 00 00 00 00 00 00 00 00 00 00 00 00 00 00
       0.0 0.0 0.0 0.0
000200 00 00 00 00 00 00 00 00 00 00 00 00 00 00 00 00
       0.0 0.0 0.0 0.0
000210 00 00 00 00 00 00 00 00 00 00 00 00 00 00 00 00
       0.0 0.0 0.0 0.0
000220 00 00 00 00 00 00 00 00 00 00 00 00 00 00 00 00
       0.0 0.0 0.0 0.0
000230 00 00 00 00 00 00 00 00 00 00 00 00 00 00 00 00
       0.0 0.0 0.0 0.0
000240 00 00 00 00 00 00 00 00 00 00 00 00 00 00 00 00
       0.0 0.0 0.0 0.0
000250 00 00 00 00 00 00 00 00 00 00 00 00 00 00 00 00
       0.0 0.0 0.0 0.0
000260 00 00 00 00 00 00 00 00 00 00 00 00 00 00 00 00
       0.0 0.0 0.0 0.0
000270 00 00 00 00 00 00 00 00 00 00 00 00 00 00 00 00
       0.0 0.0 0.0 0.0
000280 00 00 00 00 00 00 00 00 00 00 00 00 00 00 00 00
       0.0 0.0 0.0 0.0
000290 00 00 00 00 00 00 00 00 00 00 00 00 00 00 00 00
       0.0 0.0 0.0 0.0
0002a0 00 00 00 00 00 00 00 00 00 00 00 00 00 00 00 00
       0.0 0.0 0.0 0.0
0002b0 00 00 00 00 00 00 00 00 00 00 00 00 00 00 00 00
       0.0 0.0 0.0 0.0
0002c0 00 00 00 00 00 00 00 00 00 00 00 00 00 00 00 00
       0.0 0.0 0.0 0.0
0002d0 00 00 00 00 00 00 00 00 00 00 00 00 00 00 00 00
       0.0 0.0 0.0 0.0
0002e0 00 00 00 00 00 00 00 00 00 00 00 00 00 00 00 00
       0.0 0.0 0.0 0.0
0002f0 00 00 00 00 00 00 00 00 00 00 00 00 00 00 00 00
       0.0 0.0 0.0 0.0
000300 00 00 00 00 00 00 00 00 00 00 00 00 00 00 00 00
       0.0 0.0 0.0 0.0
000310 00 00 00 00 00 00 00 00 00 00 00 00 00 00 00 00
       0.0 0.0 0.0 0.0
000320 00 00 00 00 00 00 00 00 00 00 00 00 00 00 00 00
       0.0 0.0 0.0 0.0
000330 00 00 00 00 00 00 00 00 00 00 00 00 00 00 00 00
       0.0 0.0 0.0 0.0
000340 00 00 00 00 00 00 00 00 00 00 00 00 00 00 00 00
       0.0 0.0 0.0 0.0
000350 00 00 00 00 00 00 00 00 00 00 00 00 00 00 00 00
       0.0 0.0 0.0 0.0
000360 00 00 00 00 00 00 00 00 00 00 00 00 00 00 00 00
       0.0 0.0 0.0 0.0
000370 00 00 00 00 00 00 00 00 00 00 00 00 00 00 00 00
       0.0 0.0 0.0 0.0
000380 00 00 00 00 00 00 00 00 00 00 00 00 00 00 00 00
       0.0 0.0 0.0 0.0
000390 00 00 00 00 00 00 00 00 00 00 00 00 00 00 00 00
       0.0 0.0 0.0 0.0
0003a0 00 00 00 00 00 00 00 00 00 00 00 00 00 00 00 00
       0.0 0.0 0.0 0.0
0003b0 00 00 00 00 00 00 00 00 00 00 00 00 00 00 00 00
       0.0 0.0 0.0 0.0
0003c0 00 00 00 00 00 00 00 00 00 00 00 00 00 00 00 00
       0.0 0.0 0.0 0.0
0003d0 00 00 00 00 00 00 00 00 00 00 00 00 00 00 00 00
       0.0 0.0 0.0 0.0
0003e0 00 00 00 00 00 00 00 00 00 00 00 00 00 00 00 00
       0.0 0.0 0.0 0.0
0003f0 00 00 00 00 00 00 00 00 00 00 00 00 00 00 00 00
       0.0 0.0 0.0 0.0

network_body._body_endoder.seq_layers.2.weight f4 [256, 256]
000000 01 19 04 bd d3 3d 74 bd aa 6f 17 3d 3c 86 09 3d
       -0.032250408 -0.059629273 0.036971726 0.03357528
000010 2e 63 3a 3c a1 70 8c 3c 68 ce a9 3d e0 a2 1d bd
       0.011376185 0.01714355 0.08291322 -0.038485408
000020 a8 81 c7 3d 67 0d 4a bd 49 92 f2 bc 97 81 a0 3d
       0.09741527 -0.049329188 -0.02961077 0.07837217
000030 b2 d6 6b 3d d4 f2 75 3d 3b e4 10 be 9b 5c e5 3b
       0.057577796 0.060046032 -0.14149563 0.006999565
000040 3d 17 7d 3d c2 6b 64 bc 49 ba 9c 3c cc 3d b3 3d
       0.06178974 -0.013941707 0.019131796 0.08752021
000050 b5 ad 5e bd 25 3b 54 3d 3f 04 f4 bc 7a a7 be 3c
       -0.05436488 0.051814217 -0.029787181 0.023273218
000060 87 bb 8d 3d d6 fe b4 3c f0 b4 d3 3c 0e d5 10 3e
       0.069205336 0.022094171 0.025843114 0.14143774
000070 8f 46 d6 ba 8f 97 7c 3d a4 e1 3a 3d 42 12 46 3d
       -0.0016347932 0.061667975 0.045625344 0.048357256
000080 7f b5 10 3d 33 c4 5c bd 3a 1b 85 3c 47 13 77 b8
       0.03532934 -0.053898048 0.016248334 -5.8907342e-05
000090 f2 4b 8c bb 1d e2 c4 3d d6 e4 c0 3d af ae ac bc
       -0.0042815143 0.0961344 0.09418647 -0.02107939
0000a0 64 1e 10 3c f7 c1 54 bd bd 9a 22 3d 01 7d f1 bd
       0.008796308 -0.05194279 0.03969835 -0.11791421
0000b0 d1 33 b9 bd 6a e1 88 3b f8 ac a1 3d 4a 1b 5f bd
       -0.09043086 0.004177262 0.07894319 -0.054469384
0000c0 86 5e 80 bc 4b 6a 91 bd e3 89 29 3d 69 bc a4 3c
       -0.015670072 -0.07100352 0.041391265 0.020109372
0000d0 8d bb 48 bd 1b b0 ef bc 40 e3 4f 3c 56 3d 2a 3d
       -0.049006987 -0.029258778 0.012688458 0.0415624
0000e0 82 32 52 bd b8 85 a0 3c 0b aa 0e 3d a7 5f 04 3d
       -0.0513177 0.019595012 0.034830134 0.032317784
0000f0 11 66 04 3b 9f 48 f9 3b 0a 6d ac bd 22 f4 ef 3b
       0.0020202438 0.007607534 -0.08419235 0.007322804
000100 a8 db dd 3d 35 2b a6 bd 05 d0 6b bc a7 49 4b 3c
       0.10832912 -0.0811371 -0.014392857 0.012407697
000110 d6 18 ec 3d 01 b9 9a bc 20 2a 5d bd 2f 44 34 3d
       0.115281746 -0.018887045 -0.05399525 0.044010337
000120 47 eb 53 3d 65 1d 91 3d 2d 87 08 bc 87 07 6b bd
       0.05173805 0.07085685 -0.00833301 -0.057380226
000130 00 9f 13 bd bf 19 53 bd a0 99 ee 3d fc 2c 70 bb
       -0.036040306 -0.051538225 0.116503954 -0.0036647907
000140 bd 73 e9 3d 43 8d 4c 3d f4 3f 93 bd 9f 92 0d bd
       0.113990285 0.049939405 -0.071899325 -0.034563657
000150 d3 5a 28 bd 0c 63 9b 3d 3d 9e 5e 3d f6 a9 6b 3d
       -0.04110224 0.07587251 0.054350127 0.057535134
000160 ae d8 07 be 51 92 0e bc c0 12 75 bd 69 9a 6f bd
       -0.1326625 -0.008701877 -0.059832335 -0.058496866
000170 ee 7c 35 3d 4b 15 06 bd 60 1d cd 3d 9e 02 52 3c
       0.044308595 -0.03273515 0.100153685 0.012818007
000180 45 ff 2f 3d 02 90 7a bd cf 65 c2 bd 45 68 56 bc
       0.042968053 -0.061172493 -0.09492075 -0.013086383
000190 74 1b 52 3d 05 f4 d7 bd 0f b7 85 bc cf 67 32 bd
       0.051295713 -0.1054459 -0.01632264 -0.04355603
0001a0 b4 66 04 bd 3c e9 80 3c a9 03 4f 3d ad 42 06 3d
       -0.032324508 0.015736215 0.0505406 0.03277843
0001b0 8e aa 8d 3d f3 9d 3e bb 8f 08 cc bc 9e 81 17 be
       0.06917296 -0.0029085844 -0.024906425 -0.14795539
0001c0 ab aa 90 bd 9d 26 d0 3d f4 ec 89 3c c5 7c 96 3d
       -0.07063802 0.10163615 0.01683662 0.07348017
0001d0 5e 6d 88 bd 04 da e4 bc 19 a7 0d 3d 26 22 3f 3d
       -0.06661485 -0.02793599 0.034583185 0.046663426
0001e0 c0 f6 8a bc 58 86 e6 bc 46 79 a8 3c f6 79 13 bc
       -0.016963363 -0.028140232 0.02056564 -0.009001246
0001f0 5a 15 81 bc de 19 81 bd ae 7b 4c 3c d2 9d 49 3d
       -0.015757252 -0.06303762 0.012480659 0.049222775
000200 5a 1d 9d bc 4f d4 30 3d 4a 0a 29 3d 9a 32 49 3d
       -0.019179035 0.043171223 0.041269578 0.049120523
000210 27 9a 69 3d f1 c5 98 bd 5f a9 97 3c 0c 9e c9 3c
       0.057031777 -0.07459629 0.01851338 0.024611495
000220 5b 6d 77 3d 11 b4 9c 3b 4a 55 8d 3d 3b 6a 28 bd
       0.060407024 0.004782208 0.06901033 -0.041116934
000230 ce 58 c8 bd 11 5e 45 bd c0 21 84 bb d1 d1 23 bc
       -0.09782563 -0.04818541 -0.0040323436 -0.009998755
000240 29 1b 01 be 8c 2b be 3c ce ac 0f be 11 0c 97 3d
       -0.12608017 0.023214124 -0.14030764 0.07375348
000250 58 da e2 3d 85 c9 2f 3d f0 de c5 bc 7b 02 74 3d
       0.11076802 0.042916793 -0.024154156 0.059572678
000260 8f ed 70 bd 62 70 48 3b 9d d9 9c 3c cf 7f 08 be
       -0.058820304 0.0030584564 0.019146735 -0.13330005
000270 46 8e df 3d 19 70 41 bd 0d a6 88 bc b5 4a fa bd
       0.109158084 -0.047226045 -0.016680742 -0.122212805
000280 8b 5e b3 bd b6 f2 22 bd 49 75 7e 3c 2b 73 54 3c
       -0.08758267 -0.03978225 0.015530893 0.012966911
000290 15 b6 ad bd 94 fd d3 3c db e7 39 bd bf 41 09 bd
       -0.08481995 0.025877751 -0.04538713 -0.033509966
0002a0 eb fd 96 bc 17 02 ce bd 88 50 27 3d 98 8a b1 3d
       -0.018431624 -0.10058992 0.040848285 0.08669013
0002b0 53 10 2b 3d 61 7f 02 bd e6 da 8e 3d d2 fd 22 3c
       0.041763615 -0.03185976 0.06975345 0.009948211
0002c0 df e8 33 3d ed b0 a7 3a 7d d6 06 bd 1b 58 75 bd
       0.043923255 0.0012793817 -0.032919396 -0.059898477
0002d0 7b 0c 5c bd 57 bb 15 bd bf 34 76 bd 5b 1b c1 bd
       -0.05372284 -0.036555614 -0.060108896 -0.09429046
0002e0 45 b0 2a bc dd e4 52 3a f5 2e 45 3d 61 36 98 3c
       -0.0104180025 0.00080449675 0.048140485 0.018580617
0002f0 f6 18 2d bd 76 ab 4e bd f1 c6 b4 3d 2a 22 65 bd
       -0.042260133 -0.050456487 0.088270076 -0.055940785
000300 8c 70 47 3d 3b 3e ca 3c 18 35 cd 3c 76 71 da 3d
       0.048691317 0.024687877 0.025049731 0.10666172
000310 03 1e 55 ba fe c3 da 3c 62 fb b7 bd ae 05 be 3d
       -0.0008129777 0.026704784 -0.08983494 0.09278427
000320 48 1c 0a be df 1b ec 3c 33 98 8a 3b d1 c2 2b 3d
       -0.13487351 0.028821884 0.0042295693 0.04193384
000330 38 80 4a 3d 81 6f 94 bd 5e 4b 25 3e 4d 15 12 be
       0.049438685 -0.0724783 0.16142032 -0.14265938
000340 91 b4 b0 bc a9 6c d7 bd a2 4d 83 bd 69 1e 98 3d
       -0.021570476 -0.10518772 -0.06411292 0.07427675
000350 de 0c 2f 3d e9 58 7f bc a5 2d 37 3d 04 d0 ff bb
       0.04273688 -0.015585163 0.044721264 -0.00780678
000360 f1 3d 81 bd 65 b2 41 3d 1e 43 99 bd 47 ae aa bc
       -0.063106425 0.04728927 -0.07483505 -0.020835055
000370 f6 8d f1 bc b9 13 6b bc de 31 37 bd dd 89 5f bc
       -0.029486638 -0.014347964 -0.04472529 -0.013643709
000380 79 7e 58 3c f2 fb 47 3c 56 f4 55 3c 18 dc b6 3d
       0.013213747 0.012206065 0.0130587425 0.08928698
000390 eb a2 83 bd 5d a7 18 3e 3c 37 73 bd 5f dc 4c 3d
       -0.064275585 0.14907594 -0.059378847 0.05001485
0003a0 ee 6a ba 3d 28 f6 aa 3c e5 14 a5 bc 22 7f 86 bc
       0.091024265 0.02086933 -0.020151565 -0.016418044
0003b0 5c c6 fd 3c 3a f5 b6 bb 71 ff 02 bc 6e 65 9c bd
       0.030978374 -0.0055834325 -0.007995472 -0.07636534
0003c0 89 e5 a7 bd a4 9c 1d 3d 45 dc 67 bc 2e 38 58 3c
       -0.08198077 0.038479462 -0.014151637 0.013196988
0003d0 1e be 7d bc e5 6a 65 3d d3 af 8a 3d 0e 30 c0 bc
       -0.015487222 0.056010146 0.06771817 -0.023460414
0003e0 17 2c 90 3b 63 d2 87 3d 40 71 62 3d 94 7d 5a 3b
       0.004399787 0.06631925 0.055283785 0.003333901
0003f0 a9 e2 4e 3d 56 e7 c1 3c bd 27 57 bd bf e6 81 bc
       0.05050913 0.02366988 -0.05252813 -0.015857099

network_body._body_endoder.seq_layers.2.bias f4 [256]
000000 00 00 00 00 00 00 00 00 00 00 00 00 00 00 00 00
       0.0 0.0 0.0 0.0
000010 00 00 00 00 00 00 00 00 00 00 00 00 00 00 00 00
       0.0 0.0 0.0 0.0
000020 00 00 00 00 00 00 00 00 00 00 00 00 00 00 00 00
       0.0 0.0 0.0 0.0
000030 00 00 00 00 00 00 00 00 00 00 00 00 00 00 00 00
       0.0 0.0 0.0 0.0
000040 00 00 00 00 00 00 00 00 00 00 00 00 00 00 00 00
       0.0 0.0 0.0 0.0
000050 00 00 00 00 00 00 00 00 00 00 00 00 00 00 00 00
       0.0 0.0 0.0 0.0
000060 00 00 00 00 00 00 00 00 00 00 00 00 00 00 00 00
       0.0 0.0 0.0 0.0
000070 00 00 00 00 00 00 00 00 00 00 00 00 00 00 00 00
       0.0 0.0 0.0 0.0
000080 00 00 00 00 00 00 00 00 00 00 00 00 00 00 00 00
       0.0 0.0 0.0 0.0
000090 00 00 00 00 00 00 00 00 00 00 00 00 00 00 00 00
       0.0 0.0 0.0 0.0
0000a0 00 00 00 00 00 00 00 00 00 00 00 00 00 00 00 00
       0.0 0.0 0.0 0.0
0000b0 00 00 00 00 00 00 00 00 00 00 00 00 00 00 00 00
       0.0 0.0 0.0 0.0
0000c0 00 00 00 00 00 00 00 00 00 00 00 00 00 00 00 00
       0.0 0.0 0.0 0.0
0000d0 00 00 00 00 00 00 00 00 00 00 00 00 00 00 00 00
       0.0 0.0 0.0 0.0
0000e0 00 00 00 00 00 00 00 00 00 00 00 00 00 00 00 00
       0.0 0.0 0.0 0.0
0000f0 00 00 00 00 00 00 00 00 00 00 00 00 00 00 00 00
       0.0 0.0 0.0 0.0
000100 00 00 00 00 00 00 00 00 00 00 00 00 00 00 00 00
       0.0 0.0 0.0 0.0
000110 00 00 00 00 00 00 00 00 00 00 00 00 00 00 00 00
       0.0 0.0 0.0 0.0
000120 00 00 00 00 00 00 00 00 00 00 00 00 00 00 00 00
       0.0 0.0 0.0 0.0
000130 00 00 00 00 00 00 00 00 00 00 00 00 00 00 00 00
       0.0 0.0 0.0 0.0
000140 00 00 00 00 00 00 00 00 00 00 00 00 00 00 00 00
       0.0 0.0 0.0 0.0
000150 00 00 00 00 00 00 00 00 00 00 00 00 00 00 00 00
       0.0 0.0 0.0 0.0
000160 00 00 00 00 00 00 00 00 00 00 00 00 00 00 00 00
       0.0 0.0 0.0 0.0
000170 00 00 00 00 00 00 00 00 00 00 00 00 00 00 00 00
       0.0 0.0 0.0 0.0
000180 00 00 00 00 00 00 00 00 00 00 00 00 00 00 00 00
       0.0 0.0 0.0 0.0
000190 00 00 00 00 00 00 00 00 00 00 00 00 00 00 00 00
       0.0 0.0 0.0 0.0
0001a0 00 00 00 00 00 00 00 00 00 00 00 00 00 00 00 00
       0.0 0.0 0.0 0.0
0001b0 00 00 00 00 00 00 00 00 00 00 00 00 00 00 00 00
       0.0 0.0 0.0 0.0
0001c0 00 00 00 00 00 00 00 00 00 00 00 00 00 00 00 00
       0.0 0.0 0.0 0.0
0001d0 00 00 00 00 00 00 00 00 00 00 00 00 00 00 00 00
       0.0 0.0 0.0 0.0
0001e0 00 00 00 00 00 00 00 00 00 00 00 00 00 00 00 00
       0.0 0.0 0.0 0.0
0001f0 00 00 00 00 00 00 00 00 00 00 00 00 00 00 00 00
       0.0 0.0 0.0 0.0
000200 00 00 00 00 00 00 00 00 00 00 00 00 00 00 00 00
       0.0 0.0 0.0 0.0
000210 00 00 00 00 00 00 00 00 00 00 00 00 00 00 00 00
       0.0 0.0 0.0 0.0
000220 00 00 00 00 00 00 00 00 00 00 00 00 00 00 00 00
       0.0 0.0 0.0 0.0
000230 00 00 00 00 00 00 00 00 00 00 00 00 00 00 00 00
       0.0 0.0 0.0 0.0
000240 00 00 00 00 00 00 00 00 00 00 00 00 00 00 00 00
       0.0 0.0 0.0 0.0
000250 00 00 00 00 00 00 00 00 00 00 00 00 00 00 00 00
       0.0 0.0 0.0 0.0
000260 00 00 00 00 00 00 00 00 00 00 00 00 00 00 00 00
       0.0 0.0 0.0 0.0
000270 00 00 00 00 00 00 00 00 00 00 00 00 00 00 00 00
       0.0 0.0 0.0 0.0
000280 00 00 00 00 00 00 00 00 00 00 00 00 00 00 00 00
       0.0 0.0 0.0 0.0
000290 00 00 00 00 00 00 00 00 00 00 00 00 00 00 00 00
       0.0 0.0 0.0 0.0
0002a0 00 00 00 00 00 00 00 00 00 00 00 00 00 00 00 00
       0.0 0.0 0.0 0.0
0002b0 00 00 00 00 00 00 00 00 00 00 00 00 00 00 00 00
       0.0 0.0 0.0 0.0
0002c0 00 00 00 00 00 00 00 00 00 00 00 00 00 00 00 00
       0.0 0.0 0.0 0.0
0002d0 00 00 00 00 00 00 00 00 00 00 00 00 00 00 00 00
       0.0 0.0 0.0 0.0
0002e0 00 00 00 00 00 00 00 00 00 00 00 00 00 00 00 00
       0.0 0.0 0.0 0.0
0002f0 00 00 00 00 00 00 00 00 00 00 00 00 00 00 00 00
       0.0 0.0 0.0 0.0
000300 00 00 00 00 00 00 00 00 00 00 00 00 00 00 00 00
       0.0 0.0 0.0 0.0
000310 00 00 00 00 00 00 00 00 00 00 00 00 00 00 00 00
       0.0 0.0 0.0 0.0
000320 00 00 00 00 00 00 00 00 00 00 00 00 00 00 00 00
       0.0 0.0 0.0 0.0
000330 00 00 00 00 00 00 00 00 00 00 00 00 00 00 00 00
       0.0 0.0 0.0 0.0
000340 00 00 00 00 00 00 00 00 00 00 00 00 00 00 00 00
       0.0 0.0 0.0 0.0
000350 00 00 00 00 00 00 00 00 00 00 00 00 00 00 00 00
       0.0 0.0 0.0 0.0
000360 00 00 00 00 00 00 00 00 00 00 00 00 00 00 00 00
       0.0 0.0 0.0 0.0
000370 00 00 00 00 00 00 00 00 00 00 00 00 00 00 00 00
       0.0 0.0 0.0 0.0
000380 00 00 00 00 00 00 00 00 00 00 00 00 00 00 00 00
       0.0 0.0 0.0 0.0
000390 00 00 00 00 00 00 00 00 00 00 00 00 00 00 00 00
       0.0 0.0 0.0 0.0
0003a0 00 00 00 00 00 00 00 00 00 00 00 00 00 00 00 00
       0.0 0.0 0.0 0.0
0003b0 00 00 00 00 00 00 00 00 00 00 00 00 00 00 00 00
       0.0 0.0 0.0 0.0
0003c0 00 00 00 00 00 00 00 00 00 00 00 00 00 00 00 00
       0.0 0.0 0.0 0.0
0003d0 00 00 00 00 00 00 00 00 00 00 00 00 00 00 00 00
       0.0 0.0 0.0 0.0
0003e0 00 00 00 00 00 00 00 00 00 00 00 00 00 00 00 00
       0.0 0.0 0.0 0.0
0003f0 00 00 00 00 00 00 00 00 00 00 00 00 00 00 00 00
       0.0 0.0 0.0 0.0

action_model._continuous_distribution.log_sigma f4 [1, 5]
000000 00 00 00 00 00 00 00 00 00 00 00 00 00 00 00 00
       0.0 0.0 0.0 0.0
000010 00 00 00 00
       0.0

action_model._continuous_distribution.mu.weight f4 [5, 256]
000000 82 eb 42 bc 5b ae 98 3c 6a b1 e5 bb d7 99 77 bb
       -0.01189697 0.018637827 -0.007009675 -0.0037780905
000010 26 fb 35 3c 58 59 f1 bb 3f d4 02 bc 6e 6a 1d 39
       0.011107242 -0.007365387 -0.007985174 0.00015012335
000020 ef 2d 5c bc f3 eb c6 bb c5 50 65 3c eb 4c 5d bc
       -0.013438686 -0.006070608 0.013996308 -0.013507108
000030 e7 4d c8 3c 94 8c 13 3d 41 57 9b 3c ec c9 25 bc
       0.02445121 0.036022738 0.018962504 -0.010118943
000040 ae 73 c6 3c 26 6a b5 bc cb 44 90 bc 4e d0 97 bb
       0.024225082 -0.022145342 -0.017610928 -0.004632986
000050 42 69 63 3c ea 43 0d 3b 3f 32 e1 bc f8 a8 9c bc
       0.013880076 0.0021555373 -0.02748978 -0.01912354
000060 57 0b df 3c af fe 14 bc f3 31 b3 ba 82 96 e0 bc
       0.027227087 -0.009093924 -0.0013671502 -0.027415518
000070 e8 f6 3a 3b 29 f8 c5 bc 45 5e 6d 3c 4b 58 5d 3b
       0.0028528515 -0.024166184 0.014487808 0.003377455
000080 8f 59 fa bb 31 a8 86 bc 63 e5 03 3c 62 8f de 3a
       -0.0076400707 -0.016437622 0.0080502955 0.0016979987
000090 5b e8 d6 bb 40 26 cf 3b 5d 98 3b bc 25 f6 0c bd
       -0.0065584606 0.0063216984 -0.0114499 -0.03441443
0000a0 03 a4 12 bc b5 97 f1 bb 47 f2 29 bc 9b c7 87 bb
       -0.008950236 -0.007372821 -0.010372705 -0.004143668
0000b0 21 18 99 3c 99 5e 4b bc 43 1d f4 3b 5f 0a 20 3d
       0.018688263 -0.012412691 0.0074497773 0.03907239
0000c0 4f 3d 88 3c 9a 7a 58 3c 23 b4 5b 3c 42 64 17 3a
       0.016630797 0.013212824 0.013409647 0.00057751324
0000d0 ac 5f 08 3c da aa 43 bc e5 f5 65 b6 fe cb 1d bc
       0.008323591 -0.01194259 -3.4266789e-06 -0.009631155
0000e0 c2 68 69 bb 73 26 17 bc 1b 92 30 3c 13 25 d7 3c
       -0.003561542 -0.009225476 0.010777022 0.026262796
0000f0 57 97 57 3c c2 33 c5 ba b9 11 12 3c 25 35 6b bc
       0.013158641 -0.0015045332 0.008915358 -0.014355932
000100 27 08 3f 3c 07 28 e4 3a 54 38 83 3a 5e 41 02 bc
       0.0116596585 0.0017406949 0.0010011294 -0.007950155
000110 37 06 11 3d 50 10 5f bc 5d 4b ad bb 16 a0 8e 3c
       0.035406318 -0.013614729 -0.005288525 0.01741032
000120 7d f2 5e bc bb d9 04 3c cc 4f 85 bb f0 03 8c bb
       -0.013607618 0.008108552 -0.0040683504 -0.0042729303
000130 2c a7 ba b9 eb ef 66 3b 9b 00 04 bc 8f 94 03 3c
       -0.00035601237 0.0035238217 -0.008056785 0.008031025
000140 f7 66 9c ba 5e 34 85 bc 0f a6 b4 3c 09 44 44 3b
       -0.0011932541 -0.016260322 0.02205184 0.0029947779
000150 d9 1e a6 3b 22 aa 3a 3c 0d f0 cd 3b 9b 9c 95 bb
       0.0050695953 0.011393102 0.00628472 -0.004565788
000160 bb 97 0e 3c db 65 cb 3b b7 a0 6a 3b 11 be 87 bb
       0.008703168 0.0062072105 0.003580136 -0.0041425307
000170 a0 eb d4 3c 9b 3c 4e 3c 7c 43 48 bc b7 cb 84 3b
       0.025991261 0.012587692 -0.012223121 0.004052605
000180 87 42 63 3c 2d a4 3c 3c b7 7f 5a bc 76 d8 81 ba
       0.013870842 0.011513752 -0.013336114 -0.0009906429
000190 91 13 27 3c 8e 36 82 3c 4f 9d 84 3a d2 db 08 3c
       0.010197536 0.015895154 0.0010117682 0.0083531905
0001a0 62 aa 74 3c 9c f7 49 bc 15 9e ec 3b 5a d6 e4 bc
       0.014933201 -0.012327101 0.0072209933 -0.027934242
0001b0 95 b2 0d 3c 73 f0 a7 3c db 93 7d 3b 77 5f 96 bb
       0.008648534 0.020500397 0.0038692865 -0.004589017
0001c0 ff bb aa bc 4e b3 c1 bc 50 07 c8 bc 32 c7 3f 3c
       -0.020841597 -0.02364507 -0.02441755 0.011705207
0001d0 90 40 4d bc e1 c2 8a 37 33 87 ca bc 58 28 2b ba
       -0.0125276 1.654163e-05 -0.024722671 -0.0006529144
0001e0 6a c9 5d 3b 8f fd 2a 3c ff eb 7f 3c 9f 4e db ba
       0.0033841976 0.01043643 0.015620231 -0.0016731805
0001f0 02 6d 61 3b 7a bc 12 3b 10 f5 a6 3c ea e1 70 bc
       0.003439725 0.0022390173 0.020380527 -0.0147023
000200 e0 46 b6 bc db 08 9b bc 7a 96 e2 bb d3 d4 84 3c
       -0.022250593 -0.018925121 -0.006914911 0.016214764
000210 8b 3a 09 3c c8 fd f8 3a 8d e0 72 3b 4f 59 bd bc
       0.008375774 0.0018996531 0.0037060112 -0.023113875
000220 7f 23 d0 3b 94 1b 30 b8 25 51 9b bc e8 83 ea bb
       0.0063518877 -4.1987354e-05 -0.018959591 -0.0071568377
000230 e5 eb f3 bb 89 b8 c8 ba c7 4e 2c 3c ed 4f cd bb
       -0.0074438923 -0.0015313785 0.010516829 -0.0062656314
000240 13 25 9f 3b ad f6 96 3c ff fc 15 bb 55 5b d5 37
       0.0048567145 0.018428171 -0.0022886393 2.5434108e-05
000250 d2 69 0f bb 9f c8 a3 3a a7 5f 13 3c 77 66 4e 3b
       -0.0021883142 0.0012495703 0.008994973 0.003149418
000260 13 36 f4 bb d0 82 8b 3b e5 ae 64 ba af e1 17 ba
       -0.007452735 0.0042575374 -0.0008723571 -0.00057938223
000270 8c 5a c9 3c d4 7d 80 3c cb c7 fe bb 4e a8 00 bc
       0.024579309 0.015685 -0.007775282 -0.007852627
000280 5f 4d 8b bc 63 4c 1f bc d3 77 ee bb 9f db 81 3c
       -0.017004667 -0.009722802 -0.0072774678 0.015851794
000290 d3 98 ca ba 0d 0d 9c bc 0f 48 dd 3c 4b eb b3 3c
       -0.0015456922 -0.019049192 0.0270119 0.021962782
0002a0 91 92 84 3c cf c5 e9 3c ab f8 c8 3b e8 8a 84 bc
       0.01618317 0.028536705 0.006133159 -0.016179517
0002b0 17 da b1 ba 15 41 cd b9 53 44 5d 3c b1 85 25 3a
       -0.0013569024 -0.00039149137 0.013505059 0.0006314172
0002c0 93 35 95 3b 74 20 36 3c 44 cb c1 3b cf 75 e0 3c
       0.0045535057 0.011116136 0.0059141237 0.027399926
0002d0 6a 45 40 bc 10 a6 4f bb fc fa 43 3c a2 2a 51 bb
       -0.0117353 -0.0031684674 0.011961695 -0.003191628
0002e0 63 c8 05 bc 5f a6 e9 3c 38 5a 92 bc ef df f0 bb
       -0.008165452 0.028521715 -0.017865285 -0.0073509137
0002f0 3d 02 38 3c da 8d 6d bc 59 4d 10 bc 42 51 49 3c
       0.011231002 -0.014499152 -0.008807504 0.01228744
000300 5d 2c 25 3c b3 9e 47 3c 43 10 ff 3b c8 5d 18 bc
       0.010081378 0.012183833 0.007783921 -0.009299703
000310 d6 f6 06 3c b5 f9 a8 3c 4b 7b 36 bc 7f ac d3 3b
       0.008237561 0.020626882 -0.011137794 0.006459772
000320 6f ae 3a bc 78 1a 24 bc 5d df b9 3c 58 9b 22 3b
       -0.011394127 -0.010016076 0.022689516 0.002481183
000330 65 68 86 3c c3 e4 05 bc d8 32 18 bb f7 d5 11 3c
       0.016407201 -0.008172217 -0.0023223665 0.008901111
000340 b8 2b 32 bb d7 38 7f bc 9c 18 ba b8 53 25 1f bc
       -0.0027186703 -0.0155775165 -8.873755e-05 -0.009713489
000350 40 0a bb 3b 1b 9a ae bb 6d d0 f7 3b 0c 01 41 3a
       0.005708009 -0.0053284294 0.007562688 0.0007362522
000360 6b 01 3b 3c 47 c4 4b 3c af 1b 85 bc b0 1b 93 3c
       0.011413912 0.012436933 -0.016248552 0.017957538
000370 e2 eb 59 3c cc be a0 bc a9 f1 14 b9 d2 2c e1 bb
       0.013300868 -0.019622229 -0.00014204405 -0.006871798
000380 0a ec 65 3c 4b 14 88 3a b6 a5 0e 3c 23 d9 12 bc
       0.014033327 0.0010382024 0.008706501 -0.008962902
000390 6a b3 80 3c ab 95 07 bc c6 c4 9d bb 07 6e 94 bb
       0.015710551 -0.00827543 -0.004814717 -0.004529718
0003a0 32 fd 52 bc f1 7b 92 3b 47 b1 d8 bc b3 91 e1 bb
       -0.012877749 0.0044703414 -0.02645172 -0.006883824
0003b0 3e 87 b7 3b c7 1c 15 bc c4 f3 3f 3c 57 d1 84 3c
       0.005600839 -0.009101099 0.011715833 0.016213102
0003c0 fa 19 f5 bb 4b 24 9d bb 58 e1 c2 bb c7 1b 14 bb
       -0.0074799033 -0.004795586 -0.005947273 -0.0022599564
0003d0 bd 60 92 3c 4b 5f 70 3b 98 a2 69 bc 8f 7d 49 bc
       0.017868394 0.0036677893 -0.014259957 -0.012298002
0003e0 db 78 d2 3a 38 05 df 3c 17 d2 45 bc d5 f8 c6 3b
       0.0016057746 0.027224168 -0.012074015 0.0060721436
0003f0 0d 59 76 3c 6b 5b cc 3c 09 36 8c bc 1c 7b 9b ba
       0.01503588 0.024945935 -0.01711561 -0.0011862251

action_model._continuous_distribution.mu.bias f4 [5]
000000 00 00 00 00 00 00 00 00 00 00 00 00 00 00 00 00
       0.0 0.0 0.0 0.0
000010 00 00 00 00
       0.0

network_body.observation_encoder.processors.0.normalizer.running_mean f4 [100]
000000 ff 01 7c 3f 00 00 00 00 00 00 00 00 17 0f 8c 3d
       0.98440546 0.0 0.0 0.06838816
000010 7f 01 7d 3f 00 00 00 00 00 00 00 00 f0 06 8c 3d
       0.9883041 0.0 0.0 0.06837261
000020 ff 01 7c 3f 00 00 00 00 00 00 00 00 93 65 8e 3d
       0.98440546 0.0 0.0 0.069529675
000030 bf 81 7c 3f 00 00 00 00 00 00 00 00 17 30 8e 3d
       0.98635477 0.0 0.0 0.06942766
000040 bf 81 7c 3f 00 00 00 00 00 00 00 00 ba 96 93 3d
       0.98635477 0.0 0.0 0.07206483
000050 ff 01 7c 3f 00 00 00 00 00 00 00 00 da 46 91 3d
       0.98440546 0.0 0.0 0.07093592
000060 bf 81 7c 3f 00 00 00 00 00 00 00 00 13 14 9f 3d
       0.98635477 0.0 0.0 0.07767501
000070 ff 01 7c 3f 00 00 00 00 00 00 00 00 cf 70 95 3d
       0.98440546 0.0 0.0 0.07296907
000080 7f 02 7b 3f 00 00 00 00 00 00 00 00 66 b1 af 3d
       0.98050684 0.0 0.0 0.08578758
000090 bf 81 7c 3f 00 00 00 00 00 00 00 00 5c 84 9c 3d
       0.98635477 0.0 0.0 0.07642433
0000a0 fe 02 7a 3f 00 00 00 00 00 00 00 00 c7 82 d1 3d
       0.97660816 0.0 0.0 0.10230022
0000b0 7f 01 7d 3f 00 00 00 00 00 00 00 00 bd ac a2 3d
       0.9883041 0.0 0.0 0.079431035
0000c0 fe 03 78 3f 00 00 00 00 00 00 00 00 12 9a fd 3d
       0.9688109 0.0 0.0 0.12382902
0000d0 ff 01 7c 3f 00 00 00 00 00 00 00 00 71 b1 aa 3d
       0.98440546 0.0 0.0 0.083346255
0000e0 fd 05 74 3f 00 00 00 00 00 00 00 00 66 e1 0e 3e
       0.9532164 0.0 0.0 0.1395317
0000f0 7f 01 7d 3f 00 00 00 00 00 00 00 00 12 7f b1 3d
       0.9883041 0.0 0.0 0.08666815
000100 3c 86 73 3f 00 00 00 00 00 00 00 00 65 15 1b 3e
       0.951267 0.0 0.0 0.1514488
000110 3f 81 7d 3f 00 00 00 00 00 00 00 00 d2 d5 b8 3d
       0.9902534 0.0 0.0 0.09025158
000120 7c 07 71 3f 00 00 00 00 40 80 ff 3a b0 5e 2b 3e
       0.94152045 0.0 0.0019493178 0.16735339
000130 3f 81 7d 3f 00 00 00 00 00 00 00 00 0c 49 bf 3d
       0.9902534 0.0 0.0 0.093401045
000140 7c 08 6f 3f 00 00 00 00 00 00 00 00 97 14 3a 3e
       0.9337232 0.0 0.0 0.18171917
000150 7f 01 7d 3f 00 00 00 00 00 00 00 00 32 b4 c6 3d
       0.9883041 0.0 0.0 0.09702338
000160 fb 09 6c 3f 00 00 00 00 40 80 ff 3a c2 b3 39 3e
       0.9220273 0.0 0.0019493178 0.18134978
000170 3f 81 7d 3f 00 00 00 00 00 00 00 00 76 61 ce 3d
       0.9902534 0.0 0.0 0.10077183
000180 7a 0b 69 3f 00 00 00 00 40 80 ff 3a 82 b8 47 3e
       0.91033137 0.0 0.0019493178 0.19503978
