Assets/results/4/CoinChaser/CoinChaser-2180.onnx (onnx, 437518 bytes, 12 tensors)

network_body.observation_encoder.processors.0.normalizer.running_mean f4 [100]
000000 76 9e 72 3f 00 00 00 00 00 00 00 00 0c 5f 62 3e
       0.9477304 0.0 0.0 0.2210657
000010 82 bc 72 3f 00 00 00 00 00 00 00 00 2f 6a 61 3e
       0.9481889 0.0 0.0 0.22013162
000020 12 ae 71 3f 00 00 00 00 00 00 00 00 b6 ee 62 3e
       0.94406235 0.0 0.0 0.22161373
000030 c7 f9 70 3f 00 00 00 00 00 00 00 00 d2 ba 62 3e
       0.9413113 0.0 0.0 0.22141579
000040 b3 34 73 3f 00 00 00 00 00 00 00 00 dd 91 65 3e
       0.9500229 0.0 0.0 0.22418924
000050 95 81 70 3f 00 00 00 00 00 00 00 00 b7 e7 64 3e
       0.93947726 0.0 0.0 0.22354017
000060 8e da 72 3f 00 00 00 00 00 00 00 00 78 0d 66 3e
       0.9486474 0.0 0.0 0.22466075
000070 96 81 70 3f 00 00 00 00 00 00 00 00 ac 55 69 3e
       0.9394773 0.0 0.0 0.22786587
000080 50 44 72 3f 00 00 00 00 00 00 00 00 c1 49 64 3e
       0.94635487 0.0 0.0 0.2229376
000090 89 63 70 3f 00 00 00 00 00 00 00 00 59 c4 6b 3e
       0.9390188 0.0 0.0 0.2302412
0000a0 5d 62 72 3f 00 00 00 00 00 00 00 00 12 44 65 3e
       0.9468134 0.0 0.0 0.22389248
0000b0 89 63 70 3f 00 00 00 00 00 00 00 00 e0 31 6e 3e
       0.9390188 0.0 0.0 0.23261213
0000c0 76 9e 72 3f 00 00 00 00 00 00 00 00 5b d3 66 3e
       0.9477304 0.0 0.0 0.22541563
0000d0 a2 9f 70 3f 00 00 00 00 00 00 00 00 7d e6 6f 3e
       0.9399358 0.0 0.0 0.23427768
0000e0 12 ae 71 3f 00 00 00 00 00 00 00 00 b8 ed 68 3e
       0.94406235 0.0 0.0 0.22746933
0000f0 c7 f9 70 3f 00 00 00 00 00 00 00 00 39 31 71 3e
       0.9413113 0.0 0.0 0.23553933
000100 05 90 71 3f 00 00 00 00 00 00 00 00 8e 0f 6c 3e
       0.9436038 0.0 0.0 0.23052809
000110 e1 35 71 3f 00 00 00 00 00 00 00 00 e2 05 6f 3e
       0.9422284 0.0 0.0 0.23342088
000120 f9 71 71 3f 00 00 00 00 00 00 00 00 74 c5 6c 3e
       0.94314533 0.0 0.0 0.23122197
000130 82 bc 72 3f 00 00 00 00 00 00 00 00 0d 21 6d 3e
       0.9481889 0.0 0.0 0.23157139
000140 e0 35 71 3f 00 00 00 00 00 00 00 00 b7 e5 6f 3e
       0.9422283 0.0 0.0 0.23427473
000150 51 44 72 3f 00 00 00 00 00 00 00 00 fc ce 6c 3e
       0.9463549 0.0 0.0 0.23125833
000160 e0 35 71 3f 00 00 00 00 00 00 00 00 80 db 75 3e
       0.9422283 0.0 0.0 0.24009514
000170 c0 52 73 3f 00 00 00 00 00 00 00 00 bd bb 6e 3e
       0.9504814 0.0 0.0 0.23313804
000180 44 26 72 3f 00 00 00 00 00 00 00 00 00 e6 78 3e
       0.9458964 0.0 0.0 0.24306488

network_body.observation_encoder.processors.1.normalizer.running_mean f4 [52]
000000 8a 7c df 3e 00 00 00 00 c3 e6 2a 3d 84 12 b0 3e
       0.43649703 0.0 0.041723978 0.34389126
000010 18 3e e3 3e 00 00 00 00 fb 05 29 3d 00 54 b0 3e
       0.4438331 0.0 0.04126547 0.34439087
000020 06 a9 e0 3e 00 00 00 00 6d 2b 36 3d d7 78 af 3e
       0.43878955 0.0 0.044475008 0.3427188
000030 11 97 e5 3e 00 00 00 00 18 a2 1f 3d 34 51 b0 3e
       0.44841817 0.0 0.038972944 0.34436953
000040 b5 4d e2 3e 00 00 00 00 a6 4a 34 3d bf d1 af 3e
       0.4419991 0.0 0.044016503 0.3433971
000050 f1 b3 e7 3e 00 00 00 00 a5 63 23 3d fb 38 b1 3e
       0.45254472 0.0 0.03988995 0.34613785
000060 82 d5 e1 3e 00 00 00 00 c3 cd 3b 3d 51 b9 b0 3e
       0.44108206 0.0 0.045850527 0.34516385
000070 5d 4b e6 3e 00 00 00 00 19 a2 1f 3d b1 21 b2 3e
       0.44979373 0.0 0.038972948 0.3479133
000080 39 21 e1 3e 00 00 00 00 c2 cd 3b 3d c0 b2 b1 3e
       0.4397066 0.0 0.045850523 0.34706688
000090 12 97 e5 3e 00 00 00 00 c4 e6 2a 3d e4 35 b4 3e
       0.4484182 0.0 0.04172398 0.35197365
0000a0 de 1e e5 3e 00 00 00 00 c1 cd 3b 3d 3e 04 b3 3e
       0.44750112 0.0 0.04585052 0.34964174
0000b0 42 0f e6 3e 00 00 00 00 34 0c 38 3d 75 b8 b4 3e
       0.44933516 0.0 0.044933513 0.3529698
0000c0 c8 e2 e4 3e 00 00 00 00 a7 4a 34 3d 62 88 b5 3e
       0.4470427 0.0 0.044016507 0.35455614

network_body.observation_encoder.processors.2.normalizer.running_mean f4 [5]
000000 62 eb 35 c1 97 1b 23 40 bc 65 9b c0 57 3a 51 3f
       -11.3699665 2.548559 -4.8561687 0.81729645
000010 5c 79 fe 3e
       0.49701965

network_body._body_endoder.seq_layers.0.weight f4 [256, 157]
000000 07 ef 95 3b 70 56 01 be 2f 0d d6 3d 74 74 c7 3d
       0.0045756134 -0.1263063 0.10451733 0.097390085
000010 8c fc db bc c6 ca 2f bd 5b 8f 23 3d 4f e3 3a bc
       -0.026853822 -0.04291799 0.039931636 -0.011406734
000020 c5 2f 37 3d 7c 57 14 3d da 24 87 3d 8a a9 56 3d
       0.04472329 0.036216244 0.06598826 0.05240778
000030 23 30 9f bb 15 d8 13 3d 86 2d 00 3c 9b 88 09 3e
       -0.0048580333 0.036094744 0.007823354 0.13431017
000040 b8 64 89 bd 51 8a 8a 3d ef 83 c1 bc 3f 4b 18 3d
       -0.06708664 0.06764663 -0.023622481 0.037181135
000050 ee e8 98 3c 33 3d 4d 3d 0d 8d 80 bc 5b 37 7f 3d
       0.018665757 0.050107192 -0.015692258 0.06230865
000060 0d 60 37 3c ff a4 85 bc 03 af ad 3d bb bf 6b bd
       0.011192334 -0.016314028 0.084806465 -0.057555895
000070 c0 88 bd bd c1 ff 0b 3e 3e 3a fc bc 5e 0f 39 bc
       -0.092545986 0.13671781 -0.03078949 -0.011295168
000080 53 a1 dc bd 9f 5d 65 3d 13 bc 5b bc f4 d8 84 bd
       -0.10772958 0.055997487 -0.01341154 -0.06486693
000090 d4 96 3f bc cb 8e 69 3d 1d 59 88 3d e5 5f 94 3d
       -0.011693675 0.057020944 0.06657622 0.07244853
0000a0 fb 00 b4 bd 97 91 1f be 27 2a fd bd 7a 46 99 3d
       -0.087892495 -0.15582882 -0.123615555 0.074841455
0000b0 81 cb 87 bc 4c a0 68 3c d2 c5 24 be 10 86 02 be
       -0.01657653 0.014198374 -0.16091087 -0.12746453
0000c0 26 2d 03 3d a1 e3 bd 3c b1 ce 87 3d ff d7 b9 bd
       0.03202548 0.023179831 0.0663122 -0.09074401
0000d0 bd 11 d6 3d e7 f0 ea 3d 0b 9b d1 3d 93 42 30 3d
       0.10452602 0.1147173 0.1023465 0.04303224
0000e0 fb 60 10 3e 7d 1f 21 3c 8d 62 a3 3d da 48 42 3d
       0.14099495 0.009834168 0.079777814 0.047432758
0000f0 29 81 47 be 51 41 85 3d b0 e2 b5 3d 18 1c 87 3c
       -0.19482864 0.06506599 0.08881128 0.016492888
000100 b6 de 66 bd 66 6a ba bc 06 08 30 be 27 1e 3d 3e
       -0.056364737 -0.022755813 -0.1719056 0.18468533
000110 26 ac 5a bd 6e 65 91 3d ed aa e9 bc a3 05 a4 3a
       -0.05338683 0.07099424 -0.028523887 0.0012513887
000120 28 3e 24 3d d8 66 b6 3d 87 e5 ee bd 47 12 38 3d
       0.04009834 0.08906335 -0.116648726 0.044939306
000130 ca dc 5e bc c6 60 e3 bd dc c5 53 bc 02 1d 8d 3e
       -0.013602445 -0.111024424 -0.012925591 0.27561194
000140 c6 42 1b 3c 7d 8c 27 3d ee 3c 5a 3d 5e a2 e8 3d
       0.009476369 0.040905464 0.053280763 0.11359094
000150 0e 05 82 3c e1 33 07 3d 26 e5 b8 3d 81 f7 8c bd
       0.01587155 0.03300846 0.090280816 -0.06883145
000160 e0 23 01 bd fd f2 f7 3d 40 2f e9 3c 7f 15 3c 3b
       -0.031528354 0.12106893 0.028464913 0.0028699336
000170 64 6b ec 3d e2 68 8f bc 22 e7 96 3d 1d c5 63 3d
       0.11543921 -0.017506067 0.07368304 0.055607904
000180 f1 9c ed 3d 86 77 3d bc 17 16 24 be b1 fb 0b 3d
       0.116022 -0.011564141 -0.16024052 0.03417558
000190 9b 1a 10 bd 78 71 85 3c 71 b9 04 bd 42 78 68 3d
       -0.035181623 0.016289458 -0.032403413 0.05675531
0001a0 10 5f 1c bb 33 0d 39 3d 70 2e 19 3d a7 99 1f 3e
       -0.0023860373 0.045178603 0.037397802 0.15585957
0001b0 52 3d 00 bb 92 1d 8e bc fc 1e 91 bc 29 ef 78 bb
       -0.00195678 -0.017348085 -0.01771497 -0.0037984347
0001c0 ab d3 b8 bd cb 9b 96 bd 05 06 95 bd b7 c2 f3 bc
       -0.090247475 -0.07353934 -0.07276539 -0.029755933
0001d0 c8 8a ae 3d ad aa 58 3e d8 3b 07 3e 25 a6 e5 bd
       0.08522564 0.21158858 0.13206422 -0.1121333
0001e0 60 aa a4 3d 6c 55 81 bc 75 57 b0 3c 37 a3 1f bd
       0.08040309 -0.015787803 0.021526078 -0.038974013
0001f0 3c 29 24 3d 5a ce 20 3e 2a ee 87 3d 87 11 c4 bd
       0.040078387 0.15703717 0.06637223 -0.095736556
000200 09 50 2c 3e a2 74 e3 bd 06 48 c3 3d bd 85 d5 3c
       0.16827406 -0.1110623 0.09535222 0.026064748
000210 c0 e0 3a bd 26 d6 db bd 10 df ba 3c b0 11 d2 3d
       -0.045624495 -0.10734205 0.022811443 0.1025728
000220 99 20 07 b9 75 90 b6 bd 82 41 52 bd 84 19 d2 3d
       -0.00012886747 -0.08914272 -0.051332004 0.10258773
000230 96 fb 13 be 54 f2 35 bd 41 32 51 3d d7 7b bb 3c
       -0.14451441 -0.044420555 0.051073316 0.0228862
000240 59 dd 18 3e 47 ab 3d bd c6 81 89 bc 12 95 02 be
       0.14928187 -0.04630592 -0.016785514 -0.12752178
000250 8f 08 cd bd 96 2c a6 bd c3 f8 a3 3d 40 15 10 be
       -0.10011398 -0.08113973 0.08006432 -0.14070606
000260 30 9d b6 bd fd 5f 2a 3d bd bd b8 bd eb e4 38 be
       -0.089167 0.041595448 -0.09020565 -0.18056075
000270 aa 65 e5 bd 7f 2c 9e 3d be f8 e6 bc 54 2e 23 be
       -0.112010315 0.07723331 -0.028194781 -0.15935642
000280 e0 ed 96 bc c7 84 dd bc a4 ea 4d 3d ed e2 83 3c
       -0.018423975 -0.027040852 0.0502726 0.016099418
000290 da e9 cf bc dc 7a f3 3d 22 24 24 3e 7e 33 92 bd
       -0.025380064 0.11888668 0.16029409 -0.071387276
0002a0 ae 64 99 3d aa eb 30 bd 91 88 5f 3d eb f1 cc 3d
       0.07489906 -0.043193497 0.0545736 0.1000708
0002b0 3a 01 e0 bd eb 01 76 bd 37 16 df bb 5f 47 d0 3d
       -0.10937734 -0.060060423 -0.006808068 0.10169863
0002c0 45 84 f9 3d 5b cd e3 3d 48 cc 1d bd 65 42 eb bc
       0.121834315 0.11123153 -0.038524896 -0.028718183
0002d0 53 3c 1c be 9f 73 b3 bd 1b 8b 03 be dd d8 23 3d
       -0.15257387 -0.08762287 -0.12846033 0.04000174
0002e0 c2 5f b2 3d d6 7d be bb 67 3f 4a 3c ee 42 3c 3e
       0.087096706 -0.0058133407 0.012344218 0.18384907
0002f0 f6 47 91 3d ac a7 1f bd 2a 7b 36 3b 62 68 11 3e
       0.070938036 -0.038978264 0.0027844408 0.14199975
000300 fd 6c d4 3d c6 15 bc bd f2 cc 00 3e 77 f8 64 bd
       0.1037235 -0.091838405 0.1257818 -0.055901017
000310 c7 34 3d bb da 96 ab bd 94 52 1d be be 1b e7 bd
       -0.002887057 -0.08378382 -0.15363532 -0.11284588
000320 49 09 9c 3d 4b 22 b1 3c 8b 7f 9b 3d 1c ec eb bb
       0.076189585 0.021622797 0.07592686 -0.0071997773
000330 09 37 c8 bb 32 aa 58 bd 26 37 90 3d 8d 41 3a bc
       -0.0061100763 -0.052896686 0.07041769 -0.011368168
000340 40 c6 f6 38 55 47 8f 3d 31 d2 10 3e 45 5a e9 3d
       0.00011767121 0.069960274 0.14142682 0.11394171
000350 4a 72 03 3e 53 f4 c3 bc d6 48 86 3d f7 46 b7 3c
       0.12836567 -0.023920214 0.06556861 0.022372706
000360 3a 01 e2 bb f5 b3 c5 3d bf 8e c8 bd 7c 92 c0 3b
       -0.006897119 0.09653465 -0.09792852 0.0058768373
000370 2e 25 83 3d 9c a3 00 be 17 0b 00 3e 69 f3 a8 3d
       0.06403576 -0.12562412 0.1250423 0.08249552
000380 21 fb 1c 3c d0 fd ed 3c 43 f8 9d 3c c5 4f 5d 3d
       0.009581358 0.029051691 0.01928342 0.054031152
000390 e3 c2 9d 3d 89 ca 19 3e 44 0c 33 be 7a d1 58 bd
       0.07703187 0.15018667 -0.17485148 -0.052934147
0003a0 14 fa 1c bc 00 3c b5 3c 30 a5 11 bc 23 7a 17 bc
       -0.009581108 0.022123337 -0.008889481 -0.009245428
0003b0 0a 19 f3 3c 19 84 c4 bd c2 92 05 be 43 a6 a7 3d
       0.029675025 -0.09595508 -0.13044265 0.08186009
0003c0 1b 9b e3 3a df 1c 92 bd cb 98 d0 3d 72 0d 3c bd
       0.0017364951 -0.07134413 0.10185393 -0.04591126
0003d0 3c e2 8d bd 2f 60 bf 3d 8a bc e8 bc c3 40 02 be
       -0.069279164 0.093445174 -0.028410215 -0.12720017
0003e0 b8 53 ce bd cd 74 49 bd d5 94 0d 3d 30 14 b8 3b
       -0.10074562 -0.049183656 0.034565765 0.005617641
0003f0 13 5e 41 bd cd 01 db 39 76 04 87 bd 67 e7 26 bd
       -0.047208857 0.00041772277 -0.06592648 -0.040748026

network_body._body_endoder.seq_layers.0.bias f4 [256]
000000 00 00 00 00 00 00 00 00 00 00 00 00 00 00 00 00
       0.0 0.0 0.0 0.0
000010 00 00 00 00 00 00 00 00 00 00 00 00 00 00 00 00
       0.0 0.0 0.0 0.0
000020 00 00 00 00 00 00 00 00 00 00 00 00 00 00 00 00
       0.0 0.0 0.0 0.0
000030 00 00 00 00 00 00 00 00 00 00 00 00 00 00 00 00
       0.0 0.0 0.0 0.0
000040 00 00 00 00 00 00 00 00 00 00 00 00 00 00 00 00
       0.0 0.0 0.0 0.0
000050 00 00 00 00 00 00 00 00 00 00 00 00 00 00 00 00
       0.0 0.0 0.0 0.0
000060 00 00 00 00 00 00 00 00 00 00 00 00 00 00 00 00
       0.0 0.0 0.0 0.0
000070 00 00 00 00 00 00 00 00 00 00 00 00 00 00 00 00
       0.0 0.0 0.0 0.0
000080 00 00 00 00 00 00 00 00 00 00 00 00 00 00 00 00
       0.0 0.0 0.0 0.0
000090 00 00 00 00 00 00 00 00 00 00 00 00 00 00 00 00
       0.0 0.0 0.0 0.0
0000a0 00 00 00 00 00 00 00 00 00 00 00 00 00 00 00 00
       0.0 0.0 0.0 0.0
0000b0 00 00 00 00 00 00 00 00 00 00 00 00 00 00 00 00
       0.0 0.0 0.0 0.0
0000c0 00 00 00 00 00 00 00 00 00 00 00 00 00 00 00 00
       0.0 0.0 0.0 0.0
0000d0 00 00 00 00 00 00 00 00 00 00 00 00 00 00 00 00
       0.0 0.0 0.0 0.0
0000e0 00 00 00 00 00 00 00 00 00 00 00 00 00 00 00 00
       0.0 0.0 0.0 0.0
0000f0 00 00 00 00 00 00 00 00 00 00 00 00 00 00 00 00
       0.0 0.0 0.0 0.0
000100 00 00 00 00 00 00 00 00 00 00 00 00 00 00 00 00
       0.0 0.0 0.0 0.0
000110 00 00 00 00 00 00 00 00 00 00 00 00 00 00 00 00
       0.0 0.0 0.0 0.0
000120 00 00 00 00 00 00 00 00 00 00 00 00 00 00 00 00
       0.0 0.0 0.0 0.0
000130 00 00 00 00 00 00 00 00 00 00 00 00 00 00 00 00
       0.0 0.0 0.0 0.0
000140 00 00 00 00 00 00 00 00 00 00 00 00 00 00 00 00
       0.0 0.0 0.0 0.0
000150 00 00 00 00 00 00 00 00 00 00 00 00 00 00 00 00
       0.0 0.0 0.0 0.0
000160 00 00 00 00 00 00 00 00 00 00 00 00 00 00 00 00
       0.0 0.0 0.0 0.0
000170 00 00 00 00 00 00 00 00 00 00 00 00 00 00 00 00
       0.0 0.0 0.0 0.0
000180 00 00 00 00 00 00 00 00 00 00 00 00 00 00 00 00
       0.0 0.0 0.0 0.0
000190 00 00 00 00 00 00 00 00 00 00 00 00 00 00 00 00
       0.0 0.0 0.0 0.0
0001a0 00 00 00 00 00 00 00 00 00 00 00 00 00 00 00 00
       0.0 0.0 0.0 0.0
0001b0 00 00 00 00 00 00 00 00 00 00 00 00 00 00 00 00
       0.0 0.0 0.0 0.0
0001c0 00 00 00 00 00 00 00 00 00 00 00 00 00 00 00 00
       0.0 0.0 0.0 0.0
0001d0 00 00 00 00 00 00 00 00 00 00 00 00 00 00 00 00
       0.0 0.0 0.0 0.0
0001e0 00 00 00 00 00 00 00 00 00 00 00 00 00 00 00 00
       0.0 0.0 0.0 0.0
0001f0 00 00 00 00 00 00 00 00 00 00 00 00 00 00 00 00
       0.0 0.0 0.0 0.0
000200 00 00 00 00 00 00 00 00 00 00 00 00 00 00 00 00
       0.0 0.0 0.0 0.0
000210 00 00 00 00 00 00 00 00 00 00 00 00 00 00 00 00
       0.0 0.0 0.0 0.0
000220 00 00 00 00 00 00 00 00 00 00 00 00 00 00 00 00
       0.0 0.0 0.0 0.0
000230 00 00 00 00 00 00 00 00 00 00 00 00 00 00 00 00
       0.0 0.0 0.0 0.0
000240 00 00 00 00 00 00 00 00 00 00 00 00 00 00 00 00
       0.0 0.0 0.0 0.0
000250 00 00 00 00 00 00 00 00 00 00 00 00 00 00 00 00
       0.0 0.0 0.0 0.0
000260 00 00 00 00 00 00 00 00 00 00 00 00 00 00 00 00
       0.0 0.0 0.0 0.0
000270 00 00 00 00 00 00 00 00 00 00 00 00 00 00 00 00
       0.0 0.0 0.0 0.0
000280 00 00 00 00 00 00 00 00 00 00 00 00 00 00 00 00
       0.0 0.0 0.0 0.0
000290 00 00 00 00 00 00 00 00 00 00 00 00 00 00 00 00
       0.0 0.0 0.0 0.0
0002a0 00 00 00 00 00 00 00 00 00 00 00 00 00 00 00 00
       0.0 0.0 0.0 0.0
0002b0 00 00 00 00 00 00 00 00 00 00 00 00 00 00 00 00
       0.0 0.0 0.0 0.0
0002c0 00 00 00 00 00 00 00 00 00 00 00 00 00 00 00 00
       0.0 0.0 0.0 0.0
0002d0 00 00 00 00 00 00 00 00 00 00 00 00 00 00 00 00
       0.0 0.0 0.0 0.0
0002e0 00 00 00 00 00 00 00 00 00 00 00 00 00 00 00 00
       0.0 0.0 0.0 0.0
0002f0 00 00 00 00 00 00 00 00 00 00 00 00 00 00 00 00
       0.0 0.0 0.0 0.0
000300 00 00 00 00 00 00 00 00 00 00 00 00 00 00 00 00
       0.0 0.0 0.0 0.0
000310 00 00 00 00 00 00 00 00 00 00 00 00 00 00 00 00
       0.0 0.0 0.0 0.0
000320 00 00 00 00 00 00 00 00 00 00 00 00 00 00 00 00
       0.0 0.0 0.0 0.0
000330 00 00 00 00 00 00 00 00 00 00 00 00 00 00 00 00
       0.0 0.0 0.0 0.0
000340 00 00 00 00 00 00 00 00 00 00 00 00 00 00 00 00
       0.0 0.0 0.0 0.0
000350 00 00 00 00 00 00 00 00 00 00 00 00 00 00 00 00
       0.0 0.0 0.0 0.0
000360 00 00 00 00 00 00 00 00 00 00 00 00 00 00 00 00
       0.0 0.0 0.0 0.0
000370 00 00 00 00 00 00 00 00 00 00 00 00 00 00 00 00
       0.0 0.0 0.0 0.0
000380 00 00 00 00 00 00 00 00 00 00 00 00 00 00 00 00
       0.0 0.0 0.0 0.0
000390 00 00 00 00 00 00 00 00 00 00 00 00 00 00 00 00
       0.0 0.0 0.0 0.0
0003a0 00 00 00 00 00 00 00 00 00 00 00 00 00 00 00 00
       0.0 0.0 0.0 0.0
0003b0 00 00 00 00 00 00 00 00 00 00 00 00 00 00 00 00
       0.0 0.0 0.0 0.0
0003c0 00 00 00 00 00 00 00 00 00 00 00 00 00 00 00 00
       0.0 0.0 0.0 0.0
0003d0 00 00 00 00 00 00 00 00 00 00 00 00 00 00 00 00
       0.0 0.0 0.0 0.0
0003e0 00 00 00 00 00 00 00 00 00 00 00 00 00 00 00 00
       0.0 0.0 0.0 0.0
0003f0 00 00 00 00 00 00 00 00 00 00 00 00 00 00 00 00
       0.0 0.0 0.0 0.0

network_body._body_endoder.seq_layers.2.weight f4 [256, 256]
000000 d4 8c 2e 3d 69 1c c0 3d 9b 23 5b bd f0 6d be bd
       0.042614773 0.09380419 -0.053500753 -0.09298313
000010 b0 21 43 bd cb f2 ca bd 42 cf 73 3d e3 86 40 bd
       -0.04763955 -0.0990959 0.05952383 -0.047003638
000020 d6 2e f2 3d 9e f1 0d be 34 13 25 bc ae 06 db bd
       0.118253395 -0.13861701 -0.010075379 -0.106946334
000030 93 67 59 3d bf 6e 8f 3c 4d 4a e3 bd ad 55 af bc
       0.05307729 0.017508863 -0.11098156 -0.021403158
000040 ac d5 61 bd 86 98 2e bd 25 10 b4 3d 40 1d a9 3b
       -0.055135414 -0.042625926 0.08792142 0.0051609576
000050 2c 81 6e 3b 1b a7 99 3c 5e 00 04 3d 3d 29 37 bc
       0.003639291 0.01875644 0.032226913 -0.011179266
000060 3f 23 d5 3d 12 b4 0b ba 1b 2e 64 3d c4 dd 87 3d
       0.10407113 -0.0005329262 0.055708032 0.06634095
000070 70 ee 80 bd 0f 3e fa bd 5f 0d a8 bd 77 82 b5 bc
       -0.06295478 -0.12218868 -0.08205675 -0.022156937
000080 47 f3 9b bd aa e7 11 bd cf 85 ac bc 64 de f0 3c
       -0.07614761 -0.035621323 -0.021059899 0.02940292
000090 07 24 55 3c 1a 50 2b bd 62 47 9b 3d 78 21 4e bd
       0.013009078 -0.041824438 0.075819746 -0.050324887
0000a0 1c 54 cc bd 7a fb 27 3e dc 3e d0 3c 3b 0e a4 3d
       -0.0997698 0.16404524 0.025420599 0.08010527
0000b0 dd c7 59 3c 5c 74 a1 bc 70 27 27 bc cd cf a3 bc
       0.01329228 -0.019708805 -0.010202274 -0.019996548
0000c0 4f e7 d8 3c 9c ef 59 3d 4a 13 8d ba ef f1 61 3d
       0.026477484 0.053207025 -0.0010763195 0.055162366
0000d0 ee ba 9c 3d 8f 4b 1f 3d cd 05 dc 3d 4c b4 80 3c
       0.076528415 0.038890418 0.10743294 0.015710972
0000e0 6d 17 b7 bc 29 01 e4 bc 2d 60 a4 3d 1c 1b 65 3d
       -0.022350037 -0.027832584 0.080261566 0.055934057
0000f0 fb 36 9d 3d c4 ed e7 bc d6 58 a5 bc e6 3e ca 3d
       0.07676502 -0.028311618 -0.020183962 0.09875278
000100 19 82 87 bd f5 56 a8 3d 13 04 c5 3c 57 0c cb bd
       -0.06616611 0.08219711 0.024049794 -0.09914463
000110 d0 3d 6a bd ab a1 93 bd 2a 7a a9 bc b2 07 bb 3c
       -0.057187855 -0.0720857 -0.020688135 0.022830818
000120 e3 99 e4 3d 60 19 69 3c 6d 88 07 3e 11 36 a1 3c
       0.11162164 0.014227241 0.13235636 0.019679101
000130 48 a7 76 bd 30 ca 20 3d 7a b0 0b 3c 93 7f 1b be
       -0.060218126 0.03925532 0.008525962 -0.15185384
000140 0b f1 eb bd 00 31 1a 3c 63 09 12 3d f7 ef 33 3d
       -0.11520585 0.009411097 0.035653483 0.04393002
000150 9a bb 29 3c 12 d8 b3 bc 30 bc 0e 3d 83 1b ee 39
       0.010359669 -0.021953616 0.03484744 0.00045415395
000160 fb 55 8e bc cc df e7 bc 7e 0b e5 3d e0 24 4a 3d
       -0.017374983 -0.028304957 0.111838326 0.049351573
000170 bd 71 51 3c d4 f6 41 bd a6 b5 68 bd dd f1 89 3c
       0.012783465 -0.047354534 -0.05681386 0.016838962
000180 ec ed cd bc b8 37 82 bd 38 63 49 bc aa 5c f1 3d
       -0.025137864 -0.06358284 -0.012291722 0.117852524
000190 44 95 ce 3c 2b 02 84 bd 69 de 90 3d 7b 05 32 3e
       0.02521766 -0.06445726 0.07073671 0.17384903
0001a0 4e b7 67 bd 0b 58 17 bc 45 48 6c bd 01 74 e8 3d
       -0.056571297 -0.0092373 -0.05768611 0.11350251
0001b0 ab 3f 2d 3d 83 06 34 bd b6 2b ec 3c e2 45 06 3d
       0.042297047 -0.043951523 0.028829437 0.03278149
0001c0 dd cf 53 bd 98 f2 b1 bc 4c b7 aa bc f9 26 de 3d
       -0.051711906 -0.021722123 -0.020839356 0.10847277
0001d0 32 40 48 3d dc a0 20 bd 43 b5 a8 bd 0d fb 2a bd
       0.048889346 -0.039215907 -0.08237698 -0.041743327
0001e0 64 9e ca bb 22 8c 80 3b 92 56 ac bd 0e 55 97 bd
       -0.0061834324 0.003922955 -0.084149495 -0.0738927
0001f0 06 df 8d bc b1 5a a3 bd ae 51 c2 3d 78 94 4c 3d
       -0.01731826 -0.079762824 0.094882354 0.04994628
000200 80 67 8f bd 34 bd 7e 3d b6 a4 48 bd 31 44 ad 3d
       -0.07002163 0.062192157 -0.048985206 0.08460272
000210 9f f2 a2 bc 90 89 10 bd 93 74 d0 bd f3 a6 4a 3d
       -0.019891081 -0.03528744 -0.10178485 0.04947562
000220 ae 6a 92 bc 79 52 9a bd 82 1d 77 3c 6e c6 98 3d
       -0.017873134 -0.07535262 0.015082719 0.074597225
000230 9c e8 76 3b 2a b5 55 3d d7 ca 8a bd 1b ba 61 3d
       0.0037675267 0.052174725 -0.0677697 0.055109125
000240 1d b2 8c 3c 92 7b e6 3c 96 ed b5 bc 96 06 cb 3d
       0.017174775 0.028135095 -0.022208016 0.099133655
000250 a4 93 bc bc b2 19 26 3d f3 a0 1c 3c d4 43 4d 3d
       -0.02301962 0.04055185 0.009559858 0.050113514
000260 ba 52 5a 3d ea 1b fb 3c 81 bf 8f bd 15 0f 83 bc
       0.05330155 0.030652959 -0.07018948 -0.015998403
000270 7c 42 76 3a 33 fa d2 3b c7 9c ad bb 7b f8 b9 3c
       0.0009394062 0.0064385175 -0.0052982303 0.022701493
000280 0e 8b 86 bd 84 82 61 bd f5 05 23 bc 1c 7c bb 3c
       -0.06569491 -0.05505611 -0.009950151 0.022886328
000290 a4 84 51 bd ef 14 17 3d c7 d4 0e bd c7 e0 97 3d
       -0.051151887 0.0368852 -0.03487089 0.0741592
0002a0 6f 33 d1 bd 99 d2 c1 bc 3d 2a 2f bd e9 45 d3 3d
       -0.10214888 -0.023659991 -0.04276489 0.10316069
0002b0 6a 69 8d bd 4d a7 24 3d b6 57 8e bb e7 6d 23 bd
       -0.06904872 0.040198613 -0.004343952 -0.039899733
0002c0 89 22 d5 3c 3f 35 ba 3d 69 06 f2 bd b5 71 2e bd
       0.026017444 0.09092187 -0.11817629 -0.04258891
0002d0 65 14 cb 3d 49 72 f2 3c 02 02 44 bd f5 5a 84 3d
       0.09915999 0.029595511 -0.047853477 0.06462661
0002e0 c1 bc cb bd 3b 36 0e be 9d 60 6d 3d 7f ad f9 3c
       -0.09948111 -0.13887875 0.057953466 0.030478237
0002f0 fe 05 3c 3c cc c2 b5 3d 9d e9 95 bd 84 51 8c 3d
       0.011476038 0.08875045 -0.07319949 0.06851485
000300 e5 af 49 bc fa 08 92 bd 30 ae d3 3c 12 14 3e 3d
       -0.012310003 -0.071306184 0.025839895 0.04640586
000310 c2 31 03 bd 8e b3 3c 3d 77 11 43 bd 1c 69 00 bd
       -0.032029875 0.046069674 -0.047624078 -0.03135024
000320 1c ff cc 3c 78 98 00 3e e0 09 c4 3d 9a 94 6d bd
       0.02502399 0.12558162 0.09572196 -0.058003046
000330 a4 c6 94 bd cb 1a 2c 3d d0 5b 02 bb bb 18 07 3d
       -0.0726445 0.04201774 -0.001989115 0.03298257
000340 16 e5 e2 3c 0c 9c 56 3c 65 2e b1 3b fd e3 0a bd
       0.027697127 0.013098728 0.005407142 -0.033908833
000350 29 5c a3 3c cc e8 6d bd 24 55 f1 3c 47 89 a9 bd
       0.019941406 -0.05808334 0.029459544 -0.08278137
000360 eb 6c 32 bd fd 31 e3 39 16 85 8a 3c ae a1 83 3d
       -0.043560904 0.00043334058 0.016909163 0.06427322
000370 07 17 82 bd 06 95 34 3b f8 ee 25 bc 42 67 a4 3c
       -0.06352048 0.0027554645 -0.010127775 0.020068768
000380 82 3b 16 3d 31 bf 0e 3d 19 ff 29 3e 57 12 99 bd
       0.036677845 0.034850303 0.16601218 -0.07474201
000390 7a dc f6 3d cd b0 9b 3c 72 31 36 3d 0f f9 c5 3c
       0.12053771 0.019005204 0.04448075 0.024166612
0003a0 ce 54 a7 3c b6 0f 58 bd 44 b2 52 3c bb f1 17 be
       0.02042618 -0.052749358 0.012859885 -0.14838307
0003b0 ad 46 56 bd 1a e6 4c 39 9f cc 69 3c b4 ca 3b bd
       -0.052313495 0.00019540676 0.014269977 -0.04584761
0003c0 7c f7 c6 bc 35 1d f4 3d 28 b7 d2 3b 8f fb 8a bd
       -0.024287932 0.11919633 0.0064305253 -0.06786262
0003d0 cf 37 fe 3b 65 98 2f bc 6d 4f 0a be a8 9e 34 3c
       0.0077581177 -0.010717486 -0.13506861 0.011024155
0003e0 9d 8f ab 3d bf e2 cc bd 3e ba ff 3b c2 e4 86 3d
       0.083770014 -0.10004186 0.007804184 0.06586601
0003f0 49 b8 f4 3c 16 bd e3 3a 8a a8 43 3c ad 95 6a bd
       0.02987303 0.0017375078 0.011942038 -0.05727165

action_model._continuous_distribution.log_sigma f4 [1, 5]
000000 00 00 00 00 00 00 00 00 00 00 00 00 00 00 00 00
       0.0 0.0 0.0 0.0
000010 00 00 00 00
       0.0

action_model._continuous_distribution.mu.weight f4 [5, 256]
000000 6f 54 a7 bc 9a ae 5b bb 4e 6b 49 3c 42 1e 54 3c
       -0.020426003 -0.0033520819 0.01229365 0.012946667
000010 86 0c 39 bb 8b 3e d7 3c 12 42 79 ba 47 be 80 bb
       -0.0028236224 0.02627494 -0.00095084414 -0.003928933
000020 a7 59 38 bc 7f ab 01 3d 2b 3b 8c 3c b3 dd 5d bc
       -0.011251844 0.031657692 0.017118057 -0.013541627
000030 91 1f 1e bc 83 96 02 bc 4f ad 09 3d 22 17 7b bc
       -0.009651081 -0.007970455 0.033612546 -0.0153253395
000040 83 26 58 bc ba 3d 5e 3c ba 08 26 bb e6 da 8a 3b
       -0.013192776 0.013564521 -0.0025334791 0.0042375205
000050 6a f1 4c bc ff a6 49 3b 13 47 ad 3b b3 89 71 bc
       -0.0125087295 0.0030769703 0.0052880137 -0.014742303
000060 c8 51 7b bb 86 e9 1f bc e3 ad 2f bc 06 0d cc 3a
       -0.0038348306 -0.009760266 -0.01072261 0.0015567846
000070 84 1b 14 3c 3c d2 48 bb 8b 1b 94 3b 30 0d 51 bc
       0.009039763 -0.0030642888 0.004519885 -0.012759492
000080 8a f2 18 bb 23 2a 14 bc 80 1d 16 bb 1d ee 1d bc
       -0.0023337924 -0.009043249 -0.0022905767 -0.00963929
000090 4d 87 12 bb c9 8c aa 3c b0 68 26 3b 7f b3 a3 3c
       -0.0022358478 0.020819085 0.0025391988 0.019983051
0000a0 fa f0 00 3d 13 e7 e7 3b 0b 9d 97 ba e7 9b 97 bc
       0.031479813 0.0070771067 -0.0011567188 -0.018506957
0000b0 c7 21 3e 3c cb 53 66 3b df 40 b2 ba af 99 d0 bc
       0.011604733 0.003514516 -0.0013599655 -0.025463907
0000c0 48 23 cd 3b b4 a2 2c bc 53 48 1c 3a 39 a6 af bb
       0.0062603094 -0.010536838 0.0005961705 -0.0053603915
0000d0 91 4e 28 bc 3f a6 99 bc 77 25 3c 3b 6f e0 a6 bc
       -0.010272638 -0.01875603 0.0028708854 -0.02037069
0000e0 5f 7c 3d 3c 0a 3c 73 bc 4d 9c 0f 3c 0d 6c db ba
       0.011565297 -0.014845857 0.008765292 -0.0016740576
0000f0 6b c2 ee bb 8e c4 b0 bc 09 1a 3c 3a 31 89 c2 bb
       -0.00728636 -0.0215781 0.00071755104 -0.0059367646
000100 d3 3b ea ba 7f ef 0f 3c 6b 39 7c 3a 7e 4f bd 3b
       -0.0017870612 0.008785128 0.0009621593 0.0057772985
000110 31 77 24 3b 37 19 fb bb 57 c9 a9 3c 6f 20 39 bc
       0.0025095458 -0.007662918 0.02072589 -0.011299237
000120 2d 1f 4f 3c 31 bf bb 3b 4e c9 35 3c 0f 9a 00 3d
       0.01264171 0.005729579 0.011095358 0.03139692
000130 8f 5f a5 bc 19 4d b3 3c e7 49 ce bb 1d 89 81 3b
       -0.020187167 0.021887349 -0.006295431 0.0039531128
000140 ac c6 41 3b 42 88 5f 3b 46 64 12 3b ef 14 ae bb
       0.002956788 0.0034108316 0.00223376 -0.005312554
000150 1a f0 80 3c df 48 10 bb 47 7a 94 bb 67 9a df bb
       0.01573949 -0.002201609 -0.004531178 -0.006823826
000160 10 75 b7 3c 1d 0f 53 3c a2 b3 53 3b 1a bd 77 3c
       0.022394687 0.012882021 0.0032303114 0.015120769
000170 67 60 8a 3b 95 55 e3 bb cc 81 4c 3c 65 f3 3f 3c
       0.004222918 -0.0069376924 0.012482118 0.011715745
000180 7a 07 b9 3a 31 c5 21 bc 2d fb ae bc e3 5a 25 bc
       0.0014116608 -0.009873674 -0.021360004 -0.01009247
000190 69 b0 0e 3b f2 7d 77 bc 6f 48 cc 3b 0a 6f e9 3a
       0.002177263 -0.015105711 0.0062342207 0.0017809581
0001a0 e3 0d 81 3c 47 aa 59 3c 5d af 0f bc e6 ec 8a bc
       0.015753692 0.013285226 -0.008769837 -0.016958665
0001b0 dc 59 88 ba f7 a7 66 3b 83 54 d2 3b 4b 44 c7 3b
       -0.0010402757 0.003519533 0.006418766 0.006081139
0001c0 8f 76 46 3c 58 6e a8 3b 69 f2 87 bc 49 0c c7 3a
       0.0121132275 0.005140107 -0.016595082 0.0015186156
0001d0 0c 8e a1 3c 9d 7a f0 bc ef 3e 3c 3c c8 73 cf 3a
       0.019721054 -0.029355342 0.011489614 0.0015827352
0001e0 33 29 18 3c c6 a3 b8 3c a8 a2 c3 3c 0c a7 a8 3c
       0.009287166 0.02253903 0.023881271 0.020587467
0001f0 0a eb e1 3b f3 71 44 bc 76 87 0d bc fd 6d 6d ba
       0.006894474 -0.011990058 -0.008638253 -0.0009057222
000200 5c ce b3 3b 62 d2 74 3b fb 9c 5d bc 03 cb e7 bc
       0.0054872464 0.0037356843 -0.013526197 -0.028295046
000210 e6 0b b2 b9 7b 69 08 3a 58 e0 13 bc cf c3 07 bb
       -0.0003395967 0.0005203706 -0.009025656 -0.0020716076
000220 78 96 95 bc 60 a9 d3 bb 54 af 0b bd 4d 59 08 3b
       -0.018260226 -0.0064594 -0.034102753 0.002080518
000230 78 de 08 bc 83 0a 11 bc d7 08 de ba 43 db 07 3c
       -0.008353822 -0.008852604 -0.001693989 0.008292022
000240 1a a8 8e 3b c9 04 ae 3a e4 e0 8e 3b cc c2 c2 bc
       0.0043535354 0.0013276573 0.004360305 -0.023774527
000250 a7 8a 48 3b 6a c2 0a bb 31 af 91 3b 03 d0 18 3c
       0.0030600221 -0.0021173009 0.0044459333 0.009326938
000260 e3 e7 7b bc 00 41 7d 3c 48 65 57 bc b0 2b 62 3c
       -0.01537511 0.015457392 -0.013146706 0.013804361
000270 65 33 8f bb e7 d6 5f 3b 77 81 a9 bc 37 20 50 3c
       -0.0043701404 0.0034155191 -0.020691616 0.012702993
000280 68 61 07 b9 19 bd 13 3c 0b b0 62 3c af 51 d4 3c
       -0.0001291089 0.009017252 0.013835917 0.025917856
000290 cf 6c a8 3b 32 cc 8b bc 7e d4 9e bc e5 6d 5d 3b
       0.005139924 -0.017065141 -0.019388434 0.0033787426
0002a0 5a b9 6f bc e7 4b 7e bb 60 ec 0a 3b b7 93 01 39
       -0.014631594 -0.0038802566 0.002119802 0.00012357427
0002b0 f8 f0 71 3c 25 cb d9 b9 9d 9c 01 bc 22 b0 68 3b
       0.014766924 -0.0004154082 -0.007910875 0.0035505374
0002c0 f3 06 3a ba ec f3 39 bc cf db 9c bc 35 e5 6b bb
       -0.00070963724 -0.011349659 -0.019147782 -0.0035994772
0002d0 a7 a5 59 3b 57 87 2a 3b 61 7d 2a 3a a5 ad 8e b9
       0.0033210309 0.002602061 0.0006503668 -0.00027213726
0002e0 de 2e 16 3c fb d5 7b 3b 10 c8 40 3c 38 bb 2e bc
       0.009166447 0.0038427103 0.011766449 -0.010664754
0002f0 73 2a bd 3b 76 7e b3 bb 4f a7 fc 3c ab e1 a4 3b
       0.0057728826 -0.005477722 0.030841498 0.0050317845
000300 a2 96 a1 bb 58 f4 93 3c ab 00 ee 3c bb 65 0e bc
       -0.004931287 0.018060848 0.029053053 -0.008691247
000310 4a 20 67 bc 93 5a 56 3c 13 45 80 3c 93 1a 8d 3c
       -0.014106819 0.013083118 0.015657937 0.017224586
000320 1a 86 d4 bb 07 da ca bc f5 75 67 bc 0d 36 d5 3b
       -0.0064857127 -0.024762167 -0.014127244 0.0065066875
000330 5e 81 8d 3c 31 8f 26 3c 53 8d b0 3b b2 fe e1 bc
       0.017273601 0.010165975 0.005387941 -0.027587269
000340 52 dc 73 3c 09 1b 81 bc d7 c7 26 bc d3 ed 4d 3a
       0.014884071 -0.015759962 -0.0101794815 0.0007855568
000350 f9 19 20 bc ab 8d 50 bb 7b 75 f4 bb 70 6b a5 bc
       -0.009771817 -0.0031822722 -0.007460294 -0.020192832
000360 e2 6f 8b bc d3 10 6b 3c 0a 56 25 3b e5 51 b8 3a
       -0.017021123 0.014347273 0.0025228285 0.0014062492
000370 95 2d d0 3c 13 a1 3b bb 40 13 c5 3c 6a 55 dd 3b
       0.02541236 -0.0028629943 0.02405703 0.006754567
000380 a3 95 10 3c c9 b3 c7 3c 2f 0c c7 3a d7 c4 29 3c
       0.008824739 0.02437772 0.0015186126 0.010361872
000390 f7 56 17 3c f3 2e 62 3b 30 40 15 3c 0b ca 94 bc
       0.009237043 0.0034512847 0.009109542 -0.018162748
0003a0 f5 e2 71 3c 1b 0f 08 bc bf 00 a2 bc 23 9b 29 3c
       0.014763583 -0.008304383 -0.019775746 0.010351929
0003b0 fe 0c 1c bb 13 10 11 ba af 43 35 bc 6d 53 fe 3b
       -0.0023811455 -0.0005533706 -0.0110635 0.00776141
0003c0 bf ec 97 3a 3d 4e 52 bc d0 e5 cc bb 68 12 2f 3c
       0.0011590942 -0.012836036 -0.0062529817 0.010685541
0003d0 8b 8e e5 3c 48 1b f7 bb 89 6e 8d 3c e1 0b 0c 3c
       0.028022071 -0.007541094 0.017264621 0.008547754
0003e0 ba 4f 13 3c 33 2b 67 bc 5f b1 b1 3b d5 23 e2 39
       0.008991176 -0.014109421 0.0054227556 0.00043132776
0003f0 6a 41 1a bc ff 0b ad bc 47 c2 52 bc 62 cd 7c 3a
       -0.00941501 -0.021123884 -0.012863702 0.00096436415

action_model._continuous_distribution.mu.bias f4 [5]
000000 00 00 00 00 00 00 00 00 00 00 00 00 00 00 00 00
       0.0 0.0 0.0 0.0
000010 00 00 00 00
       0.0

onnx::Div_71 f4 [100]
000000 d6 f6 64 3e c3 69 af 3c c3 69 af 3c 65 02 27 3e
       0.22359785 0.021412736 0.021412736 0.16309507
000010 8a 05 64 3e c3 69 af 3c c3 69 af 3c 5b 0f 26 3e
       0.22267738 0.021412736 0.021412736 0.16216795
000020 fa 55 6c 3e c3 69 af 3c c3 69 af 3c 83 77 25 3e
       0.23079672 0.021412736 0.021412736 0.16158871
000030 c5 ad 71 3e c3 69 af 3c c3 69 af 3c a8 37 28 3e
       0.23601444 0.021412736 0.021412736 0.16427481
000040 b1 33 60 3e c3 69 af 3c c3 69 af 3c 2b c1 27 3e
       0.21894719 0.021412736 0.021412736 0.16382281
000050 79 28 75 3e c3 69 af 3c c3 69 af 3c 40 28 2b 3e
       0.2394122 0.021412736 0.021412736 0.16714573
000060 fd 12 63 3e c3 69 af 3c c3 69 af 3c c0 28 27 3e
       0.22175212 0.021412736 0.021412736 0.16324139
000070 79 28 75 3e c3 69 af 3c c3 69 af 3c 36 70 2c 3e
       0.2394122 0.021412736 0.021412736 0.1683968
000080 5f c3 67 3e c3 69 af 3c c3 69 af 3c 48 87 21 3e
       0.22633122 0.021412736 0.021412736 0.15774262
000090 9c 04 76 3e c3 69 af 3c c3 69 af 3c 3e 68 2e 3e
       0.24025196 0.021412736 0.021412736 0.17031953
0000a0 bc d5 66 3e c3 69 af 3c c3 69 af 3c 42 eb 23 3e
       0.2254247 0.021412736 0.021412736 0.16007712
0000b0 9c 04 76 3e c3 69 af 3c c3 69 af 3c ff d7 30 3e
       0.24025196 0.021412736 0.021412736 0.17269896
0000c0 d6 f6 64 3e c3 69 af 3c c3 69 af 3c a8 6b 20 3e
       0.22359785 0.021412736 0.021412736 0.15666068
0000d0 55 4b 74 3e c3 69 af 3c c3 69 af 3c 65 2f 31 3e
       0.23856862 0.021412736 0.021412736 0.17303236
0000e0 fb 55 6c 3e c3 69 af 3c c3 69 af 3c 02 f5 1f 3e
       0.23079674 0.021412736 0.021412736 0.15620807
0000f0 c5 ad 71 3e c3 69 af 3c c3 69 af 3c ab f0 2f 3e
       0.23601444 0.021412736 0.021412736 0.17181651
000100 ad 3c 6d 3e c3 69 af 3c c3 69 af 3c cd 4b 25 3e
       0.23167677 0.021412736 0.021412736 0.16142197
000110 2a ea 6f 3e c3 69 af 3c c3 69 af 3c 65 fe 2c 3e
       0.2342917 0.021412736 0.021412736 0.16893919
000120 45 22 6e 3e c3 69 af 3c c3 69 af 3c 29 63 25 3e
       0.2325526 0.021412736 0.021412736 0.16151108
000130 8a 05 64 3e c3 69 af 3c c3 69 af 3c 45 9e 29 3e
       0.22267738 0.021412736 0.021412736 0.16564281
000140 2a ea 6f 3e c3 69 af 3c c3 69 af 3c 1f 87 27 3e
       0.2342917 0.021412736 0.021412736 0.16360138
000150 60 c3 67 3e c3 69 af 3c c3 69 af 3c a0 f9 2a 3e
       0.22633123 0.021412736 0.021412736 0.16696787
000160 2a ea 6f 3e c3 69 af 3c c3 69 af 3c ce 9b 2b 3e
       0.2342917 0.021412736 0.021412736 0.16758654
000170 fd 3b 5f 3e c3 69 af 3c c3 69 af 3c 9d 24 2d 3e
       0.21800227 0.021412736 0.021412736 0.16908498
000180 d2 af 68 3e c3 69 af 3c c3 69 af 3c e2 76 29 3e
       0.2272332 0.021412736 0.021412736 0.16549256

onnx::Div_74 f4 [52]
000000 d9 29 fe 3e c3 69 af 3c 69 ed 4d 3e 08 a3 80 3e
       0.49641302 0.021412736 0.20110096 0.25124383
000010 a5 9d fe 3e c3 69 af 3c a7 da 4c 3e d2 72 80 3e
       0.49729648 0.021412736 0.20005284 0.250876
000020 95 4f fe 3e c3 69 af 3c 33 3b 54 3e ff b3 80 3e
       0.4967009 0.021412736 0.20725708 0.25137326
000030 b7 de fe 3e c3 69 af 3c 73 62 47 3e a0 e2 7f 3e
       0.49779293 0.021412736 0.19471149 0.24988794
000040 0c 82 fe 3e c3 69 af 3c 3f 32 53 3e ad 9a 80 3e
       0.49708593 0.021412736 0.20624636 0.25118008
000050 80 14 ff 3e c3 69 af 3c ed 97 49 3e bf 27 80 3e
       0.49820328 0.021412736 0.19686861 0.25030324
000060 e8 73 fe 3e c3 69 af 3c d6 4c 57 3e ef b4 81 3e
       0.49697804 0.021412736 0.21025404 0.25333354
000070 25 f1 fe 3e c3 69 af 3c 73 62 47 3e 37 56 80 3e
       0.49793354 0.021412736 0.19471149 0.25065777
000080 48 5e fe 3e c3 69 af 3c d6 4c 57 3e b6 4e 82 3e
       0.49681306 0.021412736 0.21025404 0.25450677
000090 b7 de fe 3e c3 69 af 3c 69 ed 4d 3e bb 3e 81 3e
       0.49779293 0.021412736 0.20110096 0.25243172
0000a0 26 d2 fe 3e c3 69 af 3c d5 4c 57 3e 65 b5 82 3e
       0.49769706 0.021412736 0.21025403 0.25529018
0000b0 11 eb fe 3e c3 69 af 3c 99 42 55 3e a1 ee 80 3e
       0.49788716 0.021412736 0.20826186 0.2518206
0000c0 c8 cb fe 3e c3 69 af 3c 3f 32 53 3e 3c 91 83 3e
       0.49764848 0.021412736 0.20624636 0.25696743

onnx::Div_77 f4 [5]
000000 9d fb 2a 41 ae 61 b6 3f 7c 00 eb 3f 6b 6c 89 3f
       10.686429 1.424856 1.8359523 1.0736212
000010 74 1d 00 3f
       0.5004494
