Assets/results/4/CoinChaser/CoinChaser-657439.onnx (onnx, 438483 bytes, 13 tensors)

network_body.observation_encoder.processors.0.normalizer.running_mean f4 [100]
0.9368819 0.0 0.0016275258 0.30245793 0.9368785 0.0 0.0018115729 0.30518493
0.93735236 0.0 0.0014845473 0.2976935 0.9366597 0.0 0.0019682401 0.3053634
0.93873155 0.0 0.0013856782 0.29171863 0.9367594 0.0 0.002073191 0.30272025
0.94107956 0.0 0.0012579074 0.28474468 0.9377121 0.0 0.0021827105 0.29764003
0.944859 0.0 0.0012031514 0.27743557 0.94008094 0.0 0.0020412498 0.29001674
0.94954765 0.0 0.0012153212 0.269629 0.94379646 0.0 0.0019195654 0.28104398
0.9548996 0.0 0.0011514374 0.2613982 0.9491787 0.0 0.0017233506 0.27093697
0.9595953 0.0 0.0010327937 0.25274745 0.9554748 0.0 0.001525613 0.26040965
0.9639676 0.0 0.0009780362 0.24388623 0.9617873 0.0 0.0013978442 0.2502249
0.96745527 0.0 0.0009293622 0.23514087 0.96739995 0.0 0.0011179737 0.24058634
0.9700972 0.0 0.00091719424 0.22648072 0.9711672 0.0 0.0010267103 0.231704
0.9724715 0.0 0.00085178803 0.21819365 0.973754 0.0 0.0009825994 0.22341457
0.97452885 0.0 0.0007681297 0.21037577
00000000: 7ed7 6f3f 0000 0000 b452 d53a c4db 9a3e
00000010: 45d7 6f3f 0000 0000 4d72 ed3a 3341 9c3e
00000020: 53f6 6f3f 0000 0000 2495 c23a 486b 983e
00000030: eec8 6f3f 0000 0000 97fd 003b 9758 9c3e
00000040: b650 703f 0000 0000 a59f b53a 255c 953e
00000050: 77cf 6f3f 0000 0000 60de 073b 26fe 9a3e
00000060: 97ea 703f 0000 0000 5ee0 a43a 0eca 913e
00000070: e60d 703f 0000 0000 ce0b 0f3b 4664 983e
00000080: 48e2 713f 0000 0000 10b3 9d3a 090c 8e3e
00000090: 25a9 703f 0000 0000 7dc6 053b 137d 943e
000000a0: 8e15 733f 0000 0000 6a4b 9f3a d00c 8a3e
000000b0: a59c 713f 0000 0000 ed99 fb3a ffe4 8f3e
000000c0: 4d74 743f 0000 0000 d4eb 963a fcd5 853e
000000d0: 60fd 723f 0000 0000 0de2 e13a 40b8 8a3e
000000e0: 0aa8 753f 0000 0000 ce5e 873a 1d68 813e
000000f0: ff99 743f 0000 0000 14f7 c73a 6a54 853e
00000100: 95c6 763f 0000 0000 7331 803a 50bd 793e
00000110: b137 763f 0000 0000 de37 b73a 7a1d 803e
00000120: 26ab 773f 0000 0000 71a0 733a c5c8 703e
00000130: 86a7 773f 0000 0000 f988 923a 445c 763e
00000140: 4a58 783f 0000 0000 dd6f 703a 90ea 673e
00000150: 6a9e 783f 0000 0000 ae92 863a d043 6d3e
00000160: e4f3 783f 0000 0000 874a 5f3a 286e 5f3e
00000170: f147 793f 0000 0000 91ca 803a cac6 643e
00000180: b97a 793f 0000 0000 505c 493a bf6c 573e

network_body.observation_encoder.processors.1.normalizer.running_mean f4 [52]
0.2972382 0.0 0.09346085 0.40053475 0.2987671 0.0 0.09329684 0.40073973
0.29757077 0.0 0.0932755 0.40031174 0.30159065 0.0 0.09324355 0.40095988
0.29895195 0.0 0.09323438 0.40027815 0.30591393 0.0 0.0928526 0.40108588
0.30244127 0.0 0.09282536 0.40031236 0.31153333 0.0 0.091943026 0.40112847
0.30713212 0.0 0.09233535 0.40051168 0.3184793 0.0 0.09116585 0.40113568
0.31318066 0.0 0.09181969 0.40099394 0.32665664 0.0 0.09020893 0.40114355
0.3209235 0.0 0.09090245 0.4016173
00000000: 9b2f 983e 0000 0000 6768 bf3d e412 cd3e
00000010: 00f8 983e 0000 0000 6a12 bf3d c22d cd3e
00000020: 325b 983e 0000 0000 3a07 bf3d a9f5 cc3e
00000030: 176a 9a3e 0000 0000 79f6 be3d 9d4a cd3e
00000040: 3b10 993e 0000 0000 abf1 be3d 42f1 cc3e
00000050: c0a0 9c3e 0000 0000 8129 be3d 215b cd3e
00000060: 95d9 9a3e 0000 0000 391b be3d bef5 cc3e
00000070: 4c81 9f3e 0000 0000 a04c bc3d b660 cd3e
00000080: 6c40 9d3e 0000 0000 511a bd3d de0f cd3e
00000090: b80f a33e 0000 0000 29b5 ba3d a861 cd3e
000000a0: 3759 a03e 0000 0000 f60b bc3d 144f cd3e
000000b0: 8a3f a73e 0000 0000 76bf b83d b062 cd3e
000000c0: 1650 a43e 0000 0000 102b ba3d c8a0 cd3e

network_body.observation_encoder.processors.2.normalizer.running_mean f4 [5]
-0.5065785 2.6009119 -0.122330286 0.8152006 0.3949657
00000000: 21af 01bf 5775 2640 4d88 fabd fdb0 503f
00000010: f238 ca3e

network_body._body_endoder.seq_layers.0.weight f4 [256, 157]
0.028853266 -0.03368397 0.012690082 -0.041047215 0.12476093 -0.05852813 -0.045813855 -0.081230715
-0.17838672 -0.02214421 0.20206934 0.03693523 0.09733564 0.04716358 0.13570137 -0.013236335
-0.08921823 0.061266027 -0.12458997 -0.16948882 0.08406444 0.0035968085 0.0049491106 -0.01973392
-0.013223878 0.047392897 0.0064816135 0.019199569 0.009353803 0.075114615 -0.13319682 0.07846325
0.14212397 -0.09132984 -0.14223781 0.012753794 -0.020866608 -0.026480593 -0.05026726 -0.038646072
-0.01139048 0.12799393 0.019473013 0.016803304 0.13142402 0.12163625 -0.04544632 -0.1226799
-0.16883098 0.03696271 0.013476644 0.006326173 -0.05424684 -0.061956078 -0.18277325 0.09679879
-0.04461403 0.10619145 -0.012918646 -0.0007396986 -0.023582282 -0.025669424 -0.048815504 0.046773575
-0.116263136 -0.05975023 -0.14688252 0.00082015427 0.056802526 -0.018992892 -0.029320464 0.01267923
0.11162668 0.0025342403 -0.025087304 -0.12377566 -0.065675005 -0.020842033 0.059095446 0.022117471
0.0060380013 -0.041701052 0.0254914 0.11340648 -0.012424342 0.12856889 -0.08349592 -0.041022986
0.080142476 0.081433974 0.08382645 0.02572831 0.00577651 -0.075833954 -0.016297296 -0.06951696
-0.054284096 0.16004838 0.07011087 -0.044601347 -0.013288276 -0.007594579 -0.063769944 -0.13187681
-0.0409581 0.04989795 0.21126606 -0.03724728 -0.08796134 0.06233483 0.040543858 0.07870098
0.09562353 -0.035418622 -0.06383816 0.030915517 -0.05776001 0.10473503 -0.072346546 -0.03143549
-0.09046959 -0.14902171 -0.042992692 0.09140437 0.06614069 -0.057486903 -0.10311212 -0.0019011138
0.08969132 0.04152747 0.08331918 -0.021840876 0.15396869 -0.1008225 -0.15581681 0.07911668
-0.071773395 -0.02168426 0.1334726 0.058554087 0.028972482 0.05304806 -0.121683344 -0.034176636
-0.0443405 0.043753378 -0.08844012 -0.0037274878 0.0251113 -0.08707876 -0.023919253 0.0022345842
-0.09352541 0.16160303 -0.05862317 0.03539301 0.009032512 0.052942913 -0.034342684 0.07606223
-0.044678964 -0.034123167 0.053209785 0.08671094 -0.15800299 0.090609334 -0.012106669 -0.016500846
0.076614425 0.01565458 0.09596784 0.022879899 -0.013997089 -0.062335074 0.11845875 -0.06620791
-0.088826716 0.13678883 0.02156801 -0.080075145 0.06270698 -0.0055933795 0.023063978 -0.049747203
0.08836194 0.09824072 0.006538338 -0.021460695 0.022880312 -0.11049065 0.14537205 -0.018062854
-0.18161534 0.051043432 0.014967203 0.030751655 0.13206178 -0.0034412232 0.051654857 0.10364167
0.0283913 0.1159884 -0.018680794 -0.075042464 0.113974825 0.1466756 0.06206009 -0.0890454
0.017712522 0.019460674 0.07897938 -0.079059914 -0.013665189 -0.061038233 0.08962749 -0.04131783
0.051999066 -0.10438512 -0.0008611272 -0.025836937 -0.0096553005 0.116252206 0.01606919 0.040024947
-0.09197269 0.25117746 -0.049779706 -0.066331945 -0.046794485 0.14789152 -0.016230946 0.052470285
-0.042085133 0.062407315 0.1045163 -0.08800037 -0.048492633 0.016043412 -0.03658011 0.09096623
-0.002663455 0.04842242 -0.08103953 -0.19319795 -0.105578154 0.0590249 -0.080871664 -0.08878284
0.023275213 0.08975101 0.06834416 -0.05975147 -0.015687136 0.07480512 -0.00974393 0.01643035
00000000: af5d ec3c 34f8 09bd 10ea 4f3c 2021 28bd
00000010: a982 ff3d 31bb 6fbd 4fa7 3bbd 4a5c a6bd
00000020: 02ab 36be c667 b5bc 44eb 4e3e 6549 173d
00000030: e857 c73d 992e 413d 4df5 0a3e 36dd 58bc
00000040: 0cb8 b6bd 16f2 7a3d 0729 ffbd 7a8e 2dbe
00000050: fa29 ac3d 6fb8 6b3b 262c a23b 08a9 a1bc
00000060: f7a8 58bc 0e1f 423d b763 d43b 6a48 9d3c
00000070: b140 193c b1d5 993d bf64 08be 57b1 a03d
00000080: f288 113e 240b bbbd caa6 11be 4af5 503c
00000090: 73f0 aabc d4ed d8bc 0be5 4dbd 584b 1ebd
000000a0: 239f 3abc d710 033e de85 9f3c 15a7 893c
000000b0: 0594 063e 6d1c f93d ec25 3abd 993f fbbd
000000c0: 07e2 2cbe 3666 173d 24cd 5c3c c94b cf3b
000000d0: ef31 5ebd a8c5 7dbd e928 3bbe 723e c63d
000000e0: 33bd 36bd e77a d93d bba8 53bc 55e8 41ba
000000f0: a12f c1bc af48 d2bc c4f2 47bd a695 3f3d
00000100: 5e1b eebd a8bc 74bd 5f68 16be 9fff 563a
00000110: c4a9 683d fb96 9bbc 7831 f0bc 8cbc 4f3c
00000120: 879c e43d 7f15 263b e483 cdbc 187e fdbd
00000130: 9e80 86bd e9bc aabc 110e 723d b32f b53c
00000140: 6dda c53b b9ce 2abd 57d3 d03c a841 e83d
00000150: 788f 4bbc 90a7 033e e9ff aabd b807 28bd
00000160: bd21 a43d dbc6 a63d 34ad ab3d 2dc4 d23c
00000170: e148 bd3b d54e 9bbd e881 85bc e85e 8ebd
00000180: 0059 5ebd b9e3 233e 4a96 8f3d e7af 36bd
00000190: 12b7 59bc f2db f8bb d199 82bd b70a 07be
000001a0: aec3 27bd cb61 4c3d 2156 583e 9b90 18bd
000001b0: 1325 b4bd cf52 7f3d 5111 263d fb2d a13d
000001c0: 45d6 c33d 1e13 11bd 95bd 82bd 8a42 fd3c
000001d0: c395 6cbd 527f d63d 6d2a 94bd 80c2 00bd
000001e0: 1f48 b9bd 2699 18be 1b19 30bd 3732 bb3d
000001f0: c574 873d 6377 6bbd 722c d3bd cb2e f9ba
00000200: 15b0 b73d b518 2a3d 3fa3 aa3d a3eb b2bc
00000210: f8a9 1d3e 077c cebd 718e 1fbe ed07 a23d
00000220: eefd 92bd 30a3 b1bc 0bad 083e 69d6 6f3d
00000230: b357 ed3c ec48 593d 1e35 f9bd cdfc 0bbd
00000240: 629e 35bd be36 333d 1820 b5bd de48 74bb
00000250: 37b6 cd3c 5956 b2bd 4ff2 c3bc 1a72 123b
00000260: 408a bfbd 447b 253e d91e 70bd 43f8 103d
00000270: 1afd 133c abda 583d eaaa 0cbd 84c6 9b3d
00000280: 4a01 37bd bcc4 0bbd 81f2 593d 8195 b13d
00000290: 89cb 21be 6391 b93d 0d5b 46bc c82c 87bc
000002a0: 06e8 9c3d 093e 803c c98a c43d a06e bb3c
000002b0: 0c54 65bc 1053 7fbd 809a f23d 0398 87bd
000002c0: c8ea b5bd 5f12 0c3e 65af b03c 70fe a3bd
000002d0: 846c 803d ab48 b7bb abf0 bc3c b9c3 4bbd
000002e0: 1bf7 b43d 6e32 c93d 8e3f d63b 57ce afbc
000002f0: 7e6f bb3c ec48 e2bd 69dc 143e 8df8 93bc
00000300: 5ff9 39be eb12 513d 0039 753c e5ea fb3c
00000310: 343b 073e 2586 61bb 0b94 533d 1542 d43d
00000320: df94 e83c 548b ed3d 7708 99bc ddaf 99bd
00000330: a26b e93d 2132 163e b932 7e3d 6f5d b6bd
00000340: da19 913c fe6b 9f3c f1bf a13d 2aea a1bd
00000350: f5e3 5fbc 3a03 7abd 9e8e b73d e33c 29bd
00000360: f9fc 543d dec7 d5bd 45bd 61ba fca7 d3bc
00000370: 4431 1ebc a315 ee3d 89a3 833c 33f1 233d
00000380: 2d5c bcbd 559a 803e cee5 4bbd 0bd9 87bd
00000390: 93ab 3fbd e070 173e c3f6 84bc 15eb 563d
000003a0: 7661 2cbd d09e 7f3d a40c d63d 8a39 b4bd
000003b0: 36a0 46bd 796d 833c 07d5 15bd 814c ba3d
000003c0: 5c8d 2ebb 9656 463d 0ef8 a5bd afd5 45be
000003d0: 5c39 d8bd 18c4 713d 0ba0 a5bd c7d3 b5bd
000003e0: a9ab be3c 61cf b73d 06f8 8b3d f5bd 74bd
000003f0: 4f82 80bc 6d33 993d 01a5 1fbc f198 863c

network_body._body_endoder.seq_layers.0.bias f4 [256]
-0.011731935 0.012616804 -0.011427316 -0.0020873812 0.021796104 0.014759639 0.001361023 0.015438194
0.024384893 -0.012824544 -0.00026275497 0.011891964 0.0068298914 0.0104132695 0.002568698 -0.006642527
-0.0007285524 -0.009483329 0.008241901 0.027244022 0.013043122 -0.0142017715 0.01016764 0.0041792924
-0.002963613 0.008787038 0.011882012 0.012278204 -0.0037611544 0.0049035586 0.04596858 -0.009606827
-0.006317678 -0.008408519 0.011030476 0.0057542543 0.002857378 0.0048037786 -0.0055195973 2.6137845e-05
0.022951052 -0.0030951148 -0.0018856277 -0.0048981165 0.01388603 -0.00784246 -0.0017222174 0.008402296
0.0134165445 0.020719098 -0.0061075767 0.006873666 -0.017876869 0.007287091 0.017354527 0.017227804
0.0007884804 -0.008472123 0.008129584 0.013194855 0.0023600853 0.0071060937 0.00909362 -0.012727249
0.00883271 0.0058138976 -0.002875177 0.0015589835 -0.0020957002 0.0034157515 0.014685383 0.027146026
-0.0008435357 0.0060247355 0.0026680874 -0.027520135 0.0012675244 -0.004345503 -0.016656678 -0.011855013
-0.020879028 0.01369277 -0.0030785643 -0.009878734 -0.001389927 -0.0015460284 -0.014422965 0.02104943
-0.0047459793 0.012293337 0.002704065 0.010424761 -0.004816779 0.004153543 -0.0038468754 -0.007432403
0.0082830265 0.02140453 -0.001412759 -0.008176165 -0.010863925 0.0014505457 0.006580382 0.020512437
-0.010157606 0.008080194 -0.0036754792 -0.009887963 -0.0061813276 0.0239209 -0.014012037 0.00020703903
0.012163248 0.00088586233 0.008003101 -0.012166682 0.019151688 -0.010623649 0.019155322 -0.0009802221
0.0027922115 -0.0036381506 -0.017156878 0.0029507778 -0.0014803217 -0.002411856 0.010502457 -0.0016721099
0.007338884 -0.010251191 -0.019406615 -0.004461871 -0.018301586 -0.01835434 -0.010891226 0.010303884
-0.013888897 -0.0016417801 -0.00035533853 0.012597896 0.0010097426 0.0062498176 0.0008611115 -0.0014463455
0.015821205 0.0053143403 0.012669011 -0.015324672 -0.0046559316 -0.006731165 0.0046416055 -0.0115190055
0.005235694 0.017454432 -0.0032232928 0.0014252574 0.023931906 0.0012579137 -0.01357201 -0.00724118
0.00832659 0.020871079 0.020751588 -0.0013515141 0.0065962854 -0.007605891 0.012213677 -0.0034635551
0.013764004 0.011051457 0.007269222 0.00017078061 -0.0058080065 -0.004996169 0.005437869 -0.013201198
0.00038669148 0.015752293 0.02204942 -0.0029909692 -0.016293662 0.014943307 -0.0050281743 0.00949706
0.012838243 -0.012259129 -0.012219459 -0.006330759 0.018436879 0.0118639665 -0.0078035924 0.0014268185
0.002771214 0.0028219668 0.011802519 -0.013999007 0.014976028 0.0016406078 0.014517183 0.0010060447
-0.017122207 0.017650664 -0.0072969547 -0.009486553 -0.005585993 0.011487374 -0.010128421 0.009787057
0.005584233 0.0021588807 -0.0032854043 0.0024603943 -0.0072978823 -0.001639798 0.0031336155 0.00067774614
0.02077146 0.019702882 0.009462311 0.0058888257 0.013934133 -0.007896864 -0.0106498785 -0.0019337644
-0.0038209183 0.019930808 0.0066357916 0.00011921304 -0.0006786247 -0.010619789 0.008970412 -0.0038876068
-0.010466778 0.0030384737 -0.0040555904 0.015409508 0.0060336706 0.010838474 0.02314723 0.010151083
0.0061277454 0.014695421 -7.32827e-05 -0.0204591 0.0102342 -0.01589158 0.011376919 0.009092018
-0.0068277344 0.0054967906 -0.0032737993 0.027159946 0.004644168 -0.0034515958 0.011734561 0.012917244
00000000: 4d37 40bc b6b6 4e3c a339 3bbc 72cc 08bb
00000010: be8d b23c 6ad2 713c 5b64 b23a 7bf0 7c3c
00000020: d4c2 c73c 091e 52bc 60c2 89b9 83d6 423c
00000030: 48cd df3b 6b9c 2a3c 9a57 283b 8ea9 d9bb
00000040: 53fc 3eba f75f 1bbc 0a09 073c db2e df3c
00000050: d2b2 553c 8cae 68bc 2c96 263c 72f2 883b
00000060: 2d39 42bb 82f7 0f3c c5ac 423c 852a 493c
00000070: b37d 76bb 08ae a03b 8d49 3c3d f465 1dbc
00000080: 8604 cfbb e3c3 09bc 2bb9 343c 2f8e bc3b
00000090: d942 3b3b 0469 9d3b bddd b4bb 9842 db37
000000a0: d803 bc3c 69d7 4abb 2b27 f7ba 6180 a0bb
000000b0: 3b82 633c a97d 00bc 07bc e1ba c9a9 093c
000000c0: 11d1 5b3c 19bb a93c 1122 c8bb 7d3c e13b
000000d0: 8372 92bc 8dc8 ee3b 152b 8e3c 5321 8d3c
000000e0: 06b2 4e3a a9ce 0abc f231 053c 3c2f 583c
000000f0: a9ab 1a3b 3cda e83b 68fd 143c f485 50bc
00000100: 12b7 103c 8282 be3b 776d 3cbb ce56 cc3a
00000110: 0458 09bb cdda 5f3b f69a 703c 5861 de3c
00000120: b920 5dba 256b c53b 14db 2e3b e871 e1bc
00000130: 1023 a63a b964 8ebb 9673 88bc 873b 42bc
00000140: 7f0a abbc a457 603c bdc1 49bb 6ada 21bc
00000150: 362e b6ba 1ba4 caba 4d4e 6cbc db6f ac3c
00000160: 2984 9bbb fe69 493c af36 313b 9ecc 2a3c
00000170: 12d6 9dbb 721a 883b dc1b 7cbb 848b f3bb
00000180: 88b5 073c 8e58 af3c 532c b9ba 52f5 05bc
00000190: 9bfe 31bc 3d20 be3a 3fa0 d73b b309 a83c
000001a0: 166c 26bc ca62 043c 4fe0 70bb 1f01 22bc
000001b0: bc8c cabb c3f5 c33c be92 65bc 9e18 5939
000001c0: 5c48 473c 3739 683a 701f 033c c356 47bc
000001d0: 00e4 9c3c d00e 2ebc 9feb 9c3c cc7a 80ba
000001e0: 89fd 363b 0a6e 6ebb 958c 8cbc d661 413b
000001f0: 5b07 c2ba 3b10 1ebb 7f12 2c3c b32a dbba
00000200: 057b f03b 9df4 27bc 9ffa 9ebc e334 92bb
00000210: 35ed 95bc d75b 96bc 1d71 32bc 9fd1 283c
00000220: 428e 63bc 0031 d7ba bb4c bab9 6867 4e3c
00000230: 5759 843a 45cb cc3b 37bc 613a 4d93 bdba
00000240: 799b 813c eb23 ae3b af91 4f3c 5514 7bbc
00000250: c990 98bb 1b91 dcbb 9c18 983b 36ba 3cbc
00000260: 2f90 ab3b 99fc 8e3c e13d 53bb b4cf ba3a
00000270: d80c c43c 94e0 a43a 235d 5ebc 6c47 edbb
00000280: 406c 083c d3f9 aa3c 3cff a93c 4a25 b1ba
00000290: a725 d83b d73a f9bb e01b 483c d0fc 62bb
000002a0: 6b82 613c 2c11 353c a732 ee3b 9213 3339
000002b0: 1751 bebb e7b6 a3bb 2730 b23b d649 58bc
000002c0: dabc ca39 f40a 813c fca0 b43c 2304 44bb
000002d0: 497a 85bc c6d4 743c 62c3 a4bb 8f99 1b3c
000002e0: 7e57 523c 84da 48bc 2034 48bc 4172 cfbb
000002f0: f008 973c 1561 423c 47b5 ffbb 1604 bb3a
00000300: 429d 353b bff0 383b 5a5f 413c 175c 65bc
00000310: 045e 753c aa09 d73a 7bd9 6d3c 42dd 833a
00000320: df43 8cbc 2098 903c 4b1b efbb 7d6d 1bbc
00000330: b50a b7bb 8a35 3c3c adf1 25bc e459 203c
00000340: f1fb b63b 027c 0d3b f04f 57bb 913e 213b
00000350: 1323 efbb 7eee d6ba 585d 4d3b c6aa 313a
00000360: e928 aa3c f067 a13c cf07 1b3c 0df7 c03b
00000370: fd4b 643c d961 01bc d47c 2ebc 5e76 fdba
00000380: 5f68 7abb ef45 a33c 0e71 d93b 0302 fa38
00000390: bce5 31ba a0fe 2dbc a3f8 123c 38c7 7ebb
000003a0: d97c 2bbc 2121 473b c2e4 84bb 2978 7c3c
000003b0: 19b6 c53b db93 313c 429f bd3c ba50 263c
000003c0: 41cb c83b 10c5 703c 5aaf 99b8 d899 a7bc
000003d0: 59ad 273c 0f2f 82bc 4266 3a3c b0f6 143c
000003e0: 30bb dfbb 6c1e b43b 3d8d 56bb 897e de3c
000003f0: 1b2e 983b 2b34 62bb 5142 403c d9a2 533c

network_body._body_endoder.seq_layers.2.weight f4 [256, 256]
0.057173364 0.057772584 -0.18290716 0.049746785 0.026378611 0.012654289 0.007450746 -0.06929147
-0.13035749 -0.005395492 0.027261904 -0.0017357585 -0.042948067 -0.016633516 -0.028982408 -0.13781999
0.056807544 0.076872855 -0.06837449 -0.13808869 0.06727188 -0.03032736 -0.059261933 0.060116615
-0.11606123 -0.020750673 0.040960327 0.00861809 0.0049965223 -0.01788931 -0.03586501 0.051349036
0.039252125 0.0381513 -0.11683216 0.03557974 -0.006871129 0.011464141 -0.03810615 0.011908059
0.04731179 0.00018506452 -0.044363696 0.046480503 0.052224837 -0.021938436 -0.11754872 0.054528017
-0.11772172 -0.08612231 0.0077558574 -0.03712087 0.099272154 -0.07640265 -0.0038459217 -0.11355758
0.011587203 -0.030286806 0.024325844 -0.04433216 -0.03516777 -0.05690148 0.027013455 0.04360926
0.002656329 0.11458282 -0.031098653 -0.053741504 -0.016410828 0.029641489 -0.07701292 -0.061286774
-0.08898917 -0.0040919925 -0.09456866 0.016404767 0.07638494 -0.019425286 -0.052672923 -0.059031647
-0.11319403 -0.11162941 -0.11900993 0.117108636 -0.08151824 0.0398453 0.017053446 -0.030628357
0.030800914 -0.10753956 0.06626652 -0.11613494 -0.0028491318 -0.022695929 -0.0007880193 -0.019132331
-0.011306288 -0.019571414 -0.0459326 -0.023788754 0.06404827 -0.026836187 0.13444234 -0.027614323
0.072578765 0.04465762 -0.02398904 0.03567373 -0.013656958 -0.041731093 0.098719336 -0.020673612
0.013051616 0.08078192 -0.10353984 -0.06669389 0.08787057 -0.07186265 -0.045873795 0.019739872
-0.056815147 -0.02232855 -0.006598419 0.018872386 0.025525864 0.07758536 -0.05247197 0.041147616
-0.06866743 -0.09046843 -0.027956126 -0.039448936 -0.044794746 -0.010062408 -0.07516649 -0.026169954
0.120679416 -0.026909817 -0.053681247 0.08627566 -0.1262795 0.0069378503 -0.005017427 -0.027758332
0.042096708 -0.027718715 -0.096106306 -0.034806963 0.00061819423 0.029081745 0.08037567 -0.011151911
-0.049522024 0.014818989 0.095534176 0.026643092 0.032431692 0.0042031426 0.013191007 -0.0098360125
0.007942931 0.07239783 0.01479251 -0.061126627 -0.009714879 -0.088114545 -0.045597453 0.15778485
-0.012204281 0.05870957 0.13320696 0.023231372 0.06493648 -0.006767171 -0.08202594 -0.14683937
-0.035208628 -0.051318258 0.049639247 0.0046106568 0.03102055 -0.07559335 -0.02630872 0.111943774
0.055853292 0.019629309 -0.096005626 0.06824475 -0.021956779 -0.00066027994 0.0136653045 0.052287895
-0.028319579 0.03080733 -0.1432684 0.007019495 -0.048711084 -0.036620334 -0.042675607 0.021438738
0.06259497 0.0966851 0.01960337 -0.024170496 0.013517608 -0.0014721153 0.04639538 0.044760805
-0.040734608 0.105713695 -0.13264906 0.028028676 -0.07585948 -0.040266156 -0.0065052374 0.08849798
-0.034642268 0.024386475 -0.09097065 0.063058205 0.06993012 -0.05468003 -0.041125096 -0.050817173
0.117076114 0.04184484 -0.059364453 -0.011090586 0.0055168956 0.041597985 0.0243718 0.004039738
0.019643985 0.05669731 0.056480687 -0.028208993 -0.026111698 -0.022685196 0.062396634 -0.08429293
-0.07302815 -0.04773865 -0.056014024 -0.00888097 0.011273511 -0.0014534277 -0.0059536514 -0.048495054
0.003412516 0.08156278 0.06967425 -0.033939898 0.059580028 -0.028347388 0.0154872555 0.04240181
00000000: 9e2e 6a3d f2a2 6c3d 044c 3bbe 49c3 4b3d
00000010: f517 d83c ef53 4f3c 6325 f43b b0e8 8dbd
00000020: 6f7c 05be abcc b0bb 5b54 df3c 6482 e3ba
00000030: 50ea 2fbd 0343 88bc 846c edbc af20 0dbe
00000040: 07af 683d 846f 9d3d ed07 8cbd 1f67 0dbe
00000050: d7c5 893d 1571 f8bc a4bc 72bd d73c 763d
00000060: 83b1 edbd 51fd a9bc 04c6 273d e432 0d3c
00000070: deb9 a33b 9a8c 92bc 30e7 12bd 5e53 523d
00000080: d6c6 203d 8a44 1c3d b345 efbd 10bc 113d
00000090: 3527 e1bb 18d4 3b3c 3215 1cbd 051a 433c
000000a0: 02ca 413d e10d 4239 b5b6 35bd 5762 3e3d
000000b0: b6e9 553d 3cb8 b3bc 62bd f0bd c558 5f3d
000000c0: 1618 f1bd e560 b0bd d924 fe3b 0e0c 18bd
000000d0: 334f cb3d fe78 9cbd dc0b 7cbb e090 e8bd
000000e0: 40d8 3d3c 091c f8bc fe46 c73c a495 35bd
000000f0: 140c 10bd 8711 69bd 524b dd3c a09f 323d
00000100: ce15 2e3b 66aa ea3d 9ac2 febc 0d20 5cbd
00000110: 0070 86bc b5d2 f23c f3b8 9dbd d707 7bbd
00000120: f43f b6bd 1f16 86bb 37ad c1bd 4a63 863c
00000130: b56f 9c3d c721 9fbc 90bf 57bd 2bcb 71bd
00000140: 46d2 e7bd f69d e4bd 7abb f3bd a7d6 ef3d
00000150: 09f3 a6bd d334 233d abb3 8b3c 52e8 fabc
00000160: 3352 fc3c b33d dcbd beb6 873d 28d8 edbd
00000170: 80b8 3abb d0ec b9bc 1493 4eba 68bb 9cbc
00000180: 023e 39bc 3b54 a0bc d223 3cbd a2e0 c2bc
00000190: bd2b 833d 90d7 dbbc 41ab 093e 6f37 e2bc
000001a0: 2da4 943d e9ea 363d aa84 c4bc 9e1e 123d
000001b0: 6fc1 5fbc 39ee 2abd 5d2d ca3d b55b a9bc
000001c0: 72d6 553c fe70 a53d b20c d4bd ce96 88bd
000001d0: 7cf5 b33d ba2c 93bd 29e6 3bbd 83b5 a13c
000001e0: 00b7 68bd 5dea b6bc 8d37 d8bb 439a 9a3c
000001f0: 9e1b d13c 13e5 9e3d d9ec 56bd 678a 283d
00000200: 82a1 8cbd 8347 b9bd 3f04 e5bc 3595 21bd
00000210: b27a 37bd ccdc 24bc e4f0 99bd 5f62 d6bc
00000220: c526 f73d fa71 dcbc dee0 5bbd 4bb1 b03d
00000230: 6a4f 01be e856 e33b 3a69 a4bb 7165 e3bc
00000240: 996d 2c3d 5c12 e3bc 62d3 c4bd bf91 0ebd
00000250: 500e 223a d73c ee3c 009c a43d 81b6 36bc
00000260: 9bd7 4abd 58cb 723c 6ca7 c33d 9d42 da3c
00000270: 18d7 043d 84ba 893b 181f 583c 3a27 21bc
00000280: 1123 023c 5045 943d 495c 723c ea5f 7abd
00000290: 282b 1fbc 6675 b4bd 65c4 3abd 5a92 213e
000002a0: 77f4 47bc 7279 703d 6867 083e b84f be3c
000002b0: 6bfd 843d 25bf ddbb 37fd a7bd 0f5d 16be
000002c0: ec36 10bd 1833 52bd 8652 4b3d fe14 973b
000002d0: cf1e fe3c b0d0 9abd 6285 d7bc c742 e53d
000002e0: 6cc6 643d a5cd a03c 999e c4bd e7c3 8b3d
000002f0: b4de b3bc a316 2dba 71e4 5f3c d52b 563d
00000300: 76fe e7bc a75f fc3c f4b4 12be cb03 e63b
00000310: 4685 47bd 34ff 15bd 9ecc 2ebd 4ba0 af3c
00000320: cb31 803d d602 c63d 3f97 a03c 3401 c6bc
00000330: f578 5d3c fef3 c0ba 1509 3e3d 1b57 373d
00000340: 55d9 26bd 6c80 d83d 28d5 07be 659c e53c
00000350: 375c 9bbd 20ee 24bd e329 d5bb 6e3e b53d
00000360: 0de5 0dbd 25c6 c73c d24e babd a924 813d
00000370: 8637 8f3d 2bf8 5fbd ca72 28bd ab25 50bd
00000380: 9ac5 ef3d 7f65 2b3d 2428 73bd 4ab5 35bc
00000390: 13c7 b43b a662 2a3d 5ea7 c73c c75f 843b
000003a0: 6cec a03c 703b 683d 4b58 673d 8c16 e7bc
000003b0: 33e8 d5bc 4ed6 b9bc 9d93 7f3d c6a1 acbd
000003c0: c88f 95bd 9a89 43bd f66e 65bd 7d81 11bc
000003d0: 88b4 383c f180 beba d916 c3bb c0a2 46bd
000003e0: 85a4 5f3b 630a a73d 60b1 8e3d 9004 0bbd
000003f0: 300a 743d c838 e8bc 42be 7d3c 85ad 2d3d

network_body._body_endoder.seq_layers.2.bias f4 [256]
-0.009219143 0.0039802142 0.00429379 0.005329258 -0.0038070742 -0.00888231 -0.0043154284 -0.00613673
-0.0063554007 -0.0068750284 0.0073873578 0.0064161965 -0.008695619 0.013566161 -0.0060512545 -0.019391935
-0.0057206945 -0.008482523 0.0047607636 -0.0027330352 0.013075371 0.006740223 -0.011321471 0.0044453703
0.007296263 -0.00018809062 0.00029315596 -0.0059233443 -0.010631583 0.014742666 0.011547673 0.015423449
0.005834906 -0.009774316 0.01351458 -0.005748773 0.01606424 0.006050911 -0.0017003233 -0.0010373368
0.0014023745 0.01030424 0.011067448 -0.009744148 -0.0032308993 0.012635747 -0.0029069264 -0.007939
-0.009283418 0.016579017 0.00949598 0.013592788 0.02381345 0.005582667 0.0021337217 -0.008737437
-0.0035948749 0.01616831 -0.003715746 0.012681745 -0.0012268792 0.013570062 0.018652128 -0.009922878
7.324581e-05 -0.0044554053 0.0123629635 -0.009359395 0.010729781 -0.01653927 0.0063893097 -0.0021612055
0.01496581 0.00065503677 0.002265599 -0.00399816 0.0058113374 -0.0005865079 -0.0014655887 0.0026351458
-0.007421162 -0.0039332113 -0.017068116 -0.012530862 0.0018149258 0.01722129 0.010678483 0.0015473065
0.0011850485 -0.012469151 -0.013351407 0.0019507953 0.01438453 -0.0050251605 0.0047120326 0.0006843109
0.010314865 0.015872026 0.0006253392 -0.0012632306 -0.00052941195 0.006126581 0.016705353 0.005935174
0.0018149813 -0.0026086639 0.0072794557 -0.010919364 -0.011250732 -0.0071242787 0.0055106687 0.017761283
0.0051196953 0.0037277092 -0.0109328255 -0.01721457 0.013829017 -0.007105438 0.0015676627 0.009231235
0.018833883 0.009264845 0.010296757 0.0027314217 0.0075383754 0.0065463115 -0.0082146805 0.0068450603
-0.006558851 0.0122509785 -0.009938571 -0.014499211 -0.003076519 0.016378734 0.0039037962 0.010384492
0.017066585 -0.0011545621 0.0034981382 0.005196736 -0.005551479 -0.0014103625 0.005760134 -0.0126382625
-0.0058877687 0.00928989 0.0002860742 -0.001338532 0.00022824117 -0.0022073917 0.011046622 0.014179155
-0.020908836 0.006308362 0.016094005 -0.006386666 0.01090765 0.013369834 0.010613041 0.002739506
0.009162231 0.011753402 -0.012464302 0.0015937934 0.013995433 0.0007631678 -0.010335344 -0.00430793
0.009950043 0.007857282 -0.011660563 -0.0084036775 -0.013261272 -0.007257496 0.010167931 0.004801509
-0.011510109 0.0060657104 -0.0018714326 -0.0011226255 0.005281593 0.007180312 0.011725458 0.016198443
0.004394849 -0.003170166 0.0057439525 -0.0014322737 0.016076215 0.0031890897 0.011308347 0.006560839
-0.006451382 -0.003126409 0.0031631452 -0.0045625884 -0.0097523695 0.0064023295 -0.016379215 -0.015428395
0.011011885 0.018448908 -0.0036676037 0.003094831 0.0026171105 0.01293159 0.0044648945 -0.003784429
-0.0029187938 0.0054232883 0.0037474125 -0.004653069 -0.00050926564 0.008573248 0.01333521 -0.0003224797
0.008048217 -0.012411096 -0.009983514 -0.010323888 0.009344259 -0.00810685 -0.017902015 0.008502217
0.0028950165 -0.0071071885 0.0040515373 -0.0003221853 -0.00080734567 -0.0009872428 0.0069219847 0.00072636927
0.0099524055 -0.0030101938 0.0070612067 -0.0062883934 0.014543757 0.007866441 0.001843218 0.00580249
0.015449209 0.0017159699 -0.009150424 -0.017976524 -1.4059511e-05 -0.00404022 0.0025981348 -0.003782996
0.009164189 -0.0062461854 0.0057749846 0.01671144 -0.00582905 0.0139191905 0.003706199 -0.0006311261
00000000: e30b 17bc 756c 823b ecb2 8c3b 0ea1 ae3b
00000010: 1b80 79bb 1c87 11bc 7068 8dbb 9f16 c9bb
00000020: f740 d0bb eb47 e1bb a611 f23b f53e d23b
00000030: 1278 0ebc 9a44 5e3c 9a49 c6bb d6db 9ebc
00000040: aa74 bbbb 48fa 0abc 2e00 9c3b b91c 33bb
00000050: 153a 563c 17dd dc3b b17d 39bc 78aa 913b
00000060: 7d15 ef3b 313a 45b9 bab2 9939 9d18 c2bb
00000070: 1730 2ebc 398b 713c 7332 3d3c a2b2 7c3c
00000080: bd32 bf3b 7424 20bc 426c 5d3c 3460 bcbb
00000090: 2799 833c b846 c63b 62dd deba 3ff7 87ba
000000a0: e1cf b73a 1dd3 283c 3e54 353c eba5 1fbc
000000b0: 7fbd 53bb 2a06 4f3c 2282 3ebb 9412 02bc
000000c0: 7a19 18bc b8d0 873c 0795 1b3c 49b4 5e3c
000000d0: 6d14 c33c ceee b63b e9d5 0b3b 7827 0fbc
000000e0: fe97 6bbb 6773 843c e083 73bb 18c7 4f3c
000000f0: 3ccf a0ba f754 5e3c 59cc 983c 9193 22bc
00000100: 8b9b 9938 a6fe 91bb 078e 4a3c 2658 19bc
00000110: f7cb 2f3c 5d7d 87bc 6a5d d13b 03a3 0dbb
00000120: 2833 753c c6b6 2b3a 727a 143b ff02 83bb
00000130: 086d be3b e1bf 19ba ff18 c0ba 69b2 2c3b
00000140: 382d f3bb 2be2 80bb 6fd2 8bbc 3f4e 4dbc
00000150: cee2 ed3a aa13 8d3c cef4 2e3c fece ca3a
00000160: a153 9b3a 694b 4cbc dcbf 5abc d4b1 ff3a
00000170: 17ad 6b3c 1aaa a4bb 6567 9a3b 5463 333a
00000180: aeff 283c 0d06 823c ceed 233a fc92 a5ba
00000190: 3cc8 0aba 7dc1 c83b aad9 883c d97b c23b
000001a0: abe4 ed3a 1ef6 2abb 8088 ee3b 22e7 32bc
000001b0: fd54 38bc c872 e9bb d792 b43b 1c80 913c
000001c0: 1ec3 a73b 954c 743b 981f 33bc 9205 8dbc
000001d0: 1a93 623c bcd4 e8bb 087a cd3a 9b3e 173c
000001e0: 8449 9a3c 94cb 173c bbb3 283c a701 333b
000001f0: 7a04 f73b 7182 d63b de96 06bc 874c e03b
00000200: a1eb d6bb 54b8 483c 63d5 22bc 198e 6dbc
00000210: 6c9f 49bb b22c 863c d5d6 7f3b b723 2a3c
00000220: 39cf 8b3c ad54 97ba 0541 653b 6249 aa3b
00000230: 2ee9 b5bb eadb b8ba 82bf bc3b b710 4fbc
00000240: 2fee c0bb 9f34 183c 3bfc 9539 ae71 afba
00000250: 0654 6f39 e3a9 10bb e4fc 343c b04f 683c
00000260: 0249 abbc 60b6 ce3b 93d7 833c 3d47 d1bb
00000270: 00b6 323c 260d 5b3c 52e2 2d3c 4989 333b
00000280: 2f1d 163c 5791 403c 1237 4cbc d5e6 d03a
00000290: 1a4d 653c 530f 483a 9355 29bc 8929 8dbb
000002a0: 8105 233c d4bb 003c f20b 3fbc 94af 09bc
000002b0: ce45 59bc 4ad0 edbb 6597 263c fa55 9d3b
000002c0: e594 3cbc dec2 c63b dc4a f5ba 1025 93ba
000002d0: 3711 ad3b d348 eb3b 231c 403c 99b2 843c
000002e0: aa02 903b 8fc2 4fbb c437 bc3b 21bb bbba
000002f0: 44b2 833c 0c00 513b a546 393c 4efc d63b
00000300: 1d66 d3bb 70e4 4cbb c54c 4f3b c481 95bb
00000310: 67c8 1fbc a2ca d13b b42d 86bc 61c7 7cbc
00000320: 316b 343c 2a22 973c 2e5c 70bb a6d2 4a3b
00000330: d483 2b3b 05df 533c 404e 923b 2f04 78bb
00000340: 3c49 3fbb d7b5 b13b 2697 753b c678 98bb
00000350: 3d80 05ba cf76 0c3c ed7b 5a3c 7e12 a9b9
00000360: abdc 033c e957 4bbc e591 23bc 8625 29bc
00000370: aa18 193c 98d2 04bc 3fa7 92bc e24c 0b3c
00000380: 51ba 3d3b 6be3 e8bb c2c2 843b fbea a8b9
00000390: 0da4 53ba 5f66 81ba d1d1 e23b d169 3e3a
000003a0: 6a0f 233c ac46 45bb b261 e73b de0e cebb
000003b0: f048 6e3c 3fe2 003c 2298 f13a d022 be3b
000003c0: ae1e 7d3c 65ea e03a a9eb 15bc 8143 93bc
000003d0: 24e1 6bb7 d263 84bb 7845 2a3b 24ec 77bb
000003e0: 6525 163c cdac ccbb 153c bd3b 6ee6 883c
000003f0: 9e01 bfbb 510d 643c b3e3 723b 2872 25ba

action_model._continuous_distribution.log_sigma f4 [1, 5]
0.032392323 0.033691056 0.055159613 0.024310268 0.046465904
00000000: d0ad 043d a2ff 093d 0cef 613d 5426 c73c
00000010: 0853 3e3d

action_model._continuous_distribution.mu.weight f4 [5, 256]
-0.00690004 -0.0147070335 -0.0074886545 0.008398444 0.004816022 -0.037750114 0.009998095 0.0084704915
0.0029783961 -0.001125267 0.012734386 -0.015038615 -0.02634236 -0.018009434 0.031970765 0.009245904
-0.009924561 0.002823313 -0.013285203 0.04357617 -0.017109882 -0.002178948 -0.0032179644 0.016238809
0.014082748 0.017300436 -0.040242597 0.028978955 -0.012596274 -0.025557138 0.027769554 -0.026707813
0.0014195165 -0.0036645543 -0.03989133 0.012737107 -0.01262212 0.0016654746 -0.011358453 -0.023263792
-0.023234285 -0.02812133 0.002101915 0.00021955886 -0.01619443 -0.034370463 0.01737368 0.0072590862
0.014534142 -0.029514657 -0.053120367 0.012048546 -0.0016602273 -0.037383705 0.026686657 -0.0044796164
-0.031172952 0.0142723685 -0.020257514 0.00418468 -0.009602761 -0.022250308 -0.033515472 0.023342323
0.01182976 0.010497282 -0.01386233 0.0024217933 0.011225319 0.02782492 -0.04376231 0.00646111
-0.012184562 -0.011871673 0.048932355 0.005628309 -0.046878017 0.005659622 0.018272078 0.009135166
0.039378695 0.004386052 0.010098825 0.024514519 -0.0013076768 0.023165403 -0.010994882 0.0062506655
-0.013943717 0.01969554 -0.0004986249 0.0031486847 0.021931024 0.0042591915 -0.0035920846 0.030946475
0.0077120746 -0.045103576 0.016386094 -0.014046142 -0.027105663 0.0017127066 0.0028191395 -0.0055437693
0.019935403 0.00081550627 0.027197124 -0.008152266 0.021153415 0.0010733793 -0.0218415 -0.00041841634
-0.0025591992 0.045352716 -0.0013164547 0.01047132 0.0072297473 0.0038442032 -0.002860077 -0.0013662383
0.0074203704 -0.0053319684 0.02161954 -0.02202149 -0.0018817795 -0.016285224 0.01234231 -0.010641051
-0.011609027 0.022379177 0.01708266 0.009269935 0.012069973 -0.016080968 -0.030988147 -0.0039923997
-0.03333178 -0.004268653 0.0024876911 -0.033756886 0.027148748 0.011255154 0.0074097286 0.0015578344
0.0124815665 0.014440219 -0.0038240924 -0.008574227 -0.0066369614 0.012704271 -0.028448949 -0.03337263
-0.008713247 -0.03499927 0.0015163932 -0.021862002 0.023330571 -0.011633495 1.5628053e-06 -0.012238629
0.018480355 -0.0032210986 -0.030577468 -0.01620915 -0.01138179 -0.01538877 -0.012556337 -0.000543795
-0.0066270763 -0.010494571 -0.006726567 -0.038484097 -0.013186726 0.010302816 0.01811343 0.019661542
0.0016678998 0.011414731 -0.006219639 0.009622216 0.010154335 -0.0344676 0.022093482 -0.017287971
0.03546635 0.0036949005 -0.022846982 0.01642581 -0.0038992772 -0.0057034395 -9.769257e-05 0.015721366
0.022526685 -0.035084087 -0.0073069944 -0.003665844 0.0012719802 -0.033285446 -0.0039392416 0.029543975
0.022345863 -0.033213366 -0.011553304 0.014763582 -0.023998706 0.013970266 0.03096539 -0.008556025
0.028011203 -0.0035209 0.0032063494 -0.006262591 0.03397225 -0.019293034 -0.008683425 -0.0043538823
-0.0016729636 0.014587452 0.015639901 0.012004339 0.012104965 0.008932888 0.010366677 0.0035943026
-0.048913687 -0.0055870134 0.030475235 0.020470781 0.0034871716 0.02036594 0.024340784 -0.0063335425
0.011700964 0.031978764 -0.00017163367 6.994858e-05 0.004661057 -0.0413228 -0.03714134 0.015605705
-0.004736176 0.046748202 0.028394343 0.023201559 0.00540951 0.010642535 0.025610376 0.011128314
0.009975498 -0.005813995 -0.021378232 -0.0067247953 -0.018144995 -0.036435902 0.018977871 0.019318137
00000000: bb19 e2bb c5f5 70bc 6363 f5bb a199 093c
00000010: b8cf 9d3b dd9f 1abd 0dcf 233c d1c7 0a3c
00000020: 3231 433b b27d 93ba e3a3 503c 8664 76bc
00000030: efcb d7bc 8588 93bc c7f3 023d 227c 173c
00000040: a09a 22bc 5507 393b 2eaa 59bc ed7c 323d
00000050: 062a 8cbc aecc 0ebb 7ce4 52bb 4007 853c
00000060: 54bb 663c a5b9 8d3c 6cd5 24bd 4665 ed3c
00000070: 9a60 4ebc 345d d1bc fa7c e33c 58ca dabc
00000080: 120f ba3a 0529 70bb 1765 23bd 4daf 503c
00000090: 02cd 4ebc 0e4c da3a ce18 3abc b593 bebc
000000a0: d455 bebc b45e e6bc 48c0 093b 6239 6639
000000b0: 2eaa 84bc 0bc8 0cbd 3f53 8e3c a1dd ed3b
000000c0: 9c20 6e3c b9c8 f1bc be94 59bd 4467 453c
000000d0: fc9b d9ba a81f 19bd fa9d da3c bfc9 92bb
000000e0: 6b5e ffbc a7d6 693c 16f3 a5bc a41f 893b
000000f0: e654 1dbc 4746 b6bc 8547 09bd 6638 bf3c
00000100: 9cd1 413c cbfc 2b3c d31e 63bc f3b6 1e3b
00000110: 66ea 373c 16f1 e33c 1c40 33bd b8b7 d33b
00000120: c2a1 47bc 6881 42bc 4b6d 483d ae6d b83b
00000130: 2a03 40bd 5a74 b93b 53af 953c aaab 153c
00000140: 8e4b 213d dfb8 8f3b 8b75 253c acd2 c83c
00000150: 5a66 abba 5fc5 bd3c e123 34bc 62d2 cc3b
00000160: 3074 64bc 8b58 a13c 27b6 02ba 2a5a 4e3b
00000170: b1a8 b33c b090 8b3b 2e69 6bbb 7683 fd3c
00000180: 92b5 fc3b 87be 38bd 213c 863c ca21 66bc
00000190: b20c debc e67c e03a 50c1 383b 82a8 b5bb
000001a0: 924f a33c b3c7 553a 81cc de3c 1591 05bc
000001b0: ed49 ad3c a2b0 8c3a f2ec b2bc e45e dbb9
000001c0: 3db8 27bb c5c3 393d e48c acba e68f 2b3c
000001d0: 84e7 ec3b 07ef 7b3b 2170 3bbb 5a13 b3ba
000001e0: 9426 f33b cbb7 aebb 761b b13c 6966 b4bc
000001f0: 0ba6 f6ba 9768 85bc 6637 4a3c ce57 2ebc
00000200: ca33 3ebc 8954 b73c eff0 8b3c ede0 173c
00000210: 23c1 453c 3cbc 83bc dbda fdbc add2 82bb
00000220: e886 08bd 0fe0 8bbb 8808 233b a944 0abd
00000230: 0d67 de3c 8a67 383c 4fcd f23b 4030 cc3a
00000240: 7c7f 4c3c ab96 6c3c a09d 7abb ea7a 0cbc
00000250: de7a d9bb 9325 503c c50d e9bc bdb1 08bd
00000260: 02c2 0ebc 655b 0fbd b6c1 c63a f117 b3bc
00000270: c11f bf3c 6a9a 3ebc 95c1 d135 8884 48bc
00000280: 1d64 973c 1119 53bb 997d fabc 0dc9 84bc
00000290: b07a 3abc 2e21 7cbc 18b9 4dbc 778d 0eba
000002a0: f227 d9bb 6cf1 2bbc 896a dcbb 80a1 1dbd
000002b0: 230d 58bc 24cd 283c 9e62 943c 3e11 a13c
000002c0: 6e9d da3a da04 3b3c 1dce cbbb 80a6 1d3c
000002d0: 5e5e 263c e62d 0dbd 64fd b43c 819f 8dbc
000002e0: 2a45 113d 2526 723b 9829 bbbc 6c8f 863c
000002f0: 048b 7fbb ebe3 babb 4de0 ccb8 18ca 803c
00000300: e289 b83c 55b4 0fbd 836f efbb a83e 70bb
00000310: 93b8 a63a 5256 08bd c114 81bb 3506 f23c
00000320: ac0e b73c bd0a 08bd 124a 3dbc f3e2 713c
00000330: ef98 c4bc 8be3 643c 21ab fd3c 922e 0cbc
00000340: c077 e53c e6be 66bb 9e21 523b 6c36 cdbb
00000350: 7c26 0b3d 6d0c 9ebc ed44 0ebc 03ab 8ebb
00000360: 5847 dbba 3500 6f3c 401f 803c d9ad 443c
00000370: e753 463c 3f5b 123c ffd8 293c 648e 6b3b
00000380: b859 48bd 4413 b7bb 33a7 f93c 57b2 a73c
00000390: 0889 643b 79d6 a63c 5366 c73c 9b89 cfbb
000003a0: 66b5 3f3c 2afc 023d 90f8 33b9 5cb1 9238
000003b0: c8bb 983b 1942 29bd 8521 18bd 12af 7f3c
000003c0: ed31 9bbb 0b7b 3f3d 419b e83c 3211 be3c
000003d0: 4242 b13b 075e 2e3c dacc d13c 8853 363c
000003e0: 4570 233c 5383 bebb 6721 afbc ac5b dcbb
000003f0: d0a4 94bc d03d 15bd 7b77 9b3c 1241 9e3c

action_model._continuous_distribution.mu.bias f4 [5]
-0.006452218 -0.012178981 0.008737586 0.009669302 0.002982218
00000000: 216d d3bb 598a 47bc 1828 0f3c fe6b 1e3c
00000010: 5171 433b

onnx::Div_71 f4 [100]
0.2431776 0.001233309 0.04032863 0.18013622 0.24318586 0.001233309 0.042541638 0.18308352
0.2423313 0.001233309 0.038521018 0.17736688 0.2435759 0.001233309 0.044338115 0.18601766
0.2398244 0.001233309 0.03721929 0.17507038 0.24339877 0.001233309 0.04550202 0.18829864
0.23547968 0.001233309 0.035466082 0.17325823 0.24168187 0.001233309 0.046684776 0.19015555
0.22825891 0.001233309 0.034687497 0.17202163 0.23733938 0.001233309 0.045150958 0.19045216
0.21888182 0.001233309 0.034862176 0.1711776 0.23031634 0.001233309 0.043788087 0.18989503
0.20752871 0.001233309 0.03393564 0.17044954 0.2196362 0.001233309 0.041495662 0.18820149
0.19691144 0.001233309 0.032144006 0.16952442 0.2062634 0.001233309 0.039048936 0.18582311
0.18637823 0.001233309 0.031282447 0.16851664 0.19171154 0.001233309 0.03738197 0.18339169
0.17744519 0.001233309 0.030496456 0.16722094 0.17758937 0.001233309 0.033440154 0.18081582
0.17032258 0.001233309 0.030296737 0.16573082 0.16733752 0.001233309 0.03204947 0.1786045
0.16362068 0.001233309 0.029199429 0.16404335 0.1598702 0.001233309 0.0313553 0.17638911
0.1575571 0.001233309 0.027731994 0.16236578
00000000: 8c03 793e fca6 a13a a22f 253d a175 383e
00000010: b705 793e fca6 a13a 2440 2e3d 3f7a 3b3e
00000020: b225 783e fca6 a13a 37c8 1d3d aa9f 353e
00000030: f66b 793e fca6 a13a e29b 353d 6a7b 3e3e
00000040: 8794 753e fca6 a13a 4173 183d a645 333e
00000050: 873d 793e fca6 a13a 5360 3a3d 5cd1 403e
00000060: 9621 713e fca6 a13a e244 113d 9b6a 313e
00000070: 747b 773e fca6 a13a 8938 3f3d 23b8 423e
00000080: b4bc 693e fca6 a13a 7a14 0e3d 7026 303e
00000090: 1809 733e fca6 a13a 36f0 383d e405 433e
000000a0: 8e22 603e fca6 a13a a4cb 0e3d 2e49 2f3e
000000b0: 0cd8 6b3e fca6 a13a 235b 333d d873 423e
000000c0: 6882 543e fca6 a13a 1900 0b3d 538a 2e3e
000000d0: 50e8 603e fca6 a13a 5bf7 293d e4b7 403e
000000e0: 27a3 493e fca6 a13a 6fa9 033d cf97 2d3e
000000f0: b636 533e fca6 a13a c7f1 1f3d 6a48 3e3e
00000100: efd9 3e3e fca6 a13a 0622 003d a08f 2c3e
00000110: 0850 443e fca6 a13a d61d 193d 08cb 3b3e
00000120: 31b4 353e fca6 a13a b4d3 f93c f73b 2b3e
00000130: fdd9 353e fca6 a13a 8bf8 083d c827 393e
00000140: 0b69 2e3e fca6 a13a dd30 f83c 57b5 293e
00000150: 875a 2b3e fca6 a13a 4e46 033d 19e4 363e
00000160: 2e8c 273e fca6 a13a a433 ef3c fbfa 273e
00000170: 04b5 233e fca6 a13a 6a6e 003d 599f 343e
00000180: a656 213e fca6 a13a 352e e33c 3743 263e

onnx::Div_74 f4 [52]
0.4570436 0.001233309 0.29107988 0.28475684 0.45771882 0.001233309 0.2908503 0.28449857
0.45719117 0.001233309 0.29082036 0.2849282 0.45894998 0.001233309 0.29077575 0.28428546
0.45780015 0.001233309 0.2907633 0.28501573 0.46079513 0.001233309 0.29022825 0.28396475
0.45931673 0.001233309 0.29018977 0.28498355 0.463121 0.001233309 0.28894806 0.2835395
0.461306 0.001233309 0.2895015 0.2848769 0.46588805 0.001233309 0.28784716 0.28303826
0.4637889 0.001233309 0.28877398 0.28482613 0.46899205 0.001233309 0.28648382 0.28253844
0.46683326 0.001233309 0.2874728 0.28454596
00000000: 9e01 ea3e fca6 a13a 6c08 953e a6cb 913e
00000010: 1f5a ea3e fca6 a13a 55ea 943e cca9 913e
00000020: f614 ea3e fca6 a13a 68e6 943e 1ce2 913e
00000030: 7efb ea3e fca6 a13a 8fe0 943e dd8d 913e
00000040: c864 ea3e fca6 a13a edde 943e 95ed 913e
00000050: 57ed eb3e fca6 a13a cc98 943e d463 913e
00000060: 902b eb3e fca6 a13a c193 943e 5de9 913e
00000070: 321e ed3e fca6 a13a 00f1 933e 172c 913e
00000080: 4d30 ec3e fca6 a13a 8a39 943e 63db 913e
00000090: e188 ee3e fca6 a13a b460 933e 64ea 903e
000000a0: bd75 ed3e fca6 a13a 2fda 933e bbd4 913e
000000b0: ba1f f03e fca6 a13a 02ae 923e e1a8 903e
000000c0: c504 ef3e fca6 a13a a32f 933e 02b0 913e

onnx::Div_77 f4 [5]
17.281607 1.4164016 7.2868953 1.0522768 0.48884505
00000000: bb40 8a41 a64c b53f 3f2e e940 02b1 863f
00000010: e649 fa3e
