Assets/results/4/CoinChaser/CoinChaser-667610.onnx (onnx, 439515 bytes, 13 tensors)

network_body.observation_encoder.processors.0.normalizer.running_mean f4 [100]
00000000: 7edf 753f b2a7 bd3b 9d24 0e3a 5bf5 713e
00000010: d8fd 763f 118b ab3b 8192 0c3a 6bf9 6f3e
00000020: 6ebd 743f 255e d23b 261b 103a 0921 733e
00000030: 9eec 773f 517e 9b3b d011 123a 1190 6d3e
00000040: 66c3 733f 573d e13b 7a00 0b3a 35fd 733e
00000050: ba6e 783f 44d6 9b3b e6da 123a c38b 6a3e
00000060: ec1a 733f d22d ef3b 72c1 023a e373 743e
00000070: 17d3 783f 5ac3 973b 235a 183a 2a21 673e
00000080: c8b4 723f e6fe f83b e201 003a 8485 743e
00000090: 3500 793f e882 923b 5fd9 1d3a e870 633e
000000a0: e89a 723f 0f73 fb3b 6ef8 013a 6a21 743e
000000b0: f31c 793f 0470 8e3b 9824 0e3a 8d85 5f3e
000000c0: 84c1 723f ba61 f43b 7ac1 023a 6ea1 733e
000000d0: 5130 793f 87ab 843b 43ad 113a ced5 5b3e
000000e0: 1c32 733f 102c e23b 1381 053a 6d1c 733e
000000f0: 034b 793f 34dc 723b a5ed 0e3a 2733 583e
00000100: 0fc1 733f 3b22 cc3b 8653 043a 24d8 723e
00000110: 4b52 793f 4cab 673b c548 113a b0b0 543e
00000120: 2742 743f 6b75 c53b fa25 033a 5f9b 723e
00000130: a167 793f e641 583b bb7f 103a b082 513e
00000140: 91c6 743f 3d88 c13b e093 013a 916d 723e
00000150: 3892 793f 0c98 4b3b ec64 0b3a 2ed7 4e3e
00000160: c14c 753f 8c86 bc3b afae 063a 0a64 723e
00000170: abad 793f f2c0 4d3b d009 093a f688 4c3e
00000180: 30c2 753f 8f5a b83b 73f8 013a b891 723e
0.96044147 0.005787813 0.0005422326 0.23628752 0.96481085 0.005235084 0.0005362407 0.23434989
0.95601547 0.0064199143 0.00054972095 0.2374307 0.96845424 0.0047452827 0.0005572112 0.23199488
0.9522003 0.0068737674 0.00053025 0.2382706 0.97043955 0.004755767 0.00056020764 0.22904877
0.94962955 0.0072991634 0.0004987932 0.23872332 0.971971 0.004631442 0.0005811771 0.22571245
0.948071 0.0075987456 0.0004883093 0.23879057 0.9726594 0.0044711716 0.00060214655 0.22211039
0.9476762 0.007673628 0.00049579784 0.23840871 0.973098 0.0043468494 0.0005422323 0.2182829
0.9482653 0.007457939 0.00049879367 0.2379205 0.9733935 0.004048768 0.0005557129 0.21468279
0.94998336 0.0069022253 0.0005092781 0.23741312 0.97380084 0.003705752 0.0005452282 0.21113263
0.9521646 0.0062296665 0.00050478464 0.23715264 0.97391194 0.0035349904 0.00055421545 0.20770526
0.9541344 0.00602596 0.00050029124 0.23692082 0.9742375 0.0032998263 0.00055121974 0.2046001
0.9561549 0.0059061334 0.00049429946 0.23674609 0.9748874 0.0031065969 0.0005317468 0.20199272
0.9582024 0.005753344 0.0005137724 0.23670974 0.9753062 0.0031395522 0.00052275974 0.19974121
0.9599943 0.00562603 0.00049579813 0.236884

network_body.observation_encoder.processors.1.normalizer.running_mean f4 [52]
00000000: 891c f53e d627 183b 79f9 943d 97b9 c93e
00000010: 0bc2 f63e 7dd4 0e3b 2940 933d dc99 c93e
00000020: 3cda f33e 4747 1c3b fd52 963d 27d7 c93e
00000030: 7cc2 f83e e722 093b f785 913d 7591 c93e
00000040: 91c8 f23e 0f54 243b 783b 983d f311 ca3e
00000050: 8e1f fb3e dcca 003b 8192 8f3d 428f c93e
00000060: 453f f23e f29d 2f3b b0d4 993d 4a71 ca3e
00000070: cdc6 fd3e 5100 f63a da40 8d3d 3493 c93e
00000080: 6e11 f23e 0e38 3a3b d436 9b3d 04ee ca3e
00000090: 1c6f 003f 54b3 f03a 3601 8b3d 6b9c c93e
000000a0: 7c75 f23e 88a4 433b 2ebd 9c3d 757e cb3e
000000b0: 720c 023f 2858 ee3a 46b0 883d 38c3 c93e
000000c0: 3767 f33e 7cee 4e3b 87a2 9d3d 4a30 cc3e
0.47873333 0.0023217103 0.07274146 0.39399406 0.48194918 0.0021794133 0.07189972 0.39375198
0.47627437 0.0023846196 0.073400475 0.3942196 0.4858588 0.0020925344 0.0710563 0.39368787
0.47418645 0.0025074517 0.07433218 0.3946682 0.49047512 0.0019652164 0.07010365 0.3936711
0.47313896 0.0026797024 0.0751127 0.39539558 0.49565735 0.0018768405 0.06897135 0.3937012
0.47278923 0.002841476 0.07578817 0.39634717 0.5016954 0.0018363991 0.0678734 0.3937715
0.47355258 0.0029852707 0.07653271 0.39744917 0.5080024 0.0018184232 0.066742465 0.39406753
0.47539684 0.0031575253 0.07697015 0.39880592

network_body.observation_encoder.processors.2.normalizer.running_mean f4 [5]
00000000: c23e febe 2cd2 2e40 5898 7ebf 898a 743f
00000010: 4f26 9a3e
-0.49657255 2.7315779 -0.9945121 0.9552389 0.30107352

network_body._body_endoder.seq_layers.0.weight f4 [256, 157]
00000000: dc32 89bd 1cf7 4f3d f8e4 71bc a3f4 b4bd
00000010: 089b 213e d2ad 243e 1028 83bd 61f5 9ebd
00000020: ae72 f83c e82d 2abc 4998 03bd c750 77bd
00000030: 04eb 13bd f869 87bc 3b3b f4bd 0b2e 433d
00000040: 0d5b a8bc 4589 1f3e 9bfe ba3a 8087 81bb
00000050: 6eb4 0b3d 8baa a23b 240d 34bd 3261 023d
00000060: e552 2b3d f7d0 42bd c0d2 a4bd 1e21 6ebd
00000070: 7a33 b13d fdcf 14bd b39e 913d 58e0 52bd
00000080: c600 bf3d d6ed 76bc 6ab6 35be 2b02 19be
00000090: 8351 93bd d1fc 9a3d 093b 41bd dff7 c93b
000000a0: 0e45 92bd 1dae 833c e00f 183d de17 5e3d
000000b0: 515c b5bd f8bd 6fbd 5dcf 0f3d 1b66 5b39
000000c0: 50b1 513b c40b 0f3d 6d0e afbd 23d3 82bd
000000d0: 5e85 9e3d 9ea7 08bd 39bf 1e3d f328 be3d
000000e0: 2918 bfbc c2fe 2c3d 21b7 ad3d c1e3 08bd
000000f0: ef2f 6bbc 2562 1bbd b2ff 31be f635 243e
00000100: f743 25bd f881 6a3e f0bf a0bd 549a ab3d
00000110: 3a4b 73bc d175 013d 4bdd 45bd c25b 4c3e
00000120: e329 9f3d b60b b53d f13a 153e a50b 9cbd
00000130: 6ea2 063c 9aaa b83c fc9d 333d 24cf 673d
00000140: 13ab b8bb c6d0 41bc 249e eebc 54f5 713d
00000150: 8064 e8bd 316b b13d 91a1 c5bd 82a8 ea3d
00000160: d026 3cbd 1a1f f2ba 6a60 b93b 1f3c d3bd
00000170: e1a6 0ebd f244 4c3d 578f 7cbd a98b 993d
00000180: 6a33 c13d 5241 773d cc36 4cbd ca8b 673d
00000190: 2710 c1bc a5f3 943d 5b9c 63bd 0ab1 513d
000001a0: acf6 1abe d6b1 343e 17d5 3b3d 1a53 18be
000001b0: 53be d63c cbdc 8d3d 8088 c5bc 268c 983d
000001c0: 6637 883d c17b 13bd d2a4 043d 65f7 cc3d
000001d0: f616 933d 989b 0c3e e205 af3d b09f 8dba
000001e0: e1c6 0bbd b9a6 cf3d 252b 4ebd 462b d1bd
000001f0: 6612 bf3c aa68 b0bd 095c 2c3e 86ea cc3d
00000200: 4df1 a1bd 524c e13c 5951 c9bc b49a 5cbd
00000210: 00d0 1dbd b7a8 32bd 5abf a43d f3e4 bdbd
00000220: ff16 8ebc eced 933b af5d 353b f6aa b13c
00000230: b072 9b3d da29 633d 94d7 31be 1490 2d3c
00000240: f567 36bb a643 2abd 04ad 24be 6eb4 99bd
00000250: eb22 bb3c b3dc 6f3d 45e4 ae3d 8dc3 cd3d
00000260: 666a 093c cc9b a6bc 70a3 01bc bb43 6d3d
00000270: 1be2 ea3d c687 5c3d 8436 603d ab5d a4bd
00000280: 175e 00be 053f 203e cedb e23c 7057 55be
00000290: 1549 1cbe d501 a63d 1105 a53c 05e1 0dbd
000002a0: 2af0 babc 47be 21bd 6a13 9fbc 21b9 453c
000002b0: 93e8 493d 9aa5 d33d 080c 5a3d f959 c8bc
000002c0: 2eb4 53bc 3f6f 9b3d ba27 a5ba fc49 a03c
000002d0: 8525 c63d 6332 95bd 91ec 093e aa14 91bc
000002e0: 0c6d 013d 720c 6abe e111 bf3b 910d 82bd
000002f0: 4a21 c5bd bacf 96bb 39ab 783d 2cb5 073d
00000300: 04b2 ab3d f722 773d 17ce aabc b63c d4bd
00000310: 8d8b 84bd c6de 683d 124b 26be cfe7 32bb
00000320: 3574 37bc 6575 063e 4a0c 8b3b 022c 513d
00000330: bee3 703d 9f2b a5bd 7d2f 773d 7cc9 a63d
00000340: 00b4 f2bd 5149 8dbd 8e18 7e3d affd 75bd
00000350: f5c5 783d e702 e73d 1f9d 193d 1872 edbd
00000360: dcf8 e83d aac3 a53d dce8 263e 9a79 73bd
00000370: 20cf 383e 8f9d 713d a435 9fbd fc50 0cbc
00000380: 0e57 fd3d 1b8f 37bd 4f93 1b3e ba2b 193e
00000390: d953 b73d 2de5 453c 34ad 2c3d 2e73 ac3d
000003a0: 8186 dc3d d711 a63d 32e1 fd3c 027c dbbc
000003b0: 11f7 1c3e 0138 f53d 7410 3fbd 1a76 2bbc
000003c0: 1ea2 163e b313 38be be0f 56bd d84c 4c3d
000003d0: 7e66 9cbc 199d ca3b 698f 9bbc d070 003d
000003e0: 888c 763e c1ae 653d f8ab 81bd d5b5 dd3b
000003f0: cac4 19bd 712f c23d 19cf 5bbd a0b7 7e3d
-0.06699154 0.05077277 -0.014764063 -0.08835723 0.15781796 0.16081932 -0.06404126 -0.07761646
0.030328121 -0.010386921 -0.032127652 -0.06037977 -0.0361128 -0.016530022 -0.1192536 0.047651332
-0.020551229 0.15579708 0.0014266552 -0.0039529204 0.034107618 0.004964178 -0.043957844 0.031830974
0.0418271 -0.047562566 -0.0804801 -0.05813705 0.086523965 -0.036331166 0.071103476 -0.051483482
0.093263194 -0.015071353 -0.17745367 -0.14942233 -0.071932815 0.07567752 -0.04717544 0.0061635817
-0.071420774 0.016074235 0.037124515 0.05422198 -0.088554986 -0.058530778 0.035109866 0.00020923505
0.0031996556 0.03492333 -0.085476734 -0.063879274 0.077402815 -0.033362977 0.038756583 0.09285154
-0.02332695 0.042235143 0.08482195 -0.033420328 -0.01435469 -0.037935395 -0.17382696 0.1603621
-0.04034802 0.22901142 -0.07849109 0.08379045 -0.014849478 0.0316065 -0.048306745 0.19956878
0.07771661 0.08840124 0.14573266 -0.076194085 0.008217437 0.022542287 0.043851838 0.05659403
-0.005635628 -0.011829561 -0.029128142 0.059071854 -0.11347294 0.08663023 -0.09649957 0.114579216
-0.045935452 -0.0018472404 0.0056572454 -0.103142016 -0.034827117 0.04987044 -0.061660137 0.07497341
0.094336346 0.06036503 -0.049856946 0.056529798 -0.023567272 0.07273034 -0.055569034 0.05119423
-0.1513316 0.17645964 0.045857515 -0.1487545 0.0262138 0.069268785 -0.02411294 0.07448606
0.066511914 -0.036006693 0.032383747 0.10008124 0.07182114 0.1373123 0.08546044 -0.0010805037
-0.034125213 0.10139222 -0.050334115 -0.10213332 0.023324203 -0.08613713 0.16831984 0.10005669
-0.079073526 0.027502213 -0.024574922 -0.053858474 -0.038528442 -0.04361793 0.0804431 -0.09272184
-0.01734495 0.0045144465 0.0027674248 0.021687966 0.07590234 0.055459835 -0.17367393 0.010593433
-0.002783296 -0.04156842 -0.16081625 -0.07505117 0.022843799 0.058560085 0.08539633 0.10047064
0.008387184 -0.020337962 -0.007912502 0.05792592 0.114689074 0.05384042 0.05473949 -0.08025678
-0.12535892 0.1564904 0.027692702 -0.20834136 -0.15262254 0.08105818 0.020144017 -0.034638423
-0.022819597 -0.039488103 -0.019418437 0.012068064 0.049294066 0.1033432 0.05323413 -0.024456965
-0.012921376 0.07589578 -0.001260034 0.019566528 0.09675125 -0.07285001 0.13469149 -0.017710049
0.031598136 -0.2285631 0.0058309888 -0.06350244 -0.0962549 -0.0046023997 0.060710166 0.033131763
0.08383563 0.06033608 -0.020850224 -0.10363142 -0.0647193 0.05685308 -0.16239575 -0.0027298813
-0.0111971395 0.1313072 0.0042434083 0.05106736 0.058810942 -0.08064961 0.060348023 0.08143899
-0.118507385 -0.068987496 0.062035136 -0.060056385 0.06073566 0.112798505 0.037503358 -0.11594027
0.11375591 0.080939606 0.16299766 -0.05944214 0.18047762 0.05898815 -0.07773903 -0.00856423
0.1237012 -0.04481421 0.15192913 0.14958087 0.089515395 0.012078566 0.042157367 0.08420406
0.10767842 0.081088714 0.03099117 -0.02679253 0.15328623 0.119735725 -0.04664655 -0.010465169
0.1471028 -0.17976265 -0.052261107 0.04987797 -0.01909184 0.0061832783 -0.018989282 0.031357586
0.24077046 0.05607486 -0.063316286 0.006766061 -0.03754119 0.09481705 -0.0536643 0.062186837

network_body._body_endoder.seq_layers.0.bias f4 [256]
00000000: 48b3 30bc b8bb 523c a146 af3b 6c5b 1e3c
00000010: 793b 903c 2631 f0bb 503f 1d3d cd91 4dbb
00000020: 39c9 4d3c 86a0 2f3d b350 ce3b d426 983c
00000030: a517 f63c dcb6 613b 275d dabb 8017 abbb
00000040: 7b52 07bb 5b06 8d3a e428 d23b 19d9 37bc
00000050: 3408 3abc af75 94bc f371 22bd 6d31 103c
00000060: 8ee0 923c 74d9 6c3c 78d5 a73b 126d c33c
00000070: 57e9 e53b 16d2 f63a 51d5 3e3c 47f6 efbc
00000080: 01aa e4ba 6dd9 2dbb db10 3e3d 0811 633d
00000090: d1b8 e2bb 717d 1cbc caac 00bd bc3c 0b3d
000000a0: 802e d83c c8fc 673c 13d7 1c3c 34ea 5c3c
000000b0: bef5 f43b bcd9 dc3c 3915 943c dd87 423d
000000c0: 9047 14bd fb5c 853c 059e 633b 59f9 2dbc
000000d0: 902a 283b 0eb8 c0bc ab4e 643c 4aba 15bc
000000e0: 8950 753c 299a bfbb d370 363c 653f b13b
000000f0: 5330 bd3c 5ed3 383c 691f 5d3d 6835 c63c
00000100: 841c 0a3d 9a1b aa3c 9e71 8e3c c98f 2abc
00000110: 104e 9c3c b933 143c 8c79 623b dc40 cabc
00000120: 6d7b df3b 9cf3 123d d60a c23c 7cf6 073b
00000130: 65f1 043b a557 7bb9 ae5d ab39 eacb 6d3a
00000140: 1e55 6cbc 312f 953c 9e62 153b e5f2 9bbb
00000150: 5958 913c f574 a9bb 99f0 30bc de3e fc3c
00000160: 7994 183d d711 e33c 1fd7 06bc be5f 593b
00000170: 3f99 ef3b f7fb 373a 6aba fc3b 3b60 96b9
00000180: ad5d c43a 7328 12bd 5d74 f1bc 87b2 84bc
00000190: 9ccd 573d 4e2c 673c 7965 d7bc ac5f f6bb
000001a0: c2ce eebc 8c5e 903c 8cc4 523a 4293 c1bb
000001b0: 2c6e 873c 2bfe ee3c dde0 6dbc 6c2e 283d
000001c0: ded6 3dba 7918 afbc ca3a 963a 87d9 243d
000001d0: 8f67 243c 5d9d 38bc c325 6a3d 5f49 1e3d
000001e0: c4d2 9dbc 5fbd c53c 6fe4 363b 9687 e7bc
000001f0: 8d79 b23c b9d4 073d 2efc 123c 2aad c03c
00000200: 2d40 86bc 0694 ec38 a306 fa3c dcad 0e3d
00000210: e4cf cc3c 47b8 be3c 972e bfbc de82 19bb
00000220: 5e27 c83c b39f 073d 9318 803c 203d 18bb
00000230: 32da 1c3d b19e 0a3d 98cb 8abc be98 58bc
00000240: 5d35 b0bc 37ac adbc 5a82 b53c 2332 193c
00000250: 9b77 4dbc 7f46 c9bc 236c b2bc 4384 3c3d
00000260: 37bb 6ebb adc7 e8bb fad9 a4bc 9f95 763c
00000270: a36e f43c 0fc2 ffbc 4978 a63c 1fdc 80bc
00000280: 992c d9bb 33f6 233c 709a 6b3c 7012 103d
00000290: e319 e7bc 1c1b ab3c 7d6f 893c c8d2 94bc
000002a0: dd97 09bc 678e b03c 6586 16bb a71c e13b
000002b0: 691f 8fbc 590b 0dbc 0279 f3bb d26b 1b3c
000002c0: 4250 c4bb cc46 d8bb 8e4e a23c 27b9 0c3c
000002d0: b5f8 fbbb dc8e 193d 2d4b c8bc 6abe ab3c
000002e0: a100 d0bb cb05 ffbb 3ee6 bfbc eb83 11bd
000002f0: 9ba2 30b9 abac c43c 21ae 57bb b08b 04ba
00000300: e24b 97bc 7361 ff3c 2349 0d3d 5c0d 383c
00000310: 5e3e 50bc 4ec5 05bc 87ea 7a3c 85cd f13c
00000320: c5d4 13bb d0d8 9a3c 2362 f53c b779 403b
00000330: 6e06 b7bc 86f3 92ba 59eb 0f3d 8d91 b53c
00000340: af61 d83a ae78 c7bc e229 c73c 16d6 0d3c
00000350: f6c7 0ebc 7ee7 bd3c 0473 9eba 689e 0b3d
00000360: 4bd9 103d 108d dbbb f5fb a8bc 68e7 cb3c
00000370: 9fe1 ff3c 8ae5 c63c 453f 35bc 7be2 abb9
00000380: 7828 a2bc 5ec3 4b3d defb 9cbc 81ab de3a
00000390: 3a00 cf3c 719e 463d 2807 7c3b 6d68 2a39
000003a0: 2896 27bd c695 e0bb 5953 203d b6f7 be3c
000003b0: 3f7d 08bc 478f d4bc 6082 e63c da97 6bba
000003c0: 39cb fe3c 3256 2dbb 4357 773c fac0 cbbb
000003d0: 26f6 7ebb 6d7d ac3a 5263 a7bc 0ef9 093c
000003e0: adf8 cd3b 3def dabc 3780 bebb 1d34 27bb
000003f0: df20 8c3b ac3c 683c d74b 743d e099 77ba
-0.0107849315 0.012862138 0.005348996 0.009665351 0.017606484 -0.0073300777 0.038390458 -0.0031367422
0.012560182 0.042877696 0.006296241 0.018573202 0.030040571 0.0034441268 -0.0066639367 -0.0052213073
-0.0020648527 0.001075934 0.006413566 -0.011221194 -0.011354495 -0.018122522 -0.03965945 0.0088008465
0.017929342 0.014456142 0.005121883 0.02385572 0.0070163417 0.0018830921 0.011647538 -0.029292239
-0.0017445685 -0.00265273 0.046402793 0.055436164 -0.0069190045 -0.009551392 -0.031414784 0.033993468
0.02638936 0.014159389 0.009572762 0.013483573 0.007475584 0.026959293 0.018076526 0.04749285
-0.03620106 0.016279688 0.0034731638 -0.010618531 0.0025660135 -0.023525264 0.0139347715 -0.009138653
0.014972814 -0.0058472347 0.011135298 0.0054091685 0.023094332 0.011280863 0.053985033 0.024195388
0.0337186 0.020765115 0.017388161 -0.010410258 0.019080192 0.009045535 0.003455731 -0.02468913
0.0068201334 0.035876855 0.023686808 0.0020746281 0.0020285484 -0.00023969875 0.00032685458 0.0009071218
-0.01442459 0.01821098 0.0022794376 -0.00475918 0.017742323 -0.005171413 -0.01079955 0.030791696
0.03725097 0.027718468 -0.00823 0.003316864 0.0073119695 0.00070184417 0.007712652 -0.00028681927
0.0014981531 -0.035683107 -0.029474432 -0.01619841 0.05268632 0.014109684 -0.026293503 -0.007518729
-0.029151324 0.017623208 0.0008040152 -0.005907447 0.016532026 0.029173931 -0.014518944 0.041059896
-0.00072417955 -0.021373974 0.0011461612 0.040246513 0.010034456 -0.011267987 0.05716492 0.03864419
-0.01926554 0.02413815 0.0027907153 -0.028262895 0.021786476 0.033161853 0.008971257 0.023520071
-0.016388023 0.000112809284 0.030520743 0.034833774 0.025001474 0.02328123 -0.023337645 -0.002342395
0.024432834 0.033111285 0.015636718 -0.0023229793 0.038294025 0.033842746 -0.016942784 -0.01322001
-0.02150982 -0.021200282 0.022156883 0.009350332 -0.012540723 -0.024569748 -0.02178008 0.046024572
-0.0036427507 -0.0071038813 -0.02012347 0.015050321 0.029837912 -0.031220464 0.020321028 -0.015729962
-0.006627631 0.010007429 0.0143800825 0.035173833 -0.028210586 0.02088695 0.016776795 -0.018166915
-0.008398023 0.021552278 -0.002296829 0.0068698707 -0.017471032 -0.0086086625 -0.0074301967 0.009486156
-0.005991013 -0.0066002365 0.019812848 0.008589066 -0.0076895603 0.037489757 -0.02444991 0.02096482
-0.006347731 -0.007782673 -0.023425218 -0.035526197 -0.00016845243 0.024008116 -0.0032910185 -0.00050562155
-0.018468801 0.031174397 0.034493577 0.011233654 -0.012710182 -0.008164717 0.015314705 0.029516945
-0.002255724 0.018902212 0.029954022 0.0029369423 -0.022341933 -0.0011211492 0.035136554 0.02216413
0.0016508604 -0.024349537 0.024311963 0.008656999 -0.008714667 0.023181673 -0.0012088721 0.034086615
0.035363477 -0.0067001656 -0.020627955 0.024890617 0.031235514 0.024279375 -0.011062448 -0.00032784403
-0.019794688 0.049746864 -0.019163068 0.0016988368 0.025268663 0.048490945 0.0038456414 0.00016251365
-0.040914685 -0.006853792 0.039141987 0.023311477 -0.008330642 -0.025947226 0.02813834 -0.0008987166
0.031102763 -0.0026449081 0.015096488 -0.006218073 -0.003890404 0.0013159938 -0.020433102 0.008421196
0.006285748 -0.026725406 -0.0058136242 -0.002551324 0.0042763795 0.014174622 0.05964264 -0.00094452314

network_body._body_endoder.seq_layers.2.weight f4 [256, 256]
00000000: 7cc6 a13c 7230 29bd b6c8 e2bd bc92 b3bb
00000010: 9a32 e73b 4ecc 8d3c 3694 edbd 4b25 aa3c
00000020: 9167 c93d c051 72bd dedd f03c be04 07bc
00000030: 5dd7 b53c 940a 1c3d 792f 1fbd cf4d 3abc
00000040: 201f 6e3d 236b d53c f63e 583d 223e 0c3d
00000050: 5818 643c 11ee 3a3d 7e89 0f3d 69d7 1a3d
00000060: 0389 21bd eb5d 743d bcef 92bc bae7 a7ba
00000070: 1ec0 a5bc 514b e53d feb6 08bd ab0f 82bd
00000080: 09e1 d9bb a780 78bd 53c0 393d a6c7 9d3d
00000090: 0732 0b3b 8169 62bc c4ad 6bbc ee48 003e
000000a0: 0d1d e73d c425 f0bb 0db6 423c 495d e8bc
000000b0: 8d57 e8bd ae88 09bd 4d66 aebd 9e43 573d
000000c0: fa9d 82bd 8fc9 983b c02b bdbd f48c f53c
000000d0: 90a1 b03d 0008 fc3c 9294 9fbd 295a 90bc
000000e0: f954 8d3d fe93 82bd be31 60bd cb17 f13c
000000f0: 780d 953c 7348 493c cd73 6c3c 8013 483d
00000100: 4274 d33d 3543 fabc 621d 3ebd 711d 693b
00000110: 275d 9a3d b3f7 cf3d d46e 0dbe 3cef fe3c
00000120: 2932 223c 6914 093e 330b 313d 295d d43b
00000130: c52c 483c 2db0 083e fb4b 433d f473 413d
00000140: b149 28bd 110a 92bd 2cc2 3b3d 0357 8d3d
00000150: 54f1 8fbd c21d cfbc ae07 743d 139d 35bd
00000160: 04ec ecbc aac0 1dbd 5bb7 7c3d b66b 1f3d
00000170: 19ff 73bd cdb5 8ebd 40da 3b3d e964 603c
00000180: 3c9f c4bc 73be febd d994 7cbc 0705 34bd
00000190: 6185 8ebc b95a 7abd 19d4 ecbd 4471 503d
000001a0: a523 653d 3e10 14bd cd33 e9bd 133b af3c
000001b0: 2157 acbc 800d b3bc abaa a13d 3544 0dbd
000001c0: e1e2 203d 8005 b0bd a0c3 4dbd cc32 753d
000001d0: 3e62 833c 136f 54bd e2cb 0d3e 62c3 dabd
000001e0: bd98 453c a528 153b 89da 31bc d89e 8dbd
000001f0: 618e 60bd 7891 c43d 54e7 783b f8fc 57bd
00000200: be06 c53c 511f 52bd da71 b13d e343 64bd
00000210: 46c7 343c 1baf 7cbd 83e9 51bd 0e1c ce3a
00000220: 1279 b23c 37e7 123e b7e4 ef3d 00d0 36bd
00000230: 3644 443b 6002 07be 5abc 863b b588 edbd
00000240: febf 0abe c002 fbbc add5 8abd c735 0b3a
00000250: d774 ebbd 3c68 adbd c503 9a3c 2c25 b3bd
00000260: 2d4e 533d d1aa e6bd 3e78 bf3c 6e12 d7bd
00000270: fe15 0dbd 0c7f eabd 7694 743d 0a66 313d
00000280: 8737 8a3d 6d8d 3a3d 8989 0cbc de5f 9b3c
00000290: 9d93 13bc 75bb 063d 0c80 edbd 2176 a23c
000002a0: 3df7 e93c 0fc7 e93c affa 26bd afb5 c3bd
000002b0: 37a5 d63c 9ae2 873c 957c 8e3c 2e0e 073d
000002c0: ce0e 78bd 05b6 6fbd d166 d93d 40e5 86bc
000002d0: 9083 bdbc e5f8 3d3c d22a 16bd 283e aabd
000002e0: dba1 e73c 6d4f c8bc 65b6 ccbd dd5c 38bd
000002f0: e43c 023e b729 e3bd 8f02 2e3c 0978 1b3c
00000300: 35ad be3c 68ec 1c3a f42e 8c3d 456c 023d
00000310: d5cf 33bd 18d4 293d e166 5cbc 0b8e 213c
00000320: 3760 acbc 0155 fe3c 99f9 13bc c538 033e
00000330: cfe8 28bd 35f9 fabb 9733 87bd a55f cb3d
00000340: 77be e73b 764f 953d 89bc 903d 6c1e 873d
00000350: 92d8 8dbd 1763 003d 76d4 45bb 75ea ed3c
00000360: e716 f6bc d61d 11bd ea9f 91bb 6dc0 d63d
00000370: 59d1 a73d 7a8b 5f3d 0b24 c93a 46af 663d
00000380: 36cd 11bd 0b2b a73c 9a7a 42bc 736f d23c
00000390: d0f2 33bd fa26 b63d d91f 0fbe 2b28 abbc
000003a0: ebc5 b7bb 4df7 08bd ade1 0ebd 3729 0b3d
000003b0: 83ea cc3d a7d5 e8bd 54fd 3ebd 7fad 083d
000003c0: 3d09 d13d c69b a73d 500b 96bb f598 02bd
000003d0: e24b e23c c550 72bd d86e 0fbc 87bc 503d
000003e0: 724c 523d 8506 1f39 afb3 d5bd fb8f a0bb
000003f0: 40da e8bc 9137 61bd bba5 b83d 0976 fd3c
0.019747965 -0.041305967 -0.11073439 -0.0054801386 0.0070555927 0.017309334 -0.116005346 0.020769736
0.09834207 -0.059159994 0.02940267 -0.008240877 0.02219742 0.038096026 -0.038863633 -0.01137109
0.058135152 0.026052063 0.05279442 0.034238942 0.01392182 0.045637194 0.035043232 0.037803087
-0.039437305 0.05965988 -0.01793658 -0.0012810149 -0.02023321 0.11196006 -0.03337764 -0.06350645
-0.0066491407 -0.060669567 0.04534943 0.077040955 0.0021239535 -0.013819099 -0.014384691 0.1252782
0.11284838 -0.0073287208 0.011884225 -0.028364794 -0.11344824 -0.033577614 -0.08515606 0.05255472
-0.06377788 0.0046626995 -0.0923686 0.029974438 0.086245656 0.030765533 -0.077920094 -0.017621117
0.06900973 -0.063758835 -0.054734938 0.02943029 0.018194899 0.01228534 0.014431906 0.04884672
0.10324909 -0.030549625 -0.04641474 0.0035570527 0.07537299 0.10154667 -0.13811809 0.031119935
0.009899654 0.13386692 0.04322357 0.006480832 0.012217705 0.13348456 0.047679882 0.047229722
-0.041085903 -0.07130826 0.045839474 0.06901362 -0.070284516 -0.025282744 0.059577636 -0.04433925
-0.028921135 -0.038513817 0.0616983 0.03892108 -0.059569452 -0.069682695 0.045862436 0.013695934
-0.02400171 -0.12438669 -0.015416347 -0.043950107 -0.017397584 -0.061121676 -0.11563892 0.05088927
0.055942196 -0.036148302 -0.11386833 0.021390473 -0.02103764 -0.021857023 0.078938805 -0.034488875
0.03927887 -0.08594799 -0.05023539 0.059862897 0.016038056 -0.05186374 0.13847306 -0.106817976
0.012060341 0.0022759822 -0.0108553255 -0.06915063 -0.054823283 0.095980585 0.003797968 -0.052731484
0.024051066 -0.051299397 0.086642936 -0.055728804 0.011033839 -0.06169043 -0.051248085 0.0015724914
0.021786246 0.14346014 0.11713546 -0.044631958 0.0029947883 -0.131845 0.0041118087 -0.115983404
-0.13549802 -0.03064096 -0.06779037 0.00053104426 -0.11496895 -0.08467147 0.018800626 -0.08747324
0.051588226 -0.112630494 0.023372766 -0.10501562 -0.0344448 -0.114500135 0.059711896 0.043310203
0.06748872 0.04554503 -0.008577713 0.018966611 -0.009007362 0.032893617 -0.11596689 0.019831719
0.028560275 0.028537301 -0.040766414 -0.09556138 0.026201827 0.016587544 0.01739339 0.032972507
-0.060560994 -0.058523197 0.10615314 -0.016466737 -0.023134023 0.011594986 -0.03666193 -0.083126366
0.02827542 -0.024451936 -0.099957265 -0.045010436 0.1271854 -0.11091941 0.010620727 0.009489068
0.02327595 0.0005986155 0.06844893 0.031841535 -0.043899376 0.041462034 -0.013452263 0.009860526
-0.021041973 0.031046392 -0.009031677 0.12814625 -0.04123765 -0.0076591023 -0.06601637 0.09930352
0.0070722657 0.072905466 0.0706721 0.065975994 -0.06926073 0.0313445 -0.003018645 0.029042462
-0.030040218 -0.035428844 -0.004444112 0.10485921 0.08194227 0.054576375 0.0015345825 0.056319498
-0.035596095 0.020406267 -0.011870051 0.025687909 -0.043932736 0.08894153 -0.13976993 -0.020893177
-0.0056083105 -0.03343897 -0.03488319 0.033974852 0.10005667 -0.11368876 -0.04662831 0.033368584
0.1020684 0.08184008 -0.0045789853 -0.031884152 0.027624074 -0.05915906 -0.008754455 0.050961044
0.051342435 0.0001516585 -0.104346626 -0.0048999763 -0.028424382 -0.054984633 0.090159856 0.030940073

network_body._body_endoder.seq_layers.2.bias f4 [256]
00000000: 2c9a d23c e904 993c 3b92 23ba edbc 8e3b
00000010: 9949 a6bc b95c bebc 9113 77bc ca0f f4bb
00000020: 5cd2 75bb b5d5 e438 7f8f ccbc 52d0 8fbb
00000030: ed26 cebc 467c 6cbc 4363 9e3c d40a 82ba
00000040: 8c12 42bc 912b 0a3d 646b 07bb ffad 003c
00000050: e992 f5bb 6999 5cbc 7e00 a3bc 217b f23c
00000060: 2448 c83c f081 47bb 2c7a 7d3c e088 40bc
00000070: 2135 1eb9 c106 a43c a7f8 cdbb 5eb5 043d
00000080: 7d68 f3ba 6476 c23c 742e 8d3c 4ab2 3a3c
00000090: 8503 28bb 2c8b 873c 1855 533c c23a 043d
000000a0: 5063 d03b 8af8 abbb 7898 0e3c a8bd c4bc
000000b0: a11a 8b3c 0aa3 b6bc 1853 d3bc 9a07 473c
000000c0: bfb1 4f3c b8bf 38bc 00f3 0b3d 5dd6 b2bc
000000d0: 0a51 c9bc b9b5 983c 3dc5 b73c 3991 093c
000000e0: 2e73 bf3c a1ce 13bb 53be d53c fabe ff3c
000000f0: bf80 7bbc 6553 86bc cdf7 c43c 0384 3a3c
00000100: 4671 883c daab 9b3b 4101 bd3c ba8b f23c
00000110: 4265 523c 7e33 82bb e5f1 dabb 6919 b33b
00000120: 4155 babb 4b17 bd3c 3b4f e8bb cd8b 99bc
00000130: 5bec 5aba 9b86 3d3c d7e9 243c 0392 113b
00000140: 2b84 013c e76e 9d3c e747 45bb e1dd 913c
00000150: 00bc 0c3d 2ad6 da3a 7959 b63c b0e2 723a
00000160: f154 903c 009e b7bb 69ed f9bb 6e3a 7b3c
00000170: 99d8 083d fcf4 babb a0f7 0b3c 7c4d 68bb
00000180: 1e40 04ba eb0c 86bc 35ee 32ba 5604 e93c
00000190: 19ae 143c 58ef b83c 1348 173d bf30 89bb
000001a0: dbfd f13c cde3 85b9 8fd7 b43c d04b 0fbb
000001b0: e486 2c3c ec3f 973c ff5e 45bc 9980 643c
000001c0: ebec 8c3c 67ee bd3c 8fb8 87bc 8ee2 fc3b
000001d0: fc71 1b3d 26bd 6fbb 1c93 00bc a28f 57bb
000001e0: c26f e5bb 0c0c 6fbc e575 2fbc ff5b 17bc
000001f0: 7b7a 243a 3309 543c 952e bcbc bf8c 49bc
00000200: 4e48 faba 7172 9b3a 91b5 f63b 38db 063d
00000210: df7b 90ba 4266 633c 93af d0bc c549 803c
00000220: d41c 97bb 5819 b13c 0c6b 5d3c fb88 bf3b
00000230: 6d65 5fbc 9d11 12bc 0d35 dd3b af7a b83b
00000240: ac29 bf3b e9cc aebc f038 843b 4496 c53c
00000250: 3b0d 8dbb 9992 85bc 7e06 0bbc 17aa c9ba
00000260: ef0d 2937 2202 ca3c d7be 01bd 3213 55bc
00000270: 5fdf 703c ac6f aabc 1ef9 fc3c 73de 5fb9
00000280: 8846 a8bb b886 a43c cbc3 bb3c 9c9f 09bb
00000290: e1f8 02bb f5da 843c db80 bd3b 9b44 69bc
000002a0: 2280 183d a424 023c f245 1c3c 7c9f 04bc
000002b0: 0535 b9bc bc49 b13b 50b3 223c 862b dd3c
000002c0: e1ab cb3c a7f6 8e3c d532 113d 60dc fd3c
000002d0: 0337 4e3c 5884 2dba fac2 b73c f785 903c
000002e0: 36e3 4eb7 eedc 2ebc 39f9 663d d97a a03b
000002f0: 150f a33c b5bb b0ba 1754 043c 94bc aa3a
00000300: 35f2 eebc b930 f53c b05a 7dbc b7a6 103d
00000310: aa02 cabc 1f6a 2a3c 3431 293d f9e1 063c
00000320: 32e2 8cbb b7f5 9fbb eccd 183c 28fc 613c
00000330: f4fb 43bc e0d8 a63a 8747 5d36 c802 d5bb
00000340: 3602 593c 8b2a ce3b f73a 1b3a 1ad5 a7bc
00000350: d53a 943c c856 aebb d3c8 a63c 2422 31bc
00000360: 2c24 3b3c ed4f f13b 5fac 003d 7a47 72bc
00000370: db69 3f3b 4207 293b 5dd3 b5bc 3079 71bb
00000380: 4685 48bc 3256 f6bb 6804 c538 1e5a 16ba
00000390: 6926 7abb 3e33 19bc ac1c 00bd 6012 753c
000003a0: 995d d9bc 9a1f a33b e6ee e53c 9cea e6bc
000003b0: eb2f 03bd 7d42 73bc fc32 5fbc 22fd 573c
000003c0: cfac 7f3c 3f27 433b 2d1b 79bc 8b0f 8f3c
000003d0: 8fc4 073d 4326 21bb 9186 553c 850e dabc
000003e0: 4ead e6bb 3bd9 58bc 159e 883c fd4b d7bc
000003f0: ac02 1c3d 542b b03c 190e 8f3c 6fa3 9f3c
0.02570828 0.0186791 -0.00062397466 0.004356018 -0.020298766 -0.023237573 -0.015080349 -0.0074481713
-0.0037509417 0.00010911693 -0.024970768 -0.0043888474 -0.025165046 -0.014433926 0.019334441 -0.000992144
-0.011845242 0.033732954 -0.0020663375 0.007853984 -0.0074943197 -0.01346431 -0.019897696 0.029599728
0.024448462 -0.003044244 0.015471023 -0.011751384 -0.00015087846 0.020022752 -0.006285745 0.032399528
-0.0018570569 0.023738094 0.017234065 0.0113950465 -0.0025636863 0.016545855 0.012898706 0.0322826
0.006359495 -0.005248134 0.008703344 -0.024016216 0.016980471 -0.02229454 -0.025796458 0.012147808
0.012676655 -0.011276178 0.03416729 -0.021830732 -0.024574775 0.01864134 0.022432918 0.00839644
0.023370352 -0.002255358 0.02609173 0.031218994 -0.01535052 -0.016397187 0.024043942 0.011384013
0.016655575 0.004750711 0.023071887 0.029607642 0.012841525 -0.0039734235 -0.006681668 0.0054656756
-0.0056864326 0.023082396 -0.007089523 -0.01874342 -0.000835126 0.011567737 0.010065517 0.0022212274
0.007905046 0.019217921 -0.0030102672 0.017805995 0.03435898 0.0016695906 0.02225946 0.00092653465
0.017618628 -0.005603552 -0.0076271784 0.015333755 0.03340969 -0.005705474 0.008542925 -0.0035446575
-0.00050449546 -0.016363582 -0.0006825657 0.02844445 0.009074711 0.022575065 0.03693397 -0.004186719
0.029539993 -0.00025537462 0.022075443 -0.0021865256 0.010530207 0.018463098 -0.012046575 0.013946676
0.017202815 0.023184968 -0.016567497 0.007717437 0.0379505 -0.0036581247 -0.007847574 -0.0032892008
-0.007001848 -0.014590275 -0.010709261 -0.009238242 0.00062743545 0.012941646 -0.02297143 -0.012301623
-0.0019095035 0.0011859668 0.0075289686 0.032923907 -0.0011023245 0.013879361 -0.025474345 0.015660176
-0.004611591 0.02161853 0.0135142915 0.0058451868 -0.013635022 -0.008915332 0.006750709 0.0056298594
0.005833825 -0.021337943 0.004035108 0.024119504 -0.0043045557 -0.016305255 -0.008485435 -0.0015385774
1.0076429e-05 0.02465922 -0.03167614 -0.013005065 0.014701693 -0.020805202 0.030880507 -0.00021349806
-0.005135361 0.02008377 0.02292051 -0.0020999676 -0.001998477 0.016217688 0.005783183 -0.014237548
0.037231572 0.007943306 0.009538161 -0.008094665 -0.02260829 0.005410401 0.009930447 0.026998293
0.024862232 0.017451597 0.035448868 0.030988872 0.012586358 -0.0006619147 0.02243184 0.017642004
-1.23314585e-05 -0.010672791 0.05639002 0.004897457 0.019904653 -0.0013483675 0.008076689 0.0013026171
-0.029168228 0.02993046 -0.015463516 0.03531524 -0.024659473 0.010401278 0.04130669 0.008232587
-0.0042994255 -0.0048815864 0.009326439 0.013793029 -0.011961926 0.0012729429 3.29732e-06 -0.0065005757
0.013245156 0.0062916926 0.0005921567 -0.020487357 0.01809446 -0.0053204037 0.020359432 -0.010811362
0.011422198 0.007364264 0.031414386 -0.014787549 0.0029207382 0.002579168 -0.022195512 -0.0036845915
-0.012238806 -0.0075175995 9.394513e-05 -0.00057354744 -0.0038169867 -0.009350596 -0.031277344 0.014957994
-0.026533889 0.0049781324 0.028068017 -0.028188042 -0.03202812 -0.014847395 -0.0136229955 0.01318291
0.015605166 0.0029778031 -0.015204233 0.017463466 0.033146437 -0.0024589456 0.013032571 -0.026618252
-0.0070397025 -0.0132353855 0.016676942 -0.026281351 0.038088486 0.021505035 0.017462777 0.01948711

action_model._continuous_distribution.log_sigma f4 [1, 6]
00000000: f113 af3d 2a71 2a3d fcfc ee3d 37b4 993d
00000010: 1be4 a0bb 0dc6 be3d
0.085487254 0.041611828 0.11669347 0.075050764 -0.004910005 0.09315119

action_model._continuous_distribution.mu.weight f4 [6, 256]
00000000: 3579 3ebc 1e09 0a3d 5ff8 5cba 3eed 68bc
00000010: bbaf a4bc 670d 9cbd d5f4 20bd 3a52 e3ba
00000020: 494d abba 10e1 0e3d a6d1 25bb e90d bd3b
00000030: ebfc 2a3c 21a3 90bc aa72 a13c 7a59 1cbc
00000040: f868 0a3c f427 423c 953e bc3c aed0 0f3c
00000050: cd3e a73c 8615 ecbb 240e 4fbd c018 203c
00000060: c68c 683d d2a0 a5bc b548 42bc 3cef c8bc
00000070: aeb0 043c 001b e53b f828 04bd 2228 f73c
00000080: 73ef 123c e1fc 353c a3b9 1cbc 6da2 0a3d
00000090: 6b71 cd3c 4bbe 383b 75ef ae3c 6a8c bcbb
000000a0: b334 50bd 25b9 75bb 858f 463c e5e5 87bd
000000b0: b87e 8abc d2dc 82bc 3f33 95bc ca78 693c
000000c0: 6587 f33c 8ff5 e7bb cb94 013d 6cbf 33bc
000000d0: b03b 603c 20db e63c d2f6 ff3b 9843 e8bc
000000e0: fde0 4b3c ea2a cb3b 3e5c 3e3d 6a90 3c3d
000000f0: 6a02 023c 0b41 1cbc 4bfd b13c 492b fb3c
00000100: 6c5f cc3b 7834 29bc b893 c53c 4131 3f3d
00000110: 0813 a6ba ab91 a23c 7881 e93c 8784 db3b
00000120: d3e3 813a 383b a03c 0cfc 473c 83c6 f2bc
00000130: fd56 193d 0193 c3bc 3166 573b 87e4 903c
00000140: 5264 1cbd bb7e d4bc 9903 cb3c d2df 0e3b
00000150: d790 283d 0d16 01bd be8f 933c 409d 4e3c
00000160: 1e44 5cbc b38d 34bc a399 c63c f268 9c3b
00000170: 1eda 593c 3fb8 b2bc 7437 16bc 7b2e 813c
00000180: 16bc 893c 1fad a4bc 5790 933c abce d13c
00000190: 7c57 93bc 634f ecba cc65 383c d67a 2cbc
000001a0: 6d28 27bc a1fc 603c 13bd 203d fa0d 18bd
000001b0: 3381 d33c f01e fbbb 8849 b23c 0afb 00bd
000001c0: 613c 0e3c c274 9a3b 5e1b df3c 3424 1c3d
000001d0: c440 393d 8076 a53c 682c 9e3c 817e 1f3d
000001e0: 2274 0abd d450 86bc b42e 08bd 6c32 4ebc
000001f0: 0c2c cabb bbc3 b33c 43e9 27ba 7943 e5bc
00000200: 74df 13bd c66b d43b 8679 72bc 83c6 363c
00000210: 8173 d8bc fcf3 453c b6ac b4bc 0ab6 453c
00000220: 2925 fbbb 8669 b43c b8cc 8fbc 5ab2 61bc
00000230: d166 b3bc e5d9 14bc 5a2a 0dbb 55b7 e83b
00000240: 0fdc 453c 6042 adbb 9173 8cbc ba6c 4b3d
00000250: eb98 13bb 7692 c8bc 8c51 f8bc ed69 feba
00000260: 014f 64bc 100a 693c 9c39 a8bb 1005 853b
00000270: 33c3 e8bc cfe1 9dbb 0ca1 213d 89c9 543b
00000280: b5c7 30bd 390e d2bc 9a35 0c3d adb3 463d
00000290: fff9 8abc c769 35ba c5c8 28bc 74ff 0e3d
000002a0: 7d11 dd3c 129b be3b 376b 4aba 22ce 18bd
000002b0: 847e 99bc aa68 bf3b 582e e0bc cfc3 87bc
000002c0: 779a 883c d23d 123d e7de 17bc 676f 7f3b
000002d0: a73f 5d3b c888 51bc 289a d93c e9eb 183d
000002e0: 33c5 da3c 96df a6ba 2cf3 903d 78c5 0fbd
000002f0: d2f2 bd3b f5ea 1c3a 7912 4abc f6c3 70bc
00000300: 41b1 ba39 b3a6 223d 684c 543c e507 d2bc
00000310: 1e32 d0bc f090 7d3c 9b06 8abc 0787 073c
00000320: c37c b03c 89ee bfbc d9be 12bc 2737 863c
00000330: 0ed5 343a 7a0e 06bb 83c7 103c 90ea 6f3c
00000340: 9f57 ba3a b033 b83c 2d5b 543b 537d 6fbd
00000350: b770 443c d7c4 ab3b 607f 80b9 23ee f8bb
00000360: b5c0 a43c efd3 3e3d 7950 013c be69 85bc
00000370: 0707 a73c 5623 463c ec4b 003d b055 80bd
00000380: b078 95bc 6397 693c 444c 813c 3cd5 763c
00000390: 79c2 c13c ccdd 43bc dd59 a9bc 225e b73c
000003a0: 527b 26bc ec9a 68bd 1fbb 653d e151 0cbc
000003b0: 0572 f2bc df89 25bc 90ce 5039 0fae 5e3c
000003c0: 3e47 a03b fbe4 52bb 1990 dcbc 1d2e 4a3c
000003d0: 4859 b63c 75f5 95bc 9991 4f3c 883c e0ba
000003e0: e8c5 053b 740a 883a 90d2 8f3c d815 643c
000003f0: bd67 913d 1403 4d3c 2394 273d c368 173b
-0.011625578 0.0337001 -0.0008429344 -0.014216719 -0.020103326 -0.07619744 -0.03929599 -0.0017343231
-0.0013069297 0.034882605 -0.0025301962 0.0057694805 0.010436277 -0.01765591 0.019707996 -0.009542817
0.008447878 0.011850346 0.02297906 0.00877778 0.020415688 -0.007204714 -0.050550595 0.009771526
0.056774877 -0.020218287 -0.011858155 -0.024528138 0.008098764 0.006991744 -0.032265633 0.030170504
0.008968222 0.011107654 -0.009565744 0.033846308 0.025078496 0.0028189595 0.021354416 -0.0057540433
-0.050831508 -0.0037494388 0.012119179 -0.06635646 -0.016906127 -0.015974436 -0.018212913 0.01424999
0.029727647 -0.0070788334 0.03163604 -0.0109709315 0.013686106 0.028180659 0.0078114057 -0.028352544
0.012443778 0.006200184 0.046474688 0.04603616 0.007935146 -0.009536992 0.021727225 0.030660288
0.006236961 -0.010327451 0.02411829 0.04667783 -0.0012670467 0.01984485 0.028504118 0.006699148
0.0009909816 0.019559488 0.012206089 -0.029635673 0.037436474 -0.023873808 0.0032867307 0.017687095
-0.03818161 -0.025939336 0.024781989 0.0021800888 0.041153755 -0.03151517 0.018012878 0.0126107335
-0.013443975 -0.011020112 0.024243182 0.0047732526 0.013296632 -0.021816371 -0.0091684945 0.015769234
0.01681332 -0.020102082 0.018013163 0.025611242 -0.017986052 -0.001802903 0.011254739 -0.010527333
-0.010202509 0.013732106 0.039242815 -0.037122704 0.025818443 -0.0076636 0.021763578 -0.03148941
0.008681388 0.0047136256 0.02723473 0.038120463 0.04522778 0.020198107 0.019308284 0.038939003
-0.03380216 -0.016395964 -0.033247665 -0.012585264 -0.0061698016 0.021943917 -0.0006405303 -0.027986275
-0.036101773 0.006482574 -0.014799481 0.011155727 -0.026422264 0.012082096 -0.022055011 0.012067327
-0.007664342 0.022022974 -0.017553672 -0.0137754325 -0.021899613 -0.009085153 -0.0021540136 0.007101933
0.012076392 -0.0052874535 -0.01714495 0.049664237 -0.0022521566 -0.0244839 -0.030312322 -0.001941023
-0.013934852 0.0142235905 -0.0051338207 0.0040594414 -0.02841339 -0.0048181782 0.039460227 0.0032468757
-0.043159205 -0.025641548 0.034230806 0.048511196 -0.01696491 -0.0006920364 -0.010301773 0.034911588
0.026985878 0.0058168257 -0.0007721665 -0.03730596 -0.018737085 0.0058413344 -0.027365848 -0.016572861
0.016675217 0.035703488 -0.009269453 0.0038976313 0.0033759864 -0.012788959 0.026562765 0.037334356
0.02670536 -0.0012731429 0.07077631 -0.03510043 0.0057967687 0.0005985939 -0.012333506 -0.014695158
0.0003560875 0.039709758 0.01295767 -0.02563853 -0.025414523 0.01547645 -0.016848853 0.008271939
0.021543866 -0.023429172 -0.008956634 0.01638372 0.00068982027 -0.0020455406 0.00883663 0.014643326
0.0014216787 0.022485584 0.0032402978 -0.058469128 0.011989764 0.005241971 -0.00024508964 -0.0075967475
0.020111421 0.046588834 0.007892721 -0.016285773 0.020389093 0.012093386 0.031322405 -0.062663436
-0.018246025 0.014257285 0.015783437 0.0150654875 0.023652302 -0.011954736 -0.020672733 0.022383753
-0.010161238 -0.05678837 0.056086656 -0.008564443 -0.029595384 -0.010103672 0.00019913376 0.0135913035
0.004891305 -0.003217994 -0.02692418 0.012340096 0.02225937 -0.01830552 0.0126689905 -0.0017107883
0.002041215 0.0010379092 0.017556459 0.013921224 0.07099865 0.012512941 0.04091276 0.0023103214

action_model._continuous_distribution.mu.bias f4 [6]
00000000: a532 8b3c 9e8c 99bb 988b 853c ad37 88bc
00000010: f0bc dfbc 214d d2b9
0.016991923 -0.0046859523 0.016301915 -0.01662811 -0.027311772 -0.00040111787

onnx::Div_71 f4 [100]
00000000: 4b9a 473e 2a60 9b3d fff7 be3c 107c 2d3e
00000010: 79ae 3c3e 4fd0 933d ffe9 bd3c 8d1b 2c3e
00000020: d5fc 513e 2896 a33d 6947 c03c 036d 2e3e
00000030: 5ffd 323e 0fc4 8c3d 7c94 c13c a1cd 2a3e
00000040: d176 5a3e e13a a93d 8cda bc3c 86ef 2e3e
00000050: ed70 2d3e a1eb 8c3d f918 c23c 7223 293e
00000060: 3bf5 5f3e 8359 ae3d c32f b73c 4f64 2f3e
00000070: 2a06 293e 6013 8b3d 58af c53c 8b2c 273e
00000080: 1736 633e 26dd b13d e241 b53c ee7c 2f3e
00000090: 29fe 263e d0a8 883d eb35 c93c 5b29 253e
000000a0: f806 643e 1fbb b23d 2ca3 b63c dee5 2e3e
000000b0: 39af 253e 99c1 863d 31f8 be3c 0ad4 223e
000000c0: dcce 623e 6d38 b03d c02f b73c 9824 2e3e
000000d0: 74cc 243e ef12 823d 1952 c13c a9eb 203e
000000e0: 2337 5f3e a393 a93d 6518 b93c 0f61 2d3e
000000f0: fb90 233e 53ee 783d a47e bf3c abee 1e3e
00000100: d18a 5a3e 1129 a13d 9e47 b83c 9cd5 2c3e
00000110: 983a 233e 6f27 733d a40f c13c b8d9 1c3e
00000120: 5038 563e 3f85 9e3d e275 b73c d15b 2c3e
00000130: 453b 223e 72f5 6a3d 458a c03c 6fca 1a3e
00000140: 96aa 513e 1ef2 9c3d 815c b63c ee05 2c3e
00000150: a539 203e ddff 633d e11e bd3c f054 193e
00000160: 68ee 4c3e 55ea 9a3d 30e8 b93c 0bb9 2b3e
00000170: 9aeb 1e3e 0533 653d 4c85 bb3c 5fe8 173e
00000180: bcad 483e b733 993d 3ea3 b63c 81c3 2b3e
0.19492452 0.07586701 0.023311613 0.16941857 0.18425931 0.07217466 0.023182867 0.16807385
0.20506604 0.079876244 0.023471551 0.17033772 0.17479466 0.06873333 0.023630373 0.16680004
0.21334387 0.082631834 0.02305343 0.17083558 0.16937609 0.0688088 0.023693549 0.16517428
0.21870892 0.08513167 0.022361642 0.17128108 0.16506258 0.06790805 0.024131462 0.16325586
0.22188602 0.08684759 0.022126142 0.171375 0.16307892 0.066728234 0.024561843 0.16129057
0.22268283 0.08727097 0.022294603 0.17079875 0.16180123 0.065798946 0.023311706 0.15901199
0.22149223 0.08604512 0.022361636 0.17006147 0.16093618 0.063512675 0.023598718 0.15714897
0.21798377 0.082801126 0.02259464 0.16931556 0.15973274 0.06077416 0.023375817 0.15520732
0.21342017 0.07869161 0.022495087 0.1687836 0.1594032 0.05936378 0.023567028 0.15317428
0.20919919 0.077402584 0.022395078 0.168319 0.15842922 0.05736298 0.023503432 0.15116285
0.2047523 0.07663368 0.022260906 0.16799137 0.1564699 0.055663932 0.023086013 0.14973807
0.2001282 0.075642265 0.022693723 0.16769807 0.15519562 0.05595686 0.02289071 0.14834736
0.19597524 0.07480567 0.022294637 0.16773798

onnx::Div_74 f4 [52]
00000000: e5c4 ff3e 3132 453d 46f9 843e 39db 8b3e
00000010: 6cd5 ff3e 7613 3f3d 1d43 843e da8a 8b3e
00000020: 6bb6 ff3e 95d7 473d fd86 853e 1119 8c3e
00000030: 01e6 ff3e 2b3d 3b3d 3d8b 833e 4741 8b3e
00000040: c6a8 ff3e 66e8 4c3d f44d 863e c169 8c3e
00000050: 4bf4 ff3e 6078 353d e8b9 823e b7e2 8a3e
00000060: 8da1 ff3e c6ce 533d 64f3 863e 0fb5 8c3e
00000070: b1fd ff3e 6c5a 313d b4be 813e d085 8a3e
00000080: 119f ff3e 1816 5a3d b981 873e 28f3 8c3e
00000090: d3ff ff3e 9b6f 2f3d b7c8 803e d024 8a3e
000000a0: 74a4 ff3e 6784 5f3d a31d 883e f734 8d3e
000000b0: d8f7 ff3e d593 2e3d 7a91 7f3e 8dd0 893e
000000c0: cfb0 ff3e 2cda 653d d378 883e 916a 8d3e
0.49954906 0.04814357 0.2597143 0.2731569 0.49967515 0.04664942 0.25832453 0.27254373
0.4994386 0.04878958 0.2607955 0.27362874 0.49980167 0.04571263 0.25692168 0.2719824
0.4993345 0.05002632 0.2623135 0.27424434 0.49991068 0.04430425 0.2553246 0.27126095
0.4992794 0.051710866 0.26357567 0.27481887 0.4999824 0.043299124 0.25340807 0.27055216
0.49926046 0.053243726 0.26466158 0.27529263 0.49999866 0.042831045 0.25153133 0.2698121
0.49930155 0.054569628 0.2658511 0.2757947 0.49993777 0.042621452 0.24957839 0.26916924
0.49939582 0.056116268 0.26654682 0.27620366

onnx::Div_77 f4 [5]
00000000: 38cd 7c41 1f52 b53f bbfd b240 82a2 a53f
00000010: 23de ea3e
15.800102 1.4165686 5.593473 1.2940218 0.45872602
