Assets/results/4/CoinChaser/CoinChaser-3896.onnx (onnx, 437518 bytes, 12 tensors)

network_body.observation_encoder.processors.0.normalizer.running_mean f4 [100]
0	0x3f76ef40	0.96458817
1	0x00000000	0.0
2	0x00000000	0.0
3	0x3e58d39b	0.21174471
4	0x3f77c9dd	0.96792394
5	0x00000000	0.0
6	0x00000000	0.0
7	0x3e5b670f	0.21426032
8	0x3f7721b4	0.965358
9	0x00000000	0.0
10	0x00000000	0.0
11	0x3e5a1498	0.21296918
12	0x3f77dab1	0.9681807
13	0x00000000	0.0
14	0x00000000	0.0
15	0x3e5d2adb	0.2159838
16	0x3f76cd9e	0.96407497
17	0x00000000	0.0
18	0x00000000	0.0
19	0x3e5b2aa5	0.21402986
20	0x3f78e7c2	0.97228634
21	0x00000000	0.0
22	0x00000000	0.0
23	0x3e5ead89	0.21745886
24	0x3f76abfc	0.9635618
25	0x00000000	0.0
26	0x00000000	0.0
27	0x3e5c3d1c	0.21507686
28	0x3f796e4b	0.9743392
29	0x00000000	0.0
30	0x00000000	0.0
31	0x3e605181	0.21906091
32	0x3f774356	0.9658712
33	0x00000000	0.0
34	0x00000000	0.0
35	0x3e616711	0.22011973
36	0x3f797f1c	0.9745958
37	0x00000000	0.0
38	0x00000000	0.0
39	0x3e604c08	0.21904004
40	0x3f768a58	0.96304846
41	0x00000000	0.0
42	0x00000000	0.0
43	0x3e64764c	0.22310752
44	0x3f78a47c	0.97125983
45	0x00000000	0.0
46	0x00000000	0.0
47	0x3e618f5c	0.22027344
48	0x3f774356	0.9658712
49	0x00000000	0.0
50	0x00000000	0.0
51	0x3e67d5b7	0.2264012
52	0x3f780d22	0.9689504
53	0x00000000	0.0
54	0x00000000	0.0
55	0x3e633d9d	0.22191472
56	0x3f7721b4	0.965358
57	0x00000000	0.0
58	0x00000000	0.0
59	0x3e6924bd	0.22767921
60	0x3f7710e3	0.9651014
61	0x00000000	0.0
62	0x00000000	0.0
63	0x3e639a27	0.22226773
64	0x3f76bccc	0.9638183
65	0x00000000	0.0
66	0x00000000	0.0
67	0x3e6bbdaa	0.2302157
68	0x3f762572	0.96150887
69	0x00000000	0.0
70	0x00000000	0.0
71	0x3e65b31c	0.22431606
72	0x3f77976d	0.9671543
73	0x00000000	0.0
74	0x00000000	0.0
75	0x3e6de045	0.23230083
76	0x3f757d44	0.95894265
77	0x00000000	0.0
78	0x00000000	0.0
79	0x3e670b21	0.22562839
80	0x3f7657e6	0.9622787
81	0x00000000	0.0
82	0x00000000	0.0
83	0x3e7003c9	0.23438944
84	0x3f753a03	0.95791644
85	0x00000000	0.0
86	0x00000000	0.0
87	0x3e685de8	0.22692072
88	0x3f763643	0.96176547
89	0x00000000	0.0
90	0x00000000	0.0
91	0x3e71e605	0.23622902
92	0x3f74d51b	0.95637673
93	0x00000000	0.0
94	0x00000000	0.0
95	0x3e67b0a2	0.22625974
96	0x3f75185e	0.95740306
97	0x00000000	0.0
98	0x00000000	0.0
99	0x3e722aaa	0.23649088

network_body.observation_encoder.processors.1.normalizer.running_mean f4 [52]
0	0x3f0265d3	0.5093662
1	0x00000000	0.0
2	0x3d3f4b37	0.04670259
3	0x3ea6ea0a	0.32600433
4	0x3f00d237	0.5032076
5	0x00000000	0.0
6	0x3d40584a	0.0469592
7	0x3ea7def1	0.32787278
8	0x3f039488	0.51398516
9	0x00000000	0.0
10	0x3d3a09dd	0.045419563
11	0x3ea691ad	0.32533017
12	0x3f006d4f	0.5016679
13	0x00000000	0.0
14	0x3d46a6ba	0.048498847
15	0x3ea885d1	0.32914594
16	0x3f02b9e9	0.51064926
17	0x00000000	0.0
18	0x3d448c96	0.047985636
19	0x3ea6ae60	0.32554913
20	0x3eff8a49	0.4991019
21	0x00000000	0.0
22	0x3d4cf529	0.05003849
23	0x3ea97db5	0.3310372
24	0x3f029846	0.510136
25	0x00000000	0.0
26	0x3d47b3cc	0.048755452
27	0x3ea713d0	0.32632303
28	0x3efd2cdd	0.4944829
29	0x00000000	0.0
30	0x3d566ad2	0.052347966
31	0x3eab1d1c	0.33420646
32	0x3f024431	0.508853
33	0x00000000	0.0
34	0x3d4be819	0.049781892
35	0x3ea81139	0.3282564
36	0x3efe9eda	0.4973057
37	0x00000000	0.0
38	0x3d534398	0.051578134
39	0x3eabe173	0.33570442
40	0x3f035144	0.51295877
41	0x00000000	0.0
42	0x3d49cdf2	0.04926867
43	0x3ea8e601	0.3298798
44	0x3eff255f	0.498332
45	0x00000000	0.0
46	0x3d523688	0.051321536
47	0x3eaca4a2	0.33719355
48	0x3f044d83	0.51680773
49	0x00000000	0.0
50	0x3d49cdf2	0.04926867
51	0x3ea9a090	0.33130312

network_body.observation_encoder.processors.2.normalizer.running_mean f4 [5]
0	0xbff809d8	-1.9378004
1	0x4031cdc8	2.778185
2	0xc0bcf66a	-5.90508
3	0x3f4fdc96	0.8119596
4	0x3ed7349f	0.42032334

network_body._body_endoder.seq_layers.0.weight f4 [256, 157]
0	0x3c084c20	0.008318931
1	0xbdb27362	-0.08713414
2	0xbd60f3fa	-0.054920174
3	0x3ca088fd	0.019596571
4	0x3dbcab3e	0.09212349
5	0xbe207624	-0.15670067
6	0x3cca0146	0.02465881
7	0xbd7e8332	-0.062136836
8	0xbca701b1	-0.020386549
9	0xbd41bef3	-0.047301244
10	0x3dc3afea	0.09555037
11	0xbc3d27f9	-0.011545175
12	0x3d1b435d	0.03790604
13	0xbdd419b8	-0.10356468
14	0x3e016386	0.12635621
15	0x3b94b5e3	0.004538284
16	0xbc062709	-0.008188018
17	0xbd2ea62a	-0.042638935
18	0xbd0773c9	-0.033069406
19	0xbcc0b22f	-0.023522465
20	0xbd55e066	-0.052215956
21	0x3daa2565	0.08307914
22	0x3e0af28c	0.13569087
23	0xbcd33815	-0.025783578
24	0x3d0afcd3	0.03393252
25	0x3cb05b4c	0.021527909
26	0xbcf0aac8	-0.02937831
27	0xbd240e78	-0.04005286
28	0x3bc313cb	0.0059532872
29	0x3d0f92fd	0.03505229
30	0xbe1d9b57	-0.15391289
31	0x3dea2b3f	0.1143403
32	0x3e139ff8	0.14416492
33	0x3c40bf44	0.011764351
34	0xbd8b97a5	-0.06816033
35	0x3da07805	0.07835392
36	0xbde88158	-0.11352795
37	0x3d3729af	0.044717487
38	0xbda9370d	-0.08262453
39	0x3d1c6183	0.038178932
40	0xbbd16906	-0.0063906936
41	0x3d0ac38b	0.03387789
42	0xbd38d284	-0.04512264
43	0xbde504ee	-0.11182581
44	0x3c33033d	0.010926065
45	0x3c0030c8	0.00782413
46	0xbe336c11	-0.17521693
47	0xbe46cf78	-0.1941508
48	0x3d651674	0.055929616
49	0xbe06424f	-0.13111232
50	0xbbb7df12	-0.005611309
51	0xbdc41785	-0.095747985
52	0xbda4f1e0	-0.080539465
53	0x3e4377a8	0.19088614
54	0xbd1f3118	-0.03886518
55	0x3def57d3	0.11686673
56	0xbdab006f	-0.08349692
57	0x3cde36a4	0.027125664
58	0xbdf3e727	-0.11909323
59	0xbb378158	-0.002800068
60	0x3e29db63	0.16587596
61	0xbb2ad19c	-0.0026064878
62	0xbd7b46b7	-0.061346736
63	0x3db3d4e4	0.0878084
64	0xbdb5a124	-0.08868626
65	0x3dc74f40	0.097319126
66	0xbdd48737	-0.10377353
67	0xbe10c1e0	-0.14136457
68	0xbdd5c74f	-0.10438406
69	0xbe176b37	-0.14786993
70	0xbbf51006	-0.007478717
71	0xbe45fd10	-0.19334817
72	0x3cefcdf6	0.029273015
73	0xbc6b4a89	-0.014361032
74	0xbdc376b4	-0.09544125
75	0x3dd57c56	0.10424106
76	0x3d5b4c5b	0.053539615
77	0xbde20ffb	-0.11038204
78	0x3dc43d75	0.095820345
79	0xbc9ac2ed	-0.018891776
80	0xbdf4a12f	-0.11944806
81	0x3db98f97	0.09060591
82	0xbe454e9a	-0.19268265
83	0x3d360e40	0.044447184
84	0x3ce453a3	0.027871912
85	0xbcea91ca	-0.02863397
86	0xbdbbfb99	-0.09178848
87	0xbdab1188	-0.08352953
88	0xbced3413	-0.028955495
89	0x3dea41d3	0.11438336
90	0x3da1628a	0.07880123
91	0x3c21ed9c	0.009883311
92	0xbd635cf5	-0.055508573
93	0x3d7156e4	0.058920756
94	0xbd5ba6cf	-0.053625878
95	0xbd01e912	-0.031716414
96	0x3c697f3f	0.014251529
97	0x3d66478e	0.056220584
98	0xbdc02489	-0.093819685
99	0xbd913f9e	-0.07092212
100	0x3e222f55	0.15838368
101	0x3bd292e5	0.0064262026
102	0x3d067b1b	0.032832246
103	0xbd498fd3	-0.049209427
104	0xbd8f335e	-0.069922194
105	0x3d12c0c8	0.03582838
106	0x3d9565e1	0.072948225
107	0xbd9dd535	-0.07706682
108	0x3e160730	0.1465118
109	0xbce3352b	-0.027735313
110	0x3de21184	0.11038497
111	0xbb3a5486	-0.0028431728
112	0xbbcd2c19	-0.0062613604
113	0x3d84beed	0.06481729
114	0x3c5442a5	0.012955342
115	0x3d8c349b	0.06845971
116	0x3d61b75e	0.055106513
117	0xbe29efbb	-0.16595356
118	0xbc119c0f	-0.008887305
119	0xbdacf0ef	-0.08444392
120	0xbb7aa6aa	-0.0038246312
121	0x3e0c9593	0.13728933
122	0xbd99aa01	-0.07503129
123	0x3d43072e	0.04761427
124	0xbcd9ae19	-0.026572274
125	0xbb5020c4	-0.003175781
126	0x3e398019	0.18115272
127	0xbcdbb606	-0.026820194
128	0x3d870a69	0.065937825
129	0x3d550ff6	0.052017175
130	0xbd493004	-0.049118057
131	0xbd781606	-0.06056788
132	0x3e08fb15	0.1337703
133	0x3d9d2048	0.07672173
134	0x3d61f5fb	0.055166226
135	0x3cb65282	0.02225614
136	0xbd7a2bf1	-0.061077062
137	0xbe2aeb45	-0.1669131
138	0xbd9f2973	-0.07771578
139	0x3cf26716	0.02959017
140	0x3d109169	0.035294924
141	0xbdd6d5b7	-0.104899816
142	0xbbfc8648	-0.0077064373
143	0xbd4f30c4	-0.050583616
144	0xbd9aacb8	-0.07552475
145	0xbda2f773	-0.079573534
146	0xbdf0cfc5	-0.11758379
147	0xbc5572f1	-0.013027892
148	0xbd3639c0	-0.04448867
149	0xbd29711b	-0.04136763
150	0x3d9bb925	0.07603673
151	0xbd85132b	-0.064977966
152	0x3b814160	0.003944561
153	0xbd833b9d	-0.06407855
154	0xbc96e80b	-0.018421194
155	0xbe179e8a	-0.14806572
156	0xbd72a409	-0.059238467
157	0x3db919c2	0.09038116
158	0xbd9bc22f	-0.07605397
159	0xbd23dd6c	-0.040006086
160	0x3c90563d	0.017619247
161	0xbe014efe	-0.1262779
162	0xbcd7e2ea	-0.026353318
163	0x3d80a5ed	0.06281648
164	0x3e0745b0	0.13210177
165	0x3dbc7917	0.092027836
166	0x3d2d199c	0.04226075
167	0xbd4ed2b0	-0.050493896
168	0xbd536cf6	-0.051617585
169	0xbd6f6b1a	-0.05845175
170	0xbaf8e234	-0.0018988312
171	0xbdd60035	-0.10449258
172	0x3da181a7	0.07886057
173	0xbca5a4ff	-0.020220278
174	0xbb133dd2	-0.0022467268
175	0xb96de938	-0.00022688962
176	0x3db4dc07	0.088310294
177	0x3dca9519	0.09891719
178	0x3d73a17d	0.05948018
179	0x3beac600	0.0071647167
180	0x3c084315	0.008316775
181	0xbe96f78b	-0.29485735
182	0x3d369e4e	0.044584565
183	0x3d442fec	0.047897264
184	0xbda094ea	-0.07840903
185	0x3d861148	0.06546265
186	0xbc361074	-0.011112321
187	0xbe02b19b	-0.12763064
188	0x3e656e51	0.22405364
189	0x3da18a06	0.07887654
190	0xbcbbb8f5	-0.022915343
191	0xba398795	-0.0007077393
192	0x3daa042f	0.08301579
193	0xbb13ff99	-0.0022582768
194	0xbdb28e7d	-0.08718584
195	0x3d8b35c4	0.06797364
196	0x3d485317	0.048907366
197	0x3da55808	0.08073431
198	0xbe51cb55	-0.20487721
199	0xbc88f699	-0.01671915
200	0xbcc04b50	-0.023473412
201	0xbd3991a0	-0.045304894
202	0x3ca184a1	0.019716563
203	0xbdf1ce46	-0.11806922
204	0x3dddecc9	0.10836179
205	0xb946775b	-0.00018927215
206	0xbc6024b1	-0.013680623
207	0xbdbf7a58	-0.09349507
208	0xbc8cad74	-0.017172553
209	0xbdafbe7e	-0.085812554
210	0xbd46c23a	-0.048525073
211	0x3e1a3446	0.15059003
212	0xbc11a15b	-0.008888568
213	0x3c4fe2f4	0.012688387
214	0xbdf3357e	-0.11875437
215	0xbd3af7e8	-0.045646578
216	0x3d8a36a6	0.067487046
217	0xbd009f21	-0.031401757
218	0xbdf5d405	-0.1200333
219	0x3a9b515d	0.001184981
220	0xbd91f270	-0.071263194
221	0xbe000298	-0.1250099
222	0x3d6eae67	0.05827179
223	0xbe0bb789	-0.13644232
224	0x3de94b63	0.11391332
225	0x3d378c75	0.044811685
226	0xbcbf5a01	-0.023358347
227	0x3d3c4539	0.045964453
228	0x3e2463e0	0.16053724
229	0xbdff9bc7	-0.12480884
230	0x3a0abb30	0.00052921753
231	0x3ce926bc	0.028460853
232	0xbc5203fd	-0.012818334
233	0x3d92ebe8	0.07173902
234	0x3c45f330	0.012081906
235	0xbdc2f83a	-0.09520002
236	0x3cc8b0a1	0.024498286
237	0x3d85a42b	0.06525453
238	0x3e182ee9	0.14861645
239	0x3cc3eda7	0.023917032
240	0x3ccb4213	0.02481178
241	0x3e4e771e	0.20162627
242	0xbcd1c4a2	-0.025606457
243	0x3d9c788c	0.0764018
244	0xbe2e3a06	-0.17014322
245	0x3d564bf8	0.052318543
246	0x3e2b677f	0.167387
247	0x3ddc81c6	0.1076694
248	0x3dee2b11	0.11629308
249	0xbc83fbc1	-0.016111257
250	0xbda5a585	-0.08088211
251	0x3d80daf5	0.06291763
252	0x3d9b99c3	0.07597687
253	0xbd352807	-0.044227626
254	0xbd536667	-0.05161133
255	0x3df93fcc	0.121703714

network_body._body_endoder.seq_layers.0.bias f4 [256]
0	0x00000000	0.0
1	0x00000000	0.0
2	0x00000000	0.0
3	0x00000000	0.0
4	0x00000000	0.0
5	0x00000000	0.0
6	0x00000000	0.0
7	0x00000000	0.0
8	0x00000000	0.0
9	0x00000000	0.0
10	0x00000000	0.0
11	0x00000000	0.0
12	0x00000000	0.0
13	0x00000000	0.0
14	0x00000000	0.0
15	0x00000000	0.0
16	0x00000000	0.0
17	0x00000000	0.0
18	0x00000000	0.0
19	0x00000000	0.0
20	0x00000000	0.0
21	0x00000000	0.0
22	0x00000000	0.0
23	0x00000000	0.0
24	0x00000000	0.0
25	0x00000000	0.0
26	0x00000000	0.0
27	0x00000000	0.0
28	0x00000000	0.0
29	0x00000000	0.0
30	0x00000000	0.0
31	0x00000000	0.0
32	0x00000000	0.0
33	0x00000000	0.0
34	0x00000000	0.0
35	0x00000000	0.0
36	0x00000000	0.0
37	0x00000000	0.0
38	0x00000000	0.0
39	0x00000000	0.0
40	0x00000000	0.0
41	0x00000000	0.0
42	0x00000000	0.0
43	0x00000000	0.0
44	0x00000000	0.0
45	0x00000000	0.0
46	0x00000000	0.0
47	0x00000000	0.0
48	0x00000000	0.0
49	0x00000000	0.0
50	0x00000000	0.0
51	0x00000000	0.0
52	0x00000000	0.0
53	0x00000000	0.0
54	0x00000000	0.0
55	0x00000000	0.0
56	0x00000000	0.0
57	0x00000000	0.0
58	0x00000000	0.0
59	0x00000000	0.0
60	0x00000000	0.0
61	0x00000000	0.0
62	0x00000000	0.0
63	0x00000000	0.0
64	0x00000000	0.0
65	0x00000000	0.0
66	0x00000000	0.0
67	0x00000000	0.0
68	0x00000000	0.0
69	0x00000000	0.0
70	0x00000000	0.0
71	0x00000000	0.0
72	0x00000000	0.0
73	0x00000000	0.0
74	0x00000000	0.0
75	0x00000000	0.0
76	0x00000000	0.0
77	0x00000000	0.0
78	0x00000000	0.0
79	0x00000000	0.0
80	0x00000000	0.0
81	0x00000000	0.0
82	0x00000000	0.0
83	0x00000000	0.0
84	0x00000000	0.0
85	0x00000000	0.0
86	0x00000000	0.0
87	0x00000000	0.0
88	0x00000000	0.0
89	0x00000000	0.0
90	0x00000000	0.0
91	0x00000000	0.0
92	0x00000000	0.0
93	0x00000000	0.0
94	0x00000000	0.0
95	0x00000000	0.0
96	0x00000000	0.0
97	0x00000000	0.0
98	0x00000000	0.0
99	0x00000000	0.0
100	0x00000000	0.0
101	0x00000000	0.0
102	0x00000000	0.0
103	0x00000000	0.0
104	0x00000000	0.0
105	0x00000000	0.0
106	0x00000000	0.0
107	0x00000000	0.0
108	0x00000000	0.0
109	0x00000000	0.0
110	0x00000000	0.0
111	0x00000000	0.0
112	0x00000000	0.0
113	0x00000000	0.0
114	0x00000000	0.0
115	0x00000000	0.0
116	0x00000000	0.0
117	0x00000000	0.0
118	0x00000000	0.0
119	0x00000000	0.0
120	0x00000000	0.0
121	0x00000000	0.0
122	0x00000000	0.0
123	0x00000000	0.0
124	0x00000000	0.0
125	0x00000000	0.0
126	0x00000000	0.0
127	0x00000000	0.0
128	0x00000000	0.0
129	0x00000000	0.0
130	0x00000000	0.0
131	0x00000000	0.0
132	0x00000000	0.0
133	0x00000000	0.0
134	0x00000000	0.0
135	0x00000000	0.0
136	0x00000000	0.0
137	0x00000000	0.0
138	0x00000000	0.0
139	0x00000000	0.0
140	0x00000000	0.0
141	0x00000000	0.0
142	0x00000000	0.0
143	0x00000000	0.0
144	0x00000000	0.0
145	0x00000000	0.0
146	0x00000000	0.0
147	0x00000000	0.0
148	0x00000000	0.0
149	0x00000000	0.0
150	0x00000000	0.0
151	0x00000000	0.0
152	0x00000000	0.0
153	0x00000000	0.0
154	0x00000000	0.0
155	0x00000000	0.0
156	0x00000000	0.0
157	0x00000000	0.0
158	0x00000000	0.0
159	0x00000000	0.0
160	0x00000000	0.0
161	0x00000000	0.0
162	0x00000000	0.0
163	0x00000000	0.0
164	0x00000000	0.0
165	0x00000000	0.0
166	0x00000000	0.0
167	0x00000000	0.0
168	0x00000000	0.0
169	0x00000000	0.0
170	0x00000000	0.0
171	0x00000000	0.0
172	0x00000000	0.0
173	0x00000000	0.0
174	0x00000000	0.0
175	0x00000000	0.0
176	0x00000000	0.0
177	0x00000000	0.0
178	0x00000000	0.0
179	0x00000000	0.0
180	0x00000000	0.0
181	0x00000000	0.0
182	0x00000000	0.0
183	0x00000000	0.0
184	0x00000000	0.0
185	0x00000000	0.0
186	0x00000000	0.0
187	0x00000000	0.0
188	0x00000000	0.0
189	0x00000000	0.0
190	0x00000000	0.0
191	0x00000000	0.0
192	0x00000000	0.0
193	0x00000000	0.0
194	0x00000000	0.0
195	0x00000000	0.0
196	0x00000000	0.0
197	0x00000000	0.0
198	0x00000000	0.0
199	0x00000000	0.0
200	0x00000000	0.0
201	0x00000000	0.0
202	0x00000000	0.0
203	0x00000000	0.0
204	0x00000000	0.0
205	0x00000000	0.0
206	0x00000000	0.0
207	0x00000000	0.0
208	0x00000000	0.0
209	0x00000000	0.0
210	0x00000000	0.0
211	0x00000000	0.0
212	0x00000000	0.0
213	0x00000000	0.0
214	0x00000000	0.0
215	0x00000000	0.0
216	0x00000000	0.0
217	0x00000000	0.0
218	0x00000000	0.0
219	0x00000000	0.0
220	0x00000000	0.0
221	0x00000000	0.0
222	0x00000000	0.0
223	0x00000000	0.0
224	0x00000000	0.0
225	0x00000000	0.0
226	0x00000000	0.0
227	0x00000000	0.0
228	0x00000000	0.0
229	0x00000000	0.0
230	0x00000000	0.0
231	0x00000000	0.0
232	0x00000000	0.0
233	0x00000000	0.0
234	0x00000000	0.0
235	0x00000000	0.0
236	0x00000000	0.0
237	0x00000000	0.0
238	0x00000000	0.0
239	0x00000000	0.0
240	0x00000000	0.0
241	0x00000000	0.0
242	0x00000000	0.0
243	0x00000000	0.0
244	0x00000000	0.0
245	0x00000000	0.0
246	0x00000000	0.0
247	0x00000000	0.0
248	0x00000000	0.0
249	0x00000000	0.0
250	0x00000000	0.0
251	0x00000000	0.0
252	0x00000000	0.0
253	0x00000000	0.0
254	0x00000000	0.0
255	0x00000000	0.0

network_body._body_endoder.seq_layers.2.weight f4 [256, 256]
0	0x3e02e52c	0.12782735
1	0x3cad596a	0.0211608
2	0x3e268094	0.16259986
3	0xbdd157e5	-0.10221843
4	0xbce55e9f	-0.02799922
5	0x3d0371b7	0.03209087
6	0xbd721240	-0.059099436
7	0x3c393119	0.01130321
8	0x3d1bb03e	0.038009875
9	0x3dc555ba	0.09635492
10	0x3cbf2000	0.023330688
11	0x3ba09325	0.0049003535
12	0xbcbe7a3e	-0.023251649
13	0x3e3a2e8b	0.18181817
14	0x3c8b862c	0.017031752
15	0x3a9addea	0.0011815403
16	0xbd8a5773	-0.06754961
17	0x3ddb9318	0.10721415
18	0x3d61a815	0.055091936
19	0x3cb07742	0.021541242
20	0xbde587b1	-0.11207522
21	0xbd2cc76b	-0.042182367
22	0x3c9bb3e6	0.01900668
23	0xbd764920	-0.06012833
24	0x3d530c53	0.051525425
25	0x3cf98dd4	0.030463137
26	0x3c9cad90	0.01912573
27	0x3db352c5	0.087560214
28	0xbb8a43d1	-0.00421951
29	0x3d6ae337	0.057345595
30	0xbd965006	-0.07339482
31	0x3bb42c1b	0.005498422
32	0x3d26ad52	0.040692635
33	0x3d453d73	0.048154306
34	0xbc8447cb	-0.016147515
35	0x3ca3b1d5	0.019982258
36	0x3ca16743	0.01970256
37	0xbd81fcc5	-0.0634704
38	0x3b0b4e04	0.0021256218
39	0x3c04aa49	0.00809724
40	0xbe38be65	-0.1804138
41	0xbd5d160e	-0.05397611
42	0x3c878303	0.016541963
43	0x3d20a970	0.03922409
44	0x3db4d98f	0.088305585
45	0xbd68e963	-0.0568632
46	0xbc9357a5	-0.017986128
47	0x3cae783c	0.021297567
48	0x3e28c421	0.16481067
49	0x398b30d4	0.00026548526
50	0x3c8b3be9	0.01699634
51	0x3d856104	0.06512645
52	0xbd0bb918	-0.034112066
53	0xbd24f27c	-0.040270314
54	0x3b38acf7	0.0028179267
55	0x3baf590f	0.005351193
56	0x3d2b1797	0.041770544
57	0xbd0b1d02	-0.03396321
58	0x3c00c5c2	0.007859649
59	0x3e029bde	0.12754771
60	0xbd27bd5d	-0.040952075
61	0x3c29ccc3	0.01036376
62	0xbc6318de	-0.013860909
63	0x3d297c1a	0.041378118
64	0x3d149348	0.03627327
65	0x3ccfc176	0.025360804
66	0xbd676ef1	-0.056502286
67	0xbc4f4776	-0.012651315
68	0x3c9d62aa	0.019212086
69	0x3b268b36	0.0025412566
70	0x3da2bde4	0.07946375
71	0x3d83b44c	0.06430873
72	0xbd00e881	-0.031471733
73	0xbd83ec59	-0.06441564
74	0x3d1efdd2	0.03881628
75	0xbd7f42ec	-0.06231968
76	0x3d5514ef	0.052021917
77	0x3d868b20	0.06569505
78	0x3d9acacd	0.075582124
79	0xbde642d6	-0.11243217
80	0xbc6eda16	-0.014578363
81	0xbd20588b	-0.03914694
82	0x3d008831	0.031379882
83	0x3d64a713	0.055823397
84	0xbdbeb014	-0.09310928
85	0x3d18928c	0.037249133
86	0xbd018fd3	-0.031631302
87	0xbde3aec5	-0.11117319
88	0xbc8ead0b	-0.017416498
89	0x3b3597a2	0.0027708788
90	0xbb3622fc	-0.0027791848
91	0x3d2c9151	0.042130772
92	0xbdc44c58	-0.09584874
93	0x3cddc958	0.027073547
94	0xbc181dad	-0.009284419
95	0x3d5f07a0	0.05445063
96	0xbc46cc20	-0.012133628
97	0xbd527472	-0.051380582
98	0xbc9a3d8d	-0.018828178
99	0x3c8f39c5	0.017483601
100	0x3d30fa27	0.043207314
101	0xbcfa885c	-0.0305826
102	0x3d8ca866	0.06868057
103	0x3dd8472b	0.10560449
104	0x3c8cf4e0	0.01720661
105	0xbd0b3abc	-0.03399156
106	0x3d4429c9	0.047891412
107	0x3d6fa7b1	0.058509532
108	0x3b58a362	0.0033056368
109	0xbd5da670	-0.054113805
110	0xbd5b195d	-0.053490985
111	0xbd241441	-0.040058378
112	0x3d12b173	0.03581376
113	0xbd282a68	-0.041056067
114	0x3b85fd77	0.0040890533
115	0x3cbc9f43	0.02302516
116	0xbd352efc	-0.04423426
117	0xbd0d81df	-0.034547683
118	0xbdcecf28	-0.10098106
119	0xbd37b0b9	-0.04484627
120	0x3d9132df	0.07089781
121	0xbd98bcb6	-0.07457869
122	0x3ced09f8	0.028935418
123	0xbd307d42	-0.043088205
124	0xbd676540	-0.056493044
125	0xbd323446	-0.043506883
126	0x3d4a92c4	0.049456373
127	0xbd979e6f	-0.07403266
128	0x3db88c71	0.09011162
129	0xbc842826	-0.016132426
130	0xbd08c229	-0.03338829
131	0xbc223ed7	-0.0099026775
132	0x3cb931a3	0.022606676
133	0x3dc347dc	0.095351905
134	0xbd984004	-0.07434085
135	0x3e188537	0.14894567
136	0x3c812be8	0.015768006
137	0xbd2055d9	-0.03914437
138	0xbdb0bcc3	-0.086297534
139	0x3dccbfdf	0.09997534
140	0xbd3d2a49	-0.046182904
141	0x3c6571ea	0.01400421
142	0x3ddfa7d3	0.10920682
143	0xbda5d1fa	-0.080966905
144	0xbae9d68d	-0.001784043
145	0xbc495b45	-0.012289827
146	0xbc2a5cd1	-0.010398106
147	0x3dccdb8b	0.10002812
148	0xbd2460be	-0.040131323
149	0xbd4b46e7	-0.049628165
150	0xbdbd25fb	-0.0923576
151	0xbd7cd298	-0.061724275
152	0xbb16a082	-0.0022983854
153	0x3c94ae3d	0.01814949
154	0x3e1a7651	0.15084197
155	0xbd377227	-0.0447866
156	0x3db40dea	0.087917164
157	0x3cb7a475	0.022417286
158	0x3d572227	0.052522805
159	0x3e0342ef	0.12818502
160	0xbd1c26f5	-0.03812309
161	0x3b6260af	0.0034542491
162	0x3d08cc35	0.033397872
163	0xbc80892a	-0.015690405
164	0xbcb65b09	-0.022260206
165	0x3d45f96f	0.04833358
166	0x3d9f5760	0.07780337
167	0x3c3b7dd1	0.011443571
168	0x3d6db011	0.058029238
169	0xbb8e1fe4	-0.0043372978
170	0xbcf28a6b	-0.029607018
171	0x3cb9f4b1	0.022699686
172	0x3d8efee1	0.06982208
173	0xbd2d571e	-0.04231941
174	0xbe1bd78e	-0.15218946
175	0xbcb60e13	-0.022223508
176	0xbd394ba3	-0.04523815
177	0x3c333fca	0.0109405015
178	0x3d099cff	0.03359699
179	0x3db61ce2	0.08892228
180	0xbde07e7e	-0.109616265
181	0x3dfe5a21	0.124195345
182	0xbd0471b7	-0.03233501
183	0x3d127f78	0.035766095
184	0xbdb65c03	-0.089042686
185	0xbd4c594b	-0.049889844
186	0x3e4bea48	0.1991359
187	0x3cc0ae4d	0.023520613
188	0x3e0b36a6	0.13595065
189	0xbe06452a	-0.13112321
190	0xbb793837	-0.0038027891
191	0xbdfcb37f	-0.12338924
192	0xbdae5f7a	-0.085143045
193	0xbd8b4ece	-0.0680214
194	0xbcdd2c94	-0.026998796
195	0xbdb5cf74	-0.08877459
196	0xbcbe5c0f	-0.023237256
197	0xbd8aeda1	-0.06783605
198	0xbd2a4e62	-0.041578658
199	0xb9305907	-0.00016817833
200	0x3cd62082	0.026138548
201	0x3d3ed0b4	0.046585754
202	0x3d5e5a7d	0.054285515
203	0x3db74fe3	0.08950784
204	0xbb0403bb	-0.0020143825
205	0x3daadbe1	0.0834272
206	0x3d91412c	0.07092509
207	0x3dbca75b	0.09211608
208	0x3d061e4f	0.03274375
209	0x39f953f8	0.00047555543
210	0xbbd42ea7	-0.006475288
211	0x3cda37bf	0.02663791
212	0x3d84c8f7	0.064836435
213	0x3dca4c56	0.09877841
214	0xbdab38cf	-0.08360445
215	0x3d56668b	0.052343886
216	0xbd163b86	-0.03667786
217	0xbc1581a2	-0.009125145
218	0x3d8c65e6	0.06855373
219	0xbdc2e46a	-0.09516223
220	0x3a894d1a	0.0010475249
221	0xbd38d8f1	-0.045128766
222	0x3da5c213	0.08093657
223	0x3e104691	0.14089419
224	0xbce289bf	-0.027653573
225	0x3d2e838a	0.042605914
226	0x3e261e8a	0.16222587
227	0xbcecc4ec	-0.028902493
228	0x3cc662e2	0.024217073
229	0xbd805d8f	-0.06267845
230	0x3ba13f10	0.0049208477
231	0xbd785669	-0.060629282
232	0x3c88124f	0.016610293
233	0x3c90445d	0.017610723
234	0x3cc75b67	0.024335576
235	0xbda4f907	-0.08055311
236	0xbdc13c3d	-0.09435318
237	0xbc9653bc	-0.018350475
238	0x3d9520c1	0.07281638
239	0xbcf1b461	-0.029504957
240	0xbce5a8cf	-0.028034596
241	0xbd186e0f	-0.037214335
242	0xbd64b48b	-0.05583624
243	0x3d93c8c4	0.072160274
244	0xbd18d310	-0.03731066
245	0x3d7c23a7	0.06155744
246	0xbba07ae6	-0.004897463
247	0x3ce24646	0.0276214
248	0xbd23f1fe	-0.040025704
249	0x3c348526	0.011018073
250	0xbd0ce22e	-0.03439539
251	0xbd42bf67	-0.047545817
252	0x3ca70b2f	0.020391075
253	0xbbdd5468	-0.006754447
254	0x3c970a07	0.018437399
255	0xbcc72de0	-0.024313867

action_model._continuous_distribution.log_sigma f4 [1, 5]
0	0x00000000	0.0
1	0x00000000	0.0
2	0x00000000	0.0
3	0x00000000	0.0
4	0x00000000	0.0

action_model._continuous_distribution.mu.weight f4 [5, 256]
0	0x3b9a174c	0.0047024842
1	0xbb97d706	-0.004633787
2	0xba4c1e35	-0.00077864836
3	0x3c12a07b	0.008949394
4	0x3c2d3963	0.010572764
5	0xbc9ff1b5	-0.019524435
6	0xbc84bb4c	-0.016202591
7	0xbc24000f	-0.01000978
8	0x3bbad143	0.0057012155
9	0x3b6e7de2	0.003639095
10	0x3c2c54f3	0.0105183
11	0x3bd61922	0.006533758
12	0x3bc0f1b3	0.005888188
13	0xbcf2f4e2	-0.029657785
14	0xbb91f2f0	-0.0044540092
15	0xbc7e8abf	-0.015536009
16	0xba0c3e3f	-0.00053498516
17	0xbc4f9d7f	-0.012671827
18	0xb8992ca0	-7.3039206e-05
19	0x3c33a6e9	0.010965087
20	0xbbfce088	-0.007717196
21	0xbbc49917	-0.005999695
22	0x3c25157b	0.010075922
23	0x399e890c	0.00030238216
24	0x3bbe76fa	0.005812523
25	0xbb9bf32d	-0.0047592134
26	0xbbeaa133	-0.0071603297
27	0x3c8bea2e	0.017079439
28	0xbc5e1b8d	-0.013556373
29	0x3c39556c	0.01131187
30	0xbc1632c0	-0.009167373
31	0xbb801b37	-0.0039094943
32	0x3ccbfd7e	0.024901148
33	0x3c1fff83	0.009765509
34	0x3c4d90d3	0.012546736
35	0xbcc9ce1b	-0.024634412
36	0x3cd83498	0.026392266
37	0xbbdba6ed	-0.0067032487
38	0x3c21e641	0.009881557
39	0xbbeaddab	-0.007167538
40	0x3bb11048	0.005403552
41	0x3d2038a3	0.039116513
42	0xbd0a0c0f	-0.033702906
43	0x3ba4e8a9	0.005032618
44	0xbb4d553f	-0.0031331328
45	0x3c0c5792	0.0085658
46	0xba4d99bf	-0.00078430393
47	0x3ad84822	0.001650099
48	0x3caeb5f4	0.021326996
49	0x3c30c014	0.0107879825
50	0xbb335a8b	-0.00273672
51	0xbb7cef0b	-0.003859463
52	0xbc3c4f89	-0.011493572
53	0xbac5cce5	-0.001509097
54	0xba0bd712	-0.0005334477
55	0x3c9cb875	0.019130925
56	0xbc5095a5	-0.012730991
57	0x3c3519ff	0.011053561
58	0x3c55a07f	0.0130387535
59	0x3ca7d50c	0.02048733
60	0x3b25392f	0.0025211086
61	0x3b64665a	0.0034851045
62	0xbb802acd	-0.0039113523
63	0x3c19959c	0.009374049
64	0xbb8db709	-0.004324798
65	0xbc457795	-0.012052436
66	0x3be15a60	0.0068772286
67	0x3c893737	0.016749961
68	0x3a1e0852	0.00060284615
69	0xbbade3e1	-0.0053067063
70	0xbc971597	-0.018442912
71	0x3b951107	0.004549149
72	0xbafedf35	-0.0019445183
73	0x3c645120	0.013935357
74	0x3b8cc7d8	0.004296284
75	0x3c90c158	0.017670318
76	0xbc172e89	-0.009227403
77	0xb628f26f	-2.5175066e-06
78	0xbb76f078	-0.0037679952
79	0xbb7cc108	-0.0038567204
80	0xbbe60f8b	-0.007020896
81	0xba03028b	-0.00049976323
82	0x3b2f3efb	0.002674042
83	0x3c014e3b	0.007892187
84	0xbbefc8a5	-0.00731762
85	0x3bca7e79	0.0061796275
86	0xbac253fa	-0.0014826052
87	0xba923a38	-0.0011156267
88	0x3a8739c8	0.0010316903
89	0x3cbdf1c7	0.023186577
90	0xbbfe8468	-0.007767249
91	0xbb7918d0	-0.0038009174
92	0x3c61543f	0.013752996
93	0x3b5e08af	0.0033879688
94	0x3ca3742a	0.019952852
95	0xbb9bf863	-0.0047598346
96	0xbbbff98d	-0.005858606
97	0xbada3d70	-0.001665039
98	0x3c389d1f	0.011267929
99	0x3c711dfd	0.014716622
100	0xbb170079	-0.0023041053
101	0xbb309983	-0.002694697
102	0x3b323b1a	0.0027195872
103	0x3c43c6a0	0.011949211
104	0x3ad84b40	0.0016501918
105	0x3baaaf4c	0.0052088853
106	0x39cc0900	0.00038916618
107	0xb8c2f7a3	-9.296767e-05
108	0x3baf280c	0.00534535
109	0x3c9fc477	0.019502861
110	0x3bb9d22e	0.0056708073
111	0xbaa5475c	-0.0012609768
112	0x3a8df3e5	0.0010830133
113	0x3b4ce7d8	0.003126612
114	0xbbd02ef5	-0.006353254
115	0xbb6b8d7b	-0.0035942483
116	0x3c4b6261	0.012413592
117	0xbad5d9e3	-0.0016315546
118	0xbc8587a0	-0.016300023
119	0x3c1f9e1c	0.009742286
120	0xbce9b152	-0.028526936
121	0x39da6105	0.00041652485
122	0x3c196423	0.009362253
123	0x3ca5ff5b	0.020263365
124	0x3ba64a93	0.005074808
125	0x3c313404	0.010815624
126	0xbace1ffb	-0.0015726084
127	0x3a98ac9b	0.001164812
128	0xbc9367cb	-0.017993828
129	0x3c60c44d	0.013718677
130	0xbb451268	-0.0030070785
131	0x3a9c340b	0.0011917365
132	0xbb098b92	-0.0020987731
133	0xbc9fb018	-0.019493148
134	0xbaf4dc68	-0.0018681409
135	0x3bc8cb99	0.0061277864
136	0x3bcb54aa	0.006205161
137	0x3abcbe02	0.0014399888
138	0x3cad162b	0.021128735
139	0x3c959e62	0.018264
140	0xbc741077	-0.014896504
141	0xbc8d899b	-0.01727753
142	0xbbfbfa3b	-0.007689742
143	0xbcd49f37	-0.025954826
144	0xbb64b898	-0.0034900066
145	0xbaeed6e0	-0.0018221997
146	0xbcdf3902	-0.027248863
147	0xbc2ed602	-0.010671141
148	0xbbf6602d	-0.0075187893
149	0xbb3960fe	-0.0028286572
150	0x3c0e30d7	0.0086786365
151	0xbc4fbf62	-0.012679907
152	0x3bf37f48	0.0074309446
153	0xbbe1b372	-0.0068878466
154	0x3bca6091	0.0061760624
155	0x3be66292	0.0070307935
156	0x3bf22d7b	0.0073906756
157	0x3ce1c420	0.02755934
158	0x3b8ddb5a	0.0043291273
159	0x3c3a3c3f	0.011366903
160	0xbc83cb4f	-0.016088156
161	0x394ff882	0.00019833635
162	0x3bab2b43	0.005223663
163	0x3c232268	0.009956934
164	0xbc634e68	-0.013873674
165	0x3c182327	0.009285725
166	0x3c5270b7	0.012844256
167	0x3c36f1a7	0.011166013
168	0xbb287b84	-0.0025708387
169	0x3c6d0953	0.014467555
170	0x3bc51a13	0.006015071
171	0x3be2567b	0.006907282
172	0xbcb3738e	-0.021905687
173	0x3cb2f75e	0.02184647
174	0xbc4f3ebf	-0.012649237
175	0xbb66622b	-0.0035153728
176	0x3c5a8dd7	0.013339481
177	0x3a84ba49	0.0010126318
178	0xbcf2e545	-0.02965034
179	0x3c23c6c0	0.009996116
180	0xbb8ab73a	-0.004233268
181	0x3c8b0f23	0.016974991
182	0xbbe4ad5f	-0.0069786753
183	0x3bc2ebd3	0.0059485226
184	0xbc55e8f5	-0.01305603
185	0x3c222a85	0.009897833
186	0xbb64bd90	-0.0034903027
187	0xbbe2564b	-0.0069072596
188	0x3c89574a	0.016765255
189	0x3c4d085a	0.012514198
190	0xbb0a1273	-0.0021068125
191	0xbc045d76	-0.008078923
192	0xbcac462b	-0.021029552
193	0xbc8ca43b	-0.017168155
194	0xbc508a78	-0.012728326
195	0x3a90ee3f	0.0011057331
196	0x3c21e7b3	0.009881902
197	0xbb3f261e	-0.0029167007
198	0x3c852922	0.016254965
199	0xbbc9b75f	-0.0061558927
200	0x3c6392ab	0.013889949
201	0x3ae9c6a2	0.0017835686
202	0xbc5e42ef	-0.013565763
203	0x3a8f53f9	0.001093506
204	0xbb218b3b	-0.0024649638
205	0x3b21560a	0.0024617934
206	0xbc2fc6c8	-0.0107285455
207	0x3ca8a72a	0.020587523
208	0xbc331701	-0.0109307775
209	0x3c2ee1ec	0.010673981
210	0xbceac432	-0.028658006
211	0xbc324a0f	-0.010881915
212	0x3c195f94	0.0093611665
213	0xbc0b9487	-0.008519298
214	0xbc75e8cb	-0.015009115
215	0xbba70da4	-0.0050980616
216	0xb9488b8a	-0.00019125469
217	0xbaff412f	-0.0019474382
218	0xbc18ef66	-0.009334421
219	0xbc5c20ab	-0.013435523
220	0xbb6be670	-0.0035995506
221	0x3b32741e	0.0027229856
222	0x3b57fb3b	0.0032956142
223	0xbb8813db	-0.0041527576
224	0xbd00278b	-0.03128771
225	0x3c43d03f	0.011951505
226	0xbc8e921d	-0.017403657
227	0xbb120150	-0.0022278614
228	0xbce40bbb	-0.027837625
229	0x3cc631f0	0.024193734
230	0x3c75d52f	0.01500444
231	0xbbe73db5	-0.0070569166
232	0xba89378e	-0.0010468827
233	0x3d1ba91b	0.03800307
234	0xba67216b	-0.00088169303
235	0x3d113d2f	0.03545874
236	0xbb7476ad	-0.0037302182
237	0xb9e77cbb	-0.00044152685
238	0x3b39c5fe	0.0028346772
239	0x3b8559b5	0.004069532
240	0x3a01d68a	0.0004952928
241	0x3c18b284	0.009319905
242	0xbc1055ca	-0.008809516
243	0xbbe1a7db	-0.006886465
244	0x3c24242b	0.010018389
245	0x3bd3cf75	0.00646394
246	0x3b17dc2d	0.0023172006
247	0x3a8cc057	0.0010738474
248	0x39f80d4f	0.00047312162
249	0xbb4293b0	-0.002969008
250	0xbbd30aa3	-0.006440477
251	0xbc66c3b2	-0.014084743
252	0x3ccab453	0.024744188
253	0x3bec2200	0.0072062016
254	0x3d115d4c	0.035489365
255	0x3b8b81b0	0.0042574033

action_model._continuous_distribution.mu.bias f4 [5]
0	0x00000000	0.0
1	0x00000000	0.0
2	0x00000000	0.0
3	0x00000000	0.0
4	0x00000000	0.0

onnx::Div_71 f4 [100]
0	0x3e3df6b1	0.18551137
1	0x3c833a3b	0.016018977
2	0x3c833a3b	0.016018977
3	0x3e26d138	0.16290748
4	0x3e352cbf	0.1769285
5	0x3c833a3b	0.016018977
6	0x3c833a3b	0.016018977
7	0x3e2af4e9	0.16694988
8	0x3e3bfa38	0.1835717
9	0x3c833a3b	0.016018977
10	0x3c833a3b	0.016018977
11	0x3e27db38	0.16392219
12	0x3e347a73	0.17624836
13	0x3c833a3b	0.016018977
14	0x3c833a3b	0.016018977
15	0x3e2cdd7b	0.16881363
16	0x3e3f4646	0.18679151
17	0x3c833a3b	0.016018977
18	0x3c833a3b	0.016018977
19	0x3e284cc7	0.16435538
20	0x3e28e3a3	0.16493087
21	0x3c833a3b	0.016018977
22	0x3c833a3b	0.016018977
23	0x3e2d9940	0.16952991
24	0x3e409335	0.18806155
25	0x3c833a3b	0.016018977
26	0x3c833a3b	0.016018977
27	0x3e295b1a	0.16538659
28	0x3e22beac	0.15893048
29	0x3c833a3b	0.016018977
30	0x3c833a3b	0.016018977
31	0x3e30d4ec	0.17268723
32	0x3e3aa3c4	0.18226534
33	0x3c833a3b	0.016018977
34	0x3c833a3b	0.016018977
35	0x3e2ca9cd	0.16861649
36	0x3e21f55d	0.15816255
37	0x3c833a3b	0.016018977
38	0x3c833a3b	0.016018977
39	0x3e2e86ca	0.17043605
40	0x3e41dd8a	0.18932167
41	0x3c833a3b	0.016018977
42	0x3c833a3b	0.016018977
43	0x3e307f97	0.17236172
44	0x3e2bde92	0.16784123
45	0x3c833a3b	0.016018977
46	0x3c833a3b	0.016018977
47	0x3e2f1729	0.17098679
48	0x3e3aa3c4	0.18226534
49	0x3c833a3b	0.016018977
50	0x3c833a3b	0.016018977
51	0x3e3272e8	0.17426646
52	0x3e325eca	0.17418972
53	0x3c833a3b	0.016018977
54	0x3c833a3b	0.016018977
55	0x3e2e2cd2	0.17009285
56	0x3e3bfa38	0.1835717
57	0x3c833a3b	0.016018977
58	0x3c833a3b	0.016018977
59	0x3e34b803	0.1764832
60	0x3e3ca466	0.18422088
61	0x3c833a3b	0.016018977
62	0x3c833a3b	0.016018977
63	0x3e2da8d6	0.16958937
64	0x3e3fed11	0.18742777
65	0x3c833a3b	0.016018977
66	0x3c833a3b	0.016018977
67	0x3e347371	0.17622162
68	0x3e45ad76	0.19304451
69	0x3c833a3b	0.016018977
70	0x3c833a3b	0.016018977
71	0x3e2debd1	0.16984488
72	0x3e373efe	0.17895123
73	0x3c833a3b	0.016018977
74	0x3c833a3b	0.016018977
75	0x3e35404f	0.17700313
76	0x3e4bd886	0.19906816
77	0x3c833a3b	0.016018977
78	0x3c833a3b	0.016018977
79	0x3e2c9df5	0.16857131
80	0x3e43c848	0.1911937
81	0x3c833a3b	0.016018977
82	0x3c833a3b	0.016018977
83	0x3e379d46	0.17931089
84	0x3e4e4089	0.20141806
85	0x3c833a3b	0.016018977
86	0x3c833a3b	0.016018977
87	0x3e2f523f	0.17121218
88	0x3e450c58	0.1924299
89	0x3c833a3b	0.016018977
90	0x3c833a3b	0.016018977
91	0x3e38df19	0.18053855
92	0x3e51ccc5	0.2048827
93	0x3c833a3b	0.016018977
94	0x3c833a3b	0.016018977
95	0x3e2e2b02	0.17008594
96	0x3e4f715a	0.20258084
97	0x3c833a3b	0.016018977
98	0x3c833a3b	0.016018977
99	0x3e3a4cbc	0.18193334

onnx::Div_74 f4 [52]
0	0x3f000b11	0.50016886
1	0x3c833a3b	0.016018977
2	0x3e58afd7	0.21160828
3	0x3e802b11	0.25032857
4	0x3f001024	0.5002463
5	0x3c833a3b	0.016018977
6	0x3e593fb7	0.21215712
7	0x3e811cf6	0.25217408
8	0x3f0003ff	0.500061
9	0x3c833a3b	0.016018977
10	0x3e55d994	0.2088378
11	0x3e7ed52c	0.24886006
12	0x3f0010a1	0.50025374
13	0x3c833a3b	0.016018977
14	0x3e5c9591	0.2154143
15	0x3e82105e	0.25403112
16	0x3f000963	0.50014323
17	0x3c833a3b	0.016018977
18	0x3e5b7ab6	0.2143353
19	0x3e7ef5d6	0.24898466
20	0x3f0010c2	0.5002557
21	0x3c833a3b	0.016018977
22	0x3e5fdbda	0.2186121
23	0x3e82c5ad	0.2554144
24	0x3f000a15	0.50015384
25	0x3c833a3b	0.016018977
26	0x3e5d2258	0.21595132
27	0x3e7e82c0	0.24854565
28	0x3f000ed2	0.50022614
29	0x3c833a3b	0.016018977
30	0x3e64a98e	0.22330305
31	0x3e841462	0.257968
32	0x3f000bae	0.5001782
33	0x3c833a3b	0.016018977
34	0x3e5f512f	0.21808313
35	0x3e7f9c92	0.2496207
36	0x3f001056	0.50024927
37	0x3c833a3b	0.016018977
38	0x3e631340	0.22175312
39	0x3e84123f	0.2579517
40	0x3f0005cf	0.50008863
41	0x3c833a3b	0.016018977
42	0x3e5e3a9a	0.21702042
43	0x3e7f7d47	0.24950133
44	0x3f0010a1	0.50025374
45	0x3c833a3b	0.016018977
46	0x3e628b04	0.22123343
47	0x3e849ef6	0.25902528
48	0x3efffc9c	0.49997413
49	0x3c833a3b	0.016018977
50	0x3e5e3a9d	0.21702047
51	0x3e7f4a87	0.24930774

onnx::Div_77 f4 [5]
0	0x41682429	14.508828
1	0x3fc29b0d	1.5203568
2	0x40a9da0d	5.3078675
3	0x3f86e9c0	1.0540085
4	0x3efcdc9e	0.49387068
