Assets/results/4/CoinChaser/CoinChaser-1248692.onnx (onnx, 439515 bytes, 13 tensors)

network_body.observation_encoder.processors.0.normalizer.running_mean f4 [100]
0.95463914 0.00914635 0.0013357998 0.27302283 0.95983523 0.0081213 0.0013349958 0.27118373
0.9499431 0.009696529 0.0013390009 0.2729408 0.964443 0.007019332 0.0013325964 0.2676612
0.9464777 0.009721366 0.0013237861 0.2714664 0.9675702 0.006175261 0.0013117724 0.26250982
0.94468606 0.009263285 0.0013181767 0.26891157 0.96963733 0.005477726 0.0013317962 0.25632194
0.9442012 0.00852571 0.0012949537 0.265628 0.9707857 0.004833855 0.0013470077 0.24970812
0.9449208 0.007800938 0.0012997597 0.26189494 0.9713387 0.0043293233 0.0013269861 0.24297409
0.94666344 0.0069632814 0.0013053662 0.2582103 0.97182703 0.0038095792 0.0013333933 0.2361492
0.9493874 0.006074357 0.0013349954 0.25474513 0.97254026 0.0033619122 0.0013221832 0.22953145
0.95267874 0.0053343694 0.001351013 0.25175822 0.97317636 0.0030591944 0.0013245856 0.22310843
0.95600593 0.0048194365 0.0013582222 0.24922651 0.97415346 0.0026828053 0.0013269859 0.2170152
0.95919967 0.004516708 0.0013558177 0.2470498 0.97526795 0.002470585 0.0013069665 0.21152881
0.9620996 0.004284487 0.0013710359 0.24524513 0.976202 0.002450562 0.0012989602 0.2067963
0.96466386 0.004061047 0.0013470079 0.24385886
00000000: 3b63 743f 93da 153c 0116 af3a a6c9 8b3e
00000010: c3b7 753f 330f 053c 07fb ae3a 98d8 8a3e
00000020: 792f 733f 31de 1e3c 6a81 af3a e6be 8b3e
00000030: bde5 763f 6d02 e63b 84aa ae3a e40a 893e
00000040: 5d4c 723f 5d46 1f3c e482 ad3a a5fd 8a3e
00000050: aeb2 773f d859 ca3b c7ef ab3a b067 863e
00000060: f2d6 713f 09c5 173c acc6 ac3a c7ae 893e
00000070: 273a 783f 7f7e b33b aa8f ae3a a13c 833e
00000080: 2bb7 713f 6baf 0b3c 70bb a93a 6500 883e
00000090: 6985 783f 5165 9e3b 148e b03a 7cb3 7f3e
000000a0: 54e6 713f 039f ff3b b35c aa3a 1817 863e
000000b0: a7a9 783f ffdc 8d3b 44ee ad3a 33ce 783e
000000c0: 8958 723f 3d2c e43b d218 ab3a 2434 843e
000000d0: a8c9 783f 22aa 793b 41c5 ae3a 19d1 713e
000000e0: 0d0b 733f 660b c73b 03fb ae3a f46d 823e
000000f0: 66f8 783f 8753 5c3b 1b4d ad3a 4b0a 6b3e
00000100: c1e2 733f efcb ae3b 7914 b13a 74e6 803e
00000110: 1622 793f c47c 483b b89d ad3a 8976 643e
00000120: cebc 743f 5dec 9d3b 6006 b23a 3c35 7f3e
00000130: 1f62 793f 01d2 2f3b 42ee ad3a 3c39 5e3e
00000140: 1c8e 753f e500 943b b1b5 b13a 9ffa 7c3e
00000150: 29ab 793f 8ae9 213b 854e ab3a 029b 583e
00000160: 294c 763f e264 8c3b 55b4 b33a 8a21 7b3e
00000170: 60e8 793f 9c99 203b df41 aa3a 69c2 533e
00000180: 36f4 763f 8812 853b 168e b03a 23b6 793e

network_body.observation_encoder.processors.1.normalizer.running_mean f4 [52]
0.4379689 0.0035589193 0.110122345 0.44847193 0.44161594 0.0033843373 0.10922647 0.4482284
0.4357002 0.0037174844 0.11067159 0.44844022 0.4467277 0.0031088472 0.10818669 0.4479008
0.43481532 0.003836013 0.11116751 0.44849554 0.4529347 0.0028309608 0.107042305 0.44746193
0.4354133 0.00388967 0.11127324 0.4484649 0.46024612 0.0026003178 0.10541984 0.4468096
0.43738157 0.0039777607 0.11106669 0.4484872 0.46878466 0.0024257344 0.10361957 0.44596645
0.44083184 0.0039441218 0.11088949 0.44854665 0.4778091 0.0022215208 0.10179785 0.4452447
0.44540972 0.00388726 0.11036823 0.4488809
00000000: 763d e03e c23c 693b d387 e13d 1d9e e53e
00000010: 7c1b e23e c2cb 5d3b 21b2 df3d 317e e53e
00000020: 1914 df3e 0aa1 733b c9a7 e23d f599 e53e
00000030: 7eb9 e43e cdbd 4b3b fc90 dd3d 4153 e53e
00000040: 1da0 de3e 9e65 7b3b cbab e33d 35a1 e53e
00000050: 0fe7 e73e a487 393b ff38 db3d bb19 e53e
00000060: 7eee de3e d5e9 7e3b 39e3 e33d 319d e53e
00000070: 61a5 eb3e 186a 2a3b 5be6 d73d 3ac4 e43e
00000080: 7af0 df3e e057 823b ef76 e33d 1da0 e53e
00000090: 8b04 f03e 12f9 1e3b 7f36 d43d b755 e43e
000000a0: b6b4 e13e b13d 813b 071a e33d e8a7 e53e
000000b0: 65a3 f43e ef96 113b 647b d03d 1df7 e33e
000000c0: be0c e43e 67c1 7e3b bd08 e23d b8d3 e53e

network_body.observation_encoder.processors.2.normalizer.running_mean f4 [5]
-0.37831932 -8.675105 -1.2371922 1.038844 0.26080975
00000000: 12b3 c1be 3bcd 0ac1 505c 9ebf d7f8 843f
00000010: db88 853e

network_body._body_endoder.seq_layers.0.weight f4 [256, 157]
-0.07049495 0.05361584 -0.03674298 -0.06897649 0.15895283 0.15589945 -0.10025837 -0.06495311
0.0041603046 0.016308088 -0.040479768 -0.06579696 -0.026713531 -0.0094447 -0.0949235 0.06315382
-0.015172311 0.1644294 -0.0088755675 -0.008355998 0.056784045 -0.0021339853 -0.06870655 0.029394122
0.05533396 -0.0524317 -0.093272 -0.056583967 0.12807018 -0.058446698 0.062548384 -0.04933291
0.10854522 -0.023149658 -0.19096196 -0.16448747 -0.0242216 0.066966444 -0.07114834 0.029912034
-0.056293163 -0.011129263 0.02514398 0.032631032 -0.042959627 -0.103170924 0.01888949 0.017138056
0.005417662 0.03962838 -0.10347724 -0.08784518 0.1067416 -0.056833506 0.019542752 0.09655752
-0.004383913 0.03389882 0.060961783 -0.030220436 0.021726146 -0.059103165 -0.18370539 0.18306677
-0.04261792 0.23090775 -0.10194999 0.06410549 -0.0029931606 0.017628655 -0.030546803 0.19760866
0.08519576 0.08273348 0.13854735 -0.10865482 0.026950158 0.0038377985 0.025840905 0.050924093
0.010353304 -0.032247454 -0.04987442 0.046241708 -0.11605089 0.10387016 -0.10710715 0.10878802
-0.04187545 -0.0012381776 -0.041340694 -0.10401397 -0.033383973 0.023400856 -0.05061174 0.06943605
0.10991255 0.053565018 -0.054413214 0.077329926 -0.032118045 0.07216339 -0.019268861 0.06908561
-0.15183502 0.1768581 0.063134365 -0.13134086 0.005553905 0.0670535 0.014821909 0.08667697
0.049793847 -0.032737575 0.05051815 0.11757888 0.05104022 0.13063069 0.11320651 0.014009257
-0.044869255 0.11638705 -0.04425017 -0.09998147 0.012133378 -0.0938433 0.1886639 0.1145532
-0.08875264 0.029913696 -0.01620214 -0.05625324 -0.059076704 -0.031961814 0.088384844 -0.0827318
-0.017930988 0.009652888 0.002534196 0.0291875 0.06106933 0.0547275 -0.17128396 0.011318223
-0.0067923903 -0.03941995 -0.16446322 -0.06780503 0.020568877 0.047396366 0.090664655 0.10374799
0.009039666 -0.005194616 -0.019364092 0.060342558 0.09906137 0.06311953 0.046261504 -0.08570491
-0.119409434 0.15243657 0.0332371 -0.21726526 -0.17517954 0.10526669 0.004128811 -0.022893474
-0.013970954 -0.045645453 -0.010036693 0.02766069 0.04415677 0.10365366 0.06618348 -0.035749886
-0.048361473 0.074739404 -0.0032846262 0.0068270857 0.095155366 -0.058807854 0.13916102 -0.032409936
0.005892548 -0.25218022 0.031910174 -0.07264116 -0.09444776 0.008204384 0.044849597 0.018290687
0.07621991 0.0378129 0.0008468476 -0.09610633 -0.06613298 0.06770626 -0.16556472 -0.00982793
-0.02497957 0.13655752 0.0015480592 0.058389172 0.07119498 -0.07327675 0.070503905 0.07617107
-0.13327701 -0.061282586 0.059024602 -0.033683155 0.060677662 0.123926416 0.049560662 -0.13204454
0.09533641 0.07770498 0.18731542 -0.034207005 0.19452116 0.053991057 -0.070822604 -0.014373194
0.10727931 -0.055331238 0.18427013 0.16944051 0.09085386 0.016781975 0.07906485 0.07076887
0.08871576 0.05364225 0.05851617 0.011150419 0.14883552 0.1307489 -0.040648907 -0.022762377
0.1541603 -0.1805458 -0.04343278 0.07108946 -0.01747152 0.018477011 -0.007806289 0.025810223
0.22646414 0.04376267 -0.061098177 0.03409823 -0.028305352 0.118253656 -0.081174165 0.057838134
00000000: a85f 90bd 489c 5b3d cf7f 16bd 8c43 8dbd
00000010: 88c4 223e 1ba4 1f3e 4354 cdbd 2306 85bd
00000020: 2a53 883b 8a98 853c 1dce 25bd 8ec0 86bd
00000030: 56d6 dabc f1bd 1abc 4167 c2bd ca56 813d
00000040: 4995 78bc 2e60 283e d46a 11bc 99e7 08bc
00000050: 6396 683d 55da 0bbb 05b6 8cbd f1cb f03c
00000060: dda5 623d 9fc2 56bd 6405 bfbd 97c4 67bd
00000070: d424 033e ce65 6fbd 5e19 803d 4e11 4abd
00000080: f54c de3d 5aa4 bdbc 888b 43be 676f 28be
00000090: 606c c6bc b425 893d 39b6 91bd 150a f53c
000000a0: a993 66bd 8357 36bc bffa cd3c 1ea8 053d
000000b0: 6ff6 2fbd 474b d3bd 22be 9a3c 1c65 8c3c
000000c0: a586 b13b 5e51 223d e0eb d3bd 2ce8 b3bd
000000d0: 579b da3d 40ca 68bd 1f18 a03c f3bf c53d
000000e0: eda6 8fbb 7dd9 0a3d 10b3 793d d990 f7bc
000000f0: 08fb b13c 2916 72bd 441d 3cbe db75 3b3e
00000100: 2190 2ebd 1573 6c3e 28cb d0bd bd49 833d
00000110: e728 44bb f869 903c 4a3d fabc ed59 4a3e
00000120: 1d7b ae3d 2c70 a93d 5bdf 0d3e 6b86 debd
00000130: 94c6 dc3c 9383 7b3b 4eb0 d33c c895 503d
00000140: e8a0 293c e815 04bd 1f49 4cbd f267 3d3d
00000150: 17ac edbd e1b9 d43d fe5a dbbd 41cc de3d
00000160: 9885 2bbd 594a a2ba dc54 29bd 4705 d5bd
00000170: a2bd 08bd 27b3 bf3c 424e 4fbd 7d34 8e3d
00000180: d519 e13d fe66 5b3d 64e0 5ebd 275f 9e3d
00000190: 368e 03bd 66ca 933d bbd9 9dbc c27c 8d3d
000001a0: a47a 1bbe 4a1a 353e 974c 813d 387e 06be
000001b0: 88fd b53b 5853 893d 98d7 723c b283 b13d
000001c0: a2f4 4b3d d617 06bd 1fec 4e3d 32cd f03d
000001d0: 8d0f 513d 0dc4 053e d1d8 e73d 1587 653c
000001e0: d3c8 37bd 555c ee3d ab3f 35bd 16c3 ccbd
000001f0: 13cb 463c eb30 c0bd 1c31 413e de9a ea3d
00000200: f2c3 b5bd 910d f53c 5aba 84bc cc69 66bd
00000210: 6afa 71bd 64ea 02bd 1d03 b53d 4a6f a9bd
00000220: 02e4 92bc 2627 1e3c c114 263b a01a ef3c
00000230: d523 7a3d f129 603d 1065 2fbe 1170 393c
00000240: b392 debb d076 21bd 0c69 28be 5ddd 8abd
00000250: 1080 a83c b122 423d 64ae b93d d479 d43d
00000260: 1b1b 143c 9937 aabb 72a1 9ebc c229 773d
00000270: b0e0 ca3d d044 813d b47c 3d3d 0e86 afbd
00000280: ef8c f4bd 5518 1c3e a023 083d c97a 5ebe
00000290: 4462 33be 1096 d73d fa4a 873b 188b bbbc
000002a0: 6ee6 64bc baf6 3abd f170 24bc ac98 e23c
000002b0: bbdd 343d 5f48 d43d 348b 873d 796e 12bd
000002c0: ae16 46bd f910 993d e242 57bb bfb5 df3b
000002d0: d1e0 c23d 81e0 70bd 3a80 0e3e 48c0 04bd
000002e0: 4616 c13b c41d 81be 3eb4 023d e3c4 94bd
000002f0: d46d c1bd ae6b 063c 36b4 373d 5ad6 953c
00000300: 2f19 9c3d b3e1 1a3d fbfe 5d3a 65d3 c4bd
00000310: ba70 87bd 94a9 8a3d cc89 29be 5305 21bc
00000320: f5a1 ccbc bcd5 0b3e 3fe8 ca3a 7c29 6f3d
00000330: acce 913d 1f12 96bd 5a64 903d 94ff 9b3d
00000340: c579 08be 7303 7bbd c8c3 713d 59f7 09bd
00000350: 2489 783d 22cd fd3d 1f00 4b3d af36 07be
00000360: bc3f c33d ca23 9f3d 9dcf 3f3e a51c 0cbd
00000370: 8e30 473e ba25 5d3d 710b 91bd 8c7d 6bbc
00000380: 41b5 db3d 02a3 62bd 4fb1 3c3e d081 2d3e
00000390: 9711 ba3d 5a7a 893c c1ec a13d 45ef 903d
000003a0: 9cb0 b53d fab7 5b3d a7ae 6f3d 3fb0 363c
000003b0: 5768 183e 0ae3 053e 787f 26bd 2a78 babc
000003c0: 33dc 1d3e 00e1 38be 92e6 31bd 5a97 913d
000003d0: 6f20 8fbc 1a5d 973c e6cb ffbb f66f d33c
000003e0: 37e6 673e 7c40 333d 1542 7abd 96aa 0b3d
000003f0: a0e0 e7bc f92e f23d a43e a6bd aee7 6c3d

network_body._body_endoder.seq_layers.0.bias f4 [256]
0.0037873648 0.0053002588 0.0030192474 0.013460061 0.01833492 -0.010382309 0.035180293 -0.00053961435
0.016219225 0.03661831 0.007334828 0.020289889 0.028420057 0.0052574608 -0.00048397816 0.004170193
-0.016266951 0.001077983 -0.008098517 -0.013164154 -0.008485795 -0.01279556 -0.03264041 0.018268477
0.022784634 0.01500972 0.0071450784 0.020219754 0.012072978 -0.019694462 0.02220515 -0.035328515
0.011506873 -0.022831935 0.044157024 0.04521898 -0.010426254 -0.012470204 -0.0383323 0.03025418
0.017944587 0.01409516 -0.0037404848 0.02154491 -0.0007682447 0.035539825 0.011068151 0.041839752
-0.04713911 0.003210823 0.0040925574 -0.007664684 0.012651647 -0.025808116 0.0060022827 0.00096225826
0.014144153 0.0048163906 0.003981362 -0.0031907612 0.032447543 0.009550774 0.0566934 0.036260843
0.022338405 0.023695234 0.007132774 -0.009263147 0.013412979 0.005065988 0.0007637401 -0.015850402
-0.004026292 0.035350706 0.023600737 0.0019634655 0.008287626 0.004916497 -0.0013768879 0.006177389
-0.017185757 0.015823724 0.005137997 -0.010427019 0.025137963 -0.002880892 -0.015696382 0.021838201
0.037587702 0.030762337 0.0032585037 0.015974168 -0.0034725256 -0.004293391 -0.0019989354 0.008752318
0.0043277005 -0.038943507 -0.033893514 -0.015311619 0.045754384 0.01572088 -0.026382683 -0.009543147
-0.039473776 0.034842826 0.0009779446 -0.0071450244 0.019024387 0.028015992 -0.017377436 0.04775325
-0.00053170504 -0.028513612 0.016257163 0.03885039 0.0065666325 -0.0035422267 0.05435987 0.0329946
-0.021741176 0.00860225 -0.011314525 -0.040194307 0.014791535 0.040974353 0.0116370795 0.019269094
-0.011322017 0.0007426122 0.01832703 0.027049566 0.02308211 0.021503383 -0.011996372 -0.0032681457
0.021223888 0.017047811 0.013714613 -0.007950858 0.040697955 0.04203884 -0.012319338 -0.017953586
-0.018207503 -0.010923106 0.0057588005 0.02110514 -0.008397369 -0.011565727 -0.028328018 0.05722146
-0.0018114529 -0.020537127 -0.006886052 0.020612752 0.024280692 -0.034608416 0.013662943 -0.00999016
-0.015431253 0.017139902 -0.0028250944 0.029318113 -0.03507179 0.019745862 0.01518383 -0.0155170085
-0.0028836671 0.014646191 -0.012539307 0.005160932 -0.01773773 -0.01781283 -0.008812194 -0.0017893778
0.002369881 -0.009355513 0.016031843 0.016294785 -0.011019735 0.033084877 -0.02612637 0.017141443
-0.005711478 -0.016012913 -0.021641934 -0.039624296 0.002899578 0.017557329 -0.021266432 -0.00735363
-0.016204445 0.03270204 0.032813497 0.02269967 -0.019345213 -0.017405918 0.014195772 0.034073602
-0.014068475 0.023331864 0.032068655 0.0020825083 -0.021849636 0.0118908575 0.03214197 0.0078083468
0.012020555 -0.02478151 0.010559264 0.0037558875 -0.0079622865 0.0083022425 -0.005374603 0.03727769
0.037434004 -0.021891411 -0.01842768 0.014294712 0.035073295 0.013591976 -0.011888598 -0.008349996
-0.028900806 0.030682927 -0.021337342 -0.0050643496 0.03339892 0.05871817 0.009132319 -0.00416388
-0.038946126 0.0064323875 0.04681285 0.017964289 -0.0070941746 -0.025920069 0.025373003 -0.00793662
0.03592926 -0.01123615 0.011051091 0.0001647447 -0.002508793 0.010225326 -0.019277778 0.010880117
0.007949422 -0.018635143 0.0073585426 -0.0023174977 -0.003425946 0.03601473 0.049638517 -0.007283479
00000000: 7035 783b cbad ad3b 91de 453b 9687 5c3c
00000010: 1d33 963c 8f1a 2abc 3619 103d e874 0dba
00000020: 2ede 843c 15fd 153d ff58 f03b fb36 a63c
00000030: 2ed1 e83c c746 ac3b 73be fdb9 1da6 883b
00000040: 4542 85bc 1b4b 8d3a a4af 04bc 77ae 57bc
00000050: 0108 0bbc 78a4 51bc f3b1 05bd c6a7 953c
00000060: d7a6 ba3c 54eb 753c 4321 ea3b e6a3 a53c
00000070: bdcd 453c 4856 a1bc 93e7 b53c a2b4 10bd
00000080: 5387 3c3c 0a0a bbbc ffdd 343d 8a37 393d
00000090: e1d2 2abc d44f 4cbc 5402 1dbd 9dd7 f73c
000000a0: 8700 933c 63ef 663c ec22 75bb f37e b03c
000000b0: 0764 49ba 3592 113d 3157 353c 2960 2b3d
000000c0: f014 41bd ac6c 523b dc1a 863b 0828 fbbb
000000d0: db48 4f3c 8b6b d3bc ccae c43b 0f40 7c3a
000000e0: e1bc 673c d0d2 9d3b 1676 823b 171c 51bb
000000f0: b7e7 043d d97a 1c3c 5737 683d 4086 143d
00000100: 08ff b63c 821c c23c 0cba e93b 74c4 17bc
00000110: 1dc2 5b3c 9600 a63b bb35 483a b4d8 81bc
00000120: fcee 83bb e7cb 103d 5556 c13c 7cad 003b
00000130: d3c8 073c 911a a13b b178 b4ba b26b ca3b
00000140: 25c9 8cbc c1a0 813c a55c a83b 16d6 2abc
00000150: 21ee cd3c 59cd 3cbb b395 80bc 07e6 b23c
00000160: 90f5 193d 4c01 fc3c 9f8c 553b 42dc 823c
00000170: 5093 63bb 93af 8cbb 9200 03bb e265 0f3c
00000180: 62cf 8d3b 3a83 1fbd edd3 0abd 96dd 7abc
00000190: f368 3b3d 13c9 803c 7f20 d8bc dc5a 1cbc
000001a0: 41af 21bd 5ab7 0e3d 602e 803a cf20 eabb
000001b0: 08d9 9b3c cb81 e53c 205b 8ebc e998 433d
000001c0: 1f62 0bba 6195 e9bc be2d 853c 9621 1f3d
000001d0: e82c d73b b424 68bb 74a8 5e3d 5825 073d
000001e0: 8d1a b2bc 74f0 0c3c 8f60 39bc c9a2 24bd
000001f0: 3258 723c b9d4 273d 73a9 3e3c 38da 9d3c
00000200: fb7f 39bc dcab 423a 9122 963c 0d97 dd3c
00000210: b116 bd3c dd27 b03c 6e8c 44bc 632e 56bb
00000220: b8dd ad3c daa7 8b3c 42b3 603c 5144 02bc
00000230: e6b2 263d eb30 2c3d 0cd7 49bc 6613 93bc
00000240: e727 95bc d4f6 32bc 52b4 bc3b b0e4 ac3c
00000250: 1e95 09bc 2d7e 3dbc 2910 e8bc 0d61 6a3d
00000260: 466e edba 7a3d a8bc 64a4 e1bb 13dc a83c
00000270: 4de8 c63c 8ec1 0dbd 89da 5f3c c5ad 23bc
00000280: 5ed3 7cbc fb68 8c3c 3825 39bb 8a2c f03c
00000290: 70a7 0fbd 13c2 a13c 99c5 783c 0d3b 7ebc
000002a0: e8fb 3cbb 94f6 6f3c aa71 4dbc 091d a93b
000002b0: b74e 91bc 36ec 91bc 0561 10bc 8e89 eaba
000002c0: 0150 1b3b de47 19bc 3655 833c a47c 853c
000002d0: 1e8c 34bc 0284 073d f806 d6bc 366c 8c3c
000002e0: 5a27 bbbb 832d 83bc 6d4a b1bc 164d 22bd
000002f0: d906 3e3b 63d4 8f3c f136 aebc b8f6 f0bb
00000300: 2fbf 84bc 93f2 053d 7267 063d a9f4 b93c
00000310: da79 9ebc db96 8ebc 6295 683c c390 0b3d
00000320: 767f 66bc 7722 bf3c 6c5a 033d b17a 083b
00000330: 02fe b2bc dfd1 423c 4ca7 033d 29dd ff3b
00000340: ddf1 443c 9802 cbbc c300 2d3c 5625 763b
00000350: 4074 02bc 2106 083c 701d b0bb 7eb0 183d
00000360: 6654 193d 9e55 b3bc a5f5 96bc 5e34 6a3c
00000370: 04a9 0f3d e1b0 5e3c 65c8 42bc 6cce 08bc
00000380: 62c1 ecbc c35a fb3c a6cb aebc d8f2 a5bb
00000390: 4ecd 083d 7782 703d b99f 153c 2871 88bb
000003a0: f985 1fbd c7c6 d23b d5be 3f3d d829 933c
000003b0: 4076 e8bb 5356 d4bc 0bdb cf3c 9908 02bc
000003c0: 8f2a 133d d417 38bc a30f 353c 52bf 2c39
000003d0: 906a 24bb 2088 273c 6eec 9dbc 8542 323c
000003e0: 4b3e 023c baa8 98bc ee1f f13b 29e1 17bb
000003f0: d685 60bb 2e84 133d c251 4b3d 40aa eebb

network_body._body_endoder.seq_layers.2.weight f4 [256, 256]
0.028506929 -0.031125875 -0.13401452 -0.016001314 0.013928784 0.035667624 -0.1146508 0.0014563014
0.11128712 -0.07072318 0.036324732 -0.003059269 0.0058568246 0.037628647 -0.07195573 0.0037384904
0.05295114 0.04136023 0.09924795 0.019218622 2.6727621e-05 0.011293568 0.093777895 0.037964437
-0.045281775 0.096483186 0.0004866896 0.028959015 -0.028589487 0.10412497 -0.044285648 -0.07463389
-0.049148854 -0.09540853 0.055349853 0.096406706 0.02042305 -0.032465037 -0.018292163 0.12704355
0.080896914 -0.024133544 0.018280653 -0.03459953 -0.13998309 -0.046572167 -0.09405377 0.051710773
-0.04788612 0.026233133 -0.07434883 0.028879017 0.07222 0.037601925 -0.078507505 -0.017204965
0.04706915 -0.053626444 -0.06479484 0.025988452 0.018886257 0.0045641377 -0.010776074 0.083938524
0.09220442 -0.0542241 -0.07590001 -0.0092893625 0.08027499 0.094994366 -0.16105129 0.025408853
0.026342127 0.10908254 0.06464959 0.019199442 0.0028238073 0.1469317 0.06462783 0.07194989
-0.015989723 -0.06968646 0.055881925 0.074975125 -0.074611105 -0.014753396 0.06973684 -0.04751362
-0.0012061071 -0.027206553 0.049994726 0.036299553 -0.03734705 -0.053357992 0.021485427 0.0090763215
-0.020375984 -0.13312401 -0.007685027 -0.033044767 -0.022045871 -0.058102738 -0.08965326 0.06574023
0.06829563 -0.055749167 -0.10399234 0.016257439 -0.039409183 0.001839448 0.06496326 -0.03323651
0.04679204 -0.101742595 -0.07032472 0.07599207 0.007082335 -0.061036684 0.13431036 -0.09654843
-0.007570446 -0.0065353 -0.0015486488 -0.0658463 -0.06652825 0.10159159 0.00897493 -0.057154413
0.03994622 -0.041600734 0.09385073 -0.07542513 -0.0014373059 -0.08022398 -0.07551118 0.0067278314
0.030031987 0.13879995 0.14035441 -0.03122179 -0.00971504 -0.13741143 -0.037385847 -0.12839092
-0.15349764 -0.022940706 -0.07855136 0.028751383 -0.14093052 -0.097396426 0.0020962171 -0.11609074
0.04233313 -0.12617008 0.015244708 -0.1293415 -0.056349162 -0.11445492 0.055823505 0.05028749
0.055052586 0.050010737 -0.0058432934 0.029861055 0.010833097 0.033466585 -0.096185975 -0.017311558
0.025754113 0.029842142 -0.052472994 -0.1026356 0.03405675 0.02024257 0.036271233 0.029692205
-0.048806496 -0.057576973 0.11968773 -0.026243325 -0.011960558 0.021475315 -0.038232196 -0.096612744
0.04660871 -0.029517388 -0.117898144 -0.041761845 0.12698957 -0.120481335 0.017991604 0.014938454
0.038106646 -0.012748765 0.07531861 0.028080625 -0.04035228 0.038051516 -0.030873457 0.005710558
-0.01831334 0.061852198 0.00022397692 0.14113638 -0.05490989 -0.011416758 -0.06779374 0.10303157
0.031291917 0.071948454 0.046926104 0.078851804 -0.074246004 0.023129841 -0.0056681535 0.051017955
-0.030014342 -0.02379184 0.0069405055 0.08858256 0.089301236 0.059207357 0.0026728685 0.040502686
-0.04800726 0.016985673 -0.013510564 0.029305065 -0.0259004 0.07315796 -0.15307406 -0.024903849
-0.015537997 -0.03979001 -0.028549204 0.031099511 0.09301749 -0.13140196 -0.0725898 0.041476954
0.09152987 0.098892614 -0.011598356 -0.026240874 0.011051845 -0.05034056 -0.023541 0.031795178
0.067205876 -0.0014300273 -0.10878181 -0.0012408934 -0.02246291 -0.025355073 0.109008305 0.037726365
00000000: 5d87 e93c b1fb febc 1a3b 09be 3015 83bc
00000010: 8e35 643c 3718 123d 0ace eabd 5ee1 be3a
00000020: 80ea e33d 51d7 90bd 3ec9 143d 047e 48bb
00000030: 9bea bf3b 7f20 1a3d 875d 93bd 7601 753b
00000040: 4be3 583d 5869 293d 8242 cb3d 5f70 9d3c
00000050: 2135 e037 a808 393c a00e c03d 9980 1b3d
00000060: 6279 39bd fa98 c53d 5f2a ff39 753b ed3c
00000070: 8034 eabc 793f d53d de64 35bd a7d9 98bd
00000080: 4f50 49bd 8c65 c3bd 87b6 623d e170 c53d
00000090: 3d4e a73c 0ffa 04bd 72d9 95bc b417 023e
000000a0: 48ad a53d b6b3 c5bc 4fc1 953c 3db8 0dbd
000000b0: ba57 0fbe 75c2 3ebd 439f c0bd adce 533d
000000c0: 3c24 44bd dee6 d63c 3344 98bd b093 ec3c
000000d0: 14e8 933d 7a04 1a3d 8bc8 a0bd 6df1 8cbc
000000e0: 95cb 403d 67a7 5bbd 28b3 84bd bce5 d43c
000000f0: 5ab7 9a3c c38e 953b 218e 30bc f6e7 ab3d
00000100: acd5 bc3d 171a 5ebd 7771 9bbd 6932 18bc
00000110: 3767 a43d 688c c23d a1ea 24be 3a26 d03c
00000120: 72cb d73c ab66 df3d 0167 843d 2648 9d3c
00000130: a00f 393b 4375 163e 995b 843d 775a 933d
00000140: e1fc 82bc c6b7 8ebd 72e4 643d 8f8c 993d
00000150: b5cd 98bd 3ab8 71bc 30d2 8e3d a49d 42bd
00000160: 3d16 9eba 47e0 debc 45c7 4c3d d7ae 143d
00000170: 38f9 18bd e98d 5abd 3502 b03c dab4 143c
00000180: 89eb a6bc a951 08be aed2 fbbb f359 07bd
00000190: 8b99 b4bc 23fd 6dbd 219c b7bd d0a2 863d
000001a0: 94de 8b3d 3d59 64bd f0f9 d4bd 522e 853c
000001b0: 866b 21bd a219 f13a 750b 853d 0223 08bd
000001c0: 03a9 3f3d 6c5e d0bd 6806 90bd bba1 9b3d
000001d0: ef12 e83b 9a01 7abd a888 093e 2fbb c5bd
000001e0: 8111 f8bb 1226 d6bb 08fc caba 6dda 86bd
000001f0: f73f 88bd 400f d03d 960b 133c bf1a 6abd
00000200: a69e 233d 8865 2abd d034 c03d 7e78 9abd
00000210: fc63 bcba 784c a4bd 9ba5 9abd 2475 dc3b
00000220: a405 f63c 9321 0e3e 11b9 0f3e d7c4 ffbc
00000230: d52b 1fbc 95b5 0cbe e721 19bd e978 03be
00000240: 7c2e 1dbe 26ee bbbc 89df a0bd 0588 eb3c
00000250: 1750 10be c777 c7bd b060 093b fbc0 edbd
00000260: 8165 2d3d bb32 01be f1c4 793c 1972 04be
00000270: 61ce 66bd 5767 eabd 30a7 643d 41fa 4d3d
00000280: d27e 613d 0fd8 4c3d 1979 bfbb 2c9f f43c
00000290: 4d7d 313c 4214 093d 27fd c4bd f8d0 8dbc
000002a0: 4afa d23c 8277 f43c eced 56bd 9d32 d2bd
000002b0: 177f 0b3d bfd3 a53c 2591 143d 113d f33c
000002c0: 52e9 47bd d5d5 6bbd d71e f53d 3efc d6bc
000002d0: 37f6 43bc 00ed af3c 5d99 1cbd e7dc c5bd
000002e0: c6e8 3e3d 73ce f1bc 9574 f1bd 780e 2bbd
000002f0: 8e09 023e ebbe f6bd 2163 933c 6bc0 743c
00000300: b715 1c3d 32e0 50bc a540 9a3d 5709 e63c
00000310: 6f48 25bd e8db 1b3d 55ea fcbc a21f bb3b
00000320: dc05 96bc bb58 7d3d 59db 6a39 0e86 103e
00000330: 31e9 60bd 5b0d 3bbc 72d7 8abd 3702 d33d
00000340: f42b 003d b659 933d 9635 403d 0e7d a13d
00000350: 4a0e 98bd cb7a bd3c ebbb b9bb 34f8 503d
00000360: a3e0 f5bc 1be7 c2bc 2e6d e33b c66a b53d
00000370: 91e3 b63d 6a83 723d 4b2b 2f3b 25e6 253d
00000380: 43a3 44bd 8a25 8b3c 6a5b 5dbc 2d11 f03c
00000390: 132d d4bc d7d3 953d 72bf 1cbe 2803 ccbc
000003a0: 1593 7ebc d9fa 22bd 05e0 e9bc 67c4 fe3c
000003b0: f47f be3d 3c8e 06be f6a9 94bd bde3 293d
000003c0: 0374 bb3d 3688 ca3d 0807 3ebc 1af7 d6bc
000003d0: cc12 353c e731 4ebd 0ed9 c0bc a93b 023d
000003e0: 3ca3 893d c16f bbba ffc8 debd 79a5 a2ba
000003f0: 2304 b8bc 71b5 cfbc bf3f df3d f686 1a3d

network_body._body_endoder.seq_layers.2.bias f4 [256]
0.031786326 0.015644914 0.0002590863 0.0026296584 -0.017418075 -0.021222953 -0.01125463 -0.008466589
0.008468876 -0.0033446674 -0.0271173 -0.0002937785 -0.021667892 -0.008949882 0.015912645 0.00633436
-0.010139741 0.024479803 -0.005951334 0.013864619 0.0034425089 -0.011927216 -0.01809564 0.02389645
0.032202054 0.0007185436 0.015667014 -0.010265093 -0.0030584314 0.018950382 -0.012419746 0.03545445
0.010437695 0.028223613 0.009742887 0.014585293 0.00032889342 0.014171145 0.013660825 0.022420002
0.0054573053 0.0054899133 0.0006834236 -0.023871388 0.009789253 -0.013613064 -0.028850453 0.009461833
0.013348569 -0.018997043 0.025591543 -0.011618586 -0.020031169 0.017249262 0.023128511 0.008275697
0.03214173 0.00027178045 0.024963178 0.027559245 -0.009281168 -0.0040957546 0.03402249 0.013321708
0.010413235 0.013436538 0.024988743 0.036700904 0.019444514 0.0008877975 -0.0029799396 0.013472537
-0.0003232121 0.024736905 -0.0047263885 -0.019915905 -0.0011173092 0.009011193 0.0070115123 -0.0009175695
0.0082364315 0.012983611 0.00459864 0.018249454 0.03541969 -0.0027979228 0.019496638 0.0031349054
0.013356098 -0.019511955 -0.0066639483 0.017703012 0.0355463 -0.007602297 0.007766501 0.004869425
0.006632263 -0.012949579 0.005726282 0.022489041 0.004592439 0.022395715 0.033832602 -0.0055619613
0.037369817 0.007726205 0.026802843 -0.0030227748 0.010625847 0.021264844 -0.013945917 0.015124981
0.020315427 0.01950831 -0.0033712334 0.009319007 0.03181918 0.005520035 -0.008522768 -0.0064511704
-0.007666582 -0.011082436 -0.008897069 -0.013852246 0.0057556145 0.014229409 -0.016861362 -0.0038819802
-0.008687364 0.008953601 0.016936032 0.0305707 0.005632588 0.012290012 -0.030928576 0.012148527
-0.003769913 0.022630513 0.00784898 0.020468412 -0.016107017 0.0041102027 0.012807121 0.00916897
0.010034022 -0.019307246 -0.008046399 0.02343713 0.0061294218 -0.01800769 -0.011645209 -0.0027328776
0.0024961631 0.019739259 -0.03067183 -0.00686155 0.013993931 -0.017140534 0.037848543 -0.0020663878
0.0008096379 0.022760538 0.019285344 0.0048859185 -0.00090033654 0.012718874 0.0049371608 -0.017934887
0.033854038 0.008564824 0.008213502 -0.011243331 -0.02475879 0.0109080225 0.0068441904 0.0291121
0.025310602 0.0148998005 0.02788744 0.031626474 0.014517364 -0.002332995 0.019644031 0.020393966
-0.0009484098 -0.007822327 0.056198914 0.0022801952 0.016784618 -0.004992157 0.0155305145 -0.0067167412
-0.01639587 0.036601067 -0.0017947871 0.034948166 -0.021499053 0.01213075 0.05144938 0.01070251
-0.0035823886 -0.0123265 0.0024433972 0.0060445108 -0.0026083277 -0.0021358123 -0.0067414776 0.0036226953
0.017467372 0.006566288 -0.00072133186 -0.01959016 0.0155811915 -0.0027832265 0.016212948 -0.011621484
0.0140706925 0.012995454 0.02876076 -0.016163783 -0.0017037286 0.004831907 -0.021380866 0.00027759385
-0.00082182087 -0.014909818 -0.0068647102 -0.00042548255 0.0057151583 -0.0115591055 -0.014046583 0.0117991045
-0.026261613 0.006407658 0.04043626 -0.029204955 -0.036273587 -0.0019858854 -0.00326517 0.015913466
0.016733022 0.006024726 -0.022363206 0.01872919 0.02853367 0.0057375706 0.012150685 -0.014224641
-0.007761014 -0.01580954 0.010440163 -0.017435431 0.03537468 0.023257153 0.016099919 0.019725036
00000000: 6132 023d c329 803c f9d5 8739 5956 2c3b
00000010: 5ab0 8ebc c2db adbc 5765 38bc 73b7 0abc
00000020: 0ac1 0a3c 3532 5bbb 1a25 debc 4806 9ab9
00000030: dd80 b1bc 87a2 12bc 3c5b 823c 7790 cf3b
00000040: 2821 26bc de89 c83c 6803 c3bb 6d28 633c
00000050: b79b 613b 5f6a 43bc 4f3d 94bc 7dc2 c33c
00000060: 4de6 033d a55c 3c3a 1c58 803c ec2e 28bc
00000070: f76f 48bb d53d 9b3c 317c 4bbc af38 113d
00000080: de02 2b3c 3535 e73c a1a0 1f3c 27f7 6e3c
00000090: 546f ac39 172e 683c a7d1 5f3c 27aa b73c
000000a0: 32d3 b23b bbe4 b33b c827 333a ee8d c3bc
000000b0: 1a63 203c 5409 5fbc c957 ecbc ce05 1b3c
000000c0: f5b3 5a3c b09f 9bbc 5ba5 d13c e25b 3ebc
000000d0: 6818 a4bc 534e 8d3c 0178 bd3c ca96 073c
000000e0: 0ca7 033d c17d 8e39 947f cc3c edc3 e13c
000000f0: 0a10 18bc ae35 86bb 2b5b 0b3d 4b43 5a3c
00000100: 469c 2a3c ed24 5c3c 31b5 cc3c b053 163d
00000110: 1a4a 9f3c 15bb 683a 174b 43bb eabb 5c3c
00000120: cb74 a9b9 0da5 ca3c d2df 9abb ae26 a3bc
00000130: ad72 92ba afa3 133c d4c0 e53b 0c89 70ba
00000140: 19f2 063c 36b9 543c 30b0 963b e17f 953c
00000150: 3d14 113d 5b5d 37bb 6ab7 9f3c fc72 4d3b
00000160: 89d3 5a3c 89d7 9fbc 405d dabb e805 913c
00000170: ff98 113d b01c f9bb 227e fe3b b38f 9f3b
00000180: 7453 d93b 792a 54bc 89a3 bb3b f03a b83c
00000190: 2c7c 963b 3877 b73c 0e94 0a3d 1d41 b6bb
000001a0: 1811 193d 1b2c fd3b a391 db3c bf19 46bb
000001b0: 0818 2e3c 9c33 ae3c 6a7d 64bc c5ce 773c
000001c0: 8a6c a63c e4cf 9f3c e9ef 5cbb c0ae 183c
000001d0: d454 023d 69e1 b43b 14a3 0bbc 5764 d3bb
000001e0: f337 fbbb 1b93 35bc 03c5 11bc 88f4 62bc
000001f0: 9899 bc3b 7822 693c d720 8abc d268 7ebb
00000200: 7255 0ebc 20b2 123c 6fbd 8a3c 686f fa3c
00000210: 9391 b83b 0c5c 493c ed5d fdbc 9e0a 473c
00000220: a510 77bb a063 b93c 0299 003c 5fad a73c
00000230: ddf2 83bc e1ae 863b f5d4 513c 7339 163c
00000240: bd65 243c 3b2a 9ebc 0bd5 03bc 39ff bf3c
00000250: 51d9 c83b dd84 93bc 8ccb 3ebc 141a 33bb
00000260: ab96 233b 3ab4 a13c 7d43 fbbc dad6 e0bb
00000270: cd46 653c 4e6a 8cbc 1307 1b3d 3c6c 07bb
00000280: e13d 543a 4f74 ba3c 4cfc 9d3c 0e1a a03b
00000290: 9004 6cba d362 503c e8c7 a13b 2fec 92bc
000002a0: 88aa 0a3d 7a53 0c3c ed91 063c f335 38bc
000002b0: f2d2 cabc 90b7 323c 3b45 e03b 807c ee3c
000002c0: 2e58 cf3c 4b1e 743c 3374 e43c c38a 013d
000002d0: 3dda 6d3c 29e5 18bb 85ec a03c 3f11 a73c
000002e0: b49e 78ba 3829 00bc d530 663d 546f 153b
000002f0: e57f 893c 4095 a3bb b373 7e3c 1c18 dcbb
00000300: a250 86bc 00eb 153d 103f ebba cf25 0f3d
00000310: c81e b0bc 0ec0 463c 96bc 523d 9559 2f3c
00000320: 82c6 6abb 17f5 49bc 6721 203b 0811 c63b
00000330: 7af0 2abb fcf8 0bbb 9de7 dcbb be6a 6d3b
00000340: bc17 8f3c 042a d73b c317 3dba 8b7b a0bc
00000350: 4148 7f3c cb66 36bb 04d1 843c 0968 3ebc
00000360: c388 663c e2ea 543c af9b eb3c e969 84bc
00000370: a54f dfba f954 9e3b ed26 afbc 048a 9139
00000380: 776f 57ba 4f48 74bc 5df1 e0bb 4d13 dfb9
00000390: 3946 bb3b 6762 3dbc a423 66bc 0851 413c
000003a0: 9822 d7bc 55f7 d13b 7ea0 253d 3b3f efbc
000003b0: 9d93 14bd a125 02bb 76fc 55bb f55c 823c
000003c0: b113 893c 116b c53b 0b33 b7bc f56d 993c
000003d0: 71bf e93c 3b02 bc3b ab13 473c 780e 69bc
000003e0: 1b50 febb 0283 81bc 380d 2b3c c0d4 8ebc
000003f0: 0ae5 103d c985 be3c fae3 833c 6696 a13c

action_model._continuous_distribution.log_sigma f4 [1, 6]
0.055595994 -0.056481674 0.12118028 -0.01042612 -0.012306225 0.069348864
00000000: a0b8 633d 5459 67bd 5e2d f83d 51d2 2abc
00000010: 0ca0 49bc c706 8e3d

action_model._continuous_distribution.mu.weight f4 [6, 256]
-0.02426124 0.037492573 -0.010014213 0.003886456 -0.027100665 -0.09853188 -0.07397618 -0.0013726605
0.016135706 0.033485685 0.011375263 -0.008685142 0.018449975 0.0058288295 0.019525625 -0.02849123
0.019123767 0.01618733 0.027923062 0.006974193 0.023438789 -0.021634245 -0.075301096 0.014093066
0.08290655 -0.026428558 -0.0056706625 -0.03233048 0.004848652 0.012501558 -0.04431797 0.033320006
0.02124502 -0.0024255393 -0.024135424 0.050136793 0.022228913 0.010728378 0.017365327 -0.0051129684
-0.07387222 -0.0021221798 0.009380282 -0.081981026 -0.022138013 -0.03174814 -0.02716409 0.023362156
0.035306092 -0.005312376 0.027702779 -0.0057945997 0.027950807 0.018955883 0.025006795 -0.041638453
0.014144004 -0.0065105436 0.0635112 0.05810528 0.013878865 -0.012202621 0.031485453 0.050910655
-0.005982966 -0.0061360137 0.04215398 0.04553495 0.0055432506 0.019734267 0.027390722 0.022904404
0.008321131 0.031087922 -0.0016190166 -0.022190155 0.04081188 -0.025960144 -0.00731292 0.00588264
-0.04289888 -0.044056114 0.030903721 -0.010598144 0.050522476 -0.051349856 0.02522292 0.017892115
-0.018808277 -0.008066583 0.027593164 0.0020373138 0.030593157 -0.058926143 -0.0078727715 0.040883012
0.023178458 -0.031146854 0.00760456 0.037438907 -0.017544068 -0.0092487885 0.011247505 0.0024429099
-0.020098485 0.019174114 0.05353649 -0.048265953 0.03130345 0.008054658 0.025566125 -0.0448853
-0.000308762 0.01951865 0.028178856 0.034864374 0.037003975 0.025938328 0.02939721 0.05764435
-0.034156106 -0.020414524 -0.036360294 -0.028274147 -0.00528452 0.033500735 0.015570365 -0.044521365
-0.031860072 -0.010829821 -0.0292892 0.011853799 -0.057257693 0.024316102 -0.03677194 0.015237347
-0.023773704 0.00078911835 -0.038232483 -0.020487338 -0.018208792 0.006404334 0.007205569 0.009858831
-0.00629883 -0.019501068 0.007938137 0.03995499 0.0055374284 -0.02023718 -0.017918803 -0.013434725
0.0008528776 0.016936462 -0.009337883 0.022583723 -0.043976072 0.012999441 0.06546144 -0.001200915
-0.054811314 -0.029121812 0.037276994 0.059384413 -0.035115574 0.017204847 -0.028366724 0.03759852
0.042913165 -0.007909294 -0.0024309698 -0.028290773 -0.030247508 0.013948599 -0.038891334 -0.033035424
0.018328985 0.030282302 -0.007576417 0.004006844 -0.0047909864 -0.015565394 0.028720295 0.049036723
0.028747357 -0.0038215553 0.07836559 -0.041929714 0.016612716 -0.0016745017 -0.009943155 -0.024610937
0.0008140149 0.047582705 0.042140596 -0.023737513 -0.0209779 0.0044176895 -0.045083266 0.008748203
0.0382872 -0.016942205 -0.0138330795 0.012626472 0.010093434 0.007911937 0.008795592 0.020818157
0.029317979 0.031979974 0.006119872 -0.07549443 0.0063930727 0.017435018 -0.0069727893 -0.015919235
0.024469784 0.04810868 0.010392462 -0.039769437 0.051115848 0.0021504548 0.04029509 -0.08596277
-0.031306032 0.009449727 0.003993711 0.00036195197 0.022756804 -0.021032942 -0.03863797 0.04320432
-0.01939614 -0.083441176 0.06501792 0.002723638 -0.04229619 0.010274643 0.013684233 0.0052048336
0.003635958 -0.0141585 -0.045787025 0.027086517 0.02871868 -0.021225082 0.01229137 -0.0037524602
-0.001038587 0.0013346698 0.022103425 0.004337956 0.076368384 0.014478451 0.05437754 0.0033142776
00000000: 82bf c6bc d091 193d a712 24bc e9b3 7e3b
00000010: 3702 debc 15cb c9bd d380 97bd d8ea b3ba
00000020: 072f 843c 4928 093d 505f 3a3c 204c 0ebc
00000030: 6724 973c c4ff be3b 34f4 9f3c 7166 e9bc
00000040: 72a9 9c3c 4b9b 843c e8be e43c c587 e43b
00000050: b402 c03c 4d3a b1bc 7637 9abd 9ae6 663c
00000060: e9ca a93d b480 d8bc f7d0 b9bb f76c 04bd
00000070: 71e1 9e3b 56d3 4c3c c286 35bd 8f7a 083d
00000080: 090a ae3c ccf5 1ebb a7b7 c5bc 3d5c 4d3d
00000090: 6919 b63c 14c6 2f3c bb41 8e3c b08a a7bb
000000a0: 524a 97bd 4514 0bbb c1af 193c abe5 a7bd
000000b0: c75a b5bc 560a 02bd 3a87 debc fe61 bf3c
000000c0: 1f9d 103d 7113 aebb f0f0 e23c a0e0 bdbb
000000d0: 17f9 e43c 5e49 9b3c 0ddb cc3c 158d 2abd
000000e0: 41bc 673c 6656 d5bb 2912 823d cdff 6d3d
000000f0: 2e64 633c 81ed 47bc e4f6 003d b187 503d
00000100: c20c c4bb 9d10 c9bb a7a9 2c3d db82 3a3d
00000110: 28a4 b53b c2a9 a13c 8262 e03c 04a2 bb3c
00000120: 5a55 083c 19ac fe3c 2f35 d4ba 21c8 b5bc
00000130: 5c2a 273d 5eaa d4bc 38a1 efbb 29c3 c03b
00000140: bcb6 2fbd 2f74 34bd cd29 fd3c d6a3 2dbc
00000150: a8f0 4e3d 3a54 52bd 4ca0 ce3c 7c92 923c
00000160: d113 9abc b429 04bc 0f0b e23c 7484 053b
00000170: 809e fa3c 8a5c 71bd ccfc 00bc f274 273d
00000180: c0e0 bd3c b027 ffbc ac2f f93b 8a59 193d
00000190: 94b8 8fbc 3b88 17bc 7547 383c 3a19 203b
000001a0: 94a5 a4bc 0813 9d3c 1449 5b3d 85b2 45bd
000001b0: 0c38 003d aff7 033c 0d70 d13c a6d9 37bd
000001c0: 56e1 a1b9 93e5 9f3c 58d7 e63c f2cd 0e3d
000001d0: 7b91 173d 9e7c d43c 6bd2 f03c 7b1c 6c3d
000001e0: 46e7 0bbd 5c3c a7bc 88ee 14bd 2f9f e7bc
000001f0: c429 adbb 1138 093d d81a 7f3c 095c 36bd
00000200: b57f 02bd 906f 31bc e8ef efbc 7036 423c
00000210: 0b87 6abd 9032 c73c 2c9e 16bd 11a6 793c
00000220: 12c1 c2bc d6dc 4e3a aa99 1cbd 10d5 a7bc
00000230: 9b2a 95bc 73db d13b b21c ec3b ef86 213c
00000240: 6a66 cebb b4c0 9fbc f60e 023c d8a7 233d
00000250: 5173 b53b 71c8 a5bc 74ca 92bc 521d 5cbc
00000260: a693 5f3a 56be 8a3c ecfd 18bc 8001 b93c
00000270: 4120 34bd 9bfb 543c a610 863d 0568 9dba
00000280: d481 60bd de90 eebc c3af 183d 123d 733d
00000290: 59d5 0fbd 2ef1 8c3c 5561 e8bc e800 1a3d
000002a0: b7c5 2f3d fc95 01bc e850 1fbb 0dc2 e7bc
000002b0: 9fc9 f7bc aa88 643c 854c 1fbd 2750 07bd
000002c0: ab26 963c 9712 f83c 9843 f8bb d84b 833b
000002d0: b5fd 9cbb ff05 7fbc d346 eb3c bbda 483d
000002e0: 947f eb3c 0f73 7abb 237e a03d 7ebe 2bbd
000002f0: 6417 883c f47a dbba 9de8 22bc e09c c9bc
00000300: 9d63 553a 15e6 423d 9e9b 2c3d 2c75 c2bc
00000310: d8d9 abbc 44c2 903b 3ba9 38bd 9f54 0f3c
00000320: 0ad3 1c3d 61ca 8abc 24a4 62bc 43df 4e3c
00000330: ee5e 253c 12a1 013c 631b 103c d78a aa3c
00000340: 422c f03c 6ffd 023d 3589 c83b d39c 9abd
00000350: fb7c d13b e2d3 8e3c ff7b e4bb 0e69 82bc
00000360: db74 c83c 9b0d 453d 2545 2a3c 47e5 22bd
00000370: da5e 513d a5ee 0c3b 770c 253d 400d b0bd
00000380: c13a 00bd 07d3 1a3c addd 823b 5fc4 bd39
00000390: 7a6c ba3c 474d acbc d942 1ebd 03f7 303d
000003a0: a7e4 9ebc 35e3 aabd 1e28 853d 107f 323b
000003b0: c53e 2dbd fa56 283c d533 603c 4f8d aa3b
000003c0: 4149 6e3b 0ef9 67bc 2d8b 3bbd 8be4 dd3c
000003d0: 7043 eb3c 39e0 adbc be61 493c d6eb 75bb
000003e0: 3221 88ba 16f0 ae3a 3e12 b53c 6a25 8e3b
000003f0: 0767 9c3d 0637 6d3c fcba 5e3d 5a34 593b

action_model._continuous_distribution.mu.bias f4 [6]
0.019728113 -0.0020480666 0.016640615 -0.02018925 -0.0245836 0.0003376376
00000000: da9c a13c db38 06bb e651 883c ed63 a5bc
00000010: 8c63 c9bc f404 b139

onnx::Div_71 f4 [100]
0.20809652 0.09520241 0.036534876 0.18192464 0.19634695 0.08975577 0.036523927 0.18130535
0.2180699 0.09799623 0.036578596 0.18168075 0.18519185 0.08349122 0.036491152 0.1800122
0.22507219 0.098120436 0.03637064 0.18072112 0.1771349 0.07834505 0.03620556 0.17794688
0.22859384 0.09580371 0.03629383 0.17924576 0.1715882 0.07381413 0.03648015 0.17517108
0.22953662 0.0919445 0.03597334 0.1771905 0.16841103 0.069363035 0.036687482 0.17220522
0.22814126 0.0879829 0.036039956 0.17465241 0.1668569 0.06566085 0.036414556 0.16903046
0.22470689 0.083159536 0.03611738 0.17209727 0.16547488 0.061610635 0.036502123 0.1655437
0.21921317 0.07770618 0.036524042 0.16971757 0.16341744 0.057891067 0.03634874 0.16202244
0.21232562 0.07284726 0.036742054 0.16772777 0.16156448 0.055232532 0.036381647 0.15841633
0.20508179 0.069259904 0.036839698 0.1660827 0.15868129 0.051734455 0.036414534 0.15474138
0.1978268 0.06706107 0.036807142 0.16470662 0.15531293 0.049651634 0.03613945 0.15152851
0.19095545 0.06532124 0.037012633 0.16355124 0.15241602 0.04945033 0.036028784 0.14881833
0.18462972 0.06360342 0.036687672 0.16269974
00000000: 4117 553e 7bf9 c23d 98a5 153d 744a 3a3e
00000010: 2d0f 493e e0d1 b73d 1d9a 153d 1ca8 393e
00000020: b74d 5f3e 3fb2 c83d 70d3 153d 850a 3a3e
00000030: efa2 3d3e 72fd aa3d bf77 153d 1e55 383e
00000040: 5379 663e 5ef3 c83d 61f9 143d f50e 393e
00000050: da62 353e 5f73 a03d 484c 143d b537 363e
00000060: 8114 6a3e bc34 c43d d7a8 143d 338c 373e
00000070: d1b4 2f3e dd2b 973d 366c 153d 0c60 333e
00000080: a60b 6b3e 664d bc3d c858 133d 6d71 353e
00000090: f173 2c3e 350e 8e3d 9d45 163d 9156 303e
000000a0: dd9d 693e 6130 b43d a29e 133d 15d8 323e
000000b0: 89dc 2a3e 3279 863d 6e27 153d 5216 2d3e
000000c0: 9019 663e 8c4f aa3d d1ef 133d 443a 303e
000000d0: 3f72 293e 6f5b 7c3d 4083 153d 4a84 293e
000000e0: 6b79 603e 6b24 9f3d 3c9a 153d 71ca 2d3e
000000f0: e756 273e 2f1f 6d3d 6be2 143d 36e9 253e
00000100: e36b 593e f230 953d d67e 163d d4c0 2b3e
00000110: 2971 253e 823b 623d ec04 153d e437 223e
00000120: f600 523e 23d8 8d3d 39e5 163d 9511 2a3e
00000130: 597d 223e 82e7 533d 6827 153d 8674 1e3e
00000140: 1c93 4a3e 5057 893d 16c3 163d daa8 283e
00000150: 5a0a 1f3e 835f 4b3d f606 143d 4a2a 1b3e
00000160: d389 433e 24c7 853d 8f9a 173d fa79 273e
00000170: f212 1c3e 6e8c 4a3d eb92 133d d563 183e
00000180: 930f 3d3e 8342 823d d045 163d c39a 263e

onnx::Div_74 f4 [52]
0.4961383 0.059557077 0.31304276 0.29299244 0.4965801 0.05808348 0.3119239 0.2925281
0.49584985 0.060864422 0.31372628 0.2932569 0.49715406 0.05567775 0.31061724 0.29201892
0.49573362 0.06182317 0.31434032 0.2935531 0.49778003 0.0531388 0.30916816 0.29142544
0.49581176 0.06225255 0.31447127 0.29372153 0.4984179 0.05093529 0.3070947 0.29064673
0.49606425 0.06295023 0.31421518 0.29370618 0.49902505 0.0492006 0.3047677 0.28980204
0.4964878 0.06268512 0.31399634 0.29365477 0.4995075 0.047088347 0.30238304 0.28897506
0.4970114 0.062233705 0.31334943 0.2936184
00000000: d705 fe3e 1ff2 733d 2447 a03e 1b03 963e
00000010: bf3f fe3e f1e8 6d3d 7db4 9f3e 3ec6 953e
00000020: 08e0 fd3e f94c 793d bba0 a03e c525 963e
00000030: fa8a fe3e 5a0e 643d 3909 9f3e 8183 953e
00000040: ccd0 fd3e 4b3a 7d3d 37f1 a03e 984c 963e
00000050: 06dd fe3e 12a8 593d 4a4b 9e3e b735 953e
00000060: 0adb fd3e 88fc 7e3d 6102 a13e ab62 963e
00000070: a230 ff3e 86a1 503d 843b 9d3e a6cf 943e
00000080: 22fc fd3e 0dec 803d d0e0 a03e a860 963e
00000090: 3680 ff3e 9186 493d 830a 9c3e ef60 943e
000000a0: a633 fe3e 0e61 803d 21c4 a03e eb59 963e
000000b0: 72bf ff3e b6df 403d f3d1 9a3e 8af4 933e
000000c0: 4778 fe3e c5e8 7e3d 566f a03e 2755 963e

onnx::Div_77 f4 [5]
15.026841 557.37964 5.119929 1.4044751 0.43907782
00000000: f16d 7041 4c58 0b44 75d6 a340 d7c5 b33f
00000010: cfce e03e
