Assets/results/4/CoinChaser/CoinChaser-5256.onnx (onnx, 437518 bytes, 12 tensors)

network_body.observation_encoder.processors.0.normalizer.running_mean f4 [100]
0	0x3f733155	0.9499715
1	0x00000000	0.0
2	0x00000000	0.0
3	0x3e532348	0.20618927
4	0x3f7468fc	0.95472693
5	0x00000000	0.0
6	0x00000000	0.0
7	0x3e52513f	0.20538805
8	0x3f7282cd	0.94730836
9	0x00000000	0.0
10	0x00000000	0.0
11	0x3e5453df	0.2073512
12	0x3f756ec8	0.95872164
13	0x00000000	0.0
14	0x00000000	0.0
15	0x3e500df7	0.20317827
16	0x3f7250ee	0.9465474
17	0x00000000	0.0
18	0x00000000	0.0
19	0x3e552808	0.20816052
20	0x3f760463	0.96100444
21	0x00000000	0.0
22	0x00000000	0.0
23	0x3e4f50d0	0.20245671
24	0x3f723802	0.9461671
25	0x00000000	0.0
26	0x00000000	0.0
27	0x3e5729f8	0.21012104
28	0x3f772f93	0.9655697
29	0x00000000	0.0
30	0x00000000	0.0
31	0x3e4f6690	0.20253968
32	0x3f72f301	0.94902045
33	0x00000000	0.0
34	0x00000000	0.0
35	0x3e58241b	0.21107523
36	0x3f776dea	0.9665209
37	0x00000000	0.0
38	0x00000000	0.0
39	0x3e503083	0.20331006
40	0x3f737c21	0.9511128
41	0x00000000	0.0
42	0x00000000	0.0
43	0x3e58939a	0.21150056
44	0x3f77de1b	0.9682328
45	0x00000000	0.0
46	0x00000000	0.0
47	0x3e4fcbf0	0.2029264
48	0x3f73dfdc	0.9526346
49	0x00000000	0.0
50	0x00000000	0.0
51	0x3e5a5a97	0.2132362
52	0x3f780383	0.9688036
53	0x00000000	0.0
54	0x00000000	0.0
55	0x3e50bb9f	0.20384072
56	0x3f74a753	0.95567816
57	0x00000000	0.0
58	0x00000000	0.0
59	0x3e5b2b94	0.21403342
60	0x3f7841d8	0.9697547
61	0x00000000	0.0
62	0x00000000	0.0
63	0x3e4fd9e9	0.2029797
64	0x3f756ec9	0.9587217
65	0x00000000	0.0
66	0x00000000	0.0
67	0x3e5a9c7e	0.2134876
68	0x3f77ac3d	0.9674719
69	0x00000000	0.0
70	0x00000000	0.0
71	0x3e50c987	0.20389377
72	0x3f75c60e	0.9600533
73	0x00000000	0.0
74	0x00000000	0.0
75	0x3e5c0336	0.214856
76	0x3f77c52e	0.9678525
77	0x00000000	0.0
78	0x00000000	0.0
79	0x3e506fc2	0.20355132
80	0x3f754962	0.958151
81	0x00000000	0.0
82	0x00000000	0.0
83	0x3e5c84c1	0.21535017
84	0x3f77ea92	0.968423
85	0x00000000	0.0
86	0x00000000	0.0
87	0x3e51e917	0.20499073
88	0x3f756252	0.9585315
89	0x00000000	0.0
90	0x00000000	0.0
91	0x3e5dadf7	0.21648394
92	0x3f78673d	0.9703253
93	0x00000000	0.0
94	0x00000000	0.0
95	0x3e537f32	0.2065399
96	0x3f7699fa	0.963287
97	0x00000000	0.0
98	0x00000000	0.0
99	0x3e5ee9fb	0.21768944

network_body.observation_encoder.processors.1.normalizer.running_mean f4 [52]
0	0x3ecf8be8	0.40536427
1	0x00000000	0.0
2	0x3d092174	0.03347917
3	0x3eaa8a5f	0.33308694
4	0x3ed1e24c	0.40992963
5	0x00000000	0.0
6	0x3d0474ad	0.032337833
7	0x3eaa1aac	0.33223474
8	0x3ecedd60	0.4040327
9	0x00000000	0.0
10	0x3d06cb0f	0.032908496
11	0x3eaa9816	0.33319157
12	0x3ed406d0	0.41411448
13	0x00000000	0.0
14	0x3cfc71f1	0.03081605
15	0x3ea98a90	0.33113527
16	0x3ecec472	0.4038425
17	0x00000000	0.0
18	0x3cfe00e0	0.031006277
19	0x3eaa83c1	0.33303645
20	0x3ed64447	0.41848966
21	0x00000000	0.0
22	0x3d02e5c0	0.031957388
23	0x3ea9c529	0.33158234
24	0x3ecdfcfc	0.40232074
25	0x00000000	0.0
26	0x3d0156d3	0.031576943
27	0x3eab2951	0.3342996
28	0x3ed881b9	0.4228647
29	0x00000000	0.0
30	0x3cf4a753	0.029864943
31	0x3ea99d4a	0.33127815
32	0x3ecfbdc4	0.40574467
33	0x00000000	0.0
34	0x3cf63642	0.030055169
35	0x3eab9a46	0.3351614
36	0x3edb86a6	0.42876166
37	0x00000000	0.0
38	0x3ceb4dc4	0.028723605
39	0x3ea9c4ac	0.3315786
40	0x3ed19781	0.409359
41	0x00000000	0.0
42	0x3cf9541a	0.03043561
43	0x3eacd7a6	0.33758277
44	0x3edf083c	0.4356097
45	0x00000000	0.0
46	0x3cf18976	0.029484492
47	0x3eaaa5c6	0.333296
48	0x3ed33f5a	0.4125927
49	0x00000000	0.0
50	0x3cfe00e2	0.03100628
51	0x3eae3cd0	0.3403077

network_body.observation_encoder.processors.2.normalizer.running_mean f4 [5]
0	0x413d50bc	11.832211
1	0x4014f345	2.327348
2	0xbf1d75b5	-0.6150773
3	0x3f4d80fa	0.8027493
4	0x3efbdc5a	0.49191552

network_body._body_endoder.seq_layers.0.weight f4 [256, 157]
0	0x3db50db4	0.08840504
1	0x3d0dd4cc	0.034626767
2	0x3d889b17	0.06670206
3	0xbd22a79b	-0.039710622
4	0x3db9fc2e	0.090813026
5	0x3d2ec266	0.04266586
6	0xbd8d45e7	-0.068980984
7	0xbe038e39	-0.12847222
8	0xbd02b383	-0.031909477
9	0xbcb09e77	-0.021559937
10	0xbbcce5ad	-0.0062529654
11	0x3dc15905	0.09440807
12	0x3e8dd54f	0.27701804
13	0x3d900af4	0.07033339
14	0xbd8231f5	-0.06357185
15	0x3d7ca8bc	0.061684355
16	0x3d015592	0.031575747
17	0x3d0c2818	0.034217924
18	0xbb623262	-0.0034514894
19	0x3d082388	0.03323701
20	0xbd6e91c8	-0.058244497
21	0x3dd860d2	0.10565342
22	0x3d4f9ae5	0.05068483
23	0x3c5a5e0d	0.0133280875
24	0xbd471cd9	-0.048611496
25	0xbd6aeaf8	-0.05735299
26	0x3d35ec52	0.044414826
27	0x3e30c0d4	0.17261058
28	0xbb5a11e2	-0.003327482
29	0x3d8fce06	0.07021718
30	0xbdd364b6	-0.103219435
31	0x3d000232	0.031252094
32	0x3d2f75c3	0.042836916
33	0xbc65f5e1	-0.014035673
34	0x3e0e8783	0.13918881
35	0x3cceb114	0.025230922
36	0xbc02283a	-0.007944161
37	0x3d55d6a4	0.05220665
38	0xbc73ed11	-0.014888064
39	0xbd65512d	-0.05598562
40	0x3d538860	0.05164373
41	0x3e1f087a	0.15530577
42	0xbd05c8a6	-0.032662056
43	0x3d9ef0cc	0.07760772
44	0x3de4e827	0.11177092
45	0xbcb29815	-0.021801034
46	0x3cb31b45	0.021863589
47	0x3cd08039	0.025451766
48	0x3e2bd183	0.16779141
49	0x3ddda9e9	0.108234234
50	0x3dbfb2ba	0.09360261
51	0x3d7b9f84	0.061431423
52	0x3e033521	0.12813236
53	0xbe0521d6	-0.13001189
54	0x3e154e38	0.1458062
55	0x3d2df2f4	0.042468026
56	0x3ce478f2	0.027889702
57	0x3e04bf1c	0.12963527
58	0x3e060a10	0.13089776
59	0x3d46ce31	0.048536483
60	0x3c752610	0.014962688
61	0xbd8a02b0	-0.06738794
62	0xbc32ebb2	-0.010920452
63	0x3d66bed1	0.05633432
64	0x3de833a9	0.113379784
65	0x3d2cbfc7	0.04217508
66	0xbdb54bf7	-0.0885238
67	0x3dd43fd7	0.10363739
68	0x3d4bf0a0	0.049790025
69	0x3cbbd05f	0.022926508
70	0xbe098d5d	-0.13432832
71	0xbdef7cc2	-0.116937175
72	0x3c13315c	0.008983936
73	0x3b09b29b	0.0021010998
74	0x3dd55c46	0.104179904
75	0xbdd90204	-0.105960876
76	0xbd1585cf	-0.036504563
77	0xbddfe786	-0.109328315
78	0xbde4186d	-0.11137471
79	0x3cc1151a	0.023569632
80	0x3c86d68d	0.016459728
81	0x3de2821e	0.11059974
82	0xbdba2b71	-0.09090317
83	0x3cd947da	0.02652352
84	0xbd9a6468	-0.07538682
85	0x3d739e64	0.059477225
86	0xbde93619	-0.113872714
87	0x39e58a8a	0.00043781503
88	0x3bbb58d8	0.005717378
89	0x3cd30786	0.025760423
90	0x3d168d64	0.036755934
91	0xbd8327c8	-0.06404072
92	0x3d27ebc9	0.040996347
93	0xbd29d4a0	-0.04146254
94	0xbda5d9b7	-0.080981664
95	0x3d1ac934	0.03778954
96	0xbd8e23ad	-0.06940398
97	0xb9ce05b8	-0.00039295643
98	0x3b58f181	0.0033102932
99	0x3cb2f372	0.0218446
100	0xbd354a81	-0.044260506
101	0x3d8ad2a8	0.06778461
102	0x3e08ab54	0.13346606
103	0xbde2eae4	-0.11079958
104	0x3cc65af8	0.0242133
105	0xbbe1df04	-0.0068930406
106	0xbc589b89	-0.013220676
107	0x3df3ebf8	0.11910242
108	0x3d813ac0	0.06310034
109	0xbd7ae005	-0.061248798
110	0x3bb06623	0.0053832694
111	0x3c7cdcf4	0.015433539
112	0xbd73f609	-0.05956081
113	0x3deea479	0.116524644
114	0x3d71da3a	0.059046008
115	0xbd42ef9c	-0.04759179
116	0x3db308f9	0.08741946
117	0xbd8fffb9	-0.07031197
118	0xbd3cfbc2	-0.046138532
119	0x3d19831d	0.037478555
120	0xbd98e8f7	-0.074663095
121	0xbd63b2b5	-0.05559035
122	0xbe4cec88	-0.20012105
123	0xbcdcebbb	-0.026967874
124	0xbd494952	-0.04914219
125	0x3cdf6687	0.027270569
126	0x3cf84da4	0.03031046
127	0x3d111e1c	0.035429105
128	0x3dcc7548	0.09983307
129	0x3d8db806	0.06919865
130	0xbd12bab9	-0.035822604
131	0xbd980333	-0.07422485
132	0x3d3f2a39	0.046671126
133	0x3bb016f8	0.005373832
134	0xbd896d61	-0.067103155
135	0xbd5ad593	-0.053426336
136	0xbdc6c7f0	-0.09706104
137	0xbdf5c07b	-0.11999603
138	0x3cb270df	0.021782337
139	0xba47d73e	-0.0007623321
140	0x3cbf40ee	0.02334639
141	0xbc81386c	-0.015773974
142	0xbe039a4f	-0.12851833
143	0x3c35fafb	0.011107202
144	0x3e2c50b0	0.16827655
145	0xbd882bed	-0.06649003
146	0xbdc68955	-0.09694163
147	0x3c6fca2f	0.014635607
148	0x3de1d448	0.110268176
149	0xbdcb51da	-0.09927721
150	0xbd13ef7c	-0.036117062
151	0x3e158fad	0.14605589
152	0xbdc0159c	-0.09379122
153	0x3c95c446	0.018282067
154	0x3d21995a	0.039452888
155	0x3d2b160b	0.04176907
156	0xbd995ab7	-0.074880056
157	0xbd9f1599	-0.07767791
158	0xbe1c4f71	-0.1526468
159	0xbddfccf0	-0.109277606
160	0x3db48497	0.08814352
161	0x3d84b637	0.06480067
162	0xbd3a36c8	-0.0454624
163	0x3c6beb78	0.014399402
164	0x3dbc4646	0.09193091
165	0x3c14ee87	0.0090900725
166	0xbc9f554d	-0.019449854
167	0xbd0ba42c	-0.034092113
168	0x3e1fd094	0.1560691
169	0x3ce9e4d2	0.028551493
170	0x3acb11af	0.0015492941
171	0xbd90ee97	-0.070767574
172	0xbd58d4cf	-0.052937325
173	0x3da92914	0.08259788
174	0x3dcd2d3f	0.10018396
175	0xbdde4c08	-0.108543456
176	0x3c3ac60e	0.011399759
177	0x3d9fa1c3	0.077945255
178	0x3d06e2c5	0.032931108
179	0x3d462137	0.04837152
180	0x3cfcbd7a	0.030852068
181	0x3dc13397	0.09433668
182	0x3db0e400	0.086372375
183	0x3c4fb1b7	0.012676648
184	0xbe31be1a	-0.17357674
185	0x3c9dd257	0.019265337
186	0xbd9c0050	-0.07617247
187	0xbd76a358	-0.06021437
188	0x3dd4ed8e	0.103968725
189	0x3cf725b5	0.030169347
190	0x3d787523	0.060658585
191	0x3d2d218b	0.042268317
192	0xbc5c0d22	-0.0134308655
193	0x3d36d5cd	0.04463749
194	0x3d17e544	0.03708388
195	0xbdb45d94	-0.08806911
196	0xbe0bec87	-0.13664447
197	0xbd86754a	-0.0656534
198	0xbcf48360	-0.0298478
199	0xbc8294b1	-0.015940042
200	0xbdf2d6b1	-0.118573554
201	0x3df1dc0d	0.118095495
202	0xbda6a728	-0.08137351
203	0xbb5a4a95	-0.0033308615
204	0x3d955db8	0.07293266
205	0xbcc201f1	-0.023682566
206	0xbb78384f	-0.003787536
207	0xbd26d53b	-0.040730696
208	0x3ddf37f9	0.10899348
209	0x3d3b63da	0.045749523
210	0x3c3d2210	0.011543766
211	0x3ce16005	0.027511606
212	0x3d593df4	0.0530376
213	0x3cb43a0c	0.022000335
214	0xbd0cfb48	-0.034419328
215	0xbcd39a0b	-0.02583029
216	0xbd7f914f	-0.062394436
217	0xbddaf970	-0.10692108
218	0xbdb61ffa	-0.08892818
219	0xbe1fecf7	-0.15617739
220	0xbdaee3d2	-0.08539547
221	0x3db8faf1	0.09032238
222	0x3e56f2f7	0.20991121
223	0xbd3f76e9	-0.04674426
224	0x3daf3b3a	0.085562184
225	0xbe5f8354	-0.21827441
226	0x3dfec0ee	0.12439142
227	0x3d4e06f3	0.050299596
228	0xbdcff2ae	-0.10153709
229	0x3cb0f2d0	0.021600157
230	0xbcfb7fb3	-0.03070054
231	0x3d53aee7	0.05168047
232	0xbdf34926	-0.11879186
233	0x3c8b2c3e	0.01698887
234	0x3c840fa0	0.016120732
235	0xbddb5b7b	-0.10710808
236	0xbd0eded2	-0.034880467
237	0xbd1ac974	-0.037789777
238	0x3d8c24f5	0.068429865
239	0xbd43ad6c	-0.04777281
240	0xbd60e403	-0.05490495
241	0x3d384b0d	0.04499345
242	0x3d856239	0.06512875
243	0x3d8f6407	0.070015006
244	0x3e5c7aa7	0.21531163
245	0xbc958d78	-0.018255934
246	0x3bd8a03b	0.006610898
247	0x3cca5eb3	0.02470336
248	0x3d1eb510	0.038746893
249	0xbdf52950	-0.1197077
250	0xbd8dd57a	-0.06925483
251	0xbdfe3358	-0.12412137
252	0xbc0495e2	-0.0080923755
253	0x3c0f3022	0.008739503
254	0xbc9737a9	-0.018459158
255	0xbddd7715	-0.10813729

network_body._body_endoder.seq_layers.0.bias f4 [256]
0	0x00000000	0.0
1	0x00000000	0.0
2	0x00000000	0.0
3	0x00000000	0.0
4	0x00000000	0.0
5	0x00000000	0.0
6	0x00000000	0.0
7	0x00000000	0.0
8	0x00000000	0.0
9	0x00000000	0.0
10	0x00000000	0.0
11	0x00000000	0.0
12	0x00000000	0.0
13	0x00000000	0.0
14	0x00000000	0.0
15	0x00000000	0.0
16	0x00000000	0.0
17	0x00000000	0.0
18	0x00000000	0.0
19	0x00000000	0.0
20	0x00000000	0.0
21	0x00000000	0.0
22	0x00000000	0.0
23	0x00000000	0.0
24	0x00000000	0.0
25	0x00000000	0.0
26	0x00000000	0.0
27	0x00000000	0.0
28	0x00000000	0.0
29	0x00000000	0.0
30	0x00000000	0.0
31	0x00000000	0.0
32	0x00000000	0.0
33	0x00000000	0.0
34	0x00000000	0.0
35	0x00000000	0.0
36	0x00000000	0.0
37	0x00000000	0.0
38	0x00000000	0.0
39	0x00000000	0.0
40	0x00000000	0.0
41	0x00000000	0.0
42	0x00000000	0.0
43	0x00000000	0.0
44	0x00000000	0.0
45	0x00000000	0.0
46	0x00000000	0.0
47	0x00000000	0.0
48	0x00000000	0.0
49	0x00000000	0.0
50	0x00000000	0.0
51	0x00000000	0.0
52	0x00000000	0.0
53	0x00000000	0.0
54	0x00000000	0.0
55	0x00000000	0.0
56	0x00000000	0.0
57	0x00000000	0.0
58	0x00000000	0.0
59	0x00000000	0.0
60	0x00000000	0.0
61	0x00000000	0.0
62	0x00000000	0.0
63	0x00000000	0.0
64	0x00000000	0.0
65	0x00000000	0.0
66	0x00000000	0.0
67	0x00000000	0.0
68	0x00000000	0.0
69	0x00000000	0.0
70	0x00000000	0.0
71	0x00000000	0.0
72	0x00000000	0.0
73	0x00000000	0.0
74	0x00000000	0.0
75	0x00000000	0.0
76	0x00000000	0.0
77	0x00000000	0.0
78	0x00000000	0.0
79	0x00000000	0.0
80	0x00000000	0.0
81	0x00000000	0.0
82	0x00000000	0.0
83	0x00000000	0.0
84	0x00000000	0.0
85	0x00000000	0.0
86	0x00000000	0.0
87	0x00000000	0.0
88	0x00000000	0.0
89	0x00000000	0.0
90	0x00000000	0.0
91	0x00000000	0.0
92	0x00000000	0.0
93	0x00000000	0.0
94	0x00000000	0.0
95	0x00000000	0.0
96	0x00000000	0.0
97	0x00000000	0.0
98	0x00000000	0.0
99	0x00000000	0.0
100	0x00000000	0.0
101	0x00000000	0.0
102	0x00000000	0.0
103	0x00000000	0.0
104	0x00000000	0.0
105	0x00000000	0.0
106	0x00000000	0.0
107	0x00000000	0.0
108	0x00000000	0.0
109	0x00000000	0.0
110	0x00000000	0.0
111	0x00000000	0.0
112	0x00000000	0.0
113	0x00000000	0.0
114	0x00000000	0.0
115	0x00000000	0.0
116	0x00000000	0.0
117	0x00000000	0.0
118	0x00000000	0.0
119	0x00000000	0.0
120	0x00000000	0.0
121	0x00000000	0.0
122	0x00000000	0.0
123	0x00000000	0.0
124	0x00000000	0.0
125	0x00000000	0.0
126	0x00000000	0.0
127	0x00000000	0.0
128	0x00000000	0.0
129	0x00000000	0.0
130	0x00000000	0.0
131	0x00000000	0.0
132	0x00000000	0.0
133	0x00000000	0.0
134	0x00000000	0.0
135	0x00000000	0.0
136	0x00000000	0.0
137	0x00000000	0.0
138	0x00000000	0.0
139	0x00000000	0.0
140	0x00000000	0.0
141	0x00000000	0.0
142	0x00000000	0.0
143	0x00000000	0.0
144	0x00000000	0.0
145	0x00000000	0.0
146	0x00000000	0.0
147	0x00000000	0.0
148	0x00000000	0.0
149	0x00000000	0.0
150	0x00000000	0.0
151	0x00000000	0.0
152	0x00000000	0.0
153	0x00000000	0.0
154	0x00000000	0.0
155	0x00000000	0.0
156	0x00000000	0.0
157	0x00000000	0.0
158	0x00000000	0.0
159	0x00000000	0.0
160	0x00000000	0.0
161	0x00000000	0.0
162	0x00000000	0.0
163	0x00000000	0.0
164	0x00000000	0.0
165	0x00000000	0.0
166	0x00000000	0.0
167	0x00000000	0.0
168	0x00000000	0.0
169	0x00000000	0.0
170	0x00000000	0.0
171	0x00000000	0.0
172	0x00000000	0.0
173	0x00000000	0.0
174	0x00000000	0.0
175	0x00000000	0.0
176	0x00000000	0.0
177	0x00000000	0.0
178	0x00000000	0.0
179	0x00000000	0.0
180	0x00000000	0.0
181	0x00000000	0.0
182	0x00000000	0.0
183	0x00000000	0.0
184	0x00000000	0.0
185	0x00000000	0.0
186	0x00000000	0.0
187	0x00000000	0.0
188	0x00000000	0.0
189	0x00000000	0.0
190	0x00000000	0.0
191	0x00000000	0.0
192	0x00000000	0.0
193	0x00000000	0.0
194	0x00000000	0.0
195	0x00000000	0.0
196	0x00000000	0.0
197	0x00000000	0.0
198	0x00000000	0.0
199	0x00000000	0.0
200	0x00000000	0.0
201	0x00000000	0.0
202	0x00000000	0.0
203	0x00000000	0.0
204	0x00000000	0.0
205	0x00000000	0.0
206	0x00000000	0.0
207	0x00000000	0.0
208	0x00000000	0.0
209	0x00000000	0.0
210	0x00000000	0.0
211	0x00000000	0.0
212	0x00000000	0.0
213	0x00000000	0.0
214	0x00000000	0.0
215	0x00000000	0.0
216	0x00000000	0.0
217	0x00000000	0.0
218	0x00000000	0.0
219	0x00000000	0.0
220	0x00000000	0.0
221	0x00000000	0.0
222	0x00000000	0.0
223	0x00000000	0.0
224	0x00000000	0.0
225	0x00000000	0.0
226	0x00000000	0.0
227	0x00000000	0.0
228	0x00000000	0.0
229	0x00000000	0.0
230	0x00000000	0.0
231	0x00000000	0.0
232	0x00000000	0.0
233	0x00000000	0.0
234	0x00000000	0.0
235	0x00000000	0.0
236	0x00000000	0.0
237	0x00000000	0.0
238	0x00000000	0.0
239	0x00000000	0.0
240	0x00000000	0.0
241	0x00000000	0.0
242	0x00000000	0.0
243	0x00000000	0.0
244	0x00000000	0.0
245	0x00000000	0.0
246	0x00000000	0.0
247	0x00000000	0.0
248	0x00000000	0.0
249	0x00000000	0.0
250	0x00000000	0.0
251	0x00000000	0.0
252	0x00000000	0.0
253	0x00000000	0.0
254	0x00000000	0.0
255	0x00000000	0.0

network_body._body_endoder.seq_layers.2.weight f4 [256, 256]
0	0xbdc31fb6	-0.09527533
1	0xbd13eea2	-0.03611625
2	0x3dd5239f	0.10407185
3	0xbd93b85a	-0.07212897
4	0xbdbd17de	-0.09233068
5	0xbd8628e6	-0.065507695
6	0xbba50d7c	-0.005037008
7	0xbdb39715	-0.08769051
8	0xbd70302f	-0.0586397
9	0xbcca19dd	-0.024670536
10	0xbdb99890	-0.09062302
11	0x3d9ac4c8	0.07557064
12	0xbd2ce3c9	-0.04220942
13	0x3d85bdb7	0.06530326
14	0xbbd599d0	-0.00651858
15	0xbd110531	-0.03540534
16	0x3d721e5c	0.059110984
17	0xbced645f	-0.028978525
18	0x3cd8894f	0.026432661
19	0x3cf550b8	0.029945716
20	0x3dbe8054	0.093018204
21	0x391cc2b2	0.00014949849
22	0x3cd46673	0.025927758
23	0x3d25e4bb	0.040501337
24	0xbd0ede69	-0.034880076
25	0xbd6f1763	-0.058371913
26	0x3cae3f94	0.02127055
27	0xbd186cb8	-0.037213057
28	0xbd893e67	-0.067013554
29	0x3d4474c3	0.047962915
30	0xbe02dfd2	-0.12780693
31	0xbd9f6bb6	-0.07784216
32	0x3b9af2c0	0.004728645
33	0xbaa507eb	-0.0012590861
34	0x3d95812a	0.07300027
35	0x3e35f40b	0.17768876
36	0xbca963dc	-0.0206775
37	0xbd07f422	-0.033191808
38	0x3c0f22f0	0.008736357
39	0x3df0c248	0.11755806
40	0xbd111e4f	-0.035429295
41	0x3d74183a	0.059593417
42	0xbe0cad07	-0.1373788
43	0xbd400302	-0.04687787
44	0xbde425f4	-0.111400515
45	0x3d1bda84	0.03805019
46	0xbbce95a8	-0.0063044615
47	0xbe1349e6	-0.14383659
48	0x3d18b3a2	0.037280686
49	0x3dcec149	0.1009546
50	0x3da50667	0.08057862
51	0xbdac6d92	-0.084193364
52	0x3db4021d	0.087894656
53	0x3c5d45b4	0.013505388
54	0x3cd0cf94	0.025489606
55	0x3c68da36	0.014212182
56	0x3c61fa27	0.013792551
57	0xbda2b84b	-0.07945307
58	0xbd8ac774	-0.06776324
59	0xbd289c89	-0.04116491
60	0x3b9c7b5b	0.0047754473
61	0xbdcb38ed	-0.09922967
62	0xbce85a9c	-0.028363518
63	0xbce87f4b	-0.02838101
64	0xbd8b4c92	-0.06801714
65	0x3d1e30ea	0.038620867
66	0x3d97f8f6	0.074205324
67	0xbd9b9bba	-0.07598062
68	0x3cf61aa2	0.030041996
69	0x3d9291ef	0.07156741
70	0xbdd8aa1c	-0.10579321
71	0x3cb501d6	0.022095602
72	0x3c85d783	0.016338116
73	0x3c865941	0.016399981
74	0xbcf1b2da	-0.029504228
75	0x3cc6d3f8	0.024270996
76	0x3dcf24d1	0.10114444
77	0x3e1c9dcd	0.15294571
78	0x3cc31737	0.02381478
79	0x3d4e3f16	0.050353132
80	0x3da27dea	0.079341725
81	0x3d1c8832	0.038215823
82	0xbc4998fa	-0.012304539
83	0x3d7cc73f	0.061713453
84	0x3d47949e	0.048725717
85	0x3d7a4fb6	0.061111175
86	0xbb4603fd	-0.003021478
87	0x3c151faf	0.009101792
88	0xbbe968fe	-0.0071231117
89	0x3cd2f451	0.025751265
90	0x3d89988f	0.06718551
91	0xbca6402f	-0.020294277
92	0x3d451c0c	0.04812245
93	0x3c1789bf	0.00924915
94	0x3c7ce4ea	0.015435437
95	0x3b62b050	0.0034589954
96	0xbba05d59	-0.0048939404
97	0x3cd20382	0.025636438
98	0xbddf1338	-0.108923376
99	0xbce2bbaf	-0.027677385
100	0x3d2c8e1e	0.04212772
101	0x3d93f0ed	0.07223687
102	0x3c8fd623	0.017558163
103	0x3d4bb539	0.049733374
104	0xbde21ad0	-0.1104027
105	0xbc6724c5	-0.014107888
106	0x3babf2e7	0.005247462
107	0xbdc07f76	-0.09399311
108	0x3b3df1e4	0.002898329
109	0x3da03062	0.07821728
110	0xbdd4aa60	-0.10384059
111	0xbba63c8d	-0.005073136
112	0xbd64d7ee	-0.05586999
113	0x3ba50c75	0.0050368854
114	0x3ca99a1d	0.02070337
115	0x3d9bd2bc	0.07608554
116	0xbdaba1ec	-0.083804935
117	0x3bc9b9cb	0.0061561815
118	0xbd83bc90	-0.0643245
119	0x3b859f62	0.004077838
120	0xbd3eedf5	-0.046613652
121	0x3c39aaef	0.011332258
122	0xbdb7610f	-0.08954059
123	0xbd59d8aa	-0.053185143
124	0xbc94d5a2	-0.018168274
125	0x3d4faf64	0.050704375
126	0x3d763ec8	0.060118467
127	0x3d906603	0.07050707
128	0x3b7fac8a	0.0039012753
129	0xbd99f16f	-0.07516753
130	0xbdb11536	-0.08646624
131	0x3dd65731	0.10465849
132	0xbd938b73	-0.07204332
133	0x3d8466bd	0.06464908
134	0x3d8856c7	0.066571765
135	0x3da07dbc	0.07836482
136	0x3d18ca7f	0.03730249
137	0x3cd84611	0.026400598
138	0x3ce92e0d	0.028464342
139	0x3cf57b30	0.029965967
140	0xbc8226c0	-0.015887618
141	0x3cf69698	0.030101106
142	0xbd862eec	-0.065519184
143	0xbe1729e5	-0.14762075
144	0x3daf9d25	0.08574895
145	0xbbfbad99	-0.0076806066
146	0xbd6a29eb	-0.057168882
147	0xbc0ec905	-0.008714919
148	0x3d128205	0.035768528
149	0xbc9163d1	-0.017747791
150	0xbdc3749f	-0.09543728
151	0xba386253	-0.00070336944
152	0xbbf105e7	-0.00735544
153	0x3c755322	0.014973434
154	0x3d00f06b	0.03147928
155	0x3d306e3f	0.04307389
156	0x3c207a27	0.009794748
157	0xbd268a36	-0.040659152
158	0x3cd2f89d	0.025753314
159	0x3d9949db	0.0748479
160	0xbda5e915	-0.081010975
161	0xbc5f5dd7	-0.013633213
162	0x3d982d1f	0.07430481
163	0x3d1e1166	0.03859081
164	0x3c5261d3	0.012840706
165	0xbcbb42bc	-0.02285897
166	0x3d46a8de	0.048500888
167	0xbdb2fac1	-0.08739234
168	0xbcb65d8e	-0.022261407
169	0x3bbe3646	0.0058048097
170	0x3bcab0ba	0.006185618
171	0xbc879c62	-0.016554061
172	0x3d1c263f	0.03812241
173	0x3c48b349	0.012249776
174	0xbd653828	-0.055961758
175	0x3bdc0eaf	0.0067156176
176	0xbd0d0937	-0.034432616
177	0x3d50d2c8	0.050982267
178	0xbad2f1f3	-0.0016093835
179	0x3d9dbe5a	0.07702322
180	0xbddefbee	-0.108878955
181	0x3d7775af	0.060414966
182	0xbd62dd38	-0.055386752
183	0xbd5c16e8	-0.053732783
184	0xbd7f480d	-0.062324572
185	0x3d51ef39	0.05125353
186	0x3bbd859a	0.005783749
187	0x3a93302f	0.001122957
188	0xbd09ea24	-0.03367056
189	0xbd395b85	-0.045253295
190	0xbbedf3ba	-0.0072617205
191	0x3cc0d4b2	0.023538921
192	0xbced3b2c	-0.02895888
193	0xbe049465	-0.12947233
194	0x3d17ce9b	0.03706227
195	0xbd9bd1d2	-0.076083794
196	0x3c1b0db3	0.009463715
197	0x3d5ea465	0.054355998
198	0x3db8c910	0.09022725
199	0x3d89ef77	0.067351274
200	0x3df9c106	0.121950194
201	0xbcbf69ef	-0.023365943
202	0xbe0adaee	-0.13560078
203	0x3d6dfcea	0.058102526
204	0x3c9f5040	0.019447446
205	0x3db094c1	0.086221226
206	0x3d2d6b8c	0.042338893
207	0xbcb68eaa	-0.022284824
208	0xbd3e07cd	-0.04639416
209	0x3c978f8a	0.018501062
210	0xbda4cf3c	-0.08047339
211	0xbb7a7069	-0.0038213974
212	0xbc3ea3a6	-0.0116356965
213	0xbd9d76b5	-0.07688657
214	0xbd67791c	-0.056511983
215	0x3d04e417	0.032444086
216	0x3d3bd664	0.045858756
217	0x3d0db27c	0.034594044
218	0xbda47a23	-0.08031108
219	0x3e19e7ba	0.15029803
220	0xbd067d2b	-0.032834213
221	0xbb7ff456	-0.0039055548
222	0x3de9ae2e	0.11410175
223	0x3bffc63e	0.0078056147
224	0x3d824273	0.063603304
225	0x3c29ad03	0.010356191
226	0xbd8e26a0	-0.06940961
227	0x3d56ac9f	0.052410718
228	0x3d31e914	0.04343517
229	0xbe01e1a4	-0.12683731
230	0xbd9fcff5	-0.078033365
231	0xbdd39b6d	-0.103323795
232	0x3c9dcf83	0.019263988
233	0xbe032432	-0.12806776
234	0xbd57756c	-0.052602217
235	0x3cb4a847	0.022052897
236	0xbd9e7b79	-0.07738394
237	0xbd8f1a2f	-0.06987416
238	0xbd127d81	-0.03576422
239	0x3da39b0c	0.07988557
240	0xbdd64719	-0.104627796
241	0x3dba003b	0.09082075
242	0x3d078e89	0.033094916
243	0x3dab9729	0.08378441
244	0x3db65ea3	0.08904769
245	0xbdc659a1	-0.09685064
246	0x3d41e253	0.04733498
247	0xbd5d9f26	-0.054106854
248	0x3c97aae9	0.018514114
249	0x3c443ea0	0.011977822
250	0xbd8f77d5	-0.07005278
251	0x3d870691	0.06593049
252	0x3da32290	0.07965577
253	0xbce02ff8	-0.027366623
254	0x3cfe6783	0.031055218
255	0xbd601926	-0.054711483

action_model._continuous_distribution.log_sigma f4 [1, 5]
0	0x00000000	0.0
1	0x00000000	0.0
2	0x00000000	0.0
3	0x00000000	0.0
4	0x00000000	0.0

action_model._continuous_distribution.mu.weight f4 [5, 256]
0	0xbc1a5f63	-0.009422156
1	0xbb0fb0ec	-0.0021925522
2	0x3bcda9e5	0.0062763565
3	0x3c616710	0.013757482
4	0x3c0241a7	0.007950223
5	0x3b14ab47	0.0022685097
6	0x3cae0a6b	0.021245202
7	0x39b60be8	0.00034722616
8	0x3c441092	0.011966841
9	0x3b709390	0.0036709048
10	0x3c3ca26b	0.011513333
11	0xbbf8d5f8	-0.0075938664
12	0x3c936d8d	0.017996574
13	0x3c5f0a72	0.01361333
14	0xbc1b7cab	-0.009490172
15	0xbc8120fe	-0.015762802
16	0x3c169957	0.0091918325
17	0xbc4cba22	-0.012495549
18	0x3a1ca0eb	0.00059749064
19	0x3cb50007	0.02209474
20	0x3c0674b3	0.008206534
21	0xbc2aa576	-0.0104154255
22	0x3ca754a7	0.020426108
23	0x3aee482a	0.0018179466
24	0x3c2299c2	0.009924354
25	0x3b30ced9	0.002697876
26	0x3c25dc95	0.010123392
27	0xbba4a2f2	-0.0050243074
28	0x3b097e6a	0.002097989
29	0xba908d51	-0.0011028444
30	0xbb18f9bf	-0.002334222
31	0xba71d18b	-0.0009224645
32	0xbb99b043	-0.0046902015
33	0xbb93642f	-0.004498027
34	0xbc54dd6b	-0.012992243
35	0xbb84ff43	-0.00405875
36	0xbbcc7a2a	-0.006240149
37	0xbaaa2a3f	-0.0012982561
38	0xbb97e4a1	-0.004635409
39	0x3ba632de	0.005071982
40	0x3cad7790	0.021175176
41	0x3ceb8418	0.02874951
42	0xbb25fced	-0.0025327757
43	0x376ac650	1.399366e-05
44	0xbc4a0253	-0.012329656
45	0xbca90bbb	-0.020635476
46	0x3c76ae75	0.015056242
47	0x3a39cd1c	0.00070877536
48	0x3c6cf9cd	0.014463854
49	0x3b6e73d7	0.0036384964
50	0x3b3b6754	0.0028595524
51	0x3bdd9685	0.006762328
52	0x3bc4d6bb	0.006007043
53	0xbc517485	-0.012784128
54	0x3c2e258c	0.010629069
55	0x3bfa267f	0.0076339836
56	0xbbfca220	-0.0077097565
57	0xbc6d291f	-0.014475136
58	0xbadb6f35	-0.0016741516
59	0xbc51e7a2	-0.012811573
60	0x3b7c2ac5	0.003847764
61	0x3a147baf	0.0005664182
62	0x3cd95420	0.026529372
63	0x3c883f08	0.016631618
64	0x3acbf9a0	0.0015562065
65	0x3bead6ea	0.007166733
66	0xbb57c902	-0.0032926206
67	0xbc1774ee	-0.009244187
68	0xbc119c7b	-0.0088874055
69	0x3b2c297e	0.0026269848
70	0x3c49493b	0.012285526
71	0xbc5b813f	-0.013397514
72	0x3bb97aef	0.005660407
73	0x3c07add3	0.008281189
74	0x3b9b5662	0.0047405222
75	0x3c26118b	0.0101360185
76	0x3ca23962	0.019802753
77	0xbbf1e568	-0.0073820837
78	0xbaf24cb7	-0.0018485998
79	0x3d120a5d	0.035654414
80	0xbbccb7ff	-0.00624752
81	0xbc86503e	-0.016395684
82	0x3c18edd9	0.009334051
83	0xbc4b685b	-0.012415017
84	0x3c38cb65	0.011278962
85	0xbb8a63a3	-0.0042233034
86	0xbcb1ac31	-0.021688553
87	0x3c4ebdc5	0.012618487
88	0x3ae7116f	0.0017629097
89	0x3b335e70	0.0027369522
90	0x3c957f0d	0.01824906
91	0xbc34c6d1	-0.01103373
92	0xbbc910db	-0.0061360425
93	0xbc41d09f	-0.011829524
94	0x39f5a66d	0.00046854038
95	0xbc80e78e	-0.015735414
96	0xbb2b74df	-0.002616219
97	0xbc886583	-0.016649967
98	0x3cd25142	0.025673512
99	0x3bb7a5d6	0.005604486
100	0x3cb4cbc0	0.022069812
101	0xbb916fe5	-0.0044383877
102	0xbc9c0e3b	-0.019049754
103	0x3c744b43	0.014910522
104	0x3bb21b78	0.0054354034
105	0x3c1c651c	0.009545591
106	0x3c1ea52b	0.009682934
107	0x3c032637	0.008004717
108	0xbcc69ebc	-0.024245612
109	0x3b6e2ee8	0.0036343876
110	0x3cef5e78	0.02921985
111	0x3b8966f5	0.0041931816
112	0x3c6682a8	0.014069237
113	0x3c370f17	0.011173031
114	0xbc09f3eb	-0.008419971
115	0x3bc2047e	0.0059209457
116	0x3a06afa1	0.0005137865
117	0xbc34a120	-0.011024743
118	0xbc5b253f	-0.013375579
119	0x3c0a42dc	0.008438792
120	0x3c84d791	0.016216071
121	0xbc4568be	-0.012048898
122	0xbc115fef	-0.00887297
123	0x3b13c120	0.0022545531
124	0x3b00b74b	0.00196405
125	0x3ba9cc58	0.0051818304
126	0x3c85112f	0.016243545
127	0x3ab005a7	0.0013429419
128	0xbcb1ad8c	-0.021689199
129	0xbc398582	-0.011323335
130	0x3ac6aafb	0.0015157157
131	0x3a90ac89	0.0011037748
132	0x3aa8d143	0.0012879748
133	0xbd120c7a	-0.03565643
134	0xbcce968f	-0.025218276
135	0x3ab70ad8	0.0013965024
136	0xbce1f730	-0.027583688
137	0xbba2f9d6	-0.0049736304
138	0x3b1bc830	0.0023770444
139	0x3c92c061	0.017913999
140	0x3c197feb	0.009368877
141	0xbc9b1a6a	-0.018933494
142	0x3c839f9c	0.016067319
143	0x3c064faf	0.008197709
144	0x3bc97ed5	0.0061491528
145	0xba4fcf2a	-0.0007927293
146	0x3cca64fc	0.024706356
147	0x3c840fd3	0.016120827
148	0xbc984825	-0.018589089
149	0xbd0d6ef7	-0.034529652
150	0x3b5479f8	0.0032421332
151	0xbbd2fdd5	-0.0064389505
152	0x3c1edf3d	0.009696779
153	0xba0f197f	-0.00054588163
154	0x3c89acc3	0.016806012
155	0x3c8d2be0	0.017232835
156	0xbc006ec1	-0.007838906
157	0x3b0f039a	0.0021822215
158	0x3b51d54b	0.0032018002
159	0xb9e807d5	-0.00044256324
160	0xbc91ba82	-0.01778913
161	0x3c82cf7e	0.01596808
162	0x3b9e80bf	0.004837125
163	0xbc3c840d	-0.011506093
164	0x3b2ccebc	0.002636834
165	0xbbb25100	-0.005441785
166	0xbcba35e7	-0.02273078
167	0xbc3373eb	-0.01095293
168	0x3bad34e7	0.0052858475
169	0x3b8677aa	0.0041036205
170	0xbc175dd2	-0.009238677
171	0x3ba33d48	0.0049816705
172	0xbc1402eb	-0.009033899
173	0xbc980684	-0.018557794
174	0xbbde6077	-0.006786402
175	0x3c349a1c	0.011023071
176	0xbcb3537b	-0.021890393
177	0x3ad710e0	0.0016408227
178	0x3ae52908	0.0017483542
179	0xbba4cb4b	-0.005029117
180	0x3ca6a5a7	0.020342661
181	0x3b88c30f	0.0041736434
182	0xbb41895f	-0.0029531342
183	0xbb31de8f	-0.0027140712
184	0xbc06c07b	-0.008224602
185	0xbb953ddf	-0.0045544947
186	0xbc1f38c0	-0.00971812
187	0xbc80a547	-0.01570381
188	0xbc4a11b3	-0.012333321
189	0xba6cee62	-0.00090382074
190	0x3c91712c	0.01775416
191	0xbb80dcab	-0.0039325557
192	0xbcac56dd	-0.021037513
193	0xba9ae117	-0.001181635
194	0xbad22503	-0.0016032759
195	0x3bfeaf7a	0.0077723833
196	0xbc1a38d5	-0.009412964
197	0x3c5566b3	0.013024974
198	0x3c6fb047	0.01462943
199	0x3c6110e7	0.01373694
200	0x3c967738	0.018367395
201	0x3c728e9f	0.014804511
202	0xbc8bb327	-0.0170532
203	0x3c83c51a	0.016085196
204	0x3c47b387	0.012188799
205	0xbb4e7870	-0.0031504892
206	0x3c96671f	0.018359719
207	0x394f9c2b	0.00019799235
208	0x3c340a1e	0.01098874
209	0x3abfa5d3	0.0014621563
210	0x3cb65aee	0.022260156
211	0x3ca0dccf	0.01963654
212	0xbc39062f	-0.011292978
213	0x3cbb5875	0.022869328
214	0x3c6b1365	0.014347886
215	0xbca6b370	-0.020349234
216	0xbb8697b9	-0.004107442
217	0xba6c56b8	-0.00090156076
218	0xbc5d9f65	-0.013526772
219	0xbb33696c	-0.0027376069
220	0x3c6d4982	0.014482858
221	0x3bd8332d	0.0065978975
222	0x3c88c41c	0.016695075
223	0xbc4f718f	-0.012661352
224	0x3cb16480	0.021654367
225	0x3c8a6487	0.016893638
226	0x3bfcfab3	0.0077203154
227	0xba98f370	-0.001166923
228	0x3d04c209	0.03241161
229	0x3ce2a3c7	0.027665986
230	0x3b088a47	0.0020834373
231	0x3c462da0	0.012095839
232	0x3c2a323b	0.010387952
233	0x3cc35c56	0.02384774
234	0x3c845d0f	0.016157655
235	0xbc138177	-0.009003035
236	0x3b1f8d66	0.0024345755
237	0x3c1e9216	0.009678384
238	0x3b9f9050	0.0048694983
239	0xbc67545f	-0.014119237
240	0xba9d062e	-0.0011979991
241	0x3bcf1ba2	0.0063204328
242	0xbc280c85	-0.010256891
243	0x3ce97ec5	0.028502831
244	0x3b9cf55f	0.0047899927
245	0xbbb802a0	-0.0056155473
246	0x3b70bc7f	0.0036733446
247	0xbae92d1d	-0.0017789934
248	0x3c288169	0.01028476
249	0xbccdfccb	-0.025144955
250	0x3a9344d2	0.001123572
251	0x3c0461b1	0.008079932
252	0x3adef5e8	0.0017010542
253	0xbc50d8fd	-0.012747047
254	0xbc748e5f	-0.014926522
255	0x3b55e88b	0.0032639827

action_model._continuous_distribution.mu.bias f4 [5]
0	0x00000000	0.0
1	0x00000000	0.0
2	0x00000000	0.0
3	0x00000000	0.0
4	0x00000000	0.0

onnx::Div_71 f4 [100]
0	0x3e5faea8	0.2184397
1	0x3c61f858	0.01379212
2	0x3c61f858	0.01379212
3	0x3e144b2b	0.144818
4	0x3e555c1c	0.20835918
5	0x3c61f858	0.01379212
6	0x3c61f858	0.01379212
7	0x3e13c15e	0.14429232
8	0x3e6536f8	0.2238425
9	0x3c61f858	0.01379212
10	0x3c61f858	0.01379212
11	0x3e166b42	0.14689353
12	0x3e4c3250	0.19941068
13	0x3c61f858	0.01379212
14	0x3c61f858	0.01379212
15	0x3e10b1fa	0.14130393
16	0x3e66c3e1	0.2253566
17	0x3c61f858	0.01379212
18	0x3c61f858	0.01379212
19	0x3e171288	0.14753163
20	0x3e46bba8	0.19407523
21	0x3c61f858	0.01379212
22	0x3c61f858	0.01379212
23	0x3e105a65	0.14096983
24	0x3e678915	0.22610886
25	0x3c61f858	0.01379212
26	0x3c61f858	0.01379212
27	0x3e16945a	0.14705029
28	0x3e3b3db4	0.18285257
29	0x3c61f858	0.01379212
30	0x3c61f858	0.01379212
31	0x3e0fa225	0.14026697
32	0x3e61ad70	0.22038817
33	0x3c61f858	0.01379212
34	0x3c61f858	0.01379212
35	0x3e14548e	0.1448538
36	0x3e38bdf5	0.18041213
37	0x3c61f858	0.01379212
38	0x3c61f858	0.01379212
39	0x3e120819	0.14260902
40	0x3e5d4232	0.21607283
41	0x3c61f858	0.01379212
42	0x3c61f858	0.01379212
43	0x3e12f2aa	0.14350381
44	0x3e3424aa	0.17592111
45	0x3c61f858	0.01379212
46	0x3c61f858	0.01379212
47	0x3e11c5ac	0.14235562
48	0x3e59f9af	0.21286653
49	0x3c61f858	0.01379212
50	0x3c61f858	0.01379212
51	0x3e13539e	0.14387366
52	0x3e329485	0.17439468
53	0x3c61f858	0.01379212
54	0x3c61f858	0.01379212
55	0x3e149e15	0.14513429
56	0x3e5338aa	0.20627084
57	0x3c61f858	0.01379212
58	0x3c61f858	0.01379212
59	0x3e143823	0.1447454
60	0x3e2ff09a	0.17181626
61	0x3c61f858	0.01379212
62	0x3c61f858	0.01379212
63	0x3e14e07f	0.14538763
64	0x3e4c3250	0.19941068
65	0x3c61f858	0.01379212
66	0x3c61f858	0.01379212
67	0x3e109e60	0.14122915
68	0x3e36341c	0.17793316
69	0x3c61f858	0.01379212
70	0x3c61f858	0.01379212
71	0x3e17f0c8	0.14837945
72	0x3e4907e4	0.19631916
73	0x3c61f858	0.01379212
74	0x3c61f858	0.01379212
75	0x3e11a7e9	0.14224209
76	0x3e352d40	0.17693043
77	0x3c61f858	0.01379212
78	0x3c61f858	0.01379212
79	0x3e1705c6	0.14748296
80	0x3e4d891b	0.20071833
81	0x3c61f858	0.01379212
82	0x3c61f858	0.01379212
83	0x3e0f008d	0.13965054
84	0x3e339fb8	0.17541397
85	0x3c61f858	0.01379212
86	0x3c61f858	0.01379212
87	0x3e1a9576	0.15096077
88	0x3e4ca4e0	0.1998477
89	0x3c61f858	0.01379212
90	0x3c61f858	0.01379212
91	0x3e0dee51	0.13860442
92	0x3e2e5578	0.17024791
93	0x3c61f858	0.01379212
94	0x3c61f858	0.01379212
95	0x3e1d05a0	0.15334177
96	0x3e411631	0.18856122
97	0x3c61f858	0.01379212
98	0x3c61f858	0.01379212
99	0x3e0ca350	0.13734174

onnx::Div_74 f4 [52]
0	0x3efb78cf	0.49115607
1	0x3c61f858	0.01379212
2	0x3e38bdf6	0.18041214
3	0x3e79a92e	0.24380943
4	0x3efbe93b	0.49201378
5	0x3c61f858	0.01379212
6	0x3e35b0e3	0.17743258
7	0x3e78c099	0.2429222
8	0x3efb56ef	0.49089763
9	0x3c61f858	0.01379212
10	0x3e37394a	0.17892948
11	0x3e79bf59	0.243894
12	0x3efc4b3b	0.49276146
13	0x3c61f858	0.01379212
14	0x3e318786	0.17336854
15	0x3e778632	0.24172285
16	0x3efb520f	0.49086043
17	0x3c61f858	0.01379212
18	0x3e320e3e	0.17388245
19	0x3e78db22	0.24302343
20	0x3efcac91	0.49350408
21	0x3c61f858	0.01379212
22	0x3e34a92c	0.17642659
23	0x3e78b71b	0.24288599
24	0x3efb2aaa	0.49055988
25	0x3c61f858	0.01379212
26	0x3e339fb9	0.17541398
27	0x3e791eb6	0.24328122
28	0x3efd08af	0.49420688
29	0x3c61f858	0.01379212
30	0x3e2edefe	0.17077252
31	0x3e77695d	0.24161287
32	0x3efb8266	0.49122924
33	0x3c61f858	0.01379212
34	0x3e2f6808	0.17129529
35	0x3e77f885	0.24215896
36	0x3efd7c99	0.49509123
37	0x3c61f858	0.01379212
38	0x3e2b9e91	0.16759707
39	0x3e773b4c	0.24143714
40	0x3efbdb7d	0.49190894
41	0x3c61f858	0.01379212
42	0x3e3078b4	0.17233545
43	0x3e787155	0.24261983
44	0x3efdf76b	0.49602827
45	0x3c61f858	0.01379212
46	0x3e2dcb77	0.16972147
47	0x3e78c2ff	0.24293135
48	0x3efc2828	0.49249387
49	0x3c61f858	0.01379212
50	0x3e320e3e	0.17388245
51	0x3e78fc2d	0.24314947

onnx::Div_77 f4 [5]
0	0x41016808	8.087898
1	0x3faf0dcc	1.3676085
2	0x404e3198	3.221777
3	0x3f860443	1.047005
4	0x3f00082e	0.5001248
