Assets/results/4/CoinChaser/CoinChaser-768.onnx (onnx, 437518 bytes, 12 tensors)

network_body.observation_encoder.processors.0.normalizer.running_mean f4 [100]
0.9479844 0.0 0.0 0.16340008 0.94018203 0.0 0.0 0.17186855
0.9505852 0.0 0.0 0.15801343 0.95578676 0.0 0.0 0.17658354
0.9674902 0.0 0.0 0.15393853 0.95838755 0.0 0.0 0.17795283
0.97139144 0.0 0.0 0.1452027 0.9622887 0.0 0.0 0.17956685
0.9622886 0.0 0.0 0.14123157 0.96749026 0.0 0.0 0.17918493
0.9713914 0.0 0.0 0.13736488 0.9557867 0.0 0.0 0.18298084
0.97529256 0.0 0.0 0.1339588 0.9583875 0.0 0.0 0.17936441
0.97269183 0.0 0.0 0.12962717 0.96488947 0.0 0.0 0.17867528
0.97399217 0.0 0.0 0.12449613 0.97529256 0.0 0.0 0.17746332
0.98829645 0.0 0.0 0.12102309 0.98309493 0.0 0.0 0.17169443
0.9856957 0.0 0.0 0.11658016 0.99089724 0.0 0.0 0.16523662
0.98309493 0.0 0.0 0.11370678 0.98959684 0.0 0.0 0.15952004
0.9908973 0.0 0.0 0.10987323
00000000: 1baf 723f 0000 0000 0000 0000 5a52 273e
00000010: c5af 703f 0000 0000 0000 0000 4ffe 2f3e
00000020: 8d59 733f 0000 0000 0000 0000 46ce 213e
00000030: 71ae 743f 0000 0000 0000 0000 51d2 343e
00000040: 70ad 773f 0000 0000 0000 0000 10a2 1d3e
00000050: e358 753f 0000 0000 0000 0000 4439 363e
00000060: 1cad 783f 0000 0000 0000 0000 04b0 143e
00000070: 8d58 763f 0000 0000 0000 0000 5fe0 373e
00000080: 8c58 763f 0000 0000 0000 0000 029f 103e
00000090: 71ad 773f 0000 0000 0000 0000 417c 373e
000000a0: 1bad 783f 0000 0000 0000 0000 61a9 0c3e
000000b0: 70ae 743f 0000 0000 0000 0000 545f 3b3e
000000c0: c6ac 793f 0000 0000 0000 0000 7f2c 093e
000000d0: e258 753f 0000 0000 0000 0000 4eab 373e
000000e0: 5502 793f 0000 0000 0000 0000 fcbc 043e
000000f0: ff02 773f 0000 0000 0000 0000 a7f6 363e
00000100: 8d57 793f 0000 0000 0000 0000 d4f7 fe3d
00000110: c6ac 793f 0000 0000 0000 0000 f2b8 353e
00000120: ff00 7d3f 0000 0000 0000 0000 f4da f73d
00000130: 1cac 7b3f 0000 0000 0000 0000 aad0 2f3e
00000140: 8e56 7c3f 0000 0000 0000 0000 94c1 ee3d
00000150: 71ab 7d3f 0000 0000 0000 0000 ca33 293e
00000160: 1cac 7b3f 0000 0000 0000 0000 1adf e83d
00000170: 3856 7d3f 0000 0000 0000 0000 3959 233e
00000180: 72ab 7d3f 0000 0000 0000 0000 3705 e13d

network_body.observation_encoder.processors.1.normalizer.running_mean f4 [52]
0.520156 0.0 0.033810142 0.24634315 0.49414825 0.0 0.042912874 0.25428405
0.53576076 0.0 0.029908974 0.23914331 0.4863459 0.0 0.045513652 0.25944838
0.5526658 0.0 0.03250975 0.23323862 0.48114437 0.0 0.039011706 0.26289186
0.56957096 0.0 0.03511053 0.23073493 0.47724316 0.0 0.037711315 0.26703677
0.58647597 0.0 0.037711307 0.22718917 0.4720416 0.0 0.03771131 0.27262738
0.60468143 0.0 0.04031209 0.22325781 0.47464243 0.0 0.035110533 0.2796746
0.6215865 0.0 0.040312096 0.21699287
00000000: f228 053f 0000 0000 817c 0a3d 6141 7c3e
00000010: 0001 fd3e 0000 0000 69c5 2f3d 8531 823e
00000020: 9e27 093f 0000 0000 aa03 f53c fce1 743e
00000030: 5402 f93e 0000 0000 866c 3a3d 6bd6 843e
00000040: 827b 0d3f 0000 0000 f228 053d 1bd6 6e3e
00000050: 8e58 f63e 0000 0000 bdca 1f3d c399 863e
00000060: 67cf 113f 0000 0000 0fd0 0f3d c745 6c3e
00000070: 3759 f43e 0000 0000 2e77 1a3d 0bb9 883e
00000080: 4a23 163f 0000 0000 2c77 1a3d 47a4 683e
00000090: 70af f13e 0000 0000 2d77 1a3d d195 8b3e
000000a0: 67cc 1a3f 0000 0000 4a1e 253d b29d 643e
000000b0: 5504 f33e 0000 0000 10d0 0f3d 8231 8f3e
000000c0: 4b20 1f3f 0000 0000 4c1e 253d 6133 5e3e

network_body.observation_encoder.processors.2.normalizer.running_mean f4 [5]
11.131512 1.9406171 9.453246 0.8042824 0.56046814
00000000: ac1a 3241 2466 f83f 7f40 1741 74e5 4d3f
00000010: d77a 0f3f

network_body._body_endoder.seq_layers.0.weight f4 [256, 157]
0.011926448 0.037345458 -0.07812677 -0.017848955 -0.037562907 -0.03470696 0.035190143 0.04072999
0.069769785 0.024581257 -0.06432128 -0.007482164 -0.10929633 -0.08149998 0.018939603 -0.00628487
0.052471817 0.12967995 -0.027721679 -0.12296234 0.09697379 0.05095081 -0.15331353 0.12812965
0.039586145 -0.029089069 -0.046468034 -0.057585515 -0.036066175 0.023691028 0.051099584 0.11383679
-0.022695832 0.06848277 0.047897402 -0.04270424 -0.026320253 0.04219706 -0.18400522 -0.1373897
-0.03265524 -0.078417175 -0.044270657 -0.040370617 0.046438035 0.022901924 -0.15492032 0.087899424
0.041757513 -0.013472823 0.091410145 -0.051137485 -0.0038056083 -0.027189964 -0.006881166 -0.024572104
0.02160044 -0.01327219 -0.27659526 0.038128167 -0.13048814 0.036005687 -0.049806688 -0.15322022
-0.05654151 -0.026694704 -0.21804075 -0.13449505 0.008729311 0.026683751 0.14428262 -0.23480888
0.04444954 0.08142702 -0.007069531 -0.023227407 0.078429066 0.040294968 0.01725526 -0.11404191
0.032621983 -0.068307556 0.09282885 -0.008597286 -0.046375785 -0.067303464 -0.042140666 0.018760331
0.0048386757 0.024863228 -0.04949947 -0.006168807 0.004414994 -0.013059546 -0.004790438 0.014876713
0.102242656 0.032620687 0.055396467 0.009050951 -0.120627046 -0.016716227 0.021317681 0.004320156
-0.01323673 -0.070446715 -0.020278474 -0.121877484 0.07874543 0.089764014 -0.09516846 -0.090212725
0.027610542 0.04796146 -0.032507166 -0.015778007 -0.041191872 -0.12601273 -0.060604267 0.038123745
-0.052474026 -0.011896895 0.046662726 0.025997922 0.0567225 -0.12821007 0.012418121 0.094439335
-0.037971295 -0.05848873 0.024317652 -0.073643275 -0.016489154 0.008650319 0.124767944 0.03345631
-0.1451391 0.049893554 0.035356577 0.025490368 -0.02478818 -0.033633403 0.08177404 0.06743777
-0.1372198 0.009227446 -0.0012812145 -0.124581024 0.06588539 -0.08609295 0.10822898 0.028034486
0.0088991765 -0.13126302 0.09732904 0.1121002 0.09684991 -0.07126011 0.015813148 0.03406608
0.12647063 -0.032962617 0.023992091 -0.0008455828 -0.19603734 0.041291744 -0.057587963 -0.058383986
0.08022964 -0.11178938 0.05352073 0.098175354 0.019899527 0.05525303 -0.13151388 -0.015596963
-0.005744232 0.019484732 -0.07856138 -0.076659635 0.0757207 0.016331682 0.08747649 -0.003161988
0.017093869 0.08275749 -0.103378974 -0.07613082 0.051134583 0.030273374 -0.014881713 -0.02001919
0.046116564 -0.0962028 0.042673197 0.022740234 -0.15766066 0.09768275 0.013159419 -0.010779677
-0.092897385 -0.09730827 -0.01551126 -0.04538883 -0.036415044 -0.22361301 0.024270073 -0.03226739
0.014943523 0.07641491 0.08273358 0.18769076 0.08643856 -0.049139846 0.06834624 0.12165186
-0.10737454 0.015349639 -0.027648203 0.109381035 -0.03486049 0.19793017 0.015346924 0.016008578
-0.061855625 -0.061438054 0.046753157 0.016010324 0.0015001294 0.116292335 -0.056565475 -0.01273745
0.091880694 -0.009414517 -0.0063183676 0.031197451 0.06518134 -0.029428044 -0.06912548 -0.03537346
-0.030270671 0.06488979 -0.09385024 -0.01854512 0.018235747 -0.023177428 -0.058015253 0.0537115
0.0006071826 0.06744411 -0.0815161 -0.052407242 -0.17671445 -0.11323569 0.044130772 0.076215535
00000000: 2667 433c 8df7 183d ee00 a0bd f937 92bc
00000010: 90db 19bd e328 0ebd 8a23 103d 7dd4 263d
00000020: 76e3 8e3d a25e c93c e0ba 83bd f12c f5bb
00000030: c1d6 dfbd 76e9 a6bd 3a27 9b3c 50f1 cdbb
00000040: b0ec 563d d2ca 043e 9318 e3bc aed3 fbbd
00000050: 329a c63d ccb1 503d 39fe 1cbe 6b34 033e
00000060: 1525 223d 334c eebc 4455 3ebd cade 6bbd
00000070: 20ba 13bd b013 c23c cc4d 513d 4323 e93d
00000080: 9cec b9bc b240 8c3d 1130 443d a4ea 2ebd
00000090: 929d d7bc d3d6 2c3d dd6b 3cbe e3af 0cbe
000000a0: 80c1 05bd 2f99 a0bd 2655 35bd a95b 25bd
000000b0: cf35 3e3d d19c bb3c 6fa3 1ebe 9d04 b43d
000000c0: ed09 2b3d 1ebd 5cbc 3e35 bb3d 8a75 51bd
000000d0: 8367 79bb 7dbd debc 677b e1bb 704b c9bc
000000e0: 68f3 b03c 9973 59bc e59d 8dbe 482c 1c3d
000000f0: af9e 05be b37a 133d 1902 4cbd c3e5 1cbe
00000100: 1298 67bd daae dabc 1346 5fbe 12b9 09be
00000110: 6205 0f3c e297 da3c d3be 133e bd71 70be
00000120: b910 363d 36c3 a63d 86a7 e7bb 6747 bebc
00000130: 6b9f a03d 560c 253d e75a 8d3c ce8e e9bd
00000140: a19e 053d d5e4 8bbd 0d1d be3d a2db 0cbc
00000150: 89f4 3dbd 66d6 89bd b19b 2cbd 44af 993c
00000160: c18d 9e3b f8ad cb3c f5bf 4abd b423 cabb
00000170: a7ab 903b b5f7 55bc 1bf9 9cbb 75bd 733c
00000180: 9964 d13d 459d 053d 68e7 623d 714a 143c
00000190: 500b f7bd 78f0 88bc 6ba2 ae3c 1890 8d3b
000001a0: dfde 58bc 5e46 90bd 0b1f a6bc e79a f9bd
000001b0: 4945 a13d 32d6 b73d aee7 c2bd 73c1 b8bd
000001c0: 812f e23c 3c73 443d 3c26 05bd e140 81bc
000001d0: cfb8 28bd 7b09 01be 2e3c 78bd a527 1c3d
000001e0: 01ef 56bd 32eb 42bc 6a21 3f3d 98f9 d43c
000001f0: da55 683d 8049 03be 6075 4b3c 6969 c13d
00000200: ca87 1bbd e191 6fbd d035 c73c 49d2 96bd
00000210: 4314 87bc 11ba 0d3c 5686 ff3d 7c09 093d
00000220: 589f 14be 2f5d 4c3d 0fd2 103d 2dd1 d03c
00000230: 9510 cbbc 2ec3 09bd 2679 a73d d01c 8a3d
00000240: 5983 0cbe b72e 173c 6dee a7ba 5624 ffbd
00000250: ebee 863d 8051 b0bd 28a7 dd3d 94a8 e53c
00000260: dacd 113c d069 06be 7354 c73d ca94 e53d
00000270: 3f59 c63d d2f0 91bd 938a 813c e088 0b3d
00000280: 8481 013e cf03 07bd 108b c43c 1aaa 5dba
00000290: 03be 48be 8821 293d 5be1 6bbd 0c24 6fbd
000002a0: 704f a43d d5f1 e4bd 8e38 5b3d 2910 c93d
000002b0: 5504 a33c 0051 623d 93ab 06be 688a 7fbc
000002c0: 1c3a bcbb 729e 9f3c cae4 a0bd baff 9cbd
000002d0: 7413 9b3d 05ca 853c e026 b33d 5b39 4fbb
000002e0: 7108 8c3c c27c a93d 5bb8 d3bd 7aea 9bbd
000002f0: 7f72 513d deff f73c 6ed2 73bc 49ff a3bc
00000300: b9e4 3c3d f905 c5bd 17ca 2e3d ba49 ba3c
00000310: cc71 21be e50d c83d 9b9a 573c 3e9d 30bc
00000320: fc40 bebd 8f49 c7bd f122 7ebc a3e9 39bd
00000330: f127 15bd cffa 64be 08d2 c63c d02a 04bd
00000340: aed5 743c 6c7f 9c3d 3970 a93d 0232 403e
00000350: b306 b13d dd46 49bd 1df9 8b3d 9c24 f93d
00000360: 2fe7 dbbd 0d7d 7b3c 7c7e e2bc 2a03 e03d
00000370: e0c9 0ebd 35ae 4a3e aa71 7b3c 6c24 833c
00000380: 535c 7dbd 78a6 7bbd 3d80 3f3d 1528 833c
00000390: fd9f c43a ad2a ee3d 33b1 67bd bdb0 50bc
000003a0: f22b bc3d 593f 1abc 4f0a cfbb cc91 ff3c
000003b0: cb7d 853d 1513 f1bc a991 8dbd c3e3 10bd
000003c0: 33fa f7bc f0e4 843d 8e34 c0bd efeb 97bc
000003d0: 2263 953c 97de bdbc 67a1 6dbd 9700 5c3d
000003e0: 562b 1f3a 2320 8a3d eaf1 a6bd faa8 56bd
000003f0: a2f4 34be 1de8 e7bd 78c2 343d e416 9c3d

network_body._body_endoder.seq_layers.0.bias f4 [256]
0.0 0.0 0.0 0.0 0.0 0.0 0.0 0.0
0.0 0.0 0.0 0.0 0.0 0.0 0.0 0.0
0.0 0.0 0.0 0.0 0.0 0.0 0.0 0.0
0.0 0.0 0.0 0.0 0.0 0.0 0.0 0.0
0.0 0.0 0.0 0.0 0.0 0.0 0.0 0.0
0.0 0.0 0.0 0.0 0.0 0.0 0.0 0.0
0.0 0.0 0.0 0.0 0.0 0.0 0.0 0.0
0.0 0.0 0.0 0.0 0.0 0.0 0.0 0.0
0.0 0.0 0.0 0.0 0.0 0.0 0.0 0.0
0.0 0.0 0.0 0.0 0.0 0.0 0.0 0.0
0.0 0.0 0.0 0.0 0.0 0.0 0.0 0.0
0.0 0.0 0.0 0.0 0.0 0.0 0.0 0.0
0.0 0.0 0.0 0.0 0.0 0.0 0.0 0.0
0.0 0.0 0.0 0.0 0.0 0.0 0.0 0.0
0.0 0.0 0.0 0.0 0.0 0.0 0.0 0.0
0.0 0.0 0.0 0.0 0.0 0.0 0.0 0.0
0.0 0.0 0.0 0.0 0.0 0.0 0.0 0.0
0.0 0.0 0.0 0.0 0.0 0.0 0.0 0.0
0.0 0.0 0.0 0.0 0.0 0.0 0.0 0.0
0.0 0.0 0.0 0.0 0.0 0.0 0.0 0.0
0.0 0.0 0.0 0.0 0.0 0.0 0.0 0.0
0.0 0.0 0.0 0.0 0.0 0.0 0.0 0.0
0.0 0.0 0.0 0.0 0.0 0.0 0.0 0.0
0.0 0.0 0.0 0.0 0.0 0.0 0.0 0.0
0.0 0.0 0.0 0.0 0.0 0.0 0.0 0.0
0.0 0.0 0.0 0.0 0.0 0.0 0.0 0.0
0.0 0.0 0.0 0.0 0.0 0.0 0.0 0.0
0.0 0.0 0.0 0.0 0.0 0.0 0.0 0.0
0.0 0.0 0.0 0.0 0.0 0.0 0.0 0.0
0.0 0.0 0.0 0.0 0.0 0.0 0.0 0.0
0.0 0.0 0.0 0.0 0.0 0.0 0.0 0.0
0.0 0.0 0.0 0.0 0.0 0.0 0.0 0.0
00000000: 0000 0000 0000 0000 0000 0000 0000 0000
00000010: 0000 0000 0000 0000 0000 0000 0000 0000
00000020: 0000 0000 0000 0000 0000 0000 0000 0000
00000030: 0000 0000 0000 0000 0000 0000 0000 0000
00000040: 0000 0000 0000 0000 0000 0000 0000 0000
00000050: 0000 0000 0000 0000 0000 0000 0000 0000
00000060: 0000 0000 0000 0000 0000 0000 0000 0000
00000070: 0000 0000 0000 0000 0000 0000 0000 0000
00000080: 0000 0000 0000 0000 0000 0000 0000 0000
00000090: 0000 0000 0000 0000 0000 0000 0000 0000
000000a0: 0000 0000 0000 0000 0000 0000 0000 0000
000000b0: 0000 0000 0000 0000 0000 0000 0000 0000
000000c0: 0000 0000 0000 0000 0000 0000 0000 0000
000000d0: 0000 0000 0000 0000 0000 0000 0000 0000
000000e0: 0000 0000 0000 0000 0000 0000 0000 0000
000000f0: 0000 0000 0000 0000 0000 0000 0000 0000
00000100: 0000 0000 0000 0000 0000 0000 0000 0000
00000110: 0000 0000 0000 0000 0000 0000 0000 0000
00000120: 0000 0000 0000 0000 0000 0000 0000 0000
00000130: 0000 0000 0000 0000 0000 0000 0000 0000
00000140: 0000 0000 0000 0000 0000 0000 0000 0000
00000150: 0000 0000 0000 0000 0000 0000 0000 0000
00000160: 0000 0000 0000 0000 0000 0000 0000 0000
00000170: 0000 0000 0000 0000 0000 0000 0000 0000
00000180: 0000 0000 0000 0000 0000 0000 0000 0000
00000190: 0000 0000 0000 0000 0000 0000 0000 0000
000001a0: 0000 0000 0000 0000 0000 0000 0000 0000
000001b0: 0000 0000 0000 0000 0000 0000 0000 0000
000001c0: 0000 0000 0000 0000 0000 0000 0000 0000
000001d0: 0000 0000 0000 0000 0000 0000 0000 0000
000001e0: 0000 0000 0000 0000 0000 0000 0000 0000
000001f0: 0000 0000 0000 0000 0000 0000 0000 0000
00000200: 0000 0000 0000 0000 0000 0000 0000 0000
00000210: 0000 0000 0000 0000 0000 0000 0000 0000
00000220: 0000 0000 0000 0000 0000 0000 0000 0000
00000230: 0000 0000 0000 0000 0000 0000 0000 0000
00000240: 0000 0000 0000 0000 0000 0000 0000 0000
00000250: 0000 0000 0000 0000 0000 0000 0000 0000
00000260: 0000 0000 0000 0000 0000 0000 0000 0000
00000270: 0000 0000 0000 0000 0000 0000 0000 0000
00000280: 0000 0000 0000 0000 0000 0000 0000 0000
00000290: 0000 0000 0000 0000 0000 0000 0000 0000
000002a0: 0000 0000 0000 0000 0000 0000 0000 0000
000002b0: 0000 0000 0000 0000 0000 0000 0000 0000
000002c0: 0000 0000 0000 0000 0000 0000 0000 0000
000002d0: 0000 0000 0000 0000 0000 0000 0000 0000
000002e0: 0000 0000 0000 0000 0000 0000 0000 0000
000002f0: 0000 0000 0000 0000 0000 0000 0000 0000
00000300: 0000 0000 0000 0000 0000 0000 0000 0000
00000310: 0000 0000 0000 0000 0000 0000 0000 0000
00000320: 0000 0000 0000 0000 0000 0000 0000 0000
00000330: 0000 0000 0000 0000 0000 0000 0000 0000
00000340: 0000 0000 0000 0000 0000 0000 0000 0000
00000350: 0000 0000 0000 0000 0000 0000 0000 0000
00000360: 0000 0000 0000 0000 0000 0000 0000 0000
00000370: 0000 0000 0000 0000 0000 0000 0000 0000
00000380: 0000 0000 0000 0000 0000 0000 0000 0000
00000390: 0000 0000 0000 0000 0000 0000 0000 0000
000003a0: 0000 0000 0000 0000 0000 0000 0000 0000
000003b0: 0000 0000 0000 0000 0000 0000 0000 0000
000003c0: 0000 0000 0000 0000 0000 0000 0000 0000
000003d0: 0000 0000 0000 0000 0000 0000 0000 0000
000003e0: 0000 0000 0000 0000 0000 0000 0000 0000
000003f0: 0000 0000 0000 0000 0000 0000 0000 0000

network_body._body_endoder.seq_layers.2.weight f4 [256, 256]
0.008901038 0.0029501433 0.07151496 -0.009606772 -0.032559633 -0.0764663 0.089264676 -0.048495844
-0.09353296 -0.15608338 0.09241204 0.023923494 -0.027718017 0.039832093 0.04819483 -0.06397431
-0.0054984186 -0.065985516 0.015954796 -0.065735124 0.02643866 0.0033493675 -0.019987399 -0.04073047
-0.025508782 0.052352533 0.038484562 -0.007914513 -0.012478461 0.024233565 -0.010131473 0.036763497
-0.017554991 -0.05959074 -0.036473025 0.038411375 -0.08245911 -0.046952542 0.08863437 0.05024399
0.026205823 -0.067843705 -0.053731017 0.039141994 -0.0043938984 -0.04169673 0.039740555 0.0010068835
-0.011858106 -0.037482638 0.015868464 -0.062222194 0.059139654 0.036252502 0.07996131 0.049474407
0.015721299 0.16465372 -0.02216343 0.10049734 -9.5309064e-05 0.027909636 0.016403299 0.0092956945
-0.11550742 0.12321688 -0.010211233 -0.0028192292 0.075854 -0.028486 -0.015766816 0.09406506
-0.012999177 0.025489487 0.042721782 0.083964035 0.045125492 0.011191747 0.11949551 -0.059342094
-0.089680865 0.09741202 -0.049898475 0.029949035 -0.11502047 -0.014497765 0.11353716 -0.020152407
0.075188726 -0.012303044 0.029194647 -0.10037235 -0.05670147 -0.06619892 -0.032772817 -0.09503434
0.027532762 -0.019781021 0.033391517 0.0371435 -0.021014037 -0.053479187 0.026026381 0.116530366
-0.041418094 0.01891724 0.08406944 -0.03540864 -0.07403201 -0.043748338 0.103099294 -0.08177984
-0.026282428 0.0045888047 0.007335466 -0.0043897144 0.088957965 -0.009018384 -0.018175334 -0.004548848
-0.052522317 -0.03673218 -0.042130444 -0.056423955 -0.016172115 -0.048436854 0.07227885 0.1705705
0.011309395 0.034562133 0.06001141 -0.0046835234 -0.018321615 0.011377008 -0.085853726 0.011356511
-0.0035088083 -0.08999183 -0.0035892145 0.08682098 0.019923206 0.019868555 -0.021320002 -0.034608968
0.059923794 0.044128254 0.0068399906 0.021698844 0.043127418 0.07110258 0.110145144 -0.09682865
-0.015680794 0.0107576875 -0.03224516 0.07486196 -0.05604271 -0.063762836 0.050724328 0.09712092
0.028195137 0.04442957 0.040438354 0.006655448 0.06303723 -0.0019679756 0.054285098 -0.0064220144
0.019762158 0.009868383 0.02119036 0.0012465116 0.018627161 0.004093366 -0.020246476 -0.019217229
-0.06453145 -0.028848972 0.016855948 0.04969404 -0.005277333 0.0040553072 -0.0398042 0.05193884
0.068244785 -0.1091081 0.123910375 0.03052311 -0.06258122 0.037586957 -0.016756784 -0.027514618
-0.04717024 0.01953578 -0.01281475 0.044122305 0.0023595835 0.08136787 -0.012743651 -0.050255533
0.022652837 -0.090727516 -0.038929127 0.073983714 -0.010970495 -0.029446917 0.00910531 0.021626033
-0.076142214 -0.09565652 0.06679386 -0.0013159744 -0.056029398 0.04654156 0.0386124 -0.047889095
-0.100324765 0.0049124653 -0.014631162 -0.08804316 0.015676364 -0.017082794 0.09381253 0.049808424
-0.040322237 0.029447772 0.08353883 -0.086579666 -0.060583677 -0.0789634 -0.023262367 -0.055622913
0.004602461 -0.014734616 0.029113844 -0.06377545 0.06712458 0.11639106 -0.039791696 0.031555172
0.030274335 -0.10973712 -0.014788249 0.095246986 -0.018252645 -0.001982438 -0.046035923 -0.07590839
-0.05165256 0.13048568 0.023938634 -0.049677476 -0.11270016 0.04836656 -0.10231505 -0.0959411
00000000: a9d5 113c 3157 413b 6f76 923d b965 1dbc
00000010: 405d 05bd 5d9a 9cbd 66d0 b63d 94a3 46bd
00000020: 358e bfbd 52d4 1fbe 8642 bd3d 34fb c33c
00000030: e510 e3bc fa26 233d f167 453d f704 83bd
00000040: 142c b4bb 6a23 87bd a2b3 823c 23a0 86bd
00000050: e495 d83c 1081 5b3b 9dbc a3bc fed4 26bd
00000060: cbf7 d0bc 9c6f 563d fda1 1d3d e0ab 01bc
00000070: 7572 4cbc 7885 c63c 7afe 25bc 5295 163d
00000080: 7ccf 8fbc 6b15 74bd bd64 15bd 3f55 1d3d
00000090: 52e0 a8bd 4f51 40bd f085 b53d a4cc 4d3d
000000a0: 98ad d63c a4f1 8abd 0e15 5cbd 5b53 203d
000000b0: b1fa 8fbb 31ca 2abd fec6 223d 67f9 833a
000000c0: 8048 42bc 6587 19bd 95fe 813c b3dc 7ebd
000000d0: 6c3c 723d 817d 143d c1c2 a33d ada5 4a3d
000000e0: f4c9 803c fc9a 283e 1590 b5bc 8dd1 cd3d
000000f0: aae0 c7b8 c0a2 e43c 3660 863c f84c 183c
00000100: 278f ecbd 2259 fc3d 044d 27bc d1c2 38bb
00000110: 5859 9b3d 795b e9bc 6929 81bc 2fa5 c03d
00000120: 80fa 54bc 54cf d03c 09fd 2e3d 56f5 ab3d
00000130: 82d5 383d 975d 373c 10ba f43d b210 73bd
00000140: 9aaa b7bd f47f c73d 5862 4cbd ae57 f53c
00000150: da8f ebbd 0988 6dbc 2c86 e83d a916 a5bc
00000160: 8cfc 993d b592 49bc 9d29 ef3c 0590 cdbd
00000170: cd3f 68bd 4d93 87bd ca3c 06bd 5da1 c2bd
00000180: 638c e13c cf0b a2bc 8bc5 083d c823 183d
00000190: a125 acbc fe0c 5bbd 4735 d53c 79a7 ee3d
000001a0: 05a6 29bd 54f8 9a3c 992c ac3d a608 11bd
000001b0: 189e 97bd 7531 33bd b925 d33d 307c a7bd
000001c0: 3f4e d7bc af5d 963b 595e f03b 98d7 8fbb
000001d0: 982f b63d d8c1 13bc 70e4 94bc 810e 95bb
000001e0: a421 57bd 7b74 16bd f990 2cbd ce1c 67bd
000001f0: 627b 84bc b965 46bd ef06 943d 08aa 2e3e
00000200: 0a4b 393c 0691 0d3d 86ce 753d 3e78 99bb
00000210: 3617 96bc a166 3a3c 14d4 afbd a910 3a3c
00000220: 09f4 65bb a34d b8bd 0739 6bbb 33cf b13d
00000230: fe35 a33c 61c3 a23c 49a7 aebc 22c2 0dbd
00000240: a772 753d d4bf 343d 0022 e03b c6c1 b13c
00000250: 60a6 303d 3b9e 913d c793 e13d 194e c6bd
00000260: 0275 80bc 0341 303c 8013 04bd 3a51 993d
00000270: 0a8d 65bd 1796 82bd 50c4 4f3d 55e7 c63d
00000280: 7df9 e63c c8fb 353d b0a2 253d f215 da3b
00000290: aa19 813d 27f9 00bb 0d5a 5e3d c36f d2bb
000002a0: 40e4 a13c 00af 213c 6897 ad3c fd61 a33a
000002b0: fd97 983c a521 863b f0db a5bc 736d 9dbc
000002c0: 1129 84bd ae54 ecbc 7c15 8a3c fa8b 4b3d
000002d0: 7aed acbb 62e2 843b bb09 23bd d2bd 543d
000002e0: ecc3 8b3d 1174 dfbd b9c4 fd3d 9a0b fa3c
000002f0: 952a 80bd c8f4 193d 8645 89bc 5666 e1bc
00000300: 9535 41bd 8009 a03c f5f4 51bc 97b9 343d
00000310: 3ea3 1a3b 33a4 a63d bfca 50bc bfd8 4dbd
00000320: 7192 b93c 59cf b9bd 2674 1fbd c684 973d
00000330: 97bd 33bc a93a f1bc 702e 153c 1429 b13c
00000340: 73f0 9bbd 91e7 c3bd 38cb 883d c67c acba
00000350: 157f 65bd 5da2 3e3d 0928 1e3d 5b27 44bd
00000360: 1277 cdbd bff8 a03b 8bb7 6fbc f94f b4bd
00000370: b86b 803c 37f1 8bbc c920 c03d eb03 4c3d
00000380: ee28 25bd 743c f13c 6816 ab3d ae50 b1bd
00000390: 9726 78bd 90b7 a1bd b890 bebc dad4 63bd
000003a0: 3ed0 963b 7569 71bc 2880 ee3c b49c 82bd
000003b0: 9d78 893d 705e ee3d 9efc 22bd ff3f 013d
000003c0: e201 f83c dbbd e0bd 694a 72bc da10 c33d
000003d0: 9286 95bc caeb 01bb 2a90 3cbd dc75 9bbd
000003e0: a291 53bd 0a9e 053e f41a c43c 9c7a 4bbd
000003f0: 57cf e6bd 041c 463d 8e8a d1bd c47c c4bd

action_model._continuous_distribution.log_sigma f4 [1, 5]
0.0 0.0 0.0 0.0 0.0
00000000: 0000 0000 0000 0000 0000 0000 0000 0000
00000010: 0000 0000

action_model._continuous_distribution.mu.weight f4 [5, 256]
-0.0013695526 -0.011176313 -0.022111973 0.002522988 0.02015371 -0.00071604596 -0.0065428973 -0.006832827
-0.028950712 0.004350751 0.004186287 -0.008419295 -0.009374173 -0.008464382 -0.007232425 0.0214796
-0.013598914 0.0001593845 0.0027689748 -0.015872365 -0.0074499226 0.004635847 -0.015203341 0.0076270998
-0.016705237 -0.00586294 0.010628137 0.001962213 -0.013621134 -0.0012899342 0.024488784 -0.009643953
-0.0031118558 -0.013108782 0.025705656 0.0025399337 0.021313835 0.009213642 -0.0074539497 -0.0014649484
-0.006298031 -0.00919295 -0.0016224299 0.020673243 -0.010507807 -0.013122508 0.017592473 -0.0066441386
-0.013333025 0.024889437 0.0046655824 -0.005223352 -0.01004468 -0.0008407334 0.007915497 -0.0072955103
0.0057227095 -0.0059404443 -0.020014144 0.013192321 0.0023947926 0.017637558 -0.0020489818 0.021384206
-0.025127111 -0.01752981 -0.0050713257 0.0014128425 0.00026967758 0.0028021466 -0.0027242624 0.014984779
-0.0068713897 -0.013567664 -0.00570522 -0.0003734822 0.013626078 0.0004555104 0.0037129575 0.010714992
-0.0075783352 0.006977568 -0.0139976395 -0.017084084 0.009519593 0.009202184 0.012171764 -0.008523055
-0.013185478 0.0034805152 -0.007846999 -0.014427677 -0.0013106259 -0.025129646 0.011268938 -0.0028034137
0.010357473 0.0015008686 -0.01641378 0.017367195 -0.0194442 0.028264979 -0.0028417313 -0.010637163
-0.022521129 0.015219659 -0.003341789 -0.015606227 -0.0096262945 0.018507397 -0.026506325 -0.02368607
0.022996882 -0.018310547 0.0017666232 0.006007263 0.024423787 -0.004664833 -0.00093622424 -0.012762788
-0.03098513 -0.028447479 0.0124545125 0.01620709 -0.0052204514 0.009176083 0.0096484935 0.027462566
0.0079184435 0.0019476988 0.009407902 -0.03336715 -0.008869205 -0.00723597 0.016726544 0.002172251
-0.0023363142 0.0023300324 0.013959131 0.0028602134 0.002669012 -0.0232546 0.026883138 0.0020974092
0.01145535 -0.01273377 -0.012699059 -0.020801865 0.017700944 0.00093674235 0.017000899 0.005226855
-0.006667487 -0.0034734146 -0.00010372054 -0.00043236502 0.010576877 -0.011268484 -0.011826041 -0.003041837
0.014956844 0.0014028245 -0.007875192 -0.013423714 0.020537551 0.0012994907 -0.001746073 0.015805451
-0.0048474027 -0.02130165 -0.026154986 0.0015866034 -0.0023936674 -0.02784124 0.005969837 -0.004176349
-0.011980816 0.010650029 -0.00057304685 -0.015540532 0.015393409 0.010938699 -0.008953676 -0.010974038
-0.001239689 0.008043325 -0.0073093153 0.00078193285 -0.015436487 0.008117381 0.008144054 0.0076175514
-0.01820792 0.0018896746 0.005605289 -0.0051280544 -0.008421306 0.018715193 -0.011518031 0.013180183
0.006810279 -0.0049787736 -0.00698843 0.0067137503 0.0015650043 0.018998066 -0.008914597 0.008241994
-0.0058702636 -0.008599202 0.008197362 -0.021752212 0.0021622365 0.013806286 0.0069243177 -0.004342614
0.017252063 0.006404181 -0.0025766254 -0.0032299373 -0.00017812585 0.010197758 0.004123661 0.0015416209
0.0030556817 0.005338352 -0.007494557 0.01143946 -0.002046178 0.0011840103 -0.0045697107 0.027887601
0.0012444403 -0.015542525 -0.005071267 0.004919256 -0.005633037 -0.008203732 -0.0031693056 -0.020864295
0.008929963 0.007528516 -0.00945354 -0.013566961 -0.006821128 0.01577844 -0.0068914774 -0.0114404475
0.008267182 -0.004848892 0.009228205 -0.014234687 -0.00408576 0.011126933 -0.014276318 -0.005545149
00000000: 8f82 b3ba db1c 37bc 2b24 b5bc b758 253b
00000010: 6519 a53c 08b5 3bba cd65 d6bb e8e5 dfbb
00000020: 0b2a edbc bf90 8e3b 1f2d 893b 15f1 09bc
00000030: 2296 19bc 31ae 0abc fafd ecbb fcf5 af3c
00000040: fbcd 5ebc 7320 2739 b077 353b c306 82bc
00000050: 7b1e f4bb 4ee8 973b 6f17 79bc c0ec f93b
00000060: 6cd9 88bc e81d c0bb a321 2e3c 7998 003b
00000070: 2d2b 5fbc 0213 a9ba b49c c83c ac01 1ebc
00000080: 47f0 4bbb 37c6 56bc ab94 d23c 0475 263b
00000090: 5a9a ae3c d1f4 163c 4340 f4bb 8303 c0ba
000000a0: b75f cebb 079e 16bc b7a7 d4ba ef5a a93c
000000b0: f028 2cbc caff 56bc 171e 903c 13b7 d9bb
000000c0: c372 5abc efe4 cb3c bee1 983b a728 abbb
000000d0: 7192 24bc aa64 5cba 00b0 013c 2d0f efbb
000000e0: 9185 bb3b 0fa8 c2bb b4f4 a3bc 9b24 583c
000000f0: f4f1 1c3b a47c 903c 3648 06bb ee2d af3c
00000100: 5fd7 cdbc ad9a 8fbc 5d2d a6bb 212f b93a
00000110: 8363 8d39 38a4 373b 8a89 32bb b882 753c
00000120: 6529 e1bb e84a 5ebc dbf2 babb efcf c3b9
00000130: ea3f 5f3c 92d1 ee39 1755 733b ef8d 2f3c
00000140: af53 f8bb 15a4 e43b 5b56 65bc ecf3 8bbc
00000150: 11f8 1b3c c2c4 163c 146c 473c 49a4 0bbc
00000160: e707 58bc 5b19 643b b390 00bc 1062 6cbc
00000170: 4fc9 abba b0dc cdbc 5aa1 383c 7ab9 37bb
00000180: 64b2 293c cbb8 c43a 3176 86bc a645 8e3c
00000190: 7149 9fbc f58b e73c 573c 3abb 7f47 2ebc
000001a0: 3b7e b8bc e05b 793c ea01 5bbb 43b1 7fbc
000001b0: 9bb7 1dbc d39c 973c cb23 d9bc 4a09 c2bc
000001c0: f563 bc3c 0000 96bc 0a8e e73a 93d8 c43b
000001d0: 6514 c83c 75db 98bb f26c 75ba 031b 51bc
000001e0: 87d4 fdbc b00a e9bc 030e 4c3c bbc4 843c
000001f0: 5210 abbb 4857 163c b714 1e3c 2df9 e03c
00000200: 5cbc 013c ed49 ff3a 9a23 1a3c feab 08bd
00000210: 2450 11bc b71b edbb 1b06 893c 535c 0e3b
00000220: d91c 19bb 75b3 183b d7b4 643c 6b72 3b3b
00000230: 97ea 2e3b 6e80 bebc 073a dc3c b074 093b
00000240: 38af 3b3c 4da1 50bc b70f 50bc ac68 aabc
00000250: 9201 913c b78f 753a 7845 8b3c 0a46 ab3b
00000260: ef7a dabb 3aa2 63bb 8a84 d9b8 0daf e2b9
00000270: a34a 2d3c 739f 38bc 03c2 41bc 8e59 47bb
00000280: 8d0d 753c fbde b73a f306 01bc 23ef 5bbc
00000290: 5e3e a83c ac53 aa3a 7ddc e4ba 6f7a 813c
000002a0: f6d6 9ebb cc80 aebc fb42 d6bc 93f5 cf3a
000002b0: 13df 1cbb 5013 e4bc 9f9e c33b c1d9 88bb
000002c0: 2f4b 44bc 767d 2e3c 8638 16ba b79d 7ebc
000002d0: a334 7c3c 3b38 333c 70b2 12bc 74cc 33bc
000002e0: 0f7d a2ba 26c8 033c fb82 efbb a0fa 4c3a
000002f0: 52e9 7cbc c3fe 043c a36e 053c a79c f93b
00000300: c728 95bc f5ae f73a 92ac b73b 3d09 a8bb
00000310: 84f9 09bc 9b50 993c 20b6 3cbc b2f1 573c
00000320: c328 df3b fb24 a3bb 33ff e4bb 05ff db3b
00000330: d520 cd3a d5a1 9b3c 880e 12bc 6e09 073c
00000340: 575b c0bb abe3 0cbc 3a4e 063c b231 b2bc
00000350: 4fb4 0d3b c333 623c 63e5 e23b 7d4c 8ebb
00000360: 3354 8d3c 2ada d13b 9adc 28bb 5bad 53bb
00000370: 4bc7 3ab9 7f14 273c c71f 873b 3710 ca3a
00000380: d541 483b 58ed ae3b e794 f5bb 936c 3b3c
00000390: 2c19 06bb cb30 9b3a 83bd 95bb 8a74 e43c
000003a0: 7d1c a33a 13a6 7ebc df2c a6bb b631 a13b
000003b0: 5795 b8bb f268 06bc 20b4 4fbb 99eb aabc
000003c0: fb4e 123c c5b1 f63b 05e3 1abc f547 5ebc
000003d0: c583 dfbb c941 813c e7d1 e1bb b770 3bbc
000003e0: 1373 073c 74e3 9ebb e631 173c 9b38 69bc
000003f0: d7e1 85bb bd4d 363c 38e7 69bc 15b4 b5bb

action_model._continuous_distribution.mu.bias f4 [5]
0.0 0.0 0.0 0.0 0.0
00000000: 0000 0000 0000 0000 0000 0000 0000 0000
00000010: 0000 0000

onnx::Div_71 f4 [100]
0.22496751 0.03606092 0.03606092 0.15886874 0.2398753 0.03606092 0.03606092 0.15812802
0.21971206 0.03606092 0.03606092 0.16102105 0.20870757 0.03606092 0.03606092 0.1580244
0.18097863 0.03606092 0.03606092 0.16344103 0.2029317 0.03606092 0.03606092 0.15521078
0.17055944 0.03606092 0.03606092 0.1622281 0.19388029 0.03606092 0.03606092 0.15406097
0.19388027 0.03606092 0.03606092 0.16180204 0.18097863 0.03606092 0.03606092 0.15144554
0.17055944 0.03606092 0.03606092 0.16412985 0.20870756 0.03606092 0.03606092 0.15268019
0.15936545 0.03606092 0.03606092 0.16511522 0.2029317 0.03606092 0.03606092 0.15010962
0.16692168 0.03606092 0.03606092 0.16580077 0.18755846 0.03606092 0.03606092 0.15264548
0.16319248 0.03606092 0.03606092 0.1633299 0.15936546 0.03606092 0.03606092 0.15561439
0.11343249 0.03606092 0.03606092 0.16352779 0.13386442 0.03606092 0.03606092 0.1573073
0.12409701 0.03606092 0.03606092 0.15881158 0.10158869 0.03606092 0.03606092 0.15684728
0.1338644 0.03606092 0.03606092 0.1566442 0.10768142 0.03606092 0.03606092 0.15808058
0.10158869 0.03606092 0.03606092 0.15242302
00000000: e25d 663e 9eb4 133d 9eb4 133d 7dae 223e
00000010: dfa1 753e 9eb4 133d 9eb4 133d 50ec 213e
00000020: 33fc 603e 9eb4 133d 9eb4 133d b4e2 243e
00000030: 70b7 553e 9eb4 133d 9eb4 133d 26d1 213e
00000040: 7652 393e 9eb4 133d 9eb4 133d 165d 273e
00000050: 54cd 4f3e 9eb4 133d 9eb4 133d 93ef 1e3e
00000060: 22a7 2e3e 9eb4 133d 9eb4 133d 1f1f 263e
00000070: 8e88 463e 9eb4 133d 9eb4 133d 29c2 1d3e
00000080: 8d88 463e 9eb4 133d 9eb4 133d 6faf 253e
00000090: 7652 393e 9eb4 133d 9eb4 133d 8a14 1b3e
000000a0: 22a7 2e3e 9eb4 133d 9eb4 133d a811 283e
000000b0: 6fb7 553e 9eb4 133d 9eb4 133d 3258 1c3e
000000c0: b230 233e 9eb4 133d 9eb4 133d f713 293e
000000d0: 54cd 4f3e 9eb4 133d 9eb4 133d 56b6 193e
000000e0: 84ed 2a3e 9eb4 133d 9eb4 133d adc7 293e
000000f0: 530f 403e 9eb4 133d 9eb4 133d 194f 1c3e
00000100: ee1b 273e 9eb4 133d 9eb4 133d f43f 273e
00000110: b330 233e 9eb4 133d 9eb4 133d 6159 1f3e
00000120: 4b4f e83d 9eb4 133d 9eb4 133d d473 273e
00000130: c113 093e 9eb4 133d 9eb4 133d 2a15 213e
00000140: 9326 fe3d 9eb4 133d 9eb4 133d 819f 223e
00000150: bb0d d03d 9eb4 133d 9eb4 133d 939c 203e
00000160: c013 093e 9eb4 133d 9eb4 133d 5667 203e
00000170: 1488 dc3d 9eb4 133d 9eb4 133d e0df 213e
00000180: bb0d d03d 9eb4 133d 9eb4 133d c814 1c3e

onnx::Div_74 f4 [52]
0.50089335 0.03606092 0.18430248 0.22042423 0.5012646 0.03606092 0.205844 0.22831142
0.5000215 0.03606092 0.1741115 0.21569486 0.50111276 0.03606092 0.21152432 0.22931838
0.49852452 0.03606092 0.18097861 0.21639457 0.50094396 0.03606092 0.19695224 0.22682326
0.49644765 0.03606092 0.18755846 0.22122855 0.50078195 0.03606092 0.19388029 0.22443411
0.49378362 0.03606092 0.19388026 0.22300997 0.50051844 0.03606092 0.19388027 0.22459577
0.49024704 0.03606092 0.19996855 0.2240878 0.50065696 0.03606092 0.18755844 0.22541176
0.48633024 0.03606092 0.19996853 0.22093025
00000000: 8c3a 003f 9eb4 133d cab9 3c3e e4b6 613e
00000010: e052 003f 9eb4 133d c5c8 523e 78ca 693e
00000020: 6901 003f 9eb4 133d 494a 323e 1ddf 5c3e
00000030: ed48 003f 9eb4 133d d599 583e 70d2 6a3e
00000040: 9b3e ff3e 9eb4 133d 7552 393e 8a96 5d3e
00000050: dd3d 003f 9eb4 133d d9ad 493e 5b44 683e
00000060: 632e fe3e 9eb4 133d 530f 403e bd89 623e
00000070: 3f33 003f 9eb4 133d 8e88 463e 0ed2 653e
00000080: 35d1 fc3e 9eb4 133d 8c88 463e ba5c 643e
00000090: fa21 003f 9eb4 133d 8d88 463e 6ffc 653e
000000a0: a901 fb3e 9eb4 133d 8ec4 4c3e 4677 653e
000000b0: 0e2b 003f 9eb4 133d 520f 403e 57d2 663e
000000c0: 4700 f93e 9eb4 133d 8dc4 4c3e 8a3b 623e

onnx::Div_77 f4 [5]
0.7776795 1.1777664 1.089948 1.0649837 0.4976384
00000000: 0116 473f 0dc1 963f 6b83 8b3f 6351 883f
00000010: 76ca fe3e
