Assets/results/coin_shooter4/CoinChaser.onnx (onnx, 372431 bytes, 13 tensors)

network_body.observation_encoder.processors.0.normalizer.running_mean f4 [68]
0.96037835 0.0026722846 0.0009674493 0.21622418 0.96839464 0.002355048 0.0009977174 0.21016942
0.9522801 0.002896289 0.0009868207 0.22429174 0.9715028 0.0020462896 0.0010122483 0.2064839
0.9491379 0.0028272714 0.0010497828 0.23398906 0.9701274 0.001902209 0.0010183017 0.20450138
0.9471127 0.0026020536 0.0010170891 0.24176808 0.967265 0.0015716479 0.000996505 0.20230743
0.94236517 0.0024967163 0.0010170902 0.24488394 0.9658498 0.0015450091 0.0009819786 0.19951233
0.93513536 0.00231872 0.0010134568 0.24249649 0.9668478 0.0013549107 0.0009916616 0.19754362
0.9237869 0.0021322567 0.0010437282 0.23569988 0.96877116 0.0013428003 0.0009553384 0.19670683
0.91241795 0.0020547665 0.0009880291 0.22707593 0.9700796 0.001302846 0.0010146678 0.19633476
0.908165 0.0018307647 0.00096865743 0.21935534
00000000: 5bdb 753f 7f21 2f3b 6c9c 7d3a df69 5d3e
00000010: b6e8 773f 2657 1a3b d7c5 823a a736 573e
00000020: a1c8 733f abcf 3d3b 3558 813a bcac 653e
00000030: 68b4 783f 0b1b 063b 6bad 843a 8470 533e
00000040: b4fa 723f be49 393b de98 893a d49a 6f3e
00000050: 455a 783f 8b53 f93a 8978 853a cf68 513e
00000060: fa75 723f 3787 2a3b d94f 853a 0d92 773e
00000070: ae9e 773f c1ff cd3a 299d 823a ae29 4f3e
00000080: d83e 713f f39f 233b e24f 853a dbc2 7a3e
00000090: ef41 773f e781 ca3a bcb5 803a f64c 4c3e
000000a0: 0865 6f3f abf5 173b f8d5 843a 0051 783e
000000b0: 5683 773f 4297 b13a a4fa 813a e048 4a3e
000000c0: 4c7d 6c3f 55bd 0b3b b5cd 883a 4f5b 713e
000000d0: 6301 783f e700 b03a ad6f 7a3a 846d 493e
000000e0: 3994 693f 43a9 063b c180 813a 9886 683e
000000f0: 2357 783f 42c4 aa3a 9afe 843a fb0b 493e
00000100: 807d 683f 45f6 ef3a 80ed 7d3a b09e 603e

network_body.observation_encoder.processors.1.normalizer.running_mean f4 [20]
0.36618602 0.00065263186 0.027375532 0.31806606 0.40231746 0.0006150981 0.025390971 0.31670964
0.34500602 0.0007410248 0.03198022 0.33329535 0.44738403 0.0005969347 0.025877697 0.329844
0.35042554 0.0007858219 0.039832465 0.36340338
00000000: bc7c bb3e 6215 2b3a a742 e03c 8ed9 a23e
00000010: 8efc cd3e 893e 213a ba00 d03c c427 a23e
00000020: a1a4 b03e 5541 423a b1fd 023d b0a5 aa3e
00000030: 850f e53e 9c7b 1c3a 77fd d33c 50e1 a83e
00000040: fa6a b33e 9dff 4d3a 5e27 233d 0210 ba3e

network_body.observation_encoder.processors.2.normalizer.running_mean f4 [5]
-1.0318006 2.2948873 0.29696453 0.75328875 0.48479268
00000000: 0b12 84bf 6fdf 1240 bc0b 983e 88d7 403f
00000010: bf36 f83e

network_body._body_endoder.seq_layers.0.weight f4 [256, 93]
0.011458938 0.012866524 0.14465824 -0.09539925 -0.032590877 0.1180996 -0.13277967 -0.06309152
0.13692056 0.1821053 -0.027247284 0.047302805 0.37378186 -0.062328175 0.019116974 0.09029017
-0.25404912 -0.027678229 -0.09269854 0.024908228 0.02982534 0.07207942 -0.13891432 -0.030489372
-0.057805743 -0.18682617 -0.07258624 -0.22167939 -0.06539751 0.10872999 -0.013581804 0.10900767
0.039666872 -0.05591121 0.08451923 -0.19519165 -0.015268579 0.20042016 0.021993559 -0.12655109
-0.13102116 0.09544344 -0.14845611 -0.103385456 -0.08169261 -0.050144583 0.1217167 -0.15692107
0.007919327 0.13234027 -0.27357373 -0.16423021 -0.08175006 0.058260866 0.006219058 -0.097074494
0.133728 -0.21000752 -0.11646332 -0.08229797 -0.23751245 -0.019860342 -0.15355106 0.050241277
0.15046069 0.070316985 -0.09179938 0.13727607 -0.14265145 -0.12907615 -0.059297267 -0.002976681
-0.2635101 0.097686864 -0.16480364 -0.2030867 -0.14757773 0.005228984 -0.0626155 -0.10207562
-0.12719782 0.15434307 0.0065603275 -0.019578058 -0.0074768146 -0.0032716857 0.1390122 -0.15709372
0.062144157 0.03780893 -0.021605516 0.11612764 -0.13966928 0.0033789543 -0.0044610114 -0.112564765
0.02629252 0.05119425 -0.09550846 -0.20802875 -0.053791877 0.033576578 0.06380274 -0.21569337
-0.0758577 0.14995272 -0.1772364 0.07267676 0.11885356 0.15212415 -0.064356446 0.22713897
-0.0683769 0.37527162 0.04762197 0.007558135 -0.14210048 -0.09167902 0.009582322 0.047291066
-0.06520191 -0.029563267 -0.0605184 -0.15122057 -0.0591664 -0.09170007 0.16819058 -0.06679325
0.07620532 0.13525856 -0.16055456 0.26424885 -0.044644043 -0.04240188 0.012598659 -0.11014419
0.056328792 0.058730073 -0.02625377 0.081317335 0.1526208 -0.017948816 0.11512273 -0.12245422
-0.057406634 -0.073861495 -0.07092701 0.026276618 0.069393985 -0.05448515 -0.05456052 0.0077291103
0.1299753 -0.08475085 -0.08653547 -0.07642912 0.011820127 0.0076041454 0.09914779 0.063978806
0.058082104 0.21063612 0.1489548 0.020940565 -0.044638574 -0.21791166 -0.06412995 -0.023408193
-0.113338664 0.16087192 -0.06762471 -0.08187979 -0.026890991 0.116895914 -0.11319647 -0.064649835
0.08312686 0.026049772 -0.07855259 0.0039286157 -0.24810168 -0.019304115 0.016084405 -0.04986156
-0.006974656 -0.0021923708 0.16268486 0.009137136 -0.09940944 -0.013461847 0.04740567 0.08254828
-0.0044575273 0.06829304 -0.057409983 0.015385976 -0.01020941 -0.1461076 0.21278211 -0.012374821
-0.006883562 -0.018738735 0.096998565 -0.13704763 0.08304806 0.14791758 -0.12981966 -0.1329431
0.10752085 0.13081317 -0.080074035 -0.08916301 0.038114525 0.089509875 -0.016853845 -0.21236128
0.12866668 -0.091517664 -0.16572684 0.14147559 0.059219845 -0.16417338 0.24882416 0.014958433
0.057070695 -0.16863747 -0.091506645 -0.085891835 0.1392361 -0.16124202 0.0940406 -0.050139606
0.12098655 0.025511352 0.0018911083 -0.078837976 0.04660082 0.037694156 -0.11700219 -0.052824043
0.0658171 0.048010103 0.07875127 0.04371289 0.10906464 0.1591205 -0.040777367 -0.011695524
-0.037635285 0.017067572 0.22722359 0.078784555 -0.05990201 0.11199984 -0.03575046 0.021917924
00000000: 45be 3b3c 1dce 523c 4a21 143e af60 c3bd
00000010: 037e 05bd 34de f13d 65f7 07be 2036 81bd
00000020: e734 0c3e d079 3a3e b235 dfbc 96c0 413d
00000030: 5660 bf3e d44b 7fbd 339b 9c3c 0dea b83d
00000040: ba12 82be 74bd e2bc bbd8 bdbd 570c cc3c
00000050: 4554 f43c 609e 933d 8e3f 0ebe d9c4 f9bc
00000060: b7c5 6cbd 5c4f 3fbe 18a8 94bd ecff 62be
00000070: 21ef 85bd d4ad de3d 3786 5ebc 6a3f df3d
00000080: bb79 223d 2703 65bd 6b18 ad3d 52e0 47be
00000090: 1029 7abc f13a 4d3e d62b b43c 9c96 01be
000000a0: 692a 06be da77 c33d e104 18be c1bb d3bd
000000b0: 754e a7bd 6864 4dbd 9b46 f93d ebaf 20be
000000c0: 11c0 013c 3584 073e db11 8cbe f72b 28be
000000d0: 936c a7bd f2a2 6e3d 3dc9 cb3b fece c6bd
000000e0: feef 083e 360c 57be 5284 eebd d78b a8bd
000000f0: 7736 73be 28b2 a2bc 7d3c 1dbe ccc9 4d3d
00000100: 5e12 1a3e 5a02 903d 5001 bcbd 1992 0c3e
00000110: 3913 12be 8a2c 04be b1e1 72bd 6c14 43bb
00000120: ccea 86be 0d10 c83d 49c2 28be f6f5 4fbe
00000130: 9e1e 17be e657 ab3b 8e3c 80bd 060d d1bd
00000140: 2540 02be 1c0c 1e3e 04f8 d63b 2a62 a0bc
00000150: 1100 f5bb c769 56bb 3759 0e3e 2ddd 20be
00000160: df8a 7e3d 89dd 1a3d 0dfe b0bc 54d4 ed3d
00000170: 7705 0fbe 7271 5d3b ad2d 92bb 5b88 e6bd
00000180: 6963 d73c 10b1 513d f199 c3bd 7d05 55be
00000190: df54 5cbd 9887 093d 03ab 823d b9de 5cbe
000001a0: 485b 9bbd 358d 193e 757d 35be 8ed7 943d
000001b0: 7f69 f33d 6fc6 1b3e 50cd 83bd 1e97 683e
000001c0: 3009 8cbd 9a23 c03e 410f 433d 3baa f73b
000001d0: ca82 11be 36c2 bbbd 2cff 1c3c 47b4 413d
000001e0: 9488 85bd aa2e f2bc 24e2 77bd 91d9 1abe
000001f0: 7858 72bd 3fcd bbbd 273a 2c3e e6ca 88bd
00000200: 8911 9c3d 3881 0a3e 6a68 24be a04b 873e
00000210: acdc 36bd 98ad 2dbd 9b6a 4e3c 4793 e1bd
00000220: 05b9 663d f28e 703d 2512 d7bc b489 a63d
00000230: a148 1c3e 6509 93bc 77c5 eb3d 47c9 fabd
00000240: 3823 6bbd b244 97bd 2e42 91bd 1042 d73c
00000250: 6f1e 8e3d d22b 5fbd da7a 5fbd 7a44 fd3b
00000260: 3f18 053e db91 adbd 8239 b1bd df86 9cbd
00000270: 35a9 413c 322c f93b ff0d cb3d 5207 833d
00000280: 80e7 6d3d ffb0 573e 9b87 183e 8c8b ab3c
00000290: f0d6 36bd 3c24 5fbe 9056 83bd 8ac2 bfbc
000002a0: 1a1e e8bd 9cbb 243e d37e 8abd 97b0 a7bd
000002b0: 7f4a dcbc 2067 ef3d 8dd3 e7bd 2267 84bd
000002c0: 6a3e aa3d 5566 d53c 2ee0 a0bd 9ebb 803b
000002d0: 5e0e 7ebe aa23 9ebc 71c3 833c a33b 4cbd
000002e0: a88b e4bb e1ad 0fbb dc96 263e edb3 153c
000002f0: 2d97 cbbd 148f 5cbc 732c 423d 130f a93d
00000300: 7310 92bb 39dd 8b3d bb26 6bbd 7615 7c3c
00000310: 5f45 27bc 3b9d 15be 8ee3 593e c3bf 4abc
00000320: 818f e1bb fa81 99bc 2fa7 c63d 3756 0cbe
00000330: 1a15 aa3d b577 173e 72ef 04be 3c22 08be
00000340: e433 dc3d e3f3 053e dbfd a3bd 199b b6bd
00000350: fa1d 1c3d f450 b73d 1311 8abc 3c75 59be
00000360: 33c1 033e 9d6d bbbd 4cb4 29be fade 103e
00000370: 8290 723d 111d 28be c3cb 7e3e 3714 753c
00000380: f6c2 693d 4daf 2cbe d667 bbbd 0fe8 afbd
00000390: e893 0e3e a11c 25be 5c98 c03d 305f 4dbd
000003a0: ccc7 f73d 2ffd d03c 11df f73a ce75 a1bd
000003b0: 80e0 3e3d 3065 1a3d d89e efbd 065e 58bd
000003c0: 1ecb 863d 3ea6 443d 5948 a13d 4a0c 333d
000003d0: 485d df3d 7cf0 223e 2b06 27bd 959e 3fbc
000003e0: 7527 1abd 4bd1 8b3c 4dad 683e cc59 a13d
000003f0: cf5b 75bd 2c60 e53d 136f 12bd 388d b33c

network_body._body_endoder.seq_layers.0.bias f4 [256]
0.008766422 0.0058370167 0.009422935 0.020585101 0.029710265 0.0025839831 -0.0025522115 0.020123538
0.018713444 0.02769418 0.018941442 0.01895192 0.009566508 0.02399359 0.006710345 -0.012280909
0.017917207 0.010911769 -0.00013565978 -0.007953433 0.032913215 -0.014732989 0.032339394 0.010277231
-0.0078566745 0.007485809 0.036193054 0.0030166216 -0.009597572 0.0065742587 0.041378997 0.0011415953
-0.003542516 0.010931456 -0.00724812 -0.0022932503 0.0043719127 0.0218366 0.029726466 -0.012358721
-0.013962924 0.00525786 0.00628022 -0.022571636 0.010487541 0.025774542 -0.019559795 0.02899403
0.01908372 0.024071228 -0.031689867 0.010564761 -0.0059963777 0.03461875 -0.016476398 -0.01949572
-0.023271272 0.013678572 0.031536795 0.010234404 -0.007904583 0.025863258 0.020621449 0.019987822
-0.0032561617 0.010280395 0.018509347 0.011678597 0.021631764 0.017013373 0.016811322 0.012283421
-0.0030091847 0.037224308 0.0016261371 0.018456515 0.045176484 0.049729496 -0.02440098 -0.028419374
-0.009724105 0.0050294045 0.023677431 0.014947151 0.0043295766 -0.0028089073 0.009619186 -0.016278137
-0.022157181 0.0056834137 0.037425227 0.011931655 -0.023407945 0.029478963 -0.0034912785 -0.014770175
-0.0034088453 0.036494743 -0.010779336 0.03377645 -0.0027028697 -0.01525267 0.009868936 0.019347554
0.035118725 0.016074188 0.015843429 0.044143133 -0.0010035185 -0.010218682 0.01520177 -0.000530212
0.007605664 -0.035625502 0.018105164 0.023883589 0.0015221057 0.03855322 0.021318873 0.00015747738
-0.027643584 0.0017891555 0.020954406 0.013502847 0.019759202 -0.0107268095 0.024843294 0.0006731608
-0.023135288 0.0073402873 -0.002688158 0.01791714 0.01111902 -0.007878405 -0.005847579 0.01301616
0.013586786 0.022281192 0.016574902 -0.010291589 -0.0044362373 0.024380103 0.026000416 0.0071612415
-0.005180518 0.013634521 -0.0075069657 0.023044236 -0.0070022405 -0.0021427863 0.029069096 -0.0065461416
0.009188143 0.013384805 0.037383255 -0.013550871 0.01433501 0.03412919 0.0087032225 0.0034255788
0.0073199505 -0.0013694288 0.020587042 -0.0013326968 0.011613478 0.013441228 0.0023898103 0.0055676023
0.046456605 0.005269061 -0.016951712 0.030233193 0.0017985117 0.0025289964 -0.0046841498 0.024970224
-0.01512104 -0.0010618848 0.008267103 0.041937348 0.0078537725 0.014241395 0.012184733 -0.028829526
0.0075659207 0.037731938 0.015291054 0.0036557775 0.036874898 0.01957225 -0.0009007776 -0.006722763
0.037411287 0.004541096 -0.015434484 0.0010111254 0.012034611 -0.0028649056 0.004750084 0.0058422997
0.0037110196 0.019674921 -0.0024839914 -0.0033384198 0.040392105 -0.022627926 -0.0022305099 0.020750735
0.0043192217 0.022162467 0.018820828 0.002588192 0.02068108 0.0012786778 0.0034661144 -0.013627082
0.011199667 -0.017937325 0.0057418053 0.050560415 -0.016038833 0.0068829022 -0.015619123 0.016736818
-0.01107021 -0.019010007 -0.004975159 -0.01894112 0.0037070457 -0.012405493 -0.0051950593 0.014996878
-0.00048741134 -0.029676436 0.019245176 -0.0014109663 -0.008778291 -0.004633215 0.014564807 0.019716514
-0.0010609422 0.0011385938 -0.028660785 -0.021907365 -0.005040642 0.00908212 -0.022660978 0.01331669
0.001010486 0.047080178 -0.032084484 0.012606286 -0.0077488814 0.01325894 0.013180613 -3.857169e-05
00000000: 0aa1 0f3c 7244 bf3b a762 1a3c 16a2 a83c
00000010: f162 f33c 0b58 293b 0143 27bb 1eda a43c
00000020: f04c 993c e8de e23c 152b 9b3c 0f41 9b3c
00000030: d8bc 1c3c 358e c43c 74e2 db3b de35 49bc
00000040: 1bc7 923c 47c7 323c e53f 0eb9 1e4f 02bc
00000050: 02d0 063d a262 71bc 5076 043d d561 283c
00000060: 48b9 00bc 844b f53b 2b3f 143d 83b2 453b
00000070: 223f 1dbc e16c d73b 067d 293d 95a1 953a
00000080: 8e29 68bb da19 333c a381 edbb 5b4a 16bb
00000090: 4342 8f3b abe2 b23c eb84 f33c 3c7c 4abc
000000a0: bfc4 64bc 204a ac3b 4eca cd3b 27e8 b8bc
000000b0: efd3 2b3c 2225 d33c dd3b a0bc e384 ed3c
000000c0: 7655 9c3c 0631 c53c 3ccd 01bd d217 2d3c
000000d0: 437d c4bb 64cc 0d3d 83f9 86bc 7db5 9fbc
000000e0: 65a3 bebc 171c 603c ba2c 013d 34ae 273c
000000f0: 3982 01bc 2fdf d33c 50ee a83c 80bd a33c
00000100: 5465 55bb 1a6f 283c eaa0 973c 9657 3f3c
00000110: 1935 b13c a15f 8b3c e6b7 893c 6740 493c
00000120: be35 45bb 8478 183d 1b24 d53a 1e32 973c
00000130: fa0a 393d 28b1 4b3d 90e4 c7bc bfcf e8bc
00000140: da51 1fbc b4cd a43b 2cf7 c13c e5e4 743c
00000150: 1fdf 8d3b a515 38bb ca99 1d3c ba59 85bc
00000160: fa82 b5bc ee3b ba3b 324b 193d fd7c 433c
00000170: 05c2 bfbc de7d f13c efcd 64bb 9bfe 71bc
00000180: ef66 5fbb 837b 153d d09b 30bc 2d59 0a3d
00000190: a122 31bb 56e6 79bc 51b1 213c c37e 9e3c
000001a0: a7d8 0f3d 04ae 833c 14ca 813c 6ecf 343d
000001b0: 7e88 83ba 426c 27bc d810 793c edfd 0aba
000001c0: ef38 f93b 0cec 11bd 4851 943c 84a7 c33c
000001d0: 6481 c73a fbe9 1d3d eba4 ae3c 8320 2539
000001e0: cc74 e2bc 1982 ea3a 93a8 ab3c 0c3b 5d3c
000001f0: 0dde a13c 80bf 2fbc 2a84 cb3c 0e77 303a
00000200: 3786 bdbc cb86 f03b cf2b 30bb f7c6 923c
00000210: 8d2c 363c 6d14 01bc 0c9d bfbb bb41 553c
00000220: 1c9b 5e3c 0c87 b63c 17c8 873c 0e9e 28bc
00000230: db5d 91bb c8b8 c73c d3fe d43c d9a8 ea3b
00000240: 56c1 a9bb 5363 5f3c fefc f5bb 44c7 bc3c
00000250: 0d73 e5bb fd6d 0cbb 5022 ee3c 0481 d6bb
00000260: dd89 163c f14b 5b3c 2f1f 193d 7904 5ebc
00000270: 64dd 6a3c 0dcb 0b3d f697 0e3c ad7f 603b
00000280: 32dc ef3b 687e b3ba 28a6 a83c e2ad aeba
00000290: 7546 3e3c 9938 5c3c 5d9e 1c3b 6f70 b63b
000002a0: 4849 3e3d 16a8 ac3b 51de 8abc 9aab f73c
000002b0: 0abc eb3a 85bd 253b 7f7d 99bb 5b8e cc3c
000002c0: 3dbe 77bc f12e 8bba be72 073c 7fc6 2b3d
000002d0: 1cad 003c bd54 693c 79a2 473c e62b ecbc
000002e0: 8beb f73b ce8c 1a3d 5487 7a3c c595 6f3b
000002f0: 220a 173d fc55 a03c 2922 6cba a04a dcbb
00000300: 943c 193d 79cd 943b ebe0 7cbc bd87 843a
00000310: d12c 453c 24c1 3bbb 98a6 9b3b c370 bf3b
00000320: 9434 733b 4d2d a13c 76ca 22bb 64c9 5abb
00000330: 3172 253d 335e b9bc bf2d 12bb 72fd a93c
00000340: 4288 8d3b 108e b53c 232e 9a3c a89e 293b
00000350: 5e6b a93c 4f99 a73a c027 633b 2044 5fbc
00000360: cf7e 373c 4cf1 92bc c125 bc3b 7018 4f3d
00000370: df63 83bc f889 e13b 5ae7 7fbc a71b 893c
00000380: d35f 35bc e0ba 9bbc a906 a3bb 682a 9bbc
00000390: e8f1 723b 6940 4bbc 513b aabb 77b5 753c
000003a0: 3e8b ffb9 ff1b f3bc 0fa8 9d3c 2cf0 b8ba
000003b0: d2d2 0fbc 39d2 97bb 3aa1 6e3c 8784 a13c
000003c0: 500f 8bba de3c 953a 06ca eabc 1377 b3bc
000003d0: f82b a5bb 2ccd 143c 84a3 b9bc 3f2e 5a3c
000003e0: 4972 843a 25d7 403d 056b 03bd 998a 4e3c
000003f0: 54ea fdbb 063c 593c 7ff3 573c 09c8 21b8

network_body._body_endoder.seq_layers.2.weight f4 [256, 256]
-0.10658134 0.1103724 -0.115407184 0.054260258 -0.07380889 0.09758029 -0.020734705 -0.03790073
0.12047618 -0.026311025 0.026587931 0.11809113 0.025332555 0.14030725 0.16226618 -0.009735183
-0.04393961 -0.016398346 -0.058852367 0.04533848 -0.034435663 0.058644455 0.08476651 0.023647154
-0.008330045 0.028165251 0.040828142 -0.020753484 0.012445854 0.009375129 0.04156517 0.020961799
-0.05174215 -0.02696784 -0.084822185 -0.025709845 0.040848028 0.051291462 0.08778709 -0.02742591
-0.009511062 -0.003985008 -0.06151622 -0.10592695 -0.11493424 0.093375504 0.030740496 -0.028554428
-0.07368528 -0.02324954 0.0879893 -0.04425904 0.018425355 0.019783191 -0.08548821 -0.081954986
0.0054650824 0.05145398 -0.034838784 0.065499306 0.019635048 0.11507554 0.073921725 -6.8426874e-05
-0.01514518 0.014973496 -0.0039547426 -0.19795467 0.028075268 -0.010574953 0.050453514 0.043793954
-0.030542402 0.022390118 0.02444824 -0.12775163 0.029765734 0.08623601 -0.05767304 -0.043001655
-0.037506822 0.09392085 0.00298923 -0.04129994 0.04418883 -0.03357748 0.014497512 -0.06695112
-0.03968976 -0.04266729 -0.13222505 0.10754702 -0.058780983 0.023741717 -0.06391097 -0.13727126
0.07054347 0.019440504 0.07840606 0.06790829 0.015120726 -0.121960476 -0.084254086 -0.046412613
0.057515617 -0.013259359 0.027192764 0.103715636 -0.02316809 -0.039599586 0.033941124 0.0887605
-0.10770628 -0.025076102 0.018705541 0.057043426 0.037360583 0.047627017 0.009526679 -0.042481463
-0.029565776 -0.009899696 0.07585873 -0.070093766 0.04991484 -0.062012676 0.020673223 0.057970665
-0.14187957 -0.031908184 -0.12671007 0.16479228 0.034862913 0.09833044 0.06159212 0.031329256
-0.041643187 0.07156123 0.045136824 0.13049813 0.06619497 -0.06368334 -0.0011992209 -0.039269872
-0.0649899 0.027657248 0.01869355 0.10936819 -0.048417535 -0.019601759 0.111004375 0.1057228
-0.03923168 -0.038197458 0.009041718 0.05306958 0.05206245 0.089898944 -0.050233487 0.11689913
-0.03821287 -0.011300832 0.08001221 0.06393821 0.09104625 0.020812666 -0.124196656 -0.08314808
0.0936504 -0.06910082 -0.024289355 -0.010857851 0.015181377 0.1265846 0.04889045 -0.08726375
-0.052170534 -0.027485082 -0.018454239 0.073204115 -0.059489533 0.01846204 -0.007773823 0.007017816
-0.081785955 0.057284985 0.009517061 0.025273526 0.12910667 -0.09073949 -0.023313835 0.10561891
0.043734446 0.045084473 -0.08304215 -0.003450619 -0.05075365 0.105563596 0.014667875 -0.09541717
-0.09236921 -0.051236406 0.072834305 0.07242041 0.12760831 0.0013280228 -0.062158078 0.0059299003
0.01643623 0.09111376 -0.097665645 0.028545324 0.099029645 0.0022493943 -0.006506397 -0.03750742
0.075201415 -0.09470948 -0.101068534 -0.17132892 -0.015296552 0.0020022816 -0.09526266 0.110389784
-0.02313154 -0.027523795 0.08466511 -0.0672797 -0.055012647 -0.059583277 -0.026720235 0.04744999
0.031931333 -0.098601036 -0.07843522 0.026969213 -0.13618329 -0.08625207 0.10657123 -0.10445874
0.09014833 -0.058610693 -0.12900594 0.056792844 -0.08324664 -0.06344644 -0.057659157 0.025396746
0.0018909539 0.089413896 0.01239605 0.024872467 -0.0070479154 -0.0012634656 -0.034799106 0.073184304
00000000: 5147 dabd ed0a e23d 9a5a ecbd 0140 5e3d
00000010: 1e29 97bd 2dd8 c73d d4db a9bc cc3d 1bbd
00000020: 37bc f63d 388a d7bc efce d93c c3d9 f13d
00000030: 3886 cf3c b4ac 0f3e 1b29 263e 5180 1fbc
00000040: 05fa 33bd d355 86bc 2e0f 71bd d8b4 393d
00000050: 690c 0dbd 2b35 703d 109a ad3d adb7 c13c
00000060: be7a 08bc d0ba e63c 693b 273d 3603 aabc
00000070: b2e9 4b3c 249a 193c 3d40 2a3d 14b8 ab3c
00000080: 94ef 53bd a9eb dcbc 41b7 adbd 749d d2bc
00000090: 4350 273d ff16 523d b8c9 b33d 4dac e0bc
000000a0: 49d4 1bbc ac94 82bb 6ff8 7bbd 3bf0 d8bd
000000b0: a562 ebbd a83b bf3d 7ed3 fb3c faea e9bc
000000c0: 4fe8 96bd d275 bebc bc33 b43d f848 35bd
000000d0: c5f0 963c 5c10 a23c 7114 afbd 04d8 a7bd
000000e0: 6f14 b33b 69c1 523d 1db3 0ebd 8024 863d
000000f0: aed9 a03c baac eb3d 4664 973d 6680 8fb8
00000100: 7d23 78bc 6553 753c c996 81bb a1b4 4abe
00000110: 1bfe e53c 9142 2dbc 58a8 4e3d 4a61 333d
00000120: 0f34 fabc 7b6b b73c ad47 c83c 53d1 02be
00000130: 45d7 f33c 819c b03d 913a 6cbd 8122 30bd
00000140: c1a0 19bd 9359 c03d f5e6 433b 202a 29bd
00000150: 59ff 343d 8a88 09bd f986 6d3c ab1d 89bd
00000160: bb91 22bd e5c3 2ebd 0166 07be 9d41 dc3d
00000170: 54c4 70bd fd7d c23c c1e3 82bd d690 0cbe
00000180: 1879 903d b141 9f3c 5b93 a03d 8013 8b3d
00000190: ecbc 773c 6ac6 f9bd 688d acbd 271b 3ebd
000001a0: 7f95 6b3d c83d 59bc 5cc3 de3c dd68 d43d
000001b0: 02cb bdbc 2d33 22bd d905 0b3d 11c8 b53d
000001c0: 1c95 dcbd 666c cdbc 5d3c 993c 5ea6 693d
000001d0: 6907 193d 8c14 433d ca15 1c3c 0b01 2ebd
000001e0: ed33 f2bc 5632 22bc d25b 9b3d 528d 8fbd
000001f0: 8173 4c3d 0101 7ebd e45a a93c a672 6d3d
00000200: e148 11be 28b2 02bd 49c0 01be 4fbf 283e
00000210: 6acc 0e3d 7861 c93d 0548 7c3d 1b53 003d
00000220: 0c92 2abd b28e 923d 64e1 383d 4da1 053e
00000230: 3a91 873d 696c 82bd 2d2f 9dba 72d9 20bd
00000240: 6d19 85bd 7491 e23c 3723 993c 6efc df3d
00000250: 7751 46bd de93 a0bc 4356 e33d 3285 d83d
00000260: 66b1 20bd f074 1cbd b723 143c 7d5f 593d
00000270: 703f 553d f01c b83d a1c1 4dbd d068 ef3d
00000280: 1985 1cbd 2027 39bc 71dd a33d 09f2 823d
00000290: 7576 ba3d 537f aa3c d15a febd 8a49 aabd
000002a0: c8cb bf3d bb84 8dbd 78fa c6bc 21e5 31bc
000002b0: 4fbb 783c 659f 013e 5a41 483d 56b7 b2bd
000002c0: c5b0 55bd 6528 e1bc 582d 97bc 0aec 953d
000002d0: 4cab 73bd b43d 973c 8ebb febb b5f5 e53b
000002e0: 657f a7bd a9a3 6a3d 72ed 1b3c 6d0a cf3c
000002f0: 8a34 043e a0d5 b9bd a8fc bebc ba4e d83d
00000300: e422 333d 7faa 383d 0112 aabd c823 62bb
00000310: 0fe3 4fbd ba31 d83d 8751 703c 146a c3bd
00000320: 122c bdbd 44dd 51bd 272a 953d 2751 943d
00000330: c1ab 023e 0d11 ae3a 7899 7ebd 9c4f c23b
00000340: 46a5 863c da99 ba3d ed04 c8bd e2d7 e93c
00000350: 0ed0 ca3d 936a 133b 9d33 d5bb 61a1 19bd
00000360: 3303 9a3d 0bf7 c1bd 05fd cebd d970 2fbe
00000370: 649e 7abc b638 033b 1219 c3bd 0a14 e23d
00000380: 5b7e bdbc 9579 e1bc e764 ad3d f0c9 89bd
00000390: f154 61bd 980d 74bd 65e4 dabc ec5a 423d
000003a0: 6eca 023d 57ef c9bd a5a2 a0bd 8aee dc3c
000003b0: a273 0bbe eda4 b0bd 0442 da3d 77ee d5bd
000003c0: b09f b83d c411 70bd 221a 04be 9d9f 683d
000003d0: 377d aabd 35f0 81bd 022c 6cbd d60c d03c
000003e0: e2d9 f73a a21e b73d cd18 4b3c 58c1 cb3c
000003f0: 33f2 e6bb df9a a5ba 8289 0ebd a7e1 953d

network_body._body_endoder.seq_layers.2.bias f4 [256]
0.02224458 -0.0037425158 -0.01213949 -0.01595762 0.004085318 -0.021055305 -0.006218788 -0.02615143
-0.011758621 0.005005722 -0.01735875 -0.016681993 -0.00041313516 -0.0073089534 -0.025072187 0.01901349
0.01140343 0.0049724746 0.0034320727 0.00021244599 0.0061276406 -0.027321901 0.02066477 0.0019067576
0.03208016 -0.006584318 0.016743455 -0.003749622 -0.016768685 -0.004942872 0.011917291 -0.009315748
-0.002130894 0.013102029 0.027052429 0.01720793 -0.00035748043 0.0032960097 0.006338207 -0.008149176
0.017759135 0.010302342 0.0108823795 -0.01652825 -0.005773935 0.005587194 0.016298639 0.025581961
0.0189254 -0.011601381 0.01857001 0.0012076235 0.010119795 0.027557844 0.0049756397 0.010736276
0.018779662 -0.010711322 -0.0060307193 0.028717978 0.014262593 0.017992351 -0.010984133 0.022127409
0.028891843 -0.0018381107 0.021124799 -0.016760526 -0.009659358 0.005440335 0.02567847 -0.011565215
0.017525328 -0.0010458636 0.022594845 0.0037395477 0.00090720336 0.01097057 -0.01462903 0.020996623
1.8754848e-05 0.007179535 0.011700646 0.022776661 0.02156224 0.009774319 0.022266202 0.014189932
-0.015527569 0.025832504 0.015601001 -0.014515543 -0.0064957384 0.005863146 0.036325455 0.0128288055
0.0019333521 -0.00404042 -0.026203074 -0.013752439 0.011530281 0.029496128 0.009297716 0.00392838
-0.009167245 -0.01427789 0.012560226 -0.0012588672 0.008157609 0.024165206 0.0071637053 -0.0039141425
0.016012583 0.00014473753 0.031409282 -0.0031041896 0.002200655 0.0095306905 -0.015946701 -0.015428012
-0.010334693 -0.016449591 0.0044915564 -0.007961569 -0.026006253 0.035624105 0.021391954 -0.010270815
-0.0070107756 -0.008994679 0.0022361185 0.0063960804 0.014539368 0.0075798263 0.017678235 0.01299756
0.005246381 -0.009387788 -0.005878434 0.0342714 -0.0064434167 -0.009361468 0.019304145 -0.0037489878
0.0033974252 0.02692056 -0.013593277 0.020399159 -0.01841344 0.011062731 -0.007956764 0.025050977
0.016171368 -0.008713958 -0.010064791 0.028851824 0.009692234 -0.0029876905 0.005752535 0.003010264
-0.011967843 0.0095756315 0.0005554819 -0.00013971957 0.010358246 0.03048864 -0.032285724 -0.007076446
0.03584667 -0.0048187715 0.019274423 9.684033e-05 -0.002892499 0.024520552 0.0004103412 0.024702802
-0.013185401 -0.0034741466 0.010823972 0.014669671 0.028860029 0.02119462 0.0021269177 0.018196365
-0.011179874 0.008734766 0.0035968025 0.015952062 0.0043396764 -0.0070935134 0.009303084 0.031830378
-0.01418259 0.022210235 0.009907379 -0.013704067 0.012044533 -0.01696292 -0.016132763 0.014290318
0.000855761 0.008780326 0.005989115 0.00539014 -0.021301534 -0.00941225 0.019285394 -0.0032019839
0.0153395515 0.010974806 0.011122148 0.014446121 0.0010009716 -0.025086626 -0.011717432 0.018982733
0.0045123957 -0.0011349594 -0.021135788 -0.0087413145 0.009075363 -0.014129879 -0.0063847015 -0.0015492304
0.0074960873 -0.019156475 -0.0010991789 -0.0151686985 0.01610605 -0.0037650298 0.0033774464 -0.008664141
-0.008194684 0.0027146158 -0.008925919 0.009801227 0.017697813 -0.015029358 0.023424327 -0.033130493
-0.009145884 -0.0017020308 -0.01323878 0.0033270123 0.0026939998 0.019672206 -0.0009923803 0.010501855
-0.002078777 0.010843253 0.0020894343 0.010902088 -0.008123815 -0.005780458 0.0019466511 -0.005658443
00000000: 443a b63c ff44 75bb b6e4 46bc 8eb9 82bc
00000010: 22de 853b 2d7c acbc fac6 cbbb 863b d6bc
00000020: 3ba7 40bc 0a07 a43b f033 8ebc ada8 88bc
00000030: 109a d8b9 f27f efbb 3064 cdbc 2ec2 9b3c
00000040: 74d5 3a3c 24f0 a23b a0ec 603b 09c4 5e39
00000050: 60ca c83b 2ed2 dfbc 2a49 a93c 2bec f93a
00000060: 7c66 033d 43c1 d7bb 9229 893c 38bc 75bb
00000070: 7b5e 89bc d1f7 a1bb be40 433c 14a1 18bc
00000080: 78a6 0bbb e5a9 563c 0e9d dd3c a5f7 8c3c
00000090: 366c bbb9 de01 583b bcb0 cf3b 1f84 05bc
000000a0: 9b7b 913c 27cb 283c 024c 323c 4166 87bc
000000b0: 4733 bdbb c814 b73b b984 853c 4391 d13c
000000c0: 7109 9b3c b813 3ebc 2220 983c 1f49 9e3a
000000d0: 7fcd 253c fdc0 e13c b10a a33b 35e7 2f3c
000000e0: ced7 993c 8a7e 2fbc 579d c5bb f741 eb3c
000000f0: a7ad 693c b264 933c cbf6 33bc 8a44 b53c
00000100: 96ae ec3c c3ec f0ba ea0d ad3c 5f4d 89bc
00000110: 4942 1ebc d644 b23b a85b d23c 077c 3dbc
00000120: 4791 8f3c 5c15 89ba d318 b93c 3313 753b
00000130: 63d1 6d3a e8bd 333c 99ae 6fbc 1c01 ac3c
00000140: bb53 9d37 4e42 eb3b 11b4 3f3c 1f96 ba3c
00000150: 4ba3 b03c 7724 203c 9c67 b63c e37c 683c
00000160: 5867 7ebc b09e d33c 579b 7f3c 9ad2 6dbc
00000170: 34da d4bb a21f c03b 00ca 143d e92f 523c
00000180: 8868 fd3a 8065 84bb d4a7 d6bc e951 61bc
00000190: 81e9 3c3c dda1 f13c 7355 183c a4b9 803b
000001a0: 3632 16bc d0ed 69bc 68c9 4d3c 9300 a5ba
000001b0: 7ea7 053c 1cf6 c53c 84bd ea3b 3542 80bb
000001c0: d22c 833c afc4 1739 05a7 003d a96f 4bbb
000001d0: dd38 103b 9d26 1c3c a8a2 82bc c6c5 7cbc
000001e0: d852 29bc 4bc1 86bc e82d 933b 3e71 02bc
000001f0: 110b d5bc 95ea 113d 2e3e af3c ec46 28bc
00000200: a6ba e5bb 6b5e 13bc d88b 123b 3696 d13b
00000210: 8836 6e3c 3160 f83b f2d1 903c b8f3 543c
00000220: d5e9 ab3b 3dcf 19bc e19f c0bb 2b60 0c3d
00000230: 4c23 d3bb d860 19bc ba23 9e3c 94b1 75bb
00000240: 56a7 5e3b 8288 dc3c 56b6 5ebc 231c a73c
00000250: c8d7 96bc 7540 353c 165d 02bc b537 cd3c
00000260: d179 843c fdc4 0ebc cbe6 24bc a95a ec3c
00000270: 2dcc 1e3c 21cd 43bb c37f bc3b d947 453b
00000280: c614 44bc 1ce3 1c3c c29d 113a b081 12b9
00000290: a2b5 293c 50c3 f93c 093e 04bd 88e1 e7bb
000002a0: f5d3 123d c9e6 9dbb 65e5 9d3c c216 cb38
000002b0: 1590 3dbb 53df c83c 1023 d739 885d ca3c
000002c0: 9507 58bc 82ae 63bb 0757 313c 0f59 703c
000002d0: de6b ec3c 57a0 ad3c c263 0b3b 8b10 953c
000002e0: ca2b 37bc 441c 0f3c 55b8 6b3b e6ad 823c
000002f0: d833 8e3b b470 e8bb f66b 183c 9260 023d
00000300: 185e 68bc 3df2 b53c 8f52 223c 0687 60bc
00000310: 6f56 453c d2f5 8abc db28 84bc f021 6a3c
00000320: 2655 603a 5bdb 0f3c 5740 c43b c69f b03b
00000330: 8e80 aebc d635 1abc 67fc 9d3c 60d8 51bb
00000340: be52 7b3c accf 333c ab39 363c 6caf 6c3c
00000350: 0933 833a 7882 cdbc 79fa 3fbc ad81 9b3c
00000360: b8dc 933b ebc2 94ba f624 adbc bb37 0fbc
00000370: d5b0 143c 0281 67bc c236 d1bb 8c0f cbba
00000380: bda1 f53b 0aee 9cbc 5312 90ba 2286 78bc
00000390: d6f0 833c b8be 76bb 2658 5d3b 0bf4 0dbc
000003a0: ff42 06bc b2e7 313b 053e 12bc 5395 203c
000003b0: 01fb 903c b23d 76bc 60e4 bf3c d7b3 07bd
000003c0: 9ed8 15bc ad16 dfba 78e7 58bc 010a 5a3b
000003d0: d18d 303b 9b27 a13c c212 82ba f90f 2c3c
000003e0: 173c 08bb e6a7 313c e4ee 083b ac9e 323c
000003f0: c019 05bc ff69 bdbb c626 ff3a 766a b9bb

action_model._continuous_distribution.log_sigma f4 [1, 5]
-0.0077385427 0.0044375453 -0.02360548 0.017593114 0.0450051
00000000: 9a93 fdbb d468 913b 4860 c1bc 6f1f 903c
00000010: 4557 383d

action_model._continuous_distribution.mu.weight f4 [5, 256]
-0.018087234 0.032457978 -0.027402354 -0.042713284 0.032564703 -0.029690048 -0.021135746 -0.0021241338
-0.047089808 -0.053401887 -0.011072086 -0.0013215229 0.005492604 0.042169996 -0.017249485 -0.026206963
-0.03245916 0.0043821177 0.012309614 0.010309857 -0.009759637 -0.0007023567 -0.026323827 -0.009746761
0.027207067 0.010634365 0.0008137404 0.02606395 -0.0083194515 -0.011297928 -0.023316212 0.011206266
-0.0006871656 0.009267056 0.003247258 0.026547762 -0.05726959 -0.011001946 -0.00970464 0.0021869608
0.0018776385 0.043580454 -0.027717387 -0.020160044 0.01996905 0.01588426 0.0006633411 -0.01181275
0.027645128 -0.015602108 0.033552796 -0.0021177465 0.02312444 -0.009825783 0.018658536 0.0034964606
-0.04585581 -0.0004778799 -0.042831417 0.049247984 0.0096983975 0.0051091257 0.017465536 0.005619567
0.0019184989 -0.013292766 -0.03996355 -0.0038612557 0.016600631 -0.0088826325 0.033261493 -0.025272917
0.019943038 -0.0076960726 -0.0148619795 -0.03965005 -0.04468231 -0.031819817 -0.013140997 0.03655217
0.004900468 -0.03448762 0.0154091455 0.017850643 -0.0074021267 -0.018539393 -0.013499663 0.027252248
0.01069208 0.042619556 0.00070880214 0.0018652292 0.014547759 0.022268834 -0.0036583168 0.044463564
-0.01800177 -0.015930394 0.009485494 -0.036008243 0.040794026 0.009559684 0.023445679 0.029858515
-0.009989468 -0.0314788 0.017738614 -0.013235574 0.035833526 0.008782598 0.040935542 -0.0039615217
0.022548266 0.018597044 0.008224306 -0.019680243 -0.015889851 -0.014340282 0.005370569 -0.0020053664
-0.00056736945 -0.0058422443 -0.019488439 0.007669421 -0.012537481 0.02603272 -0.01650192 0.003973444
-0.012249632 0.038571313 0.02648564 -0.0022038461 -0.007791298 0.022716818 0.010872976 -0.019726504
0.021577768 -0.012420143 0.017406035 -0.012594225 -0.040679768 -0.018091356 0.0061759786 -0.016626235
-0.0011915455 0.025361622 -0.028799035 -0.018588752 -0.0025084403 0.015231586 -0.00036147708 0.01691613
0.027302258 -0.05845983 -0.018211208 0.0040773414 -0.051259115 -0.028850084 -0.015290057 -0.0008391884
-0.013426682 -0.003081615 0.014988493 0.024126768 0.020541368 -0.007645056 0.004350242 -0.044693165
0.04163808 -0.045003258 0.01866442 0.012719726 0.0022588552 0.023101369 0.02459973 0.019181471
-0.03911172 0.04603437 0.014253355 0.02044955 -0.0012883008 -0.025947232 -0.022962535 0.0031285987
0.016212057 -0.0065609794 -0.031875916 -0.004167359 -0.02577975 -0.01802175 0.0325306 0.03043985
-0.021929128 -0.034207653 0.05125434 0.012629057 -0.011891469 -0.00093372894 -0.03230625 -0.014656062
-0.00451986 -0.049919248 -0.012341555 -0.02582547 -0.023520416 -0.039050825 -0.03217507 -0.03610628
-0.011261424 0.048221365 0.0144264875 0.016694915 -0.031425063 -0.019959405 0.008260527 -0.022720853
-0.021008566 -0.01938831 -0.013446113 0.008321443 -0.022390915 0.016119855 0.041389976 0.01345847
0.004355251 -0.001806037 0.04504413 -0.0053366157 -0.014425764 -0.0014301499 0.015539324 0.009012397
0.02332154 0.023302311 0.015416492 -0.022633426 -0.0011755506 0.0077258064 0.015699245 -0.008599991
-0.02567865 -0.004973307 -0.03719865 -0.015500693 0.013753184 -0.0030272107 0.0046398323 0.025597379
-0.054699752 0.03187895 0.0126117775 0.015746953 0.039326217 0.0061845835 -0.039140053 -0.03472264
00000000: ae2b 94bc a8f2 043d e77a e0bc 20f4 2ebd
00000010: 9162 053d 8b38 f3bc df24 adbc 0d35 0bbb
00000020: 3ee1 40bd f0bb 5abd b267 35bc f336 adba
00000030: 4dfb b33b 72ba 2c3d cb4e 8dbc fcaf d6bc
00000040: e5f3 04bd de97 8f3b 43ae 493c adea 283c
00000050: e2e6 1fbc 5c1e 38ba 11a5 d7bc e1b0 1fbc
00000060: 5be1 de3c c23b 2e3c 3251 553a 1184 d53c
00000070: 4f4e 08bc f21a 39bc a401 bfbc 7c9a 373c
00000080: e722 34ba dad4 173c f3cf 543b b17a d93c
00000090: 8593 6abd 8241 34bc 3600 1fbc 1d53 0f3b
000000a0: 181b f63a 6b81 323d 930f e3bc ad26 a5bc
000000b0: 2296 a33c b51f 823c 11e4 2d3a 448a 41bc
000000c0: 0978 e23c fc9f 7fbc a86e 093d e4c9 0abb
000000d0: 776f bd3c 52fc 20bc c9d9 983c e024 653b
000000e0: 4dd3 3bbd f48b fab9 ff6f 2fbd 41b8 493d
000000f0: 07e6 1e3c 746a a73b e213 8f3c 5824 b83b
00000100: 2476 fb3a e7c9 59bc d2b0 23bd 1f0d 7dbb
00000110: 0cfe 873c 7688 11bc 343d 083d 2609 cfbc
00000120: 955f a33c 562f fcbb a97f 73bc 1768 22bd
00000130: cc04 37bd 7f55 02bd 564d 57bc bab7 153d
00000140: 1b94 a03b e442 0dbd a476 7c3c 833b 923c
00000150: 8a8d f2bb eddf 97bc b12d 5dbc 1b40 df3c
00000160: d52d 2f3c d891 2e3d e8ce 393a b57a f43a
00000170: b959 6e3c 216d b63c 5fc0 6fbb 6d1f 363d
00000180: 7378 93bc 7580 82bc 0c69 1b3c 617d 13bd
00000190: a317 273d 39a0 1c3c 2711 c03c d899 f43c
000001a0: deaa 23bc eaef 00bd 9250 913c 05da 58bc
000001b0: 2dc6 123d e3e4 0f3c 07ac 273d a7cf 81bb
000001c0: 24b7 b83c d458 983c 3dbf 063c 7638 a1bc
000001d0: 6f2b 82bc 81f3 6abc 99fb af3b 776c 03bb
000001e0: 85bb 14ba 4c70 bfbb 38a6 9fbc c44f fb3b
000001f0: 026a 4dbc 9242 d53c 092f 87bc aa33 823b
00000200: aeb2 48bc f4fc 1d3d 6af8 d83c 676e 10bb
00000210: 254e ffbb 9f18 ba3c 9124 323c 7a99 a1bc
00000220: dcc3 b03c db7d 4bbc 1a97 8e3c 0258 4ebc
00000230: d49f 26bd 5334 94bc dd5f ca3b be33 88bc
00000240: a22d 9cba 2dc3 cf3c f4eb ebbc 7047 98bc
00000250: a564 24bb e78d 793c a284 bdb9 b293 8a3c
00000260: fca8 df3c 9373 6fbd ac2f 95bc 389b 853b
00000270: 14f5 51bd 0357 ecbc 2683 7abc fbfc 5bba
00000280: 96fb 5bbc ecf4 49bb 4c92 753c 80a5 c53c
00000290: 5f46 a83c 6183 fabb 7a8c 8e3b 2e10 37bd
000002a0: b18c 2a3d 5655 38bd 20e6 983c 6666 503c
000002b0: 4d09 143b 153f bd3c 5f85 c93c 7622 9d3c
000002c0: 9c33 20bd 898e 3c3d e786 693c d185 a73c
000002d0: 34dc a8ba 4a8f d4bc ed1b bcbc 2d09 4d3b
000002e0: 26cf 843c 7cfd d6bb 5290 02bd 578e 88bb
000002f0: 0e30 d3bc 59a2 93bc ce3e 053d fe5c f93c
00000300: b7a4 b3bc 531d 0cbd 12f0 513d 1bea 4e3c
00000310: 70d4 42bc 7dc5 74ba 8f53 04bd fb1f 70bc
00000320: 551b 94bb 2078 4cbd 3c34 4abc f08f d3bc
00000330: e3ad c0bc c2f3 1fbd 02ca 03bd 2ee4 13bd
00000340: d681 38bc c483 453d 135d 6c3c c6c3 883c
00000350: 91b7 00bd e881 a3bc 2957 073c 1521 babc
00000360: 281a acbc 3cd4 9ebc 164d 5cbc a956 083c
00000370: 276d b7bc c90d 843c 8988 293d ea80 5c3c
00000380: 7eb6 8e3b 8cb8 ecba 3280 383d c7de aebb
00000390: 0a5a 6cbc de73 bbba a698 7e3c bca8 133c
000003a0: d00c bf3c 7de4 be3c 7495 7c3c bc69 b9bc
000003b0: ef14 9aba c328 fd3b b49b 803c fae6 0cbc
000003c0: 085c d2bc 1ff7 a2bb 9d5d 18bd 9ef6 7dbc
000003d0: 0955 613c 2b64 46bb bc09 983b 98b1 d13c
000003e0: d90c 60bd 8093 023d a1a1 4e3c c1ff 803c
000003f0: 8714 213d 0ca8 ca3b 5251 20bd 5439 0ebd

action_model._continuous_distribution.mu.bias f4 [5]
0.0057263467 -0.011481967 -0.0041466276 0.027630026 0.005659957
00000000: 14a4 bb3b dc1e 3cbc 6fe0 87bb 5d58 e23c
00000010: 2977 b93b

onnx::Div_71 f4 [68]
0.19507489 0.051637217 0.031108325 0.14831597 0.17495228 0.048483934 0.031590104 0.1473866
0.21317552 0.053750575 0.031417504 0.15009719 0.16639109 0.045202952 0.03181863 0.14829782
0.21972057 0.053108394 0.032401662 0.15236408 0.17023775 0.04358667 0.03191338 0.14980859
0.22380908 0.050955955 0.03189454 0.15445086 0.17794758 0.039628487 0.031570945 0.15014927
0.2330526 0.04991698 0.031894486 0.1562694 0.1816208 0.039292093 0.031340405 0.14911388
0.24628931 0.048109584 0.031837597 0.15656435 0.17903766 0.036800805 0.031494286 0.14840414
0.2653405 0.046140276 0.03230846 0.15529744 0.17394108 0.036636267 0.030913517 0.14849651
0.28269055 0.045296412 0.03143638 0.15308942 0.17037195 0.03608808 0.03185665 0.14905556
0.28879625 0.042762708 0.031127386 0.1513608
00000000: b6c1 473e 8c81 533d e3d6 fe3c 24e0 173e
00000010: b126 333e 1797 463d a064 013d 83ec 163e
00000020: af4a 5a3e 9029 5c3d a4af 003d 14b3 193e
00000030: 6d62 2a3e bb26 393d 4054 023d 62db 173e
00000040: 6efe 603e 3088 593d 9bb7 043d 5405 1c3e
00000050: ce52 2e3e f087 323d 9bb7 023d 6c67 193e
00000060: 352e 653e 31b7 503d d9a3 023d 5e28 1e3e
00000070: e437 363e 7b51 223d 8950 013d bbc0 193e
00000080: 57a5 6e3e bf75 4c3d cba3 023d 1605 203e
00000090: cefa 393e bff0 203d cc5e 003d 4fb1 183e
000000a0: 4433 7c3e 8e0e 453d 2468 023d 6852 203e
000000b0: a655 373e 71bc 163d 2700 013d 41f7 173e
000000c0: b6da 873e 96fd 3c3d e055 043d 4b06 1f3e
000000d0: 9c1d 323e e90f 163d 583e fd3c 780f 183e
000000e0: d1bc 903e bb88 393d 6fc3 003d 79c3 1c3e
000000f0: fc75 2e3e 18d1 133d 1e7c 023d 05a2 183e
00000100: 1add 933e f327 2f3d dcfe fe3c 53fe 1a3e

onnx::Div_74 f4 [20]
0.48176196 0.025561996 0.16317867 0.22821704 0.49036723 0.024818107 0.15731293 0.22519355
0.47537103 0.027233295 0.17595048 0.23600829 0.49722493 0.024449838 0.15877423 0.2282129
0.4771049 0.028043024 0.19556887 0.24689072
00000000: 81a9 f63e 6467 d13c 4f18 273e bab1 693e
00000010: 6a11 fb3e 584f cb3c a416 213e 2399 663e
00000020: d563 f33e 5c18 df3c 5d2c 343e 28ac 713e
00000030: 4494 fe3e 074b c83c b695 223e a4b0 693e
00000040: 1847 f43e 7cba e53c 3543 483e ecd0 7c3e

onnx::Div_77 f4 [5]
16.10216 1.3941522 5.16226 0.9121768 0.49976996
00000000: 39d1 8041 9473 b23f 3c31 a540 6b84 693f
00000010: d9e1 ff3e
