Assets/results/3/CoinChaser.onnx (onnx, 371399 bytes, 13 tensors)

network_body.observation_encoder.processors.0.normalizer.running_mean f4 [68]
000000 b2 c8 65 3f f5 1c ba 3c 7c 03 0b 39 6a 0f 71 3e
       0.8975936 0.022718886 0.00013257371 0.23541036
000010 ba e0 67 3f 17 65 4d 3c 87 3e 0b 39 a6 44 65 3e
       0.9057728 0.012536309 0.00013279366 0.22389469
000020 9a ff 65 3f 47 68 bc 3c 59 67 0c 39 d2 b5 77 3e
       0.8984314 0.022998942 0.0001338994 0.24190453
000030 c6 a8 6a 3f 74 35 9b 3b eb 54 0d 39 8b d3 5d 3e
       0.9166378 0.0047365967 0.00013478442 0.21662728
000040 34 a1 68 3f 98 7e 77 3c 66 b5 13 39 78 3a 71 3e
       0.90870976 0.015105866 0.00014086589 0.2355746
000050 f9 00 6e 3f e2 c3 03 3b c9 58 10 39 10 98 5b 3e
       0.92970234 0.002010577 0.00013765985 0.21444726
000060 b0 a9 6b 3f e7 e9 05 3c e1 11 17 39 6e eb 63 3e
       0.920558 0.008173442 0.00014407143 0.22257778
000070 85 03 6f 3f 8d 72 b6 3a 20 89 17 39 60 df 5a 3e
       0.93364745 0.0013919637 0.00014451565 0.21374273
000080 0e ab 6d 3f 65 e2 8c 3b a1 c4 1f 39 a8 a5 57 3e
       0.92839134 0.0042994493 0.00015236672 0.21059287
000090 89 1a 6c 3f 6c 11 a8 3a 33 d3 1b 39 18 df 57 3e
       0.9222799 0.0012822575 0.0001486063 0.21081197
0000a0 a4 34 6e 3f df 65 1f 3b 7f ed 20 39 ea 88 4e 3e
       0.93049073 0.0024322195 0.00015347263 0.20169416
0000b0 7f 7e 68 3f 74 ec a3 3a 5e 81 19 39 49 80 51 3e
       0.9081802 0.0012506382 0.0001463941 0.20459093
0000c0 7a 3a 6e 3f 3d 25 c3 3a ee 11 1f 39 a5 10 4a 3e
       0.9305798 0.0014888417 0.00015170101 0.19732912
0000d0 13 97 67 3f 09 ed 91 3a d1 e9 15 39 c3 fa 4b 3e
       0.90464896 0.0011133264 0.0001429685 0.19919877
0000e0 b2 d8 6e 3f 74 50 7e 3a 38 5c 1b 39 94 37 48 3e
       0.932994 0.00097013195 0.00014816306 0.19552451
0000f0 d1 cf 69 3f 3b 28 85 3a eb 2f 07 39 50 0b 4b 3e
       0.9133273 0.0010159084 0.00012892454 0.19828534
000100 e4 b7 6f 3f 00 30 51 3a 11 f8 19 39 7c 0c 47 3e
       0.9363997 0.000797987 0.00014683629 0.19438356

network_body.observation_encoder.processors.1.normalizer.running_mean f4 [20]
000000 0a 05 79 3e f5 97 ae 3b d8 58 46 3d 20 ca 99 3e
       0.24318328 0.0053281733 0.04842457 0.30037022
000010 cb 37 8b 3e 72 f0 3c 3b 38 31 33 3d 5a 1b 99 3e
       0.27191004 0.002882984 0.04374811 0.2990368
000020 1b 9f 78 3e 97 ed bd 3b 42 70 3c 3d 93 55 9c 3e
       0.24279444 0.005796145 0.046005495 0.30534038
000030 a4 07 9e 3e f8 19 9a 3a a0 73 20 3d ac 9b 9e 3e
       0.30865204 0.0011757007 0.03917277 0.30978143
000040 34 eb 93 3e 49 21 86 3b 70 0a 18 3d 70 de 9f 3e
       0.28890383 0.0040933234 0.03711933 0.31224394

network_body.observation_encoder.processors.2.normalizer.running_mean f4 [5]
000000 02 f3 33 3f 9d 44 f1 3f 04 70 a7 bf 32 2f 6a 3f
       0.70292675 1.8849064 -1.308106 0.91478264
000010 1e 33 30 3f
       0.68828

network_body._body_endoder.seq_layers.0.weight f4 [256, 93]
000000 42 7c 99 3e f8 65 8d bd 2f 49 33 3d 83 e6 9e 3c
       0.29977614 -0.069042146 0.043770965 0.019397026
000010 96 ff 9a 3c bd 3d 73 be 27 f0 b1 bd 02 8a f4 3d
       0.018920701 -0.2375402 -0.086883835 0.119403854
000020 20 c5 b5 3d 78 93 e0 bd 13 47 23 3e 0f 6b dc bd
       0.08875489 -0.109656274 0.15945081 -0.10762607
000030 c3 34 b9 bc 48 3e 01 be 41 63 f2 bb 4f 6e 10 bd
       -0.022608167 -0.12621415 -0.007397086 -0.03526145
000040 9d da fb 3c 55 04 41 be 00 ab 69 bd 58 b4 52 be
       0.030743891 -0.18849309 -0.057047844 -0.20576608
000050 4c 0a ba bd 96 b2 41 be ca 48 a3 3d 4b d6 0b 3c
       -0.09083995 -0.18915781 0.07972868 0.008534978
000060 39 81 b9 bd 57 e6 9c bd a8 a3 7f bd 20 63 3b 3c
       -0.090578504 -0.07661121 -0.062411934 0.011437207
000070 4d 16 e0 3d 33 48 dd 3b a8 6b b0 3d c1 9b b6 bc
       0.109417535 0.0067529916 0.08614284 -0.022291066
000080 36 cd cb 3d 98 57 20 3d ad 60 a6 bd 48 57 38 be
       0.0995125 0.039146036 -0.08123908 -0.18002045
000090 3b 4f 83 3b ae 46 df bd b9 8a 15 bd 2d eb 28 be
       0.0040072477 -0.10902153 -0.03650925 -0.16495962
0000a0 e0 fb 11 be 43 52 9b 3d 29 46 0c 3e 7b 43 50 bd
       -0.14256239 0.075840496 0.13698639 -0.050845604
0000b0 e8 2f f7 bd 46 21 94 bb 72 09 09 bd 63 b1 b5 be
       -0.12069684 -0.004520568 -0.033456273 -0.35486898
0000c0 f0 95 2d 3e 61 36 af bd 51 7a 0a be 6d f0 fd 3a
       0.16951728 -0.08555294 -0.13523223 0.0019374021
0000d0 d8 5a 49 bd cb c3 c3 3c 93 8c 40 3e eb 2b 07 3a
       -0.0491589 0.023897072 0.18803625 0.00051563856
0000e0 32 96 d9 bd be 82 16 3e c8 19 42 bd 83 16 34 3e
       -0.106243506 0.14698312 -0.04738787 0.17586713
0000f0 d0 3c 1d 3e de c2 42 bd 69 74 58 ba f7 7a ee bd
       0.1535523 -0.04754912 -0.00082570926 -0.116445474
000100 83 45 01 3d 0b 81 e2 bc 78 86 ec 3d 68 6e 20 3e
       0.031560432 -0.027649423 0.115490854 0.15667117
000110 e7 0a c0 3b 04 4e b2 3c 25 c9 42 be ce ae 80 bd
       0.0058606747 0.021765716 -0.19022043 -0.06283341
000120 92 87 f7 bc c0 49 02 be 29 6d 9d be 67 b7 00 bd
       -0.030216012 -0.12723446 -0.30747345 -0.031424906
000130 f8 e8 31 bd ee bb 8a 3d c1 d4 09 bd bd 17 8c 3c
       -0.043435067 0.06774126 -0.033650164 0.017101163
000140 7c 0f 92 bd 42 fa e6 3d e7 74 13 be 14 f8 f9 bd
       -0.0713186 0.11278202 -0.14400063 -0.1220552
000150 1a b7 c8 bd 86 b0 a0 bd 81 73 ed bd 79 a6 ec 3d
       -0.09800549 -0.07846169 -0.11594296 0.1155519
000160 4d 1f fc bd cf 86 59 be 4f ba 56 3d 0c 8f 03 39
       -0.12310658 -0.21242832 0.05242377 0.00012546423
000170 d4 56 09 3e e1 c7 3b 3d ab 44 28 3d 72 da ef 3d
       0.13412029 0.045844916 0.041081112 0.11711587
000180 ab 22 53 3d fe 54 c3 3b 4b be ac bd 8f 0f 3e bd
       0.051546734 0.0059610596 -0.08434733 -0.046401557
000190 e7 95 07 bd 7d f3 5d 3e bf 7a 81 3d 60 93 d0 3d
       -0.033101942 0.21674915 0.0632224 0.101843596
0001a0 a7 d6 10 bd f2 16 20 3e 5e f0 6d be 29 b9 6e 3c
       -0.03536096 0.15633753 -0.23236224 0.014570513
0001b0 f1 13 79 3d 53 93 ba bd db 4d 61 bd 14 1f 1f 3e
       0.060810033 -0.09110131 -0.05500589 0.15539199
0001c0 ef 45 31 bd 96 11 a7 be df 6d a5 3e d6 e2 5c 3e
       -0.043279584 -0.32630605 0.32310387 0.21570906
0001d0 54 89 7e 3d a8 35 2b bc c0 0a c9 bd d3 d4 66 3d
       0.062142685 -0.010449804 -0.098165035 0.05635531
0001e0 a6 dd 32 be f8 57 ee bc 3a 5a 5b 3d 16 e5 ed 3c
       -0.17467365 -0.029094681 0.053552844 0.0290399
0001f0 fe 9d 9c 3d 9b 04 0f bd 92 21 18 3e 14 f5 b3 bd
       0.07647322 -0.0349165 0.14856556 -0.08786979
000200 fe 0d 03 be ae 05 e2 bd 7c 80 d4 bc 30 11 e1 3d
       -0.12798306 -0.110362396 -0.025940172 0.109896064
000210 5c 3b a0 bd 97 2e d9 3b b4 9b 82 be 65 60 7a bb
       -0.07823822 0.0066278684 -0.25509417 -0.0038204428
000220 a6 a2 01 3e 76 36 4d 3e 28 81 29 3e 90 f3 46 bb
       0.12659702 0.20040306 0.16553175 -0.0030357577
000230 63 94 0c 3e c2 4e 21 3e 4e 3f a6 3c 59 d5 31 3e
       0.1372848 0.157527 0.020293858 0.17366542
000240 40 ef df bc fd c7 d3 3c 2e 51 08 3e cf c0 d3 bd
       -0.027335763 0.025852198 0.13312218 -0.1033951
000250 35 17 0b 3c f0 7c 93 bd 06 58 52 3c 23 57 d9 3c
       0.00848942 -0.07201564 0.012838369 0.026530808
000260 62 0c b5 bd db fa 0a be b3 95 4c 3e 7f d6 c1 bd
       -0.088402525 -0.13572256 0.1997898 -0.0946474
000270 19 3a 43 3e b9 a3 7b bd 91 69 32 3e 28 25 fb bc
       0.19065131 -0.061435435 0.17423083 -0.030657366
000280 5c 13 97 bd b6 8a b6 bb 69 14 e2 bd 8f b0 6f 3e
       -0.073767394 -0.005570735 -0.11039049 0.23407196
000290 87 46 d4 bd ec 22 66 3d ef 55 19 3e 59 ba 10 3e
       -0.103650145 0.056185648 0.14974187 0.14133586
0002a0 56 70 be 3d 8b 66 12 3e ad 4c 98 3d 02 20 3c bd
       0.0929877 0.1429693 0.074365 -0.045928963
0002b0 b2 ac 9f 3d af 7d 4c be 7a 89 69 bd f4 f3 4d be
       0.07796611 -0.1996982 -0.057015873 -0.20112592
0002c0 05 cb f1 3d 6c 50 b5 3b 6b 69 10 3e f7 91 c1 bd
       0.11806301 0.0055332687 0.14102714 -0.09451669
0002d0 e1 b4 64 bd a5 6a f1 bd 33 8e 5f be e9 47 e7 3d
       -0.055836562 -0.11787919 -0.21831588 0.11293013
0002e0 52 eb 3c be 74 03 ae bd d0 60 07 3c 86 40 b7 bd
       -0.18449143 -0.084967524 0.008262828 -0.08947854
0002f0 97 6b b0 3d 12 bf 73 bd da 8d 01 bd 2a 18 a2 be
       0.08614271 -0.05950839 -0.03162942 -0.3165906
000300 ce f8 9f bc 51 b9 90 bd bf 70 49 3e ca 69 52 be
       -0.019527819 -0.07066596 0.19671915 -0.20548168
000310 fd a9 ea 3d 42 f2 08 bd eb 7e 1d bd 16 fe 2c be
       0.11458204 -0.03343416 -0.038451117 -0.16893801
000320 d4 cf c0 3d 03 09 59 bd d2 74 cc 3c 36 5b 84 bd
       0.0941464 -0.05298711 0.024958048 -0.064627096
000330 7b 40 6a ba 7c 45 07 be 53 be 02 bb 1e f5 82 bd
       -0.0008936 -0.132101 -0.0019949868 -0.06394409
000340 dd 9c 9b bd f5 fc 66 bd c6 92 b9 bd 8b 26 78 3e
       -0.07598279 -0.056393582 -0.09061198 0.24233453
000350 2e e4 c6 bd 40 b0 13 bd de 2f 96 bd 5a 48 59 bc
       -0.097114906 -0.036056757 -0.07333349 -0.013261879
000360 73 ba f8 bd be 78 24 be 9e ce ca bd 65 71 0a 3e
       -0.12144937 -0.16061684 -0.0990269 0.13519819
000370 b7 20 5f 3e 60 42 58 3e b2 e5 16 3d 77 29 31 be
       0.21789823 0.2111907 0.03684015 -0.17300974
000380 1b c4 d9 3d 09 59 98 bd a9 b2 f8 3d 15 1c 9e 3b
       0.10633107 -0.07438857 0.12143452 0.004825125
000390 1f 42 14 3e c9 dd 1c bd 4e 92 83 3d 4f 39 11 3e
       0.14478348 -0.03829745 0.0642439 0.14182018
0003a0 c5 b5 a2 bd 46 53 d0 bd 8b e3 98 3d 78 af a5 3c
       -0.07944826 -0.10172133 0.074652754 0.020225272
0003b0 ad 55 41 3d be 8f 1e 3d ff a5 e3 bc 93 be 31 3d
       0.047200847 0.038711302 -0.027789114 0.043394636
0003c0 38 a4 0d be 7f 77 06 be 4f b4 ee bd 30 6b 9a 3e
       -0.13832176 -0.13131522 -0.11655485 0.30159903
0003d0 78 13 a4 3c 01 65 54 3d 13 69 7e 3d ac f7 7b 3d
       0.020028815 0.051854137 0.062111925 0.061515495
0003e0 6e 91 9d 3d 75 db d0 3d e8 88 e6 bd 76 2f 4c 3e
       0.07693754 0.10198108 -0.112565815 0.1993998
0003f0 ba 4e 5e 3d 1e 94 27 bd 37 ce 1c 3c fb 2f cc 3c
       0.0542743 -0.04091274 0.00957065 0.024925223

network_body._body_endoder.seq_layers.0.bias f4 [256]
000000 bd b8 94 bc f7 4d 9c bd d5 7c 18 bd 1a 8f 90 bc
       -0.018154496 -0.07632058 -0.037228424 -0.017646361
000010 d6 c1 0d bd 7d 01 20 3d d9 57 b1 bc 7a 25 31 3d
       -0.034608684 0.03906392 -0.021648334 0.04324863
000020 d4 fd a4 3d 3e 08 16 3d 19 ec 97 bc c7 6d 12 bd
       0.080562264 0.036628954 -0.018545197 -0.035749223
000030 11 54 fd 3c 3c e8 81 3c 52 c4 42 3c e8 12 38 bb
       0.030923875 0.015857808 0.011887627 -0.002808744
000040 06 78 76 3d d3 ed 52 bb 65 91 7d 3d de 65 13 3d
       0.060173057 -0.0032185211 0.061906237 0.03598582
000050 0b dc c3 bd 08 38 d4 3c 38 9d 78 bc 11 4c b9 bc
       -0.09563454 0.025905624 -0.015174203 -0.02261928
000060 cd 91 40 bc 5c a4 d9 bb 30 75 2a bc c6 39 be bd
       -0.011753512 -0.0066419076 -0.010403916 -0.09288363
000070 41 7f 8d 3c d2 f5 65 bd 10 13 e0 bc e8 aa 32 bc
       0.017272593 -0.056142636 -0.02735284 -0.010905005
000080 48 87 ec bb 94 48 21 bd b2 3a 24 3d 3a 13 66 bd
       -0.007218275 -0.039375857 0.04009504 -0.05617068
000090 e2 dd 46 bb 03 56 2a bd e6 46 41 3c 55 68 b0 bc
       -0.0030344655 -0.041585933 0.011796689 -0.021534124
0000a0 02 d4 c7 3c 50 bd 2d 3d 9e 61 8b 3d 61 40 0e 3c
       0.024393085 0.04241687 0.068057284 0.008682341
0000b0 81 c5 6a bd 4e 10 96 bb d3 48 1c 3d 1c 1c 22 3d
       -0.05731726 -0.0045795804 0.038155388 0.03957759
0000c0 85 03 3c 3b 88 98 c7 3a 34 3d 35 3c 14 8e 9c 3d
       0.0028688621 0.0015227953 0.011061955 0.07644287
0000d0 68 6c 86 bd 4d a7 99 bd 60 f0 47 bd 0d c2 93 bc
       -0.065636456 -0.07502613 -0.048813224 -0.018036867
0000e0 fe 0b 40 3b 17 70 cf 3b d9 2a a9 bc 59 ef a8 bc
       0.0029304023 0.006330501 -0.020650314 -0.020621942
0000f0 c8 ff da 3c e3 75 1d bd 56 cb 1f 3d 25 36 b3 bc
       0.026733294 -0.038442504 0.039012276 -0.021876404
000100 65 b2 ea 3b 6c 22 c5 3d fe 65 3d 3d 42 71 46 3d
       0.0071623796 0.09625706 0.046239845 0.048447855
000110 0b fb 82 3c 52 66 ba 3c 72 d6 2d 3c 96 c7 31 bc
       0.015988847 0.022753868 0.01061021 -0.010850808
000120 84 ef dc bc 69 13 4e 3d 7d 5b 16 bd 87 47 41 3d
       -0.026969679 0.05031148 -0.036708344 0.047187354
000130 01 e6 bc 3c 10 96 84 3d 1d 27 e1 bc 54 fa a1 bc
       0.023058893 0.06473935 -0.027484471 -0.019772686
000140 a3 9f d0 ba 67 ff 87 bc bd 4c 79 bc c6 b3 b4 bc
       -0.0015916716 -0.016601278 -0.01521605 -0.022058379
000150 a5 cd 05 bd 01 a3 b9 bc 37 2a 48 bd 12 88 81 bc
       -0.03266682 -0.022660734 -0.048868384 -0.015811954
000160 b7 8c 9a bc 86 03 c9 bb af 6a 7c bc dc 90 ed 3c
       -0.018865926 -0.006134453 -0.015406295 0.028999738
000170 a1 f4 01 3e 05 c9 71 3d f2 be 5a bc 80 c9 53 bd
       0.12690975 0.059029598 -0.013351189 -0.051705837
000180 48 72 18 bd aa 0c 09 bc 9f 3e 02 3d 0f 70 67 bb
       -0.037218362 -0.008364836 0.031798 -0.0035314595
000190 ce 22 32 3c e0 a4 0d 3c 12 8f e6 ba 74 d4 7c bd
       0.010872556 0.008645266 -0.0017590246 -0.06172605
0001a0 ab 62 8d bc db 39 25 3b d4 f7 8d 3b a5 53 52 3d
       -0.017258963 0.0025211486 0.004332522 0.0513493
0001b0 39 aa 13 bd 84 f3 47 3d 70 75 0e 3d 22 c9 91 bc
       -0.03605101 0.04881622 0.034779966 -0.017796103
0001c0 5c d9 3b bd cd 75 d1 bc 86 93 4d bc 41 37 7d bc
       -0.045861587 -0.025568867 -0.012547379 -0.015455068
0001d0 b1 c6 53 3c 7e 00 8b 3d 0f 2a 07 3b 99 d1 99 3a
       0.01292579 0.06787203 0.0020624434 0.0011735439
0001e0 0f f2 77 bd c0 1f 1e bd ac d0 30 bb 92 92 60 bc
       -0.06053358 -0.038604498 -0.0026979847 -0.01370682
0001f0 30 e9 d2 bb 38 49 0e 3c 21 32 8d 3d 59 b2 69 3b
       -0.0064364895 0.008684449 0.06894327 0.0035659282
000200 6b 75 96 3d 16 62 02 3d 0e f7 75 bc fe fe 86 bd
       0.073466145 0.031831823 -0.015012516 -0.06591605
000210 f2 71 59 3d 2d 18 a4 3c d8 cb 1a 3c 40 f5 79 3c
       0.053087182 0.02003106 0.009448014 0.015256226
000220 3e 44 7d 3c 8f 71 22 bd a8 ca 9e bc 47 6e 6b bc
       0.015458165 -0.03965908 -0.019383743 -0.014369554
000230 f4 7d 35 3b e7 bb 94 bc 22 f4 e3 3c 2e 03 85 3c
       0.0027693482 -0.018156005 0.027826373 0.016236868
000240 e5 da 9f 3c b1 46 62 bc f3 a4 35 3d ab 3d 18 bc
       0.019513557 -0.013810799 0.04434676 -0.009292047
000250 1e 0c d6 3a c2 ba 4a bd bb 6b 23 3c 2c e1 41 bd
       0.0016330516 -0.049494512 0.009974415 -0.04733388
000260 15 5b 8c 3d 40 1c 80 bc 4b b5 5f bd f0 a8 24 bc
       0.0685331 -0.01563847 -0.054616254 -0.010050043
000270 67 e3 8b bc 7d 05 16 bc 98 46 e6 3b 12 5a 22 bd
       -0.017076207 -0.009156582 0.0070274584 -0.03963668
000280 4f 3f 10 bc 6d e8 11 3d a8 e8 a5 3b 7b 8f 25 3d
       -0.008804156 0.03562205 0.005063135 0.040420037
000290 6a 4c 29 bd 53 17 9f 3c ee e3 60 3d 8d 85 cd bc
       -0.04133264 0.019420302 0.05490487 -0.025088096
0002a0 75 ed 87 3d b6 b1 c9 bc df ff 35 bb 3b 3a dc 3a
       0.06637088 -0.024620872 -0.002777092 0.0016802022
0002b0 e2 39 72 3d 0b 81 18 3d f0 85 01 bd 1a 74 3a 3d
       0.059137233 0.03723244 -0.031621873 0.04552088
0002c0 86 7b 56 3d f9 6e 0c 3d 98 b6 2d b8 c8 2a 67 bd
       0.052363895 0.03428552 -4.1416468e-05 -0.056437284
0002d0 8b c2 63 3d 40 27 21 bc 4d 2b 09 bd 4d 27 06 3c
       0.055605453 -0.009836018 -0.03348856 0.008188081
0002e0 c7 06 81 3b 00 b0 f1 bc 5e a1 43 bd 8c 86 96 bd
       0.0039375755 -0.029502869 -0.047761314 -0.073498815
0002f0 94 75 4d bd ab af 90 bc cf 54 64 3c 93 28 29 3d
       -0.05016096 -0.01766189 0.013936236 0.04129846
000300 0b 8b 9a bc 66 4d d0 bc f9 75 0b bd 4e 66 21 3d
       -0.018865129 -0.025427531 -0.034048054 0.039404206
000310 45 f4 20 3b 2c 33 a6 3c f2 1f 74 bd 2f 7d 80 bd
       0.0024559658 0.020288073 -0.059600778 -0.06273877
000320 74 6d 7c bd e8 45 c6 3c ca d8 30 3d dc e9 1f 3d
       -0.06162782 0.024203256 0.043175496 0.039041385
000330 4a 98 06 bb 16 85 36 3c 1c 51 9b bb c5 0f 87 3b
       -0.0020537549 0.011140129 -0.0047398936 0.004121753
000340 4f 26 ae 3a 48 dd 41 3d 5d 9e 79 3d 59 dc 17 3c
       0.0013286563 0.04733017 0.060942043 0.009268844
000350 9e e4 aa 3d d3 84 60 3c fb 4f 84 bb 73 1c 14 3d
       0.083443865 0.013703543 -0.0040378547 0.036159944
000360 1d 80 48 3d b8 f3 25 3d f4 32 9b 3d 48 55 2d bc
       0.048950303 0.04051563 0.07578078 -0.010579415
000370 1a 41 3f 3d a5 17 56 3d 3d ed 13 3d 65 e7 b1 3c
       0.046692945 0.052268643 0.03611492 0.021716783
000380 90 10 49 3d a6 64 37 bc 70 8f b2 bc 85 cb bd bb
       0.04908806 -0.01119343 -0.021796912 -0.0057920837
000390 eb 7b 65 3d bf 00 b6 bd a8 63 c3 3c 68 50 e8 3a
       0.05602638 -0.08886861 0.02385123 0.0017724158
0003a0 4a a1 dc 3b ba 9f 76 3d c9 26 3b 3d d7 34 0d bd
       0.0067330943 0.06021092 0.045691285 -0.03447422
0003b0 1c 86 85 bc a3 17 5f 3d ac 75 66 bc e5 1f c2 3a
       -0.0162993 0.0544659 -0.014066141 0.0014810531
0003c0 d6 7f 88 3b ed 2b 44 3d 47 cb 31 bd 5e db 18 bd
       0.00416563 0.047893453 -0.04340675 -0.03731858
0003d0 af aa 92 bd c6 e7 e6 bc bc 11 16 bd 11 e3 03 bc
       -0.071614616 -0.02818669 -0.036638007 -0.008049742
0003e0 a4 2f 70 bd a1 d3 90 bc c7 a7 01 bd d9 d8 5e 3d
       -0.058639184 -0.017679038 -0.031654146 0.05440602
0003f0 c3 13 2e 3c c6 7b 88 bc 41 20 f0 3c 02 79 67 bc
       0.010624829 -0.016660582 0.029312255 -0.014127972

network_body._body_endoder.seq_layers.2.weight f4 [256, 256]
000000 7d 6d 1e 3d f5 4c 56 bd 80 cc c3 3c d3 0e 3d bd
       0.038678635 -0.052319486 0.023901224 -0.046156716
000010 fd d0 ce bd 2f ff 9d 3c b0 b5 59 be ec ad 73 3d
       -0.10098455 0.01928672 -0.21260715 0.059492037
000020 c4 f1 09 be 94 44 3d bd 42 af 80 bc b4 48 7f bc
       -0.13471133 -0.04620798 -0.01570857 -0.015581299
000030 d1 20 18 be 3c 42 a7 bd a1 84 cb bd ea 33 70 bd
       -0.14856268 -0.0816693 -0.09937406 -0.05864326
000040 1a 5a 1f 3d a6 04 ab bd 08 87 09 3c 0a 38 c1 3d
       0.038904287 -0.08350496 0.00839401 0.09434517
000050 2d cf 75 bd 5e 0c 41 3d 5b c7 34 3e 96 f9 78 3d
       -0.06001203 0.047130935 0.17654173 0.0607849
000060 6b ef 06 3d 41 74 30 3d b0 84 04 be 1e 2b 5d bd
       0.03294317 0.04307962 -0.12941241 -0.053996198
000070 c2 43 3c bc 7e 68 a9 bb f4 ce 54 bd e1 b9 14 be
       -0.011490764 -0.005169927 -0.05195518 -0.14524032
000080 cc f1 de 3d 9a a2 d7 bd ea c0 14 3d 0e d0 1a bd
       0.10885963 -0.10529061 0.03631679 -0.037796073
000090 bf 6c 8c bd da 4e 16 bd 16 e0 01 3e c6 94 da bd
       -0.06856679 -0.036696292 0.12683138 -0.106729075
0000a0 25 5c d1 bd 9d c2 dc 3b 42 60 6d be ed ea 54 3d
       -0.10222653 0.006737067 -0.2318125 0.051981855
0000b0 46 52 e5 bc 40 bc 34 bd 49 90 92 bd 42 e1 24 3e
       -0.027993333 -0.04412484 -0.071564265 0.16101554
0000c0 13 05 2f 3d c1 1e af 3a f7 bb 07 3d e1 de 82 bd
       0.04272945 0.0013360606 0.03313824 -0.06390167
0000d0 cf be b9 bb f8 67 b2 bd aa d9 af bd 02 82 95 bd
       -0.005668498 -0.08711237 -0.08586438 -0.07300188
0000e0 97 6a 89 3b 9f 76 a9 bd e7 79 57 3d 0a f4 83 bd
       0.0041936147 -0.08274578 0.05260649 -0.06443031
0000f0 76 58 9a 3d 22 e4 8b bd a5 57 5b 3d 47 a8 e9 3c
       0.07536404 -0.06830622 0.05355038 0.028522624
000100 8d 9d 6c 3d dd 04 a6 3d 48 c3 32 3d d1 29 7f bc
       0.05776744 0.08106396 0.043643266 -0.015573935
000110 99 47 fe 3c 22 0c ed 3d a8 7b fe bd 46 90 8a 3c
       0.03104 0.1157458 -0.12425929 0.016914498
000120 8c 2e bb 3d f5 13 9a bd 54 f8 4b bd 2a 9d 80 bd
       0.091397375 -0.07523338 -0.04979737 -0.06279977
000130 44 53 bb 3d 29 14 b0 bd 1f 46 01 be 23 c4 98 3b
       0.09146741 -0.08597595 -0.12624405 0.004662053
000140 58 e8 bf bc f8 62 fc 3d a1 5c b6 bc b2 81 92 3d
       -0.02342622 0.12323564 -0.022260966 0.07153644
000150 11 83 ea bd fb af a4 bd 89 ba ec 3b 85 8f 16 bd
       -0.1145078 -0.08041378 0.007224385 -0.036757965
000160 5a 74 83 bd d0 ed 3e 3d 4f eb ad b9 32 b6 f5 3d
       -0.06418677 0.046613514 -0.0003317245 0.119976416
000170 2f 15 bf bd 4e e0 97 3b 27 9a 58 3c 70 92 e8 3c
       -0.09330212 0.0046348935 0.0132203465 0.02839014
000180 fa 32 e1 bc e9 20 a4 3d d5 fe 99 bb d7 ab f7 3c
       -0.027490128 0.080140896 -0.004699568 0.030233307
000190 92 67 86 bd 41 af 84 3d 84 a3 53 3d 8b 74 e0 bc
       -0.06562723 0.064787395 0.051669613 -0.027399322
0001a0 f6 5a 07 3e 26 f2 a1 bd 5a 31 98 3d 2e 48 35 3d
       0.13218293 -0.07907514 0.07431288 0.04425829
0001b0 9d 8f 64 bc f6 74 80 bd b6 a6 7f 3c 0a fa 0e bc
       -0.013950256 -0.062723085 0.015603712 -0.008726606
0001c0 31 8c 91 bb 99 8f 2f be c4 41 96 3d 0a cc 3a 3d
       -0.004441761 -0.17144622 0.073367625 0.045604743
0001d0 cc 00 3b be e6 e2 92 bc da 05 4b bd 13 c4 22 be
       -0.18262023 -0.01793046 -0.049566127 -0.15895109
0001e0 ac 73 81 bb 51 4a 9e bc 09 d8 64 bc 79 b7 b4 3c
       -0.0039505567 -0.019322546 -0.013967522 0.022060143
0001f0 21 d1 dd bb 2b 06 00 be 05 b7 c5 bc 7c db df bb
       -0.006769315 -0.12502353 -0.024135122 -0.0068315845
000200 88 bf bf 3c 94 6d 3c bc e8 8b 13 bd 95 83 e2 3d
       0.023406759 -0.011500735 -0.036022097 0.110602535
000210 b4 0e 90 bd ba 87 b8 3d 8f 5c 37 bc 36 e8 a2 bd
       -0.070340544 0.09010263 -0.011191501 -0.07954447
000220 24 0d 86 bd a1 3b 96 3d e8 47 e3 bc 22 50 2b 3e
       -0.06545475 0.07335592 -0.027744249 0.16729787
000230 ef 2a 8c 3d 5b 11 0d 3d 5f fa f1 bd 2f 1f b4 be
       0.068441264 0.03444038 -0.118153326 -0.3518004
000240 39 29 fc 3c d2 ca 51 bd fc 94 01 be 45 27 fa 3d
       0.030781375 -0.051218815 -0.1265449 0.12214521
000250 ae 60 01 be bc e6 e3 bd da 12 8a 3c c1 46 85 3d
       -0.12634537 -0.111279935 0.016854692 0.06507636
000260 12 24 b0 3b 27 23 07 3a 0b 2b 96 bd ef 18 79 bd
       0.0053753937 0.00051550794 -0.073324285 -0.060814794
000270 36 be 80 bd 9c 89 83 bd 81 33 27 bc 98 5e 21 be
       -0.0628628 -0.06422731 -0.010205151 -0.15758741
000280 cf 1b 23 3e 36 8f c6 3d 08 bf 74 bd 4b fc d4 3a
       0.15928577 0.09695284 -0.059752494 0.0016249506
000290 a7 ff 11 bd 08 7a 2b bd 64 7e 79 3c c5 de e8 bc
       -0.0356442 -0.041864425 0.015227888 -0.028426537
0002a0 6a 2c d7 3d 67 27 52 3b 2d 86 55 3d 51 fa c8 3b
       0.10506518 0.0032066943 0.052129913 0.0061333557
0002b0 75 57 be 3c 36 e4 56 bd 87 69 22 bd ed 9e 63 be
       0.023235062 -0.052463733 -0.03965142 -0.22228594
0002c0 be 24 91 3d f6 d5 38 3d c7 7a 3f bd 96 00 ea 3c
       0.07087086 0.045125924 -0.04674795 0.028564733
0002d0 b6 9e 91 3d dc f2 b3 3c da 73 c5 3b 0f 88 cf 3d
       0.0711035 0.02196639 0.0060257735 0.10133373
0002e0 2d 01 3b bd f9 82 54 bd 4f 19 7c 3d 1d fe a2 bd
       -0.04565542 -0.051882718 0.061547574 -0.079586245
0002f0 11 1b 26 bc 8f 45 02 3e 2b ed a3 3c 1c f2 13 3c
       -0.010138289 0.12721847 0.020010551 0.009029891
000300 6a 21 d1 bd 2f cc 2f 3d 29 6d ac 3d 28 4b ad bd
       -0.10211451 0.042919334 0.08419258 -0.084616005
000310 1b 59 b5 3c 87 d3 a4 3d 72 d8 b3 bc 81 5f 17 be
       0.022137215 0.08048158 -0.021953795 -0.14782526
000320 6c 3c fb bd ee 48 59 3d b0 ad 75 3d f5 b0 c0 3d
       -0.12267384 0.053048067 0.059980094 0.09408752
000330 1e b8 6b bd dc 68 23 bd 73 e9 a9 3d fc 5d 1b 3d
       -0.057548635 -0.039894924 0.0829648 0.037931427
000340 06 b1 8b 3d a9 fe ac 3c 3a 65 ff 3c c6 b5 8b 3b
       0.06820874 0.021117525 0.031176198 0.0042636124
000350 55 66 11 3e d1 2a 35 be 7f ba 3c bd a1 df 1d 3d
       0.14199193 -0.17692114 -0.046076294 0.038543347
000360 f7 83 64 3c c5 46 9f bc d9 5f 35 3c 56 86 14 3d
       0.0139474785 -0.019442925 0.011070215 0.036260925
000370 1b 3c 85 bd fe bf 2e 3e 97 57 f3 3d 7e dd 67 3c
       -0.06505605 0.17065427 0.11881941 0.014151929
000380 a3 f5 87 be b1 09 dd 3c 69 93 19 be da 48 22 bc
       -0.26554593 0.02698216 -0.14997639 -0.0099050645
000390 56 97 cb bc 42 b3 a5 3d ac 9b 21 bd 1f 47 75 bc
       -0.024852436 0.08090831 -0.0394551 -0.01497057
0003a0 aa fb 8b bd cf 37 0d 3c e9 9c ed 3d 2f e7 b6 bd
       -0.068351105 0.008619263 0.11602194 -0.089308135
0003b0 d2 c0 e5 3d 50 db d5 3d 38 ec 8e 3d b3 22 e0 3a
       0.11218418 0.10442221 0.06978649 0.0017100185
0003c0 81 bf de 3b e7 6d a9 3d 37 76 4b 3c f3 5e cb bc
       0.0067977314 0.08272915 0.012418321 -0.024825549
0003d0 41 17 f0 3b 36 f0 ac 3b 7b 96 2e 3e 21 02 12 3d
       0.007326991 0.005277659 0.17049591 0.03564656
0003e0 78 37 15 bd 75 2a ee 3d ac dc 9a 3d 32 84 b5 3d
       -0.036429852 0.11629192 0.07561621 0.08863105
0003f0 cb 7a 18 3e a2 33 90 bd 6a 33 4b bd 89 f7 be bd
       0.14890592 -0.07041098 -0.04960958 -0.09324557

network_body._body_endoder.seq_layers.2.bias f4 [256]
000000 2e c4 8a 3c 0f 5f 76 3c f2 db 31 bc f8 a5 7a 3d
       0.016939249 0.015037312 -0.010855662 0.061193436
000010 69 f2 51 bd fe 52 cf bc 33 df 41 bc 3a 4a 72 bd
       -0.05125657 -0.025308128 -0.011833 -0.05915282
000020 60 36 ee bb b0 97 02 bc 4c c1 be bc b7 39 37 3a
       -0.0072696656 -0.007970735 -0.02328553 0.0006989496
000030 6e 26 53 3d ef b9 b5 bb 29 30 41 3c ba 73 5e 3c
       0.05155032 -0.0055458467 0.011791267 0.013577396
000040 91 17 39 3d f9 f2 23 bd 8c 64 74 bd d8 18 00 3c
       0.04518849 -0.04002664 -0.0596662 0.007818423
000050 24 cf cb 3b e7 26 87 3b fd 9a 72 3c 1d 46 97 bd
       0.0062197614 0.0041245106 0.01480746 -0.0738642
000060 a1 00 99 bd d8 f9 41 3b d5 2a a5 3c 83 41 47 3d
       -0.07470823 0.0029598381 0.020162025 0.04864646
000070 0d ed fa bc 48 c7 8e 3c 7d 38 69 bd 53 c1 16 bd
       -0.030630613 0.01742901 -0.056938637 -0.036805462
000080 76 11 30 3d 0e f4 a2 bb 65 8e 63 3d d8 e1 28 3d
       0.042985402 -0.0049729412 0.05555572 0.041231006
000090 fd 5b 29 3b 3e 64 1c bd 83 69 68 bd 39 00 07 3c
       0.0025842183 -0.038181536 -0.05674125 0.008239799
0000a0 82 f3 6e 3c a3 3b 4c bd ec 73 32 3d 4a c8 ad bb
       0.014584424 -0.04986156 0.043567583 -0.0053034173
0000b0 4c 18 87 bd fd 4e 81 3b 59 0c 1a bd 9b 3c e5 3c
       -0.06596431 0.0039461837 -0.037609432 0.027983
0000c0 e6 02 e3 3c 91 e2 11 bd c8 64 7e bb f9 03 73 3d
       0.027711343 -0.03561646 -0.0038817395 0.05932996
0000d0 75 cd 62 ba 16 5f b8 3c ea 11 cb 3c b7 35 f8 bc
       -0.00086518313 0.022506278 0.024788816 -0.03029905
0000e0 94 6e 93 bb 9a 4f be 3b 13 f4 05 3d f8 67 17 bc
       -0.004499266 0.005807829 0.03270347 -0.009241097
0000f0 13 a4 0f 3d df 82 50 bd 0c c5 33 3d e8 45 8c bd
       0.035068583 -0.05090606 0.04388909 -0.06849271
000100 31 fa 1a bd 58 fb 45 bd 6d 0b 1b 3d ee f2 17 bd
       -0.037836257 -0.048335403 0.037852693 -0.03709691
000110 05 d9 aa bc 16 73 8e bc c4 31 84 3d fa 43 97 bc
       -0.020855436 -0.017388862 0.064548045 -0.018465031
000120 40 c5 95 bc d4 91 c5 bc b8 65 79 bc e5 9b 59 bd
       -0.018282533 -0.024117388 -0.015222006 -0.05312719
000130 9d a2 a5 bd 7a d9 63 bc 2f 04 46 3c db df b3 3c
       -0.08087657 -0.013906831 0.012085958 0.021957329
000140 7e 35 86 bc f6 89 63 bd 0f d3 4b 3d 64 99 9a 3d
       -0.016382929 -0.05555149 0.049761828 0.07548788
000150 b4 88 c8 bc 3d 93 23 bd 25 44 bb bc 8e 5a 5a 3c
       -0.024479248 -0.03993534 -0.022859642 0.013327254
000160 26 2e 5a bd 07 67 a5 3d 83 39 1b 3d b1 d1 10 bd
       -0.053266667 0.080762915 0.037896644 -0.035356227
000170 e6 89 b7 3b d3 6c 1c bd f4 77 08 3d 8d 55 9e 3b
       0.0056011556 -0.03818972 0.03331752 0.004831976
000180 2d 6a ce 3c 16 8e 19 bd 3a 03 04 3d 53 fd 6b 3c
       0.025197113 -0.03748902 0.03222964 0.014403659
000190 c9 4d 61 bd 55 7d fa 3b 26 c1 1f 3d 18 a5 45 bc
       -0.055005822 0.0076443353 0.03900256 -0.012063287
0001a0 5c 31 47 bd 56 34 1e 3d cf 90 8b bd af cb 16 3c
       -0.048631057 0.03862413 -0.068147294 0.009203835
0001b0 0c bf 92 bd 9b e2 ae bc 4a 76 d0 3d 25 e8 33 bd
       -0.071653455 -0.021348288 0.10178812 -0.043922562
0001c0 fa 45 79 bc d8 72 ea bc 7d fe 8c bd 02 b9 33 bd
       -0.015214438 -0.028619215 -0.06884477 -0.04387761
0001d0 46 f7 6b bc 04 85 04 3d 56 ef 80 3c 69 df 25 3d
       -0.014402216 0.032353416 0.015739124 0.040496264
0001e0 8f a3 12 3b 72 c0 c1 bc b7 df fe bb fc b1 ac bc
       0.002237532 -0.023651335 -0.0077781337 -0.021080963
0001f0 ae 46 06 bc 9e ec 69 3c cf ba 2d bd c6 d5 7a 3d
       -0.008195562 0.014277605 -0.042414483 0.061239026
000200 97 7d e5 bc 4b 2c ee 3c 65 1c d3 bc df ae 2f bd
       -0.028013987 0.029073855 -0.025770376 -0.04289138
000210 09 d5 42 bc 08 6c 29 3d d9 d5 ed 3c a5 8f 1e bb
       -0.011891612 0.041362792 0.029032635 -0.0024194506
000220 5c 62 e3 3c d0 92 46 bd 1c 8a 2f 3b d6 69 8b 3c
       0.027756862 -0.048479855 0.00267852 0.01701824
000230 2d dd ac 3a 27 2c 00 bd 40 81 52 bb 5e 50 05 bd
       0.0013188474 -0.031292107 -0.0032120496 -0.032547347
000240 9a c3 55 bb 77 32 0e 3d a7 8f 6c 3c 9b 54 01 3d
       -0.0032617808 0.034716096 0.014438546 0.031574827
000250 eb c2 23 bd 34 37 79 bd 10 7d ba bd bb c6 12 bc
       -0.03998081 -0.06084366 -0.09105885 -0.008958514
000260 7b ac 63 3d 98 eb 3a 3d 83 5a b3 3c 5f 6d e5 3c
       0.055584412 0.045634836 0.021893745 0.028006254
000270 8a d5 7f 3c 1c 66 92 3c 1b 70 dd 3c 3d 95 da 3c
       0.0156148765 0.017870955 0.027030995 0.02668249
000280 10 e9 a3 bc b3 49 52 bd 34 be ae bd 86 e9 ec bb
       -0.020008594 -0.051339816 -0.08532372 -0.0072299866
000290 f7 16 9f 3c de 4a d0 3c 6a cf d8 ba eb 1f 6c ba
       0.01942013 0.025426324 -0.0016541306 -0.00090074417
0002a0 56 5b aa 3c 62 7e 05 3d 1a ec 16 3d 12 f5 87 3b
       0.020795505 0.03259123 0.036846258 0.0041490877
0002b0 82 cf cf bb 0e 69 09 3d f9 d3 8a bc ba 34 d3 38
       -0.0063418755 0.033547454 -0.01694678 0.00010071085
0002c0 20 dd 67 bd f4 35 25 bd eb 5e d7 3b 41 08 98 3c
       -0.056607366 -0.040334657 0.0065725944 0.018558623
0002d0 9c fe f4 3b cb c9 a3 bd 50 d3 28 3d c3 41 14 bd
       0.007476641 -0.07997473 0.04121715 -0.036195528
0002e0 53 48 c2 ba 3c f1 bb bc 51 4b 2e bc 33 2b 29 3c
       -0.001482258 -0.022942178 -0.010638074 0.010325241
0002f0 5f 2c 31 bd ae 20 93 bd f9 13 6d bd 67 74 9c bc
       -0.043255206 -0.071839675 -0.057880376 -0.019098474
000300 9a 58 4b bd 48 88 9c bd 3f 89 f1 bc 36 ae 18 bd
       -0.049645044 -0.07643181 -0.02948439 -0.037275515
000310 2f 4c ed 3c 4d 8a 84 bd b5 ab 53 3d 3d e7 21 3d
       0.028966991 -0.06471691 0.051677424 0.039527167
000320 49 72 2b bd 3a 89 39 bd dd 58 08 3d fc e3 91 3d
       -0.041857038 -0.045296885 0.03328787 0.07123563
000330 ae c7 86 3a bc 79 9c bd e9 d3 03 bd 75 e6 27 3d
       0.0010282898 -0.076404065 -0.032184515 0.040991265
000340 8f 95 9e bc 58 e7 b5 bc c2 e1 60 bd 54 37 11 3d
       -0.019358424 -0.02220504 -0.0549028 0.035453156
000350 32 b8 af bd 29 eb de 3c ec a7 0f bc 5c f5 0a bd
       -0.08580054 0.027211742 -0.008768063 -0.0339254
000360 a2 cd 00 bc 61 01 ab bc ff d4 ac bd 47 e4 44 bd
       -0.007861527 -0.020874681 -0.08439063 -0.048069265
000370 46 9b 46 bc be 9a c5 bc d5 88 0b bd 6d 15 d7 39
       -0.012121981 -0.024121638 -0.03406604 0.0004102396
000380 35 53 c1 3a 9a 3f 80 bb d3 e2 bf bc 49 b5 d9 3c
       0.0014749529 -0.003913832 -0.023423588 0.026575701
000390 a7 f3 e1 bc ef e1 28 bd cf 02 b8 3c 25 2e ed 3b
       -0.027582003 -0.041231092 0.022462277 0.007238167
0003a0 b7 68 a1 3c 88 37 13 3d de 02 dd bc 89 b5 0e bd
       0.019703252 0.03594163 -0.026978906 -0.034841094
0003b0 e8 c6 fa 3a 23 4a 27 bd 94 19 4e bd fc b0 7c bd
       0.0019132765 -0.040842187 -0.050317362 -0.061692223
0003c0 ed 16 14 3c 78 b9 98 3c 08 bc 8d bd 05 70 8b bd
       0.009038669 0.018643126 -0.0692063 -0.068084754
0003d0 2b 89 ba bd a4 35 55 3d 6e 62 1c bd 9f 29 dd bb
       -0.09108194 0.05205311 -0.038179807 -0.0067493464
0003e0 c0 a1 58 bb b6 b4 35 bd c5 bc dc bc 97 b2 3f 3c
       -0.0033055395 -0.044361793 -0.026945481 0.011700294
0003f0 03 a0 81 bd 43 f2 b8 bc 44 88 4c bd d0 5e f2 bc
       -0.06329348 -0.022576457 -0.04993464 -0.029586226

action_model._continuous_distribution.log_sigma f4 [1, 4]
000000 08 8b f3 be bb a5 06 bf 87 89 48 bf 88 a5 81 be
       -0.4756701 -0.52596635 -0.7833485 -0.25321603

action_model._continuous_distribution.mu.weight f4 [4, 256]
000000 95 75 b5 bc 07 35 96 bd 6f f6 05 bc c7 f3 81 3d
       -0.022150794 -0.07334333 -0.00817643 0.06345325
000010 0c 48 25 be 13 9a 3b 3c 31 a0 e1 bd fa 54 9e bd
       -0.16140765 0.011450308 -0.11016882 -0.07731052
000020 b6 10 22 bc 98 1a d1 bd 14 f9 e2 bc 44 04 b4 bb
       -0.0098916795 -0.102101505 -0.02770666 -0.0054936726
000030 96 81 a3 3d 5e 8b 94 bd 4b 90 2c 3d ea f0 81 3d
       0.07983701 -0.07253145 0.042129796 0.06344779
000040 1a 03 43 3d 9e 6e f2 bc 04 93 eb bd a2 73 5d 3c
       0.04761038 -0.029593762 -0.115026504 0.013516339
000050 bd a8 b9 bc 63 dd 47 bd 46 87 94 bd b0 81 23 be
       -0.022663468 -0.048795115 -0.07252364 -0.1596744
000060 b8 d8 b3 bd 75 ab 71 3d 6e ab 4e 3d a8 93 a3 3d
       -0.0878157 0.059001405 0.050456457 0.079871476
000070 d4 98 1f bc fa 6f 89 3c da f6 bf bd d7 61 89 bd
       -0.009741027 0.016777027 -0.09373255 -0.067081146
000080 fd 0e 83 3d 56 21 4f 3d 4a 0a 68 3d 39 2d 94 3d
       0.06399343 0.0505689 0.056650437 0.07235188
000090 5c fd 11 bb 4a 5e 2c bc a0 ee cb 3b 4f ea 45 3c
       -0.0022276258 -0.010520527 0.0062235147 0.012079789
0000a0 57 c7 4e 3d e3 fd 7d bd 4e 98 3a 3d 00 6f 25 3c
       0.050483074 -0.062009703 0.045555405 0.010097265
0000b0 18 99 f2 bd b7 2e be 3c 09 41 56 bd 34 4e a1 3d
       -0.118456066 0.023215635 -0.052308116 0.07876244
0000c0 eb 33 3f 3d 0b 16 83 bd 67 d1 30 3d 4b 86 02 3d
       0.046680372 -0.06400689 0.04316845 0.031866353
0000d0 26 f5 06 bd 86 22 07 3d 3a 7e 7b bb e9 92 93 bd
       -0.032948636 0.03299191 -0.0038374797 -0.07205755
0000e0 d7 99 53 bd b0 d5 05 3c 82 35 40 3d a7 f6 89 3d
       -0.051660385 0.008168623 0.04692603 0.06736498
0000f0 4e f2 98 3b 38 19 65 bd 18 09 0c 3e fb 49 c6 bd
       0.004667557 -0.055932254 0.13675344 -0.096820794
000100 c3 e9 f6 bd 35 f8 9c bd ba 39 38 3d 79 e5 06 be
       -0.12056305 -0.07664529 0.044976927 -0.13173474
000110 61 8f e2 bd c6 a8 6e bd b8 ca be 3d 99 e5 93 3b
       -0.110625036 -0.058266424 0.09316009 0.004513454
000120 89 85 ad bd 02 dd 65 3d 7f 66 0c bd 35 29 fc bc
       -0.084727354 0.056118973 -0.034277435 -0.030781368
000130 e3 b0 30 be 56 23 aa 3b c1 cf 8c bd c8 cc 27 3d
       -0.17254977 0.0051922007 -0.068755634 0.04096678
000140 8a ac cc bc a4 e9 e5 bd ba bd 7d 3d 0d 7d 2b 3d
       -0.024984617 -0.11226204 0.061948515 0.041867305
000150 8c 99 84 3d 1a de 74 bd c7 19 82 bd 4a 07 73 3c
       0.06474599 -0.059782125 -0.06352573 0.014833281
000160 84 b8 b6 bd 13 32 89 3d 39 4c a5 3d 31 5a 5b bd
       -0.08921912 0.06699004 0.08071179 -0.05355281
000170 f0 f5 e2 bc 45 94 00 be 3c fe b7 3c 9f 44 76 bd
       -0.027705163 -0.1255656 0.022460096 -0.060124036
000180 c5 48 4f 3d 58 5b 12 bc 0f 21 1d 3d fd 1b 8f 3c
       0.050606508 -0.008932911 0.038361605 0.0174694
000190 6a 08 3a bd b3 0b 8f bd 96 12 9e 3d b8 7f 27 bd
       -0.04541818 -0.06984653 0.07718389 -0.040893286
0001a0 f5 2f fc bd a2 e6 35 3d 09 4d b9 bd 05 de 64 3d
       -0.123138346 0.0444094 -0.090478964 0.055875797
0001b0 0e 7d 03 be 54 49 e4 bc b1 27 c5 3d be 01 d6 bd
       -0.12840673 -0.027866997 0.09626711 -0.10449551
0001c0 e6 e7 56 3c 81 c4 fe bc 0e a8 cd bd a5 0d f8 bd
       0.013116812 -0.03109956 -0.100418195 -0.121119775
0001d0 ea 8f 71 bc e6 9d bc 3d 33 5c 8e 3d ca 5b eb 3b
       -0.014743784 0.09209804 0.06951179 0.007182573
0001e0 cb d4 be bd 9d 7f 47 3c 8e e5 31 3d 24 cf 2a 3d
       -0.09317931 0.0121764215 0.04343181 0.04170145
0001f0 21 ce 43 3d 2e be 05 3d d2 93 a5 bd 59 c9 9d 3d
       0.047804 0.032652073 -0.08084835 0.0770442
000200 75 10 13 3d f1 e6 1d bd d2 95 df 3b 9b 9c 3b bd
       0.035904367 -0.03855032 0.00682328 -0.045803647
000210 81 ea fe bd 50 28 88 3d 92 4c 0d 3d 3c 51 de bc
       -0.12447072 0.06648314 0.03449685 -0.027138345
000220 b4 84 70 3d de 58 d1 bd ef 0a 5c 3b 1a 5b f6 bc
       0.058720306 -0.10222028 0.0033575853 -0.030072737
000230 e4 fa a4 bc 9b 18 34 bc 2c 93 3b 3b 7c 88 8d bd
       -0.020139165 -0.0109921945 0.0028621657 -0.06910798
000240 ae 73 2f b7 8f 0b 81 3d 50 85 cc 3c 8f 37 2e 3d
       -1.0457747e-05 0.06301033 0.024965912 0.042533454
000250 91 4a 6f bd c9 9a 55 bd 56 dd d3 bd 7e 67 c8 bd
       -0.05842072 -0.052149568 -0.10344951 -0.097853646
000260 44 cc 1c 3d 59 c9 8d 3d af a5 7b 3d 46 49 2f bd
       0.03828074 0.0692317 0.061437305 -0.04279449
000270 d0 41 01 3d a4 ea 76 3c e5 5b eb 3c 63 ac 86 3c
       0.031556904 0.015070591 0.028730342 0.016439622
000280 87 77 7f bd cb e3 20 be ea 0f 18 bd 7d bd 65 bd
       -0.06236985 -0.15711896 -0.03712455 -0.056088913
000290 43 ae 46 3d 50 dd f3 3b c5 a9 f7 bb 6c 06 33 3d
       0.048506033 0.007442154 -0.00755808 0.043707296
0002a0 c3 c9 7b 3d f9 ce 78 bc 02 19 fd 3c 5c 3c 84 3c
       0.06147171 -0.015186065 0.030895714 0.016142063
0002b0 5a 93 02 bb e1 76 af 3d 3b 2e 32 bd 1e 9c c9 3c
       -0.0019924254 0.08567596 -0.04350112 0.024610575
0002c0 a9 2a 9d bd b6 a2 22 bb e3 5b 12 3d 80 53 c1 3c
       -0.076741524 -0.0024816222 0.03573216 0.023599386
0002d0 ff 9e ca b9 f9 a9 df bd ff 8f 29 3d da c8 1f bd
       -0.00038646904 -0.109210916 0.04139709 -0.039009906
0002e0 64 93 ec bc 05 86 df bd 3d e1 e8 3b 29 5d b8 3d
       -0.028878875 -0.10914234 0.0071069286 0.09002144
0002f0 cf 68 ec bd 3a 9e a0 bd 72 57 c9 bc 36 71 dc bb
       -0.11543428 -0.07842679 -0.02457783 -0.006727363
000300 5a 06 fc 3c de 56 78 bd 4d 3a 73 3c b2 bf 50 bd
       0.030764747 -0.060629718 0.014845443 -0.050964065
000310 93 c0 86 3d d2 0c b8 bd c9 a5 ac 3d 9b e7 29 3d
       0.06579699 -0.0898682 0.084300585 0.04148064
000320 d1 b4 36 be 27 dd 30 bd 37 96 47 3c 45 1c c3 3d
       -0.17842413 -0.043179657 0.01218181 0.09526876
000330 aa 62 54 3d 78 eb a3 bd 2a 08 75 bc d8 29 5c 3d
       0.051851906 -0.080038965 -0.01495556 0.053750843
000340 37 7e 76 3d 86 ee 3a 3c 0a 47 3b be 78 d4 8d 3d
       0.06017896 0.0114094075 -0.18288818 0.06925291
000350 f9 b3 0f be a5 34 cc 3c 31 df df 3c 0b f7 10 be
       -0.14033498 0.024927447 0.027328106 -0.1415674
000360 5a 71 f6 3a 7e dd 1a 3d ba fd ce bd 99 16 de bd
       0.0018802092 0.037808888 -0.10106988 -0.10844154
000370 2e 1f 6c b9 d5 62 0f bd 7d 56 27 bd 83 e0 1d bd
       -0.00022518329 -0.035006363 -0.040853966 -0.03854419
000380 b0 1e 64 bc 75 61 a8 3d be 4a 67 3d 87 cb 13 3b
       -0.013923332 0.082217135 0.056467764 0.0022551732
000390 dc 0c d2 3c db 84 d8 bd eb f1 7a bd 1f 1b f7 bd
       0.025640897 -0.10572215 -0.061265867 -0.1206572
0003a0 23 c5 63 3d 0d 4d 31 3c 05 63 08 be d6 ee c9 bc
       0.055607926 0.010821593 -0.13319023 -0.024650019
0003b0 23 d8 86 3c 30 4c 1a 3b 05 e1 da bd 1f 76 c1 bc
       0.016460484 0.0023543946 -0.1068745 -0.023615895
0003c0 b4 27 79 3c 23 77 04 bd 60 aa e6 bd 67 13 8e bd
       0.01520722 -0.03234018 -0.11262965 -0.069372945
0003d0 62 60 33 be d5 06 ef 3c 61 94 a7 bc 2a bd af 3c
       -0.17517236 0.029178062 -0.020456495 0.021452505
0003e0 18 83 8f bc c5 f5 24 be 23 b2 de bd c2 e9 5e 3b
       -0.017518565 -0.16109379 -0.10873821 0.0034013842
0003f0 d8 42 25 bd 08 ba 2a 3d 83 72 62 bc f6 60 66 3b
       -0.04034695 0.04168132 -0.013821247 0.0035153008

action_model._continuous_distribution.mu.bias f4 [4]
000000 1e fc d2 3d b0 4c 2c bb 0d cf e3 bb 2d 2a 28 3d
       0.10301994 -0.0026290826 -0.0069521726 0.041055847

onnx::Div_71 f4 [68]
000000 8b 35 9b 3e 88 95 18 3e 02 b1 3c 3c ae 31 15 3e
       0.30314288 0.14900792 0.011516811 0.14569733
000010 41 96 95 3e c4 dd e3 3d 53 d9 3c 3c ee ca 0c 3e
       0.29216197 0.11126283 0.0115264235 0.13749287
000020 50 ac 9a 3e 3d 80 19 3e 5b a2 3d 3c 70 e5 1c 3e
       0.3020959 0.14990325 0.011574353 0.15321898
000030 1b 8a 8d 3e ba a3 8c 3d 47 40 3e 3c 19 10 09 3e
       0.2764443 0.06867166 0.011612005 0.13385047
000040 d3 75 93 3e 88 cc f9 3d c3 7f 42 3c 56 31 1d 3e
       0.2880083 0.12197214 0.011871281 0.15350851
000050 c3 e6 82 3e c3 6b 37 3d 87 43 40 3c ea 84 09 3e
       0.25566682 0.044780504 0.01173485 0.13429609
000060 5d 77 8a 3e 24 67 b8 3d 24 b4 44 3c 26 a4 17 3e
       0.27044192 0.090040475 0.0120058395 0.14808711
000070 28 e2 7e 3e b8 ae 18 3d 43 fc 44 3c 70 6c 0c 3e
       0.2489096 0.037276 0.0120230345 0.1371324
000080 83 04 84 3e 19 03 86 3d 10 47 4a 3c f8 c7 10 3e
       0.25784692 0.065435596 0.012346044 0.14138782
000090 87 15 89 3e 56 8d 12 3d 53 c0 47 3c 78 4c 0f 3e
       0.26774237 0.03577932 0.01219185 0.13994014
0000a0 98 32 82 3e 5d bd 49 3d 19 03 4b 3c fe 25 0b 3e
       0.25429225 0.049252857 0.012390875 0.13588712
0000b0 f4 d9 93 3e a5 b6 10 3d 12 44 46 3c 42 7b 0f 3e
       0.28877223 0.035330433 0.01210119 0.14011863
0000c0 db 25 82 3e ea dd 1d 3d d5 d6 49 3c 5f 7f 08 3e
       0.25419506 0.038541712 0.012319286 0.13329838
0000d0 4e 60 96 3e 3c 90 08 3d 88 f0 43 3c 86 86 0e 3e
       0.2937035 0.033340678 0.011959203 0.13918504
0000e0 12 01 80 3e ed fb fe 3c 3f 79 47 3c 9c b3 06 3e
       0.25000817 0.031125987 0.012174903 0.13154453
0000f0 bb 0f 90 3e 9a 78 02 3d a0 13 3a 3c 8f 68 0f 3e
       0.28137 0.031853296 0.011357218 0.1400473
000100 0d dc 79 3e c2 42 e7 3c 17 94 46 3c 6e 06 06 3e
       0.24400349 0.028230075 0.012120268 0.1308839

onnx::Div_74 f4 [20]
000000 be a6 db 3e 8d 1e 95 3d 3d cf 5b 3e 8b f7 82 3e
       0.42900652 0.07281218 0.21465774 0.25579485
000010 a9 cf e3 3e 2b 97 5b 3d 97 70 51 3e 03 16 81 3e
       0.4449437 0.053610962 0.20453106 0.25212106
000020 10 88 db 3e 8b 7b 9b 3d 83 87 56 3e 3c 78 81 3e
       0.42877245 0.07591923 0.20950131 0.25287044
000030 19 83 ec 3e aa 57 0c 3d f0 a9 46 3e 74 71 7f 3e
       0.4619377 0.03426329 0.19400764 0.24945623
000040 09 10 e8 3e 53 c8 82 3d 4d 99 41 3e a7 66 79 3e
       0.45324734 0.06385865 0.18906136 0.24355565

onnx::Div_77 f4 [5]
000000 a9 0f 76 41 e8 6f 9f 3f 2d c5 83 40 c8 3c 8d 3f
       15.378823 1.2456026 4.1178193 1.1034174
000010 dc 27 ed 3e
       0.46319473
