Assets/results/coin_shooter6/CoinChaser/CoinChaser-28475.pt (torch, 745630 bytes, 36 tensors)

network_body.observation_encoder.processors.0.normalizer.running_mean f4 [68]
000000 07 6e 74 3f 0a 25 e6 3a 06 87 ca 39 08 8b 49 3e
       0.9548039 0.0017558646 0.00038629043 0.19681942
000010 63 05 76 3f 69 8e f8 3a 44 b4 a5 39 29 e6 49 3e
       0.9610197 0.001896334 0.0003160556 0.19716705
000020 7e 8c 73 3f 8f b0 0e 3b bf 59 ef 39 2c 86 4a 3e
       0.9513625 0.0021772718 0.00045652498 0.19777745
000030 76 78 76 3f 20 36 31 3b 87 e1 00 3a 48 32 49 3e
       0.9627756 0.0027040318 0.00049164187 0.19648087
000040 6c 11 75 3f e4 7b 05 3b a8 1d b8 39 86 f2 4c 3e
       0.9572971 0.0020368034 0.0003511731 0.2001439
000050 d1 67 77 3f 20 36 31 3b 88 e1 00 3a 33 ac 48 3e
       0.96642786 0.0027040318 0.0004916419 0.19596939
000060 d6 5c 76 3f 67 8e f8 3a e3 4a 93 39 c3 2b 4e 3e
       0.96235406 0.0018963338 0.0002809382 0.20133881
000070 6b 14 78 3f 97 4e 2a 3b 93 7f 1c 3a 88 d5 46 3e
       0.96906155 0.0025986785 0.0005969938 0.19417393
000080 96 9f 76 3f b9 59 ef 3a 48 b4 a5 39 7c d5 50 3e
       0.9633726 0.0018260992 0.00031605572 0.20393938
000090 d1 f8 77 3f c6 9b 2c 3b 4a b4 25 3a 2c 98 47 3e
       0.9686404 0.0026337965 0.00063211157 0.19491643
0000a0 0d 4f 76 3f 9c 4e 2a 3b 8d e1 80 39 dc be 52 3e
       0.9621437 0.0025986796 0.0002458211 0.2058062
0000b0 df ac 77 3f c5 9b 2c 3b 9c 7f 1c 3a 1f 5b 48 3e
       0.96748155 0.0026337963 0.0005969943 0.1956601
0000c0 ae f0 75 3f 68 32 1a 3b 8d e1 80 39 1c 91 54 3e
       0.96070373 0.002352858 0.0002458211 0.2075848
0000d0 a1 8c 77 3f 76 d0 35 3b 42 b4 25 3a 40 61 49 3e
       0.9669896 0.002774266 0.0006321111 0.19666004
0000e0 fb f2 75 3f 62 63 0c 3b 48 b4 a5 39 0e c9 56 3e
       0.96073884 0.0021421541 0.00031605572 0.20975134
0000f0 96 d8 77 3f 11 98 15 3b e3 4a 13 3a a1 61 49 3e
       0.9681486 0.0022826234 0.0005618764 0.19666149
000100 36 2a 76 3f b8 59 ef 3a b6 59 ef 39 78 b5 59 3e
       0.9615816 0.0018260991 0.00045652472 0.21260631

network_body.observation_encoder.processors.0.normalizer.running_variance f4 [68]
000000 a6 ba 99 44 1b a6 4b 42 92 ee 3f 41 78 ce 1b 44
       1229.8328 50.912212 11.995745 623.2261
000010 6c 77 85 44 24 97 5b 42 5a f4 1f 41 37 7e 1a 44
       1067.7319 54.8976 9.997156 617.9721
000020 6a d4 a4 44 c3 75 7b 42 ae e7 5f 41 ab 60 1f 44
       1318.638 62.865 13.994062 637.51044
000030 b3 62 7f 44 61 95 9b 42 cd e3 6f 41 37 b9 15 44
       1021.5422 77.791756 14.993115 598.894
000040 5a a2 91 44 05 87 6b 42 96 f1 2f 41 a6 8a 23 44
       1165.0735 58.881855 10.996481 654.1664
000050 ec 39 67 44 66 95 9b 42 cd e3 6f 41 b4 54 15 44
       924.905 77.791794 14.993115 597.3235
000060 98 14 81 44 24 97 5b 42 ce f6 0f 41 b1 e9 21 44
       1032.6436 54.8976 8.997755 647.6514
000070 96 af 55 44 89 9d 95 42 34 eb 8f 41 ad be 12 44
       854.7435 74.807686 17.989845 586.9793
000080 0d 73 7b 44 bf 9e 53 42 5b f4 1f 41 2b 05 2a 44
       1005.79767 52.905025 9.997157 680.08075
000090 ba 7f 58 44 de 9a 97 42 b4 e8 97 41 f7 1c 15 44
       865.9957 75.802475 18.988625 596.4526
0000a0 1b c6 81 44 8b 9d 95 42 e5 f1 ff 40 81 4d 31 44
       1038.1908 74.8077 7.998278 709.211
0000b0 ce 38 60 44 de 9a 97 42 35 eb 8f 41 aa 44 14 44
       896.8876 75.802475 17.989847 593.0729
0000c0 e1 80 86 44 48 af 87 42 e7 f1 ff 40 42 a6 34 44
       1076.0275 67.84235 7.998279 722.5978
0000d0 1d 7e 63 44 cc 8f 9f 42 b2 e8 97 41 97 d3 15 44
       909.9705 79.78085 18.98862 599.3061
0000e0 66 63 86 44 33 7a 77 42 5a f4 1f 41 7f 9f 36 44
       1075.1062 61.869335 9.997156 730.4921
0000f0 18 c7 5b 44 0b b4 83 42 92 ed 87 41 b1 c9 15 44
       879.11084 65.85165 16.991001 599.1514
000100 0f 9f 83 44 c1 9e 53 42 ac e7 5f 41 82 6c 36 44
       1052.9706 52.905033 13.9940605 729.69543

network_body.observation_encoder.processors.1.normalizer.running_mean f4 [20]
000000 17 31 e5 3e 00 87 4a 3a a6 1a f5 3c ec e6 a3 3e
       0.44764015 0.0007725805 0.029919934 0.32012117
000010 88 83 ea 3e 3d e5 97 3a 58 6b f9 3c a3 c4 a6 3e
       0.45803475 0.0011588704 0.030446693 0.32571897
000020 cb 76 e8 3e 5b f0 5c 3a ef 2c 02 3d f4 12 a7 3e
       0.45403132 0.000842815 0.031781133 0.32631648
000030 58 a4 fa 3e ab bb d3 3a ac 05 fe 3c 5f fe ae 3e
       0.4895351 0.0016153952 0.031008564 0.34178445
000040 27 90 f9 3e a2 1d 38 3a ae 68 0f 3d 91 8e b0 3e
       0.48742792 0.00070234586 0.03501194 0.3448377

network_body.observation_encoder.processors.1.normalizer.running_variance f4 [20]
000000 71 0f dc 45 33 dd b7 41 83 e0 4e 44 b6 52 c6 44
       7041.93 22.983007 827.508 1586.5847
000010 cf ee dc 45 d7 d8 07 42 95 66 52 44 de d3 c8 44
       7069.851 33.961758 841.60284 1606.6208
000020 9c 9e dc 45 97 d6 c7 41 3c 4f 5b 44 0f 05 cd 44
       7059.826 24.97978 877.23804 1640.1581
000030 0c 67 de 45 ea b3 3b 42 a4 27 56 44 28 e2 d0 44
       7116.881 46.925697 856.6194 1671.0674
000040 05 5c de 45 3f e3 a7 41 f4 c5 70 44 3a de d7 44
       7115.5024 20.98596 963.093 1726.9446

network_body.observation_encoder.processors.2.normalizer.running_mean f4 [5]
000000 1c b8 63 c0 86 02 14 40 88 7d 92 3f 98 97 4f 3f
       -3.5581121 2.312654 1.1444559 0.8109069
000010 59 ca eb 3e
       0.46052817

network_body.observation_encoder.processors.2.normalizer.running_variance f4 [5]
000000 09 8c f3 4a 68 00 46 47 bc 08 4f 49 42 ea fb 46
       7.9805485e+06 50688.406 848011.75 32245.129
000010 14 1d dd 45
       7075.635

network_body.processors.0.normalizer.running_mean f4 [68]
000000 07 6e 74 3f 0a 25 e6 3a 06 87 ca 39 08 8b 49 3e
       0.9548039 0.0017558646 0.00038629043 0.19681942
000010 63 05 76 3f 69 8e f8 3a 44 b4 a5 39 29 e6 49 3e
       0.9610197 0.001896334 0.0003160556 0.19716705
000020 7e 8c 73 3f 8f b0 0e 3b bf 59 ef 39 2c 86 4a 3e
       0.9513625 0.0021772718 0.00045652498 0.19777745
000030 76 78 76 3f 20 36 31 3b 87 e1 00 3a 48 32 49 3e
       0.9627756 0.0027040318 0.00049164187 0.19648087
000040 6c 11 75 3f e4 7b 05 3b a8 1d b8 39 86 f2 4c 3e
       0.9572971 0.0020368034 0.0003511731 0.2001439
000050 d1 67 77 3f 20 36 31 3b 88 e1 00 3a 33 ac 48 3e
       0.96642786 0.0027040318 0.0004916419 0.19596939
000060 d6 5c 76 3f 67 8e f8 3a e3 4a 93 39 c3 2b 4e 3e
       0.96235406 0.0018963338 0.0002809382 0.20133881
000070 6b 14 78 3f 97 4e 2a 3b 93 7f 1c 3a 88 d5 46 3e
       0.96906155 0.0025986785 0.0005969938 0.19417393
000080 96 9f 76 3f b9 59 ef 3a 48 b4 a5 39 7c d5 50 3e
       0.9633726 0.0018260992 0.00031605572 0.20393938
000090 d1 f8 77 3f c6 9b 2c 3b 4a b4 25 3a 2c 98 47 3e
       0.9686404 0.0026337965 0.00063211157 0.19491643
0000a0 0d 4f 76 3f 9c 4e 2a 3b 8d e1 80 39 dc be 52 3e
       0.9621437 0.0025986796 0.0002458211 0.2058062
0000b0 df ac 77 3f c5 9b 2c 3b 9c 7f 1c 3a 1f 5b 48 3e
       0.96748155 0.0026337963 0.0005969943 0.1956601
0000c0 ae f0 75 3f 68 32 1a 3b 8d e1 80 39 1c 91 54 3e
       0.96070373 0.002352858 0.0002458211 0.2075848
0000d0 a1 8c 77 3f 76 d0 35 3b 42 b4 25 3a 40 61 49 3e
       0.9669896 0.002774266 0.0006321111 0.19666004
0000e0 fb f2 75 3f 62 63 0c 3b 48 b4 a5 39 0e c9 56 3e
       0.96073884 0.0021421541 0.00031605572 0.20975134
0000f0 96 d8 77 3f 11 98 15 3b e3 4a 13 3a a1 61 49 3e
       0.9681486 0.0022826234 0.0005618764 0.19666149
000100 36 2a 76 3f b8 59 ef 3a b6 59 ef 39 78 b5 59 3e
       0.9615816 0.0018260991 0.00045652472 0.21260631

network_body.processors.0.normalizer.running_variance f4 [68]
000000 a6 ba 99 44 1b a6 4b 42 92 ee 3f 41 78 ce 1b 44
       1229.8328 50.912212 11.995745 623.2261
000010 6c 77 85 44 24 97 5b 42 5a f4 1f 41 37 7e 1a 44
       1067.7319 54.8976 9.997156 617.9721
000020 6a d4 a4 44 c3 75 7b 42 ae e7 5f 41 ab 60 1f 44
       1318.638 62.865 13.994062 637.51044
000030 b3 62 7f 44 61 95 9b 42 cd e3 6f 41 37 b9 15 44
       1021.5422 77.791756 14.993115 598.894
000040 5a a2 91 44 05 87 6b 42 96 f1 2f 41 a6 8a 23 44
       1165.0735 58.881855 10.996481 654.1664
000050 ec 39 67 44 66 95 9b 42 cd e3 6f 41 b4 54 15 44
       924.905 77.791794 14.993115 597.3235
000060 98 14 81 44 24 97 5b 42 ce f6 0f 41 b1 e9 21 44
       1032.6436 54.8976 8.997755 647.6514
000070 96 af 55 44 89 9d 95 42 34 eb 8f 41 ad be 12 44
       854.7435 74.807686 17.989845 586.9793
000080 0d 73 7b 44 bf 9e 53 42 5b f4 1f 41 2b 05 2a 44
       1005.79767 52.905025 9.997157 680.08075
000090 ba 7f 58 44 de 9a 97 42 b4 e8 97 41 f7 1c 15 44
       865.9957 75.802475 18.988625 596.4526
0000a0 1b c6 81 44 8b 9d 95 42 e5 f1 ff 40 81 4d 31 44
       1038.1908 74.8077 7.998278 709.211
0000b0 ce 38 60 44 de 9a 97 42 35 eb 8f 41 aa 44 14 44
       896.8876 75.802475 17.989847 593.0729
0000c0 e1 80 86 44 48 af 87 42 e7 f1 ff 40 42 a6 34 44
       1076.0275 67.84235 7.998279 722.5978
0000d0 1d 7e 63 44 cc 8f 9f 42 b2 e8 97 41 97 d3 15 44
       909.9705 79.78085 18.98862 599.3061
0000e0 66 63 86 44 33 7a 77 42 5a f4 1f 41 7f 9f 36 44
       1075.1062 61.869335 9.997156 730.4921
0000f0 18 c7 5b 44 0b b4 83 42 92 ed 87 41 b1 c9 15 44
       879.11084 65.85165 16.991001 599.1514
000100 0f 9f 83 44 c1 9e 53 42 ac e7 5f 41 82 6c 36 44
       1052.9706 52.905033 13.9940605 729.69543

network_body.processors.1.normalizer.running_mean f4 [20]
000000 17 31 e5 3e 00 87 4a 3a a6 1a f5 3c ec e6 a3 3e
       0.44764015 0.0007725805 0.029919934 0.32012117
000010 88 83 ea 3e 3d e5 97 3a 58 6b f9 3c a3 c4 a6 3e
       0.45803475 0.0011588704 0.030446693 0.32571897
000020 cb 76 e8 3e 5b f0 5c 3a ef 2c 02 3d f4 12 a7 3e
       0.45403132 0.000842815 0.031781133 0.32631648
000030 58 a4 fa 3e ab bb d3 3a ac 05 fe 3c 5f fe ae 3e
       0.4895351 0.0016153952 0.031008564 0.34178445
000040 27 90 f9 3e a2 1d 38 3a ae 68 0f 3d 91 8e b0 3e
       0.48742792 0.00070234586 0.03501194 0.3448377

network_body.processors.1.normalizer.running_variance f4 [20]
000000 71 0f dc 45 33 dd b7 41 83 e0 4e 44 b6 52 c6 44
       7041.93 22.983007 827.508 1586.5847
000010 cf ee dc 45 d7 d8 07 42 95 66 52 44 de d3 c8 44
       7069.851 33.961758 841.60284 1606.6208
000020 9c 9e dc 45 97 d6 c7 41 3c 4f 5b 44 0f 05 cd 44
       7059.826 24.97978 877.23804 1640.1581
000030 0c 67 de 45 ea b3 3b 42 a4 27 56 44 28 e2 d0 44
       7116.881 46.925697 856.6194 1671.0674
000040 05 5c de 45 3f e3 a7 41 f4 c5 70 44 3a de d7 44
       7115.5024 20.98596 963.093 1726.9446

network_body.processors.2.normalizer.running_mean f4 [5]
000000 1c b8 63 c0 86 02 14 40 88 7d 92 3f 98 97 4f 3f
       -3.5581121 2.312654 1.1444559 0.8109069
000010 59 ca eb 3e
       0.46052817

network_body.processors.2.normalizer.running_variance f4 [5]
000000 09 8c f3 4a 68 00 46 47 bc 08 4f 49 42 ea fb 46
       7.9805485e+06 50688.406 848011.75 32245.129
000010 14 1d dd 45
       7075.635

network_body._body_endoder.seq_layers.0.weight f4 [256, 93]
000000 9e c1 0c 3e a7 16 f3 bd 1e b9 ba 3b 08 ac b2 3c
       0.13745734 -0.11869555 0.005698337 0.021810547
000010 46 d5 93 3d 11 e2 2d bd 05 ac c5 bb ac 48 3b 3e
       0.07218413 -0.04245192 -0.006032469 0.18289441
000020 91 98 6a bd bc 07 43 bc 7c d9 22 3e a8 75 69 3d
       -0.057274405 -0.0119036995 0.15903276 0.05699697
000030 d6 28 28 3c ad 20 63 be 1b ad e2 3b 1d 57 f5 bd
       0.010263642 -0.22180434 0.0069176084 -0.11979506
000040 bb 16 85 3d 8f a4 a2 bd 90 aa 25 3b be 6d 1e 3d
       0.06498476 -0.07941543 0.0025278665 0.038678877
000050 8d fb 7f be b4 34 fb 3d 57 32 00 3e 2d e4 ee 3b
       -0.24998303 0.12265912 0.12519203 0.0072903843
000060 f9 e7 60 bd aa e2 01 3e 3c c5 9e 3b 56 21 02 3d
       -0.054908726 0.12684122 0.0048452895 0.031770073
000070 90 d3 65 bd 3f f5 a6 3d 97 b6 80 3e 23 0c 4b be
       -0.056109965 0.08152246 0.25139305 -0.19828849
000080 e1 30 31 be f5 34 df 3c 3c 70 26 be 84 d7 01 bd
       -0.17303802 0.027246932 -0.16253752 -0.031699672
000090 b3 26 2e bc af 89 a3 bd 1b c7 b5 3d 9b cf 4d bb
       -0.010629344 -0.079852454 0.08875867 -0.003140426
0000a0 08 bf 62 3e 5e a8 9a 3b a6 81 15 bd 13 0b 99 3c
       0.22143185 0.004719778 -0.036500596 0.018682038
0000b0 0f c0 1a bd 17 66 46 bd 1d a1 02 be c0 5d 5f bd
       -0.037780818 -0.048437204 -0.12756772 -0.054532766
0000c0 04 94 90 3d 79 b7 90 bd ec bb da bd d5 f8 59 3d
       0.07059482 -0.07066245 -0.106803745 0.05321582
0000d0 a7 55 98 bd 43 14 e4 bd 2c 42 00 3e 1d 83 1b bc
       -0.07438212 -0.11136677 0.12525243 -0.009491709
0000e0 01 be 89 3d 47 ef ce 3c 60 5c 27 3d 76 71 13 3b
       0.067256935 0.02526058 0.04085958 0.0022498048
0000f0 8f 3e 40 3e f3 56 a6 bd ca e6 29 bd cd b7 c6 bd
       0.18773864 -0.08122053 -0.041479863 -0.09703026
000100 85 35 5b be 5f 10 af 3d 10 f9 f6 bd 49 e4 00 3e
       -0.21407135 0.085480444 -0.12059224 0.12587084
000110 6c 55 13 3d 91 3d 36 3c 1d 16 ee bc b6 59 29 bd
       0.035970137 0.011123077 -0.029063279 -0.04134532
000120 32 78 9d bd 3c 01 aa 3d 18 56 a7 bc 2a c8 0e 3e
       -0.07688941 0.08301017 -0.020426795 0.13943544
000130 c5 7e 96 3d 9a d0 f4 3d 26 8d 4d bd 94 a3 10 bd
       0.07348398 0.1195385 -0.050183438 -0.03531225
000140 ff 3b dc bc 86 ac d1 bd 0f d6 21 3e 04 e6 64 bd
       -0.026884077 -0.10237984 0.15804313 -0.055883422
000150 a6 18 8e 39 9c fd 4d be 1e 68 4b 3d e2 ae 34 3b
       0.00027102715 -0.20116276 0.04965984 0.0027570059
000160 2d 80 14 3d dd 3c 41 bb e9 71 f4 3d fc 89 ea 3d
       0.03625505 -0.002948574 0.11935789 0.114521
000170 ff 6f 19 bd f9 88 9a bd 65 dd 5b bc 84 68 81 bd
       -0.037460323 -0.07545657 -0.013419484 -0.06318763
000180 c2 dd ac 3d 87 db 68 3d 00 47 9d 3c 0e c0 79 3d
       0.084407344 0.056849983 0.019198895 0.060974173
000190 3f bc b3 bd e6 d1 88 bd 0c 89 1f 3e df 11 e1 3c
       -0.087761395 -0.0668066 0.15579623 0.027474342
0001a0 b6 2d fe 3d 84 9a 2a bd 65 54 b0 3d 26 33 b4 bd
       0.124110624 -0.041651264 0.08609847 -0.08798818
0001b0 2a 7b ea 3d 9e a5 70 3d 3e de 7a bd db 05 82 3d
       0.11449273 0.058751695 -0.061247103 0.06348773
0001c0 4b 1d 08 bd 25 bd de 3d 40 ce 07 3d 52 86 23 3d
       -0.03323106 0.1087592 0.03315568 0.03992302
0001d0 6b eb 0a 3e de a1 5e bd c2 e0 b7 3d e8 f5 36 be
       0.13566367 -0.054353587 0.08978416 -0.17867243
0001e0 e1 c3 b9 bd 87 c6 17 be b1 35 be bd 42 d6 dc bc
       -0.09070564 -0.14821826 -0.092875846 -0.026957635
0001f0 5c 1d 1a 3e c4 45 ea 3c 7e 99 e8 3d 28 b7 07 3e
       0.15050262 0.02859772 0.11357401 0.13253462
000200 97 9a d3 bd 4d 10 9b 3b ae f9 96 3d 52 b1 0c 3e
       -0.1033222 0.004732168 0.07371841 0.13739517
000210 24 7d 96 3d 50 b8 4e bd be fc cf bd 1b 76 8d 3d
       0.073480874 -0.050468743 -0.101556286 0.069072925
000220 76 df db 3d e0 b8 ed bd 2f c6 0b be e9 c4 0b 3d
       0.10735981 -0.11607528 -0.1364982 0.034123335
000230 50 19 3d 3e 12 80 af 3d e3 d4 d5 bd 96 d0 13 bc
       0.18466687 0.08569349 -0.104409955 -0.009021899
000240 65 64 a2 3d 7c 87 c8 3c cd a5 cf 3d c6 31 d8 3d
       0.07929305 0.024478666 0.10139046 0.105563685
000250 36 fa ae bb 76 32 0a be d9 56 96 bd 5b bb b5 bc
       -0.005339886 -0.13495812 -0.073407836 -0.022184065
000260 5a 5e 0b 3d 57 ba 29 bb 8b 1c 9d bd a5 93 fb 3c
       0.034025528 -0.002589842 -0.0767146 0.03071005
000270 39 6f 1f b9 ea 6c b8 3a a0 63 b5 bd 0e 8a bd bd
       -0.00015204855 0.0014070545 -0.088568926 -0.092548475
000280 30 c7 73 3c d5 84 af 3d 25 07 85 3d a8 35 74 3c
       0.014879033 0.085702576 0.06495503 0.014905371
000290 6a ae 3b 3d be 27 71 3c 19 c8 74 3d a2 56 3f 3e
       0.04582063 0.014718948 0.05976114 0.18685392
0002a0 77 20 64 3e 61 58 c5 bd 57 a4 6b bd c6 65 aa bc
       0.2227801 -0.096359976 -0.057529774 -0.020800482
0002b0 67 8c fc bc df d1 f2 bd 41 98 72 bd 09 e9 1f bd
       -0.030828668 -0.11856436 -0.059227232 -0.0390406
0002c0 18 23 f1 bd 0d 0a c4 3d 9d 70 85 bd 75 e6 08 be
       -0.11774272 0.095722295 -0.0651562 -0.13369162
0002d0 de b0 ad bd 86 cf 2b 3e b6 39 d6 3c 76 b5 6f 3c
       -0.08481 0.16778383 0.026150566 0.014630666
0002e0 0a cf 2b be 96 50 90 3d 72 1c bc 3c 02 a3 72 bd
       -0.16778198 0.070466205 0.022962783 -0.059237488
0002f0 2c 5f c6 3d 72 c5 d0 bd 0f 2a 6d 3b fe e4 09 3e
       0.09686121 -0.1019391 0.00361884 0.1346626
000300 0f 9a e0 bd e0 6e 50 bd 21 d0 af bd 52 f8 bd bd
       -0.10966884 -0.05088699 -0.08584619 -0.09275879
000310 d0 50 03 3e 7a 9a bf bc 80 38 08 3e cd 66 83 3d
       0.12823796 -0.02338909 0.13302803 0.06416092
000320 52 b0 62 bd 1d 07 40 3e b7 bf 33 bd 44 23 08 3d
       -0.055343933 0.18752714 -0.043884005 0.033236757
000330 0a 81 41 be 40 6d b0 3d 1f f2 05 3e c5 5c 33 be
       -0.18896881 0.08614588 0.13080643 -0.17515858
000340 c3 0d 84 3d 0d 3b e6 bd aa 6f d0 bd 00 20 b4 3d
       0.06447937 -0.11241732 -0.10177548 0.08795166
000350 f8 be 8e bd 1f cf 98 3c 8f d8 9f bd 90 97 c4 3d
       -0.06970018 0.01865345 -0.07804977 0.09599221
000360 d0 d1 05 3c 0f d5 fc 3d 93 0d d6 3d 5f 68 da bd
       0.008167699 0.12345325 0.10451808 -0.106644385
000370 d7 c9 0a 3e 0f b1 2f bd 80 b3 9c 3b ba f0 b2 bd
       0.13553558 -0.042893466 0.0047821403 -0.08737321
000380 8c 57 e7 3d d4 65 87 3d af f2 66 be 7a c6 d7 3d
       0.11295995 0.06611219 -0.22553514 0.10535903
000390 c7 cf 03 3d 22 79 1b 3e 04 50 df 3c 6d bf 39 be
       0.032180574 0.15182927 0.027259834 -0.1813943
0003a0 db 86 65 bc 0a 99 74 3d a9 a1 f6 bd 4c e9 2b be
       -0.014009203 0.059716262 -0.12042553 -0.16788214
0003b0 a5 e6 bf 3d fb 54 45 be f5 3e 76 bc 8d 1d ce b8
       0.09370164 -0.19270699 -0.015029659 -9.82835e-05
0003c0 af dd 66 3c 2f 14 6b 3d 71 4a ef bd 6d eb 6f bd
       0.014090939 0.057392295 -0.116841204 -0.05857413
0003d0 d5 77 06 bd a6 fb da bd db 72 d3 3d 89 cc 52 3d
       -0.032829124 -0.106925294 0.10324641 0.05146459
0003e0 a1 f9 28 3d d4 f7 f0 bc 26 8d a5 3d 3c 54 16 3e
       0.04125369 -0.029415049 0.080835626 0.1468057
0003f0 c7 13 9a 3d d8 6c 20 bb 9f 36 88 3d f4 77 e0 bd
       0.075233035 -0.0024478938 0.06651043 -0.10960379

network_body._body_endoder.seq_layers.0.bias f4 [256]
000000 00 00 00 00 00 00 00 00 00 00 00 00 00 00 00 00
       0.0 0.0 0.0 0.0
000010 00 00 00 00 00 00 00 00 00 00 00 00 00 00 00 00
       0.0 0.0 0.0 0.0
000020 00 00 00 00 00 00 00 00 00 00 00 00 00 00 00 00
       0.0 0.0 0.0 0.0
000030 00 00 00 00 00 00 00 00 00 00 00 00 00 00 00 00
       0.0 0.0 0.0 0.0
000040 00 00 00 00 00 00 00 00 00 00 00 00 00 00 00 00
       0.0 0.0 0.0 0.0
000050 00 00 00 00 00 00 00 00 00 00 00 00 00 00 00 00
       0.0 0.0 0.0 0.0
000060 00 00 00 00 00 00 00 00 00 00 00 00 00 00 00 00
       0.0 0.0 0.0 0.0
000070 00 00 00 00 00 00 00 00 00 00 00 00 00 00 00 00
       0.0 0.0 0.0 0.0
000080 00 00 00 00 00 00 00 00 00 00 00 00 00 00 00 00
       0.0 0.0 0.0 0.0
000090 00 00 00 00 00 00 00 00 00 00 00 00 00 00 00 00
       0.0 0.0 0.0 0.0
0000a0 00 00 00 00 00 00 00 00 00 00 00 00 00 00 00 00
       0.0 0.0 0.0 0.0
0000b0 00 00 00 00 00 00 00 00 00 00 00 00 00 00 00 00
       0.0 0.0 0.0 0.0
0000c0 00 00 00 00 00 00 00 00 00 00 00 00 00 00 00 00
       0.0 0.0 0.0 0.0
0000d0 00 00 00 00 00 00 00 00 00 00 00 00 00 00 00 00
       0.0 0.0 0.0 0.0
0000e0 00 00 00 00 00 00 00 00 00 00 00 00 00 00 00 00
       0.0 0.0 0.0 0.0
0000f0 00 00 00 00 00 00 00 00 00 00 00 00 00 00 00 00
       0.0 0.0 0.0 0.0
000100 00 00 00 00 00 00 00 00 00 00 00 00 00 00 00 00
       0.0 0.0 0.0 0.0
000110 00 00 00 00 00 00 00 00 00 00 00 00 00 00 00 00
       0.0 0.0 0.0 0.0
000120 00 00 00 00 00 00 00 00 00 00 00 00 00 00 00 00
       0.0 0.0 0.0 0.0
000130 00 00 00 00 00 00 00 00 00 00 00 00 00 00 00 00
       0.0 0.0 0.0 0.0
000140 00 00 00 00 00 00 00 00 00 00 00 00 00 00 00 00
       0.0 0.0 0.0 0.0
000150 00 00 00 00 00 00 00 00 00 00 00 00 00 00 00 00
       0.0 0.0 0.0 0.0
000160 00 00 00 00 00 00 00 00 00 00 00 00 00 00 00 00
       0.0 0.0 0.0 0.0
000170 00 00 00 00 00 00 00 00 00 00 00 00 00 00 00 00
       0.0 0.0 0.0 0.0
000180 00 00 00 00 00 00 00 00 00 00 00 00 00 00 00 00
       0.0 0.0 0.0 0.0
000190 00 00 00 00 00 00 00 00 00 00 00 00 00 00 00 00
       0.0 0.0 0.0 0.0
0001a0 00 00 00 00 00 00 00 00 00 00 00 00 00 00 00 00
       0.0 0.0 0.0 0.0
0001b0 00 00 00 00 00 00 00 00 00 00 00 00 00 00 00 00
       0.0 0.0 0.0 0.0
0001c0 00 00 00 00 00 00 00 00 00 00 00 00 00 00 00 00
       0.0 0.0 0.0 0.0
0001d0 00 00 00 00 00 00 00 00 00 00 00 00 00 00 00 00
       0.0 0.0 0.0 0.0
0001e0 00 00 00 00 00 00 00 00 00 00 00 00 00 00 00 00
       0.0 0.0 0.0 0.0
0001f0 00 00 00 00 00 00 00 00 00 00 00 00 00 00 00 00
       0.0 0.0 0.0 0.0
000200 00 00 00 00 00 00 00 00 00 00 00 00 00 00 00 00
       0.0 0.0 0.0 0.0
000210 00 00 00 00 00 00 00 00 00 00 00 00 00 00 00 00
       0.0 0.0 0.0 0.0
000220 00 00 00 00 00 00 00 00 00 00 00 00 00 00 00 00
       0.0 0.0 0.0 0.0
000230 00 00 00 00 00 00 00 00 00 00 00 00 00 00 00 00
       0.0 0.0 0.0 0.0
000240 00 00 00 00 00 00 00 00 00 00 00 00 00 00 00 00
       0.0 0.0 0.0 0.0
000250 00 00 00 00 00 00 00 00 00 00 00 00 00 00 00 00
       0.0 0.0 0.0 0.0
000260 00 00 00 00 00 00 00 00 00 00 00 00 00 00 00 00
       0.0 0.0 0.0 0.0
000270 00 00 00 00 00 00 00 00 00 00 00 00 00 00 00 00
       0.0 0.0 0.0 0.0
000280 00 00 00 00 00 00 00 00 00 00 00 00 00 00 00 00
       0.0 0.0 0.0 0.0
000290 00 00 00 00 00 00 00 00 00 00 00 00 00 00 00 00
       0.0 0.0 0.0 0.0
0002a0 00 00 00 00 00 00 00 00 00 00 00 00 00 00 00 00
       0.0 0.0 0.0 0.0
0002b0 00 00 00 00 00 00 00 00 00 00 00 00 00 00 00 00
       0.0 0.0 0.0 0.0
0002c0 00 00 00 00 00 00 00 00 00 00 00 00 00 00 00 00
       0.0 0.0 0.0 0.0
0002d0 00 00 00 00 00 00 00 00 00 00 00 00 00 00 00 00
       0.0 0.0 0.0 0.0
0002e0 00 00 00 00 00 00 00 00 00 00 00 00 00 00 00 00
       0.0 0.0 0.0 0.0
0002f0 00 00 00 00 00 00 00 00 00 00 00 00 00 00 00 00
       0.0 0.0 0.0 0.0
000300 00 00 00 00 00 00 00 00 00 00 00 00 00 00 00 00
       0.0 0.0 0.0 0.0
000310 00 00 00 00 00 00 00 00 00 00 00 00 00 00 00 00
       0.0 0.0 0.0 0.0
000320 00 00 00 00 00 00 00 00 00 00 00 00 00 00 00 00
       0.0 0.0 0.0 0.0
000330 00 00 00 00 00 00 00 00 00 00 00 00 00 00 00 00
       0.0 0.0 0.0 0.0
000340 00 00 00 00 00 00 00 00 00 00 00 00 00 00 00 00
       0.0 0.0 0.0 0.0
000350 00 00 00 00 00 00 00 00 00 00 00 00 00 00 00 00
       0.0 0.0 0.0 0.0
000360 00 00 00 00 00 00 00 00 00 00 00 00 00 00 00 00
       0.0 0.0 0.0 0.0
000370 00 00 00 00 00 00 00 00 00 00 00 00 00 00 00 00
       0.0 0.0 0.0 0.0
000380 00 00 00 00 00 00 00 00 00 00 00 00 00 00 00 00
       0.0 0.0 0.0 0.0
000390 00 00 00 00 00 00 00 00 00 00 00 00 00 00 00 00
       0.0 0.0 0.0 0.0
0003a0 00 00 00 00 00 00 00 00 00 00 00 00 00 00 00 00
       0.0 0.0 0.0 0.0
0003b0 00 00 00 00 00 00 00 00 00 00 00 00 00 00 00 00
       0.0 0.0 0.0 0.0
0003c0 00 00 00 00 00 00 00 00 00 00 00 00 00 00 00 00
       0.0 0.0 0.0 0.0
0003d0 00 00 00 00 00 00 00 00 00 00 00 00 00 00 00 00
       0.0 0.0 0.0 0.0
0003e0 00 00 00 00 00 00 00 00 00 00 00 00 00 00 00 00
       0.0 0.0 0.0 0.0
0003f0 00 00 00 00 00 00 00 00 00 00 00 00 00 00 00 00
       0.0 0.0 0.0 0.0

network_body._body_endoder.seq_layers.2.weight f4 [256, 256]
000000 ab c8 b8 3c 3d 2c a0 bc ce 09 fa 3d c2 e7 88 3d
       0.022556623 -0.019552344 0.12208901 0.06684829
000010 22 90 87 3c 7a de 91 3d e4 4b c1 bc f6 8b b9 3d
       0.01654822 0.07122512 -0.023595758 0.090598986
000020 7f 54 91 3d ac 59 41 bd c8 7e 5e 3d ea a2 6c bd
       0.070961945 -0.04720466 0.054320127 -0.057772554
000030 b5 df ba 3c 94 86 c3 3d ab 1e 89 bc 2e 8c 80 bd
       0.02281175 0.09547153 -0.016738256 -0.06276737
000040 0c 70 f5 bb a2 22 80 3d 60 f8 bb bd 55 f8 ad 3c
       -0.0074901637 0.06256606 -0.09178233 0.021236578
000050 6f dc f2 3d 83 a1 9a bd c6 53 66 3d 98 63 3a 3d
       0.118584506 -0.07550337 0.056232236 0.045505136
000060 db a0 f0 bd a1 2f 15 3d 8d 26 31 bd f4 9a 0f 3d
       -0.11749431 0.036422376 -0.043249656 0.035059884
000070 5c 0f 42 bb c8 59 7f 3d ba bb 2f bd 6f 11 d2 3d
       -0.0029611206 0.06234148 -0.04290364 0.102572314
000080 45 de 18 bd 2c 19 4a 3d 45 f5 6d 3d ee 48 3b 3d
       -0.037321348 0.049340412 0.058095235 0.045723848
000090 73 50 60 3c a0 78 29 3d 64 49 ab 3b 1c 77 a4 3d
       0.013691056 0.041374803 0.0052272547 0.08030531
0000a0 4e 34 31 3d 55 6f 8d 3d 4a 4a ce 3c 9c ae a8 bd
       0.043262772 0.069060005 0.025181908 -0.08236429
0000b0 a9 3e 91 3c 03 49 bc bc 85 c0 b1 bd 65 f6 3c bd
       0.017730074 -0.022984033 -0.08679298 -0.046133418
0000c0 57 8b 73 3c 9d 8f df 3d b1 b4 ba bd 94 bb e8 bd
       0.014864764 0.10916064 -0.091164954 -0.11363903
0000d0 35 06 42 bd 05 fe a4 3d ba a5 cf bc f1 79 73 bc
       -0.0473692 0.08056263 -0.02534758 -0.014860616
0000e0 de ca 14 3d 51 9b bb bd e4 6c d8 3d 7a 2f 8c bd
       0.03632628 -0.09160484 0.10567644 -0.06844993
0000f0 06 24 33 3d 53 2d 8d bd 7f 33 cd bb f3 03 ae 3c
       0.043735527 -0.068934105 -0.0062622423 0.021242118
000100 9e 13 05 3d a6 5e 4d 3c 8e b4 87 bc 93 7a 5a bd
       0.03248941 0.012534773 -0.016565587 -0.053339552
000110 fb 60 7a bb cf 79 a1 3d 2f 6f c5 3d dc 94 52 3d
       -0.0038204778 0.07884561 0.09640347 0.051411495
000120 8c ea 1d bc 3e f3 ad ba ce cf 2a 3d ff e8 43 3d
       -0.00963844 -0.0013271344 0.041702084 0.047829624
000130 4a 39 f1 bb 00 b3 d6 3b 26 c5 28 3d e0 23 fa bd
       -0.0073615657 0.0065521 0.04120364 -0.12213874
000140 33 d5 07 3e 24 43 10 bd 22 97 20 3d 1f d5 1b bc
       0.13264923 -0.03522028 0.03920663 -0.009511261
000150 c5 fa c3 bd 55 e1 4e 3d 99 17 18 3c 38 29 cf 3c
       -0.09569315 0.050507862 0.00928297 0.02528821
000160 fe d5 a0 bc 15 08 3c 3a 92 ac cc 3d 9e a4 80 bd
       -0.01963329 0.0007172835 0.09993853 -0.06281398
000170 a6 4e 61 3d fe 8d ab bd f5 35 28 3d f3 00 57 bd
       0.055006646 -0.08376692 0.041067082 -0.05249114
000180 f1 51 9c 3d 0f 3c b5 bd 95 c7 bd 3c fe 14 1f 3d
       0.076328166 -0.08849346 0.023166457 0.03883838
000190 d7 a5 78 bc 04 cb a4 3d c3 f7 c3 bb 1a bd c6 bd
       -0.015176258 0.08046535 -0.0059804632 -0.09704037
0001a0 04 68 50 bd 7a df 9c 3d e2 e9 18 3c 53 82 4b bc
       -0.050880447 0.07659812 0.009333106 -0.012421208
0001b0 54 79 2d 3d 28 c9 8a bc d6 f1 5f 3d 48 07 5b bc
       0.042352036 -0.016941622 0.054673992 -0.013368435
0001c0 5a cd 12 3d 29 bb 9f bc db 93 e2 bd c2 06 a9 b9
       0.03584037 -0.019498425 -0.110633574 -0.00032239227
0001d0 8d 2b 96 3c 45 50 68 bd 88 f4 01 3e 8c eb ac 3d
       0.018331314 -0.056717176 0.12690938 0.084433645
0001e0 f7 e7 35 bd dd 58 18 3c 88 34 e7 bc 73 5d d8 bd
       -0.044410672 0.00929853 -0.028223291 -0.10564699
0001f0 79 bd cd 38 0a f5 33 3d 32 31 6e bd fd 9f 02 3e
       9.810454e-05 0.04393486 -0.058152385 0.12756343
000200 33 73 e4 bb c9 63 b3 bd f2 b6 24 3c 61 43 a8 bd
       -0.0069717406 -0.08759267 0.010053383 -0.082159765
000210 59 6c e0 bc 96 58 0d 3d 4e 72 ff 3d 7b d5 9b bd
       -0.027395414 0.03450831 0.12472974 -0.076090775
000220 bf 05 01 bd 35 ee 19 bd c8 59 41 3d 25 fc e0 ba
       -0.03149962 -0.037580688 0.047204763 -0.0017164989
000230 18 99 31 bd b4 d3 ec 3d 3c c3 85 3c 4d b6 f6 bc
       -0.043358892 0.11563817 0.016328447 -0.030116225
000240 df 5f ab bc 0a a9 f9 3c b8 fc bc 3d 30 d3 b7 3c
       -0.020919738 0.030476112 0.0922789 0.02243957
000250 91 67 7c 3d 76 0c c8 bd ca 0a 39 bd 5a b4 68 3d
       0.061622206 -0.09768002 -0.045176305 0.05681262
000260 7b 8f 07 3c a0 9d 9f 3c fe fb 89 3d 80 69 8c bd
       0.0082739545 0.019484341 0.06737517 -0.0685606
000270 6c c6 9b bb 19 cc 2a 3c 17 03 f9 bb d1 f2 d8 ba
       -0.0047538783 0.010424637 -0.0075992453 -0.0016551857
000280 72 83 2a 3d 5c 89 23 bb 62 53 29 bd b5 78 8b bb
       0.041629262 -0.0024953699 -0.041339286 -0.0042563328
000290 35 a5 3d be d8 dd 17 bd 8e 01 3f bc 87 38 31 bd
       -0.18520053 -0.0370768 -0.0116580855 -0.0432668
0002a0 98 75 08 be 3f af b0 bd 77 07 20 3d dc b2 35 bd
       -0.13326108 -0.086271755 0.03906962 -0.044360027
0002b0 93 95 9c 3d b3 6b cb bd 7b 9c f4 3c 96 8b 1d 3e
       0.076457165 -0.09932651 0.029859772 0.15385279
0002c0 1e 9c 6a bd ba 05 a0 bd 3a de 46 3d 49 95 0d 3c
       -0.05727779 -0.07813592 0.048551776 0.008641549
0002d0 3a ae f5 39 34 82 44 bd e8 4b b7 bc 2f ed 3b bd
       0.0004685985 -0.047975734 -0.022375062 -0.045880493
0002e0 88 31 b1 3b ae 25 2a be 65 4c 1a 3c 11 fb c4 bd
       0.005407516 -0.16615936 0.009417628 -0.096181996
0002f0 16 36 52 3c e2 5b 05 3b ad eb 0b bd 5d 1d 2a bd
       0.012830278 0.0020348956 -0.034160305 -0.04153191
000300 d8 6e a7 bd fc f0 89 3d 94 17 d2 bd 00 b8 b8 bb
       -0.08175439 0.06735417 -0.102584034 -0.005637169
000310 60 1f 93 3d 56 6f 95 bd ae ee 14 bd 13 b5 f6 3d
       0.07183719 -0.07296626 -0.036360435 0.12046256
000320 21 39 61 bc fc 07 6b bd 0d 3f 84 3d 6e 4d 68 bd
       -0.013746531 -0.05738066 0.064573385 -0.056714468
000330 d8 bb 0d be e9 da 16 3c 5f 60 a4 3c 07 2e eb bc
       -0.13841188 0.009207466 0.020065485 -0.028708471
000340 0f 9d a9 bc 55 b8 81 3d b9 c3 e3 3b 9b 03 27 3c
       -0.020704774 0.06333987 0.006950822 0.010193731
000350 a1 2e bb 3c d2 95 9a bd 70 85 7a bc 8e d5 e9 3c
       0.022849383 -0.07548107 -0.015290603 0.028544214
000360 23 41 95 3d 0c cf 24 bc de f3 33 bc 96 40 a7 3c
       0.072878145 -0.010059129 -0.010983435 0.02041654
000370 3f 0e 8d 3c cb dc 3c bd ad 92 04 bd eb fc 97 bd
       0.017218707 -0.046109002 -0.032366443 -0.07421287
000380 27 af 5d 3d e1 0a 34 3d 2f 07 0e 3d 69 26 46 3d
       0.054122116 0.043955687 0.03467482 0.048376475
000390 fb 90 7c 3d f8 48 55 bd ef 4f b4 3c f2 43 bc bd
       0.0616617 -0.05207154 0.022010772 -0.09192647
0003a0 d5 8e 42 3b 17 e8 6f bd 4f f8 51 3d 80 b5 c0 bc
       0.0029687185 -0.058570947 0.051262196 -0.023524046
0003b0 7a 1c 32 3d f0 ba ca bd 56 5d 8a 3c 48 66 da 3c
       0.04348419 -0.09898937 0.01689021 0.0266601
0003c0 d0 cb c9 3d 01 af 32 be af c6 ca 3c d4 7d 6e 3d
       0.09853327 -0.17449571 0.024752943 0.058225468
0003d0 6b 72 21 3d 00 46 19 be 25 e7 9a 3c 6e 69 91 bc
       0.039415758 -0.14968109 0.018909046 -0.017750468
0003e0 80 66 98 bd 4f 72 aa bd 49 fc 4f bc ac c3 f8 bc
       -0.07441425 -0.08322584 -0.012694427 -0.030366741
0003f0 9f 9f 54 bd a0 69 42 3d 1b c3 08 be 40 07 82 3c
       -0.05191004 0.047464013 -0.13355677 0.015872598

network_body._body_endoder.seq_layers.2.bias f4 [256]
000000 00 00 00 00 00 00 00 00 00 00 00 00 00 00 00 00
       0.0 0.0 0.0 0.0
000010 00 00 00 00 00 00 00 00 00 00 00 00 00 00 00 00
       0.0 0.0 0.0 0.0
000020 00 00 00 00 00 00 00 00 00 00 00 00 00 00 00 00
       0.0 0.0 0.0 0.0
000030 00 00 00 00 00 00 00 00 00 00 00 00 00 00 00 00
       0.0 0.0 0.0 0.0
000040 00 00 00 00 00 00 00 00 00 00 00 00 00 00 00 00
       0.0 0.0 0.0 0.0
000050 00 00 00 00 00 00 00 00 00 00 00 00 00 00 00 00
       0.0 0.0 0.0 0.0
000060 00 00 00 00 00 00 00 00 00 00 00 00 00 00 00 00
       0.0 0.0 0.0 0.0
000070 00 00 00 00 00 00 00 00 00 00 00 00 00 00 00 00
       0.0 0.0 0.0 0.0
000080 00 00 00 00 00 00 00 00 00 00 00 00 00 00 00 00
       0.0 0.0 0.0 0.0
000090 00 00 00 00 00 00 00 00 00 00 00 00 00 00 00 00
       0.0 0.0 0.0 0.0
0000a0 00 00 00 00 00 00 00 00 00 00 00 00 00 00 00 00
       0.0 0.0 0.0 0.0
0000b0 00 00 00 00 00 00 00 00 00 00 00 00 00 00 00 00
       0.0 0.0 0.0 0.0
0000c0 00 00 00 00 00 00 00 00 00 00 00 00 00 00 00 00
       0.0 0.0 0.0 0.0
0000d0 00 00 00 00 00 00 00 00 00 00 00 00 00 00 00 00
       0.0 0.0 0.0 0.0
0000e0 00 00 00 00 00 00 00 00 00 00 00 00 00 00 00 00
       0.0 0.0 0.0 0.0
0000f0 00 00 00 00 00 00 00 00 00 00 00 00 00 00 00 00
       0.0 0.0 0.0 0.0
000100 00 00 00 00 00 00 00 00 00 00 00 00 00 00 00 00
       0.0 0.0 0.0 0.0
000110 00 00 00 00 00 00 00 00 00 00 00 00 00 00 00 00
       0.0 0.0 0.0 0.0
000120 00 00 00 00 00 00 00 00 00 00 00 00 00 00 00 00
       0.0 0.0 0.0 0.0
000130 00 00 00 00 00 00 00 00 00 00 00 00 00 00 00 00
       0.0 0.0 0.0 0.0
000140 00 00 00 00 00 00 00 00 00 00 00 00 00 00 00 00
       0.0 0.0 0.0 0.0
000150 00 00 00 00 00 00 00 00 00 00 00 00 00 00 00 00
       0.0 0.0 0.0 0.0
000160 00 00 00 00 00 00 00 00 00 00 00 00 00 00 00 00
       0.0 0.0 0.0 0.0
000170 00 00 00 00 00 00 00 00 00 00 00 00 00 00 00 00
       0.0 0.0 0.0 0.0
000180 00 00 00 00 00 00 00 00 00 00 00 00 00 00 00 00
       0.0 0.0 0.0 0.0
000190 00 00 00 00 00 00 00 00 00 00 00 00 00 00 00 00
       0.0 0.0 0.0 0.0
0001a0 00 00 00 00 00 00 00 00 00 00 00 00 00 00 00 00
       0.0 0.0 0.0 0.0
0001b0 00 00 00 00 00 00 00 00 00 00 00 00 00 00 00 00
       0.0 0.0 0.0 0.0
0001c0 00 00 00 00 00 00 00 00 00 00 00 00 00 00 00 00
       0.0 0.0 0.0 0.0
0001d0 00 00 00 00 00 00 00 00 00 00 00 00 00 00 00 00
       0.0 0.0 0.0 0.0
0001e0 00 00 00 00 00 00 00 00 00 00 00 00 00 00 00 00
       0.0 0.0 0.0 0.0
0001f0 00 00 00 00 00 00 00 00 00 00 00 00 00 00 00 00
       0.0 0.0 0.0 0.0
000200 00 00 00 00 00 00 00 00 00 00 00 00 00 00 00 00
       0.0 0.0 0.0 0.0
000210 00 00 00 00 00 00 00 00 00 00 00 00 00 00 00 00
       0.0 0.0 0.0 0.0
000220 00 00 00 00 00 00 00 00 00 00 00 00 00 00 00 00
       0.0 0.0 0.0 0.0
000230 00 00 00 00 00 00 00 00 00 00 00 00 00 00 00 00
       0.0 0.0 0.0 0.0
000240 00 00 00 00 00 00 00 00 00 00 00 00 00 00 00 00
       0.0 0.0 0.0 0.0
000250 00 00 00 00 00 00 00 00 00 00 00 00 00 00 00 00
       0.0 0.0 0.0 0.0
000260 00 00 00 00 00 00 00 00 00 00 00 00 00 00 00 00
       0.0 0.0 0.0 0.0
000270 00 00 00 00 00 00 00 00 00 00 00 00 00 00 00 00
       0.0 0.0 0.0 0.0
000280 00 00 00 00 00 00 00 00 00 00 00 00 00 00 00 00
       0.0 0.0 0.0 0.0
000290 00 00 00 00 00 00 00 00 00 00 00 00 00 00 00 00
       0.0 0.0 0.0 0.0
0002a0 00 00 00 00 00 00 00 00 00 00 00 00 00 00 00 00
       0.0 0.0 0.0 0.0
0002b0 00 00 00 00 00 00 00 00 00 00 00 00 00 00 00 00
       0.0 0.0 0.0 0.0
0002c0 00 00 00 00 00 00 00 00 00 00 00 00 00 00 00 00
       0.0 0.0 0.0 0.0
0002d0 00 00 00 00 00 00 00 00 00 00 00 00 00 00 00 00
       0.0 0.0 0.0 0.0
0002e0 00 00 00 00 00 00 00 00 00 00 00 00 00 00 00 00
       0.0 0.0 0.0 0.0
0002f0 00 00 00 00 00 00 00 00 00 00 00 00 00 00 00 00
       0.0 0.0 0.0 0.0
000300 00 00 00 00 00 00 00 00 00 00 00 00 00 00 00 00
       0.0 0.0 0.0 0.0
000310 00 00 00 00 00 00 00 00 00 00 00 00 00 00 00 00
       0.0 0.0 0.0 0.0
000320 00 00 00 00 00 00 00 00 00 00 00 00 00 00 00 00
       0.0 0.0 0.0 0.0
000330 00 00 00 00 00 00 00 00 00 00 00 00 00 00 00 00
       0.0 0.0 0.0 0.0
000340 00 00 00 00 00 00 00 00 00 00 00 00 00 00 00 00
       0.0 0.0 0.0 0.0
000350 00 00 00 00 00 00 00 00 00 00 00 00 00 00 00 00
       0.0 0.0 0.0 0.0
000360 00 00 00 00 00 00 00 00 00 00 00 00 00 00 00 00
       0.0 0.0 0.0 0.0
000370 00 00 00 00 00 00 00 00 00 00 00 00 00 00 00 00
       0.0 0.0 0.0 0.0
000380 00 00 00 00 00 00 00 00 00 00 00 00 00 00 00 00
       0.0 0.0 0.0 0.0
000390 00 00 00 00 00 00 00 00 00 00 00 00 00 00 00 00
       0.0 0.0 0.0 0.0
0003a0 00 00 00 00 00 00 00 00 00 00 00 00 00 00 00 00
       0.0 0.0 0.0 0.0
0003b0 00 00 00 00 00 00 00 00 00 00 00 00 00 00 00 00
       0.0 0.0 0.0 0.0
0003c0 00 00 00 00 00 00 00 00 00 00 00 00 00 00 00 00
       0.0 0.0 0.0 0.0
0003d0 00 00 00 00 00 00 00 00 00 00 00 00 00 00 00 00
       0.0 0.0 0.0 0.0
0003e0 00 00 00 00 00 00 00 00 00 00 00 00 00 00 00 00
       0.0 0.0 0.0 0.0
0003f0 00 00 00 00 00 00 00 00 00 00 00 00 00 00 00 00
       0.0 0.0 0.0 0.0

action_model._continuous_distribution.log_sigma f4 [1, 5]
000000 00 00 00 00 00 00 00 00 00 00 00 00 00 00 00 00
       0.0 0.0 0.0 0.0
000010 00 00 00 00
       0.0

action_model._continuous_distribution.mu.weight f4 [5, 256]
000000 57 00 9c bb bf b6 26 bc c2 59 4d bb 35 06 16 bc
       -0.0047607827 -0.010175406 -0.0031334017 -0.009156753
000010 15 e8 05 3c d7 27 dd 3b 40 82 e1 bc 22 ea 1d 3c
       0.008173008 0.006749134 -0.027527928 0.009638341
000020 98 cc 4f bc 3d bd dd bb 70 b4 28 3b 7f 5a 60 bc
       -0.012683056 -0.0067669437 0.0025742315 -0.013693451
000030 53 f2 ae 3b 24 49 3f 3c 6b d5 7b bc 83 4c 34 bc
       0.005338946 0.011675153 -0.015370707 -0.01100457
000040 f7 5b 2f 3c 0f b4 75 3b 35 a9 ca bb 67 65 83 3c
       0.0107030785 0.0037491356 -0.006184722 0.016039563
000050 c7 6c db 3c 77 aa 55 3c 93 62 69 bc 63 2a 24 bc
       0.026785268 0.01304113 -0.014244693 -0.010019871
000060 b3 40 05 bd cb db e3 3a db 15 9d ba 91 7a 38 bb
       -0.032532405 0.0017384229 -0.0011984663 -0.0028149227
000070 7f c9 84 3b be 50 cb 3b 64 85 82 3b 53 7f a4 ba
       0.0040523405 0.0062046936 0.0039831866 -0.0012550153
000080 41 b6 1c bc b3 54 64 3c eb c1 1c bb 40 c0 0b bc
       -0.009564937 0.0139362095 -0.0023919295 -0.008529723
000090 fa e7 3e 3c 53 7b 05 3d 40 76 8e bc a7 f7 41 bc
       0.011651987 0.032588314 -0.01739037 -0.01183883
0000a0 c3 25 af ba 9b 6c ab bb 0b 3d 93 bc e3 81 58 bb
       -0.0013362694 -0.0052314526 -0.017973443 -0.0033036403
0000b0 cc e0 30 bc 07 e7 4b bb 33 4b 57 bc 7b 8d 96 bb
       -0.010795783 -0.0031113045 -0.0131404875 -0.0045945025
0000c0 ef 5c 91 bc 28 46 8a 3c ef b4 70 bc e1 2d 0f bc
       -0.01774451 0.016879156 -0.014691575 -0.008738966
0000d0 8b ca 01 bc cf ed 5a bb ca a8 80 bc d8 ae b1 3c
       -0.007921825 -0.0033405905 -0.015705485 0.021689817
0000e0 e9 d8 cb bc 0b a4 06 3d 46 58 b9 bb 9c 18 b7 bc
       -0.024883704 0.032871287 -0.005656275 -0.022350602
0000f0 09 ef 49 3b 2d 6f d7 3c 6b c2 a7 bc d0 f1 3a 3c
       0.0030812642 0.02629813 -0.020478448 0.011410192
000100 7b 07 e4 39 4a 02 6d 3c 8d 14 61 3c bd bd c9 3a
       0.00043493122 0.014465878 0.01373781 0.001539163
000110 99 53 0a 3c 3e f1 99 3a 3a 3d 38 3a 38 73 82 3b
       0.008442783 0.0011744869 0.00070281664 0.0039810203
000120 0a b9 75 bc 73 57 fe 3a 37 46 c3 39 87 c7 8e 3a
       -0.01499773 0.0019404724 0.00037245612 0.0010893204
000130 58 21 fb bb 73 3d 69 bb 5f fa d0 3a fb d1 76 3c
       -0.007663887 -0.0035589605 0.0015943757 0.015064712
000140 5b 95 54 bc 17 47 9a bb 88 ae af 3a 4d 67 c2 3b
       -0.012975062 -0.0047081816 0.0013403455 0.0059327246
000150 33 fa a4 3c 03 4b 51 3c 28 1a 57 3c 40 87 97 bb
       0.020138836 0.012774232 0.013128795 -0.0046242774
000160 43 92 81 bb 08 e1 40 3c 04 a3 b2 bc 90 50 e9 3a
       -0.0039542033 0.011772402 -0.021806248 0.0017800499
000170 48 b2 cc 3c db 67 52 3c 01 36 1f 3c 03 11 df 3b
       0.024987355 0.012842144 0.009717465 0.006807448
000180 ab d9 f9 3b 67 c2 23 3c c6 77 8c 3c 24 9a c6 3b
       0.007624825 0.00999508 0.017146956 0.0060608555
000190 7c f0 a1 bc ca 91 b5 bb 65 8d d3 bb ef 56 42 3c
       -0.019767992 -0.005541061 -0.0064560645 0.011861547
0001a0 7b 54 dc 3c 3d 03 88 bc a3 52 95 ba 1b 21 21 bc
       0.026895752 -0.016603107 -0.0011392426 -0.009834553
0001b0 0b 4a a5 3b 32 9a c7 3b 77 10 be 3c f7 3d 91 3a
       0.005044227 0.0060913796 0.02320121 0.0011081089
0001c0 b8 d2 09 39 7f 67 c9 3c b5 a8 cf bc 90 8e db 3b
       0.00013143837 0.024585484 -0.025349 0.0067003444
0001d0 cb 9d 3d bc 9d 68 61 3c 8d 44 ea 3c 97 11 49 3a
       -0.011573265 0.013757852 0.02859714 0.00076701626
0001e0 d3 0d 4e bc 75 a4 00 bb df 70 a6 bb ed 6f 3e 3c
       -0.012576538 -0.0019629274 -0.0050793733 0.011623365
0001f0 9f b4 2b 3b a2 d6 c8 bb b7 a9 d4 3b 08 4e 52 bb
       0.0026200188 -0.006129102 0.006489958 -0.0032089967
000200 77 c0 5c 3b c3 e1 44 bb 5f 0f 44 3c b3 2c cb bb
       0.0033684054 -0.003004179 0.011966555 -0.006200397
000210 12 93 65 bb 00 2d 7f bc 2b 6a 14 3c c3 c3 8c bc
       -0.0035030288 -0.015574694 0.009058516 -0.01718319
000220 8c 7f a2 bb 32 7c 83 3c c8 5b 00 3b 62 fe fe 3b
       -0.0049590524 0.016050432 0.0019585956 0.0077817896
000230 c2 c8 a5 bb 3b 9c ad 3b ef 95 bb 3c c0 06 b6 bb
       -0.0050593326 0.005298165 0.022898642 -0.005555004
000240 c8 15 6b 3b 78 05 78 3c 32 b6 df 3a de 49 bf bb
       0.0035871137 0.015138023 0.0017067848 -0.005837663
000250 0b 4c e3 3b 35 7a 5e bc a9 06 9f bb 32 24 dc 3c
       0.0069365553 -0.013578941 -0.004853089 0.026872728
000260 46 a4 1a bc 83 6f a3 bc a2 0e db 3b 8b e3 8a bc
       -0.00943858 -0.019950634 0.006685094 -0.016954204
000270 63 69 31 bb 17 e7 4e bc c5 f3 95 ba 98 78 a3 bb
       -0.0027070872 -0.012628338 -0.0011440447 -0.004988741
000280 7c 21 bf 3c aa 35 d2 3b 72 5e 7f bc 62 79 b1 3c
       0.023331396 0.0064150887 -0.015586482 0.021664325
000290 01 74 bc bc 6d c4 a4 bb d3 49 a4 bb e2 19 d1 3a
       -0.023004534 -0.0050282986 -0.0050136833 0.0015953148
0002a0 25 c3 0c bd 1e b9 a2 ba 6b 3c 56 bc dd 8e 82 b9
       -0.03436579 -0.0012414788 -0.013075928 -0.00024901974
0002b0 04 2f 8c 3c 5f 85 06 3d c1 1a b6 bc 2d 5a f0 bb
       0.017112263 0.032842036 -0.022229554 -0.0073349685
0002c0 f6 c9 42 bc 8a 0f d2 bb e8 12 08 3b 7a e3 37 bc
       -0.011888972 -0.006410544 0.0020763222 -0.011223668
0002d0 67 38 45 3c 71 25 90 3c f8 bc d0 bb 20 42 3a 3c
       0.012037373 0.017595978 -0.006370183 0.0113683045
0002e0 f3 f1 0a bb 40 30 33 3b 32 78 6d bc 46 e5 a8 bc
       -0.0021201342 0.0027341992 -0.014493989 -0.020617139
0002f0 46 61 b0 3c 2b df 69 3c 2a 35 7a 3a f5 1a f3 39
       0.021530759 0.014274399 0.0009544665 0.00046368656
000300 b5 ca af ba dd bf 42 3c ad 78 72 3c 36 eb b0 3c
       -0.0013411852 0.011886564 0.014799279 0.021596532
000310 b8 da cd bb 67 07 9d bc 97 5c 55 3c 9b 2d b7 3b
       -0.006282177 -0.019168569 0.013022563 0.0055901534
000320 a3 5d ea bb 0f 30 3c 3c f9 7e 94 bb 94 d0 9e 3c
       -0.0071522756 0.011486067 -0.004531738 0.019386567
000330 98 a7 53 3c 20 be ad bb 12 60 84 bc e2 9a f7 bb
       0.012918375 -0.0053022057 -0.016159091 -0.0075563053
000340 5f 46 ea 3c 28 ba 37 bc 50 61 8d 3c 1b c4 31 3c
       0.028598009 -0.011213817 0.017258316 0.010849978
000350 ef 3e 29 3c 3a a9 e1 bb 83 d1 00 bb 5f dc 00 bb
       0.010329946 -0.0068866285 -0.0019656129 -0.0019662601
000360 e9 a4 91 bc a7 07 1f bc 1a 73 e9 39 4f 2d e5 ba
       -0.01777883 -0.009706414 0.0004452698 -0.0017484816
000370 dd 16 a7 bc d3 2d 22 bc 57 28 92 bc 5f 3f 93 bc
       -0.020396644 -0.009898621 -0.017841501 -0.017974554
000380 cd 80 2d bc d8 17 d2 3c b7 63 9c 3c f7 36 ac 3b
       -0.0105897905 0.025646135 0.019090516 0.0052555758
000390 63 e5 59 3c 6a 3b 8d bc b2 16 fb ba 35 9c 13 bc
       0.013299319 -0.017240245 -0.0019156544 -0.009009411
0003a0 c3 8b 49 3c da 7d 7e 3c f0 44 8c 3c bf 3f 2e 3c
       0.012301388 0.015532935 0.017122716 0.010635315
0003b0 43 6e 73 bc 01 65 3a bc ed 4d 13 bc c6 61 16 bb
       -0.014857831 -0.01137662 -0.008990747 -0.002294646
0003c0 10 96 75 bc 2b 6d 9d bc aa f7 60 3c 8c 78 25 bc
       -0.014989391 -0.019217094 0.013730923 -0.010099541
0003d0 1b ae 0e 3d 03 9d bc bc 5d 9e ad 3c 45 9a f7 bc
       0.03483401 -0.023024088 0.021193678 -0.030224929
0003e0 e7 d2 a2 3c 4f ed ad bc d7 7b 9f ba d2 bc 1f 3c
       0.019875957 -0.021231322 -0.0012167644 0.009749608
0003f0 a4 93 18 bb 77 a0 40 bc bf 25 73 3c 83 6a 25 bc
       -0.002328136 -0.011757008 0.014840542 -0.010096195

action_model._continuous_distribution.mu.bias f4 [5]
000000 00 00 00 00 00 00 00 00 00 00 00 00 00 00 00 00
       0.0 0.0 0.0 0.0
000010 00 00 00 00
       0.0

network_body.observation_encoder.processors.0.normalizer.running_mean f4 [68]
000000 07 6e 74 3f 0a 25 e6 3a 06 87 ca 39 08 8b 49 3e
       0.9548039 0.0017558646 0.00038629043 0.19681942
000010 63 05 76 3f 69 8e f8 3a 44 b4 a5 39 29 e6 49 3e
       0.9610197 0.001896334 0.0003160556 0.19716705
000020 7e 8c 73 3f 8f b0 0e 3b bf 59 ef 39 2c 86 4a 3e
       0.9513625 0.0021772718 0.00045652498 0.19777745
000030 76 78 76 3f 20 36 31 3b 87 e1 00 3a 48 32 49 3e
       0.9627756 0.0027040318 0.00049164187 0.19648087
000040 6c 11 75 3f e4 7b 05 3b a8 1d b8 39 86 f2 4c 3e
       0.9572971 0.0020368034 0.0003511731 0.2001439
000050 d1 67 77 3f 20 36 31 3b 88 e1 00 3a 33 ac 48 3e
       0.96642786 0.0027040318 0.0004916419 0.19596939
000060 d6 5c 76 3f 67 8e f8 3a e3 4a 93 39 c3 2b 4e 3e
       0.96235406 0.0018963338 0.0002809382 0.20133881
000070 6b 14 78 3f 97 4e 2a 3b 93 7f 1c 3a 88 d5 46 3e
       0.96906155 0.0025986785 0.0005969938 0.19417393
000080 96 9f 76 3f b9 59 ef 3a 48 b4 a5 39 7c d5 50 3e
       0.9633726 0.0018260992 0.00031605572 0.20393938
000090 d1 f8 77 3f c6 9b 2c 3b 4a b4 25 3a 2c 98 47 3e
       0.9686404 0.0026337965 0.00063211157 0.19491643
0000a0 0d 4f 76 3f 9c 4e 2a 3b 8d e1 80 39 dc be 52 3e
       0.9621437 0.0025986796 0.0002458211 0.2058062
0000b0 df ac 77 3f c5 9b 2c 3b 9c 7f 1c 3a 1f 5b 48 3e
       0.96748155 0.0026337963 0.0005969943 0.1956601
0000c0 ae f0 75 3f 68 32 1a 3b 8d e1 80 39 1c 91 54 3e
       0.96070373 0.002352858 0.0002458211 0.2075848
0000d0 a1 8c 77 3f 76 d0 35 3b 42 b4 25 3a 40 61 49 3e
       0.9669896 0.002774266 0.0006321111 0.19666004
0000e0 fb f2 75 3f 62 63 0c 3b 48 b4 a5 39 0e c9 56 3e
       0.96073884 0.0021421541 0.00031605572 0.20975134
0000f0 96 d8 77 3f 11 98 15 3b e3 4a 13 3a a1 61 49 3e
       0.9681486 0.0022826234 0.0005618764 0.19666149
000100 36 2a 76 3f b8 59 ef 3a b6 59 ef 39 78 b5 59 3e
       0.9615816 0.0018260991 0.00045652472 0.21260631

network_body.observation_encoder.processors.0.normalizer.running_variance f4 [68]
000000 a6 ba 99 44 1b a6 4b 42 92 ee 3f 41 78 ce 1b 44
       1229.8328 50.912212 11.995745 623.2261
000010 6c 77 85 44 24 97 5b 42 5a f4 1f 41 37 7e 1a 44
       1067.7319 54.8976 9.997156 617.9721
000020 6a d4 a4 44 c3 75 7b 42 ae e7 5f 41 ab 60 1f 44
       1318.638 62.865 13.994062 637.51044
000030 b3 62 7f 44 61 95 9b 42 cd e3 6f 41 37 b9 15 44
       1021.5422 77.791756 14.993115 598.894
000040 5a a2 91 44 05 87 6b 42 96 f1 2f 41 a6 8a 23 44
       1165.0735 58.881855 10.996481 654.1664
000050 ec 39 67 44 66 95 9b 42 cd e3 6f 41 b4 54 15 44
       924.905 77.791794 14.993115 597.3235
000060 98 14 81 44 24 97 5b 42 ce f6 0f 41 b1 e9 21 44
       1032.6436 54.8976 8.997755 647.6514
000070 96 af 55 44 89 9d 95 42 34 eb 8f 41 ad be 12 44
       854.7435 74.807686 17.989845 586.9793
000080 0d 73 7b 44 bf 9e 53 42 5b f4 1f 41 2b 05 2a 44
       1005.79767 52.905025 9.997157 680.08075
000090 ba 7f 58 44 de 9a 97 42 b4 e8 97 41 f7 1c 15 44
       865.9957 75.802475 18.988625 596.4526
0000a0 1b c6 81 44 8b 9d 95 42 e5 f1 ff 40 81 4d 31 44
       1038.1908 74.8077 7.998278 709.211
0000b0 ce 38 60 44 de 9a 97 42 35 eb 8f 41 aa 44 14 44
       896.8876 75.802475 17.989847 593.0729
0000c0 e1 80 86 44 48 af 87 42 e7 f1 ff 40 42 a6 34 44
       1076.0275 67.84235 7.998279 722.5978
0000d0 1d 7e 63 44 cc 8f 9f 42 b2 e8 97 41 97 d3 15 44
       909.9705 79.78085 18.98862 599.3061
0000e0 66 63 86 44 33 7a 77 42 5a f4 1f 41 7f 9f 36 44
       1075.1062 61.869335 9.997156 730.4921
0000f0 18 c7 5b 44 0b b4 83 42 92 ed 87 41 b1 c9 15 44
       879.11084 65.85165 16.991001 599.1514
000100 0f 9f 83 44 c1 9e 53 42 ac e7 5f 41 82 6c 36 44
       1052.9706 52.905033 13.9940605 729.69543

network_body.observation_encoder.processors.1.normalizer.running_mean f4 [20]
000000 17 31 e5 3e 00 87 4a 3a a6 1a f5 3c ec e6 a3 3e
       0.44764015 0.0007725805 0.029919934 0.32012117
000010 88 83 ea 3e 3d e5 97 3a 58 6b f9 3c a3 c4 a6 3e
       0.45803475 0.0011588704 0.030446693 0.32571897
000020 cb 76 e8 3e 5b f0 5c 3a ef 2c 02 3d f4 12 a7 3e
       0.45403132 0.000842815 0.031781133 0.32631648
000030 58 a4 fa 3e ab bb d3 3a ac 05 fe 3c 5f fe ae 3e
       0.4895351 0.0016153952 0.031008564 0.34178445
000040 27 90 f9 3e a2 1d 38 3a ae 68 0f 3d 91 8e b0 3e
       0.48742792 0.00070234586 0.03501194 0.3448377

network_body.observation_encoder.processors.1.normalizer.running_variance f4 [20]
000000 71 0f dc 45 33 dd b7 41 83 e0 4e 44 b6 52 c6 44
       7041.93 22.983007 827.508 1586.5847
000010 cf ee dc 45 d7 d8 07 42 95 66 52 44 de d3 c8 44
       7069.851 33.961758 841.60284 1606.6208
000020 9c 9e dc 45 97 d6 c7 41 3c 4f 5b 44 0f 05 cd 44
       7059.826 24.97978 877.23804 1640.1581
000030 0c 67 de 45 ea b3 3b 42 a4 27 56 44 28 e2 d0 44
       7116.881 46.925697 856.6194 1671.0674
000040 05 5c de 45 3f e3 a7 41 f4 c5 70 44 3a de d7 44
       7115.5024 20.98596 963.093 1726.9446

network_body.observation_encoder.processors.2.normalizer.running_mean f4 [5]
000000 1c b8 63 c0 86 02 14 40 88 7d 92 3f 98 97 4f 3f
       -3.5581121 2.312654 1.1444559 0.8109069
000010 59 ca eb 3e
       0.46052817

network_body.observation_encoder.processors.2.normalizer.running_variance f4 [5]
000000 09 8c f3 4a 68 00 46 47 bc 08 4f 49 42 ea fb 46
       7.9805485e+06 50688.406 848011.75 32245.129
000010 14 1d dd 45
       7075.635

network_body.processors.0.normalizer.running_mean f4 [68]
000000 07 6e 74 3f 0a 25 e6 3a 06 87 ca 39 08 8b 49 3e
       0.9548039 0.0017558646 0.00038629043 0.19681942
000010 63 05 76 3f 69 8e f8 3a 44 b4 a5 39 29 e6 49 3e
       0.9610197 0.001896334 0.0003160556 0.19716705
000020 7e 8c 73 3f 8f b0 0e 3b bf 59 ef 39 2c 86 4a 3e
       0.9513625 0.0021772718 0.00045652498 0.19777745
000030 76 78 76 3f 20 36 31 3b 87 e1 00 3a 48 32 49 3e
       0.9627756 0.0027040318 0.00049164187 0.19648087
000040 6c 11 75 3f e4 7b 05 3b a8 1d b8 39 86 f2 4c 3e
       0.9572971 0.0020368034 0.0003511731 0.2001439
000050 d1 67 77 3f 20 36 31 3b 88 e1 00 3a 33 ac 48 3e
       0.96642786 0.0027040318 0.0004916419 0.19596939
000060 d6 5c 76 3f 67 8e f8 3a e3 4a 93 39 c3 2b 4e 3e
       0.96235406 0.0018963338 0.0002809382 0.20133881
000070 6b 14 78 3f 97 4e 2a 3b 93 7f 1c 3a 88 d5 46 3e
       0.96906155 0.0025986785 0.0005969938 0.19417393
000080 96 9f 76 3f b9 59 ef 3a 48 b4 a5 39 7c d5 50 3e
       0.9633726 0.0018260992 0.00031605572 0.20393938
000090 d1 f8 77 3f c6 9b 2c 3b 4a b4 25 3a 2c 98 47 3e
       0.9686404 0.0026337965 0.00063211157 0.19491643
0000a0 0d 4f 76 3f 9c 4e 2a 3b 8d e1 80 39 dc be 52 3e
       0.9621437 0.0025986796 0.0002458211 0.2058062
0000b0 df ac 77 3f c5 9b 2c 3b 9c 7f 1c 3a 1f 5b 48 3e
       0.96748155 0.0026337963 0.0005969943 0.1956601
0000c0 ae f0 75 3f 68 32 1a 3b 8d e1 80 39 1c 91 54 3e
       0.96070373 0.002352858 0.0002458211 0.2075848
0000d0 a1 8c 77 3f 76 d0 35 3b 42 b4 25 3a 40 61 49 3e
       0.9669896 0.002774266 0.0006321111 0.19666004
0000e0 fb f2 75 3f 62 63 0c 3b 48 b4 a5 39 0e c9 56 3e
       0.96073884 0.0021421541 0.00031605572 0.20975134
0000f0 96 d8 77 3f 11 98 15 3b e3 4a 13 3a a1 61 49 3e
       0.9681486 0.0022826234 0.0005618764 0.19666149
000100 36 2a 76 3f b8 59 ef 3a b6 59 ef 39 78 b5 59 3e
       0.9615816 0.0018260991 0.00045652472 0.21260631

network_body.processors.0.normalizer.running_variance f4 [68]
000000 a6 ba 99 44 1b a6 4b 42 92 ee 3f 41 78 ce 1b 44
       1229.8328 50.912212 11.995745 623.2261
000010 6c 77 85 44 24 97 5b 42 5a f4 1f 41 37 7e 1a 44
       1067.7319 54.8976 9.997156 617.9721
000020 6a d4 a4 44 c3 75 7b 42 ae e7 5f 41 ab 60 1f 44
       1318.638 62.865 13.994062 637.51044
000030 b3 62 7f 44 61 95 9b 42 cd e3 6f 41 37 b9 15 44
       1021.5422 77.791756 14.993115 598.894
000040 5a a2 91 44 05 87 6b 42 96 f1 2f 41 a6 8a 23 44
       1165.0735 58.881855 10.996481 654.1664
000050 ec 39 67 44 66 95 9b 42 cd e3 6f 41 b4 54 15 44
       924.905 77.791794 14.993115 597.3235
000060 98 14 81 44 24 97 5b 42 ce f6 0f 41 b1 e9 21 44
       1032.6436 54.8976 8.997755 647.6514
000070 96 af 55 44 89 9d 95 42 34 eb 8f 41 ad be 12 44
       854.7435 74.807686 17.989845 586.9793
000080 0d 73 7b 44 bf 9e 53 42 5b f4 1f 41 2b 05 2a 44
       1005.79767 52.905025 9.997157 680.08075
000090 ba 7f 58 44 de 9a 97 42 b4 e8 97 41 f7 1c 15 44
       865.9957 75.802475 18.988625 596.4526
0000a0 1b c6 81 44 8b 9d 95 42 e5 f1 ff 40 81 4d 31 44
       1038.1908 74.8077 7.998278 709.211
0000b0 ce 38 60 44 de 9a 97 42 35 eb 8f 41 aa 44 14 44
       896.8876 75.802475 17.989847 593.0729
0000c0 e1 80 86 44 48 af 87 42 e7 f1 ff 40 42 a6 34 44
       1076.0275 67.84235 7.998279 722.5978
0000d0 1d 7e 63 44 cc 8f 9f 42 b2 e8 97 41 97 d3 15 44
       909.9705 79.78085 18.98862 599.3061
0000e0 66 63 86 44 33 7a 77 42 5a f4 1f 41 7f 9f 36 44
       1075.1062 61.869335 9.997156 730.4921
0000f0 18 c7 5b 44 0b b4 83 42 92 ed 87 41 b1 c9 15 44
       879.11084 65.85165 16.991001 599.1514
000100 0f 9f 83 44 c1 9e 53 42 ac e7 5f 41 82 6c 36 44
       1052.9706 52.905033 13.9940605 729.69543
