Assets/results/coin_shooter1/CoinChaser/CoinChaser-61105.onnx (onnx, 372431 bytes, 13 tensors)

network_body.observation_encoder.processors.0.normalizer.running_mean f4 [68]
00000000: bba3 753f 6a92 573b 4e3d 703a 1fe8 373e
00000010: bb81 763f 9417 243b c4d1 783a ad28 393e
00000020: e54d 753f c18a 393b 1eb3 803a 1b6e 383e
00000030: 45c5 763f 34a8 1d3b c6d1 783a cbfe 3a3e
00000040: 9ff6 763f e10f 063b 8687 743a a00d 393e
00000050: 22c3 763f 8570 1a3b 423d 703a 6c81 3e3e
00000060: 0442 783f 5afd 043b 7e87 743a 3392 393e
00000070: 6750 763f 1053 363b 5014 5f3a a705 413e
00000080: d85c 783f b76c 0b3b 001c 7d3a d958 3a3e
00000090: fbd3 753f 7c10 503b c7a8 673a 6f78 443e
000000a0: 20cd 773f ef86 2a3b c7a8 673a a44e 3c3e
000000b0: 165f 753f 48c6 4b3b 5814 5f3a 3401 473e
000000c0: 7296 773f 7399 2b3b 8d5e 633a 40e6 3e3e
000000d0: 9cff 743f 44c6 4b3b 5014 5f3a a2d4 493e
000000e0: c734 773f a265 373b 5314 5f3a ac53 413e
000000f0: fdc9 743f e856 453b 5114 5f3a b78d 4b3e
00000100: 6f02 773f c4ba 1e3b 24a1 493a 2a07 443e
0.9595296 0.0032893666 0.00091644085 0.17959641 0.96291703 0.0025038468 0.0009491707 0.18081923
0.9582198 0.0028311464 0.0009819006 0.18010752 0.9639476 0.0024056556 0.0009491708 0.18261258
0.96470064 0.0020456242 0.0009328056 0.18071604 0.963915 0.0023565602 0.00091644016 0.18604058
0.9697573 0.002029261 0.0009328051 0.18122177 0.96216434 0.0027820505 0.00085098017 0.18849812
0.9701667 0.0021274516 0.00096553564 0.18197955 0.9602658 0.0031748107 0.00088371005 0.19186567
0.9679737 0.0026020368 0.00088371005 0.18389374 0.95848215 0.0031093527 0.00085098064 0.19434053
0.96713936 0.0026183992 0.0008673452 0.18642521 0.9570253 0.0031093517 0.00085098017 0.19710019
0.96564907 0.0027984162 0.00085098034 0.18879575 0.9562071 0.0030111615 0.0008509802 0.19878279
0.9648809 0.0024220208 0.00076915533 0.19143358

network_body.observation_encoder.processors.1.normalizer.running_mean f4 [20]
00000000: d0d7 043f 5214 5f3a 8661 033d d58a 913e
00000010: ff64 073f 8f70 1a3a 0e74 043d 5c3c 943e
00000020: a929 063f 433d f039 0b74 043d 6f50 943e
00000030: f21d 0d3f e456 453a a887 123d 88b4 9c3e
00000040: 9cdd 0c3f 0605 a339 585e 0d3d 5332 9d3e
0.51891804 0.0008509803 0.032075427 0.28426233 0.5288848 0.00058914063 0.03233724 0.289523
0.5240732 0.0004582201 0.03233723 0.28967616 0.5512382 0.00075279013 0.035773903 0.30606484
0.5502565 0.00031093525 0.0345138 0.30702457

network_body.observation_encoder.processors.2.normalizer.running_mean f4 [5]
00000000: e963 fe3f 3ee6 1040 4adb 4a3e b687 4f3f
00000010: a758 ff3e
1.987424 2.2640529 0.19810215 0.81066453 0.49872324

network_body._body_endoder.seq_layers.0.weight f4 [256, 93]
00000000: a4ec d03d f13a 3c3d 8b27 203e 2b3c ee3d
00000010: 4868 df3d 34ba 0bbe 6482 f03c 4332 a2bb
00000020: ee18 943d 4aa8 da3d 24b0 803d 67b0 873d
00000030: a5eb 083e 98ad 65be 8154 593c bc73 d5bc
00000040: d321 68bd 2f63 1d3c 335a 043d 748a 41be
00000050: b32e 803d d56b 903d cc56 99bc 7af6 cc3d
00000060: 9658 023e a628 733d 8994 1dbd 2178 ffbc
00000070: 13c4 49bd eaf6 f23d 0700 1fbe 2293 37bd
00000080: 171c 12bd b1e0 89bc f86b 84be f682 05be
00000090: 6be3 083e e10a a53c 405d 8fbd 7a30 7d3d
000000a0: ae87 7e3d e311 1dbd 1d3d 0abe a895 05bd
000000b0: c320 9e3d fd7e 3abd e2d4 0c3d 044a bd3d
000000c0: 27d5 ac3d cb8b 4e3d 039f a63b 2532 153e
000000d0: fe33 4e3d 60ce dbbd 788e 03be cd73 033e
000000e0: c0d5 373d db2b 26be 8251 983d ff2f e33d
000000f0: ba69 1bbd d350 1bbe 2f6f 533d ac2c 30be
00000100: ba7d 54be 6c87 c63d 0c8e dd3d f443 263e
00000110: 2b7b 1abe bc83 72bd 5fe3 57bd 9ab8 babc
00000120: b35f e43c 2be0 0bbd 6a97 be3c c29d ecbc
00000130: c5c7 0e3d 292c 24be 15b2 a63d d061 85bd
00000140: 27f8 eb3d 5e6c 08be c9f1 01be 830d f5bd
00000150: e6ef f33d e5cf 153e f594 d13d 4d79 093d
00000160: 071b adbd 6165 08be 4e80 733d 700e 19bd
00000170: f21a 56bd c9de 653c a128 afbe b0d8 b8bd
00000180: fc04 593d 8132 c2bd f89e c33d 9ef4 f5bd
00000190: ef39 963b bc88 27be 01a5 09bd 0939 37bd
000001a0: 4ef5 d3bd 638f a63d b6e6 a3bd 0023 1c3e
000001b0: 3140 853d e2ed 213e 7d5b 923d 5101 803d
000001c0: 9924 babc e776 e6ba 2e4a febd 2826 92bd
000001d0: 14b8 4b3d 5801 123e 0d08 4d3d 4780 d7bd
000001e0: 5bf0 20be f7e8 81bd 40b5 b53d 6e8b 6bbd
000001f0: 00c2 44bd 4ab5 debd 7a96 113e 9961 d33b
00000200: f3dc d0bd 5e32 a33d e9c3 573d 2fed 1e3e
00000210: ad52 35bd 78f2 c8bc d2aa 7f39 03b2 1cbd
00000220: 87ef f6bc 85d1 dd3d 444f 57bc 94bd eebd
00000230: 01c1 11be a17f 913c 3c4a b2bc 7294 d3bd
00000240: a9c9 32bd 2d1e 663d a9c3 15be 2c18 55bd
00000250: f525 e83c 34fb 463d 4923 08be a6a5 133d
00000260: 9522 07be 15ea 43be d022 b73d e22a 88bc
00000270: 06e2 da3d 613b 243c 97f0 d3bd 4160 1cbe
00000280: 9ef9 ddbc 564f 20bc ccf7 3dbe 867d 95be
00000290: c382 183d c1e5 1a3e 7a32 fd3d 22eb 4c3d
000002a0: a7f6 6b3d 5472 023d 8fb4 9f3b 5955 30bc
000002b0: f858 a03d d04f ba3d dcaf 31bd d8da e23d
000002c0: 20db 5b3d a2f5 19bc 1cd4 b4bd 7b4c 29bc
000002d0: f15c ef3d 91ff 62bc 0a8d e6bc 4654 983d
000002e0: e5b2 8b3e 0410 323e 69d4 bc3d 9ff7 dcbd
000002f0: 4f06 ccbd 6c16 b03d 5b80 113e b8db 123d
00000300: f0bf b63a 8eff 1e3e aaec 3d3d 1c0d 7ebc
00000310: 5cf6 4f3e f886 e33d 3e6d 07bd 9bd3 e53d
00000320: 00f6 5ebd e927 583d 990f 16be 0aa7 21be
00000330: d214 d23d 3d2e 5b3e 31dd 37bd 3124 acbd
00000340: 4c54 013e 6966 453d e82e 9bbd 73dc d3bd
00000350: 1dd5 f7bd 9381 333e c0b0 d7bc 69d9 873e
00000360: 6282 bb3b 67b5 29bd abd9 903d f49e 413c
00000370: a08c b53d 3901 bdbc 6750 9ebb 4d6a 313c
00000380: a99d 253e 9357 63be 7532 26bd 106f bcbc
00000390: ceef 543e 9824 dcbc 3234 673d c25d d3bd
000003a0: 8b03 98bd 79fd 413c c1db 333e c647 ddbd
000003b0: c651 e03d f841 acbd d7ad a03d 2c05 8ebd
000003c0: a9d3 dabd f8e8 d4bd 1403 6c3d 4772 82bd
000003d0: 2cc7 b1bd 385e f03a 45a9 64bd 6290 213e
000003e0: 3799 ba3d acef 20bc fdaf 73be 6e6a 11bd
000003f0: 716a b5bd f8c1 293d b30b 863b 73dc 87bc
0.102013856 0.04595465 0.15640084 0.1163257 0.10908562 -0.1364525 0.02935905 -0.0049498393
0.072313175 0.1067663 0.06283596 0.06625443 0.13371141 -0.22429502 0.013264776 -0.026056163
-0.056672882 0.009606167 0.032312583 -0.18900472 0.06258907 0.07051817 -0.018718146 0.10007949
0.12729105 0.059364937 -0.038471732 -0.031185212 -0.049259257 0.11863501 -0.15527354 -0.04481805
-0.03567132 -0.016830774 -0.25863624 -0.13038239 0.13368003 0.020146789 -0.07000208 0.06181381
0.062141113 -0.038347136 -0.13499875 -0.032613426 0.077210926 -0.04553126 0.03438271 0.09242633
0.08439093 0.050426286 0.0050848736 0.1456991 0.050342552 -0.10732722 -0.12847316 0.12837143
0.044881582 -0.16227667 0.074374214 0.11093139 -0.037942626 -0.1516755 0.051619705 -0.17204541
-0.20751086 0.096937984 0.10818109 0.1623686 -0.15086047 -0.059207663 -0.052707072 -0.022793103
0.027877664 -0.03414933 0.02326556 -0.028883819 0.034858484 -0.16032471 0.08139435 -0.06512797
0.11521941 -0.13322589 -0.1268989 -0.11965468 0.11910991 0.14630087 0.102334894 0.033562947
-0.08452421 -0.13319923 0.059448533 -0.037367284 -0.05227179 0.014030167 -0.34210685 -0.09025705
0.05298327 -0.09482289 0.09551805 -0.12009548 0.004584543 -0.16360754 -0.033604626 -0.044732127
-0.103495225 0.081328176 -0.08002989 0.15247726 0.06506384 0.15813401 0.07146356 0.06250251
-0.02272253 -0.0017583043 -0.124164924 -0.07136184 0.049736097 0.14258325 0.050056506 -0.10522514
-0.15716688 -0.06343263 0.08872461 -0.057506017 -0.048036575 -0.10874422 0.14217559 0.0064508435
-0.10198393 0.07968591 0.05267707 0.15520166 -0.0442683 -0.02452968 0.0002438233 -0.038255703
-0.030143512 0.10830978 -0.013141457 -0.11657253 -0.14233781 0.017761054 -0.021763913 -0.10331048
-0.04364935 0.05618112 -0.1462542 -0.052025005 0.028338412 0.04857941 -0.1329471 0.036046647
-0.13196786 -0.19132264 0.08942187 -0.01662201 0.10687642 0.010023923 -0.10348623 -0.15271093
-0.027096566 -0.00978454 -0.18551558 -0.2919733 0.03723408 0.15126707 0.12363143 0.050028928
0.057608273 0.031847313 0.004873819 -0.010762536 0.078294694 0.09097254 -0.043380603 0.110768974
0.05367577 -0.009396942 -0.08829519 -0.010333176 0.11687649 -0.013854877 -0.028143425 0.07437949
0.27284923 0.17388922 0.092202015 -0.107894175 -0.09962141 0.08598027 0.1420912 0.03585407
0.00139427 0.15527174 0.04636828 -0.015506055 0.20308822 0.111097276 -0.033063166 0.11222001
-0.054433823 0.052772436 -0.14654388 -0.15786377 0.102578774 0.21404357 -0.04488868 -0.084053405
0.12629813 0.04819337 -0.07577306 -0.10344782 -0.12101195 0.17529897 -0.026329398 0.26533058
0.00572233 -0.041432764 0.07072767 0.011817683 0.08864713 -0.023071872 -0.004831362 0.010828567
0.16173424 -0.22201376 -0.040575463 -0.023002177 0.20794603 -0.026872918 0.05644626 -0.10320617
-0.07422551 0.011840218 0.17564298 -0.10804705 0.10953097 -0.0841102 0.07845657 -0.0693458
-0.10684902 -0.10395998 0.057620123 -0.06369453 -0.08680567 0.0018338626 -0.05582549 0.15777734
0.09111255 -0.009822767 -0.23797603 -0.03550189 -0.08858193 0.04144475 0.00409075 -0.01658461

network_body._body_endoder.seq_layers.0.bias f4 [256]
00000000: 04da 68bb 19e4 223c be8d f53b c244 24bc
00000010: b864 efbb b63b 23bc d9b7 bd3b 4691 84ba
00000020: 25c9 313c 7fec 523c 508a 9bbb bb44 5dbb
00000030: cbfb c3bb 1815 613b 0639 7bba 018f a3bb
00000040: 99ee 183b 1275 d83b 8db4 9cbb 245d 4cba
00000050: cd5a 163a 32b3 963a 8628 0d3b c277 97bb
00000060: bf1b 0abb 0d9b 8f3b 17ab 5dbb 5584 1c3c
00000070: fc6f a9b8 5dfd 6b3b 7efa b5ba e22c 043c
00000080: 0350 393a b448 a7bb 8d21 df3b 7d1c 46bb
00000090: 489d 89bb d18d 0f3c 20a7 a4bb c19d 8e3b
000000a0: 9cfe 94ba 588e 4bbb 4e39 e4bb 30a7 f4bb
000000b0: 93e8 91bb d310 103b f14c 38bc 581d e53b
000000c0: cfff 87bb e81b 8d3b 64b2 933b 301f 643a
000000d0: bbc4 36ba 0a42 a8bb c240 293c 8e85 003c
000000e0: fab5 5b3a 9474 623b b1a3 193c 91a0 163c
000000f0: 9f40 51bb 5e68 aabb 3de0 db3b 4efa d4ba
00000100: 3c00 63bb 41b7 2d3c 950a e2bb 7e16 4c3a
00000110: e520 bcbb 303e a0bb 18b8 123b 396d a63b
00000120: 9682 193c 84c8 97bb 09c1 473b acb0 823a
00000130: 603d adbb feff 093b ee69 a83b 8aa9 a53b
00000140: aa15 23bb 6661 64bb e969 053c aebb bfba
00000150: d26c e43b bb27 6cbb 97c4 5ebb 112b 0fbb
00000160: 9001 993b 8857 1cbb 3d5c b23a ec62 583b
00000170: ac21 0c38 515b ddba 011a a73b efe5 22bc
00000180: 19cb 3a3b 3dc1 30bb 48ea aa3b 33c1 f6bb
00000190: 132d b4ba f5c7 87bb d92d 213b 04e6 e73b
000001a0: effe 42bb 3fc2 be3b 1379 d6bb 0e9b 9e3b
000001b0: 08e2 14bb 3e5b 8fbb c032 343a f24a 1b3c
000001c0: 8629 a93a 12d4 803b 98d9 313c 7e13 1b3b
000001d0: 4778 493a da15 c43b 17db cf3a f234 473b
000001e0: abc4 a73a 41b3 a63b 306f d33b 3e32 0e3c
000001f0: 9d2e 433b 52fa 78bb 862c 363c 210d 153b
00000200: 4a37 3eba 1c14 4d39 53a2 2738 ba2b ee3b
00000210: 79ff 123b d70c 9c39 2852 703b b3b5 023c
00000220: 186d a037 9425 24ba 3310 a83b 75cf 8a3b
00000230: 2ff6 8c3b 8639 eb3b 6796 8b3b d624 d8bb
00000240: 8e30 81ba d1a4 153c f480 873b ecf5 e23a
00000250: 7e9f f8bb 0c5a 053c e962 07bb 08cc f43b
00000260: 6f59 1bba 7d53 e9ba 56a9 a43b 078d 913b
00000270: bb91 113a 913d efb9 5b99 00bc df90 f7ba
00000280: 545a 303a d238 f2ba 994d 463b ea55 c1bb
00000290: 7066 01ba a84f e03b 1034 5abb cdaa 09bc
000002a0: b2aa 6abb 146f a83a 4268 d33a 19b5 ddba
000002b0: 9934 1e3c d4be b03b efe9 d53b 68ce 73bb
000002c0: 1094 c2bb ea98 57bb 3fc9 92bb 5d0f 0bbb
000002d0: 86fa 9dbb 63b9 a43b e670 333b fbb6 d73b
000002e0: f802 1ebb 4bef 343c f388 8a3a 6f0d 293b
000002f0: 6020 bbbb 8926 75bb 9d2f 07bc 939f c73b
00000300: 9124 0a3c b6d2 47b9 aea0 c2bb c2f5 c4bb
00000310: a14f c4bb 1ddf 6a3b f18f 433c 3d38 82bb
00000320: 4acd c73b 5673 88bb c4b4 6dbb e462 03bb
00000330: 427c a23b a88d 7a3b 427f 983b c179 ed3b
00000340: fbfd 0f3c b445 413b 6aba 4fba 4f63 0a3c
00000350: 66fc c9bb ae38 573b 919e 27ba 5e81 debb
00000360: c31f 50bb c93c 10bb 724e f33b 04c3 68bb
00000370: d142 f03b 5e5c f13b 372e 0e3c aa34 bc3b
00000380: ea30 2e3b 6e8f bcbb bb2c 643b c5df 02ba
00000390: f51d 313c f752 ee3b 2edd a23b 7419 adb9
000003a0: e6d9 a73b 0ed5 b63b 6e05 24ba 94cd 16bc
000003b0: ce98 2b3c 775e 943b 219f b73b 1f3b 01bc
000003c0: c8c1 a63b e534 81bb 4b55 fb3b bf5d bf3b
000003d0: 5257 133b 4310 b8bb 8986 f4ba 57c1 d53b
000003e0: 8ad0 e3bb 655e 9cba 2eea b3bb 1419 d83b
000003f0: b0b7 30bb 415d cbbb 89be 5539 ee14 f63b
-0.0035530338 0.009942078 0.0074937036 -0.010026159 -0.007305708 -0.009962967 0.0057897386 -0.0010114096
0.010851179 0.012873768 -0.0047467127 -0.003376289 -0.005980944 0.0034344848 -0.00095833873 -0.0049914126
0.0023335575 0.0066057527 -0.0047822655 -0.00077958615 0.0005735576 0.0011497496 0.0021539046 -0.0046224305
-0.0021073667 0.004382497 -0.0033823901 0.009553035 -8.079407e-05 0.003600917 -0.0013883857 0.0080673415
0.00070691126 -0.0051051024 0.0068094195 -0.0030229383 -0.0041996576 0.008761839 -0.0050248057 0.004352302
-0.0011367383 -0.0031060185 -0.006964839 -0.0074662194 -0.004452774 0.0021982684 -0.011248813 0.0069920234
-0.004150368 0.004306305 0.00450735 0.0008702157 -0.0006972064 -0.0051348256 0.010330381 0.007844342
0.00083813036 0.003455435 0.009377406 0.009193555 -0.0031929386 -0.00520043 0.006710081 -0.0016248913
-0.003463759 0.010602773 -0.006898234 0.0007785334 -0.005741226 -0.004890226 0.002238756 0.0050789383
0.009369513 -0.0046320576 0.0030480048 0.0009970865 -0.0052868575 0.0021057124 0.005139581 0.005055611
-0.002488474 -0.0034848093 0.008142927 -0.0014628076 0.00697098 -0.0036034423 -0.0033991688 -0.0021845738
0.0046693757 -0.0023855884 0.0013607811 0.0033017946 3.340996e-05 -0.0016888176 0.0050995355 -0.009942516
0.0028502403 -0.0026970648 0.005215917 -0.0075303554 -0.0013746343 -0.00414371 0.0024593978 0.0070769805
-0.0029754003 0.005821496 -0.006545195 0.0048402613 -0.0022717733 -0.0043748906 0.00068740174 0.009478318
0.0012906052 0.0039315308 0.010855101 0.0023662741 0.0007685464 0.00598405 0.001585814 0.0030396548
0.00127997 0.0050872867 0.0064524636 0.008678971 0.0029782422 -0.0037991 0.011119014 0.002274342
-0.00072561635 0.00019557815 3.996708e-05 0.007268396 0.0022430106 0.00029764205 0.0036670063 0.007977891
1.9124287e-05 -0.0006261703 0.005128884 0.0042361566 0.0043018083 0.007178488 0.0042598727 -0.006596188
-0.0009856389 0.009133534 0.0041352455 0.0017315722 -0.0075873723 0.008139145 -0.002065832 0.0074706115
-0.00059261074 -0.0017801371 0.005025069 0.0044418606 0.00055530266 -0.00045631503 -0.007849063 -0.001888778
0.0006727327 -0.0018480069 0.0030258654 -0.0059001343 -0.0004936224 0.0068454333 -0.0033295192 -0.0084025385
-0.0035807309 0.0012850487 0.0016129094 -0.0016914933 0.009656095 0.0053938422 0.006528131 -0.0037201885
-0.0059380606 -0.003289754 -0.004479557 -0.0021218874 -0.0048211245 0.0050269826 0.0027380525 0.0065830923
-0.0024110656 0.01104338 0.0010569379 0.002579536 -0.0057106465 -0.0037407002 -0.008251098 0.006092021
0.00843157 -0.00019056615 -0.0059395647 -0.006010742 -0.005990938 0.0035838552 0.011936174 -0.0039739893
0.0060974704 -0.0041641397 -0.0036271075 -0.0020047957 0.0049586603 0.0038231406 0.004653842 0.00724718
0.008788581 0.002949101 -0.0007924201 0.008446529 -0.0061641214 0.003284018 -0.00063941727 -0.006790324
-0.0031757213 -0.0022008887 0.007425123 -0.003551663 0.007332184 0.0073657474 0.008678011 0.0057435827
0.0026579448 -0.005754403 0.00348167 -0.00049924507 0.010810365 0.007273074 0.0049702143 -0.00033016095
0.005122411 0.0055795973 -0.00062569126 -0.009204287 0.010473443 0.0045278626 0.0056036864 -0.007887631
0.0050890185 -0.003943073 0.00767008 0.005840033 0.0022482467 -0.005617173 -0.0018655817 0.006523292
-0.00695235 -0.0011929987 -0.005490563 0.0065947864 -0.0026964955 -0.006206185 0.00020384243 0.007509819

network_body._body_endoder.seq_layers.2.weight f4 [256, 256]
00000000: a9ea 0cbe ffe6 693d 6bff 30bd 461f 86bd
00000010: 5238 a33d 241d 01be dd15 3ebe 98b7 5fbc
00000020: 233f 86bd 1e0c b9bd 25bb 5dbd 4289 b8bc
00000030: 38b2 b83d bf78 3fbb 9000 bc3d 18df 0ebe
00000040: 9b2b ce3c 7be9 42bb b591 133d 0ef9 87bc
00000050: ecd6 1abd 591b 3dbd a784 343c df47 debc
00000060: c402 4ebd d1a6 0d3d d83a 65bb 65aa cdbc
00000070: f68d ab3c e9bd 5d3d 6706 b83b 592e fbbc
00000080: 71df 07bd 8e74 f23d f3e0 c2bc c995 4cbd
00000090: 5a32 85bd 411b 20bd b092 ad3d 33ab 46bc
000000a0: 2cbf 813d eabb 273d 51f3 303d bf86 1abd
000000b0: 4d55 ba3c 85e9 e4bb 2f65 213d 8c8b 01be
000000c0: 624e 5d3d 6cbf 053e 94a5 9bbd 3033 7fbc
000000d0: 9762 99bc 3bea 10bd 9758 50ba 3d0e 8ebd
000000e0: 65fb 4f3d 63ae 8c3a b3de 01be 8255 4abd
000000f0: 3fee 82bc cc1b 893d 2a1f 663d 7cbb 4c3c
00000100: d0d5 adbc 934d 083d 0cb5 a13c 2259 243b
00000110: da2c 523c 2d5a 28bc 75b4 d83b 5a85 2c3d
00000120: 2c40 113d 0703 9dbd 6f66 a33a 779e 003d
00000130: 9349 fc3c 2722 25bc cef3 cbbc 9e28 033d
00000140: 88d0 0b3d 15ae f6bd d77f 543d ed29 683d
00000150: d8bd 803d 69cc 483c 06ab 853d 716a 54bc
00000160: 9b20 1a3d b789 64bd a26f 9c3d 97e0 0dbe
00000170: 1e01 4ebb a158 f93c 70d1 fbbb 5d2e db3c
00000180: f431 0ebd f12e 9bbd 0eb9 26bd 10d1 6f3d
00000190: e88d cbbd 4a06 90bd 2ac5 893d 5a62 e83d
000001a0: a95a b63c eba3 a8bc c130 a5bc 1499 a2bd
000001b0: 7a9a 593d afc3 6abd 586d 85bd ea57 fb3d
000001c0: 2c0b 3ebc b1e3 083e ef7f c83b 8a37 e7bc
000001d0: 0ed8 80bc e434 bebd a1ab 32bd 6a39 743d
000001e0: cd7f 3c3c 430f 5fbd 5a16 b63d de56 893d
000001f0: 9e1a 433d 6866 f83b 7afc 9abd 0a6c 323c
00000200: 245b 8cbd dbfc b93d abe5 8ebd 1550 d5bb
00000210: 5c8d 2cbd 715a 4bbd 5f48 32bd 8e82 333d
00000220: c8b8 ca3d f99a 50bc 8fae 903d ede6 91bd
00000230: b5c9 ed3c 7185 98bd 07d4 9a3c 9fbe a0bc
00000240: 13f0 093d 5a68 963d cfc1 bf3d 3f84 0c3d
00000250: ed13 7fbd da0f 4c3d ae42 c73d a57a 8cbd
00000260: 851c 90bd 39b5 8f3d 9eec 0a3c 9c77 c23d
00000270: 655b e4bc cdc3 9e3c 7b29 70bd efcf 973d
00000280: 6ed7 a23b f4f6 f63c a251 cc3c bafd 8bbc
00000290: 64ad 8b3d 76f5 d0bd 1e0c 093d 6739 e03c
000002a0: fd20 3ebd cda1 2cbd b8f1 8d3d d468 8dbd
000002b0: aa87 d93d 9e82 61bd 3919 4ebc c48e 07bd
000002c0: 1bfb 2c3d 7986 b1bd e24b 9c3c 2031 a53d
000002d0: b867 90bd 5e77 87bb 1f83 e2bd 5c1d 05bd
000002e0: c928 af3d a3a2 d33c 58f0 c83c e339 1b3d
000002f0: 40a0 8e3c 0ce9 33bd 2249 a9bc 0218 29bd
00000300: d8b5 d4bd 19af c439 ac00 60bd 09c5 87bd
00000310: 71a2 19be 6979 df3c 4ac3 e23c 255f 933d
00000320: 885a 0cbd abbc be3c fff8 79bd 5c12 063c
00000330: c8ab c03d d2ca 543d 8e56 923c 05a9 d33d
00000340: 532b 003d e78b 35bd c56c 0f3d 04f4 f73d
00000350: 6a34 fc3d e1da 00be 376e a3bd e2f9 f73c
00000360: db5a e0bb dabd 363c 68fb 493c 58f5 d7bc
00000370: 090a 8c3c 8b1b 07bd 8101 fc3d 54a9 5cbd
00000380: 83ce 0cbd b9e5 59bd 80c3 5c3b c22f 0cbd
00000390: 3655 3e3d b68e b7bc 1125 aebd 26a1 a13d
000003a0: 4db0 dbbc d950 9b3d 613e 353d 8bf9 14bd
000003b0: 8750 9ebb 4fd8 3ebd 190f a0bc 60a3 95bd
000003c0: 4d79 9f3d 27f6 adbd 5f11 753c 2c64 e1bb
000003d0: cd7d 5dbd ba44 44bd 8958 ce3c f44e bfbc
000003e0: a9a6 27be 65cf d23d 61a7 663c e676 86bc
000003f0: 58fe 983c df7b 623c 62d3 a93c aa0d e7bd
-0.13761391 0.05710506 -0.043212336 -0.06548934 0.079697266 -0.12608773 -0.18563028 -0.013654612
-0.06555011 -0.09035514 -0.054133553 -0.022526387 0.090183675 -0.0029216257 0.09179795 -0.13952291
0.025167277 -0.0029741216 0.03602763 -0.01659825 -0.03780262 -0.04616866 0.011017955 -0.02713388
-0.050295606 0.034582917 -0.00349777 -0.025105665 0.020941716 0.05413619 0.0056159976 -0.030661749
-0.033172075 0.11838637 -0.023788905 -0.049947534 -0.065037444 -0.03908849 0.08475244 -0.012125778
0.06335291 0.040950693 0.043200795 -0.03772616 0.022745753 -0.0069858455 0.039403137 -0.12650889
0.05402983 0.13061303 -0.07599941 -0.015576169 -0.01872377 -0.03537963 -0.0007947771 -0.069363095
0.050776858 0.0010733124 -0.1268261 -0.049397953 -0.015982745 0.06694755 0.056182064 0.012495872
-0.021220118 0.033277106 0.01973965 0.0025077541 0.012828076 -0.010275406 0.006613309 0.04211936
0.03546159 -0.07666593 0.0012466441 0.031401124 0.030796802 -0.010078943 -0.024896529 0.032021157
0.034134418 -0.12044922 0.05187973 0.05668061 0.0628621 0.012255766 0.06526761 -0.012964831
0.03762875 -0.055795398 0.0763848 -0.13855205 -0.0031433771 0.03043777 -0.007684879 0.026755506
-0.034715608 -0.07577313 -0.040703826 0.058548987 -0.09939176 -0.070324495 0.06727059 0.11346884
0.022260027 -0.020585975 -0.02016485 -0.079393536 0.053125836 -0.057315525 -0.06514996 0.12272628
-0.011599343 0.13368107 0.0061187665 -0.028224725 -0.015728023 -0.09287432 -0.04362071 0.059625067
0.011505079 -0.054457914 0.08890982 0.06706022 0.047632806 0.007580567 -0.07567687 0.010890016
-0.06853321 0.090814315 -0.069773994 -0.0065097907 -0.042127 -0.0496468 -0.04352605 0.04382568
0.098985255 -0.012732261 0.070645444 -0.07124124 0.029026845 -0.07447327 0.01889993 -0.019622145
0.03367622 0.07344122 0.09363138 0.034305807 -0.062274862 0.049819805 0.09729515 -0.0685933
-0.0703669 0.07016987 0.0084792655 0.0949547 -0.027875612 0.019380474 -0.05863331 0.07412707
0.004969529 0.030147053 0.02494127 -0.01708876 0.06820181 -0.10203068 0.03345882 0.027371122
-0.04641818 -0.042146493 0.0693087 -0.0690476 0.10621579 -0.055056207 -0.012579256 -0.033095136
0.04223166 -0.08668227 0.019079152 0.080660105 -0.07051033 -0.0041341027 -0.110601656 -0.032498702
0.08552701 0.025834387 0.024528667 0.037897002 0.017410398 -0.043923423 -0.020664755 -0.04128266
-0.103862464 0.0003751449 -0.05468814 -0.06629378 -0.15003373 0.027279573 0.027681012 0.07195882
-0.034266025 0.023283323 -0.061028477 0.008183088 0.09407765 0.051951237 0.017863538 0.10334972
0.031291317 -0.044322874 0.03501584 0.12107089 0.12314685 -0.12583496 -0.07980006 0.03027052
-0.0068467683 0.011153663 0.012328006 -0.026362106 0.017094629 -0.03298525 0.12304974 -0.05387242
-0.034376632 -0.053197596 0.0033685863 -0.034225233 0.046467982 -0.022406917 -0.085031636 0.07892065
-0.026817465 0.0758378 0.044248942 -0.036370795 -0.004831377 -0.046593007 -0.01953845 -0.07306552
0.07786808 -0.084942155 0.014957755 -0.0068783965 -0.05407505 -0.047917105 0.025188701 -0.023353077
-0.1637217 0.102934636 0.014077992 -0.016414117 0.018675968 0.0138234785 0.020730678 -0.11281903

network_body._body_endoder.seq_layers.2.bias f4 [256]
00000000: 6366 6c3b 3f3c e43b 3e37 b03b 3b05 17bb
00000010: 8174 3db9 0569 dd3b 282a b0bb 73a1 f7bb
00000020: 5c2d 963b c072 c73b 5651 fd3b 9994 993b
00000030: 52eb 953b 6045 203c b146 923b 6bd8 cdbb
00000040: 0684 8c3b 65bc bf3b 4e25 48ba 9e77 073b
00000050: bf07 2bbc 40b0 e9bb cf6f 84b9 404d 123b
00000060: 5d43 ddbb 044e 49bb 84c8 1d3c 5038 033b
00000070: e0ba dfbb 8397 f33a 68ac 90ba cabd 0e3c
00000080: 3239 06bb 70ae e3bb 06af af3b 028f 46bb
00000090: bdff 7abb 926a b4bb 9449 0cbc 05ee 04bc
000000a0: 5340 5cbb 8317 1e3b ee96 f73b dabb d6bb
000000b0: 6bda d8ba 84ee 07bb 7924 db3b 647d f03b
000000c0: 803d e0ba e6a6 f1ba ff73 dc3b 92e5 12bc
000000d0: 1776 4a3b 3fb3 dfbb 25fd 223b 3cb5 e6bb
000000e0: 3030 bdbb f89a f13b 9a7c 133b bfe3 05bc
000000f0: 9b01 f3ba 4120 09bc 2259 db3b 0faa bc3b
00000100: c89a 4a3b cf00 a0ba b054 83bb b5b5 2c3b
00000110: 78a5 113c 90fa fdba c5f0 023c 368a bcbb
00000120: e3dd 983b 6ec2 853b 57a9 15bc 2f56 a83a
00000130: 21eb e93b 90dc 6e3b 9d3b 423b 52ca 593b
00000140: 6f0b 16bc b918 6d3b 2e37 adbb a0b2 01bc
00000150: 10ff cbbb 3491 c8bb bafa 5cbb 9967 0a3c
00000160: 90ab 7a3b 375c c7bb cfcb ea3b 7ea8 933b
00000170: 4f9a 013b bd2f 933b 2d22 e43b 1a17 a0ba
00000180: efa0 c73b 4952 153c f5c8 d83a abd9 8abb
00000190: b7bb 9c3b edc2 e43b 075f 233c 4038 133b
000001a0: b45d 8739 c244 983b 3278 093c c0d1 cfbb
000001b0: 6e78 a13a a0d8 c9ba 9511 c03b 0fe2 bab9
000001c0: 3586 563b 07b0 073c 9d80 ddbb da13 83bb
000001d0: f076 1d3b 0794 88ba 0c42 f8bb 40f7 a83b
000001e0: d36b 553b 1276 ce3b c264 fc3b c925 43bb
000001f0: 4e3b adb9 0f39 023c 94b6 ddbb 728c f739
00000200: 1b92 7cbb 014a d1bb 29c0 8b3b d31a 0b3c
00000210: c48c f6bb ee31 433b dad1 b63b 05d4 b8bb
00000220: ea20 1e3c 16c6 493a 4c58 df3b 4591 843b
00000230: a49c 77bb b047 f93b e715 2b3c 7363 03bc
00000240: 572f 1f3a 9755 b83b 40d7 fd3b 0ccb c7bb
00000250: ca70 f33b b039 2cbb 244e 44bb 1c9e 16ba
00000260: bd41 773b 14dc d1bb 40f9 9e3b 27e0 a93b
00000270: 35fd 153c 0ea1 db3b 4e2f d2bb 200f 4a3b
00000280: 0444 24bb 0392 fcba 4313 653b 5df5 c43a
00000290: fd70 57bb 6cd6 883b e127 62ba e99c b3ba
000002a0: d951 8a3b d3dc f2bb 15a8 fabb 7816 09bc
000002b0: 7915 5e3b e53d cfb9 c569 1f3c d22c a5bb
000002c0: 2b68 f4bb 260f b43b 8879 ce3b b009 853b
000002d0: 6011 84ba eefc d33b e72d 81bb 6eea 78ba
000002e0: ea15 c2bb 6a7b 16bc f470 c03b ee28 a73b
000002f0: 3b78 fc3b 672e cfbb 6660 8c3b 0929 7fbb
00000300: a1c1 973a 1712 c13b 0777 213c 08dc 8c3b
00000310: 6385 9e3b 3eae fc3b 3ec7 f4bb 3a1d 3bbb
00000320: e94c d33a 8a73 cf3a 472d d5bb 4c02 8c39
00000330: 9ed6 3fbb a064 0d3c f1ea 8f3b 7c84 3b3c
00000340: 3598 27bc 9707 25bc 8982 ccbb 74db dfbb
00000350: 4177 c6bb eaa4 06bc bc42 5dba 9aa8 10b9
00000360: 4bed 073c 1976 babb 6702 1e3c 44a1 f03b
00000370: 3f96 86bb 84e0 ae3b 3630 10bb 2422 953b
00000380: 71e4 863b 0797 27bc 679e 093c 6873 f5ba
00000390: 418e 6b3b 8c93 123c 9a49 44bb 1215 c23b
000003a0: 63c9 9d3b 9e98 173c b6d0 eb37 1264 e33b
000003b0: a808 c9bb f3d8 bf3b e7e2 cc3b 6e00 febb
000003c0: 1abd 7abb 2fd3 de3b cf6b ebba 290c c93b
000003d0: cf7f 153c c1ee aabb 6d59 ba3b 3b68 683b
000003e0: 93bf eebb c27b 103c 7324 743b f18e d83b
000003f0: ef6e 0d3b f9b0 52bb 22cf a33a 3647 8fbb
0.003607177 0.0069651897 0.005377679 -0.002304389 -0.00018067846 0.006756904 -0.005376119 -0.007557088
0.004583044 0.0060866773 0.0077306433 0.0046869037 0.0045751715 0.009782165 0.0044639935 -0.0062819025
0.0042881994 0.005851316 -0.00076349534 0.0020670663 -0.0104388585 -0.0071316063 -0.00025260306 0.0022323877
-0.006752415 -0.0030716667 0.009630326 0.0020022579 -0.006827697 0.0018584583 -0.0011037709 0.008712241
-0.0020480868 -0.006948285 0.0053614406 -0.0030297642 -0.0038299405 -0.0055058682 -0.008562464 -0.008113389
-0.0033607676 0.00241229 0.007555834 -0.0065531554 -0.0016544586 -0.0020741532 0.0066876975 0.0073391665
-0.0017108172 -0.001843658 0.006727695 -0.008965867 0.003089314 -0.0068267877 0.0024870124 -0.007040648
-0.0057735667 0.00737321 0.0022504688 -0.008171975 -0.0018539907 -0.008369506 0.006693975 0.0057575773
0.003091501 -0.0012207272 -0.0040078983 0.0026353423 0.0088895485 -0.0019377042 0.007991974 -0.0057537807
0.004665123 0.0040820157 -0.009134612 0.0012843068 0.0071386253 0.0036447383 0.0029637583 0.0033232165
-0.009157999 0.0036178066 -0.005286119 -0.007916123 -0.006225474 -0.006120825 -0.003371878 0.008447551
0.0038249232 -0.006083991 0.007165409 0.00450617 0.0019775813 0.004491775 0.006962082 -0.0012213916
0.006092183 0.009113857 0.0016539382 -0.004237374 0.0047831195 0.006981245 0.009971387 0.0022463948
0.0002581902 0.0046468684 0.008390473 -0.006342143 0.0012319216 -0.0015399642 0.005861471 -0.0003564511
0.0032733802 0.008281714 -0.0067597167 -0.004000169 0.002402719 -0.0010420092 -0.007576233 0.0051564276
0.003256549 0.006300696 0.007702441 -0.002977716 -0.00033041317 0.007948174 -0.00676615 0.0004721615
-0.0038539234 -0.006386996 0.0042648506 0.008490282 -0.007524105 0.00297844 0.0055792155 -0.005640509
0.009651402 0.00076970586 0.0068159457 0.004045638 -0.0037782574 0.007607423 0.010442234 -0.008019316
0.0006072423 0.0056254375 0.007746607 -0.006097203 0.007429217 -0.0026279502 -0.0029953802 -0.0005745606
0.0037728392 -0.006404409 0.0048514903 0.0051841917 0.009154608 0.006702549 -0.0064143306 0.003083177
-0.0025064955 -0.0019269589 0.0034954108 0.0015026737 -0.0032873743 0.0041759517 -0.0008627158 -0.0013703379
0.004221183 -0.007411578 -0.0076494315 -0.008367173 0.003388731 -0.00039528232 0.009729807 -0.0050407434
-0.007458707 0.00549497 0.0063011087 0.0040599927 -0.0010075979 0.0064693606 -0.0039422396 -0.0009495382
-0.0059230225 -0.009184698 0.00587284 0.0051013147 0.0077047623 -0.0063226703 0.0042839525 -0.003893437
0.0011578092 0.005892049 0.0098550385 0.0042986907 0.0048376783 0.007711201 -0.0074700406 -0.0028551356
0.0016120943 0.001582728 -0.0065056416 0.00026704592 -0.002927221 0.008629948 0.004392021 0.011445161
-0.01022916 -0.01007261 -0.006241147 -0.006831581 -0.0060566966 -0.0082180295 -0.0008440425 -0.00013795719
0.008296321 -0.005690348 0.009644127 0.007343443 -0.004107266 0.005336823 -0.0022001392 0.004551189
0.004116588 -0.010228879 0.0083995825 -0.001872641 0.0035942944 0.008946311 -0.0029951097 0.005922922
0.004815267 0.009252695 2.8111372e-05 0.0069394195 -0.006135065 0.00585472 0.006252635 -0.007751516
-0.0038259686 0.0068000774 -0.0017961207 0.006135483 0.00912471 -0.00521645 0.00568693 0.0035462517
-0.007286021 0.008818569 0.003725317 0.006608837 0.0021581014 -0.003214894 0.0012497643 -0.0043725027

action_model._continuous_distribution.log_sigma f4 [1, 5]
00000000: 2e50 aab9 07a3 55bb c715 05bc 1ac9 19bb
00000010: 0e44 82bc
-0.00032484665 -0.0032598393 -0.008122868 -0.0023465813 -0.015901592

action_model._continuous_distribution.mu.weight f4 [5, 256]
00000000: d275 0ebc 0b9f 263b c7c8 873c 17f7 60bc
00000010: 2e48 c73b 9458 37bc a4fe a4bc 0db4 e93a
00000020: b1a0 91bc e929 5c3b 480c 933c 6ffb 123d
00000030: 6e6f 46ba 6ead e93c 180c 5a3a 669c 77ba
00000040: 5ffd fe3b 6107 3cbc 4e66 643c 97b1 acbc
00000050: 12a7 e4bc b2e8 dcba 76a9 163c ae00 a93c
00000060: c0a7 8439 88ce ba3c f225 1cb8 e8f2 cabb
00000070: 25a4 9bbc 0c67 6cbc d71a cabb a6cb 483c
00000080: 7460 363c cd8c c3ba 49e1 d0ba 5e56 d23c
00000090: 417d 9d3c cfbe 083b bb11 f63b 4091 62bc
000000a0: 116f ec3b 10cc d9bb e6e4 e73b 52bd c0b9
000000b0: 33a1 0fbc 0308 cdbc f3fd 23ba 1610 913c
000000c0: 27e9 033c 9c0c 113c eab9 38ba d088 64bc
000000d0: 4833 8fba 5955 553b 3726 1a3d f6c1 7a3c
000000e0: 0597 1b3c 1939 503c 3218 3fbc 76dc e2bb
000000f0: 6a3a 65bb b151 c6bb c2c8 c23c f411 e7bb
00000100: 8ead fd3c 0577 3d3b ae0f 6ebb 1d56 d03a
00000110: 0bf6 c7bb b740 1ebc 6ea3 ad3c 5ac9 763c
00000120: 50cd 05bc 328e 59bb ae4a 25bc f662 0fbb
00000130: 55fa 0c3c 7ba9 5d3c 73b9 9abc cc37 b63c
00000140: 6597 81bb b879 20bc 80ac 2f3c c63a 113b
00000150: 0c51 733c 0cf2 943b 4feb 683c 0d58 22bc
00000160: 1459 91bc 9d21 6a3c 85ed 0d3c e568 13bc
00000170: 04f9 593c 37c0 c0bc 6ae9 793b b92d 6e3c
00000180: 1df3 ac3c 42ec 0c3c e0d1 edbb c9af 283c
00000190: 0aea bcba 5a6f 39bc bf90 d3ba 04fb aa3b
000001a0: 7e2f dd3c 55a4 123c e98e b6ba 7e17 823c
000001b0: 2aa9 05bb 9ed9 163c d9b4 2ebb 50a5 5e3a
000001c0: b778 303c 7c35 543b 8503 8e39 05c3 7b3c
000001d0: ef01 0abb b53a 7b3a 7cbe 943b 8171 6b3b
000001e0: 9179 c6bb 7e5d 7cbb 32d2 00bb d5b5 383c
000001f0: 45d4 783b cf83 2c3d 8abf 9e3b c601 2abc
00000200: 0142 3a3c 360a 873b d328 433c 890c a6bc
00000210: 9702 10bb 622c 2abc a975 463c 225e 753b
00000220: d102 783c 83f8 c7ba 09a8 56bc c2de 24bc
00000230: e7c3 26bc 9599 bebb 14af c03c 3e29 a33b
00000240: 6b01 f6bb 3f5a 293c ad80 74bb b80e debc
00000250: c31a cd3c 2ce4 f1bb 0efb 72bc 7703 413b
00000260: 3928 373c 1f84 78bc be68 f03b 33dc 24bc
00000270: 69ba ed3b c1d1 3c3b fb88 7f3c 22de a239
00000280: 7da7 1fbc 0c69 97bc 45d4 cb3c 6991 963c
00000290: c2fa 4cbb 80d8 223c 9735 6cbb 67f2 853c
000002a0: ee39 c7bb 7b36 9ebc 5e2b 8abc decd 2fbb
000002b0: b5d2 92bc 465e 59bb 5648 203c db28 3c3c
000002c0: 4b24 ddbb 119d 443c d6ef 1ebb fd6f 16bc
000002d0: 1d38 e2bc 2fbc f73c d723 49bc 6e4f c13c
000002e0: 1581 0abc a63c 27bc 768c d9bc 2b92 643c
000002f0: fc37 40b8 70f8 8d3b ac32 163c 7855 c7bc
00000300: fd18 213d a7c3 10bc 5f9d 5ebb bab0 c13c
00000310: 197e c73b 8138 a439 a99c 643a 3be2 25bc
00000320: 3c9b d83c 7f02 943c bc12 d5ba 823b f0bb
00000330: fd46 793c fb3b 8f3c 912f 05bb 4177 b33b
00000340: e9ad 18bc 8b27 83bc f082 0ebc 5e7a 8db9
00000350: d04f a1bc 2616 153c 4d30 623a 78e2 16b8
00000360: 5386 dc3a e071 6637 bb17 1f3c b636 873c
00000370: 73ed 0f3b e5f5 883b 7251 13bc 36c4 123b
00000380: c7ec abbb 4c39 42bc e254 f8ba 2802 e33b
00000390: 90d3 9ebc 5870 1c3c 2651 8b3c dfdf b83a
000003a0: ad99 f23c 08e9 163b 318a 943c eb53 333b
000003b0: d894 e13b 24b0 d9ba c1d8 19bc ff5c 1cbb
000003c0: 3b33 0c3c b039 0c3c 6423 3bbc 8b56 db3b
000003d0: 32d1 533c f4f7 b5bc 5db5 663b c215 2bba
000003e0: 0708 7a3b 3af1 fe3c 69a4 97bb 1afc 443b
000003f0: f86b acbc 62e1 9239 c683 a53c 90c7 d23b
-0.008695083 0.0025424387 0.01657523 -0.013730786 0.0060816025 -0.011190552 -0.020140953 0.0017830149
-0.017776819 0.0033594316 0.017950192 0.035884317 -0.0007569705 0.02852508 0.0008317842 -0.00094456074
0.007781669 -0.011476369 0.013940407 -0.021080775 -0.027911697 -0.0016854017 0.009195676 0.020630207
0.00025301985 0.02280356 -3.7228638e-05 -0.0061935075 -0.018999169 -0.014428865 -0.0061677503 0.012255585
0.011131395 -0.0014919281 -0.0015936281 0.025675949 0.019224765 0.0020865684 0.007509438 -0.013828576
0.0072153886 -0.0066466406 0.0070768474 -0.00036762148 -0.00876646 -0.025028234 -0.0006255798 0.017707866
0.008051193 0.008853104 -0.00070467463 -0.013948634 -0.0010925317 0.0032552092 0.0376341 0.015305033
0.009496455 0.012708926 -0.011663483 -0.0069232536 -0.0034977444 -0.006052219 0.02377737 -0.0070517007
0.030966546 0.0028910052 -0.0036325264 0.0015894804 -0.0061023287 -0.009658984 0.021196093 0.015062654
-0.008166626 -0.0033196327 -0.010088606 -0.0021879054 0.008604606 0.013529177 -0.018887257 0.022243403
-0.003954815 -0.009794645 0.01072228 0.0022160276 0.014850866 0.004545456 0.014216258 -0.009908688
-0.017742671 0.014290241 0.008662586 -0.008997177 0.013303999 -0.023529155 0.003813351 0.014537268
0.02111202 0.00860125 -0.007257685 0.010295817 -0.0014413011 -0.011318052 -0.001614116 0.0052179117
0.027000185 0.008950313 -0.0013928089 0.015880343 -0.002039502 0.009207157 -0.0026658087 0.00084932614
0.010770968 0.0032380512 0.00027086973 0.0153663205 -0.0021058281 0.0009583638 0.004539309 0.0035925808
-0.0060569723 -0.0038507874 -0.0019656536 0.011273821 0.003796832 0.04211789 0.0048446106 -0.010376399
0.011368276 0.0041210903 0.011911589 -0.02026965 -0.00219742 -0.010386558 0.012113013 0.003744014
0.01513739 -0.0015256557 -0.013101586 -0.010062875 -0.010178543 -0.0058166482 0.023520984 0.0049792817
-0.0075074933 0.010336458 -0.0037308142 -0.027106628 0.025037175 -0.0073819365 -0.014830364 0.0029451528
0.011179023 -0.015168219 0.007336705 -0.010062265 0.007254888 0.0028811547 0.0155966235 0.0003106455
-0.009744522 -0.018482707 0.024881491 0.018379884 -0.0031277393 0.009939313 -0.0036042684 0.016350938
-0.006079904 -0.019313088 -0.016866382 -0.0026825587 -0.017922739 -0.0033167764 0.009782871 0.01148435
-0.006748711 0.012000338 -0.002425184 -0.0091819735 -0.027614648 0.0302411 -0.012276611 0.023597445
-0.008453627 -0.010207331 -0.026556235 0.013950865 -4.5828507e-05 0.0043325946 0.009167355 -0.024332747
0.03933047 -0.00883571 -0.0033968312 0.02364384 0.00608803 0.00031322616 0.0008720854 -0.010124738
0.026441209 0.018067596 -0.0016256194 -0.0073313126 0.015214679 0.017484656 -0.0020322541 0.0054768627
-0.009318807 -0.016010066 -0.00869821 -0.00026984786 -0.019691378 0.009099519 0.0008628413 -3.5973702e-05
0.00168247 1.3735582e-05 0.009710248 0.01650558 0.00219616 0.0041797035 -0.008991586 0.0022394783
-0.005246732 -0.011854481 -0.0018946195 0.0069277473 -0.01938799 0.009548269 0.017006468 0.0014104805
0.029614294 0.002302708 0.018132301 0.0027363251 0.0068841986 -0.001660828 -0.009390057 -0.002385914
0.008557136 0.008558676 -0.011422012 0.0066936663 0.012928294 -0.02221296 0.0035203316 -0.00065263745
0.0038151757 0.031120885 -0.0046277535 0.003005749 -0.021047577 0.00028015213 0.020204436 0.006432481

action_model._continuous_distribution.mu.bias f4 [5]
00000000: e23b 9c3b e734 253b fb31 40bb 7379 beba
00000010: aeba 11bc
0.004767881 0.0025208534 -0.0029326666 -0.0014532044 -0.008894606

onnx::Div_71 f4 [68]
00000000: 15d5 493e a41d 6b3d 1616 fa3c cde6 213e
00000010: 7f8b 413e cb5e 4d3d 886e fe3c 66e0 223e
00000020: f8ed 4c3e 6543 5a3d 1c5a 013d 6177 223e
00000030: 59f0 3e3e f756 493d 896e fe3c 8b80 243e
00000040: 7302 3d3e 97ce 393d b644 fc3c 259e 203e
00000050: af05 3f3e 214b 473d 1416 fa3c 8394 273e
00000060: ba69 2f3e da11 393d b744 fc3c d978 1f3e
00000070: 1a6c 433e f960 583d de28 f13c 01d9 283e
00000080: 8542 2e3e 3673 3d3d d449 003d 8127 1f3e
00000090: a810 483e f304 673d e2a9 f53c 7dc8 2a3e
000000a0: dd57 343e 8d52 513d e4a9 f53c 5dda 1f3e
000000b0: 9250 4c3e 2ba5 643d df28 f13c 9da5 2b3e
000000c0: 1999 363e 4df9 513d 0d6c f33c 9115 213e
000000d0: 48b5 4f3e 27a5 643d dd28 f13c 5b2f 2d3e
000000e0: 428b 3a3e 4302 593d db28 f13c 5161 223e
000000f0: f995 513e 4a09 613d dc28 f13c 2c74 2c3e
00000100: 788b 3c3e 5f04 4a3d 0783 e53c 1008 243e
0.1971019 0.057401314 0.03052811 0.158107 0.1890087 0.05013923 0.031058565 0.15905914
0.20012653 0.05328693 0.031580076 0.15865852 0.18646373 0.0491552 0.031058567 0.1606466
0.18457966 0.045363035 0.030794483 0.15685327 0.18654512 0.048655633 0.030528106 0.16365246
0.17130175 0.04518304 0.030794485 0.15573443 0.19084206 0.052826855 0.029438432 0.1648903
0.17017563 0.04625245 0.031320408 0.15542413 0.19537604 0.056401204 0.029988233 0.16678043
0.17611642 0.051104117 0.029988237 0.15610643 0.1995261 0.05582158 0.029438434 0.16762395
0.1783184 0.051263142 0.029714609 0.15730883 0.20283997 0.055821564 0.02943843 0.16912596
0.18217185 0.052980673 0.029438427 0.15857436 0.20467366 0.0549405 0.029438429 0.16841191
0.18412578 0.049320575 0.02801658 0.160187

onnx::Div_74 f4 [20]
00000000: 3bd3 ff3e db28 f13c 0b7a 343e f73d 743e
00000010: b294 ff3e dc85 c93c dd2f 353e 32ff 753e
00000020: 25b6 ff3e 4d6c b23c df2f 353e edad 763e
00000030: 21a9 fe3e 3c1c e33c 7a3a 3e3e 47dc 7d3e
00000040: 41b6 fe3e e62e 943c c4f8 3a3e 37a3 7d3e
0.49965844 0.029438427 0.1762468 0.23851763 0.49918133 0.024599962 0.1769404 0.2402313
0.49943653 0.021780157 0.17694043 0.24089785 0.4973841 0.027723424 0.18576995 0.2479106
0.49748424 0.01808877 0.18258959 0.24769293

onnx::Div_77 f4 [5]
00000000: 80b9 8a41 286d ad3f 96d3 d140 5c9b 883f
00000010: f500 003f
17.340576 1.3548937 6.5570784 1.0672412 0.5000146
