Assets/results/Coin_Shooter_New/CoinChaser/CoinChaser-1999938.onnx (onnx, 124623 bytes, 13 tensors)

network_body.observation_encoder.processors.0.normalizer.running_mean f4 [68]
0.9540537 0.0063007106 0.00043401317 0.2326345 0.96014017 0.004615663 0.00043401314 0.23480675
0.9466838 0.005658183 0.00043401128 0.2245392 0.9592312 0.0026640762 0.00043901248 0.22834171
0.941158 0.0040701195 0.00044201256 0.21501787 0.946418 0.0019270598 0.0004160119 0.21565473
0.94132876 0.0028625892 0.00044751418 0.20881 0.9185896 0.0018300611 0.00042501162 0.20247944
0.94759816 0.0020875526 0.00045651404 0.20631556 0.8796487 0.0020580566 0.0004400133 0.19096433
0.9541547 0.0017645606 0.0004665146 0.20589052 0.8480798 0.0019015452 0.00046451465 0.18204086
0.9540773 0.0018075509 0.00045901551 0.2059557 0.83538693 0.0016205505 0.00048201653 0.17748027
0.9464532 0.0019295728 0.00046901457 0.2063035 0.8390595 0.0015650544 0.00049351493 0.17699899
0.9354537 0.002091054 0.00048601622 0.20694862
00000000: dd3c 743f 3176 ce3b 438c e339 bd37 6e3e
00000010: bfcb 753f fd3e 973b 428c e339 2e71 703e
00000020: df59 723f 4768 b93b 028c e339 9bed 653e
00000030: 2d90 753f c897 2e3b 422b e639 69d2 693e
00000040: bbef 703f a35e 853b ecbd e739 a52d 5c3e
00000050: 7348 723f 6695 fc3a 2c1c da39 98d4 5c3e
00000060: ecfa 703f 479a 3b3b 56a0 ea39 4ad2 553e
00000070: b028 6b3f a9de ef3a 18d4 de39 c556 4f3e
00000080: cb95 723f 52cf 083b 4758 ef39 6344 533e
00000090: a830 613f 76e0 063b 96b1 e639 278c 433e
000000a0: 7b43 743f d448 e73a 8896 f439 f7d4 523e
000000b0: c21b 593f 453d f93a 1a8a f339 eb68 3a3e
000000c0: 693e 743f 58eb ec3a 05a8 f039 0de6 523e
000000d0: ebdb 553f a768 d43a 2ab7 fc39 63bd 353e
000000e0: c24a 723f b8e9 fc3a 12e6 f539 3a41 533e
000000f0: 9acc 563f 8322 cd3a 3a5f 013a 393f 353e
00000100: e579 6f3f 110a 093b fecf fe39 57ea 533e

network_body.observation_encoder.processors.1.normalizer.running_mean f4 [20]
0.19989653 0.0011410379 0.02513075 0.26182663 0.21552476 0.0008540249 0.025770763 0.2667184
0.21262771 0.0010115302 0.024580859 0.2660567 0.263172 0.0006210189 0.025545798 0.27924377
0.24969356 0.0007505235 0.026397735 0.2830377
00000000: adb1 4c3e e18e 953a 01df cd3c 240e 863e
00000010: 86b2 5c3e a4e0 5f3a 351d d33c 508f 883e
00000020: 14bb 593e 5295 843a cc5d c93c 9538 883e
00000030: 7bbe 863e dfcb 223a 6c45 d13c 0af9 8e3e
00000040: abaf 7f3e c8be 443a 1040 d83c 51ea 903e

network_body.observation_encoder.processors.2.normalizer.running_mean f4 [5]
-0.43737203 1.7131566 -1.7011719 0.8333745 0.7434444
00000000: 3aef dfbe b748 db3f 00c0 d9bf 0858 553f
00000010: 5f52 3e3f

network_body._body_endoder.seq_layers.0.weight f4 [128, 93]
-0.1015888 -0.014807672 0.14660907 0.19720314 -0.09596877 0.07232799 -0.033036422 -0.04907014
-0.13652837 0.02635117 -0.022868682 0.2210228 -0.06402767 -0.11563106 0.020031787 -0.093606055
-0.11696408 -0.042888027 0.24159639 -0.1366087 0.15972824 -0.059929784 -0.025459062 0.12920663
0.08612503 0.11174729 0.15382989 -0.044466194 0.022344647 0.05096876 0.011793461 0.13358909
-0.03347523 0.10110562 -0.19365177 -0.0016580541 -0.19087714 -0.03161045 0.13997602 0.032652136
0.28459552 -0.24636976 -0.10372885 -0.031004297 -0.01926422 -0.0603686 -0.08981187 0.021534162
0.047017947 -0.23964179 0.006249083 0.12094428 0.10493039 -0.118996054 0.025917916 -0.20710859
0.11889531 0.00797294 -0.21135995 -0.06678175 -0.2561686 0.10580479 -0.060586527 -0.0044763205
0.07654915 -0.059608158 -0.07594936 0.089884244 -0.08855271 0.10938143 -0.26230788 0.03937471
-0.1204234 -0.1641493 -0.037415184 -0.066331156 0.15212752 -0.024119474 -0.056327563 0.12704873
-0.14749601 0.011088214 -0.14723772 0.021095315 -0.15969661 0.016713608 -0.08523319 -0.056722604
0.031217964 -0.05426258 0.036657184 -0.117668234 -0.07850849 0.23743556 -0.122152776 -0.09386021
-0.04783849 0.016447928 -0.0091324095 -0.14588913 -0.05711755 0.094706826 0.012522652 0.06188218
-0.044827692 0.13903406 -0.11448287 -0.044604186 -0.064821094 0.07577648 -0.19479357 0.051948633
-0.19287387 -0.13008268 -0.23264894 0.18260749 -0.058252983 0.0958949 0.08866542 -0.050779678
0.06967009 0.09964223 -0.11529799 -0.07775128 0.03666424 0.1167447 0.04181819 -0.22661167
0.24431549 -0.122648634 -0.14182508 0.0653752 0.0002455728 -0.013552386 -0.04391796 -0.009591873
-0.14203133 0.0833086 0.19244687 -0.08369237 0.0092761535 0.0077573815 0.08080945 -0.011961677
-0.05620855 -0.123606116 -0.07303973 -0.08151396 0.13094473 -0.1467414 0.03625859 0.04871892
0.062167376 -0.09460734 0.041357573 -0.025385607 0.074995436 -0.1355349 0.0109426165 -0.04934031
-0.10084851 0.17676069 0.11762186 -0.10589037 -0.05915108 0.10883551 -0.04270925 0.05771744
0.07918828 -0.0270814 0.14427395 -0.023534397 0.011552488 -0.038125385 0.011238949 0.103603534
0.11163615 0.031606585 0.19934464 0.09128557 -0.089536324 0.0035606648 0.12839428 0.15252191
-0.004971584 0.041974794 0.0444997 -0.13084365 0.008567136 0.20278104 0.12483113 0.03087787
-0.022298492 0.0659949 0.01709381 -0.08090971 -0.115386575 -0.09049527 0.05821766 0.0057383683
-0.15694547 -0.11783673 -0.11555023 -0.112202175 0.072515704 -0.079427764 -0.17030115 0.030994685
0.1406851 -0.10478775 -0.10040348 -0.022677068 -0.05090223 0.14182988 -0.017526574 0.02272412
-0.16154647 0.011723512 -0.15194687 0.07757142 -0.08639674 -0.034735627 -0.04048914 0.19088472
0.06769247 -0.0801639 -0.049212217 -0.08412906 -0.046743773 -0.037705578 0.053289242 0.05988491
-0.12014916 -0.11377704 -0.062086534 0.035204597 -0.21267967 -0.04590503 0.0097972695 -0.11299631
-0.2168476 0.020203108 0.17454182 0.08938579 0.010450012 0.12882355 -0.04397345 0.19869862
-0.087389514 0.0043286243 0.17288084 0.06721557 -0.030835833 -0.0028529167 0.19638218 -0.07898981
00000000: ca0d d0bd e19b 72bc b020 163e 9fef 493e
00000010: 468b c4bd b220 943d 3351 07bd c5fd 48bd
00000020: 18ce 0bbe 69de d73c 1a57 bbbc cd53 623e
00000030: f020 83bd facf ecbd b419 a43c 88b4 bfbd
00000040: dd8a efbd 5bab 2fbd 0b65 773e 27e3 0bbe
00000050: cd8f 233e ef78 75bd 868f d0bc be4e 043e
00000060: 5262 b03d c3db e43d 9585 1d3e 2f22 36bd
00000070: 1f0c b73c 9ec4 503d 5c39 413c 94cb 083e
00000080: 531d 09bd 7710 cf3d a64c 46be 1053 d9ba
00000090: 4c75 43be f679 01bd e055 0f3e 3fbe 053d
000000a0: 81b6 913e 5b48 7cbe cb6f d4bd b9fc fdbc
000000b0: ffcf 9dbc 1145 77bd 49ef b7bd 6968 b03c
000000c0: e495 403d a864 75be 1cc5 cc3b a2b1 f73d
000000d0: bfe5 d63d 34b4 f3bd cf51 d43c 4614 54be
000000e0: 627f f33d efa0 023c be6e 58be dfc4 88bd
000000f0: 8828 83be 2fb0 d83d 9429 78bd 19ae 92bb
00000100: cdc5 9c3d af27 74bd 578b 9bbd 3b15 b83d
00000110: 205b b5bd 5f03 e03d 384d 86be 6047 213d
00000120: 8ba0 f6bd c116 28be aa40 19bd a1d8 87bd
00000130: 51c7 1b3e 3496 c5bc bbb7 66bd 1019 023e
00000140: 3209 17be 57ab 353c 7cc5 16be 15d0 ac3c
00000150: 8287 23be faea 883c bd8e aebd f655 68bd
00000160: d1bc ff3c 7042 5ebd d825 163d 0bfc f0bd
00000170: 0fc9 a0bd 4f22 733e 3c2b fabd c839 c0bd
00000180: 4bf2 43bd cebd 863c 1aa0 15bc f663 15be
00000190: 18f4 69bd a7f5 c13d cf2b 4d3c 2b78 7d3d
000001a0: 3e9d 37bd f25e 0e3e ff75 eabd e1b2 36bd
000001b0: ecc0 84bd b330 9b3d f777 47be 17c8 543d
000001c0: ba80 45be 6534 05be 863b 6ebe 75fd 3a3e
000001d0: ae9a 6ebd 8c64 c43d 3796 b53d 5afe 4fbd
000001e0: 31af 8e3d 3a11 cc3d 5a21 ecbd 103c 9fbd
000001f0: 3e2d 163d d817 ef3d 8d49 2b3d e40c 68be
00000200: d72d 7a3e 352f fbbd 983a 11be 6fe3 853d
00000210: 39c0 8039 d40a 5ebc 52e3 33bd 3b27 1dbc
00000220: a970 11be b39d aa3d cb10 453e e866 abbd
00000230: 02fb 173c a231 fe3b 6d7f a53d e9fa 43bc
00000240: f03a 66bd 3425 fdbd db95 95bd cbf0 a6bd
00000250: 6016 063e 6143 16be e383 143d 7e8d 473d
00000260: 38a3 7e3d 7ec1 c1bd 8f66 293d 7af5 cfbc
00000270: 3597 993d a9c9 0abe a948 333c 1119 4abd
00000280: aa89 cebd c100 353e bbe3 f03d 0ddd d8bd
00000290: 6748 72bd 27e5 de3d e5ef 2ebd 1f69 6c3d
000002a0: 772d a23d d0d9 ddbc 8dbc 133e 35cb c0bc
000002b0: a646 3d3c 5d29 1cbd 9223 383c 172e d43d
000002c0: 7ea1 e43d e875 013d 0021 4c3e eef3 ba3d
000002d0: d25e b7bd 0b5a 693b ca79 033e b42e 1c3e
000002e0: abe8 a2bb c3ed 2b3d 5145 363d e1fb 05be
000002f0: 2c5d 0c3c d5a5 4f3e 77a7 ff3d 96f3 fc3c
00000300: 54ab b6bc 5628 873d 5108 8c3c fdb3 a5bd
00000310: cc4f ecbd 9655 b9bd a475 6e3d ec08 bc3b
00000320: 50b6 20be 6254 f1bd 99a5 ecbd 41ca e5bd
00000330: 1d83 943d 06ab a2bd 6d63 2ebe 91e8 fd3c
00000340: c10f 103e f69a d6bd 57a0 cdbd 42c5 b9bc
00000350: db7e 50bd da3b 113e e493 8fbc ef27 ba3c
00000360: 706c 25be f913 403c f697 1bbe c4dd 9e3d
00000370: c6f0 b0bd f246 0ebd f1d7 25bd 4977 433e
00000380: 5aa2 8a3d f92c a4bd c092 49bd db4b acbd
00000390: 6676 3fbd 2a71 1abd d245 5a3d e149 753d
000003a0: c310 f6bd f003 e9bd 734e 7ebd b232 103d
000003b0: b3c8 59be ea06 3cbd ba84 203c 9c6a e7bd
000003c0: 4c0d 5ebe fd80 a53c 17bb 323e e60f b73d
000003d0: 8736 2b3c 52ea 033e 811d 34bd a777 4b3e
000003e0: 46f9 b2bd 22d7 8d3b ad07 313e 51a8 893d
000003f0: 6e9b fcbc 00f8 3abb 6918 493e 69c5 a1bd

network_body._body_endoder.seq_layers.0.bias f4 [128]
0.105161875 0.051181 0.08816906 0.09553747 0.10335859 -0.033967543 0.07938885 0.019944886
0.076380506 0.008628738 -0.026813865 -0.04515514 0.091172844 0.05193594 0.086166196 0.026882976
0.054981686 0.07172899 0.035820797 0.053657256 0.0349636 -0.028675275 0.07868612 0.044770394
0.14273964 0.08531039 0.12885477 -0.023570003 0.09033486 -0.058671102 0.014316048 0.08451656
0.034497846 -0.04419977 0.09825409 0.13295649 0.07137241 -0.024005648 0.03381333 -0.06920212
0.012284997 0.010401094 0.076565385 -0.0048896098 0.007123914 0.101012416 0.13361582 0.032701127
0.10853739 0.10052507 0.08167472 0.069476865 0.09819866 0.0905364 0.060891625 0.14259905
0.109968685 0.115547545 0.010979096 0.03824108 0.060060136 0.096868254 0.09005025 0.033533204
0.058840625 -0.03964597 0.039034892 0.078900695 0.05971716 -0.020091236 0.027243722 0.063370354
-0.0037500453 0.036709614 0.010854552 -0.06330924 0.04967449 0.06634581 0.08630266 0.10542887
0.13014473 0.0791528 0.0030773904 -0.04933251 0.102323905 -0.011241511 0.13818635 0.08880871
0.116841435 -0.02608914 -0.012655365 -0.0076162317 0.08720589 0.06631031 0.09339933 0.026704036
0.116652176 -0.010907571 0.07019234 0.10861117 0.11174442 0.084623806 0.100425415 -0.005911073
-0.014382132 0.05305912 0.11770452 0.03203772 -0.013623254 0.057304114 0.09018945 0.033619836
0.043131307 0.04847092 -0.0034395969 0.11105904 0.05729827 0.09480464 0.06588293 0.020936398
0.052702527 0.11145672 0.09907352 0.08096024 0.028220411 0.0026400918 -0.10219441 0.07269107
00000000: 1c5f d73d 2ba3 513d fb91 b43d 26a9 c33d
00000010: abad d33d 8d21 0bbd 9f96 a23d 7563 a33c
00000020: 626d 9c3d 8d5f 0d3c c0a8 dbbc 99f4 38bd
00000030: d4b8 ba3d c8ba 543d e777 b03d b039 dc3c
00000040: 7a34 613d a6e6 923d d4b8 123d b6c7 5b3d
00000050: fe35 0f3d 69e8 eabc 3026 a13d 2961 373d
00000060: 572a 123e 37b7 ae3d 81f2 033e e115 c1bc
00000070: 7c01 b93d 1c51 70bd db8d 6a3c 0517 ad3d
00000080: 9d4d 0d3d d10a 35bd 7139 c93d bf25 083e
00000090: b32b 923d 7ea7 c4bc d97f 0a3d d7b9 8dbd
000000a0: 0347 493c 5a69 2a3c 50ce 9c3d 0539 a0bb
000000b0: b96f e93b 99df ce3d 96d2 083e 9ef1 053d
000000c0: da48 de3d 17e0 cd3d 1345 a73d e349 8e3d
000000d0: 611c c93d 266b b93d 7f69 793d 7c05 123e
000000e0: 4337 e13d 31a4 ec3d abe1 333c aea2 1c3d
000000f0: 9e01 763d dd62 c63d 446c b83d 1d5a 093d
00000100: de02 713d d063 22bd 0de3 1f3d b096 a13d
00000110: fb99 743d 6096 a4bc 3a2e df3c 51c8 813d
00000120: 52c3 75bb d25c 163d 4ad7 313c 46a8 81bd
00000130: 7a77 4b3d 50e0 873d 73bf b03d 17eb d73d
00000140: a944 053e dd1a a23d 0bae 493b e310 4abd
00000150: 328f d13d 512e 38bc b980 0d3e 57e1 b53d
00000160: 904a ef3d e4b8 d5bc 7358 4fbc 9591 f9bb
00000170: 0099 b23d b3cd 873d 2648 bf3d 6cc2 da3c
00000180: 56e7 ee3d abb5 32bc 00c1 8f3d 886f de3d
00000190: 42da e43d 3f4f ad3d d7ab cd3d adb1 c1bb
000001a0: 09a3 6bbc 8554 593d 110f f13d fc39 033d
000001b0: 1234 5fbc b8b7 6a3d 3fb5 b83d f4b4 093d
000001c0: 74aa 303d 7289 463d dc6a 61bb ec72 e33d
000001d0: 97b1 6a3d ef28 c23d a1ed 863d cf82 ab3c
000001e0: 9bde 573d 6c43 e43d 0fe7 ca3d 7bce a53d
000001f0: 7e2e e73c 6405 2d3b 4e4b d1bd 0edf 943d

network_body._body_endoder.seq_layers.2.weight f4 [128, 128]
0.15689309 -0.11963882 -0.06127759 -0.12412431 0.048013132 -0.113267556 0.012371431 -0.039618835
-0.011561808 -0.011325404 0.09446188 -0.052646298 0.17027688 0.07888037 -0.09387849 0.10274088
0.06474435 -0.025541931 0.046764653 0.08861378 -0.099685036 -0.05628363 0.050319824 -0.05431826
0.028859442 0.0700664 -0.07845848 0.13915499 -0.08731632 0.058689233 0.03243058 0.007696933
-0.012289081 -0.040903572 -0.09626795 -0.1373761 0.034011714 0.049315643 -0.14721167 0.011792244
0.18111028 0.04666426 -0.09156894 0.17211492 0.099122494 -0.017217781 -0.057389114 0.0510923
-0.13620108 0.09216442 -0.14644477 -0.017144436 0.051771272 -0.10142008 0.013319513 -0.11663274
-0.10609963 -0.10519273 0.01114271 0.12453625 0.06471043 0.095589206 -0.042099427 -0.115309566
0.056505885 -0.05085801 -0.034239113 0.06460574 -0.06664531 0.039577086 -0.2995515 0.08776475
0.11578684 0.09177606 -0.052311737 0.074538246 0.05235187 -0.18321773 -0.04080349 0.017253703
0.010674686 -0.0046949326 0.17982417 -0.15349033 -0.15287726 0.16746469 -0.12549229 0.063401416
-0.024131572 -0.013574506 -0.18362959 -0.118250735 -0.1253392 -0.20299509 0.034662876 0.024950594
0.06709564 -0.13021244 -0.081751525 -0.06267534 -0.07900493 0.008033106 -0.17427312 0.07290798
0.01871823 -0.27301416 -0.17262258 -0.041911766 0.09184872 -0.09444548 -0.059463687 0.07966576
0.061753284 -0.030790595 -0.067366704 -0.085954025 -0.024569346 0.20099051 0.0094120065 -0.034179814
-0.02954774 0.12660913 -0.03847706 -0.03004626 -0.08875035 0.085742116 0.06541915 0.24675868
0.023461571 -0.14844218 0.110869475 0.1703556 -0.14323486 0.008018509 -0.1266122 -0.023904243
-0.06997703 0.0070347083 -0.20341994 -0.07000643 -0.17865409 -0.0001565873 0.18225168 -0.08625828
-0.06655839 0.14174399 0.058557604 -0.12867624 -0.04218168 0.07201162 -0.030988803 0.12131906
-0.086299084 0.07000021 0.062031023 0.10043148 0.087425314 0.05582052 -0.1333404 0.0026677176
-0.054325566 -0.006562734 0.067200035 -0.013109236 0.025634905 0.004159378 0.05081384 0.01888988
0.010131321 -0.09301626 -0.064132 0.0035591403 0.01708348 -0.06752396 0.12092501 0.06035489
0.08093535 0.035096742 -0.10481375 0.11470406 0.15822457 0.046635054 -0.0496312 0.038052373
-0.09260484 0.07180264 -0.054360785 0.02542317 0.032552384 0.06985213 -0.06614499 0.022822795
-0.18589155 0.2020386 0.043000024 0.2184026 -0.06918816 0.21580891 0.17053744 0.026202427
-0.097962126 -0.018284278 -0.034836106 -0.053355742 0.07610673 -0.07872991 -0.14655448 0.03798735
0.053552058 0.1334632 -0.13331617 0.01619214 -0.021869037 -0.08645534 0.11625455 -0.075417675
-0.062799215 0.11357933 -0.15075935 0.08531075 0.10699142 -0.03768453 0.084269166 0.08704146
0.11447783 0.14925879 0.121369414 0.19165008 0.025682505 0.042955045 0.02067333 -0.046587806
-0.06578944 0.059920467 -0.06316632 0.08696316 -0.042472787 0.008205467 0.16372593 0.01148575
0.025852297 -0.00017327248 -0.11121181 -0.16380154 -0.10882102 0.087809294 0.10389471 0.020158831
-0.081507586 0.07099855 0.1540172 -0.019324956 0.14020887 -0.074618794 4.3555465e-05 -0.053206425
00000000: 95a8 203e 3305 f5bd 36fe 7abd e334 febd
00000010: 6ba9 443d d2f8 e7bd 8bb1 4a3c 5c47 22bd
00000020: bd6d 3dbc 308e 39bc 3b75 c13d a5a3 57bd
00000030: 105d 2e3e 088c a13d 5e43 c0bd cf69 d23d
00000040: b098 843d 503d d1bc 4b8c 3f3d 247b b53d
00000050: ab27 ccbd aa89 66bd 291c 4e3d d37c 5ebd
00000060: a36a ec3c f97e 8f3d d7ae a0bd a57e 0e3e
00000070: e6d2 b2bd 1f64 703d eed5 043d 8e36 fc3b
00000080: 2458 49bc 818a 27bd 2228 c5bd 52ac 0cbe
00000090: de4f 0b3d 33ff 493d a8be 16be 4234 413c
000000a0: f974 393e 0623 3f3d 7f88 bbbd e53e 303e
000000b0: bc00 cb3d 4e0c 8dbc d910 6bbd 2946 513d
000000c0: 4c78 0bbe b3c0 bc3d 9ef5 15be 7d72 8cbc
000000d0: 1d0e 543d 55b5 cfbd 163a 5a3c 25dd eebd
000000e0: c34a d9bd 496f d7bd ea8f 363c dd0c ff3d
000000f0: e786 843d 46c4 c33d 7370 2cbd 6c27 ecbd
00000100: b772 673d 7d50 50bd 503e 0cbd 0450 843d
00000110: 567d 88bd 951b 223d d05e 99be 01be b33d
00000120: a721 ed3d 16f5 bb3d d544 56bd 82a7 983d
00000130: ea6e 563d 6e9d 3bbe 8f21 27bd a357 8d3c
00000140: e1e4 2e3c f3d7 99bb d423 383e 922c 1dbe
00000150: db8b 1cbe dd7b 2b3e 0d81 00be 9ad8 813d
00000160: 93af c5bc 9b67 5ebc 6509 3cbe 712d f2bd
00000170: eb58 00be f2dd 4fbe a9fa 0d3d 3065 cc3c
00000180: 7069 893d 6956 05be 586d a7bd ee5b 80bd
00000190: 56cd a1bd 4a9d 033c a774 32be c750 953d
000001a0: f956 993c 83c8 8bbe f9c3 30be acab 2bbd
000001b0: 2f1b bc3d a26c c1bd 3290 73bd cd27 a33d
000001c0: 03f1 7c3d 8f3c fcbc 8ef7 89bd aa08 b0bd
000001d0: a745 c9bc 75d0 4d3e d134 1a3c 2200 0cbd
000001e0: 1a0e f2bc d3a5 013e 1f9a 1dbd 9323 f6bc
000001f0: bec2 b5bd 9099 af3d 7afa 853d 4fae 7c3e
00000200: 7b32 c03c 3a01 18be 890f e33d b371 2e3e
00000210: 29ac 12be 1060 033c a1a6 01be d5d2 c3bc
00000220: 1e50 8fbd 6983 e63b 514d 50be 885f 8fbd
00000230: 19f1 36be 9531 24b9 2fa0 3a3e 2ea8 b0bd
00000240: c44f 88bd 5625 113e 19da 6f3d b4c3 03be
00000250: b3c6 2cbd d47a 933d 3bdc fdbc 2176 f83d
00000260: 93bd b0bd 455c 8f3d 3e14 7e3d 05af cd3d
00000270: 0b0c b33d 0fa4 643d 638a 08be e0d4 2e3b
00000280: 7c84 5ebd 340c d7bb 2ca0 893d 1fc8 56bc
00000290: 4b00 d23c 644b 883b 2c22 503d f3be 9a3c
000002a0: d7fd 253c 4f7f bebd a357 83bd 7740 693b
000002b0: a7f2 8b3c 004a 8abd 88a7 f73d b036 773d
000002c0: 6fc1 a53d 9ac1 0f3d 97a8 d6bd f6e9 ea3d
000002d0: 9f05 223e 6604 3f3d 164a 4bbd cedc 1b3d
000002e0: 9ba7 bdbd 430d 933d 6aa9 5ebd 4044 d03c
000002f0: a655 053d a20e 8f3d 0677 87bd dff6 ba3c
00000300: 5b5a 3ebe 35e3 4e3e cb20 303d eea4 5f3e
00000310: 86b2 8dbd 03fd 5c3e 5ea1 2e3e 79a6 d63c
00000320: 5ea0 c8bd e9c8 95bc 4eb0 0ebd 8d8b 5abd
00000330: d8dd 9b3d 263d a1bd 6112 16be a098 1b3d
00000340: 6759 5b3d 94aa 083e 0984 08be 61a5 843c
00000350: b226 b3bc 7f0f b1bd de16 ee3d 9574 9abd
00000360: e09c 80bd 489c e83d a960 1abe 67b7 ae3d
00000370: 511e db3d 185b 1abd 5095 ac3d cb42 b23d
00000380: 5a73 ea3d 4cd7 183e 8790 f83d eb3f 443e
00000390: 1e64 d23c a1f1 2f3d 1e5b a93c dbd2 3ebd
000003a0: 9dbc 86bd 2a6f 753d 585d 81bd be19 b23d
000003b0: f2f7 2dbd 3970 063c c5a7 273e ba2e 3c3c
000003c0: 32c8 d33c 7ab0 35b9 04c3 e3bd 97bb 27be
000003d0: 8edd debd 5cd5 b33d c0c6 d43d 2224 a53c
000003e0: 73ed a6bd b067 913d afb6 1d3e 5f4f 9ebc
000003f0: ea92 0f3e bdd1 98bd 53af 3638 fbee 59bd

network_body._body_endoder.seq_layers.2.bias f4 [128]
-0.011517546 0.028838763 0.0741906 -0.05219932 0.014655153 -0.0704193 -7.5550364e-05 0.056971584
-0.0032135402 0.014640955 -0.03503334 -0.047609657 -0.06053085 0.050281778 0.03859377 0.079597406
0.0018134268 -0.01857489 0.07840545 -0.08904622 -0.05614501 0.025174871 0.06271171 0.09591843
0.0075044697 0.102217525 0.11411226 0.05070988 -0.017398424 0.04394912 0.039375406 0.002015844
0.013752533 0.013121833 -0.02610972 0.025427412 0.064740434 0.06373272 -0.020354474 0.06866834
-0.0064915307 0.057537414 0.0358267 -0.06295564 0.052327115 -0.025497194 -0.07952558 0.012830724
-0.015241685 0.08763018 -0.040429566 -0.08525639 0.0010986718 0.08067017 0.05401927 0.029491391
0.00071815366 -0.06225107 0.049126536 0.02522104 -0.07954829 0.025583504 -0.11419461 0.009390802
0.034573894 0.10936109 0.107630424 -0.05114189 0.12389029 -0.0007594307 0.09621098 0.070404
0.023131028 -0.013345497 0.04819448 0.06231763 0.022259044 0.029497912 0.009941705 0.07106013
0.0019852545 0.038028847 -0.056072403 0.094124004 0.026498454 0.09920447 0.08182588 0.042666707
0.040978953 -0.09222477 -0.03888262 0.050937105 -0.0758246 -0.054010935 0.07222553 0.074059054
-0.027909983 -0.10445547 0.004351389 0.034943517 -0.022215156 0.03981078 0.008558768 0.023441432
0.072385 0.01516089 0.062242646 -0.05864632 0.08564717 -0.05765204 -0.1025392 -0.039170276
-0.0035722044 0.076546386 0.029738156 0.07490103 0.04102215 0.05689904 0.081764765 0.01703856
0.08706153 0.023835743 -0.08712289 -0.028693592 0.09428629 -0.07156993 -0.0460688 0.011258467
00000000: 17b4 3cbc 453f ec3c 3ef1 973d f4ce 55bd
00000010: 2b1c 703c fe37 90bd cb70 9eb8 095b 693d
00000020: 429a 52bb 9ee0 6f3c 1f7f 0fbd 5802 43bd
00000030: 32ef 77bd 44f4 4d3d 8014 1e3d f703 a33d
00000040: 82b0 ed3a 5e2a 98bc 0993 a03d dd5d b6bd
00000050: 4ff8 65bd 883b ce3c ff6e 803d e270 c43d
00000060: 0ee8 f53b 6c57 d13d b0b3 e93d 2ab5 4f3d
00000070: 2487 8ebc fe03 343d 1b48 213d 401c 043b
00000080: 4e52 613c f5fc 563c 0de4 d5bc 264d d03c
00000090: a296 843d 4d86 823d 6dbe a6bc fda1 8c3d
000000a0: e8b6 d4bb 5aac 6b3d 05bf 123d e3ee 80bd
000000b0: f554 563d 7edf d0bc 4fde a2bd f537 523c
000000c0: 43b8 79bc 7477 b33d 7999 25bd e79a aebd
000000d0: 4f01 903a 6736 a53d 4f43 5d3d ee97 f13c
000000e0: 7a42 3c3a fafa 7ebd e838 493d 5b9c ce3c
000000f0: 37ea a2bd 7f94 d13c ddde e9bd e1db 193c
00000100: 5b9d 0d3d b5f8 df3d 576d dc3d 297a 51bd
00000110: 31ba fd3d 8814 47ba 430a c53d f92f 903d
00000120: 487d bd3c 12a7 5abc 9367 453d c540 7f3d
00000130: 9958 b63c 9ba5 f13c 88e2 223c f987 913d
00000140: 0b1b 023b 23c4 1b3d 2dac 65bd 16c4 c03d
00000150: 4913 d93c b72b cb3d 5494 a73d 49c3 2e3d
00000160: 8cd9 273d 57e0 bcbd 6243 1fbd 6da3 503d
00000170: ee49 9bbd 923a 5dbd fbea 933d 46ac 973d
00000180: 7aa3 e4bc c0ec d5bd 1996 8e3b ef20 0f3d
00000190: 8ffc b5bc a110 233d 133a 0c3c 3f08 c03c
000001a0: 963e 943d 6265 783c 25f2 7e3d 2037 70bd
000001b0: c967 af3d 8c24 6cbd 1200 d2bd 0371 20bd
000001c0: a51b 6abb 5ac4 9c3d 6f9d f33c b665 993d
000001d0: d806 283d f80e 693d 4974 a73d 7394 8b3c
000001e0: 514d b23d 2d43 c33c 7c6d b2bd d30e ebbc
000001f0: 2c19 c13d 4193 92bd a3b2 3cbd 6f75 383c

action_model._continuous_distribution.log_sigma f4 [1, 5]
0.044321626 -0.15053906 -0.04333969 0.12736058 -0.3031329
00000000: 988a 353d e926 1abe f584 31bd d06a 023e
00000010: 3c34 9bbe

action_model._continuous_distribution.mu.weight f4 [5, 128]
0.11050957 -0.05216928 -0.08423112 0.060462967 0.06335264 0.08031693 0.03424981 -0.034886304
-0.030644901 -0.038371406 0.10076358 0.040283043 0.011000223 -0.09812877 0.1451756 -0.15871574
0.049361493 0.033745963 0.06292476 0.08209699 0.09615989 0.046611283 -0.008766575 -0.07606817
0.09378821 -0.074602574 -0.06271949 0.007600056 -0.096375525 0.050781492 -0.13204268 0.015892532
0.101705745 -0.060720216 0.14642406 0.002709661 -0.024227705 0.075154655 -0.07570618 0.038463216
-0.007223095 -0.0091433115 -0.08731232 0.09566681 -0.008283325 0.068621784 0.025580911 -0.053129245
0.080559276 -0.05966225 0.14501229 -0.055567645 0.07028638 -0.00072029524 -0.03644179 -0.037868693
-0.036476612 0.10884019 -0.007557127 -0.07540384 0.10890442 -0.043590497 0.035156436 -0.017567975
-0.047348343 -0.05229721 -0.023195054 0.080524474 -0.10947761 0.0031311454 -0.10316901 -0.1172122
0.030187747 0.07665399 0.002500261 0.12024862 0.10533958 0.022035787 0.071983896 -0.061848536
0.069074385 0.107246175 -0.0055856244 0.0704216 0.060050897 -0.061266568 -0.018688615 0.05320289
-0.0019188735 0.009312081 0.113338135 0.105785355 0.064949326 0.03443141 0.0074337404 0.0063528814
0.15628298 -0.05540818 -0.09302275 0.08959085 0.067070745 -0.08838142 -0.028709548 0.06770915
-0.049933862 0.02292155 -0.00952555 0.027366916 -0.08134692 0.095720515 0.0060607153 0.08672863
0.11751266 -0.050614577 -0.09544396 -0.062409982 0.057896085 -0.11379536 -0.009079319 0.00663659
-0.04384605 0.12815993 0.057456687 0.12637901 -0.0154621145 0.058117967 0.010081547 0.12649918
-0.07278937 0.06592751 0.10570332 0.033541307 -0.030384189 0.006201386 -0.074099824 0.10507043
0.096312426 -0.060306296 0.0043952046 0.099370085 -0.029068863 -0.055205468 -0.007875881 0.03047352
0.005147134 0.05423551 -0.024478102 -0.0051050857 -0.014255028 -0.15453015 -0.0127869835 0.029088277
-0.0785194 0.1252944 0.053384326 -0.05745816 -0.14677908 0.00063355046 0.013606611 -0.01402363
-0.03106865 0.050198246 0.065944426 0.023863375 -0.03526099 -0.17254616 0.051534545 -0.027837519
0.03951455 0.093645774 -0.0093474295 -0.020314043 -0.049496822 -0.053340442 0.03279323 0.050199263
-0.0051788567 0.055748634 -0.026310176 -0.07333798 -0.05067049 -0.094984986 -0.04808327 0.100478984
-0.09004393 -0.058509093 0.0031891523 0.022973647 -0.01941664 -0.00022017716 0.01328942 0.12630859
0.16403437 0.036449753 -0.08298317 -0.019956432 -0.06313455 -0.0027211 -0.007312828 0.048687052
0.049670596 0.040233742 -0.058508754 0.015546727 0.011218179 0.1175592 0.025703914 -0.06589529
-0.087995596 -0.04900856 0.038963534 0.014505074 -0.068133265 0.11612755 -0.07145026 -0.011354611
0.0703328 0.020064164 -0.035780422 -0.028206294 0.006255021 -0.09002557 0.026315 -0.004763195
-0.036486357 -0.025591545 -0.0621622 -0.088976316 -0.025866045 0.036631275 0.053110663 -0.059281733
-0.06623477 0.003500246 0.07783601 0.015419841 -0.038623087 -0.04494374 -0.018735573 0.08242869
-0.043079372 -0.054801747 -0.070412174 -0.047530744 0.02061084 0.025568435 0.08852933 -0.025240911
0.05351248 -0.09282154 -0.004152188 0.06679257 0.09584839 0.029779274 -0.06431495 -0.099229895
00000000: d752 e23d 74af 55bd 5e81 acbd 04a8 773d
00000010: 07bf 813d 347d a43d 8749 0c3d f1e4 0ebd
00000020: 040b fbbc 562b 1dbd 235d ce3d d5ff 243d
00000030: 483a 343c bdf7 c8bd eaa8 143e 6186 22be
00000040: 472f 4a3d 3539 0a3d b2de 803d 7722 a83d
00000050: 7aef c43d 79eb 3e3d aea1 0fbc a1c9 9bbd
00000060: 0814 c03d 3cc9 98bd 1373 80bd e409 f93b
00000070: 8860 c5bd 4100 503d 3236 07be 0e31 823c
00000080: 1a4b d03d c3b5 78bd 30f0 153e 9194 313b
00000090: 2e79 c6bc afea 993d d70b 9bbd 9b8b 1d3d
000000a0: b6af ecbb d4cd 15bc cdd0 b2bd f6ec c33d
000000b0: c8b6 07bc 9489 8c3d 0f8f d13c 0d9e 59bd
000000c0: 43fc a43d 6760 74bd 1a7e 143e e69a 63bd
000000d0: 4ef2 8f3d 32d2 3cba fd43 15bd 341c 1bbd
000000e0: 8068 15bd 9be7 de3d c7a1 f7bb 546d 9abd
000000f0: 4809 df3d f38b 32bd 3200 103d b7ea 8fbc
00000100: 56f0 41bd 9935 56bd 8e03 bebc 04ea a43d
00000110: cc35 e0bd e733 4d3b 464a d3bd f30c f0bd
00000120: 4b4c f73c c4fc 9c3d 6bdb 233b e944 f63d
00000130: 47bc d73d 6584 b43c 4b6c 933d e454 7dbd
00000140: df76 8d3d e2a3 db3d 9d07 b7bb 3339 903d
00000150: eef7 753d a7f2 7abd de18 99bc 46eb 593d
00000160: b682 fbba b391 183c d31d e83d fea5 d83d
00000170: 2704 853d f307 0d3d bc96 f33b d52b d03b
00000180: a508 203e b0f3 62bd b682 bebd 687b b73d
00000190: 635c 893d 5101 b5bd 4930 ebbc 18ab 8a3d
000001a0: 7387 4cbd f9c5 bb3c 0d11 1cbc 9530 e03c
000001b0: 3799 a6bd 1e09 c43d f798 c63b c89e b13d
000001c0: 7aaa f03d 3b51 4fbd 1f78 c3bd 9ca1 7fbd
000001d0: 7224 6d3d 8b0d e9bd 6dc1 14bc c177 d93b
000001e0: ea97 33bd 5b3c 033e b457 6b3d 8069 013e
000001f0: cf54 7dbc 1b0d 6e3d 132d 253c 0089 013e
00000200: 9812 95bd 0105 873d fb7a d83d 9c62 093d
00000210: 43e8 f8bc ff34 cb3b a6c1 97bd 2a2f d73d
00000220: 733f c53d bc03 77bd a605 903b 8b82 cb3d
00000230: d321 eebc 211f 62bd d709 01bc 9aa3 f93c
00000240: 4aa9 a83b 0e26 5e3d 4d86 c8bc 9048 a7bb
00000250: ec8d 69bc 273d 1ebe 7f80 51bc 8a4a ee3c
00000260: c7ce a0bd 2d4d 003e 86a9 5a3d 3f59 6bbd
00000270: 414d 16be da14 263a 43ee 5e3c 5ec3 65bc
00000280: ae83 febc ad9c 4d3d df0d 873d 207d c33c
00000290: d46d 10bd f1af 30be e315 533d 820b e4bc
000002a0: 02da 213d 5bc9 bf3d f625 19bc a369 a6bc
000002b0: 2ebd 4abd 827b 5abd 3252 063d be9d 4d3d
000002c0: 66b3 a9bb ae58 643d 7088 d7bc 3932 96bd
000002d0: dc8b 4fbd 7d87 c2bd f7f2 44bd edc7 cd3d
000002e0: f468 b8bd 3ba7 6fbd 1901 513b 3b33 bc3c
000002f0: a50f 9fbc 5bdf 66b9 debb 593c 0a57 013e
00000300: a0f8 273e 564c 153d 15f3 a9bd ac7b a3bc
00000310: b04c 81bd 7c54 32bb 73a0 efbb 136c 473d
00000320: 6573 4b3d 23cc 243d e0a6 6fbd b3b7 7e3c
00000330: 74cc 373c e1c2 f03d 0491 d23c 1cf4 86bd
00000340: 0937 b4bd 33bd 48bd 3a98 1f3d b1a6 6d3c
00000350: 7489 8bbd 48d4 ed3d 8454 92bd b108 3abc
00000360: a50a 903d 9a5d a43c 7e8e 12bd e310 e7bc
00000370: ebf6 cc3b 535f b8bd 8e92 d73c 9314 9cbb
00000380: b872 15bd 5ca5 d1bc cb9d 7ebd 3739 b6bd
00000390: 07e5 d3bc ad0a 163d 918a 593d 67d1 72bd
000003a0: 18a6 87bd 6264 653b 7c68 9f3d 80a3 7c3c
000003b0: 3e33 1ebd ed16 38bd 587b 99bc 5fd0 a83d
000003c0: ff73 30bd cc77 60bd 4234 90bd 99af 42bd
000003d0: 10d8 a83c e574 d13c de4e b53d 07c6 cebc
000003e0: e72f 5b3d 3819 bebd 140f 88bb 8bca 883d
000003f0: 294c c43d aaf3 f33c 8eb7 83bd 0b39 cbbd

action_model._continuous_distribution.mu.bias f4 [5]
-0.036590457 0.021220816 -0.08799707 0.04501059 -0.070351094
00000000: e0df 15bd 47d7 ad3c cf37 b4bd 065d 383d
00000010: 3c14 90bd

onnx::Div_71 f4 [68]
0.20937708 0.07912728 0.020837476 0.1322542 0.19564661 0.06778083 0.020837596 0.13570374
0.22468172 0.07501501 0.02083733 0.1282528 0.1977547 0.051549956 0.020957 0.13664888
0.23533624 0.063670255 0.021027856 0.1253102 0.22519179 0.043862473 0.020401461 0.13523196
0.23502019 0.0534309 0.021157937 0.124980845 0.27345562 0.042745333 0.020620707 0.13349807
0.22284421 0.045644466 0.02137009 0.12635815 0.32537198 0.04532265 0.020980798 0.13205832
0.20916207 0.04197698 0.021602727 0.12941077 0.35894617 0.04356979 0.021555386 0.13041699
0.20934388 0.04248205 0.021428527 0.13382751 0.37083298 0.040231038 0.02195768 0.13063626
0.22514403 0.043888345 0.021660728 0.13898684 0.36748126 0.03953836 0.022218322 0.13323463
0.24572593 0.04568594 0.02204875 0.14441946
00000000: f266 563e 7c0d a23d 5bb3 aa3c a56d 073e
00000010: 9657 483e add0 8a3d 9bb3 aa3c ecf5 0a3e
00000020: f712 663e 78a1 993d 0cb3 aa3c b454 033e
00000030: 3580 4a3e 0c26 533d 04ae ab3c afed 0b3e
00000040: fcfb 703e 8d65 823d 9c42 ac3c 5151 003e
00000050: ad98 663e 23a9 333d f720 a73c 3f7a 0a3e
00000060: 22a9 703e 5cda 5a3d 6953 ad3c f5f5 ff3d
00000070: 6002 8c3e bb15 2f3d c2ec a83c b8b3 083e
00000080: 4631 643e b1f5 3a3d 5410 af3c 0864 013e
00000090: 2897 a63e 3ea4 393d ecdf ab3c 4c3a 073e
000000a0: 952e 563e 0ef0 2b3d 34f8 b03c 4284 043e
000000b0: cbc7 b73e 3c76 323d ec94 b03c 088c 053e
000000c0: 3e5e 563e a801 2e3d e18a af3c 140a 093e
000000d0: d2dd bd3e 4dc9 243d 98e0 b33c 83c5 053e
000000e0: 288c 663e 44c4 333d d771 b13c 9152 0e3e
000000f0: 8126 bc3e faf2 213d 3303 b63c a96e 083e
00000100: 949f 7b3e 2e21 3b3d 959f b43c b2e2 133e

onnx::Div_74 f4 [20]
0.39992246 0.033765882 0.15651777 0.22730607 0.4111869 0.029215457 0.1584615 0.23026086
0.40916735 0.031796187 0.1548512 0.22610712 0.44035673 0.02491823 0.15778644 0.23376185
0.43282834 0.02739137 0.16030924 0.23000422
00000000: a3c2 cc3e 184e 0a3d 3246 203e ecc2 683e
00000010: 1787 d23e 4155 ef3c bb43 223e 81c9 6b3e
00000020: 627e d13e b83c 023d 5091 1e3e a088 673e
00000030: 7076 e13e 5121 cc3c c592 213e 445f 6f3e
00000040: ad9b dd3e de63 e03c 1b28 243e 3a86 6b3e

onnx::Div_77 f4 [5]
14.663757 1.1977898 4.3647943 0.9140146 0.43673617
00000000: c09e 6a41 2d51 993f 65ac 8b40 dcfc 693f
00000010: e29b df3e
