Assets/results/Coin_Shooter_New/CoinChaser/CoinChaser-499972.pt (torch, 726233 bytes, 60 tensors)

network_body.observation_encoder.processors.0.normalizer.running_mean f4 [68]
0	0x3f7bf383	0.98418444
1	0x3b712f79	0.0036801978
2	0x39da1da7	0.00041602293
3	0x3e51d5ee	0.20491764
4	0x3f7b9121	0.98268324
5	0x3b454617	0.0030101591
6	0x39d3d2ea	0.000404022
7	0x3e55896f	0.20853208
8	0x3f7c300b	0.9851081
9	0x3b823a38	0.0039742254
10	0x39dc3671	0.00042002232
11	0x3e4e5229	0.20148529
12	0x3f7a1849	0.97693306
13	0x3b3a64ea	0.0028441497
14	0x39d0ad86	0.00039802137
15	0x3e57d045	0.21075542
16	0x3f7c6463	0.9859068
17	0x3b8b9974	0.0042602364
18	0x39e5a682	0.00043802342
19	0x3e4d0bfd	0.20024104
20	0x3f7603ce	0.96099555
21	0x3b4b6f4e	0.0031041685
22	0x39c0f2a3	0.00036801872
23	0x3e58e301	0.21180345
24	0x3f7c725b	0.9861199
25	0x3b8b5659	0.004252237
26	0x39e174f7	0.0004300249
27	0x3e4f86ba	0.20266238
28	0x3f6c21ce	0.9223908
29	0x3b70cac1	0.0036741944
30	0x39c95678	0.00038402132
31	0x3e5729fe	0.21012112
32	0x3f7c7255	0.98611957
33	0x3b71f8c7	0.0036921964
34	0x39e9d862	0.0004460244
35	0x3e5475c7	0.20748053
36	0x3f5b89ea	0.85757315
37	0x3b9a6945	0.004712256
38	0x39d3d2d1	0.00040402127
39	0x3e524acb	0.20536344
40	0x3f7c2830	0.9849882
41	0x3b5a8241	0.0033341798
42	0x39ecfd9d	0.00045202384
43	0x3e5a7607	0.21334086
44	0x3f4b9674	0.7952645
45	0x3b96ce67	0.004602242
46	0x39e5a693	0.0004380239
47	0x3e4d9115	0.20074876
48	0x3f7b3f36	0.9814333
49	0x3b743334	0.0037261965
50	0x39e49a25	0.00043602395
51	0x3e602e26	0.21892604
52	0x3f43d21f	0.76492494
53	0x3b7cfb74	0.0038602026
54	0x39fa9f80	0.00047802553
55	0x3e4ce03d	0.20007415
56	0x3f796ab6	0.9742845
57	0x3b861812	0.004092225
58	0x39f23bf6	0.0004620251
59	0x3e64f31e	0.22358367
60	0x3f456eaa	0.77121985
61	0x3b638dbe	0.0034721936
62	0x3a0a6b70	0.00052802917
63	0x3e50e525	0.20399912
64	0x3f769968	0.9632783
65	0x3b9461a7	0.0045282426
66	0x39fcb888	0.00048202672
67	0x3e6880c6	0.22705373

network_body.observation_encoder.processors.0.normalizer.running_variance f4 [68]
0	0x45f33774	7782.9316
1	0x44e54506	1834.157
2	0x4350ebdb	208.92131
3	0x45ce72dc	6606.3574
4	0x4604f423	8509.034
5	0x44bbafb1	1501.4904
6	0x434aed51	202.92702
7	0x45daa12c	6996.1465
8	0x45e540d1	7336.102
9	0x44f783d7	1980.12
10	0x4352eb2f	210.91869
11	0x45c4b812	6295.009
12	0x46300fc1	11267.938
13	0x44b15e3a	1418.9446
14	0x4347ee40	199.93066
15	0x45e4a169	7316.1763
16	0x45d91dbd	6947.7173
17	0x45049f77	2121.9666
18	0x435be874	219.90802
19	0x45bca7f2	6036.993
20	0x46926ac7	18741.389
21	0x44c1853b	1548.1635
22	0x4338f12b	184.94206
23	0x45f1a9ba	7733.216
24	0x45d5e51c	6844.6387
25	0x45045fca	2117.9868
26	0x4357ea32	215.91483
27	0x45bcd4d9	6042.606
28	0x470bd074	35792.453
29	0x44e4e7d1	1831.2443
30	0x4340ef50	192.93481
31	0x45fb4134	8040.1504
32	0x45d5e4e5	6844.612
33	0x44e605d1	1840.1818
34	0x435fe863	223.90776
35	0x45c1c168	6200.176
36	0x476e8c93	61068.574
37	0x45129e6f	2345.902
38	0x434aecfd	202.92574
39	0x45ff3a46	8167.284
40	0x45e7127f	7394.312
41	0x44cfcf60	1662.4805
42	0x4362e77e	226.90427
43	0x45cabdd0	6487.7266
44	0x479eff42	81406.516
45	0x450f3728	2291.4473
46	0x435be967	219.91173
47	0x4601548b	8277.136
48	0x460e5f11	9111.767
49	0x44e820d5	1857.026
50	0x435aea5f	218.91551
51	0x45d7566e	6890.8037
52	0x47af97fa	89903.95
53	0x44f0711d	1923.5348
54	0x436fe356	239.88803
55	0x4605fd78	8575.367
56	0x4643bd93	12527.394
57	0x44fed3ed	2038.6227
58	0x4367e575	231.89632
59	0x45e4265e	7300.796
60	0x47ac4c12	88216.14
61	0x44d85f1e	1730.9724
62	0x43846e45	264.86148
63	0x460dd89f	9078.155
64	0x468a2da0	17686.812
65	0x450cecd0	2254.8008
66	0x4371e3c7	241.88976
67	0x45f28f41	7761.9067

network_body.observation_encoder.processors.1.normalizer.running_mean f4 [20]
0	0x3e8ffcdf	0.28122613
1	0x3a6174b9	0.0008600462
2	0x3c72012f	0.01477079
3	0x3e951416	0.29116887
4	0x3e91ba74	0.28462565
5	0x3a4fa101	0.0007920415
6	0x3c7e8e3d	0.015536842
7	0x3e98a910	0.29816484
8	0x3e953b37	0.2914674
9	0x3a7a9f6f	0.00095605006
10	0x3c656bd7	0.014002762
11	0x3e979ff1	0.29614213
12	0x3e9bf913	0.30463466
13	0x3a6d83f1	0.00090604933
14	0x3c9148df	0.017734943
15	0x3ea1f947	0.31635496
16	0x3ea04544	0.31302845
17	0x3a84ea0b	0.0010140551
18	0x3c7cc92d	0.015428823
19	0x3ea2825d	0.31740084

network_body.observation_encoder.processors.1.normalizer.running_variance f4 [20]
0	0x47c5641b	101064.21
1	0x43d7535e	430.6513
2	0x45e3675a	7276.919
3	0x46b13d76	22686.73
4	0x47c6d51e	101802.234
5	0x43c65988	396.69946
6	0x45ef01e9	7648.239
7	0x46b8418b	23584.771
8	0x47c9aa3f	103252.49
9	0x43ef44ea	478.5384
10	0x45d7bf85	6903.94
11	0x46adfeb2	22271.348
12	0x47cedbc5	105911.54
13	0x43e2ca31	453.57962
14	0x46081af2	8710.736
15	0x46c26f12	24887.535
16	0x47d1fdf0	107515.875
17	0x43fdbe4d	507.48672
18	0x45ed5fcb	7595.974
19	0x46b38750	22979.656

network_body.observation_encoder.processors.2.normalizer.running_mean f4 [5]
0	0x3f48521b	0.78250283
1	0x3ff66c32	1.9251769
2	0xbf374554	-0.7159016
3	0x3f44b8f7	0.76844734
4	0x3f1ca584	0.61190057

network_body.observation_encoder.processors.2.normalizer.running_variance f4 [5]
0	0x4cfbdd0d	1.32049e+08
1	0x49429052	796933.1
2	0x4ac78884	6.538306e+06
3	0x48c5db99	405212.78
4	0x47e7e6b9	118733.445

network_body.processors.0.normalizer.running_mean f4 [68]
0	0x3f7bf383	0.98418444
1	0x3b712f79	0.0036801978
2	0x39da1da7	0.00041602293
3	0x3e51d5ee	0.20491764
4	0x3f7b9121	0.98268324
5	0x3b454617	0.0030101591
6	0x39d3d2ea	0.000404022
7	0x3e55896f	0.20853208
8	0x3f7c300b	0.9851081
9	0x3b823a38	0.0039742254
10	0x39dc3671	0.00042002232
11	0x3e4e5229	0.20148529
12	0x3f7a1849	0.97693306
13	0x3b3a64ea	0.0028441497
14	0x39d0ad86	0.00039802137
15	0x3e57d045	0.21075542
16	0x3f7c6463	0.9859068
17	0x3b8b9974	0.0042602364
18	0x39e5a682	0.00043802342
19	0x3e4d0bfd	0.20024104
20	0x3f7603ce	0.96099555
21	0x3b4b6f4e	0.0031041685
22	0x39c0f2a3	0.00036801872
23	0x3e58e301	0.21180345
24	0x3f7c725b	0.9861199
25	0x3b8b5659	0.004252237
26	0x39e174f7	0.0004300249
27	0x3e4f86ba	0.20266238
28	0x3f6c21ce	0.9223908
29	0x3b70cac1	0.0036741944
30	0x39c95678	0.00038402132
31	0x3e5729fe	0.21012112
32	0x3f7c7255	0.98611957
33	0x3b71f8c7	0.0036921964
34	0x39e9d862	0.0004460244
35	0x3e5475c7	0.20748053
36	0x3f5b89ea	0.85757315
37	0x3b9a6945	0.004712256
38	0x39d3d2d1	0.00040402127
39	0x3e524acb	0.20536344
40	0x3f7c2830	0.9849882
41	0x3b5a8241	0.0033341798
42	0x39ecfd9d	0.00045202384
43	0x3e5a7607	0.21334086
44	0x3f4b9674	0.7952645
45	0x3b96ce67	0.004602242
46	0x39e5a693	0.0004380239
47	0x3e4d9115	0.20074876
48	0x3f7b3f36	0.9814333
49	0x3b743334	0.0037261965
50	0x39e49a25	0.00043602395
51	0x3e602e26	0.21892604
52	0x3f43d21f	0.76492494
53	0x3b7cfb74	0.0038602026
54	0x39fa9f80	0.00047802553
55	0x3e4ce03d	0.20007415
56	0x3f796ab6	0.9742845
57	0x3b861812	0.004092225
58	0x39f23bf6	0.0004620251
59	0x3e64f31e	0.22358367
60	0x3f456eaa	0.77121985
61	0x3b638dbe	0.0034721936
62	0x3a0a6b70	0.00052802917
63	0x3e50e525	0.20399912
64	0x3f769968	0.9632783
65	0x3b9461a7	0.0045282426
66	0x39fcb888	0.00048202672
67	0x3e6880c6	0.22705373

network_body.processors.0.normalizer.running_variance f4 [68]
0	0x45f33774	7782.9316
1	0x44e54506	1834.157
2	0x4350ebdb	208.92131
3	0x45ce72dc	6606.3574
4	0x4604f423	8509.034
5	0x44bbafb1	1501.4904
6	0x434aed51	202.92702
7	0x45daa12c	6996.1465
8	0x45e540d1	7336.102
9	0x44f783d7	1980.12
10	0x4352eb2f	210.91869
11	0x45c4b812	6295.009
12	0x46300fc1	11267.938
13	0x44b15e3a	1418.9446
14	0x4347ee40	199.93066
15	0x45e4a169	7316.1763
16	0x45d91dbd	6947.7173
17	0x45049f77	2121.9666
18	0x435be874	219.90802
19	0x45bca7f2	6036.993
20	0x46926ac7	18741.389
21	0x44c1853b	1548.1635
22	0x4338f12b	184.94206
23	0x45f1a9ba	7733.216
24	0x45d5e51c	6844.6387
25	0x45045fca	2117.9868
26	0x4357ea32	215.91483
27	0x45bcd4d9	6042.606
28	0x470bd074	35792.453
29	0x44e4e7d1	1831.2443
30	0x4340ef50	192.93481
31	0x45fb4134	8040.1504
32	0x45d5e4e5	6844.612
33	0x44e605d1	1840.1818
34	0x435fe863	223.90776
35	0x45c1c168	6200.176
36	0x476e8c93	61068.574
37	0x45129e6f	2345.902
38	0x434aecfd	202.92574
39	0x45ff3a46	8167.284
40	0x45e7127f	7394.312
41	0x44cfcf60	1662.4805
42	0x4362e77e	226.90427
43	0x45cabdd0	6487.7266
44	0x479eff42	81406.516
45	0x450f3728	2291.4473
46	0x435be967	219.91173
47	0x4601548b	8277.136
48	0x460e5f11	9111.767
49	0x44e820d5	1857.026
50	0x435aea5f	218.91551
51	0x45d7566e	6890.8037
52	0x47af97fa	89903.95
53	0x44f0711d	1923.5348
54	0x436fe356	239.88803
55	0x4605fd78	8575.367
56	0x4643bd93	12527.394
57	0x44fed3ed	2038.6227
58	0x4367e575	231.89632
59	0x45e4265e	7300.796
60	0x47ac4c12	88216.14
61	0x44d85f1e	1730.9724
62	0x43846e45	264.86148
63	0x460dd89f	9078.155
64	0x468a2da0	17686.812
65	0x450cecd0	2254.8008
66	0x4371e3c7	241.88976
67	0x45f28f41	7761.9067

network_body.processors.1.normalizer.running_mean f4 [20]
0	0x3e8ffcdf	0.28122613
1	0x3a6174b9	0.0008600462
2	0x3c72012f	0.01477079
3	0x3e951416	0.29116887
4	0x3e91ba74	0.28462565
5	0x3a4fa101	0.0007920415
6	0x3c7e8e3d	0.015536842
7	0x3e98a910	0.29816484
8	0x3e953b37	0.2914674
9	0x3a7a9f6f	0.00095605006
10	0x3c656bd7	0.014002762
11	0x3e979ff1	0.29614213
12	0x3e9bf913	0.30463466
13	0x3a6d83f1	0.00090604933
14	0x3c9148df	0.017734943
15	0x3ea1f947	0.31635496
16	0x3ea04544	0.31302845
17	0x3a84ea0b	0.0010140551
18	0x3c7cc92d	0.015428823
19	0x3ea2825d	0.31740084

network_body.processors.1.normalizer.running_variance f4 [20]
0	0x47c5641b	101064.21
1	0x43d7535e	430.6513
2	0x45e3675a	7276.919
3	0x46b13d76	22686.73
4	0x47c6d51e	101802.234
5	0x43c65988	396.69946
6	0x45ef01e9	7648.239
7	0x46b8418b	23584.771
8	0x47c9aa3f	103252.49
9	0x43ef44ea	478.5384
10	0x45d7bf85	6903.94
11	0x46adfeb2	22271.348
12	0x47cedbc5	105911.54
13	0x43e2ca31	453.57962
14	0x46081af2	8710.736
15	0x46c26f12	24887.535
16	0x47d1fdf0	107515.875
17	0x43fdbe4d	507.48672
18	0x45ed5fcb	7595.974
19	0x46b38750	22979.656

network_body.processors.2.normalizer.running_mean f4 [5]
0	0x3f48521b	0.78250283
1	0x3ff66c32	1.9251769
2	0xbf374554	-0.7159016
3	0x3f44b8f7	0.76844734
4	0x3f1ca584	0.61190057

network_body.processors.2.normalizer.running_variance f4 [5]
0	0x4cfbdd0d	1.32049e+08
1	0x49429052	796933.1
2	0x4ac78884	6.538306e+06
3	0x48c5db99	405212.78
4	0x47e7e6b9	118733.445

network_body._body_endoder.seq_layers.0.weight f4 [128, 93]
0	0xbd4d3fcc	-0.05010967
1	0xb918597a	-0.00014529182
2	0x3dfad671	0.12247933
3	0x3e0447d4	0.12918025
4	0xbd9b28a4	-0.07576111
5	0x3d916ea7	0.071011834
6	0xbd901f3f	-0.0703721
7	0xbdc4af0e	-0.096037015
8	0xbe010cd4	-0.1260255
9	0x3d3196ed	0.043356825
10	0xbd1fb5d7	-0.038991775
11	0x3e699ad2	0.22812966
12	0xbdb3ea2f	-0.08784901
13	0xbdaab3af	-0.08335053
14	0x3a79994f	0.0009521441
15	0xbde67b26	-0.112539575
16	0xbd5e7cc4	-0.054318205
17	0xbd561f24	-0.05227579
18	0x3e67e811	0.2264712
19	0xbe05c5c5	-0.13063724
20	0x3e07c079	0.13257016
21	0xbce0b0e0	-0.02742809
22	0xbd1eab64	-0.03873767
23	0x3dcc8498	0.09986228
24	0x3dd3861a	0.10328312
25	0x3e003c08	0.125229
26	0x3e0e3d3a	0.13890544
27	0xbd06c4d9	-0.032902572
28	0x3cdec96b	0.027195653
29	0x3d6ee2fc	0.058321938
30	0x3c986a87	0.018605484
31	0x3ddb89ac	0.10719618
32	0xbcd2aa35	-0.025715927
33	0x3da1acf8	0.07894319
34	0xbe435f11	-0.19079234
35	0xbd82011d	-0.063478686
36	0xbe314752	-0.17312363
37	0x3b4374bc	0.0029824218
38	0x3e1aeed7	0.15130173
39	0x3d0d64a5	0.03451981
40	0x3e5d693f	0.2162218
41	0xbe50c1ba	-0.20386401
42	0xbdad6daa	-0.084681824
43	0xbcfcafb3	-0.030845499
44	0xbcabd3c2	-0.020974997
45	0xbced37ad	-0.028957212
46	0xbd8f7f0a	-0.07006653
47	0x3ba9aa7a	0.005177793
48	0x3c32d7b1	0.010915683
49	0xbe3ea8a0	-0.18619013
50	0x3d0b2e44	0.03397967
51	0x3d5a5186	0.053300403
52	0x3d961c2c	0.07329592
53	0xbdc84653	-0.09779038
54	0x3d4d8131	0.050172035
55	0xbe5c0127	-0.21484815
56	0x3de2e589	0.110789366
57	0xbc8b5809	-0.017009752
58	0xbe2351e6	-0.1594921
59	0xbd2aef4e	-0.041732125
60	0xbe594877	-0.2121905
61	0x3d9be367	0.07611733
62	0xbcd0e220	-0.02549845
63	0x3c9c1ca1	0.01905662
64	0x3d9ac406	0.0755692
65	0xbc92496f	-0.017857281
66	0xbd7fd9f8	-0.06246373
67	0x3cec9cb8	0.028883323
68	0xbda65c45	-0.08123068
69	0x3e15c92b	0.1462752
70	0xbe8ee14f	-0.27906272
71	0x3db9358b	0.09043416
72	0xbd322c8b	-0.04349951
73	0xbdd9e981	-0.106402405
74	0xbcff316c	-0.031151496
75	0xbca60961	-0.020268144
76	0x3de17652	0.11008896
77	0x3cb9dce3	0.022688335
78	0xbc971c8a	-0.018446226
79	0x3e2dbfa4	0.16967636
80	0xbe049360	-0.12946844
81	0x3cbf05b7	0.023318155
82	0xbe0804a2	-0.13283017
83	0x3db62aa0	0.08894849
84	0xbe1d26f7	-0.15346895
85	0x3d870395	0.0659248
86	0xbd8462cf	-0.06464159
87	0xb9b2fee1	-0.00034140705
88	0x3d881005	0.066436805
89	0xbc58d203	-0.013233664
90	0x3cd227e9	0.025653796
91	0xbe0a191e	-0.13486144
92	0xbdd39400	-0.10330963
93	0x3e50f875	0.20407279
94	0xbe02e79b	-0.12783663
95	0xbda2ab8c	-0.07942876
96	0xbcc837c0	-0.024440646
97	0x3c9a681a	0.018848468
98	0xbc3177cb	-0.0108317835
99	0xbe0e5761	-0.1390052
100	0xbd02ac20	-0.031902432
101	0x3d9b1430	0.0757221
102	0x3d2edad8	0.042689174
103	0x3d90285a	0.070389464
104	0x39ec83f8	0.00045111752
105	0x3de43ac4	0.11144021
106	0xbd175440	-0.03694558
107	0xbd48e202	-0.049043663
108	0xbd27c5ba	-0.04096005
109	0x3c56db6a	0.013113836
110	0xbdf989c5	-0.121844806
111	0x3dc89694	0.097943455
112	0xbe230922	-0.15921453
113	0xbe13fe38	-0.14452446
114	0xbe58239a	-0.21107331
115	0x3e510f93	0.20416097
116	0xbd7ef739	-0.06224749
117	0x3dee4662	0.11634518
118	0x3d1af156	0.037827812
119	0xbc74ede5	-0.014949297
120	0x3d760f21	0.06007302
121	0x3dd009ac	0.10158095
122	0xbd72515a	-0.059159614
123	0xbdcc4b25	-0.0997527
124	0x3d368969	0.04456464
125	0x3ddf7db4	0.10912648
126	0x3d49dfdc	0.049285755
127	0xbe4b36ad	-0.19845076
128	0x3e77c987	0.2419797
129	0xbdf895fa	-0.12137981
130	0xbe025381	-0.12727167
131	0x3d7d3f69	0.06182805
132	0x3c983086	0.018577825
133	0xbd486799	-0.048926923
134	0xbceec4ef	-0.02914664
135	0x3cde6d7e	0.02715182
136	0xbd4d1302	-0.050066955
137	0x3e016741	0.12637044
138	0x3e27df4c	0.16393775
139	0xbd498dd6	-0.04920753
140	0x3d7034d2	0.058644123
141	0xbd2fbf84	-0.042907253
142	0x3ddb07aa	0.10694821
143	0x3d3b6cfa	0.045758225
144	0x3cdf721a	0.027276088
145	0xbdeee6a2	-0.116650835
146	0xbd49618d	-0.049165297
147	0xbd9ce7d8	-0.07661408
148	0x3e01b52d	0.1266677
149	0xbe3b9b80	-0.18321037
150	0x3d64e63c	0.05588363
151	0x3d9e692e	0.07734905
152	0x3cc5011f	0.024048386
153	0xbe195e2e	-0.14977333
154	0x3db03416	0.086036846
155	0xbc23f091	-0.010006086
156	0x3d257ab8	0.040400237
157	0xbe07c294	-0.1325782
158	0xbbc71f2a	-0.006076713
159	0x3c451ad3	0.012030321
160	0xbd8ba28f	-0.06818115
161	0x3e539c5c	0.20665115
162	0x3d679739	0.0565407
163	0xbdd3d650	-0.10343611
164	0xbcc561b6	-0.024094444
165	0x3e070389	0.13184942
166	0x3d02b0cb	0.031906884
167	0x3d87dc85	0.06633858
168	0x3ddbda65	0.10735015
169	0x3d006338	0.031344622
170	0x3dec97d6	0.11552398
171	0x3ca54f9a	0.020179559
172	0x3d0f3706	0.034964584
173	0x3c53685c	0.012903299
174	0x3da2b689	0.07944972
175	0x3df001a8	0.11719066
176	0x3dc5f5ad	0.096659996
177	0x3dc7b0ea	0.097505406
178	0x3e1755d1	0.1477883
179	0x3d73f7af	0.05956238
180	0xbd816861	-0.06318737
181	0xbcbe5aad	-0.023236597
182	0x3e199205	0.14997108
183	0x3de45582	0.11149122
184	0x3d3e9cfb	0.046536427
185	0x3c9fc1ee	0.019501653
186	0x3d77228f	0.060335692
187	0xbdc84f1e	-0.097807154
188	0x3d883210	0.06650174
189	0x3e2d3c42	0.16917518
190	0x3dc3782f	0.095444076
191	0x3d1407c5	0.036140222
192	0x3c0631bd	0.0081905695
193	0x3d235530	0.039876163
194	0x3d0cf297	0.03441104
195	0xbd1e1b6d	-0.038600374
196	0xbdc9a663	-0.09846189
197	0xbe0bca93	-0.13651495
198	0x3da613b1	0.081092246
199	0x3d52ee2b	0.051496666
200	0xbe08a8f7	-0.13345705
201	0xbe00bfa5	-0.12573107
202	0xbda4a032	-0.08038367
203	0xbdeb007d	-0.114747025
204	0x3d6464b6	0.055760108
205	0xbdb18a62	-0.086689726
206	0xbe0757ef	-0.13217138
207	0x3ca0bb66	0.019620609
208	0x3e479658	0.19490945
209	0xbdd81b0f	-0.10552036
210	0xbdba96aa	-0.09110768
211	0xbd2e1cf4	-0.04250808
212	0xbd7bc1d7	-0.061464157
213	0x3e2d2964	0.1691032
214	0x3b7fcfc2	0.0039033745
215	0x3c6cb3c1	0.014447154
216	0xbe06407b	-0.13110535
217	0x3ca96a37	0.02068053
218	0xbe31600d	-0.17321797
219	0x3d93d456	0.07218234
220	0xbe072a16	-0.13199648
221	0xbd82fe56	-0.06396167
222	0xbcfbbf13	-0.03073076
223	0x3e5cd824	0.21566826
224	0x3dab66ee	0.08369242
225	0xbdb588b3	-0.08863964
226	0xbcd81cdd	-0.02638095
227	0xbe16df2a	-0.14733568
228	0xbd1c03a5	-0.038089413
229	0xbd1b559a	-0.037923433
230	0x3d75b35e	0.05998551
231	0x3df267db	0.11836215
232	0xbde7a3de	-0.11310552
233	0xbdd33427	-0.10312682
234	0xbd501c6c	-0.050808355
235	0x3cfa2171	0.030533524
236	0xbe3f753b	-0.18697064
237	0xbcd0a693	-0.025470054
238	0xbcdc9572	-0.02692673
239	0xbe0bd71b	-0.13656275
240	0xbe78c9f1	-0.24295785
241	0xbbd6d3be	-0.0065560034
242	0x3e15460a	0.14577499
243	0x3da2466b	0.079235874
244	0x3d0332b3	0.032030772
245	0x3e095f1e	0.1341519
246	0xbd8683fa	-0.06568141
247	0x3e176e76	0.14788231
248	0xbe0e8024	-0.1391607
249	0xbcb81e06	-0.022475254
250	0x3e550bce	0.20805284
251	0x3dce76ae	0.1008123
252	0xbc96121b	-0.01831918
253	0x3c9a15d0	0.01880923
254	0x3e4156c4	0.18880755
255	0xbdbbe1bd	-0.091739155

network_body._body_endoder.seq_layers.0.bias f4 [128]
0	0x3da846f7	0.082166605
1	0x3d34669c	0.04404317
2	0x3d9cf021	0.076629885
3	0x3d975bdd	0.073905684
4	0x3d8b665f	0.06806635
5	0xbd03d766	-0.03218784
6	0x3db5a8db	0.08870097
7	0x3c886039	0.016647445
8	0x3da372a3	0.079808496
9	0xbc195a93	-0.0093599735
10	0xbc859c11	-0.01630977
11	0xba975d5d	-0.001154821
12	0x3d917e83	0.07104208
13	0x3cd176ee	0.025569405
14	0x3d5b7b3c	0.053584322
15	0x3c0561c2	0.008140983
16	0x3d6192ef	0.055071767
17	0x3cd43e61	0.02590865
18	0x3d111598	0.035420984
19	0x3d20e9a8	0.039285332
20	0x3cbcebc6	0.023061644
21	0xbc16c3b4	-0.009201933
22	0x3d2e4d99	0.04255447
23	0x3d1f167f	0.038839813
24	0x3de1c287	0.11023431
25	0x3dcc5a42	0.09978153
26	0x3df75f4b	0.120787226
27	0xbd21949d	-0.03944837
28	0x3d978e8e	0.07400237
29	0xbd521585	-0.051290054
30	0x3ce0a78a	0.027423639
31	0x3dc4f1c4	0.09616426
32	0x3cb3b7fc	0.021938317
33	0xbcd0847a	-0.025453795
34	0x3d997241	0.07492495
35	0x3df3cd70	0.119044185
36	0x3d136afd	0.035990704
37	0xbd211cec	-0.039334223
38	0x3d1a969b	0.037741285
39	0xbda50586	-0.08057694
40	0x3c8446be	0.016147014
41	0x3cf3f13e	0.02977812
42	0x3d42173d	0.047385443
43	0xbcb9e6a7	-0.022692991
44	0xbb2371c0	-0.0024939626
45	0x3db828b4	0.089921385
46	0x3d92727f	0.07150745
47	0xbba6732c	-0.0050796475
48	0x3dc14243	0.094364665
49	0x3db0eb27	0.08638602
50	0x3d9195d2	0.07108654
51	0x3d87289a	0.06599541
52	0x3d91125b	0.07083579
53	0x3d227e99	0.039671514
54	0x3d55c94b	0.05219392
55	0x3df13548	0.11777741
56	0x3dbb5491	0.09146989
57	0x3db57360	0.08859897
58	0xba983f6e	-0.0011615583
59	0x3cca43a1	0.024690451
60	0x3d939e89	0.072079726
61	0x3dc1b9cd	0.09459267
62	0x3db4be7d	0.08825395
63	0x3cad44bc	0.02115094
64	0x3d72da66	0.059290312
65	0xbd01c2b2	-0.031679817
66	0x3d841b7a	0.06450553
67	0x3dad884d	0.08473263
68	0x3cad939d	0.021188552
69	0xbd48bb0f	-0.049006518
70	0x3cd4c7dc	0.025974207
71	0x3d99e3a5	0.07514123
72	0x3b0970eb	0.0020971845
73	0x3ccac9c9	0.024754422
74	0xbc7ab9fd	-0.015303132
75	0xbd5f508a	-0.054520167
76	0x3d88180b	0.06645211
77	0x3d8461c4	0.0646396
78	0x3d855acc	0.06511459
79	0x3dbf981c	0.093551844
80	0x3dd39bc5	0.10332445
81	0x3d2e2fe7	0.042526152
82	0x3a92e596	0.0011207338
83	0xbd691305	-0.056902904
84	0x3dba860a	0.09107597
85	0xbc92fffc	-0.017944328
86	0x3dd0a16b	0.10187038
87	0x3d8998a8	0.0671857
88	0x3dbbbd35	0.09166948
89	0xbd164715	-0.036688883
90	0xbd4160e5	-0.047211546
91	0xbc2882e2	-0.010285111
92	0x3dc235ba	0.09482904
93	0x3d8b042c	0.06787905
94	0x3d22506d	0.03962748
95	0x3d0fa7e6	0.03507223
96	0x3dd4b1c5	0.10385469
97	0x3c8bc938	0.017063722
98	0x3d8e11dd	0.06937001
99	0x3d9ec13b	0.077516995
100	0x3dbacc91	0.09121049
101	0x3d3658ee	0.044518404
102	0x3d8c255b	0.068430625
103	0x3baa0bff	0.0051894183
104	0xbcbc844d	-0.023012305
105	0x3d1f69f5	0.038919408
106	0x3dedcacd	0.11610947
107	0x3c9a84e2	0.018862192
108	0xbbb2e5bc	-0.0054595154
109	0x3d52d52f	0.05147284
110	0x3dc01980	0.09379864
111	0x3d3ebb74	0.046565488
112	0x3d91b4a7	0.07114535
113	0x3d0f9aca	0.035059728
114	0x3c72d971	0.01482235
115	0x3dac591a	0.08415432
116	0x3d6ff3e8	0.058582217
117	0x3d984d30	0.07436597
118	0x3d573c13	0.052547526
119	0x3ce2151b	0.027597954
120	0x3d2ad638	0.0417082
121	0x3dd004d0	0.10157168
122	0x3d9d56fb	0.07682606
123	0x3d4add73	0.049527597
124	0x3ca324cd	0.019915009
125	0xbcf2e342	-0.02964938
126	0xbd72d61e	-0.05928623
127	0x3d39709a	0.0452734

network_body._body_endoder.seq_layers.2.weight f4 [128, 128]
0	0x3e1db8a1	0.15402462
1	0xbda6f83f	-0.08152818
2	0xbd77f0cb	-0.060532372
3	0xbe1b0ec2	-0.15142348
4	0x3d37ea94	0.044901446
5	0xbddbcef2	-0.10732831
6	0xbd52f6fa	-0.051505066
7	0xbda8b5e5	-0.08237819
8	0xbcc8f6fe	-0.024531838
9	0x3d3777f7	0.04479214
10	0x3dddb7b3	0.108260535
11	0xbda4e873	-0.08052149
12	0x3e17283e	0.14761445
13	0x3d0c1302	0.034197815
14	0xbcb14019	-0.02163701
15	0x3dc03645	0.09385351
16	0x3d84262c	0.06452593
17	0x3b53a825	0.0032296267
18	0x3ce50cf6	0.027960282
19	0x3d4d640b	0.050144237
20	0xbd75b1b2	-0.059983917
21	0xbd931b23	-0.0718291
22	0x3ced1dd5	0.02894489
23	0xbdbf977a	-0.09355064
24	0x3d8f67dc	0.070022315
25	0x3c8c9673	0.017161584
26	0xbd9a469c	-0.07532999
27	0x3de24f4a	0.110502794
28	0xbdd665de	-0.104686484
29	0x3d39cfdc	0.045364246
30	0xbaf35fa0	-0.0018567927
31	0xbd4de2b9	-0.050265048
32	0xbc101b3f	-0.0087955585
33	0xbd3bd736	-0.045859538
34	0xbd22ec07	-0.039775874
35	0xbe08fc78	-0.13377559
36	0x3c6a4bd0	0.014300302
37	0x3b9a9594	0.004717538
38	0xbe150439	-0.14552392
39	0xbbe33593	-0.006933877
40	0x3e37b5c8	0.17940438
41	0x3d405a69	0.04696122
42	0xbd894809	-0.06703193
43	0x3e0f55fd	0.13997646
44	0x3d949ea8	0.07256824
45	0xbd5d28ea	-0.053994097
46	0xbc103a27	-0.008802927
47	0x3d86222e	0.06549488
48	0xbd721b79	-0.05910823
49	0x3d9a5378	0.07535452
50	0xbddc433f	-0.10755014
51	0xbc4acbbe	-0.0123776775
52	0x3c5a9d0c	0.013343107
53	0xbcf0775c	-0.02935379
54	0x3d3f6ad3	0.046732735
55	0xbdac7953	-0.08421578
56	0xbd9d98e8	-0.0769518
57	0xbd8e4fc6	-0.06948809
58	0xbd5a4d9e	-0.053296678
59	0x3d66cf8b	0.056350272
60	0x3cac912c	0.021065317
61	0x3dbf3bcc	0.09337577
62	0xbdd813a8	-0.10550624
63	0xbe168018	-0.14697301
64	0x3d4a5306	0.049395584
65	0xbc40e63c	-0.011773642
66	0xbd7d968d	-0.061911155
67	0x3dd5abc4	0.10433152
68	0xbdcd365f	-0.10020136
69	0x3d214cfc	0.03938006
70	0xbe74606e	-0.2386491
71	0x3dd6ba89	0.104847975
72	0x3dfa6d3d	0.12227867
73	0x3d6ca5dc	0.057775363
74	0xbcc42842	-0.023944978
75	0x3d7bee2a	0.061506428
76	0x3c3b19fa	0.0114197675
77	0xbe1a1794	-0.15048057
78	0xbccd1684	-0.02503515
79	0x3d7b7e2b	0.06139962
80	0x3d230ae0	0.039805293
81	0x3d46eb8c	0.04856448
82	0x3e4a6a34	0.19767076
83	0xbe1b8afc	-0.15189737
84	0xbdf2a8f4	-0.118486315
85	0x3e04714c	0.12933844
86	0xbdd2a79e	-0.10285877
87	0x3dbc9d6e	0.09209715
88	0xbda7667f	-0.081738465
89	0x3c216c66	0.009852504
90	0xbe116406	-0.14198312
91	0xbd70a94a	-0.058755197
92	0xbe217217	-0.15766178
93	0xbe4c34a4	-0.19941956
94	0xbcd672ec	-0.026177846
95	0xbd040987	-0.03223565
96	0x3d75258d	0.059850264
97	0xbe2162cb	-0.15760343
98	0xbda61d47	-0.08111053
99	0xbda3ab82	-0.07991697
100	0xbd7cb7ce	-0.061698727
101	0xbcbca0f7	-0.023025973
102	0xbdf827c2	-0.12116958
103	0x3c9788d2	0.018497858
104	0xbc3435dd	-0.01099917
105	0xbe5b96ce	-0.21444246
106	0xbdf01d18	-0.11724299
107	0xbd4f56e8	-0.05061999
108	0x3daaa6ac	0.083325714
109	0xbdc9a665	-0.0984619
110	0xbdc812dd	-0.09769223
111	0x3d11e7f8	0.035621613
112	0x3d82fabd	0.06395481
113	0xbd861567	-0.06547051
114	0xbd91c190	-0.07116997
115	0xbe306288	-0.17225087
116	0xbdabe3f6	-0.083930895
117	0x3e0a4fa4	0.13506943
118	0x3c9095d3	0.017649567
119	0xbd2763a2	-0.0408665
120	0xbd0cd857	-0.034386005
121	0x3deeb633	0.116558455
122	0x3ca5fde1	0.02026266
123	0xbcf36003	-0.029708868
124	0xbd738d26	-0.05946078
125	0x3d83975f	0.06425356
126	0x3d74fde8	0.059812456
127	0x3e43d8a1	0.19125606
128	0x3cfc8e83	0.030829674
129	0xbe3491a9	-0.1763369
130	0x3db6f982	0.089343086
131	0x3e30bc9f	0.17259453
132	0xbe0a8432	-0.13526991
133	0xbb3e52b2	-0.002904099
134	0xbe226681	-0.15859415
135	0x3d0e7bbe	0.03478598
136	0xbd844102	-0.06457712
137	0x3be81538	0.0070826076
138	0xbe26c6f1	-0.16286828
139	0xbca681e4	-0.020325609
140	0xbe307c2e	-0.17234871
141	0xbcef1658	-0.029185459
142	0x3e03d2f8	0.12873447
143	0xbd117561	-0.035512332
144	0xbcf93ca7	-0.03042443
145	0x3dd3c23c	0.10339782
146	0x3dc4d8f0	0.0961169
147	0xbe1668eb	-0.1468846
148	0x3c52bf1b	0.012862946
149	0x3dc9e8cb	0.09858855
150	0xbd525fb2	-0.051360793
151	0x3dbb8d80	0.09157848
152	0xbdd4a47c	-0.103829354
153	0x3da1b696	0.07896154
154	0xbcab2212	-0.02089027
155	0x3dc30c48	0.09523827
156	0x3dcd3ff7	0.10021966
157	0x3dbab5e8	0.09116727
158	0xbddd4458	-0.10804051
159	0x3a1a907c	0.00058961636
160	0xbd0f3d27	-0.03497043
161	0x3cde1a11	0.027112039
162	0x3d46e283	0.048555862
163	0xbd16f026	-0.036850117
164	0x3d29bd22	0.041440137
165	0x3ceacaa2	0.028661076
166	0x3db4d657	0.088299446
167	0x3d81803e	0.063232884
168	0x3bc847fd	0.0061120973
169	0xbdd6e882	-0.10493566
170	0xbd1abf27	-0.037779953
171	0x3d06c109	0.032898936
172	0x3d0c5a7e	0.034265988
173	0xbd7f2ab5	-0.062296588
174	0x3bcd0900	0.0062571764
175	0x3d26bf8b	0.040710013
176	0x3dafdd9f	0.08587193
177	0x3ca9aae8	0.020711377
178	0xbd5daeef	-0.054121908
179	0x3e0a119a	0.13483277
180	0x3e036cf7	0.12834536
181	0x3bb3a09b	0.005481792
182	0xbd9b71d4	-0.0759007
183	0x3c79f3e3	0.015255901
184	0xbda471f3	-0.080295466
185	0x3dba4d25	0.090967454
186	0xbd31c9a3	-0.043405186
187	0x3d235d7a	0.039884068
188	0x3c1876e1	0.009305687
189	0x3d9be1a5	0.07611398
190	0xbd1b3db0	-0.037900627
191	0xbc6e80df	-0.014557092
192	0xbe617945	-0.22018917
193	0x3e19635a	0.14979306
194	0xbd1dd667	-0.038534548
195	0x3e41d20f	0.18927787
196	0xbcd57ce3	-0.026060527
197	0x3e4e4cc1	0.20146467
198	0x3e60415a	0.2189993
199	0x3cd9c33e	0.026582357
200	0xbdc29d79	-0.09502692
201	0xbd5f7f42	-0.054564722
202	0xbd584ea2	-0.052809365
203	0xbd421592	-0.047383852
204	0x3d72b908	0.05925849
205	0xbe1426ae	-0.1446788
206	0xbdf56102	-0.119813934
207	0x3d0c3488	0.034229785
208	0x3d01e358	0.031710953
209	0x3e023d37	0.12718664
210	0xbdfdbb29	-0.123892136
211	0x3cd026f7	0.025409205
212	0xbda1c1d5	-0.07898299
213	0xbd2160f0	-0.039399087
214	0x3db16468	0.08661729
215	0xbe00dff4	-0.12585431
216	0xbd910a15	-0.07082001
217	0x3da24fd9	0.07925386
218	0xbdcee23e	-0.10101746
219	0x3d6cc638	0.057806224
220	0x3de186ed	0.11012063
221	0xbcffb505	-0.031214247
222	0x3e041a24	0.12900597
223	0x3db284dc	0.08716747
224	0x3e1731bf	0.1476507
225	0x3e2e6903	0.17032246
226	0x3e2d0288	0.16895497
227	0x3e3970c0	0.18109417
228	0xbb6042a1	-0.0034219401
229	0x3d2edcbd	0.04269098
230	0x3cc13b12	0.023587737
231	0xbc43b1c9	-0.011944243
232	0xbdb2cd32	-0.08730544
233	0x3d8bcd59	0.06826276
234	0xbe1cb6ea	-0.15304151
235	0x3d66a712	0.056311674
236	0xbd498aa1	-0.049204472
237	0x3b618af8	0.0034415107
238	0x3df0e5b6	0.11762564
239	0xbc258886	-0.0101033505
240	0xbcc011f7	-0.023446066
241	0x3c3b5ce6	0.011435723
242	0xbde8ed4d	-0.113733865
243	0xbe27004c	-0.16308707
244	0xbda3c380	-0.07996273
245	0x3db0d9c5	0.08635286
246	0x3dd1bf0a	0.10241516
247	0x3c03ec8c	0.008052003
248	0xbdc0b25b	-0.094090186
249	0x3cba00de	0.022705492
250	0x3de95491	0.11393083
251	0xbd1e65bd	-0.038671244
252	0x3e115bcb	0.14195172
253	0xbd0bb445	-0.034107465
254	0x3b836ba9	0.004010637
255	0xbd406196	-0.046968065

network_body._body_endoder.seq_layers.2.bias f4 [128]
0	0xbd05948e	-0.032612376
1	0x3a7be39d	0.0009608807
2	0x3d80cfe5	0.06289653
3	0xbd769c31	-0.06020755
4	0x3a8521fb	0.0010157222
5	0xbd7372c7	-0.059435632
6	0xbca17a32	-0.019711588
7	0x3b849c5e	0.0040469607
8	0xbbd0c727	-0.006371397
9	0x3d09f782	0.033683307
10	0xbca01a4d	-0.019543791
11	0xbd4bc417	-0.049747553
12	0xbd5836ec	-0.052786753
13	0x3d7845ec	0.060613558
14	0x3c1534f9	0.009106868
15	0x3d19bdbd	0.037534464
16	0x3c227121	0.009914667
17	0xbd1baf35	-0.038008887
18	0x3dab2bd0	0.08357966
19	0xbd7a0e51	-0.06104881
20	0xbda55698	-0.08073157
21	0x3c8481b8	0.016175136
22	0x3d44b138	0.04802057
23	0x3d810a87	0.06300836
24	0x3c9491fa	0.018136013
25	0x3d7b7c7b	0.06139801
26	0x3dbdb376	0.09262745
27	0x3d7f14d2	0.062275715
28	0xbd559537	-0.052144255
29	0x3bffa7a9	0.007801969
30	0x3ca458ab	0.020061811
31	0xbc76d618	-0.015065692
32	0x3b38e8c5	0.0028214913
33	0xbacfc846	-0.0015852533
34	0xbd77dd73	-0.060513925
35	0x3d16c01c	0.036804304
36	0x3d8761cc	0.0661045
37	0x3d42810a	0.047486342
38	0xbc7eb28d	-0.0155454995
39	0x3d23442b	0.039859932
40	0xbceefaf7	-0.029172404
41	0x3cef2412	0.029192004
42	0x3d2d1f78	0.04226634
43	0xbd7e09ae	-0.06202095
44	0x3cc0d523	0.023539132
45	0xbd1d2406	-0.038364433
46	0xbd1c17e8	-0.038108736
47	0x3c912387	0.017717136
48	0xbc981605	-0.018565187
49	0x3d9381da	0.072025016
50	0xbd28d18a	-0.041215457
51	0xbd5651ac	-0.052323982
52	0x3c216df6	0.009852877
53	0x3d8deb1c	0.06929609
54	0x3d85c9d4	0.06532636
55	0x3ccdf16b	0.025139531
56	0x3c8dfb1d	0.017331654
57	0xbd231b8c	-0.039821193
58	0x3d367b7a	0.04455135
59	0x3d4c738a	0.049914874
60	0xbd8f6337	-0.070013456
61	0x3bec7ad9	0.007216793
62	0xbdb7a6e0	-0.08967376
63	0xbbbf2c84	-0.005834164
64	0xbaf91285	-0.0019002712
65	0x3dbcd0d1	0.09219516
66	0x3dcaf4bc	0.09909961
67	0xbd9701b3	-0.07373371
68	0x3ddbdb44	0.10735181
69	0xbcdcf3ee	-0.026971783
70	0x3db89fe0	0.09014869
71	0x3d7bf123	0.061509263
72	0x3cd33be5	0.025785396
73	0x3bdee715	0.0068024495
74	0x3c902cdf	0.017599521
75	0x3caa8c83	0.020818954
76	0xbc80ec78	-0.015737757
77	0x3d2091f6	0.0392017
78	0x3c441019	0.011966729
79	0x3d5cf898	0.053948015
80	0x3be1b7e1	0.006888375
81	0x3cd93295	0.026513377
82	0xbc51250f	-0.012765183
83	0x3d9b4aac	0.07582602
84	0x3c82aaa0	0.015950501
85	0x3d9dc183	0.07702925
86	0x3dd2a107	0.1028462
87	0x3d359270	0.044329107
88	0xba707928	-0.0009173327
89	0xbd7502d0	-0.059817135
90	0xbda374e3	-0.07981279
91	0x3d1b8c6f	0.037975725
92	0xbd8ec9cc	-0.069720834
93	0xbce5d467	-0.028055383
94	0x3d350fb1	0.044204418
95	0x3d802d29	0.062586136
96	0xbd152aeb	-0.036417883
97	0xbd54cf8f	-0.051955756
98	0x3c88fa4c	0.016720913
99	0x3cd52aad	0.026021326
100	0xbce80115	-0.028320828
101	0x3d127937	0.03576013
102	0xbc9e5302	-0.01932669
103	0x3c03ebf7	0.008051864
104	0x3da51672	0.08060922
105	0x3bbfb438	0.005850341
106	0x3d8fad99	0.07015533
107	0xbd6d5662	-0.05794371
108	0x3db0a3dc	0.08625004
109	0xbd6036af	-0.05473965
110	0xbd719d7d	-0.058988083
111	0xbd4ed803	-0.050498974
112	0x3bdc40e8	0.0067216046
113	0x3da0518e	0.07828055
114	0xbc0c5374	-0.008564819
115	0x3daf5702	0.08561517
116	0x3d667008	0.056259185
117	0x3d20633b	0.039157134
118	0x3d4a06ed	0.04932301
119	0x3c343bf2	0.01100062
120	0x3d5b6502	0.053563125
121	0x3d421b6d	0.047389437
122	0xbd83c2d0	-0.06433642
123	0xbd1605ce	-0.03662663
124	0x3d63aae0	0.05558288
125	0xbd56ace0	-0.05241096
126	0xbcec5e56	-0.028853577
127	0x3b3942ce	0.0028268578

action_model._continuous_distribution.log_sigma f4 [1, 5]
0	0x3d9b485e	0.07582162
1	0x3b95f02c	0.00457575
2	0x3cc3adfd	0.023886675
3	0x3d93c9e4	0.07216242
4	0xbe4dc208	-0.20093548

action_model._continuous_distribution.mu.weight f4 [5, 128]
0	0x3d4c45fc	0.04987143
1	0xbd925643	-0.07145359
2	0xbd4b384b	-0.049614232
3	0x3c7ce8da	0.0154363755
4	0x3ca06617	0.01957993
5	0x3d1f053c	0.03882335
6	0x3c3e25f2	0.011605727
7	0xbd0bef53	-0.034163784
8	0x3cdcdd9a	0.026961137
9	0xbd6c6c51	-0.057720486
10	0x3d490332	0.049075313
11	0x3cb91f4a	0.022597928
12	0xbc63b70b	-0.013898621
13	0xbdc1de9f	-0.0946629
14	0x3db2238a	0.08698185
15	0xbd77f4d1	-0.06053621
16	0x3c45fee3	0.0120846955
17	0xbb8d1813	-0.0043058484
18	0x3d10d481	0.03535891
19	0x3d2aceb4	0.041701034
20	0x3d1281f1	0.035768453
21	0x3be9b120	0.0071317106
22	0xbc60684b	-0.01369674
23	0xbdabb489	-0.08384044
24	0x3d0d72b9	0.034533236
25	0xbd369a9c	-0.04458104
26	0xbcb5f4dc	-0.022211485
27	0x3c3d5ff4	0.011558522
28	0xbcf08a2a	-0.029362757
29	0x3ccb129b	0.024789145
30	0xbdb83747	-0.08994918
31	0xbcc4a38c	-0.024003766
32	0x3d2e2407	0.042514827
33	0xbc85c536	-0.016329389
34	0x3d6efc3d	0.058346022
35	0xbccb3e36	-0.024809938
36	0xbca6628e	-0.020310666
37	0x3d3b807b	0.045776825
38	0xbda2c242	-0.07947208
39	0x3cd0d6f5	0.025493124
40	0xbc1f8148	-0.009735413
41	0xbc786592	-0.015160935
42	0xbd4249c1	-0.04743362
43	0x3d0345cf	0.032048997
44	0x3b800a96	0.003907512
45	0x3c98c461	0.018648328
46	0xbd0a6bd6	-0.033794247
47	0xbd103493	-0.03520639
48	0x3935e866	0.0001734808
49	0xbce27282	-0.027642492
50	0x3da2d2ff	0.079504006
51	0xbc827205	-0.01592351
52	0x3d607257	0.054796543
53	0xbc2025c2	-0.009774627
54	0xbcedfa44	-0.02905
55	0x3b9e3eae	0.0048292493
56	0xbd0f379a	-0.034965135
57	0x3d957d21	0.07299257
58	0xbc20053c	-0.009766873
59	0xbc8eb05b	-0.017418077
60	0x3d97a2a4	0.07404068
61	0xbcca26f0	-0.02467677
62	0x3c73fe61	0.014892192
63	0xbc93a162	-0.01802129
64	0xbd1249d5	-0.035714943
65	0xbce0f3fb	-0.027460089
66	0xbca1ad70	-0.019736022
67	0x3d70b91d	0.058770288
68	0xbd698bb6	-0.057018004
69	0xbd023e7e	-0.03179788
70	0xbd02871f	-0.031867143
71	0xbda2bcc5	-0.07946161
72	0x3cc196a5	0.023631403
73	0x3d357658	0.044302315
74	0xbc64857e	-0.013947843
75	0x3d1d8203	0.038454067
76	0x3d83b7a8	0.06431514
77	0xbb9456b6	-0.0045269383
78	0x3cfb52eb	0.030679187
79	0xbd503f5e	-0.05084168
80	0x3d04692b	0.03232686
81	0x3d6123a1	0.05496562
82	0xbcfe1e31	-0.031020256
83	0x3d292061	0.041290645
84	0x3cbf7e19	0.023375558
85	0xbd2d3808	-0.042289764
86	0x3c68e2ee	0.0142142605
87	0x3c8bfefd	0.017089361
88	0xbc906da8	-0.017630413
89	0x3baeca9c	0.0053342115
90	0x3d21f96b	0.039544504
91	0x3d8e7abc	0.069570035
92	0x3d0124cd	0.031529237
93	0xbb519dd5	-0.0031984944
94	0xbc13d3c2	-0.009022655
95	0xbd1bca55	-0.038034756
96	0x3d51a7e6	0.05118551
97	0xbd1601ed	-0.03662293
98	0xbc2f5681	-0.0107017765
99	0x3d211afb	0.03933237
100	0x3d4ecd8d	0.050488997
101	0xbbfb769b	-0.007674051
102	0xbcab8270	-0.02093622
103	0x3cceab2e	0.02522811
104	0xbd215320	-0.039385915
105	0x3bcf290d	0.0063220323
106	0x3cd71319	0.026254224
107	0xbbf8b493	-0.0075898855
108	0xbcb4ebac	-0.022085033
109	0x3cdc8c15	0.026922265
110	0x3be0958e	0.006853766
111	0x3d39fd4b	0.045407575
112	0x3cea8994	0.028630055
113	0xbd176422	-0.03696073
114	0xbc8efa7a	-0.01745342
115	0xbd0c32c7	-0.034228113
116	0x3d2257fa	0.039634682
117	0xbd0c5e07	-0.03426936
118	0xbb17c26a	-0.0023156651
119	0xbcc15f67	-0.023605062
120	0xbd08c597	-0.03339156
121	0x3d92c4cf	0.071664445
122	0x3c5efcf0	0.01361011
123	0x3d044d97	0.032300558
124	0xbcdeea59	-0.027211355
125	0x3c5a660a	0.013329992
126	0xbceaa467	-0.028642846
127	0x3d6f69d8	0.05845055
128	0xbd9e3bd7	-0.07726257
129	0x3cf9c9ad	0.030491674
130	0x3d9adcb1	0.07561625
131	0x3cf56f3b	0.029960265
132	0xbd5dd436	-0.05415746
133	0x3b53f14f	0.0032339876
134	0xbd595313	-0.05305774
135	0x3d719cfe	0.05898761
136	0x3d4913e1	0.049091224
137	0xbccbe19a	-0.024887849
138	0x3c0b01f1	0.00848435
139	0x3db85a9e	0.09001659
140	0x3c0310e5	0.007999633
141	0xbd182b2e	-0.037150554
142	0xbc64aadf	-0.0139567545
143	0xbb157f87	-0.0022811608
144	0xbac79bbd	-0.0015228909
145	0x3d273f61	0.040831927
146	0x3b548ae9	0.003243143
147	0xbba0199f	-0.004885867
148	0xbc72483a	-0.014787728
149	0xbdc8b919	-0.098009296
150	0xbc88f099	-0.016716288
151	0xbc0685a7	-0.008210576
152	0xbd13bb3b	-0.03606723
153	0x3da72807	0.081619315
154	0x3c3ca60d	0.011514199
155	0xbd2f8d0c	-0.042859122
156	0xbd2927aa	-0.041297592
157	0xbbd6956e	-0.006548575
158	0x3ccfbc24	0.025358267
159	0xbc44b7be	-0.012006698
160	0x3b7444e8	0.0037272517
161	0x3cb17b1f	0.021665154
162	0x3d628603	0.055303585
163	0x3c94fd7c	0.018187277
164	0xbd1741d2	-0.036928006
165	0xbdd50aa4	-0.1040242
166	0x3d1c014b	0.03808717
167	0xbca6cd0f	-0.020361451
168	0x3d02251e	0.03177368
169	0x3d2609a6	0.040536545
170	0xbbdd2a29	-0.0067494106
171	0x3a8323a0	0.0010005124
172	0xbc8c9029	-0.017158585
173	0xbd86388e	-0.06553756
174	0x3c8c65d3	0.017138397
175	0x3d0de8e5	0.034645934
176	0x3bce8adb	0.006303174
177	0x3d13b4b4	0.036061004
178	0xbc9e10a7	-0.01929505
179	0xbd1aec17	-0.03782281
180	0xbcbb918b	-0.022896549
181	0xbd9d3f7c	-0.07678124
182	0xbd4b3403	-0.04961015
183	0x3d833f6c	0.06408581
184	0xbd03df6d	-0.032195497
185	0xbbf00f42	-0.0073260376
186	0xbbe44e86	-0.0069673685
187	0x3c299771	0.010351048
188	0x3d240492	0.04004342
189	0xbc5b621b	-0.013390089
190	0x3cdbec02	0.026845936
191	0x3da4f7a6	0.08055048
192	0x3dc5c096	0.096558735
193	0x3c9bbd43	0.019011145
194	0xbd74ccfe	-0.05976581
195	0x3b8b75fc	0.004256008
196	0xbd61f02f	-0.055160698
197	0x3ca6279a	0.020282555
198	0xbd267042	-0.0406344
199	0x3cf12f23	0.029441422
200	0x3cc2a2f5	0.023759345
201	0x3cf8a5f9	0.03035258
202	0xbd2e244e	-0.04251509
203	0xbc9b1c6d	-0.018934453
204	0x3c71a8a5	0.014749681
205	0x3db1b332	0.08676757
206	0x3d1005a5	0.035161633
207	0xbd9193e6	-0.071082875
208	0xbd3c541b	-0.045978647
209	0xbd5e5119	-0.05427656
210	0xb92cd1c4	-0.00016481342
211	0x3c4e8126	0.012604034
212	0xbd655936	-0.05599328
213	0x3d6f10bd	0.058365572
214	0xbd748744	-0.05969931
215	0x3b7967d2	0.0038056266
216	0x3d14808c	0.036255404
217	0x3d2e0ce9	0.04249278
218	0xbc3246fc	-0.010881182
219	0xbb105772	-0.0022024778
220	0x3c0ba3a1	0.008522899
221	0xbd9d7cbf	-0.07689809
222	0x3c7855e7	0.015157199
223	0xbcc5a984	-0.024128683
224	0xbd5c142b	-0.05373017
225	0x3c6e9d4a	0.014563868
226	0xbc6ba25b	-0.01438197
227	0xbd5ab20b	-0.05339245
228	0xbc7d1751	-0.015447454
229	0x3ce3d2da	0.027810503
230	0x3d677c13	0.05651481
231	0xbd7d2a53	-0.06180794
232	0xbd6e7f8b	-0.058227103
233	0x3c050590	0.008119002
234	0x3c9b136f	0.018930165
235	0x3d0d5771	0.03450722
236	0xbd1c77e7	-0.038200285
237	0xbbaba8a8	-0.0052386113
238	0xbc133d30	-0.008986756
239	0x3d4052a8	0.046953827
240	0xbcc1348b	-0.023584625
241	0xbd425d8b	-0.04745249
242	0xbc24b405	-0.010052686
243	0xbcc2b275	-0.023766736
244	0x3c3a4709	0.011369475
245	0x3ca7d712	0.020488296
246	0x3d5cd2ab	0.053911846
247	0xbcd4a7d1	-0.025958927
248	0x3d0826b6	0.033240043
249	0xbd86f7ee	-0.065902576
250	0xbc59269c	-0.013253834
251	0x3cfd7a11	0.030941995
252	0x3d25b8ce	0.040459447
253	0x3d56d952	0.052453347
254	0xbd5dbe65	-0.054136652
255	0xbdad3497	-0.08457296

action_model._continuous_distribution.mu.bias f4 [5]
0	0xbcf52056	-0.029922646
1	0x3a1eb4ad	0.00060541445
2	0xbd19786f	-0.03746837
3	0x3c57d635	0.0131736295
4	0xbda58fa5	-0.08084039

exp_avg f4 [128, 93]
0	0x374e62ab	1.230153e-05
1	0x35bd8350	1.4119814e-06
2	0xb692bd43	-4.373172e-06
3	0x3951b1a7	0.00019997974
4	0x38dbfe31	0.000104900806
5	0xb8951d7d	-7.110366e-05
6	0xb6909a57	-4.309502e-06
7	0x393b7edf	0.00017880973
8	0xb93173f9	-0.00016923239
9	0x39087224	0.00013012491
10	0xb6936ed4	-4.3938435e-06
11	0x3989b5ed	0.00026266222
12	0x36a602ae	4.9474975e-06
13	0xb8ce5fba	-9.840676e-05
14	0xb68f8283	-4.2769257e-06
15	0x35fb1ca6	1.8709295e-06
16	0x388d0a66	6.725341e-05
17	0xb906b7ab	-0.00012847657
18	0xb6969480	-4.487636e-06
19	0x399e47be	0.0003018956
20	0xb8858744	-6.3671294e-05
21	0xb77538a3	-1.4616325e-05
22	0xb689f6f2	-4.1116664e-06
23	0xb91e4549	-0.00015093865
24	0x39238c8c	0.00015597249
25	0xb91e6f31	-0.00015109476
26	0xb6952f8e	-4.446082e-06
27	0x39990381	0.00029185045
28	0x377a19df	1.4907185e-05
29	0x382e6901	4.1582625e-05
30	0xb68cf3dc	-4.200714e-06
31	0xb88dd0ae	-6.7622736e-05
32	0x387aa48c	5.975789e-05
33	0xb8a1ba5e	-7.711792e-05
34	0xb697f4ff	-4.528672e-06
35	0x394b9361	0.00019414492
36	0xb9d4f333	-0.0004061699
37	0x39e49876	0.0004360114
38	0xb69098f0	-4.3093387e-06
39	0xb918791f	-0.00014540971
40	0x36a3b8da	4.879298e-06
41	0xb6fead5b	-7.589971e-06
42	0xb698fbdc	-4.5592733e-06
43	0xb8a0d807	-7.669633e-05
44	0xb86612b5	-5.4853695e-05
45	0xb818cb76	-3.642911e-05
46	0xb6969715	-4.4879366e-06
47	0xb88d29e3	-6.731206e-05
48	0x35575a57	8.0225203e-07
49	0x3828b66a	4.0224208e-05
50	0xb6963a6e	-4.4771505e-06
51	0xb852b13b	-5.023296e-05
52	0xb82209fd	-3.8633112e-05
53	0xb767bf09	-1.3813152e-05
54	0xb69d5807	-4.6892123e-06
55	0xb8b7b8f9	-8.760574e-05
56	0xb9a673fc	-0.00031748402
57	0x39b165e1	0.00033835977
58	0xb69aac28	-4.6095993e-06
59	0xb96d596e	-0.00022635396
60	0xb7acd597	-2.0603458e-05
61	0xb7ece25e	-2.8238803e-05
62	0xb6a567fb	-4.929488e-06
63	0xb8163a7f	-3.5817266e-05
64	0xb83afb9c	-4.4580185e-05
65	0x37d4bf08	2.5361325e-05
66	0xb69e02b2	-4.7090807e-06
67	0xb984513e	-0.00025237532
68	0xb93538ec	-0.0001728271
69	0xb6cb7196	-6.0630946e-06
70	0xb8004977	-3.0585998e-05
71	0x38181601	3.6260117e-05
72	0xb88e5f6f	-6.7888635e-05
73	0xb891877d	-6.9393755e-05
74	0xb7d187fb	-2.4978062e-05
75	0x38c34db6	9.3127994e-05
76	0xb8540d79	-5.0557286e-05
77	0xb803c927	-3.142017e-05
78	0xb8203c5b	-3.8203183e-05
79	0x37ce1758	2.4567984e-05
80	0x38ada205	8.279461e-05
81	0xb6acc485	-5.1488773e-06
82	0xb8a01ae7	-7.6344055e-05
83	0x383ee71d	4.551477e-05
84	0xb7eaef12	-2.80063e-05
85	0x38b18ddf	8.466443e-05
86	0xb88fb6d9	-6.8528294e-05
87	0x38bd911d	9.039252e-05
88	0xb88df66d	-6.769304e-05
89	0xb9117a60	-0.00013873866
90	0xb911d3b1	-0.00013907139
91	0xb89f169f	-7.585924e-05
92	0x392f98ad	0.00016746177
93	0x3796973f	1.7951823e-05
94	0xb76c8847	-1.4098426e-05
95	0x358adf2a	1.034675e-06
96	0x37c4ca97	2.3459359e-05
97	0xb88fc5bc	-6.855602e-05
98	0x38b5f12d	8.675675e-05
99	0x3588df16	1.0197716e-06
100	0x383c204a	4.4852764e-05
101	0xb4ec2922	-4.3988354e-07
102	0x37638eb0	1.3563476e-05
103	0x358b7ab5	1.039202e-06
104	0x38418fde	4.6148773e-05
105	0x37b355da	2.137844e-05
106	0x38b0c17c	8.428373e-05
107	0x3587c5a6	1.0115807e-06
108	0x35a31af3	1.215229e-06
109	0xb8b143ae	-8.452624e-05
110	0x3922fdda	0.00015544091
111	0x358e830f	1.0617968e-06
112	0x38200c9d	3.815872e-05
113	0xb929d8d6	-0.00016197874
114	0x37529467	1.2551528e-05
115	0x3582831d	9.723914e-07
116	0xb80a69b6	-3.3000215e-05
117	0xb89a25f3	-7.350361e-05
118	0x3836edd1	4.3613665e-05
119	0x358d3c30	1.0522836e-06
120	0xb7b76562	-2.186251e-05
121	0xb8d072d2	-9.9396e-05
122	0xb767278e	-1.37778825e-05
123	0x35856059	9.937313e-07
124	0xb8ea6a74	-0.00011177818
125	0x38aec0a1	8.3328465e-05
126	0xb802414a	-3.105522e-05
127	0x358fcc31	1.0713758e-06
128	0xb897ec4e	-7.244256e-05
129	0x3833f25b	4.2902637e-05
130	0xb7e1d69a	-2.6922022e-05
131	0x3588e528	1.0199483e-06
132	0x38944735	7.070453e-05
133	0x38184b8e	3.630999e-05
134	0xb71422fb	-8.829632e-06
135	0x3590cc97	1.078838e-06
136	0xb84e1c8b	-4.914081e-05
137	0x391131ec	0.00013846875
138	0x3742eb19	1.1618039e-05
139	0x358e9100	1.0622025e-06
140	0xb4bf02bf	-3.557852e-07
141	0xb9ca859f	-0.00038627998
142	0x3992fadf	0.00028034204
143	0x358e341b	1.0594989e-06
144	0xb914fc5d	-0.00014208393
145	0x38bb3824	8.927312e-05
146	0x35dc5669	1.6416426e-06
147	0x3594f34f	1.1097671e-06
148	0xb85b1637	-5.2234358e-05
149	0x3956d4c9	0.00020487899
150	0xb99291b4	-0.00027955847
151	0x359269d1	1.0908644e-06
152	0x38fa9e4b	0.00011950413
153	0x38a51def	7.873389e-05
154	0xb7a37c74	-1.9489067e-05
155	0x359c931b	1.1665719e-06
156	0xb6939893	-4.3987034e-06
157	0x37bced1f	2.2521765e-05
158	0xb7b919a5	-2.206566e-05
159	0x35958d8b	1.114256e-06
160	0x37db66e2	2.6154743e-05
161	0xb8e64f95	-0.00010982078
162	0x35b012ef	1.3118532e-06
163	0x3864e11a	5.456908e-05
164	0x38907ca6	6.889673e-05
165	0xb8d5838b	-0.00010181133
166	0xb7a72207	-1.9923797e-05
167	0xb8112597	-3.4605702e-05
168	0x35650f22	8.533117e-07
169	0xb8d05aae	-9.935103e-05
170	0x38b1f743	8.486074e-05
171	0x3815b6fd	3.569479e-05
172	0x38bfe50f	9.150255e-05
173	0xb8cfac11	-9.902579e-05
174	0xb6671cb4	-3.443839e-06
175	0xb87b5e9e	-5.9931182e-05
176	0xb907a9fc	-0.00012937927
177	0xb8e2c89c	-0.00010813886
178	0xb78cf518	-1.6803431e-05
179	0x38dba418	0.000104732986
180	0x3865aa87	5.475667e-05
181	0x389a4061	7.355284e-05
182	0xb82b12a5	-4.078694e-05
183	0xb70e2c38	-8.474155e-06
184	0xb90a214c	-0.0001317311
185	0x38404873	4.584384e-05
186	0x37fe477d	3.0312449e-05
187	0x389d0da3	7.4888834e-05
188	0xb6adc893	-5.1791517e-06
189	0x388ff2c1	6.863988e-05
190	0xb77af26a	-1.4957603e-05
191	0x378536f3	1.5880423e-05
192	0xb6ab3eed	-5.1035227e-06
193	0x3804ef4f	3.1694126e-05
194	0x35b84935	1.3730374e-06
195	0xb6c46118	-5.8525584e-06
196	0xb6ae9f32	-5.204137e-06
197	0x38c19adf	9.231804e-05
198	0xb9b4b7d1	-0.0003446923
199	0x388afea5	6.627784e-05
200	0xb6a9f64c	-5.065265e-06
201	0xb902b888	-0.0001246651
202	0xb99512d7	-0.0002843353
203	0x38ef9ea1	0.00011425955
204	0xb6b2588b	-5.315121e-06
205	0x38a78a82	7.9889796e-05
206	0xb925aa9a	-0.0001579918
207	0xb72aa77e	-1.0171787e-05
208	0xb6a364b6	-4.869503e-06
209	0xb924315e	-0.0001565865
210	0xb9394f82	-0.00017672594
211	0xb806f5b8	-3.2176933e-05
212	0xb6b0b33f	-5.2660757e-06
213	0x38c06fb4	9.17608e-05
214	0xb90b982a	-0.00013312759
215	0xb85dc725	-5.2875974e-05
216	0xb6a6edec	-4.9748833e-06
217	0xb9564837	-0.00020435532
218	0xb9399f5f	-0.00017702345
219	0xb77604d5	-1.4663868e-05
220	0xb6b3f920	-5.3636177e-06
221	0x39191168	0.00014597701
222	0xb988c283	-0.00026084864
223	0x399f83d0	0.0003042505
224	0xb6ab3f36	-5.103556e-06
225	0xb9420bf9	-0.00018505742
226	0xb91e4c51	-0.00015096484
227	0x3713b640	8.804316e-06
228	0xb6b52f98	-5.399761e-06
229	0x38be76be	9.0820235e-05
230	0xb89bb63a	-7.424918e-05
231	0xb64f07d3	-3.0849958e-06
232	0xb6b25851	-5.3150948e-06
233	0xb8e68052	-0.00010991156
234	0xb8a506d9	-7.8690886e-05
235	0xb85fa068	-5.3316733e-05
236	0xb6b1eeb0	-5.302798e-06
237	0x382fcdd8	4.191496e-05
238	0xb87a410b	-5.966522e-05
239	0xb7813335	-1.5401843e-05
240	0xb6ba5a04	-5.553711e-06
241	0xb926102c	-0.00015837018
242	0xb91b237a	-0.00014795168
243	0x39208132	0.00015306918
244	0xb6b730ec	-5.4595203e-06
245	0x3675ed25	3.6645881e-06
246	0xb882aca2	-6.2310384e-05
247	0xb799b07d	-1.8321205e-05
248	0xb6c3e67d	-5.8382852e-06
249	0xb77d8a34	-1.5112153e-05
250	0xb8819be4	-6.180236e-05
251	0x388f7963	6.8413814e-05
252	0xb6bb21dc	-5.576976e-06
253	0xb8892911	-6.540318e-05
254	0xb92d12bc	-0.00016505545
255	0xb6f87475	-7.4045333e-06
