Assets/results/Coin_Shooter_New/CoinChaser/CoinChaser-999953.pt (torch, 726233 bytes, 60 tensors)

network_body.observation_encoder.processors.0.normalizer.running_mean f4 [68]
00000000: 0357 783f 40b5 523b 1236 dc39 1bf5 5e3e
00000010: 810e 793f 4124 263b 3704 d839 e8e2 613e
00000020: b3b1 773f 6d40 4e3b 93e1 df39 8c52 5b3e
00000030: 4539 783f 54e5 053b 3d04 d839 15df 613e
00000040: dfc6 773f 7da3 3b3b 69cb e839 c2f1 593e
00000050: a451 743f d6ae 063b 6d49 c839 1b56 5f3e
00000060: c966 783f 86ec 2e3b 4ab5 f139 983c 5c3e
00000070: 68fb 6a3f b0d5 1c3b 4f33 d139 0d32 5a3e
00000080: 3753 793f 588f 153b 31dd ff39 ff79 603e
00000090: 3539 5c3f 5f89 413b bbf7 d639 e04d 523e
000000a0: ad48 7a3f 1fed 0b3b d5d0 023a 0e0f 653e
000000b0: 361c 4f3f ca2d 3b3b b009 ee39 5093 4a3e
000000c0: 766d 7a3f 680c 1c3b df74 003a 2860 683e
000000d0: 2ca5 493f fcd9 1b3b 0ffb 003a a490 473e
000000e0: aa62 783f 68f8 333b f12c 053a 34d4 693e
000000f0: 3440 4b3f f02b 0d3b ca45 073a ea34 493e
00000100: 2a18 743f 1c80 473b dee4 093a 03b1 693e
0.9700777 0.003215149 0.00042001955 0.21773188 0.97287756 0.00253512 0.0004120187 0.22059214
0.9675552 0.0031471506 0.0004270194 0.21418208 0.96962386 0.002043088 0.00041201888 0.22057755
0.9678783 0.0028631382 0.0004440204 0.2128363 0.95437074 0.0020550988 0.0003820168 0.2181019
0.9703184 0.0026691272 0.00046102173 0.2150749 0.91789865 0.0023931079 0.00039901814 0.21308155
0.973926 0.0022821035 0.0004880219 0.21921538 0.8602479 0.0029531342 0.00041001834 0.2053752
0.97767144 0.0021351052 0.0004990225 0.22369024 0.8090242 0.0028561228 0.00045402115 0.19782758
0.97823274 0.0023811106 0.00049002277 0.2269293 0.7876766 0.0023781052 0.0004920223 0.1948877
0.9702555 0.0027461294 0.0005080244 0.22834855 0.7939484 0.0021541081 0.00051602407 0.19649091
0.9534937 0.003044135 0.0005260239 0.22821431

network_body.observation_encoder.processors.0.normalizer.running_variance f4 [68]
00000000: 26c1 e246 125e 4845 2166 d243 480b 4a46
00000010: 6219 ce46 c01d 1e45 ca67 ce43 0134 5346
00000020: a23c f546 5a25 4445 39e4 d543 b1f3 4246
00000030: 9118 e646 94f9 fe44 1267 ce43 738e 5a46
00000040: 68e6 f246 3b7c 3245 775f de43 4356 4046
00000050: d81c 2a47 d83b 0045 6f68 bf43 3c24 6346
00000060: b105 e146 e56c 2645 f8dc e643 7069 4446
00000070: 382f 9347 0946 1545 bce8 c743 d45f 6c46
00000080: 6e5e c646 705d 0e45 2a63 f443 81ab 4c46
00000090: 1ecd ea47 3f14 3845 dc67 cd43 9645 7246
000000a0: 558e aa46 2d37 0545 2ae3 f943 e152 5846
000000b0: c5e0 1648 e80c 3245 4e5d e343 5c56 7146
000000c0: 4a67 a646 f186 1445 5f64 f543 cb1f 6746
000000d0: 1851 2348 2357 1445 a760 f643 36fe 7546
000000e0: 796e e146 3536 2b45 b166 fe43 3f17 7746
000000f0: 36c1 1f48 4b63 0645 b233 0144 f4b4 8046
00000100: a533 2d47 83bd 3d45 09b1 0344 3554 8446
29024.574 3205.8794 420.79788 12930.82 26380.691 2529.8594 412.81085 13517.001
31390.316 3138.3345 427.783 12476.923 29452.283 2039.7993 412.80524 13987.612
31091.203 2855.7644 444.74582 12309.565 43548.844 2051.7402 382.8159 14537.059
28802.846 2662.806 461.72632 12570.359 75358.44 2388.3772 399.81824 15127.957
25391.215 2277.8398 488.77472 13098.876 120218.234 2945.2654 410.8114 15505.396
21831.166 2131.4485 499.77472 13844.72 154499.08 2848.8066 454.72894 15445.59
21299.645 2376.4338 490.78415 14791.948 167236.38 2373.446 492.7551 15743.553
28855.236 2739.388 508.80228 15813.812 163588.84 2150.2058 516.80774 16474.477
44339.645 3035.8445 526.7662 16938.104

network_body.observation_encoder.processors.1.normalizer.running_mean f4 [20]
00000000: 5911 6e3e 75c5 373a 7122 b23c 8dc4 943e
00000010: e2d0 743e 949f 193a fce2 b63c 5f08 983e
00000020: d639 763e 466e 303a 9cd7 ad3c c03b 973e
00000030: 41c2 863e 13f4 153a 9901 bc3c a592 a03e
00000040: e002 853e ae0f 233a ef87 bc3c 8fb1 a13e
0.23248805 0.00070103194 0.021744939 0.29056206 0.23907807 0.0005860266 0.022325031 0.29693887
0.240455 0.0006730299 0.021220975 0.29537773 0.2632008 0.0005720269 0.02294998 0.3136188
0.25978756 0.0006220293 0.023014037 0.3158078

network_body.observation_encoder.processors.1.normalizer.running_variance f4 [20]
00000000: 7c3f 2e48 bb63 2f44 b030 a646 8b7d 4947
00000010: fda5 3148 28a9 1244 2385 aa46 d37a 4f47
00000020: 1859 3248 d565 2844 0e46 a246 71b1 4547
00000030: 9a5f 3d48 a723 0f44 aa2e af46 09e0 5547
00000040: 93c8 3b48 68a8 1b44 8ba8 af46 15c5 4947
178429.94 701.5583 21272.344 51581.543 181911.95 586.64307 21826.568 53114.824
182628.38 673.5911 20771.027 50609.44 193918.4 572.55707 22423.332 54752.035
192290.3 622.63135 22484.271 51653.082

network_body.observation_encoder.processors.2.normalizer.running_mean f4 [5]
00000000: 4aad 35be c67a e43f 8287 95bf a44b 4d3f
00000010: 30ce 303f
-0.17741886 1.7849967 -1.1681979 0.80193543 0.6906462

network_body.observation_encoder.processors.2.normalizer.running_variance f4 [5]
00000000: 79f6 784d 2aa0 b749 ac91 5a4b 9b31 5a49
00000010: 26a3 5048
2.610564e+08 1.5042612e+06 1.432414e+07 893721.7 213644.6

network_body.processors.0.normalizer.running_mean f4 [68]
00000000: 0357 783f 40b5 523b 1236 dc39 1bf5 5e3e
00000010: 810e 793f 4124 263b 3704 d839 e8e2 613e
00000020: b3b1 773f 6d40 4e3b 93e1 df39 8c52 5b3e
00000030: 4539 783f 54e5 053b 3d04 d839 15df 613e
00000040: dfc6 773f 7da3 3b3b 69cb e839 c2f1 593e
00000050: a451 743f d6ae 063b 6d49 c839 1b56 5f3e
00000060: c966 783f 86ec 2e3b 4ab5 f139 983c 5c3e
00000070: 68fb 6a3f b0d5 1c3b 4f33 d139 0d32 5a3e
00000080: 3753 793f 588f 153b 31dd ff39 ff79 603e
00000090: 3539 5c3f 5f89 413b bbf7 d639 e04d 523e
000000a0: ad48 7a3f 1fed 0b3b d5d0 023a 0e0f 653e
000000b0: 361c 4f3f ca2d 3b3b b009 ee39 5093 4a3e
000000c0: 766d 7a3f 680c 1c3b df74 003a 2860 683e
000000d0: 2ca5 493f fcd9 1b3b 0ffb 003a a490 473e
000000e0: aa62 783f 68f8 333b f12c 053a 34d4 693e
000000f0: 3440 4b3f f02b 0d3b ca45 073a ea34 493e
00000100: 2a18 743f 1c80 473b dee4 093a 03b1 693e
0.9700777 0.003215149 0.00042001955 0.21773188 0.97287756 0.00253512 0.0004120187 0.22059214
0.9675552 0.0031471506 0.0004270194 0.21418208 0.96962386 0.002043088 0.00041201888 0.22057755
0.9678783 0.0028631382 0.0004440204 0.2128363 0.95437074 0.0020550988 0.0003820168 0.2181019
0.9703184 0.0026691272 0.00046102173 0.2150749 0.91789865 0.0023931079 0.00039901814 0.21308155
0.973926 0.0022821035 0.0004880219 0.21921538 0.8602479 0.0029531342 0.00041001834 0.2053752
0.97767144 0.0021351052 0.0004990225 0.22369024 0.8090242 0.0028561228 0.00045402115 0.19782758
0.97823274 0.0023811106 0.00049002277 0.2269293 0.7876766 0.0023781052 0.0004920223 0.1948877
0.9702555 0.0027461294 0.0005080244 0.22834855 0.7939484 0.0021541081 0.00051602407 0.19649091
0.9534937 0.003044135 0.0005260239 0.22821431

network_body.processors.0.normalizer.running_variance f4 [68]
00000000: 26c1 e246 125e 4845 2166 d243 480b 4a46
00000010: 6219 ce46 c01d 1e45 ca67 ce43 0134 5346
00000020: a23c f546 5a25 4445 39e4 d543 b1f3 4246
00000030: 9118 e646 94f9 fe44 1267 ce43 738e 5a46
00000040: 68e6 f246 3b7c 3245 775f de43 4356 4046
00000050: d81c 2a47 d83b 0045 6f68 bf43 3c24 6346
00000060: b105 e146 e56c 2645 f8dc e643 7069 4446
00000070: 382f 9347 0946 1545 bce8 c743 d45f 6c46
00000080: 6e5e c646 705d 0e45 2a63 f443 81ab 4c46
00000090: 1ecd ea47 3f14 3845 dc67 cd43 9645 7246
000000a0: 558e aa46 2d37 0545 2ae3 f943 e152 5846
000000b0: c5e0 1648 e80c 3245 4e5d e343 5c56 7146
000000c0: 4a67 a646 f186 1445 5f64 f543 cb1f 6746
000000d0: 1851 2348 2357 1445 a760 f643 36fe 7546
000000e0: 796e e146 3536 2b45 b166 fe43 3f17 7746
000000f0: 36c1 1f48 4b63 0645 b233 0144 f4b4 8046
00000100: a533 2d47 83bd 3d45 09b1 0344 3554 8446
29024.574 3205.8794 420.79788 12930.82 26380.691 2529.8594 412.81085 13517.001
31390.316 3138.3345 427.783 12476.923 29452.283 2039.7993 412.80524 13987.612
31091.203 2855.7644 444.74582 12309.565 43548.844 2051.7402 382.8159 14537.059
28802.846 2662.806 461.72632 12570.359 75358.44 2388.3772 399.81824 15127.957
25391.215 2277.8398 488.77472 13098.876 120218.234 2945.2654 410.8114 15505.396
21831.166 2131.4485 499.77472 13844.72 154499.08 2848.8066 454.72894 15445.59
21299.645 2376.4338 490.78415 14791.948 167236.38 2373.446 492.7551 15743.553
28855.236 2739.388 508.80228 15813.812 163588.84 2150.2058 516.80774 16474.477
44339.645 3035.8445 526.7662 16938.104

network_body.processors.1.normalizer.running_mean f4 [20]
00000000: 5911 6e3e 75c5 373a 7122 b23c 8dc4 943e
00000010: e2d0 743e 949f 193a fce2 b63c 5f08 983e
00000020: d639 763e 466e 303a 9cd7 ad3c c03b 973e
00000030: 41c2 863e 13f4 153a 9901 bc3c a592 a03e
00000040: e002 853e ae0f 233a ef87 bc3c 8fb1 a13e
0.23248805 0.00070103194 0.021744939 0.29056206 0.23907807 0.0005860266 0.022325031 0.29693887
0.240455 0.0006730299 0.021220975 0.29537773 0.2632008 0.0005720269 0.02294998 0.3136188
0.25978756 0.0006220293 0.023014037 0.3158078

network_body.processors.1.normalizer.running_variance f4 [20]
00000000: 7c3f 2e48 bb63 2f44 b030 a646 8b7d 4947
00000010: fda5 3148 28a9 1244 2385 aa46 d37a 4f47
00000020: 1859 3248 d565 2844 0e46 a246 71b1 4547
00000030: 9a5f 3d48 a723 0f44 aa2e af46 09e0 5547
00000040: 93c8 3b48 68a8 1b44 8ba8 af46 15c5 4947
178429.94 701.5583 21272.344 51581.543 181911.95 586.64307 21826.568 53114.824
182628.38 673.5911 20771.027 50609.44 193918.4 572.55707 22423.332 54752.035
192290.3 622.63135 22484.271 51653.082

network_body.processors.2.normalizer.running_mean f4 [5]
00000000: 4aad 35be c67a e43f 8287 95bf a44b 4d3f
00000010: 30ce 303f
-0.17741886 1.7849967 -1.1681979 0.80193543 0.6906462

network_body.processors.2.normalizer.running_variance f4 [5]
00000000: 79f6 784d 2aa0 b749 ac91 5a4b 9b31 5a49
00000010: 26a3 5048
2.610564e+08 1.5042612e+06 1.432414e+07 893721.7 213644.6

network_body._body_endoder.seq_layers.0.weight f4 [128, 93]
00000000: 3e38 90bd 04ff 44b9 ee2d 003e 8087 f23d
00000010: 278b b0bd fdd2 2e3d 1fa5 6abd 3769 a9bd
00000020: 663d 06be 140d 003d d8a0 39bd 267a 503e
00000030: 45b4 bcbd 9309 d7bd 0a19 133c 72f8 e2bd
00000040: b5ab 80bd 6b8f 4abd b15f 5d3e 34fa 09be
00000050: d224 ef3d 1990 06bd acfd 13bd 8b56 de3d
00000060: 9964 fd3d aa6c df3d a121 063e cc7f dcbc
00000070: 1d8c aebb faae 8e3d 0c49 4e3c fec8 b73d
00000080: 1427 8c3c 75f1 933d a1be 4cbe d9dd 61bc
00000090: f59e 5abe 08ff 5e3c 3d66 0e3e 440e de3c
000000a0: d956 6a3e 6ae7 54be 2282 cbbd 8b18 06bd
000000b0: ea44 e5bb 29fa 0bbd 5826 a1bd 432a 4b3c
000000c0: 6baf 443c 77b0 33be e3a4 ad3c 871f b33d
000000d0: 4b83 be3d 0969 8abd 2945 0a3d 4d5d 56be
000000e0: edcd fa3d 7f70 11bc a0e2 35be 3afe 3ebd
000000f0: 391d 57be 0ea5 ba3d 5f58 3fbd 2e3c e03b
00000100: 0e7a bb3d 30f8 aabc f629 40bd 7c14 733d
00000110: 709f c1bd b41f 033e 7ac8 8abe cb64 943d
00000120: af74 a4bd 4413 02be 9ef9 17bd 5b5c 27bd
00000130: 085c eb3d 67a3 33bc 8d88 7bbc 5352 163e
00000140: 9d41 1ebe 8bda 2b3d 94c3 fdbd 50ef 6f3d
00000150: 9831 22be aef2 0f3d 4445 a1bd a19c 82bc
00000160: b524 3b3d 0724 94bb b1e6 433b 9314 01be
00000170: eed4 e2bd fd9a 4f3e 1e65 e5bd 9cad b7bd
00000180: 9c6e 0abd 35ed a7bb 0034 7e3c cca8 10be
00000190: 150a 4dbd 2c49 a73d ca89 473d 726d 833d
000001a0: e7f9 68bc bd72 f03d 0ef8 5bbd 5aa6 33bd
000001b0: 3456 82bd ce0b 173d 0101 03be e796 793d
000001c0: fdff 44be 5272 0ebe 5972 74be 4784 3d3e
000001d0: d479 7abd 2ad9 c03d ce8c 8e3d 634c 56bd
000001e0: 39be 623d e201 d03d 7873 70bd ca2f a9bd
000001f0: 5efb 103d 31ac bb3d a0ed 623d c1ea 64be
00000200: 86cf 6b3e 334d bdbd 3a80 0abe 584d 803d
00000210: 19f7 99b9 4fd3 dbbc ce0b 62bd c6ee 51bc
00000220: c599 bebd 39d4 0e3e fda6 293e d77b 98bd
00000230: 14d2 473d eada e3bc d27e a33d 608e a13b
00000240: f719 a7bc 8b63 b1bd 7870 e5bd d1e9 91bd
00000250: 7515 203e 970d 36be 4a0c 9d3d 370f 943d
00000260: f27d 053d 9386 05be a3a1 6b3d bc44 a8bc
00000270: 6920 733d 7862 07be 9c16 70bc 1a85 e6bc
00000280: 257a babd b16e 323e e24f 933d d747 b8bd
00000290: 25fa 29bd 4a6c e43d 546a 783c fffe 673d
000002a0: 8cfc a63d fc58 41bb 41b0 103e 7511 91bc
000002b0: fbf3 ad3b 1a38 e1bc ac98 803d 43e8 c33d
000002c0: 1da7 b43d 76cf 673d c0ba 433e 3fc1 b53d
000002d0: e5a1 8fbd 6d08 45bc ee43 f83d 1dbb c03d
000002e0: f53f dfba b8c6 763d 4de1 6f3d 30e7 e2bd
000002f0: 0376 d93b 95d9 5d3e f244 dd3d d5ee 0b3c
00000300: 9e33 09bd 0d68 963d a88d 2b3c ee8b 19bd
00000310: 4788 f2bd ee7c e3bd e91e a33d cf81 ba3c
00000320: f16b 25be 27d0 01be d8d6 e5bd fc13 09be
00000330: a635 443d 2c5d c9bd 7f89 1bbe 6a75 243d
00000340: 377b 1b3e 39eb eabd 9acd fcbd fd6d 52bc
00000350: 9f8f 8abd 60b0 3c3e 5cf6 29bc a2bb 023d
00000360: c848 32be 0d77 0d3d fcf3 28be 1d01 8c3d
00000370: 33c7 e6bd 36e2 07bd f2a5 adbc 9527 573e
00000380: a06f 353d 8495 c9bd 80ab 70bc c7e1 e5bd
00000390: 96a0 8abd 2f20 e8bc 932e 8e3d 3d2d ba3d
000003a0: 3b1b 0dbe ee13 d6bd e6d1 14bd d5c3 003d
000003b0: 477d 54be 5dfd e3bc 5741 d43c 250b 23be
000003c0: 158c 6dbe f3fd 333c ead8 273e 7a7d bd3d
000003d0: 84e3 fbbb 46b2 f53d c230 36bd 1a54 1b3e
000003e0: 5ae0 e6bd 3ff6 0cbc a7b7 4a3e 069d ad3d
000003f0: 883e 22bd befa dbbb ee43 403e b8fc 7bbd
-0.07041977 -0.00018787017 0.12517521 0.11842251 -0.08620291 0.042681683 -0.057286378 -0.08272021
-0.13109359 0.031262472 -0.04531941 0.20359096 -0.09214071 -0.10499873 0.008978138 -0.110825434
-0.062827505 -0.04945318 0.21618535 -0.13474351 0.11676945 -0.032852266 -0.036130592 0.108563505
0.12372703 0.10909398 0.13098766 -0.026916407 -0.0053267614 0.06966968 0.012590658 0.08973883
0.017108478 0.07223789 -0.19994594 -0.013785803 -0.213497 0.013610609 0.13906188 0.027106412
0.22884692 -0.20791402 -0.0993693 -0.03273825 -0.0069967406 -0.03417412 -0.078686416 0.012400213
0.0120047135 -0.17547785 0.021196788 0.08746248 0.09302386 -0.06758315 0.033757363 -0.20934029
0.122463085 -0.008876919 -0.17762232 -0.046629168 -0.21007241 0.09113513 -0.046715137 0.0068431115
0.091541395 -0.020870298 -0.046915017 0.059345707 -0.094542384 0.12805063 -0.27106076 0.07245787
-0.08030068 -0.12702662 -0.037103288 -0.04085956 0.11492163 -0.010964251 -0.01535238 0.14679842
-0.15454717 0.041956466 -0.12390819 0.058577836 -0.15839231 0.035143547 -0.078745395 -0.015943827
0.045689303 -0.0045208964 0.0029892141 -0.12605505 -0.11075769 0.20273967 -0.11200927 -0.0896866
-0.03379689 -0.005124713 0.015515327 -0.14126891 -0.050058443 0.08168253 0.04871539 0.064173594
-0.014219738 0.117406346 -0.05370336 -0.043859817 -0.06364098 0.036876492 -0.12793352 0.060934927
-0.19238277 -0.13910797 -0.23871745 0.18507491 -0.06115134 0.09416421 0.0696045 -0.05231894
0.05535719 0.10156609 -0.05870387 -0.08261068 0.035395972 0.09163702 0.055402398 -0.22355177
0.23028383 -0.0924324 -0.13525477 0.06264752 -0.00029366536 -0.026834158 -0.05518704 -0.012813276
-0.09306673 0.13948144 0.16567607 -0.074454956 0.04878433 -0.027814347 0.079831734 0.0049303025
-0.020398123 -0.086615644 -0.11203092 -0.07124675 0.15633185 -0.17778622 0.076683596 0.072294645
0.032590814 -0.13039617 0.057527196 -0.020540588 0.05935708 -0.13221157 -0.014653828 -0.02813964
-0.091053285 0.17425038 0.07192971 -0.08998077 -0.041498322 0.11153467 0.015162069 0.056639668
0.08153638 -0.0029502502 0.14129736 -0.01770852 0.0053086258 -0.027492572 0.0627912 0.09565785
0.08820937 0.056594335 0.19114208 0.088747494 -0.07013301 -0.012025935 0.121223316 0.09410689
-0.001703261 0.060248107 0.058564473 -0.11079252 0.0066363825 0.21665032 0.10804166 0.008540829
-0.03349649 0.07344065 0.010470785 -0.037486963 -0.11842399 -0.11107813 0.0796488 0.022766976
-0.16154458 -0.1267706 -0.11222619 -0.1338653 0.047902726 -0.09832224 -0.1518917 0.040151037
0.15183721 -0.114706464 -0.12343903 -0.012843606 -0.06765675 0.18426657 -0.010373678 0.03191722
-0.17410576 0.034537364 -0.16499323 0.0683615 -0.11268463 -0.033174716 -0.021197293 0.21011193
0.044295907 -0.09842971 -0.014689326 -0.11224704 -0.067689106 -0.028335659 0.06942477 0.0909066
-0.13779919 -0.1045302 -0.036332987 0.03143676 -0.20750915 -0.027830774 0.025910063 -0.1592222
-0.23197968 0.010985839 0.1639134 0.092524484 -0.007687034 0.119968936 -0.044480093 0.15168801
-0.112732604 -0.0086036315 0.1979662 0.084772155 -0.039610416 -0.0067132404 0.18775913 -0.06152031

network_body._body_endoder.seq_layers.0.bias f4 [128]
00000000: 37e6 a03d a075 403d 30cf ca3d 62b8 9c3d
00000010: 41b0 973d 6f0b f7bc 8b28 b33d 819c 5b3c
00000020: eb8e bb3d 85e5 c23b 6d69 73bc ede2 c6bc
00000030: 6d21 b23d 6a13 f23c cf5d a03d dd8e 5c3c
00000040: 025d 433d 4ab0 783d cf75 203d 7d60 6a3d
00000050: 9c38 ea3c d4f1 ecbb b4aa 483d 1c0d 563d
00000060: c27f ec3d e441 cb3d 582b 043e 01b7 42bd
00000070: 924c a23d 90b7 4fbd 960a 973c 5811 b93d
00000080: 7da3 0c3d e4a2 44bc c9eb b63d cb05 f53d
00000090: 6be3 573d 5bc5 27bd eb0a 283d 0870 c7bd
000000a0: d3ae 253c 2741 a53c 1fb1 9b3d 22fd 07bd
000000b0: d529 a23c 9c36 de3d 5fef d53d 46fc b43c
000000c0: acba e83d ef0b c83d 5fbc aa3d d9b8 ae3d
000000d0: 2774 8f3d b2d4 463d 1ad5 033d ec03 1b3e
000000e0: 4396 cb3d d605 dd3d f116 223a c43a 8b3c
000000f0: b4f1 993d 6249 c43d da3f bf3d 48e6 883c
00000100: bf3e 8c3d 45ca 1cbc 3590 713d f814 993d
00000110: d70f 233d 93e8 4abd 2b0f 2e3d 8628 913d
00000120: e86f f7ba d7c9 e73b 205e 803c ebe4 6ebd
00000130: 09b7 773d 6a08 8c3d caa4 ba3d 5e82 d53d
00000140: 9464 fc3d 6b68 9d3d 32e7 923c aa4f 88bd
00000150: 9b1e ca3d acd9 cabc b14d 073e b6f1 bc3d
00000160: 94e8 cd3d 254f 1abd d471 fabc 7509 55bc
00000170: b95f d83d a877 773d 31e4 9a3d 86ef 1b3d
00000180: d173 f03d 77c2 243c f02e 953d dc0e c93d
00000190: aec5 d53d ff06 a03d dd14 933d ba1b 5c3a
000001a0: 0571 bbbc 4cfe 563d b3d0 f03d 3d0b 163d
000001b0: bfda 8fbc 03fb 463d 762a bd3d e010 173d
000001c0: 416c 373d 08ea 163d 4b8c c73c 33a0 cc3d
000001d0: 1b8c 313d 6b60 993d 203a 593d 5c97 d33c
000001e0: 15c4 4e3d e842 d53d 9456 be3d 586f a13d
000001f0: 62b5 8f3c 1a35 d9bc dfcb a6bd db4a 503d
0.0785641 0.046987176 0.09902799 0.07652356 0.07406665 -0.03015682 0.08747967 0.013404013
0.09158119 0.005947771 -0.014856678 -0.024278129 0.08697782 0.029550273 0.078303926 0.013461796
0.04769612 0.060714997 0.03917485 0.057220925 0.028591447 -0.0072309766 0.04899092 0.052258596
0.11547805 0.09924677 0.1290716 -0.047537807 0.07924761 -0.05071217 0.018437665 0.09036511
0.034335602 -0.012001727 0.08931691 0.119639955 0.052707117 -0.040959697 0.041026037 -0.09738165
0.010112482 0.020172669 0.076021425 -0.03320039 0.019795338 0.1085026 0.10446047 0.02209295
0.1136373 0.09767901 0.0833671 0.08531351 0.07004576 0.048542686 0.03218565 0.15138215
0.099407695 0.10792129 0.0006183228 0.016995795 0.07516804 0.09584309 0.093383506 0.01671137
0.06847905 -0.009569709 0.058975417 0.074747026 0.039810028 -0.049538206 0.042494934 0.07087807
-0.0018877955 0.0070736217 0.015669882 -0.058323782 0.06047729 0.06837542 0.09113462 0.10425256
0.12323871 0.07685932 0.017932508 -0.0665582 0.09869119 -0.024761997 0.1321323 0.0922579
0.100541264 -0.037673134 -0.030571856 -0.013002743 0.10565133 0.060416847 0.07563055 0.038070224
0.1174084 0.01005613 0.07284343 0.09817287 0.10438095 0.078138344 0.07181714 0.00083964656
-0.02288104 0.05248861 0.11758556 0.03663181 -0.017560361 0.048579227 0.092366144 0.036881328
0.044780973 0.036844283 0.02435889 0.09991493 0.043346506 0.074890934 0.053033948 0.02582901
0.050479967 0.10413152 0.09293857 0.07882565 0.017542545 -0.026514579 -0.08144354 0.050852638

network_body._body_endoder.seq_layers.2.weight f4 [128, 128]
00000000: c944 fd3d 8f73 c5bd ba19 d3bd 8b97 08be
00000010: 23e5 f43c a1ba 01be ab65 b4bc 26b9 92bd
00000020: 50d8 fabc 1547 a03c 2d7b ed3d 200b 92bd
00000030: a78c 033e f38f 463d b8bb 86bd e582 a33d
00000040: e444 5d3d a685 93bb 9c70 103d ac92 853d
00000050: 6d12 f5bd 63db 57bd 0100 163c f24b 99bd
00000060: 8478 713d b2b3 253d 4c4a c5bd 7fe9 ed3d
00000070: 297d 8ebd be7c 223d d643 21bc 97f8 43bd
00000080: e54c 2bbc eea0 22bd 463b 62bd d717 13be
00000090: 30d0 053d 1571 223d 88ad 21be b6e5 32bb
000000a0: e43a 2d3e 3813 453d 5f25 b9bd dfea 293e
000000b0: e818 9f3d 1058 23bd 552e c6bb 8d42 563d
000000c0: 7fd1 03be d842 613d 1abe f2bd 027c 0ebd
000000d0: ff07 c43c e973 48bd e1e2 b93c 8ad7 dcbd
000000e0: f797 bdbd 79c5 d5bd 0bb1 e1bc f4e0 4c3d
000000f0: 568f 533d dcd9 a73d eab5 92bd 9e04 edbd
00000100: 5a30 693d aac8 f4bc 0f96 55bd e7e3 a43d
00000110: 6680 b5bd 2c81 553d 7c0f 94be 172d cb3d
00000120: 0998 e63d 81c7 843d b675 60bd c4bf 2e3d
00000130: b124 c93c 5ce3 41be 1da1 36bd 7624 8b3c
00000140: 020d 813c 8c9d 373c 1d45 263e 1d2c 29be
00000150: c420 0bbe e460 143e 2a43 16be 9793 763d
00000160: c8b9 9abd fecb 85ba e86f 1fbe b8de a3bd
00000170: 861a 27be 1e41 2ebe 3114 503b 095d 9fbc
00000180: a579 063d d122 05be 538e 81bd ba3b 7fbd
00000190: ce08 8fbd 6be8 f1bc 75af 1bbe 80d4 983c
000001a0: b6e7 babc 9fa7 6dbe 0f0b 17be 932b 1ebd
000001b0: 2017 c23d 45eb cbbd 674a abbd 7ec4 1c3d
000001c0: 682c 173d 3d72 4fbd b6a0 afbd 98e6 29be
000001d0: 6050 cebd 3fba 373e 6721 173d 7f00 fcbc
000001e0: dc5a 26bd 803c e63d a636 bbbc 13af 19bd
000001f0: d2a8 14bd e817 9e3d 18f0 be3c 587e 503e
00000200: 6498 5b3d 812b 0cbe 8b31 ca3d 24b7 2b3e
00000210: f46c 02be 50b2 173c 76ec 19be 7f40 643c
00000220: 9ee6 64bd 406b 6dbc 0362 52be 251b 3fbd
00000230: 8f9e 42be 7f3b baba 1af9 013e 093a 4cbd
00000240: 710e 3fbd 2840 093e 7ba6 913d 040b 04be
00000250: f0a1 89bb 8e0a 853d e25a 27bd bb68 d83d
00000260: 015c d0bd 3da0 963d c1bd fb3b a938 b43d
00000270: f58f b33d de04 953d 9a7c cabd 03b8 f63c
00000280: 8a95 84bd ee7c d73c 899b 803d 9a11 ffbc
00000290: 03fc 493c d37a 5c3b dd25 a03d f942 133d
000002a0: ed49 ff3c f752 bcbd fc2b 7abd b3db 193c
000002b0: 4d87 123d bf28 54bd 04b4 413d 3719 293d
000002c0: f3f9 db3d 87da 223d 9b35 80bd 549e 103e
000002d0: b7b4 063e 427f 2a3c 66ea a2bd d05f 443d
000002e0: f8be c3bd fc18 d03d 389e 6cbd 116d 653d
000002f0: b6d1 c83c ce36 b33d 8b68 06bd b91b 353b
00000300: 726e 5dbe 1b5a 443e 8478 4d3c 4ad5 563e
00000310: 54e6 39bd 2700 4c3e a7e3 563e d374 123d
00000320: 2445 debd e7f8 cabc 3086 cfbc 0c79 19bd
00000330: a06c 4a3d c71d c3bd 4fa3 14be 1517 453d
00000340: 3dc4 6d3d 2e19 0b3e 79d9 ebbd 86ae 563c
00000350: 0410 57bd 2d17 a3bd 811a de3d efff babd
00000360: efc5 62bd 0c2b ca3d bbec 0abe d0c7 9f3d
00000370: 7fda d93d d0af 3fbd f7dd e73d 1041 a53d
00000380: 0c60 053e 3668 293e 4f82 1e3e 6269 3b3e
00000390: 009c db3b 7160 ae3c e5ec 503d 47ee 37bd
000003a0: bde3 d3bd 618e 8b3d 7268 debd 558b a63d
000003b0: d363 72bd bbee 4d3b 9fd8 0f3e 3316 4f3c
000003c0: de2f 0ebc 62ac 483c 1150 f3bd 57d2 33be
000003d0: 6b6e 8abd 8f15 9f3d 80df e03d cb8d 0dbc
000003e0: 73d9 b0bd dead 813d 0478 343e 96de c0bc
000003f0: a912 0b3e 5a2f 5dbd 095b 2e3c 175e 39bc
0.12366635 -0.09641182 -0.10307641 -0.13339059 0.029894417 -0.1266885 -0.022021135 -0.071642205
-0.030620724 0.019565145 0.115957595 -0.07131028 0.12846623 0.048477124 -0.06578773 0.079839505
0.054020777 -0.004502016 0.035263643 0.06522116 -0.11966405 -0.052699458 0.009155274 -0.074851885
0.058952823 0.040454574 -0.09633312 0.116168015 -0.06957466 0.039669745 -0.0098428335 -0.047844496
-0.010455345 -0.039704256 -0.05523231 -0.14364563 0.032669246 0.039658625 -0.15788853 -0.0027297563
0.16916996 0.04811403 -0.09040331 0.16593502 0.07768422 -0.039878905 -0.0060480037 0.05230956
-0.12872885 0.054995388 -0.11852665 -0.03478623 0.023929594 -0.048938666 0.022691192 -0.10783298
-0.092575006 -0.104380555 -0.027550241 0.05001922 0.051650368 0.0819585 -0.071636036 -0.11573146
0.056930877 -0.02988084 -0.05214506 0.080512814 -0.08862381 0.05212514 -0.28918064 0.099207096
0.11259467 0.06483365 -0.054799758 0.04266335 0.024553629 -0.18934387 -0.044587243 0.01698516
0.015753273 0.011206996 0.16237302 -0.16520734 -0.13586718 0.14490086 -0.14674059 0.060199346
-0.07554966 -0.0010207889 -0.15570033 -0.080014646 -0.16318712 -0.17017028 0.0031750316 -0.019453542
0.032830853 -0.13001563 -0.06325974 -0.06231282 -0.06984101 -0.02952977 -0.1520365 0.018656015
-0.022815567 -0.23208474 -0.14750312 -0.038615774 0.09477067 -0.099569835 -0.083638005 0.038273327
0.036907583 -0.050646055 -0.08575575 -0.16591871 -0.10073924 0.17942141 0.03689709 -0.030761955
-0.040613994 0.11242008 -0.022853207 -0.03752048 -0.036293812 0.077194035 0.023307845 0.20360696
0.053612128 -0.1368847 0.09872731 0.16769081 -0.12736875 0.009258822 -0.15031609 0.013931393
-0.055883996 -0.014490902 -0.20545201 -0.046656746 -0.19005798 -0.0014208405 0.12692681 -0.049860034
-0.04664463 0.1340338 0.07111832 -0.12894827 -0.0042002127 0.06496154 -0.040858157 0.10566851
-0.10173798 0.07354782 0.0076825325 0.087998696 0.08767692 0.07276319 -0.09887047 0.03011704
-0.06473835 0.026304688 0.06279666 -0.031136323 0.012328151 0.0033642545 0.07819722 0.035952542
0.03116318 -0.09195512 -0.061077103 0.009390759 0.035773564 -0.05179667 0.047290817 0.041283812
0.107410334 0.039759185 -0.062602244 0.14122897 0.13154875 0.010406317 -0.07954864 0.047942936
-0.09557909 0.101610154 -0.057768077 0.056012217 0.02451406 0.087506875 -0.032814544 0.0027634932
-0.21624163 0.19174998 0.01254094 0.20979801 -0.045385674 0.19921933 0.2098528 0.035755944
-0.10853031 -0.024776889 -0.02533254 -0.037468955 0.04942 -0.09527164 -0.14515422 0.048117716
0.058048476 0.13583824 -0.11516089 0.013103133 -0.052505508 -0.07963405 0.10844899 -0.09130847
-0.055364545 0.09871492 -0.13566868 0.07801783 0.10637378 -0.046798527 0.11321633 0.0806905
0.1302492 0.1654366 0.15479396 0.18301919 0.0067019463 0.021286221 0.05100717 -0.044904973
-0.10346172 0.06814266 -0.10859765 0.08132044 -0.05917723 0.0031422812 0.14047478 0.01263957
-0.008678405 0.0122481305 -0.11880506 -0.17560707 -0.06759342 0.07767784 0.10980129 -0.008639763
-0.08635225 0.06331991 0.17623907 -0.023543637 0.13581337 -0.054000236 0.010641822 -0.011313937

network_body._body_endoder.seq_layers.2.bias f4 [128]
00000000: 0d58 34bd aab4 7c3c 33af 943d 5abd 85bd
00000010: 81b4 3ebb 4ad4 73bd a08d d6bc 74d0 dd3c
00000020: 1344 2f3c 09b9 dc3c 3476 ebbc 4cbb 42bd
00000030: 07c1 78bd 2b8c 853d 2aa3 5d3c c6d7 843d
00000040: 4a56 823a f6f7 18bd d371 b53d cdfb a3bd
00000050: 3cde 85bd 1fe6 a83c 3dd9 7c3d 6672 aa3d
00000060: 2920 803b 2f73 b23d 52b0 eb3d ee3f 753d
00000070: 6589 21bd 9943 213c 7518 db3c bf1c 93bc
00000080: 806f d5bb 675d 283c f4d0 4cbd 83b6 2f3d
00000090: b396 8e3d 6b06 533d 6043 e3bc 0521 6c3d
000000a0: e801 c8bc a967 4a3d ef43 313d e088 aabd
000000b0: c2ed 1b3d 8a72 43bd 4dc3 38bd 6211 c73c
000000c0: 8596 f4bc 76fb bc3d 3924 39bd 987f 8dbd
000000d0: 96e1 fe3b 654e 913d a1be 8d3d ecfe 033d
000000e0: f6d2 123c 414a 44bd abd3 2d3d ddac 513d
000000f0: d902 a9bd b12c c9bb 42a9 d7bd 9efb e93b
00000100: bb71 6d3c 2f89 e93d e9be d73d 6b44 73bd
00000110: 285b f03d 9555 23bd 4bff c43d ddc5 823d
00000120: f94e 1a3d 12d0 d4ba fa57 213c fb20 e43c
00000130: 3284 bdbb a538 573d cfb7 3b3b dc6a 793d
00000140: f51e c1ba ecc8 0c3d 9254 b2bc 9365 b33d
00000150: ba09 493c 4579 c63d d603 c73d 0cc5 533d
00000160: 5202 e53c aed9 b1bd d9b0 96bd 19f8 3b3d
00000170: 7e11 b1bd d931 14bd 2dd8 813d 60a6 6f3d
00000180: 4745 fdbc 651c a1bd 3967 b33c 17b3 8c3c
00000190: 5579 23bd 8c71 103d 955b 89bc ff20 783c
000001a0: adac ac3d edbd 403c 5a35 a53d 1c9b 89bd
000001b0: 38b6 b83d 8626 86bd ef64 abbd 86cb 69bd
000001c0: 9439 463a 4d7b b23d 26da 703c 5cfc a53d
000001d0: 8866 753d 7081 5a3d 5e06 883d 1ec5 643c
000001e0: 4c29 903d d361 113d fa84 9abd 1dd2 18bd
000001f0: d1b2 ae3d f7be 94bd 7523 41bd 6d7e 11bb
-0.044029284 0.015423933 0.07259979 -0.065302566 -0.0029099288 -0.059528627 -0.026190579 0.027076937
0.0106973825 0.0269437 -0.028742887 -0.0475419 -0.06073096 0.065208755 0.013527671 0.06486468
0.0009943929 -0.03734585 0.08859601 -0.080070116 -0.065365285 0.020617543 0.061730612 0.08322601
0.003910084 0.08713376 0.1150824 0.05987542 -0.03943767 0.009842777 0.02674506 -0.017958043
-0.006513536 0.010276175 -0.05000396 0.042898666 0.06962337 0.051519793 -0.027742088 0.057648677
-0.024414971 0.049415264 0.043277677 -0.08326888 0.03806854 -0.047716655 -0.04510813 0.024300281
-0.02985693 0.0922765 -0.04520056 -0.06909102 0.007778357 0.07095031 0.06921125 0.032225534
0.00896143 -0.047922377 0.04243819 0.051190246 -0.08252496 -0.006139361 -0.1053033 0.007140591
0.0144924475 0.11403119 0.1053446 -0.05939142 0.11736137 -0.03987654 0.09619006 0.06385396
0.03767297 -0.0016236326 0.009847635 0.027847758 -0.005783581 0.052544255 0.0028643494 0.060892925
-0.0014733957 0.0343713 -0.021768842 0.08759608 0.012270385 0.09691099 0.097175285 0.05170159
0.027955208 -0.08684097 -0.0735795 0.0458909 -0.086459145 -0.03618035 0.063400604 0.058508277
-0.030916823 -0.07866744 0.021899806 0.01717524 -0.039910633 0.035264537 -0.016767303 0.015144586
0.08431373 0.011764032 0.08066817 -0.06719038 0.090191305 -0.065503165 -0.08368861 -0.05707886
0.00075616804 0.08714924 0.014700448 0.08104774 0.059912235 0.053346097 0.066418394 0.013963012
0.07039127 0.035493683 -0.075448945 -0.037309755 0.085302 -0.07262986 -0.047152955 -0.00222006

action_model._continuous_distribution.log_sigma f4 [1, 5]
00000000: 2ffe ec3d bc0b b3bb b6ad 913a 22f0 e73d
00000010: ced6 73be
0.11571919 -0.0054640453 0.0011114392 0.113250986 -0.2381241

action_model._continuous_distribution.mu.weight f4 [5, 128]
00000000: e7ae 903d 13fb 70bd 0b50 99bd f6cd 803d
00000010: 33a3 bd3c 77fe 9b3d 97dc 9e3b 1926 ffbc
00000020: d406 28bc 866a 53bd 6c56 a63d d3db 5b3d
00000030: 998f fc3b 526f c8bd 4e09 043e ae9d ccbd
00000040: c3e6 53ba f47c 043d f008 b83c c4a7 843d
00000050: bf50 a93d fa96 353c 8326 cdbc f919 b6bd
00000060: d600 253d 4d5b 69bd d7b4 33bd 3087 cf3a
00000070: bd3c 1fbd f488 b53c 4856 d6bd 74ec a63c
00000080: 1d79 7c3d a2c5 27bd 59a2 b13d 0380 fbbc
00000090: 83f5 d5bc 068c 213d 2f1a 89bd eaf8 d73c
000000a0: 28f8 1dbb bc54 7dbc 7b24 87bd 788f 163d
000000b0: c4ee 33bc ae18 573d fa6d 20bc 40f0 efbc
000000c0: ac7e 553d 28bb 47bd 6ec5 d93d 1af0 07bd
000000d0: 09d5 833d c028 35bc 9d2d 3dbd 4f2f 92bc
000000e0: 9f09 0cbd a622 bf3d 3d9d 84bc 82af 29bd
000000f0: dc2c d43d 5fbb a4bc 174b 003d e93c 9dbc
00000100: e2ed fbbc 3f75 28bd 5f82 30bd ca44 d03d
00000110: 1fb4 94bd d5db d3bb b0cb 88bd c6da bdbd
00000120: 5c8e 1a3d 5702 603d cbe1 e3ba 38e5 a93d
00000130: 6a22 a33d bf81 c738 f2c1 4f3c ee56 4ebd
00000140: 8ab0 f03c 49c7 803d f74b adbc c513 473d
00000150: 4a86 99ba 550c 83bd 40dc f9bc e141 943c
00000160: d02b aa3b 310a d4bb 534f 8c3d 4ac8 b93d
00000170: 0e89 2b3d 61f2 a43c 5030 eabb 3ec8 14bd
00000180: 4e9c e03d 5335 a0bc 20d4 2dbd 39d8 5c3d
00000190: cf4f 8d3d c7ba 47bd d561 eabc da0a 1f3d
000001a0: 81b8 31bd 05ed 1f3b 9fc2 323b 4868 d63b
000001b0: 7b84 36bd afe9 663d 2529 d4ba 7489 8a3d
000001c0: 155d 903d 0aa7 4fbd f3f0 6dbd cf24 17bd
000001d0: da95 3a3d fa5a 95bd 28c7 273c a2f1 18bc
000001e0: edc4 4dbd 487f a23d 1b62 2a3d f195 b33d
000001f0: 2cf8 5dbc e09b 2e3d 8609 bd39 09a5 8d3d
00000200: 2490 8fbd 3e77 723d acf3 b63d dc24 0a3d
00000210: 720e 2cbd 5d60 2cbc 0524 4dbd 76cf b53d
00000220: 7aef b73d e9d7 05bd ca32 163c 0b08 c13d
00000230: 5535 b8bc 2c3a 34bd 29a2 e8bc 15c7 2a3c
00000240: ecf2 08bc abba 3e3d 2b67 f9bb fef2 93bc
00000250: fd6c 39bd 36a8 fcbd 2e3c f23a 8e01 9e3c
00000260: b684 23bd a876 dc3d 6a6c 2e3d 7de0 51bd
00000270: e380 97bd 7eb3 d6bc 7c55 a83c 7646 19bd
00000280: 68f1 0abb 1ad6 fb3c e44e 783d e6bb ac3c
00000290: 5d2a 27bd 2a17 0ebe 8a99 343d 05c1 c2bc
000002a0: 8d27 b03c 7cfe 923d 5995 0bbc 9ce7 c23b
000002b0: 1c7b 1fbd a05e 71bd 21d9 233d 3334 773d
000002c0: 81f4 6cbc 6f51 3e3d e78e 07bd 5722 33bd
000002d0: 5e43 21bd 7292 a3bd b603 0fbd 6738 9b3d
000002e0: c1b4 8cbd 0176 15bd 09ff f93a 8c67 b23c
000002f0: dd15 b63c 0397 5abc 8398 b93c a3ef e23d
00000300: 3ff3 f33d 1612 323d 50dc 81bd d0db 0dbd
00000310: 0b0b 43bd 0aa3 1bbc 0dd5 91bc 194e 443d
00000320: ae48 533d f6cd 343d 9d25 e4bc 0aa7 e9bb
00000330: 9f04 5b3b 926a e93d c2f0 003d 7d7e 61bd
00000340: 6617 60bd 4f99 72bd 2035 af3c 555f 903c
00000350: f7f8 99bd 2a64 a23d 68bb 80bd fa53 85bb
00000360: dbb4 8a3d 6e9e ca3c e2d5 5ebc 96a5 593c
00000370: 998b 1f3c 0dda cebd 7882 efba 6f1f 45bc
00000380: 960e 82bd db70 223a 06fc 3fbd 4f36 37bd
00000390: f424 e2bc 6752 c13c f3eb 3b3d 20eb 79bd
000003a0: 1b01 73bd fc0d 9b3c ca20 403d 41ba fd3a
000003b0: d85b a8bc 5e32 debc ee80 8f3c 38b7 7a3d
000003c0: 27f2 afbc 674e 3cbd 0535 49bd 2e27 01bd
000003d0: 6505 e53c b382 283d 4f64 a93d 1bc3 c5bc
000003e0: 9b7b 373d 4c50 a8bd 8aa6 98bc 7d4e 183d
000003f0: 6f65 ad3d 01b8 f83c 07e4 8fbd c32e adbd
0.0706461 -0.058833193 -0.0748597 0.06289284 0.023149109 0.07616895 0.0048480737 -0.031146096
-0.010255534 -0.05161526 0.081219524 0.053676438 0.007707548 -0.09786858 0.12894174 -0.099910125
-0.00080833974 0.032345727 0.0224652 0.06477311 0.08267354 0.011083359 -0.025042778 -0.08891673
0.040284 -0.056971837 -0.043873634 0.0015833136 -0.038876284 0.02216003 -0.104656756 0.020376422
0.06163894 -0.04095996 0.086735435 -0.03070069 -0.026118046 0.039440177 -0.06694447 0.026363809
-0.0024104211 -0.015462097 -0.06598755 0.036757916 -0.010982219 0.05251377 -0.009791845 -0.029289365
0.052122757 -0.04876247 0.1063336 -0.033187963 0.064371176 -0.011057079 -0.04618608 -0.017844824
-0.034188863 0.093327805 -0.016188258 -0.041427143 0.10360119 -0.020108877 0.03132161 -0.019194083
-0.03075308 -0.04112744 -0.04309308 0.101693705 -0.07260918 -0.006465415 -0.06679475 -0.09270243
0.03773342 0.05468973 -0.0017386017 0.08295673 0.07965548 9.5132265e-05 0.0126805175 -0.05037587
0.029381055 0.062880106 -0.021154387 0.048602838 -0.0011712995 -0.063988365 -0.030500531 0.01809782
0.005193211 -0.0064709415 0.068510674 0.09071405 0.041878752 0.020135107 -0.0071468726 -0.03632378
0.10967313 -0.019556677 -0.042438626 0.053917143 0.06899988 -0.04876211 -0.028611103 0.03882871
-0.043388847 0.002440275 0.0027276648 0.006543193 -0.044559937 0.0563752 -0.0016186578 0.06764498
0.07049004 -0.05069641 -0.058091115 -0.036900338 0.045553066 -0.07292743 0.010240354 -0.0093349535
-0.05023663 0.07934433 0.041597467 0.087688334 -0.013547938 0.042629123 0.00036055985 0.069162436
-0.070099145 0.05919575 0.089331955 0.033726558 -0.042005964 -0.010521022 -0.05008318 0.08877461
0.089812234 -0.03267661 0.0091673825 0.09425362 -0.022486368 -0.04400079 -0.028397636 0.010423441
-0.008358698 0.04656474 -0.0076111755 -0.018060204 -0.045269955 -0.12336771 0.001848107 0.01928785
-0.039921485 0.107648194 0.04258386 -0.05123948 -0.0739763 -0.026208635 0.020548575 -0.037420712
-0.0021201018 0.03074174 0.06062211 0.02108569 -0.040811885 -0.13876024 0.04409174 -0.02377368
0.021503234 0.07177445 -0.008519494 0.00594802 -0.038935766 -0.058928132 0.040001992 0.060352515
-0.014462591 0.04646438 -0.033095267 -0.04373392 -0.039370887 -0.079869166 -0.03491565 0.07579117
-0.068704136 -0.03648949 0.0019073199 0.02177789 0.022227222 -0.013341668 0.022655731 0.11080863
0.1191163 0.04347428 -0.063408494 -0.034633458 -0.047617953 -0.009499321 -0.017801786 0.047926042
0.051582985 0.044141732 -0.027849967 -0.0071305083 0.0033419502 0.1139728 0.031479605 -0.05505227
-0.054709814 -0.059228238 0.021387637 0.017623583 -0.075181894 0.07929261 -0.06285745 -0.0040688487
0.06772777 0.024733748 -0.013600798 0.013284108 0.0097378725 -0.10100184 -0.0018273136 -0.01203142
-0.06350438 0.00061966263 -0.046871208 -0.044729527 -0.027605511 0.023598863 0.045879316 -0.06101525
-0.059327226 0.018927567 0.04690627 0.0019357876 -0.020551607 -0.027123626 0.017517533 0.061209887
-0.021477772 -0.045973208 -0.04912283 -0.031531505 0.027956674 0.04114027 0.082710855 -0.024140885
0.044795614 -0.082184404 -0.0186341 0.037184227 0.084666125 0.030361177 -0.07025915 -0.08456185

action_model._continuous_distribution.mu.bias f4 [5]
00000000: b783 15bd 0d4c 0a3c 4cae 67bd 5b79 a03c
00000010: 4dc3 c1bd
-0.036502566 0.0084409835 -0.056562707 0.019589117 -0.09461079

exp_avg f4 [128, 93]
00000000: ca9a 8537 fafb 9fb9 7788 81b6 4457 b238
00000010: c18b c6b9 e217 f138 996e 80b6 1297 93b8
00000020: ed01 9db9 ec00 bc38 af79 82b6 bbe9 6339
00000030: 7dcb 1fb9 d930 8538 d66e 80b6 94ab b2b8
00000040: 163c acb8 b6ab 4937 c013 85b6 4211 61b8
00000050: 7fa0 a339 c649 c237 9e3d 77b6 ada4 1b39
00000060: 881a 4e38 eb1b d6b8 1783 88b6 fc86 d0b7
00000070: 4db6 2639 e459 3039 7cbc 7cb6 2e4e b738
00000080: de70 cab7 b4d3 e337 775c 8cb6 7377 c2b7
00000090: 18eb 1b37 422c a339 d91d 80b6 75b7 54b8
000000a0: e26a 0538 1f2c b5b6 6ff2 8db6 665a 1cb8
000000b0: 0c9a 9437 f19a 6bb6 17e5 86b6 6a32 0db9
000000c0: 25f1 11b8 fb4d 17b7 5378 8cb6 b564 11b8
000000d0: 5f43 b5b7 985a 3538 99a4 8cb6 d08f 66b8
000000e0: cd96 cd38 e4ed 43b8 4f2c 8eb6 1e2e 8c37
000000f0: 242d 7839 428a abb8 e801 90b6 ddc0 ff38
00000100: bf19 92b7 500c 2637 96b6 90b6 3233 77b8
00000110: 36df c1b8 11fc 92b7 c36d 18b8 872a 1339
00000120: 5b59 4238 7fd2 acb7 b8af 4bb8 52c8 f238
00000130: b512 bdb7 55eb 85b6 1ad4 33b7 e4c4 b438
00000140: e3ec 0139 02df 8cb6 a9bc 27b8 d163 7b38
00000150: 7507 63b8 95ea 98b6 29a7 39b7 c9d4 c537
00000160: 4b8d 78b8 139a 5cb7 0f6b bab8 1960 9fb7
00000170: 2c86 9eb8 2ac4 7cb9 83b0 6438 4194 76b5
00000180: 0fa2 2e38 d85b 2438 3bfc a4b8 2879 74b5
00000190: 8c73 a4b8 cf9e 09b9 5954 fe37 1b87 78b5
000001a0: 9b96 a238 4093 d5b6 1558 a7b8 9579 74b5
000001b0: 2ed5 49b9 b8e4 44b8 bb28 2ab8 ca7a 7db5
000001c0: ae4c e9b8 467f cbb9 31c2 32b7 7654 6bb5
000001d0: 7a97 3038 e793 8cb8 5692 8ab7 ab89 83b5
000001e0: a925 6cb9 1fe1 41b9 e75d d7b8 968f 70b5
000001f0: db89 c1b8 eea7 efb7 d9bd 6737 e3af 85b5
00000200: 853e b6b9 2f1c 54b9 a52f 3838 65f9 73b5
00000210: bfd7 53b8 65d1 d8b7 b0d6 1238 b03b 87b5
00000220: ffdc 31b9 057e 2fb8 09ca 4139 ac5f 80b5
00000230: b809 cf37 c09b 15b9 834d 14b7 6742 87b5
00000240: c5eb 91b8 4149 b238 86eb 6eb7 3960 84b5
00000250: 6464 f538 6302 4739 a6d3 48b9 3947 87b5
00000260: 20b2 3738 3968 7338 bdee 3939 cb02 89b5
00000270: 0b9b eeb7 d862 d8b7 d8ab 7a38 9db9 89b5
00000280: c2a6 6bb8 6409 2f37 64f2 f1b7 10ff 77b7
00000290: 6bae 9fb8 5912 acb8 4a9d b8b7 e307 8c38
000002a0: e665 29b7 374d 0d37 7acb ea36 77af f5b8
000002b0: cc99 83b8 8744 d9b7 68a3 1cb7 3a39 8c38
000002c0: 0aae aab8 5970 9538 d64e adb5 5b19 06b9
000002d0: b1fc 66b8 cfa6 afb8 fd03 82b9 db9b e3b5
000002e0: 69ff 8839 e719 3e39 264f b039 ec47 bab7
000002f0: 35ed 14b7 0021 d539 72c6 f9b8 1a54 b3b5
00000300: 40aa 13b7 5af6 6439 59bc 4b39 7f65 d838
00000310: c300 16b7 7440 163a c029 0c39 ed24 0bb8
00000320: 85aa 13b7 f88e c6b8 eca1 cdb9 587d 8039
00000330: 7d01 19b7 f6fd 5139 2900 3db7 a3c0 43b9
00000340: 1a22 0eb7 0fed 4a39 2941 62b9 2d06 e4b8
00000350: 47d4 1bb7 7a58 6237 a3b4 7eb7 d448 20b9
00000360: e04a 11b7 ec0c 0439 b41c f6b9 7e64 6d37
00000370: 3a56 20b7 1e85 4439 1854 92b9 46d0 e539
00000380: 674d 13b7 35f5 90b7 f1c7 bcb8 4c61 2cb8
00000390: 7e29 22b7 4471 7cb8 fb9e 33b9 fefb 103a
000003a0: a916 1bb7 8efb 12b9 de9c 0238 6a82 24b7
000003b0: 3561 20b7 3f83 8f37 e035 4e39 2ffe 41b7
000003c0: 18ca 21b7 1b9d 3d39 9f6b d638 60f2 d8b8
000003d0: e776 23b7 1ba6 ca38 4b25 3039 6b52 8b38
000003e0: d292 25b7 f043 9338 e473 85b8 8fe9 fc38
000003f0: 6062 26b7 13c5 1639 b2d9 44b6 b140 33b6
1.5926915e-05 -0.0003051458 -3.860386e-06 8.503956e-05 -0.00037869628 0.00011496224 -3.8275725e-06 -7.037645e-05
-0.00029946808 8.96471e-05 -3.8884677e-06 0.00021735478 -0.00015239227 6.351033e-05 -3.8276003e-06 -8.51966e-05
-8.212791e-05 1.2020513e-05 -3.966008e-06 -5.3660253e-05 0.00031209362 2.3160956e-05 -3.6841734e-06 0.00014843298
4.9138936e-05 -0.00010209515 -4.0683767e-06 -2.485839e-05 0.00015898906 0.00016818155 -3.7660639e-06 8.740682e-05
-2.4132834e-05 2.715909e-05 -4.1830895e-06 -2.3182225e-05 9.293457e-06 0.00031122757 -3.818172e-06 -5.0715596e-05
3.1809213e-05 -5.3993567e-06 -4.2303504e-06 -3.727749e-05 1.7714709e-05 -3.5107917e-06 -4.0201808e-06 -0.00013465589
-3.4795277e-05 -9.018458e-06 -4.1863327e-06 -3.4664485e-05 -2.1608254e-05 4.3238135e-05 -4.191487e-06 -5.497021e-05
9.8032506e-05 -4.6713176e-05 -4.237088e-06 1.6710776e-05 0.00023667939 -8.179668e-05 -4.2917563e-06 0.00012195271
-1.7416545e-05 9.897238e-06 -4.31279e-06 -5.893707e-05 -9.2445334e-05 -1.7521934e-05 -3.6341848e-05 0.00014034855
4.6336423e-05 -2.0602018e-05 -4.8562622e-05 0.00011576772 -2.2539267e-05 -3.991105e-06 -1.0718615e-05 8.6197426e-05
0.00012390646 -4.1982867e-06 -3.9991606e-05 5.9936025e-05 -5.4127962e-05 -4.557262e-06 -1.1065779e-05 2.3583316e-05
-5.9259397e-05 -1.3148895e-05 -8.889112e-05 -1.8999026e-05 -7.5590186e-05 -0.0002410567 5.4523825e-05 -9.185788e-07
4.163576e-05 3.9186183e-05 -7.867111e-05 -9.107339e-07 -7.841652e-05 -0.00013124499 3.0318437e-05 -9.2583804e-07
7.7528144e-05 -6.365037e-06 -7.979587e-05 -9.107401e-07 -0.0001924827 -4.6943052e-05 -4.056909e-05 -9.4428526e-07
-0.000111245885 -0.00038814003 -1.06548405e-05 -8.766723e-07 4.2102743e-05 -6.703269e-05 -1.6519025e-05 -9.800327e-07
-0.00022520743 -0.00018489778 -0.000102694896 -8.961591e-07 -9.228635e-05 -2.8569219e-05 1.3812875e-05 -9.960462e-07
-0.00034760326 -0.00020228395 4.391339e-05 -9.088747e-07 -5.050725e-05 -2.5846713e-05 3.5009056e-05 -1.0075655e-06
-0.00016962363 -4.1840616e-05 0.00018481178 -9.564587e-07 2.4680849e-05 -0.00014267769 -8.8395345e-06 -1.0077609e-06
-6.958054e-05 8.501346e-05 -1.42407425e-05 -9.862771e-07 0.000117012096 0.00018979008 -0.00019152332 -1.0079012e-06
4.379649e-05 5.803278e-05 0.00017731912 -1.0208108e-06 -2.8444008e-05 -2.5795234e-05 5.9764687e-05 -1.0261316e-06
-5.618367e-05 1.0432999e-05 -2.884231e-05 -1.4781734e-05 -7.614199e-05 -8.205017e-05 -2.2007753e-05 6.677189e-05
-1.009691e-05 8.422233e-06 6.9974312e-06 -0.00011715193 -6.275214e-05 -2.5900326e-05 -9.336371e-06 6.6863795e-05
-8.138649e-05 7.1258e-05 -1.2912449e-06 -0.00012788681 -5.507161e-05 -8.375721e-05 -0.00024798504 -1.6958178e-06
0.00026130237 0.00018129461 0.00033628306 -2.2206419e-05 -8.8767165e-06 0.00040651113 -0.000119102086 -1.3361016e-06
-8.801522e-06 0.00021835548 0.00019429754 0.00010318588 -8.940874e-06 0.000573165 0.00013366994 -3.3174572e-05
-8.801585e-06 -9.468006e-05 -0.00039221288 0.0002450745 -9.119857e-06 0.00020026401 -1.1265315e-05 -0.00018668412
-8.471799e-06 0.00019352532 -0.00021577314 -0.000108730375 -9.288145e-06 1.349125e-05 -1.51816375e-05 -0.0001528592
-8.660107e-06 0.00012593315 -0.00046942162 1.41496985e-05 -9.556819e-06 0.00018741607 -0.00027909945 0.0004383346
-8.779904e-06 -1.7280321e-05 -9.0017806e-05 -4.109861e-05 -9.665613e-06 -6.018697e-05 -0.00017129995 0.0005530714
-9.243996e-06 -0.00014017356 3.114051e-05 -9.805526e-06 -9.559376e-06 1.7108045e-05 0.00019665761 -1.1562878e-05
-9.643401e-06 0.00018082971 0.00010224361 -0.000103448285 -9.743241e-06 9.66305e-05 0.0001679856 6.643388e-05
-9.868951e-06 7.0221606e-05 -6.3635205e-05 0.000120598 -9.917276e-06 0.0001437853 -2.9332991e-06 -2.6710734e-06

exp_avg_sq f4 [128, 93]
00000000: 795e 5436 83d0 a335 77e3 8232 7ad9 3535
00000010: c877 3536 5a2d 8635 27b0 8132 077d 1d35
00000020: ecec 8036 0027 e635 eb2f 7f32 b5c8 3835
00000030: bae1 b635 51b2 6534 7e04 7b32 c718 1c35
00000040: 8de5 0e36 3faa 2235 acbb 3932 20d2 1935
00000050: cfd9 7a35 c42a 8433 e91a 8032 a84f 1935
00000060: 4d73 7e35 d1ab a834 31cb d131 54e7 2935
00000070: ffe0 4f35 8133 0f34 ac6c 7d32 b0ae 2735
00000080: ebf8 c934 7fbd 2034 9a68 f931 2547 1c35
00000090: 069a 3735 37f5 8134 a463 9632 4b5a 0835
000000a0: 30a4 5233 eaeb b231 00e5 aa31 6fc8 0d35
000000b0: 8144 1d35 750c 1634 a231 9532 cc93 0a35
000000c0: 672b 8633 2bbf e631 628f 5b31 e245 1035
000000d0: 3ef0 1635 5944 7733 cfa4 9332 daec ff34
000000e0: 9cc3 2534 de57 c432 2656 4331 87a9 1735
000000f0: d34b 2d35 805e 3e34 dee1 6032 7b44 0b35
00000100: 5e12 8934 2628 4a33 b67d 0b31 b60e 2935
00000110: 98a1 b634 e7db 8d34 846d 3333 b544 ed34
00000120: 0560 d134 2bc6 9d33 9402 9a33 e4ea ee34
00000130: f52c cf34 11e7 8334 4a31 0b34 c8ed 0835
00000140: bbef f234 ffda 5a33 1cfd ed33 c3a5 0535
00000150: 1fea eb34 f22c 6a34 eda6 0634 eca0 0635
00000160: ad96 2235 78ba db34 fcf3 4535 8373 9b34
00000170: 6ef0 fe34 a3e1 8a34 67a8 3734 604a 9e32
00000180: 3443 fd34 51e8 3e35 d7b7 1335 df10 b932
00000190: 4b2f 0135 3745 0f35 22e7 ef34 7d53 9832
000001a0: 71b0 f334 be93 a134 0bae 9b33 194c bb32
000001b0: 717d e434 ff3b ae34 3268 6634 2df4 a732
000001c0: 67d1 f134 adb0 2535 7bd0 a133 b000 d532
000001d0: e462 e834 f747 a434 539c 1734 ad31 8f32
000001e0: f85c 2a35 c2ce c034 4e18 bf33 2c4d d632
000001f0: 953c f334 b6cd c034 ecce ae33 bafb a832
00000200: 29a5 3635 d24d 8e34 131c 9233 ce6d f032
00000210: 3715 eb34 b824 7135 6553 3934 5252 b032
00000220: 71a3 1535 556d 8634 d56b 9934 59d3 cb32
00000230: d154 f934 afd2 e635 4f01 8e34 2b83 ba32
00000240: d8c8 1935 d4f7 7334 2fe2 8c33 8e79 fa32
00000250: 59fe 0e35 1cce 2e36 850a b234 34f2 c032
00000260: 1a71 2035 ab3f 8a34 e5db 4b34 d001 e832
00000270: 55d5 1735 bb85 1936 190c a234 eeb9 a632
00000280: 6d48 1535 14a8 1235 907e f733 3005 ce34
00000290: 5523 1335 3de5 1535 3d52 eb33 5bb6 dd34
000002a0: 91dd 1135 1d38 0c35 10c7 4034 c5f3 0235
000002b0: 9d1a 1735 c47f 0735 851b 1a33 81e2 0035
000002c0: 4d8e 1535 aaa0 0035 bfb8 1d34 c0a1 1635
000002d0: 1946 1d35 0217 b034 007f 0335 1daa fc34
000002e0: facc 7135 0466 bf34 e802 b735 5fd9 ea34
000002f0: e9e4 2831 fa25 8035 db26 2035 e18c 6334
00000300: d8e9 f230 02fd 6335 bb76 fe35 fa5a 2d35
00000310: 25b0 2f31 f239 5335 278b 6135 ba89 6034
00000320: 2d6f ef30 4233 3135 c034 2036 a080 e634
00000330: bd00 5d31 25bb 5335 e314 c635 e091 de34
00000340: d3c7 9331 2635 2735 1b97 0d36 f6a1 8134
00000350: 7169 0e31 a70b 6c35 b8ea 6435 ade1 8134
00000360: a291 f030 5a88 2335 05db e735 c26f 7434
00000370: 80e2 0931 5651 4335 f102 2635 8763 cd34
00000380: b577 c430 177a 0835 4f95 5835 9ed4 2b33
00000390: a2d8 e630 acfe 3735 0299 f234 7d9c ad34
000003a0: 28cc cc30 9a1b f334 2864 fa34 f05a a433
000003b0: 38d9 b930 6d05 2335 0bcd c534 c9e4 c933
000003c0: 00da ca30 e37d 0435 11c4 5434 0a03 8533
000003d0: 32f8 5130 02a7 3435 c858 c634 bd86 6134
000003e0: 3411 6d30 25df 0235 056c fa33 237d 7b33
000003f0: 74e1 0130 e36b 1c35 b48f 1535 ff9d f432
3.1645452e-06 1.2205131e-06 1.523743e-08 6.7744224e-07 2.7040824e-06 9.996977e-07 1.5097681e-08 5.8668996e-07
3.8422786e-06 1.7147686e-06 1.4853849e-08 6.883741e-07 1.3625752e-06 2.1392158e-07 1.4611144e-08 5.8150584e-07
2.1293265e-06 6.0597444e-07 1.0811089e-08 5.7302714e-07 9.344921e-07 6.154508e-08 1.4913399e-08 5.7112857e-07
9.479016e-07 3.141745e-07 6.1058008e-09 6.329403e-07 7.744092e-07 1.333665e-07 1.4751247e-08 6.246655e-07
3.762028e-07 1.49701e-07 7.2587456e-09 5.821806e-07 6.8396946e-07 2.420654e-07 1.750761e-08 5.079534e-07
4.9043763e-08 5.207302e-09 4.9736855e-09 5.281826e-07 5.8586744e-07 1.397437e-07 1.7368453e-08 5.162408e-07
6.247756e-08 6.7156143e-09 3.1950198e-09 5.3745873e-07 5.6228953e-07 5.757133e-08 1.7187999e-08 4.7669783e-07
1.5437985e-07 2.285736e-08 2.8425204e-09 5.649858e-07 6.455786e-07 1.7729508e-07 1.3089872e-08 5.188119e-07
2.5531602e-07 4.7068305e-08 2.029862e-09 6.2978813e-07 3.4017717e-07 2.6423297e-07 4.177629e-08 4.419468e-07
3.8999147e-07 7.346929e-08 7.171653e-08 4.450186e-07 3.8589465e-07 2.4568774e-07 1.2963315e-07 5.1009965e-07
4.525044e-07 5.0956256e-08 1.1082213e-07 4.9787576e-07 4.3942507e-07 2.1809299e-07 1.254045e-07 5.015306e-07
6.0568965e-07 4.0927603e-07 7.3743263e-07 2.8955046e-07 4.7486122e-07 2.5868675e-07 1.7104468e-07 1.8427443e-08
4.717382e-07 7.111858e-07 5.502929e-07 2.1544507e-08 4.8125065e-07 5.337237e-07 4.468539e-07 1.7733095e-08
4.5390655e-07 3.0096083e-07 7.249408e-08 2.180427e-08 4.255958e-07 3.2453679e-07 2.1458325e-07 1.9552397e-08
4.5042108e-07 6.1724387e-07 7.535069e-08 2.4796776e-08 4.328532e-07 3.0599742e-07 1.4119841e-07 1.6669981e-08
6.346522e-07 3.5913223e-07 8.8985516e-08 2.4947973e-08 4.5306356e-07 3.591246e-07 8.140145e-08 1.9672246e-08
6.8040623e-07 2.6506183e-07 6.8037615e-08 2.798961e-08 4.3787597e-07 8.983293e-07 1.7259806e-07 2.0526532e-08
5.5744664e-07 2.5038995e-07 2.857693e-07 2.372842e-08 4.6441576e-07 1.7197652e-06 2.6450513e-07 2.1712898e-08
5.728921e-07 2.2721298e-07 6.5604006e-08 2.9159107e-08 5.3269247e-07 2.6047992e-06 3.3162738e-07 2.2461883e-08
5.976923e-07 2.5750828e-07 1.8985845e-07 2.7009179e-08 5.656232e-07 2.2876618e-06 3.0183654e-07 1.9409494e-08
5.561222e-07 5.4633824e-07 1.15248554e-07 3.8374264e-07 5.481318e-07 5.584041e-07 1.0957999e-07 4.129714e-07
5.433913e-07 5.223572e-07 1.7953812e-07 4.8783505e-07 5.629061e-07 5.047734e-07 3.5880948e-08 4.801332e-07
5.57139e-07 4.791751e-07 1.4688975e-07 5.611473e-07 5.8589063e-07 3.2799295e-07 4.898611e-07 4.7062431e-07
9.0077776e-07 3.5650748e-07 1.3635408e-06 4.3744055e-07 2.4577338e-09 9.547796e-07 5.9661187e-07 2.1192274e-07
1.767428e-09 8.4932265e-07 1.895903e-06 6.457991e-07 2.5565978e-09 7.8687947e-07 8.4021525e-07 2.091173e-07
1.7421137e-09 6.601223e-07 2.3872562e-06 4.2934425e-07 3.2160152e-09 7.8875956e-07 1.4758228e-06 4.145686e-07
4.3009805e-09 6.228969e-07 2.1098592e-06 2.4145965e-07 2.0723656e-09 8.793381e-07 8.527818e-07 2.4192323e-07
1.750369e-09 6.092065e-07 1.7274584e-06 2.2764928e-07 2.0064874e-09 7.276152e-07 6.18441e-07 3.825664e-07
1.42949e-09 5.084161e-07 8.0683543e-07 4.0007414e-08 1.6796273e-09 6.854341e-07 4.518734e-07 3.233762e-07
1.4900978e-09 4.528236e-07 4.6639002e-07 7.6533865e-08 1.3522259e-09 6.073013e-07 3.6843298e-07 9.401408e-08
1.4759394e-09 4.935702e-07 1.9815367e-07 6.193848e-08 7.6386464e-10 6.7298254e-07 3.694497e-07 2.1003775e-07
8.6244545e-10 4.875349e-07 1.1661181e-07 5.8554303e-08 4.7250315e-10 5.8271524e-07 5.571594e-07 2.8477187e-08
