Assets/results/5/CoinChaser.onnx (onnx, 442611 bytes, 13 tensors)

network_body.observation_encoder.processors.0.normalizer.running_mean f4 [100]
0	0x3f71db07	0.94474834
1	0x3c092aa7	0.0083719855
2	0x3b0c5955	0.002141555
3	0x3e919020	0.2843027
4	0x3f72e1f3	0.9487602
5	0x3c0536a2	0.008130701
6	0x3b0c6a22	0.0021425565
7	0x3e929a4f	0.28633353
8	0x3f7104a8	0.9414773
9	0x3c081592	0.008305924
10	0x3b0b3bc5	0.0021245342
11	0x3e9041d6	0.2817523
12	0x3f73ea48	0.9527936
13	0x3bf1b0a4	0.0073757935
14	0x3b0c6a2d	0.002142559
15	0x3e935037	0.28772137
16	0x3f70aee6	0.94016874
17	0x3c002d6f	0.007823332
18	0x3b0dcad5	0.002163579
19	0x3e8f0c10	0.2793889
20	0x3f74a495	0.9556363
21	0x3bda4c81	0.006661952
22	0x3b0d121b	0.0021525684
23	0x3e93505e	0.28772253
24	0x3f712327	0.94194263
25	0x3be5a671	0.0070083668
26	0x3b0e4068	0.002170587
27	0x3e8e3b2d	0.27779523
28	0x3f7530a3	0.9577734
29	0x3bbb5c9a	0.005717826
30	0x3b0ba08f	0.0021305417
31	0x3e92add9	0.2864826
32	0x3f71f56e	0.9451512
33	0x3bc4be90	0.006004162
34	0x3b0e2fb1	0.0021695907
35	0x3e8d6a86	0.27620333
36	0x3f759499	0.9592987
37	0x3ba0d218	0.0049078576
38	0x3b0c37b4	0.0021395506
39	0x3e9147c5	0.28375068
40	0x3f731281	0.9495011
41	0x3ba53fe3	0.0050430163
42	0x3b0d986a	0.0021605738
43	0x3e8c8cde	0.27451223
44	0x3f75f338	0.9607425
45	0x3b8cad40	0.004293114
46	0x3b0dcaed	0.0021635846
47	0x3e8f45d5	0.27982965
48	0x3f7413c2	0.9534265
49	0x3b8a723a	0.0042250426
50	0x3b0bd2e7	0.0021335424
51	0x3e8b36b7	0.27190182
52	0x3f764c15	0.9620984
53	0x3b6b2937	0.003588272
54	0x3b0c7ae3	0.002143555
55	0x3e8ca3ce	0.27468723
56	0x3f74d5ad	0.95638543
57	0x3b6e0c6e	0.0036323327
58	0x3b0bc21d	0.0021325417
59	0x3e89662c	0.26835763
60	0x3f768efb	0.9631192
61	0x3b508593	0.0031817898
62	0x3b0b095d	0.0021215298
63	0x3e899566	0.26871794
64	0x3f75527c	0.95828986
65	0x3b4e5b38	0.0031487476
66	0x3b0ccefa	0.0021485672
67	0x3e8755b2	0.26432568
68	0x3f76e730	0.96446514
69	0x3b2f957b	0.0026791978
70	0x3b0d22e7	0.0021535696
71	0x3e860793	0.26177654
72	0x3f759c29	0.95941406
73	0x3b39e29f	0.0028363836
74	0x3b0dec74	0.002165583
75	0x3e84c061	0.25928023
76	0x3f773859	0.96570355
77	0x3b186c19	0.002325779
78	0x3b0ba081	0.0021305385
79	0x3e8237c7	0.2543318
80	0x3f75ca26	0.9601158
81	0x3b2c4d90	0.0026291348
82	0x3b0d4484	0.002155573
83	0x3e81da0d	0.25361672
84	0x3f777bfd	0.96673566
85	0x3b0ba0a5	0.0021305468
86	0x3b0c26f1	0.0021385516
87	0x3e7cbab5	0.24680598
88	0x3f760140	0.9609566
89	0x3b1aea43	0.0023638166
90	0x3b0bf48e	0.0021355483
91	0x3e7da90d	0.24771519
92	0x3f77bf4b	0.96776265
93	0x3b0479bd	0.0020214163
94	0x3b0b6e22	0.002127536
95	0x3e756570	0.23964477
96	0x3f76371e	0.9617785
97	0x3b134ddd	0.002247683
98	0x3b0c37bd	0.0021395527
99	0x3e77835f	0.24171208

network_body.observation_encoder.processors.1.normalizer.running_mean f4 [52]
0	0x3eb8ceca	0.36095268
1	0x3b2d5a5a	0.0026451559
2	0x3dc8997e	0.09794901
3	0x3ee1d606	0.441086
4	0x3eb84f2b	0.359979
5	0x3b2a3411	0.0025970975
6	0x3dcae8f6	0.09907715
7	0x3ee29363	0.44253072
8	0x3eb9923d	0.36244383
9	0x3b2d9d8f	0.0026491617
10	0x3dc68635	0.09693567
11	0x3ee13273	0.43983802
12	0x3eb856a8	0.36003613
13	0x3b23505e	0.0024919729
14	0x3dcd226e	0.100163326
15	0x3ee3629f	0.4441118
16	0x3ebadca5	0.36496463
17	0x3b2ffa39	0.0026852025
18	0x3dc41b54	0.09575525
19	0x3ee0ac0f	0.4388127
20	0x3eb8ef1c	0.36119926
21	0x3b1d46ea	0.0023998567
22	0x3dcf1e96	0.10113256
23	0x3ee444e7	0.44583818
24	0x3ebca370	0.36843443
25	0x3b281a94	0.0025650607
26	0x3dc24c5c	0.09487221
27	0x3ee06378	0.4382589
28	0x3eb9d316	0.36293858
29	0x3b194654	0.0023387866
30	0x3dd0e5b2	0.10200061
31	0x3ee525fe	0.44755548
32	0x3ebf2dd9	0.37339666
33	0x3b2286d3	0.00247996
34	0x3dbff7e8	0.09373456
35	0x3ee04ea2	0.43809992
36	0x3ebb819d	0.36622325
37	0x3b0f7f99	0.0021896122
38	0x3dd2224c	0.10260448
39	0x3ee610c3	0.44934663
40	0x3ec20866	0.37897032
41	0x3b1bc4ac	0.0023768349
42	0x3dbe3d00	0.092889786
43	0x3ee0aace	0.43880314
44	0x3ebd7f52	0.370112
45	0x3b05c9a4	0.0020414377
46	0x3dd341ee	0.103153095
47	0x3ee6feef	0.45116374
48	0x3ec51f46	0.38500422
49	0x3b12e904	0.002241672
50	0x3dbd24b0	0.09235513
51	0x3ee14c9c	0.4400376

network_body.observation_encoder.processors.2.normalizer.running_mean f4 [8]
0	0x3eef13bf	0.46694753
1	0xbfcdb64c	-1.6071258
2	0xbf6570af	-0.89625067
3	0x3f6731a3	0.90310115
4	0x3e7f8916	0.24954638
5	0x3e1ebea5	0.15502413
6	0x3d59fadf	0.053217765
7	0xb84da561	-4.902983e-05

network_body._body_endoder.seq_layers.0.weight f4 [256, 160]
0	0xbd6dee74	-0.058088735
1	0x3d553b95	0.052058775
2	0x3cd6c5c3	0.026217347
3	0x3d98db01	0.07463647
4	0x3cd35a84	0.025799997
5	0xbdfb30d3	-0.12265172
6	0xbd17b1bd	-0.03703474
7	0xbc6e8d75	-0.014560093
8	0xbc2b8687	-0.010469086
9	0xbcff6d81	-0.031180145
10	0x3cafb167	0.021446897
11	0xbd8175f1	-0.06321324
12	0x3d40839a	0.047000505
13	0x3dac9f18	0.08428782
14	0xbddbc51b	-0.10730954
15	0x3def1ddd	0.11675618
16	0x3e0865da	0.13320103
17	0xbd5a46bb	-0.05329011
18	0xbe33e8b6	-0.17569241
19	0x3cd44524	0.025911875
20	0x3d2c5296	0.042070948
21	0x3db94b23	0.09047534
22	0x3d842503	0.06452372
23	0xbe0ef2c4	-0.13959795
24	0xbc2a6433	-0.010399866
25	0x3df9a2e0	0.12189269
26	0x3def8e7a	0.11697097
27	0xbb23d966	-0.0025001406
28	0xbcfd9565	-0.030955026
29	0xbda4ffd3	-0.08056607
30	0xbd714891	-0.058907095
31	0xbe146d7b	-0.14494888
32	0x3d30a462	0.043125518
33	0xbd4b8f0d	-0.04969697
34	0xbdea4c94	-0.11440387
35	0x3c4aa2f0	0.012367949
36	0x3c436a39	0.011927181
37	0xbbc0977b	-0.005877433
38	0x3da296f9	0.07938952
39	0xbdeb908b	-0.11502179
40	0x3e7ff59e	0.2499604
41	0xbc0e3342	-0.008679213
42	0x3d475b38	0.048670977
43	0x3d9643c7	0.07337146
44	0x3d7fca4a	0.062448777
45	0x3d108073	0.03527875
46	0xbe116274	-0.14197713
47	0xbe41dc80	-0.1893177
48	0xbccfacb8	-0.025350913
49	0x3c98193a	0.018566716
50	0xbdb5a831	-0.088699706
51	0x3dd0dbd4	0.10198179
52	0x3e15742f	0.14595102
53	0xbd8c2619	-0.06843204
54	0xbd884387	-0.06653505
55	0x3c4631a6	0.012096798
56	0x3ceebaca	0.029141802
57	0x3d1b25fa	0.037878014
58	0x3d223953	0.03960545
59	0x3d84a962	0.0647762
60	0x3e0dbc67	0.13841401
61	0x3d20a571	0.039220277
62	0xbdb4017e	-0.08789347
63	0x3d921493	0.071328305
64	0xbd19a77f	-0.037513252
65	0x3cb9738d	0.022638107
66	0x3e3355e3	0.17513232
67	0x3e2be445	0.16786297
68	0x3dcc61fe	0.09979628
69	0xbdb1bae7	-0.08678227
70	0xbdab22f1	-0.08356274
71	0xbd2865b3	-0.041112613
72	0x3c85fcc7	0.016355885
73	0x3cf6b15f	0.030113874
74	0xbd65b76f	-0.05608314
75	0x3d9ed647	0.07755714
76	0x3d8ab9a1	0.06773687
77	0xbd8a6d4d	-0.06759129
78	0xbd8bd159	-0.06827039
79	0xbd9e4028	-0.077270806
80	0xbd43ab5d	-0.047770847
81	0x3c116c5f	0.008875935
82	0xbd908d00	-0.070581436
83	0x3df641c9	0.12024266
84	0x3e34700a	0.17620865
85	0xbce6f3ed	-0.028192485
86	0x3dbb3447	0.091408305
87	0x3c15b5af	0.009137555
88	0x3d75d8a5	0.06002106
89	0xbe25aecf	-0.16179965
90	0xbd744e05	-0.059644718
91	0xbc4a298e	-0.012339009
92	0x3de69efc	0.112607926
93	0xbda2e1e1	-0.07953239
94	0xbe0483c4	-0.1294089
95	0xbcadbbbf	-0.021207688
96	0x3ae7862b	0.0017663887
97	0xbde2ca3e	-0.11073731
98	0xbe04ed1f	-0.1298108
99	0xbdbe630f	-0.09296238
100	0x3e1574ff	0.14595412
101	0xbd9f94c6	-0.07792048
102	0x3dc4b012	0.09603895
103	0x3e36b137	0.1784104
104	0x3e2d7daf	0.16942476
105	0x3bb40bcf	0.0054945718
106	0x3d0c050d	0.034184504
107	0x3d981ade	0.074269995
108	0x3d9e840e	0.07740031
109	0x3d081b04	0.03322889
110	0x3d49f427	0.049305107
111	0x3ddb2311	0.10700048
112	0xbd26f36c	-0.04075949
113	0x3db30ecd	0.087430574
114	0xbb54c32b	-0.0032464962
115	0x3c97b32b	0.018518051
116	0xbc1a27a4	-0.009408865
117	0x3e066f75	0.13128455
118	0x3cc7a355	0.024369875
119	0xbda40bcf	-0.08010065
120	0x3dcbc3ea	0.09949477
121	0xbd10f8e3	-0.035393607
122	0xbea5ada8	-0.32359052
123	0x3c5af1c5	0.013363306
124	0x3d7c620e	0.06161695
125	0xbce8ea5c	-0.028432064
126	0xbdda877c	-0.10670373
127	0x3d5bb1d8	0.053636402
128	0x3dee1b09	0.1162625
129	0xbd97f5bd	-0.07419918
130	0x3de9d8fb	0.11418339
131	0x3dbc491a	0.091936305
132	0xbdbce3c8	-0.09223133
133	0xbe078cb9	-0.13237275
134	0xbd6740c8	-0.056458265
135	0x3e015824	0.12631279
136	0x3c39ecde	0.011347977
137	0x3b11f018	0.0022268351
138	0x3db84543	0.089975856
139	0x3d76464d	0.060125638
140	0xbdd76986	-0.10518174
141	0xbcbbfc99	-0.022947596
142	0x3d94e3ac	0.072699875
143	0x3e08a42d	0.13343878
144	0x3e07dc29	0.13267578
145	0x3e1d0364	0.15333325
146	0xbe06e947	-0.13174926
147	0x3e02b138	0.12762916
148	0xbb9cbfd3	-0.0047836094
149	0xbb75f8d1	-0.003753234
150	0xbe1b1878	-0.15146053
151	0x3dcfd9d3	0.101489685
152	0xbe0bc7fc	-0.13650507
153	0x3db31fe7	0.08746319
154	0x3e03d9e1	0.12876083
155	0x3d8fa9a7	0.070147805
156	0x3d0955fa	0.03352926
157	0x3d91da6b	0.07121738
158	0xbd801f98	-0.06256026
159	0x3da4b7fc	0.08042905
160	0xbbeea559	-0.0072828946
161	0xbe18fb30	-0.1493957
162	0x3d9d5d63	0.07683828
163	0xbc61239b	-0.013741399
164	0xbd45e160	-0.048310637
165	0xbd006f8d	-0.031356383
166	0x3d02502d	0.031814743
167	0x3ca4bca2	0.020109478
168	0x3db7cb3d	0.089743115
169	0xbca513da	-0.020151068
170	0xbd8e98f1	-0.06962765
171	0x3d2892ae	0.04115551
172	0x3c81e0e2	0.015854303
173	0x3da1b622	0.07896067
174	0x3bd00d07	0.006349209
175	0x3dc137f7	0.094345026
176	0x3c8bc549	0.017061846
177	0xbcbd663a	-0.023120034
178	0xbccab02a	-0.024742205
179	0x3cd3a2d9	0.025834488
180	0x3e052de2	0.13005784
181	0xbd99b9f0	-0.07506168
182	0x3a3c6bc2	0.0007187688
183	0xbc50248b	-0.012704025
184	0xbd2e9e7f	-0.042631622
185	0x3e29bf78	0.16576946
186	0xbd699898	-0.05703029
187	0xbc631560	-0.013860077
188	0x3d87d265	0.066319264
189	0x3c60fca5	0.01373211
190	0xbd6b42ac	-0.05743663
191	0x3e14d2e6	0.14533576
192	0xbd088c28	-0.03333679
193	0xbd8a0fa1	-0.06741262
194	0xbdaeb0c0	-0.08529806
195	0x3d75384c	0.059868142
196	0x3e5d8ca7	0.21635686
197	0xbdc9d416	-0.09854905
198	0x3c7aa110	0.015297189
199	0x3c498559	0.012299859
200	0xbe331883	-0.17489819
201	0xbd974911	-0.07386983
202	0x3c0c738d	0.008572471
203	0x3c082f07	0.008311993
204	0x3e009b10	0.12559152
205	0xbe2b291e	-0.16714904
206	0xbdb22930	-0.08699262
207	0x3e562c77	0.209154
208	0x3de181bf	0.11011075
209	0xbe540711	-0.2070582
210	0x3e2135fc	0.1574325
211	0x3cd4d739	0.025981532
212	0x3dc45700	0.095869064
213	0xbe0d4731	-0.13796689
214	0xbd902caf	-0.07039773
215	0xbdabbb0e	-0.08385287
216	0xbd1d6d6b	-0.038434427
217	0xbdcd7331	-0.10031737
218	0xbe02bf12	-0.127682
219	0xbd85c320	-0.06531358
220	0xba1daba0	-0.0006014649
221	0x3d7139a0	0.058892846
222	0x3dca5b6c	0.098807186
223	0xbd6f10e8	-0.058365732
224	0xbe65a98f	-0.22427963
225	0x3d3cb057	0.04606661
226	0x3dbf8b6c	0.093527645
227	0x3d48ede0	0.04905498
228	0x3dcea063	0.10089185
229	0x3dc9df22	0.09857012
230	0xbd9f2e71	-0.0777253
231	0x3d0028f9	0.031289075
232	0x3dff6a42	0.12471439
233	0x3ce94ee1	0.028479995
234	0x3d20b1b8	0.039231986
235	0x3c4992f8	0.0123031065
236	0xbd62fcc4	-0.055416837
237	0x3e01a402	0.1266022
238	0xbd212931	-0.039345924
239	0x3c80546e	0.01566526
240	0x3d8a8387	0.06763368
241	0xbe4eca16	-0.20194277
242	0xbdc00e79	-0.093777604
243	0xbd1fed90	-0.039044917
244	0xbdb11ea1	-0.0864842
245	0x3c156e32	0.009120511
246	0x3db3992b	0.08769449
247	0x3dd52d64	0.10409048
248	0xbd7496e5	-0.059714217
249	0xbd75f9de	-0.060052745
250	0x3d311697	0.043234434
251	0x3e0c5728	0.13705122
252	0x3d20a052	0.039215393
253	0xbe0deb80	-0.13859367
254	0x3c7361f5	0.014854898
255	0xbe0c1d4e	-0.13683054

network_body._body_endoder.seq_layers.0.bias f4 [256]
0	0x3d000520	0.031254888
1	0x3d395e81	0.04525614
2	0x3d325e74	0.04354711
3	0xbce780b1	-0.028259607
4	0xbb450a86	-0.0030066087
5	0x3b900b27	0.0043958607
6	0xbc8a7dca	-0.016905684
7	0xbca040fc	-0.019562237
8	0x3cf7c4b5	0.030245164
9	0xbcd1369c	-0.025538735
10	0xbc1d96a7	-0.009618438
11	0x3c841a2b	0.01612576
12	0xbb3db8b6	-0.0028949208
13	0x3c805125	0.015663693
14	0x3c1e437f	0.009659647
15	0x3ce1c796	0.02756099
16	0x3d79156b	0.06081144
17	0xbba5aaae	-0.005055747
18	0xbcb3a86a	-0.021930892
19	0x3d1bb235	0.03801175
20	0x3ccccf41	0.02500117
21	0xba28083f	-0.000640992
22	0x3d030f8e	0.031997256
23	0x3cb41622	0.02198321
24	0x3c02fc78	0.007994764
25	0x3c6d7371	0.014492855
26	0x3c3a496e	0.011370046
27	0x3c647ac9	0.01394529
28	0xbd3ae88c	-0.04563193
29	0xbc83d749	-0.016093867
30	0x3c8d5463	0.017252153
31	0x3cac4496	0.021028798
32	0x3d53f279	0.05174491
33	0x3ca9a8fd	0.020710463
34	0x3cb3c691	0.02194527
35	0x3d431488	0.047627002
36	0xbb77580e	-0.0037741694
37	0xbcb7b9af	-0.022427408
38	0x3cb820b3	0.02247653
39	0xbcc2f372	-0.023797724
40	0x3baac54e	0.005211509
41	0x3c628e77	0.013827912
42	0x3c211ec9	0.009834
43	0xb89576a4	-7.126972e-05
44	0xbbfd1bb5	-0.00772425
45	0x3a7be48d	0.0009608947
46	0xbc63fcb4	-0.01391523
47	0x3c05b1bd	0.008160052
48	0xbaef499e	-0.0018256193
49	0x3bdd8ec3	0.0067614033
50	0x3be79e99	0.007068467
51	0xbcf2f555	-0.029657999
52	0x3ca61171	0.020271989
53	0x3c9037c9	0.017604725
54	0x3c964634	0.018344022
55	0x3b5b5459	0.0033467023
56	0x3c8a28b1	0.016865106
57	0x39223527	0.00015469325
58	0x3d21948c	0.039448306
59	0x3d2825fb	0.041051846
60	0x3d0a4b01	0.033762936
61	0x3d3727b3	0.044715595
62	0x3c07075b	0.0082415
63	0x3ceaa3c3	0.02864254
64	0xbc18855d	-0.00930914
65	0xbbc469e0	-0.0059940666
66	0x3d571ac9	0.05251578
67	0x3ce262b7	0.027634962
68	0x3b85878d	0.004074997
69	0x3b9acbaa	0.0047239857
70	0x3c4e4519	0.012589716
71	0xbb8102b7	-0.003937091
72	0x3c828bc5	0.015935788
73	0xbbd7a540	-0.0065809786
74	0x3d2e09fd	0.042489994
75	0xbbf054b1	-0.0073343148
76	0x3c2445b1	0.010026381
77	0x3d68d35e	0.0568422
78	0x3b2f837e	0.0026781256
79	0xbca922fe	-0.020646568
80	0xbc92690b	-0.017872354
81	0xbc14ac6a	-0.00907431
82	0x3cb76c64	0.022390552
83	0x3ca89ded	0.020583117
84	0x3c32eaf9	0.01092028
85	0x3bcf3281	0.006323159
86	0xbcb22981	-0.021748306
87	0x3b09e48e	0.002104077
88	0xbca7ef40	-0.020499825
89	0x3cbdfe36	0.023192506
90	0x3c9c47d3	0.019077217
91	0xbd1ad623	-0.037801873
92	0x3cb3cfab	0.02194961
93	0x3c9562e4	0.018235631
94	0x3d26dbfe	0.040737145
95	0x3c5fe96a	0.01366649
96	0x3c718d34	0.014743138
97	0xbc55e08a	-0.013054023
98	0xbb75a9aa	-0.003748516
99	0x3c9b3ec9	0.018950837
100	0x3c80af54	0.015708603
101	0x3c994fb3	0.018714761
102	0x3c869e46	0.016432893
103	0x3cbfd91f	0.023418961
104	0x3d025c52	0.031826325
105	0x3d6346aa	0.055487312
106	0xba819e69	-0.0009889129
107	0x3c631c9b	0.013861801
108	0x3d26b95a	0.04070411
109	0x3af1bf92	0.0018443933
110	0x3bbb79a6	0.0057212887
111	0x3b2c5185	0.0026293707
112	0x3cab0bef	0.020879714
113	0xbc925dbf	-0.017866967
114	0x3d27bca3	0.040951382
115	0xbd3ad0db	-0.045609336
116	0xbc45167f	-0.012029289
117	0x3a829527	0.0009962664
118	0x3c070def	0.008243068
119	0x3c0113a7	0.007878221
120	0x3c0b1da7	0.008490956
121	0xbccebe5d	-0.025237257
122	0x3cc08974	0.023503043
123	0x3ac3f080	0.0014948994
124	0x3cf94623	0.030428952
125	0x3d05285d	0.032509197
126	0x3c9438e5	0.018093536
127	0xbbd4ad98	-0.0064904206
128	0x3ccc2a45	0.0249225
129	0xbceddf64	-0.029037185
130	0x3cc03de1	0.023467006
131	0x3cdb1369	0.026742654
132	0x3c9f7b09	0.019467847
133	0x3bf5676e	0.0074891364
134	0x3ccca57c	0.024981253
135	0x3c117d9e	0.008880047
136	0x3bf71b6d	0.007541111
137	0xbbfcb2dc	-0.0077117514
138	0xbcf9cb19	-0.030492352
139	0x3cb8c74e	0.022555973
140	0xbbf8a9b6	-0.0075885905
141	0x3ca4fec6	0.020141017
142	0x3cd79411	0.02631572
143	0xbcc7a247	-0.024369372
144	0xbc71c6cc	-0.0147568695
145	0x3c329640	0.01090008
146	0xbb9f45dc	-0.004860623
147	0xbc68dce1	-0.014212818
148	0xbd06b6f6	-0.03288933
149	0x3a17e45e	0.0005794222
150	0xbcddb425	-0.027063439
151	0x3c81371f	0.015773354
152	0x3c1a035b	0.009400214
153	0xbb996cd5	-0.0046821632
154	0x3d46a6fd	0.048499096
155	0x3d0642fc	0.032778725
156	0xbb4e7532	-0.003150296
157	0x3cd7e387	0.02635361
158	0x3ca424be	0.020037051
159	0x3c6c69e8	0.014429547
160	0xbc93df27	-0.018050743
161	0xbbe123ff	-0.006870746
162	0xbbcedda0	-0.006313041
163	0xbc03fbc0	-0.008055627
164	0xbc3b133a	-0.011418158
165	0x3ba35439	0.0049844054
166	0x3c925bcc	0.017866038
167	0x3c961452	0.018320236
168	0x3b84e3e8	0.004055489
169	0x3c9a6114	0.018845119
170	0xbc2a1ecc	-0.010383319
171	0x3c97a711	0.01851228
172	0x3c099031	0.008396194
173	0x3c38f16f	0.011288031
174	0xbbadd839	-0.0053053168
175	0xbcaac9a6	-0.020848107
176	0x3c8299b0	0.015942425
177	0x3c7478f5	0.0149214165
178	0x3b05d062	0.0020418395
179	0x3cd81960	0.026379287
180	0x3c86cacd	0.016454125
181	0xbbfab2e1	-0.0076507186
182	0xbc1ad05a	-0.009449089
183	0x3c99bf08	0.018767849
184	0xbc973da8	-0.018462017
185	0x3b076001	0.0020656588
186	0xbc94c100	-0.018158436
187	0x3d3603fa	0.044437386
188	0x3bdfba1b	0.0068276054
189	0x3d039fd3	0.032134842
190	0xbc8e798b	-0.01739194
191	0xbaac7575	-0.0013157564
192	0x3c890c3d	0.016729468
193	0x3ce6f8bc	0.028194778
194	0xbc41d14b	-0.0118296845
195	0x3c6389c4	0.013887826
196	0xbbae0f65	-0.0053118938
197	0x3d24505f	0.04011571
198	0x3c990a02	0.01868153
199	0xbcb7c6c8	-0.022433653
200	0x3b538e7e	0.0032280977
201	0xb97fb95e	-0.0002438775
202	0xbbab6cc0	-0.00523147
203	0xbc1ab368	-0.009442188
204	0x3c61eaa2	0.013788851
205	0xbcc4b306	-0.024011146
206	0x3c6ecb79	0.014574879
207	0x3c826784	0.0159185
208	0xba1f8565	-0.0006085246
209	0x3d0e2b6c	0.03470938
210	0x3d2d756f	0.04234832
211	0x3bf52cf7	0.007482167
212	0x3d3223e5	0.043491263
213	0x3cc4a164	0.024002738
214	0xb9d68b8b	-0.00040921228
215	0x3c9418cd	0.018078232
216	0x3c2d7d8c	0.010589015
217	0x3aebb81c	0.0017983946
218	0x3d365551	0.044514958
219	0x3c817e29	0.015807228
220	0x384da72d	4.9031503e-05
221	0x3bc114bc	0.0058923643
222	0xbc488ede	-0.012241093
223	0x3cd7aadc	0.02632659
224	0xbc4247f7	-0.011857978
225	0x3c160bd3	0.009158093
226	0x3c5b37c5	0.013379996
227	0xbc8e5277	-0.017373307
228	0xbc0d942b	-0.008641283
229	0x3cda36d2	0.026637468
230	0xbcc1f21c	-0.023675017
231	0x3c33a0ec	0.01096366
232	0x3cd0f2d2	0.02550641
233	0x3c90fe36	0.017699342
234	0x3cf6a157	0.03010623
235	0x3aecc9a8	0.0018065469
236	0xbbf9b880	-0.007620871
237	0xbb430cda	-0.0029762299
238	0xbcb67e81	-0.022277119
239	0x3b853ed4	0.0040663276
240	0xbc7c99c7	-0.015417523
241	0x3b9525ba	0.0045516165
242	0xbc41bf7a	-0.011825437
243	0xbc157311	-0.009121672
244	0x3cd8aac6	0.026448619
245	0x3ce57735	0.028010944
246	0x3a217b99	0.000616008
247	0xbc83a35a	-0.016069103
248	0xbc4794fe	-0.012181519
249	0xbd0c373e	-0.03423237
250	0x3b09d419	0.002103096
251	0x3c92df79	0.017928826
252	0x3cb33b23	0.021878785
253	0xbcc46e5f	-0.02397841
254	0xbb47a60b	-0.003046396
255	0xbb7e4f17	-0.0038804465

network_body._body_endoder.seq_layers.2.weight f4 [256, 256]
0	0xbc81d88b	-0.015850326
1	0x3d21b238	0.039476603
2	0x3c97ea11	0.018544229
3	0xbd4cfb25	-0.050044198
4	0xbdc2bf7a	-0.095091775
5	0x3cec8a91	0.028874667
6	0xb920b39b	-0.00015325697
7	0xbd8cc944	-0.06874326
8	0x3db48ba6	0.08815698
9	0xb928de2a	-0.00016104491
10	0x3d29ac41	0.04142404
11	0xbc249bfd	-0.010046956
12	0x3b080452	0.0020754528
13	0x3e052c9b	0.13005297
14	0xbc44e70a	-0.012017975
15	0x3dad7df4	0.08471289
16	0xbc4d2691	-0.012521402
17	0x3d453d99	0.048154447
18	0xbb9cc096	-0.0047837
19	0x3dbd8b3b	0.09255072
20	0x3c65150f	0.013982072
21	0x3c381e1a	0.0112376455
22	0x3d360d4a	0.044446267
23	0x3ded4efb	0.1158733
24	0xbd9e434d	-0.0772768
25	0xbd72a767	-0.05924168
26	0x3bee3c76	0.007270391
27	0xbd573c29	-0.052547608
28	0xbd71bdc8	-0.05901888
29	0x3da05be7	0.07830029
30	0xbdf7478d	-0.12074194
31	0x3dc08647	0.09400611
32	0x3cfe5489	0.031046169
33	0xbdbf8dd7	-0.09353226
34	0xbba40ade	-0.0050061783
35	0x3d52aebf	0.051436182
36	0x3df1dec0	0.11810064
37	0x3d28b4b0	0.041187942
38	0x3c137d3d	0.009002027
39	0xbd7d5ca8	-0.061855942
40	0x3d1cd7f8	0.0382919
41	0x3e05763e	0.13033387
42	0x3d2b8e95	0.041884024
43	0xbe3129bb	-0.17301075
44	0xbc864b98	-0.016393468
45	0xbd1b810f	-0.037964877
46	0x3d3a3117	0.045456972
47	0xbd053b34	-0.032527164
48	0xbd929fd7	-0.07159393
49	0xbd907cc4	-0.07055047
50	0xbd440d1c	-0.047864065
51	0x3ca61df2	0.02027795
52	0x3d643944	0.055718675
53	0x3d13f6b0	0.03612393
54	0x3e06f066	0.13177642
55	0x3d3c795f	0.046014186
56	0x3dbbf482	0.091774955
57	0xbdaf2408	-0.08551794
58	0xbcc5670f	-0.024096994
59	0x3d02e8e2	0.031960376
60	0x3d357bff	0.044307705
61	0x3e184217	0.14868961
62	0xbcacbd2d	-0.0210863
63	0x3e558a35	0.20853503
64	0xbd4e3d99	-0.050351713
65	0xbe0b9726	-0.13631877
66	0x3c8dbe60	0.017302692
67	0x3db74698	0.089490116
68	0x3c603ae6	0.0136859175
69	0xbc8f0501	-0.01745844
70	0x3d077b2a	0.033076443
71	0x3bc8e9b7	0.0061313766
72	0x3d8bd06a	0.06826861
73	0x3d78455b	0.060613018
74	0x3d8dc1ba	0.06921716
75	0xbdb28ffd	-0.0871887
76	0x3d86ce1b	0.0658228
77	0x3e2cf7b9	0.16891374
78	0x3da34911	0.07972921
79	0x3da2b789	0.07945163
80	0xbccbabe1	-0.024862232
81	0xbd3cc75e	-0.04608857
82	0x3d6c4373	0.057681512
83	0xbb9b694e	-0.004742778
84	0xbd310a41	-0.04322267
85	0x3d08cf4e	0.033400826
86	0xbd4b790f	-0.049675997
87	0x3c4b8617	0.012422106
88	0x3c423925	0.011854445
89	0x3d315cf1	0.043301526
90	0xbdd57255	-0.10422198
91	0x3d780fc9	0.06056193
92	0xbd1c7401	-0.038196567
93	0xbda23be0	-0.079215765
94	0xbdd8d4b0	-0.10587442
95	0xbdc2de20	-0.09515023
96	0x3d48d1ed	0.049028326
97	0x3c8f4f88	0.017493978
98	0x3de6aff9	0.11264033
99	0x3d024609	0.031805072
100	0x3d215920	0.039391637
101	0xbd8efb79	-0.06981558
102	0x3dd50d43	0.1040292
103	0x3da90a42	0.0825391
104	0x3dfb58f1	0.122728236
105	0xbba4da04	-0.0050308723
106	0xbdf21318	-0.11820048
107	0xbd3ec45a	-0.046573974
108	0x3d8793fc	0.06620023
109	0xbd2b499f	-0.041818257
110	0x3da9d3ea	0.082923725
111	0xbc22b3c7	-0.009930558
112	0xbdb2c4f8	-0.08728975
113	0x3d763b10	0.06011492
114	0xbc051e41	-0.008124889
115	0xbdbbf375	-0.09177295
116	0xbd3d5f04	-0.046233192
117	0xbdbed944	-0.09318784
118	0x3d64e466	0.05588188
119	0x3dc9761b	0.0983698
120	0x3ba94717	0.0051659453
121	0x3d058f3a	0.032607295
122	0xbc432583	-0.011910799
123	0x3ca77c2a	0.020444948
124	0xbd01ae8c	-0.0316606
125	0x3e1e567b	0.15462677
126	0xbd11ac55	-0.03556474
127	0xbde0f932	-0.1098503
128	0xbbc6a4a7	-0.0060621086
129	0xbc1c3df3	-0.009536254
130	0xbcadd8f6	-0.02122162
131	0xbe1123ef	-0.14173864
132	0x3c913049	0.01772322
133	0xbda54248	-0.08069283
134	0x3d7363ff	0.059421536
135	0x3dae7a73	0.08519449
136	0x3c6f30a5	0.014599
137	0x3a60a0dd	0.00085688924
138	0x3cba5408	0.022745147
139	0xbd2f1a01	-0.04274941
140	0x3e387c39	0.18016137
141	0x3c48a0f8	0.012245409
142	0xbb68fa89	-0.0035549721
143	0xbd77ea58	-0.060526222
144	0x3d00007c	0.031250462
145	0x3ce24151	0.027619036
146	0xbc204c80	-0.009783864
147	0x3cff539e	0.031167801
148	0xbe067da9	-0.13133873
149	0xbc3b1c6e	-0.011420352
150	0xbc34e8ad	-0.011041802
151	0x3c77ebbd	0.015131888
152	0xbd353a96	-0.044245325
153	0x3cfe37f3	0.031032538
154	0xbcab2e84	-0.020896204
155	0x3c4dd33e	0.012562571
156	0x3cdd7539	0.027033435
157	0xbdae8f2f	-0.08523404
158	0x3d884f40	0.06655741
159	0xbd915646	-0.070965335
160	0x3dcc3fc6	0.09973101
161	0xbdc34756	-0.095350906
162	0xbd9cab50	-0.07649863
163	0x3d92dda8	0.07171184
164	0x3d64d265	0.05586471
165	0x3d1d20d0	0.03836137
166	0xbe185501	-0.14876176
167	0x3c73d128	0.01488141
168	0xbac11de6	-0.0014733642
169	0xbdf13bba	-0.1177897
170	0xbd496727	-0.04917064
171	0x3d8d70ca	0.069062784
172	0x3c21dcb7	0.009879283
173	0xbd0e2748	-0.03470543
174	0xbd519bb1	-0.05117387
175	0x3d3ba2cf	0.045809563
176	0xbdb5ef28	-0.08883506
177	0xbda8f505	-0.08249859
178	0x3d1293f7	0.03578564
179	0x3da4515f	0.08023333
180	0x3d860546	0.065439746
181	0xbd2030cb	-0.039109033
182	0xbd28e539	-0.04123423
183	0xbba04d33	-0.0048920154
184	0xbced34c6	-0.028955828
185	0x3d75f51f	0.06004822
186	0xbc990d0b	-0.018682977
187	0xbd1c8c5a	-0.038219787
188	0x3cc3fdc9	0.023924725
189	0xbd3f8e76	-0.04676672
190	0x3c13f505	0.009030585
191	0xbe03b228	-0.1286093
192	0xbd98c82c	-0.07460055
193	0x3dc03328	0.09384757
194	0x3ceb73d1	0.028741749
195	0x3c691b9c	0.014227774
196	0xbd85bcd4	-0.06530157
197	0x3dc67140	0.096895695
198	0x3c811190	0.015755445
199	0xbdd4683a	-0.10371442
200	0x3c012172	0.007881509
201	0x3c3c2a27	0.011484659
202	0x3db8c795	0.09022442
203	0xbd9c704e	-0.07638608
204	0x3d9fbc56	0.07799594
205	0x3cddb1d7	0.02706234
206	0x3d9752f0	0.07388866
207	0x3c41f5df	0.011838405
208	0x3d874532	0.06604995
209	0xbd868ed3	-0.0657021
210	0x3b2a2c3d	0.002596631
211	0xbd1167b9	-0.03549931
212	0x3dfc0469	0.12305529
213	0xbd8f3bbf	-0.069938175
214	0x3daed2f9	0.085363336
215	0x3d88c595	0.06678311
216	0x3e30d2df	0.17267941
217	0x3d8b42c5	0.06799845
218	0xbe3c4c16	-0.183884
219	0x3d88467f	0.06654071
220	0x3dfb624a	0.122746065
221	0xbd9cb58d	-0.076518156
222	0x3d965a06	0.07341389
223	0xbcfe31b0	-0.031029552
224	0xbdc9e855	-0.09858767
225	0xbd11a7a8	-0.03556028
226	0x3c3e168b	0.011602054
227	0x3c33dd9f	0.010978132
228	0xbd96d12a	-0.07364114
229	0xbc10d706	-0.008840328
230	0xbd3e1915	-0.04641064
231	0x3db35f5a	0.08758421
232	0x3b0fc763	0.0021938912
233	0x3d83f001	0.064422615
234	0x3da06528	0.07831794
235	0xbd4ba10d	-0.049714137
236	0xbb4e3726	-0.0031465976
237	0x3d708051	0.058716122
238	0x3d2db948	0.042413026
239	0xbdef266c	-0.1167725
240	0xbdb814d4	-0.08988348
241	0xbc8ff96e	-0.017574992
242	0xbbe24677	-0.0069053727
243	0xbc37d8cc	-0.011221122
244	0xbbb3e455	-0.005489866
245	0xbc8aeb29	-0.016957836
246	0xbcb6831f	-0.02227932
247	0x3befd086	0.007318559
248	0x3c0d1752	0.008611517
249	0x3dfbcccb	0.122949205
250	0x3d8f17c1	0.069869526
251	0xbdc39c00	-0.09551239
252	0xbdb9b30b	-0.09067353
253	0xbe0b0368	-0.13575518
254	0xbd03d364	-0.03218402
255	0xbbcd0da9	-0.006257732

network_body._body_endoder.seq_layers.2.bias f4 [256]
0	0x3bb2a22e	0.005451462
1	0x3adf1689	0.0017020266
2	0xbc751d24	-0.014960561
3	0xbc2f0be6	-0.010683989
4	0x3bb6d08c	0.00557906
5	0xbc827ffd	-0.01593017
6	0xbc07a3cb	-0.008278797
7	0xbd02529c	-0.031817064
8	0xbc19cd21	-0.009387285
9	0x3c379c13	0.011206645
10	0x3bd69dcf	0.006549574
11	0x3bcafb48	0.006194506
12	0xbb950ba5	-0.0045485073
13	0x3cc35f6b	0.02384921
14	0x3c48c7f4	0.012254704
15	0xbc58274a	-0.013192961
16	0xbbf3bc77	-0.0074382382
17	0xbcc809c4	-0.02441872
18	0x3ae4f080	0.0017466694
19	0x3c098cbf	0.008395373
20	0x3bfd6e5a	0.007734102
21	0x3cf08689	0.029361026
22	0xbc9e2db9	-0.019308912
23	0x3c66c955	0.014086087
24	0x3ccb89f6	0.024846058
25	0xbce12b55	-0.027486483
26	0xbc3de418	-0.011590026
27	0x3c320e5e	0.010867683
28	0xbc174dec	-0.009234887
29	0xba7a267c	-0.0009542478
30	0x3ca25e95	0.01982049
31	0xbb262205	-0.0025349867
32	0x3ca82e2b	0.020529827
33	0xbcbb2f36	-0.02284966
34	0x3c976102	0.018478874
35	0xbc8b57a9	-0.017009573
36	0xbce20298	-0.027589127
37	0x39fe11e1	0.00048459976
38	0xbaabcb05	-0.0013106769
39	0x3cb19815	0.021678964
40	0x3d5c1ccb	0.053738397
41	0xbc84e685	-0.016223202
42	0xbca11dff	-0.019667624
43	0xbc2438f4	-0.010023344
44	0x3c8ca310	0.017167598
45	0x3a5053d3	0.0007947061
46	0xbd031c87	-0.032009628
47	0x3c5ee486	0.013604289
48	0xbc4cdee1	-0.01250431
49	0x3c9939aa	0.018704254
50	0x3cbdd8a8	0.023174599
51	0xba3c48f6	-0.0007182503
52	0x3cf5753e	0.029963132
53	0xbca135d8	-0.019678995
54	0x3b8297d3	0.003985384
55	0x3d21adf5	0.03947254
56	0x3cdf4845	0.02725614
57	0x3ca8b0bd	0.020592088
58	0xbc0e64f1	-0.0086910585
59	0x3cbfbd21	0.023405613
60	0x3a5a5737	0.0008329036
61	0x3c3357d3	0.010946232
62	0x3d06c4dd	0.032902587
63	0x3c2ecdf5	0.010669221
64	0x3ce4f13a	0.027947057
65	0xbc8f7cde	-0.017515596
66	0x3cff6a27	0.031178547
67	0xba957705	-0.0011403268
68	0x3d2285fa	0.03967855
69	0xbccf4ec8	-0.02530612
70	0x3d55485c	0.05207096
71	0x3c9cd886	0.019146215
72	0x3a29d66e	0.0006478791
73	0x3a74b95f	0.0009335484
74	0xbc4c0cf7	-0.012454263
75	0x3adebe94	0.0016994053
76	0xbcc75307	-0.024331583
77	0xbc9607d7	-0.018314285
78	0xbc025333	-0.007954407
79	0xbb37a826	-0.0028023808
80	0x3c0a7f45	0.008453195
81	0x3c17ecf6	0.0092728045
82	0xbcdac0e2	-0.026703302
83	0xbbb1ebc8	-0.0054297186
84	0xbcdcee7b	-0.026969185
85	0x3c867402	0.016412739
86	0x3d149b6f	0.036281046
87	0x3cf2e1ee	0.029648747
88	0x3b95c356	0.004570405
89	0xbbd15c73	-0.0063891946
90	0x3c4cd16f	0.012501105
91	0xbcdb1c19	-0.026746796
92	0x3a2b16aa	0.00065265095
93	0xbbe8a816	-0.0071001155
94	0x3cd2ded6	0.025741022
95	0xbc5abebd	-0.01335114
96	0x3ce3cbaa	0.027807076
97	0x3c8fe338	0.017564401
98	0xbd2c9c21	-0.042141084
99	0x3ccaa112	0.024735007
100	0x3c98e5e0	0.0186643
101	0x3cff2609	0.031146066
102	0x3b24e4a2	0.002516069
103	0x3bbfadbf	0.0058495696
104	0xba7ec64e	-0.0009718881
105	0x3d160175	0.036622483
106	0x3d2abb92	0.041682787
107	0x3c74b09f	0.014934688
108	0xbac86ceb	-0.0015291249
109	0x3c2f35a3	0.01069394
110	0xbcfe55a8	-0.031046703
111	0x3d19894e	0.03748446
112	0xbc653d56	-0.013991674
113	0x3cfa3dca	0.030547041
114	0xbc736cc7	-0.0148574775
115	0xbbca49f4	-0.0061733667
116	0xbcac3d65	-0.021025369
117	0xbb5f6fc3	-0.0034093715
118	0xba419348	-0.00073843123
119	0x3cceb671	0.02523348
120	0x3c946afb	0.018117419
121	0x3c8c7308	0.017144695
122	0xbb76bec3	-0.0037650324
123	0x3c4ef0fc	0.012630697
124	0x3bfe2b9d	0.007756664
125	0x3cd8ff50	0.02648893
126	0x3cd07c08	0.025449768
127	0xbce5437e	-0.027986284
128	0x3d1407e6	0.036140345
129	0x3d0f2b7b	0.034953576
130	0x3d24b3b1	0.04021043
131	0xbd06a45f	-0.0328716
132	0xbc6077d9	-0.013700449
133	0xbbd57cf5	-0.00651514
134	0x3b964a3c	0.004586486
135	0xbc5e9b2c	-0.013586801
136	0x3d096178	0.03354022
137	0xbcd12d06	-0.025534164
138	0x3c625b4e	0.013815714
139	0xbc895751	-0.016765269
140	0xbcb4db12	-0.022077117
141	0xbad4c52c	-0.0016233078
142	0x3c43d34f	0.011952235
143	0x3d0bf324	0.034167424
144	0x3c7f1d96	0.015571019
145	0xbb1aabf8	-0.0023601037
146	0x3b49b2be	0.0030776705
147	0xbc0b4859	-0.008501136
148	0x3c2e5251	0.010639743
149	0xbc2a191a	-0.010381961
150	0xbb84e974	-0.00405615
151	0xbc12810a	-0.008941898
152	0x3c99a158	0.018753693
153	0x3d67f0b6	0.056626044
154	0x3d113b6d	0.035457063
155	0x3cd86f9e	0.02642041
156	0x3b266d00	0.002539456
157	0x3b5e174a	0.0033888393
158	0xbcb06dc0	-0.021536708
159	0x3cc2a85e	0.023761924
160	0x3c638c19	0.013888382
161	0x3c31605b	0.010826196
162	0xbc8b9429	-0.017038422
163	0x3ca32f07	0.019919885
164	0xbc27c98a	-0.010240922
165	0xbaad2465	-0.0013209699
166	0xbc89ab23	-0.016805237
167	0xbc70d61f	-0.014699488
168	0xbc7a438d	-0.015274894
169	0x3c1a9a47	0.009436197
170	0x3ca2acb1	0.019857736
171	0x3beb35cc	0.007178044
172	0x3d20a7e8	0.039222628
173	0x3c18903a	0.00931173
174	0x3d014b1a	0.031565763
175	0x3d2b1c67	0.041775133
176	0x3ce58674	0.028018214
177	0x39676c2b	0.00022070172
178	0xbb18586a	-0.0023246058
179	0x3c22204c	0.0098953955
180	0x3b01e2a0	0.0019818917
181	0xbb982c8d	-0.0046439827
182	0xbb365796	-0.0027823201
183	0xbb2a350b	-0.0025971557
184	0x3cce64cb	0.025194546
185	0x3c32736f	0.010891779
186	0x3bc97a8e	0.006148643
187	0x3c252e7d	0.010081884
188	0x3cb11d80	0.021620512
189	0xbba5f1b7	-0.005064215
190	0xbcd44e80	-0.025916338
191	0xba9ec9c3	-0.0012114573
192	0xbb12ec1e	-0.002241857
193	0x3d09b39c	0.033618554
194	0x3cd60459	0.02612512
195	0x3c00dd0e	0.007865204
196	0xbb0af4dc	-0.0021203076
197	0xb9f45249	-0.00046600614
198	0xbbb80aa4	-0.005616503
199	0x3c36abeb	0.011149387
200	0xbbb81bdb	-0.005618555
201	0xbcec5426	-0.028848719
202	0xbb064680	-0.0020488799
203	0x3c160316	0.009156009
204	0x3cee3642	0.029078607
205	0xbc9108b2	-0.017704342
206	0x3cb9bbde	0.02267259
207	0x3c689a27	0.014196909
208	0xbc59c258	-0.013290964
209	0x3c8fcd7d	0.01755404
210	0x3ca01ee9	0.01954599
211	0x3b8851b0	0.0041601285
212	0x3b812b9d	0.0039419667
213	0xbbf0b05b	-0.007345242
214	0x3cd09625	0.02546222
215	0x3cbecdc3	0.023291474
216	0x3ceb4aa0	0.028722107
217	0xbc87314a	-0.016502995
218	0x3c16d914	0.009207029
219	0xbca9f419	-0.020746278
220	0x3c153258	0.009106241
221	0x3c9aaab1	0.01888022
222	0x3cad6456	0.021166008
223	0xbba9e448	-0.005184684
224	0xbc0fb159	-0.00877031
225	0x3d20d407	0.039264705
226	0x3c5f053f	0.013612091
227	0xbae1bb09	-0.0017221879
228	0xbc34a4df	-0.011025636
229	0x3d4bb4c8	0.049732953
230	0x3bd26053	0.006420174
231	0x3caafa22	0.020871226
232	0x3bc5c98d	0.0060359896
233	0x3cc4baab	0.024014791
234	0xbbcf2bac	-0.0063223448
235	0x3c003b16	0.007826587
236	0x3cd3e5f5	0.025866488
237	0x3d2233e9	0.039600287
238	0x3d0e7ca2	0.034786828
239	0x3cb8293b	0.022480598
240	0xbc97b6a9	-0.018519716
241	0x3b78386a	0.0037875422
242	0xbbb220ec	-0.0054360535
243	0x3d1e31de	0.038621776
244	0x3b929a0f	0.0044739316
245	0x3d2b3a89	0.04180387
246	0xbc312910	-0.010813013
247	0x3c35cb95	0.011095901
248	0xbc9f1894	-0.0194209
249	0xbc656eb4	-0.014003444
250	0xbab7f408	-0.0014034519
251	0xba10b03b	-0.00055194244
252	0xbc78a9e2	-0.015177222
253	0x3bf204a1	0.0073858057
254	0xbc49e266	-0.012322044
255	0xbd0a253d	-0.03372692

action_model._continuous_distribution.log_sigma f4 [1, 6]
0	0x3d7ea748	0.06217125
1	0xbd8757e8	-0.06608564
2	0x3de55f3c	0.11199805
3	0xbb8b737d	-0.0042557106
4	0x3dc06b56	0.09395473
5	0x3d84769b	0.06467935

action_model._continuous_distribution.mu.weight f4 [6, 256]
0	0xbc459b98	-0.012061022
1	0xbd68965e	-0.056784026
2	0xbd62417c	-0.055238232
3	0xbb8e2d3b	-0.004338888
4	0x3aa7a4f0	0.0012790244
5	0x3d150cab	0.036389034
6	0x3b4ffac5	0.0031735164
7	0xbce5eb9f	-0.028066454
8	0xbd2a5e63	-0.04159392
9	0xba1cafb1	-0.0005977108
10	0xbd8f1dd9	-0.06988115
11	0x3ad40469	0.0016175631
12	0xbd257f36	-0.04040452
13	0x3c90242a	0.01759537
14	0xbc9b9b80	-0.018995047
15	0xbcde76e0	-0.027156293
16	0xbc2baf42	-0.010478796
17	0xbba9ee5c	-0.0051858854
18	0x3a704d07	0.00091667514
19	0x3d0c1b27	0.034205582
20	0x3c06bac5	0.00822324
21	0x3d0f27f0	0.034950197
22	0xbc175c85	-0.009238367
23	0x3c28e99c	0.010309603
24	0x3d05268d	0.032507468
25	0xbcdbc6bc	-0.026828162
26	0x3d0dafe9	0.03459159
27	0x3c209a22	0.009802373
28	0xbb355e16	-0.0027674488
29	0x3ce9ed71	0.028555604
30	0x3c30f64e	0.010800911
31	0xbc13db4f	-0.009024455
32	0xbc51db59	-0.012808644
33	0xbc263636	-0.010144761
34	0x3b93de56	0.0045125885
35	0xbc50a199	-0.01273384
36	0xbc24759c	-0.010037806
37	0xbd444423	-0.047916543
38	0x3d17a6a9	0.037024174
39	0x3c1af43f	0.009457647
40	0xbc2f8651	-0.010713176
41	0xbb5efe12	-0.003402595
42	0xbd602643	-0.05472399
43	0xbc9e7a5b	-0.019345453
44	0x3d20de53	0.039274525
45	0xbcef974d	-0.02924695
46	0xbc770897	-0.015077732
47	0xbd3cdb59	-0.046107624
48	0xbc1014cc	-0.008794021
49	0x3d4ff041	0.050766233
50	0x3d34f7f8	0.044181794
51	0x3bd9e143	0.0066491677
52	0x3d092dac	0.03349082
53	0xbd278ca5	-0.040905613
54	0x3cb73509	0.022364156
55	0x3c993267	0.018700792
56	0xbb49a3c4	-0.0030767778
57	0x3d0a5000	0.0337677
58	0xbd1a501c	-0.037674055
59	0x3c921281	0.017831089
60	0xbd9e7f37	-0.07739108
61	0xbc252275	-0.010079016
62	0xbd553126	-0.052048825
63	0xbd449e79	-0.048002694
64	0x3d07eef7	0.03318688
65	0xbd6cf31c	-0.057849035
66	0xbbb81ea6	-0.005618888
67	0xbcc17cea	-0.023619134
68	0x3cf54b00	0.02994299
69	0xbd7980ce	-0.060913853
70	0x3caecaef	0.021337
71	0xbd5c39b6	-0.053765975
72	0xbc7133b3	-0.014721799
73	0x3be3cd79	0.0069519845
74	0xbd210ed6	-0.03932079
75	0x3ad3f1bb	0.0016170064
76	0xbbb106d3	-0.005402425
77	0x3c1476a2	0.009061487
78	0x3c38fdcf	0.011290981
79	0xbc2f7555	-0.0107091265
80	0x3d9856a5	0.07438401
81	0x3d5747f7	0.052558865
82	0xbc5e6c5e	-0.013575641
83	0xbd290659	-0.04126582
84	0xbd0f7778	-0.035026044
85	0x3d55c5fc	0.052190766
86	0x3d34b94e	0.044122033
87	0xb99547a7	-0.0002847288
88	0x3c9aee54	0.018912472
89	0xbc8c639e	-0.017137345
90	0x3b0f70df	0.0021887345
91	0xbd0b9608	-0.034078628
92	0xbbeb13d0	-0.0071739927
93	0xbce019a7	-0.027355982
94	0xbce4ee6d	-0.027945722
95	0x3c9b5537	0.018961532
96	0xbd599e37	-0.0531294
97	0xbc9abfe5	-0.01889033
98	0xbd0f9283	-0.035051834
99	0xbbaee313	-0.005337128
100	0x3d3ebd7d	0.04656743
101	0xbd611626	-0.054952763
102	0x3d48341c	0.04887782
103	0x3d0dc599	0.034612272
104	0xbc57a8f5	-0.013162841
105	0xbb12b01a	-0.0022382797
106	0x3bbe565b	0.005808634
107	0x3b106456	0.002203246
108	0xbb90a0ba	-0.0044136913
109	0x3cce2a45	0.02516664
110	0xbc513103	-0.012768033
111	0x3ce75213	0.028237378
112	0xbb5ca439	-0.003366722
113	0xbc9c241b	-0.019060185
114	0xbc22335e	-0.009899942
115	0x3cc5af05	0.024131307
116	0xbca306c5	-0.019900689
117	0xb9a4b7e2	-0.0003141752
118	0x3cfa7f7c	0.030578367
119	0x3ca97fb8	0.020690784
120	0xbd043361	-0.03227556
121	0xbcbf2dba	-0.023337234
122	0xbd30e046	-0.043182634
123	0x3c39e3a3	0.011345777
124	0xbcba9380	-0.022775412
125	0xbd59ed29	-0.05320469
126	0xbcd82056	-0.026382606
127	0xbb2c0d3f	-0.0026253012
128	0xbcf27246	-0.029595505
129	0x3c669173	0.014072764
130	0x3cebb9af	0.028775064
131	0xbbdccc60	-0.0067382306
132	0x3b328282	0.0027238433
133	0x3c6741d9	0.01411482
134	0xbcecd492	-0.028909955
135	0x3c588c4b	0.013217042
136	0x3c4f896f	0.012667044
137	0x3977fe4b	0.00023650487
138	0x3bd18997	0.006394576
139	0xbd0827d0	-0.033241093
140	0xbc71fbea	-0.014769534
141	0xbd270fc6	-0.040786527
142	0xbd81d439	-0.063393064
143	0x3c55308a	0.013012061
144	0x3d14a709	0.03629211
145	0xbc7e7950	-0.015531853
146	0xbc2f271f	-0.01069048
147	0xbcbfe34e	-0.023423817
148	0x3ce5f338	0.028070077
149	0xbcb794d4	-0.022409834
150	0xbb064de1	-0.0020493197
151	0xbd1f13bb	-0.038837176
152	0xbc1afd68	-0.009459831
153	0x3c333dba	0.01094001
154	0xbcb1a0ba	-0.021683086
155	0xbb682ff8	-0.0035428982
156	0x3bb9af30	0.005666636
157	0x3d6a9fe8	0.057281405
158	0xbccc0ddd	-0.024908954
159	0x3b92ef82	0.004484118
160	0x3d3f5cad	0.046719242
161	0xbc1809d9	-0.009279692
162	0x3c35dd59	0.011100137
163	0x3c81b937	0.015835388
164	0x3c8f7df3	0.017516112
165	0xbbb171b8	-0.0054151677
166	0x3ab7a52e	0.0014011019
167	0x3c787ec5	0.015166943
168	0xbb9e1388	-0.0048241057
169	0x3c59f36d	0.013302666
170	0xbb3009c2	-0.0026861285
171	0xbd2f39ca	-0.04277972
172	0xbd11fa13	-0.03563888
173	0xbbf17592	-0.007368752
174	0xbb8ba2ca	-0.0042613493
175	0x3c8c2221	0.017106118
176	0xbd0369f9	-0.032083485
177	0xbc40a575	-0.011758198
178	0x3d475ca0	0.04867232
179	0xbc39bf1f	-0.011337071
180	0xbca4853c	-0.020083062
181	0x3d3638b1	0.04448766
182	0xbca0ca7e	-0.019627806
183	0xbafbdfce	-0.0019216479
184	0xbc56bd64	-0.013106678
185	0x3d34abc1	0.04410911
186	0xbc3aa5ed	-0.011392099
187	0x3c54a1c5	0.012978022
188	0xbc4c16ec	-0.012456637
189	0xbd2efe47	-0.042722967
190	0xbce97949	-0.028500216
191	0xbc3be686	-0.011468535
192	0xbd784458	-0.060612053
193	0xbcc54749	-0.024081843
194	0xbcfc094d	-0.030766154
195	0xbb6ec2e4	-0.0036432082
196	0xbcab7334	-0.020928957
197	0xbc587cba	-0.013213331
198	0x3cf36469	0.029710965
199	0x3c88ad23	0.01668412
200	0xbd182a32	-0.037149616
201	0xbcd13277	-0.025536759
202	0x3bef8d59	0.007310551
203	0x3d24f4a3	0.040272366
204	0xbb188ff5	-0.0023279164
205	0xbd2f52de	-0.042803638
206	0x3c8caa7a	0.017171133
207	0xbd619aad	-0.05507915
208	0xbd135204	-0.035966888
209	0x3cbd7396	0.023126405
210	0x3d4a52c4	0.049395338
211	0x3c11d269	0.008900263
212	0x3ccf9bac	0.025342785
213	0xbc8c9466	-0.017160606
214	0x3b7ea1f1	0.0038853849
215	0x3d728e78	0.0592179
216	0x3cb94772	0.022617076
217	0x3c9f8b88	0.019475713
218	0xbb86e237	-0.0041163224
219	0x3b919f88	0.0044440664
220	0x3d0f89f1	0.03504366
221	0xbbd8cf59	-0.0066165146
222	0x3d4d3706	0.050101303
223	0x3c3540b3	0.011062789
224	0x3ae47179	0.0017428837
225	0xbcfedd65	-0.031111429
226	0xbc47a2cb	-0.012184809
227	0xbca69abe	-0.020337459
228	0x3cc2448c	0.023714326
229	0x3d9106be	0.07081364
230	0x3bf7dcc4	0.007564159
231	0x3bbaad7b	0.00569695
232	0xbd058561	-0.032597903
233	0xbb8ba86e	-0.0042620217
234	0xbd34ad0e	-0.04411035
235	0xbca4f2fc	-0.020135395
236	0x3d26960e	0.040670447
237	0x3d68cf40	0.056838274
238	0xbc65e8d3	-0.01403256
239	0x3cee3ab4	0.029080726
240	0x3b7b5954	0.0038352804
241	0x3c006f5d	0.007839051
242	0xbc86297e	-0.016377207
243	0xbc3eb331	-0.011639402
244	0xbb4e5ae6	-0.0031487285
245	0xbbe07b2c	-0.0068506207
246	0x3b809f7a	0.003925261
247	0x3c368ccf	0.01114197
248	0xbc36bbfa	-0.011153216
249	0x3b849447	0.0040459963
250	0x3d4d0e4c	0.050062463
251	0x3c86fdf1	0.01647851
252	0x3b07e597	0.0020736211
253	0xbc4ebc22	-0.012618097
254	0xbcef27a5	-0.029193709
255	0xbc9d4a21	-0.019200386

action_model._continuous_distribution.mu.bias f4 [6]
0	0x3c1fcbf8	0.00975322
1	0x3a9a2218	0.0011759428
2	0x3ce922a4	0.0284589
3	0xbc6c2be8	-0.014414765
4	0x3d08a358	0.0333589
5	0x3b65b647	0.0035051273

onnx::Div_71 f4 [100]
0	0x3e69f46e	0.22847149
1	0x3dba9d28	0.091120064
2	0x3d3d64bc	0.046238646
3	0x3e33a914	0.17544967
4	0x3e61c7e6	0.22048911
5	0x3db7ed5d	0.0898082
6	0x3d3d6ff7	0.046249356
7	0x3e33e972	0.17569521
8	0x3e705df0	0.23473334
9	0x3db9e1d5	0.09076277
10	0x3d3ca3ed	0.04605477
11	0x3e335de6	0.17516288
12	0x3e592d1c	0.21208614
13	0x3daf3fe4	0.08557108
14	0x3d3d6fe7	0.046249297
15	0x3e34a092	0.17639378
16	0x3e72dddf	0.2371745
17	0x3db47238	0.08810848
18	0x3d3e5cf1	0.046475355
19	0x3e334764	0.17507702
20	0x3e52d8ad	0.20590468
21	0x3da69d0f	0.08135425
22	0x3d3de0f5	0.046357114
23	0x3e356515	0.17714341
24	0x3e6f78dd	0.2338595
25	0x3daadc25	0.083427705
26	0x3d3eab85	0.046550293
27	0x3e338e7c	0.17534822
28	0x3e4dee96	0.20110545
29	0x3d9a6f19	0.075407214
30	0x3d3ce7d3	0.046119522
31	0x3e3605cd	0.1777565
32	0x3e69260e	0.22768423
33	0x3d9e3b36	0.07726137
34	0x3d3ea04b	0.046539586
35	0x3e339bcd	0.17539902
36	0x3e4a5741	0.19759847
37	0x3d8f22e2	0.06989075
38	0x3d3d4dc8	0.046216756
39	0x3e3634ee	0.17793629
40	0x3e603b72	0.21897677
41	0x3d9115e9	0.07084257
42	0x3d3e3b09	0.04644302
43	0x3e338ce9	0.17534222
44	0x3e46de6e	0.19420788
45	0x3d85ea81	0.06538869
46	0x3d3e5cec	0.046475336
47	0x3e35efa8	0.17767203
48	0x3e57c819	0.21072425
49	0x3d84db20	0.06487107
50	0x3d3d09e4	0.04615201
51	0x3e32f637	0.17476736
52	0x3e438ae8	0.19095957
53	0x3d74f495	0.059803564
54	0x3d3d7ad3	0.046259712
55	0x3e35078a	0.17678657
56	0x3e512437	0.20423971
57	0x3d76723c	0.060167536
58	0x3d3cfe91	0.04614121
59	0x3e31e780	0.17373466
60	0x3e40ff05	0.18847282
61	0x3d66b6d2	0.056326695
62	0x3d3c816b	0.04602186
63	0x3e33c782	0.17556575
64	0x3e4cba68	0.19992983
65	0x3d6583e4	0.056033984
66	0x3d3db385	0.04631378
67	0x3e30dba9	0.17271294
68	0x3e3d926c	0.18512887
69	0x3d53c489	0.051701102
70	0x3d3dec53	0.046367954
71	0x3e31c415	0.17359956
72	0x3e4a104c	0.1973278
73	0x3d59df4e	0.053191476
74	0x3d3e7319	0.046496484
75	0x3e2ef8ec	0.17087144
76	0x3e3a5c8d	0.18199368
77	0x3d4558d2	0.04818041
78	0x3d3ce792	0.04611928
79	0x3e2f6e5d	0.17131944
80	0x3e4863ae	0.19569275
81	0x3d51c9db	0.051217895
82	0x3d3e0245	0.046388883
83	0x3e2cc5c1	0.16872312
84	0x3e37a22b	0.17932956
85	0x3d3ce742	0.046118982
86	0x3d3d4250	0.04620582
87	0x3e2ced10	0.16887307
88	0x3e4658fa	0.1936988
89	0x3d46f2dd	0.048571456
90	0x3d3d202f	0.04617327
91	0x3e2a9afd	0.16660686
92	0x3e34de92	0.17663029
93	0x3d380413	0.04492576
94	0x3d3cc5bb	0.046087008
95	0x3e2aa0c1	0.16662885
96	0x3e4455e2	0.19173387
97	0x3d420410	0.047367156
98	0x3d3d4d7e	0.04621648
99	0x3e283853	0.16427736

onnx::Div_74 f4 [52]
0	0x3ef5e709	0.48027828
1	0x3d526cf5	0.05137344
2	0x3e9830c7	0.29724714
3	0x3e93f16b	0.28895125
4	0x3ef5c1f0	0.47999525
5	0x3d5081e0	0.05090511
6	0x3e98f7fa	0.2987669
7	0x3e941731	0.28923944
8	0x3ef61f4c	0.48070753
9	0x3d529553	0.051411938
10	0x3e977c7d	0.29587165
11	0x3e93ca44	0.28865254
12	0x3ef5c41e	0.48001188
13	0x3d4c421c	0.049867734
14	0x3e99b65d	0.30021945
15	0x3e943e55	0.28953806
16	0x3ef67cf4	0.48142207
17	0x3d5401ea	0.051759638
18	0x3e96a8dc	0.29425704
19	0x3e939d2f	0.2883086
20	0x3ef5f049	0.48034886
21	0x3d4874cb	0.048939507
22	0x3e9a5ef2	0.30150563
23	0x3e947277	0.2899358
24	0x3ef6fabc	0.4823817
25	0x3d4f37d5	0.050590355
26	0x3e96095b	0.29304013
27	0x3e93749e	0.2879991
28	0x3ef631de	0.4808492
29	0x3d45e5e8	0.04831496
30	0x3e9af504	0.30265057
31	0x3e949538	0.29020095
32	0x3ef7a87f	0.4837074
33	0x3d4bc379	0.049746964
34	0x3e953a63	0.29146108
35	0x3e933f46	0.2875921
36	0x3ef6aae7	0.48177263
37	0x3d3f8101	0.046753887
38	0x3e9b5cde	0.3034429
39	0x3e94c074	0.2905308
40	0x3ef86335	0.4851319
41	0x3d477f76	0.04870554
42	0x3e949f84	0.2902795
43	0x3e930ba1	0.2871981
44	0x3ef7361b	0.48283467
45	0x3d38eb76	0.045146428
46	0x3e9bbae5	0.30416027
47	0x3e94df47	0.29076597
48	0x3ef9233d	0.48659697
49	0x3d41c20d	0.047304202
50	0x3e943d0e	0.2895283
51	0x3e92d240	0.28676033

onnx::Div_77 f4 [8]
0	0x4181abf3	16.20896
1	0x4369b990	233.72485
2	0x40ca6258	6.324505
3	0x3f9c263a	1.2199166
4	0x3edd91a8	0.4327519
5	0x3eb94ebd	0.36192885
6	0x3e04a906	0.12955102
7	0x3dd36f1e	0.10323928
