Assets/results/5/CoinChaser/CoinChaser-499933.onnx (onnx, 442611 bytes, 13 tensors)

network_body.observation_encoder.processors.0.normalizer.running_mean f4 [100]
000000 f6 4e 75 3f b0 f8 d3 3b 84 96 98 3a 31 79 84 3e
       0.9582361 0.006468855 0.0011641537 0.25873712
000010 e0 b6 75 3f 96 11 d6 3b 2d 42 9c 3a bf ec 84 3e
       0.9598217 0.006532858 0.0011921577 0.25961873
000020 0f c5 74 3f 69 f4 d4 3b d6 03 97 3a 46 ae 83 3e
       0.9561319 0.0064988625 0.0011521529 0.25718898
000030 b6 fd 75 3f 1b b2 cc 3b 21 5b 9e 3a f9 14 85 3e
       0.9609026 0.0062468178 0.0012081602 0.25992563
000040 1b 88 74 3f 59 16 d1 3b 83 96 98 3a e2 fa 82 3e
       0.9552018 0.006380838 0.0011641536 0.25582033
000050 2d 06 76 3f 8c 90 cc 3b 38 fa a0 3a 64 b1 84 3e
       0.96103173 0.0062428173 0.0012281602 0.25916588
000060 ab a4 74 3f c7 3c cc 3b 4c 6c 9a 3a 79 9d 82 3e
       0.95563763 0.006232831 0.0011781543 0.25510767
000070 55 03 76 3f d2 4e c0 3b 37 42 9c 3a 12 ba 83 3e
       0.96098834 0.005868771 0.0011921589 0.25727898
000080 13 f1 74 3f b2 b8 b7 3b 31 42 9c 3a fa 39 82 3e
       0.9568035 0.005606734 0.0011921582 0.25434858
000090 a1 eb 75 3f 1a df b2 3b ae 35 9b 3a 59 3d 82 3e
       0.96062666 0.0054587247 0.0011841559 0.2543743
0000a0 da 86 75 3f 77 99 a3 3b f4 fe 9b 3a cb b6 81 3e
       0.9590889 0.0049926597 0.0011901543 0.25334772
0000b0 7f ea 75 3f 21 d0 a2 3b 03 8d a2 3a d3 61 80 3e
       0.9606094 0.0049686586 0.0012401644 0.25074634
0000c0 47 05 76 3f 92 e6 95 3b 02 15 93 3a 73 12 81 3e
       0.961018 0.0045746053 0.0011221471 0.25209388
0000d0 cf fd 75 3f 16 58 93 3b 29 b7 a0 3a 7a 25 7c 3e
       0.96090406 0.0044965846 0.0012261617 0.24623671
0000e0 94 59 76 3f 54 98 88 3b 2f b4 95 3a 69 0e 80 3e
       0.96230435 0.0041685496 0.0011421497 0.25010994
0000f0 99 07 76 3f 05 b6 85 3b 31 9e 9e 3a 25 2e 77 3e
       0.96105343 0.0040805363 0.0012101588 0.24138696
000100 9b 9f 76 3f 11 1f 72 3b 42 29 9a 3a c5 07 7e 3e
       0.9633729 0.0036944787 0.0011761563 0.24807651
000110 df 29 76 3f 8b 45 6d 3b 15 d0 a2 3a 44 a8 71 3e
       0.9615764 0.003620478 0.0012421632 0.23599344
000120 b8 b1 76 3f a3 42 62 3b 7c 0b 9d 3a 83 59 7b 3e
       0.9636493 0.0034524582 0.0011981572 0.24545865
000130 54 50 76 3f 50 d3 50 3b 48 e1 9e 3a 8f c6 6b 3e
       0.9621632 0.0031864233 0.0012121582 0.23024963
000140 5e c5 76 3f 13 7a 59 3b 3f 85 9c 3a e8 13 78 3e
       0.9639491 0.0033184334 0.0011941566 0.24226344
000150 18 6a 76 3f ae f6 40 3b 99 c3 a1 3a 90 17 66 3e
       0.96255636 0.0029443908 0.0012341618 0.22469926
000160 af da 76 3f 0e 06 4d 3b 95 f2 9a 3a 59 d8 74 3e
       0.96427435 0.0031284126 0.0011821563 0.23910655
000170 c1 8e 76 3f fe 1c 3c 3b e2 49 a2 3a 10 a6 60 3e
       0.96311575 0.0028703804 0.0012381638 0.21938348
000180 9f e6 76 3f c9 39 41 3b 79 c8 9c 3a cf 53 71 3e
       0.9644565 0.0029483906 0.0011961601 0.23567127

network_body.observation_encoder.processors.1.normalizer.running_mean f4 [52]
000000 ba c6 ce 3e 87 da 10 3b 67 40 90 3d 3b 00 c9 3e
       0.4038599 0.0022102909 0.07043534 0.39257988
000010 a6 e6 ce 3e 8e 93 0d 3b 3b 2a 91 3d 51 44 c9 3e
       0.40410346 0.0021602842 0.07088133 0.39309934
000020 32 e7 ce 3e c3 60 11 3b 05 8c 8f 3d 9c d0 c8 3e
       0.40410763 0.0022182919 0.070091285 0.39221656
000030 67 32 cf 3e af d6 0d 3b b9 4c 92 3d 27 af c9 3e
       0.4046814 0.0021642854 0.0714354 0.39391443
000040 57 b8 cf 3e 81 3a 16 3b 23 4b 8e 3d 73 b8 c8 3e
       0.40570328 0.0022923055 0.06947925 0.39203224
000050 ad 1f d0 3e bb bd 0b 3b 45 1a 93 3d c2 3c ca 3e
       0.40649167 0.0021322805 0.07182745 0.3949948
000060 ae a5 d0 3e fd 14 13 3b 5b f9 8d 3d 31 df c8 3e
       0.40751404 0.002244293 0.069323264 0.39232782
000070 1c 3b d1 3e e7 a0 06 3b 37 06 94 3d 95 c7 ca 3e
       0.4086541 0.0020542683 0.07227748 0.39605394
000080 10 42 d2 3e ff 14 13 3b 3a a2 8d 3d 4c 38 c9 3e
       0.41066027 0.0022442935 0.06915708 0.39300764
000090 ef c0 d2 3e 23 56 00 3b 1d 84 94 3d d4 63 cb 3e
       0.41162822 0.0019582591 0.07251761 0.397246
0000a0 48 26 d4 3e c7 8e 12 3b 6d 7a 8d 3d 32 f9 c9 3e
       0.41435456 0.0022362934 0.069081165 0.39447933
0000b0 c7 c7 d4 3e bd 11 f9 3a 39 f1 94 3d f3 17 cc 3e
       0.41558668 0.0019002479 0.07272572 0.39862022
0000c0 57 30 d6 3e d9 bc 13 3b dd c3 8d 3d f3 e8 ca 3e
       0.41833755 0.0022542982 0.069221236 0.3963085

network_body.observation_encoder.processors.2.normalizer.running_mean f4 [8]
000000 78 51 71 be 66 31 2d 40 c7 d6 31 be b5 9c 59 3f
       -0.23566234 2.70614 -0.17367087 0.8500474
000010 5f 23 9f 3e 55 24 25 3e 16 27 65 3d 53 4b 42 ba
       0.31081674 0.16127141 0.05594548 -0.0007411737

network_body._body_endoder.seq_layers.0.weight f4 [256, 160]
000000 54 b1 82 bd a7 79 83 3d cf c0 f6 3c 76 99 a8 3d
       -0.06381479 0.06419688 0.030121235 0.08232395
000010 2c fa 55 3c d0 f8 d0 bd a7 fe 41 bd a2 a7 2b 3c
       0.013060134 -0.10203707 -0.047361996 0.0104769785
000020 33 28 35 bc 13 94 07 bd fd ab 11 3d ed 94 66 bd
       -0.0110569475 -0.0331002 0.03556441 -0.05629437
000030 c4 c8 6a 3d f0 1b 90 3d ec 41 97 bd de 97 2a 3e
       0.05732037 0.07036579 -0.073856205 0.16659495
000040 c3 29 10 3e 9a e9 8e bd 06 61 0e be 1c b9 aa 3c
       0.14078431 -0.0697815 -0.13904199 0.02084022
000050 e8 a4 83 3d cb 2d b0 3d 49 03 d6 3d a6 e9 b2 bd
       0.06427938 0.08602484 0.10449845 -0.08735971
000060 56 6d 1d bc 36 25 05 3e 05 6e f2 3d ce 8f 9d bb
       -0.009608587 0.13002476 0.11837391 -0.0048084026
000070 97 63 21 bd 6a 16 78 bd a7 a4 a8 3c 5b 3d f9 bd
       -0.039401617 -0.06056825 0.020586325 -0.12169906
000080 30 17 99 3c af 85 48 bd c5 e5 f4 bd 1a e1 3a ba
       0.018687814 -0.048955616 -0.119578876 -0.00071288797
000090 a0 84 f6 3c c2 0b 33 bc 5f 5c b2 3d c3 62 e6 bd
       0.030092537 -0.010928096 0.08709025 -0.11249306
0000a0 d4 68 6d 3e 78 14 90 b9 e8 aa 98 3c 86 b2 50 3d
       0.2318452 -0.0002748107 0.018636182 0.050951503
0000b0 9f 2a 6f 3d 5c 85 28 3d 7a 19 ce bd b7 6a 39 be
       0.058390256 0.041142806 -0.10063453 -0.18107115
0000c0 24 95 2c bd 46 87 11 3d 8e b0 08 be 87 ca b5 3d
       -0.04213442 0.035529397 -0.133486 0.0887652
0000d0 55 68 df 3d ab 0f 25 bd 8f 81 3c bd 60 9d 37 3c
       0.10908572 -0.040298145 -0.046021994 0.011206955
0000e0 51 35 e5 3c ab 72 23 3d e8 cd 6f b9 08 a3 50 3d
       0.027979525 0.039904278 -0.00022869522 0.05093673
0000f0 e9 5f e9 3d 58 82 e2 3c 92 4b 6a bd 56 0d 8e 3d
       0.113952465 0.027650043 -0.057200976 0.069361374
000100 56 43 42 bb 75 cd 55 bc 33 de 05 3e 24 a6 1c 3e
       -0.0029642186 -0.013049473 0.13073044 0.15297753
000110 c6 ff aa 3d 9e 10 96 bd c4 45 41 bd 04 95 1c bd
       0.08349566 -0.07327388 -0.047185674 -0.03822805
000120 a5 80 c2 3c a0 43 be 3c 7d 60 55 bd 88 47 7a 3d
       0.023742983 0.023225605 -0.05209397 0.061103374
000130 52 25 14 3d 77 89 96 bd 3e f5 eb bc 03 b9 94 bd
       0.036168404 -0.07350438 -0.028803464 -0.07261851
000140 7b 5d 82 bd 72 7b 59 bb e5 0f 9c bd 72 bc d4 3d
       -0.06365486 -0.0033185151 -0.07620219 0.103875056
000150 76 9f 1b 3e b2 11 d2 bc 12 a0 c4 3d 83 84 0f 3d
       0.15197548 -0.025643203 0.096008435 0.035038482
000160 37 0f b9 3c 89 74 33 be c2 06 21 bd dc 73 1b bd
       0.022590263 -0.17524923 -0.039313085 -0.03795229
000170 46 7d c5 3d 3b 91 88 bd 33 4d d7 bd 8b 08 24 bc
       0.09643035 -0.066683255 -0.105127715 -0.010011802
000180 1b c3 01 bd c9 c8 c1 bd a3 81 ea bd 9f 5a d8 bd
       -0.031680208 -0.09462125 -0.114505075 -0.105641596
000190 f8 3b 1a 3e e3 52 90 bd cb 9c cf 3d ce f2 3e 3e
       0.15061939 -0.070470594 0.10137328 0.1864731
0001a0 d0 e6 21 3e a4 df 27 3d c4 45 06 3d f3 36 a3 3d
       0.15810704 0.040984765 0.032781377 0.07969465
0001b0 09 44 be 3d cb 84 ba 3c 8a b9 53 3d ea 11 e5 3d
       0.092903204 0.022768399 0.051690616 0.111850575
0001c0 36 2c 6d bd 67 c2 d0 3d 4d 1f 9d 3c 56 96 f0 3c
       -0.05790349 0.10193329 0.019179964 0.02936856
0001d0 40 0a 0e b9 08 04 02 3e 82 6a 0f 3d 92 13 a5 bd
       -0.00013545994 0.1269685 0.035013683 -0.08060373
0001e0 f1 12 b6 3d 78 19 c2 bc 9a 3a 9a be 29 db 78 3c
       0.088903315 -0.023693785 -0.30122834 0.015188971
0001f0 b4 ad 1a 3d 99 97 36 bc 11 2b 9e bd b8 6d 43 3d
       0.037763312 -0.011144542 -0.07723058 0.047712058
000200 b9 63 ec 3d b4 1b b6 bd 46 d6 fe 3d 69 91 c8 3d
       0.11542458 -0.08892003 0.12443213 0.0979336
000210 c5 3d 9b bd 11 17 f2 bd f3 f9 2d bd 1b 6e f2 3d
       -0.07580141 -0.11820806 -0.0424747 0.11837407
000220 0f ef 75 3c 09 af 75 3c ea 20 cf 3d 4a d0 89 3d
       0.015010609 0.014995345 0.101137 0.06729181
000230 48 55 92 bd d4 d9 da 3b 6a 8f ac 3d 75 46 03 3e
       -0.07145172 0.006678799 0.084257916 0.12819846
000240 02 98 12 3e dc f7 0a 3e 71 99 f4 bd df 56 08 3e
       0.14315799 0.13571113 -0.11943329 0.13314389
000250 29 55 13 3d 65 91 86 bb e6 33 06 be 37 3c cb 3d
       0.035969887 -0.004106688 -0.13105735 0.099235944
000260 5c 39 14 be bf 36 8c 3d e1 3b 0c 3e 3e da b6 3d
       -0.14475006 0.068463795 0.13694717 0.08928345
000270 e0 33 67 3d ac 29 47 3d cb 6d b1 bd ac 42 6b 3d
       0.056445956 0.048623726 -0.086635195 0.05743663
000280 c4 45 74 3c 6f f3 16 be 47 9f ba 3d 20 84 03 bd
       0.014909212 -0.147413 0.09112411 -0.032108426
000290 98 67 2b bd d4 41 5b bc ab 78 a3 3c 0f 61 d4 bb
       -0.04184684 -0.013382394 0.019955 -0.006481297
0002a0 89 b9 a3 3d 7d 0a 57 bc 42 25 9c bd dd c9 ad 3c
       0.079943724 -0.013125059 -0.07624294 0.02121442
0002b0 e9 dc bd 3c 16 41 c7 3d 41 8f 09 bc 3c bb 48 3d
       0.023176627 0.09729211 -0.008395971 0.049006686
0002c0 6c ce c7 3c c0 74 11 bd 1d 31 d8 bc 18 8c 0f 3c
       0.024390422 -0.035511732 -0.026390607 0.008761428
0002d0 a7 99 de 3d 5e 6d 4e bd 4d fa 86 bc bc 9c c7 bc
       0.108691506 -0.05039727 -0.016476775 -0.024366729
0002e0 42 58 d1 bc 0c ed 0e 3e a0 b9 53 bd 65 3c 8f bc
       -0.02555478 0.13957614 -0.051690698 -0.017484853
0002f0 41 3b 0b 3d c4 f0 6f 3c ca 6c 3c bd 15 8b 06 3e
       0.033992056 0.014644805 -0.046002187 0.13138993
000300 bf 30 cf bc 8a 70 5b bd c6 0e b5 bd c1 b4 58 3d
       -0.025291799 -0.053574122 -0.088407084 0.052906755
000310 9e 68 54 3e 70 34 df bd 88 ee 58 3c 92 2c c8 3c
       0.20743033 -0.108986735 0.013240464 0.024435315
000320 44 d4 29 be 1f bd ad bd 40 63 6d 3c 1b 88 39 bb
       -0.16584879 -0.084833376 0.014488995 -0.0028309885
000330 08 57 fb 3d 83 25 27 be 2f b9 a0 bd 03 8b 60 3e
       0.12272459 -0.16322903 -0.07847821 0.21928029
000340 5d ec fd 3d cc d9 4a be 66 cf 25 3e 67 ac d8 3c
       0.12398598 -0.19809645 0.16192397 0.026449395
000350 02 38 ad 3d bb 1a 10 be 18 13 59 bd bb 33 8a bd
       0.08457948 -0.14072697 -0.052996725 -0.06748148
000360 af 8e 30 bd 82 b9 b6 bd ae a8 08 be d0 7d b4 bd
       -0.043104824 -0.089221016 -0.13345596 -0.08813059
000370 3d 54 23 3c 09 a6 ab 3d 23 96 b1 3d db 5d 1b bd
       0.009968814 0.08381278 0.086712144 -0.037931304
000380 f6 fc 77 be f7 27 6e 3d 9a a1 a3 3d 1f 12 d5 3c
       -0.2421759 0.058143582 0.079898074 0.026009617
000390 c5 89 c3 3d 4f 69 dd 3d f2 ac 97 bd 0f 64 54 3d
       0.09547762 0.10811102 -0.074060336 0.051853236
0003a0 d5 ae f6 3d e4 19 ff 3c 73 8f 67 3c fb 8a a2 3c
       0.12045065 0.031140275 0.014133322 0.019841662
0003b0 4f fc 53 bd ee d4 02 3e 5f db c3 bc 3e 49 b7 3b
       -0.051754292 0.12776539 -0.023908315 0.005593448
0003c0 ec ac 6b 3d ee 64 71 be 28 c1 dd bd 2a 87 0d bd
       0.057537958 -0.23573658 -0.10827857 -0.03455273
0003d0 3b 4c a6 bd 15 ce 20 3c 3b 2b 8d 3d 5f c0 ac 3d
       -0.081200086 0.009814759 0.06893011 0.084351294
0003e0 0a 4d 8d bd 26 94 39 bd 0c b9 1d 3d 1f d2 07 3e
       -0.0689946 -0.0453073 0.038506553 0.13263749
0003f0 ff ca 16 3d 46 c3 e8 bd b3 c1 7c 3c c7 c6 1b be
       0.036814686 -0.113653705 0.015427041 -0.15212546

network_body._body_endoder.seq_layers.0.bias f4 [256]
000000 57 0f 20 3c a7 04 22 3d 94 f7 13 3d 5d 48 78 bc
       0.009769282 0.039555218 0.03612478 -0.0151539715
000010 d2 7c 62 3c c1 9a 85 3b ec 66 94 bc f9 d7 8e bc
       0.013823705 0.004077286 -0.018115483 -0.017436968
000020 ad 1c c3 3c 7b 9b 5d bc 7e 5d 17 bc 97 88 09 3c
       0.023817385 -0.013525839 -0.009238599 0.008394382
000030 66 9c 89 3a 48 aa a6 3c 59 57 56 3c da 04 f1 3c
       0.0010498881 0.020344868 0.013082349 0.029421259
000040 a6 69 1c 3d bf 16 80 bc d0 0b 8a bc cc ae a9 3c
       0.03818669 -0.015635846 -0.016851336 0.020713232
000050 0e ab 48 3c f0 21 bc 3b 36 0e e3 3c 8f 2e a5 3c
       0.012247814 0.0057413504 0.027716737 0.020163802
000060 07 c5 3e 3a 9e 14 c6 3c e8 a6 93 39 c0 ba 59 b8
       0.0007277284 0.024179753 0.0002816238 -5.1910756e-05
000070 1d d0 ef bc e5 fa 90 bc 55 41 dc 3b 2b 03 97 3c
       -0.02927404 -0.01769776 0.0067216554 0.018434128
000080 6e fe 47 3d d3 0f 86 3c e6 a8 76 3c 53 f5 c5 3c
       0.048826627 0.016364967 0.015054917 0.024164831
000090 b7 d4 4f ba 73 3f 8a bc 2b 21 d1 3c 4d 14 9d bc
       -0.00079281203 -0.016875958 0.025528511 -0.01917472
0000a0 3d b6 71 3b 38 64 e4 3b ce c9 d7 3b 34 bc f8 ba
       0.0036882304 0.006969955 0.0065853363 -0.0018976987
0000b0 0d 99 84 bc f3 22 4b 3c b8 78 24 bc 18 37 08 bc
       -0.016186262 0.012398469 -0.010038547 -0.008313917
0000c0 54 72 b3 ba 55 d0 8d ba ff 9f a3 3b 3b a6 05 bd
       -0.0013690689 -0.0010819534 0.0049934383 -0.032629233
0000d0 f8 e9 89 3c 02 7c 9e 3c 2c 97 3b 3c b0 d2 56 3c
       0.016835198 0.01934624 0.011449616 0.013111755
0000e0 3f d5 9a 3c 8d 5b 9d 3b b5 fc 82 3c 2e bf 95 3c
       0.018900512 0.0048021735 0.01598964 0.018279638
0000f0 8b 0a e2 3c 40 4c 1e 3d 24 3e c8 3a 9b fd ee 3c
       0.027592918 0.038646936 0.0015277308 0.029173663
000100 9a 8d bd bb 7b f6 5e 3b 5f 9c f1 3c d9 4e fb 3b
       -0.0057847025 0.0034021426 0.029493509 0.0076693115
000110 99 d6 af bb 2a 6f 8e 3b ce 20 0f 3b 63 a2 66 bc
       -0.005366158 0.004346748 0.0021839621 -0.014076802
000120 a0 8c 50 3b fd bf 8d 3b 69 b7 e0 3c 2a 9d 02 bc
       0.00318221 0.0043258653 0.027431207 -0.007972041
000130 21 59 91 3c 5c be 5d 3d e3 09 d3 3b f9 be 37 bc
       0.017742695 0.05413662 0.0064403876 -0.011214965
000140 3c 6f 50 bb 80 5e 6a bb 15 a5 92 3c 2a b3 4c 3c
       -0.0031804582 -0.0035761893 0.017900983 0.012493888
000150 ff 62 4d 3c 24 26 53 3b 99 c2 37 bc dc cd 28 3a
       0.01253581 0.0032218779 -0.011215829 0.0006439367
000160 48 a0 1f bc 0f 23 63 3c 71 c6 94 3c e7 a1 b2 bc
       -0.009742804 0.013863339 0.01816103 -0.021805717
000170 ba 94 ba 3c 24 94 43 3c e3 18 11 3d 2b 00 de 3b
       0.022775996 0.011937175 0.035424124 0.0067749224
000180 22 37 c3 3b 90 fb 12 bb 53 a2 20 3c e5 6d 8e 3c
       0.0059575 -0.0022427775 0.009804326 0.017386386
000190 d1 7a 94 3c 65 74 8e 3c c4 9e a1 3c 6c 19 ba 3c
       0.01812497 0.017389486 0.019729026 0.0227172
0001a0 77 65 eb 3c 5b 6d d4 3c 7b e9 84 3a cf 11 71 3c
       0.028734906 0.025931051 0.0010140383 0.014713719
0001b0 7e 28 17 3d a5 27 70 bb 41 c8 8a 3c 6e c2 27 bb
       0.03690385 -0.0036644724 0.016941192 -0.0025598067
0001c0 5b e9 3c bb d2 7d 8b bb 06 22 01 3d ed bd ca bc
       -0.0028825614 -0.0042569423 0.031526588 -0.024748767
0001d0 dd 7c 1c bb 4e 09 7e bb 98 03 c1 3c 83 29 a7 3c
       -0.0023878135 -0.003876287 0.023561284 0.020405537
0001e0 fc 22 26 3b a8 2c 19 bc b2 51 20 3c 75 25 cb ba
       0.0025350442 -0.009349026 0.009785103 -0.0015498834
0001f0 9f 55 43 3c ae 45 03 3d fa 0c 8f 3c 75 da 2f bc
       0.011922269 0.032048874 0.017462242 -0.010733237
000200 3b 82 b0 3c ce ac 02 bd 9a 2e 87 3c e0 59 1f 3c
       0.021546474 -0.03190308 0.016501714 0.009726018
000210 bd 06 4a 3c 56 1d b3 3b c0 4a e7 3c ff 71 f7 3a
       0.012330708 0.0054661436 0.028233886 0.0018878578
000220 85 c6 51 3c 22 3d 3c 3b 86 a6 e1 bc 57 ad 33 3c
       0.012803678 0.0028722961 -0.027545225 0.01096662
000230 0b 6c 3a 3b a9 f8 31 3c 76 35 28 3c e2 e5 5a bc
       0.0028445746 0.010862508 0.010266652 -0.013360472
000240 e8 15 a9 bc 0b c5 01 3c b8 25 66 3b 97 c2 4f bc
       -0.020640329 0.007920514 0.0035117697 -0.012680671
000250 e8 b0 a5 bc af 16 1e 3a 51 fa 54 bc 95 b1 fd 3b
       -0.020225957 0.0006030602 -0.012999133 0.0077421167
000260 8f f4 8d 3c f1 b0 36 3c d5 71 e1 3c b3 50 75 3c
       0.017328529 0.011150585 0.0275201 0.0149728535
000270 4f 52 97 bb bb 27 f2 3b 2c 81 6d 3c 69 ce 8e 3b
       -0.0046179662 0.00738999 0.014496129 0.004358102
000280 3e f6 ce bb de a7 6c bc c9 4d 44 3c 02 92 ce ba
       -0.0063159754 -0.0144443195 0.011981436 -0.0015760066
000290 3a 01 0b bc 3f e4 fd ba da a4 ae 3b e8 93 e6 3b
       -0.008484179 -0.0019370391 0.0053297104 0.007036675
0002a0 9d 1a 49 3c ae d2 8f 3c 19 75 4f bb 58 3b e4 ba
       0.0122744115 0.017556515 -0.003165549 -0.0017412705
0002b0 6f 15 e7 ba aa 8f 0e bb ca 46 84 ba 8c 22 0f bc
       -0.0017630289 -0.002175311 -0.0010091898 -0.008736264
0002c0 e2 f4 23 3c 7c 17 4c 3c c0 ad d9 3b b7 21 6a 3c
       0.010007115 0.012456771 0.006643027 0.014290265
0002d0 2b 06 95 3c c5 ff bf bb 90 a0 6c ba 70 c4 15 3c
       0.018191418 -0.0058593475 -0.0009026611 0.009141073
0002e0 56 ad 64 bb a0 d9 d4 bb 81 0f 10 bc 65 0c 24 3d
       -0.0034893355 -0.0064956695 -0.008792759 0.040050883
0002f0 91 9b 25 3c 70 4c fc 3c dc 26 6f bc 4d 49 a7 3b
       0.010107891 0.030798167 -0.014596667 0.0051051737
000300 e5 40 6c 3c 5c e0 e5 3c f2 08 11 bc 32 bb a8 3b
       0.014419769 0.028061084 -0.00885223 0.0051492685
000310 26 d7 cc 3b fe 86 ed 3c bc 8e 3e 3c 27 99 cc bc
       0.0062512336 0.028995033 0.01163071 -0.024975372
000320 ce 44 5a 3c 8e 22 ab 3b 78 fe 9d 3a 68 26 42 bb
       0.013322068 0.005222625 0.0012053987 -0.0029624943
000330 35 fc ea 3b 43 c7 e1 bb 5d ff e0 3b 50 ee a3 3b
       0.0071711787 -0.006890209 0.006866379 0.0050027743
000340 68 17 56 bb 1c e6 34 3c e0 ca e3 3c c3 12 8a ba
       -0.003266776 0.0110411905 0.0278067 -0.0010534156
000350 ce 2b 17 3d 11 c7 86 3c ff 46 85 3c db cb 0b 3c
       0.03690701 0.016452344 0.016269205 0.00853249
000360 f9 64 ca 3b 8a d1 67 3c 3a 1a 12 3d 36 dd 0f 3c
       0.0061765877 0.014149079 0.035669543 0.008780768
000370 7e 50 58 3a 16 65 3b 3c ea 95 05 bc 6e ee 3e 3c
       0.00082517404 0.011437675 -0.008153418 0.011653526
000380 00 6f 65 bc e4 d0 cf 3a e6 1a 9d 3b 2d c0 16 bc
       -0.014003515 0.0015855101 0.0047944663 -0.009201092
000390 27 c5 39 bc 5e 68 41 3c 8e b5 94 bc 67 25 46 3c
       -0.011338509 0.011804668 -0.018152978 0.012093878
0003a0 22 70 9f 3c 9a 43 3c 3c 7c 54 c8 3c 52 03 11 3a
       0.019462649 0.011490727 0.024454348 0.0005531806
0003b0 ac 38 2a bc a2 44 ad ba d1 fc ae bc 8d 49 2f 3c
       -0.010389488 -0.0013219307 -0.021360787 0.010698688
0003c0 ba 3c 50 bc 74 dc 6c 3c 09 46 14 bc 04 bd f4 3b
       -0.012709791 0.014456857 -0.009049901 0.0074688215
0003d0 6a 9b 81 3b 0e 3a 19 3c f2 bd 58 3c 29 3b a7 bc
       0.0039552944 0.00935222 0.01322888 -0.020413952
0003e0 77 98 df bb f1 12 c5 bc 52 0c 81 bc 43 36 3c 3c
       -0.006823595 -0.024056884 -0.015752945 0.011487546
0003f0 c5 c8 b6 3c 27 b1 a6 bc 7f 4d 81 3b 9f 31 51 ba
       0.022312531 -0.020348145 0.003946006 -0.00079801114

network_body._body_endoder.seq_layers.2.weight f4 [256, 256]
000000 08 d2 fb bb c5 fb 2a 3d 3e 76 f0 3c cb 6c 64 bd
       -0.00768495 0.041744012 0.029353257 -0.055767816
000010 b9 8d 86 bd 6e a2 c2 3c b7 3c ae 3b 14 59 83 bd
       -0.0657 0.023759093 0.0053172964 -0.06413475
000020 b0 31 ba 3d 97 8d 2b bc b7 4d c4 3c b8 88 0d bc
       0.090915084 -0.010470769 0.023962839 -0.008638553
000030 06 1e 97 bb 4a f1 0e 3e e0 7b f1 bc 2f a1 a1 3d
       -0.0046117334 0.13959232 -0.029478014 0.078920715
000040 7c 96 e0 bb 70 de 5d 3d 00 6e d9 3b 3f 37 9a 3d
       -0.0068538766 0.05416721 0.0066354275 0.075300686
000050 3f 3f b7 38 48 b6 0e 3c b3 0a 68 3d 0b aa f9 3d
       8.7379005e-05 0.008710451 0.05665083 0.12190636
000060 fd 5c b0 bd cb d3 6f bd f6 11 4a 3c 61 20 9b bc
       -0.08611486 -0.05855159 0.012333384 -0.018936338
000070 7e 2b 71 bd b8 c6 96 3d 8e 75 08 be d4 aa c9 3d
       -0.058879368 0.07362121 -0.13326094 0.09847036
000080 b6 d4 b1 3c 4f 12 8e bd f1 8b 35 3a 08 c9 67 3d
       0.021707874 -0.06937086 0.0006925455 0.056588203
000090 53 ce e9 3d 29 4c 25 3d f2 be 26 3b 21 b0 76 bd
       0.11416306 0.040355835 0.0025443402 -0.060226563
0000a0 9e bf 0d 3d f0 4d 1e 3e c1 37 22 3d 32 8e 2e be
       0.03460657 0.15459418 0.039603952 -0.1704643
0000b0 d8 c0 2d bc 9a 4f 17 bd ed 8f 49 3d db b0 02 bd
       -0.01060506 -0.03694115 0.049209524 -0.031906944
0000c0 9a c1 9f bd c5 c1 9d bd d5 e3 33 bd 80 c8 3e 3d
       -0.078005984 -0.07702974 -0.04391845 0.04657793
0000d0 de fa 61 3d 72 5d c9 3c c0 c3 fe 3d 53 10 60 3d
       0.055170886 0.024580691 0.1243968 0.054703068
0000e0 37 a2 cf 3d 4d 44 af bd 62 3c 8d bc b6 32 14 3d
       0.10138362 -0.08557949 -0.017240707 0.036181174
0000f0 1a bd 3e 3d 9c 95 18 3e c0 c5 c8 bc fe 9e 4e 3e
       0.04656706 0.14900821 -0.024508357 0.20177838
000100 14 62 66 bd 51 ff 09 be 23 fc 98 3c 4c 41 cf 3d
       -0.05624588 -0.13476302 0.018674916 0.10119876
000110 92 51 39 3c 99 65 f8 bb 1e 88 d9 3c 98 d0 b6 3a
       0.011310952 -0.0075804708 0.026554164 0.0013947664
000120 c1 0d 8b 3d 71 bc 7a 3d 2c dc 9d 3d 25 63 a9 bd
       0.06789733 0.061214868 0.0770801 -0.082708634
000130 5e 54 94 3d e9 d9 2c 3e e7 98 b7 3d 74 78 8d 3d
       0.07242654 0.16880001 0.08964711 0.0690774
000140 8d e0 cf bc 04 bf 25 bd ed 99 40 3d 81 e3 ce bb
       -0.025375629 -0.04046537 0.047021795 -0.0063137417
000150 b8 58 82 bc 40 9c 3e 3d cc 1d 52 bd c7 33 88 3b
       -0.015911445 0.04653573 -0.051297948 0.004156563
000160 dd aa 0d 3d c0 75 3c 3d cd 96 b2 bd 34 de 81 3d
       0.034586776 0.046010733 -0.08720169 0.0634121
000170 31 4e 40 bd 31 19 9a bd 7e d9 d8 bd 46 02 98 bd
       -0.04694957 -0.07524336 -0.10588358 -0.074223086
000180 90 31 0f 3d a5 6a 12 3d ec fe d2 3d 4f 66 0a 3d
       0.034959376 0.035746235 0.10302529 0.033788975
000190 48 45 ad 3c 8a 90 91 bd 1b 44 fd 3d f9 7b 9b 3d
       0.0211512 -0.07107647 0.12366506 0.07592005
0001a0 05 7c 07 3e a9 b4 04 bb 5c f7 d2 bd b8 4b 87 bd
       0.13230903 -0.0020249283 -0.10301086 -0.06606239
0001b0 e2 fc 33 3d 85 1a b6 bc 4e 22 92 3d 51 1e 83 bb
       0.04394234 -0.022229442 0.07135449 -0.0040014167
0001c0 7f fc 90 bd 72 f9 76 3d 06 a4 c0 b9 22 39 b8 bd
       -0.0707941 0.060296483 -0.000367433 -0.08995272
0001d0 46 93 0f bd 06 73 9d bd 63 9b 45 3d ee 9a c6 3d
       -0.03505256 -0.076879546 0.04824389 0.09697519
0001e0 be 0b 19 bb a7 91 63 3c 5e cf 38 bd bd 84 19 3d
       -0.0023352946 0.013889707 -0.045119636 0.037480105
0001f0 69 d5 81 bd 8e 34 22 3e 3d 62 08 bd fc 5e c5 bd
       -0.06339533 0.1584036 -0.033296812 -0.096372575
000200 0a 92 36 bb 71 39 36 3b 14 2e f8 bb 58 83 0f be
       -0.0027858042 0.0027805234 -0.0075738523 -0.14014947
000210 5a e0 b3 3c 31 ea 97 bd c8 a5 4a 3d 9f e9 ab 3d
       0.021957565 -0.07417715 0.049474508 0.08394169
000220 cf 07 f6 3b b8 fc 21 3c d3 58 05 3d ec 36 01 bd
       0.007508255 0.009886913 0.032555413 -0.03154652
000230 3f 9c 31 3e 7f bb e2 3c 62 d4 b0 bb 98 f6 49 bd
       0.1734476 0.027677296 -0.0053964118 -0.049307436
000240 d5 81 bb 3c 1b b0 0a 3d 59 e8 01 bc e6 6e fd 3c
       0.022889057 0.033859354 -0.007928931 0.03093667
000250 3a b1 06 be 31 82 9f 3b e7 be 58 bc 55 a7 02 3c
       -0.13153544 0.004867815 -0.013229108 0.007974465
000260 9e bb 18 bd d2 6e 53 3d 9c 16 9b bb 07 c6 15 3c
       -0.0372883 0.05161936 -0.00473292 0.009141452
000270 c0 26 2e 3d 10 45 9b bd 24 33 9e 3d 5d 23 b3 bd
       0.042517424 -0.07581532 0.07724598 -0.087469794
000280 5e d5 cf 3d c1 69 ac bd c8 25 af bd 14 ad 9f 3d
       0.101481184 -0.084186085 -0.08552128 0.07796684
000290 77 09 6c 3d 37 13 26 3d 7a 61 02 be ed 7c 5c 3c
       0.057626214 0.04054567 -0.12732497 0.013457519
0002a0 4d 41 37 3c 2f a2 e5 bd 1c 36 42 bd 60 af 7b 3d
       0.0111850025 -0.11212575 -0.047414884 0.061446548
0002b0 18 2b 2e 3c 2a 1c 3f bd 46 c4 8b bd 47 0a 3c 3d
       0.010630392 -0.04665772 -0.068245456 0.04590824
0002c0 3b 9d a3 bd 79 e5 8a bd 92 d9 27 3d 65 fa 9c 3d
       -0.07988974 -0.0678205 0.040978976 0.076649465
0002d0 52 ca 95 3d 6c 6c 2e bd c3 bb 4f bd c2 09 96 bb
       0.0731398 -0.042583868 -0.050716173 -0.0045788
0002e0 02 6e 80 bc 99 98 5f 3d 96 e8 23 bd 6e b3 30 bd
       -0.015677456 0.054588888 -0.040016733 -0.043139867
0002f0 57 a8 ca 3c e0 9f 4b bd d5 89 7f 3c c6 9d f0 bd
       0.024738474 -0.049713016 0.015596827 -0.11748843
000300 90 e6 28 bd bf a9 bd 3d 77 9d 9a 3c e5 cd 1f 3d
       -0.041235507 0.09260892 0.018873913 0.039014716
000310 5c a9 98 bd 3f 0e 9d 3d 2a 75 83 3c 47 8b b5 bd
       -0.07454178 0.07668733 0.01604708 -0.08864456
000320 3f 95 9c 3c 5c 73 1b 3c a4 9c b1 3d 6c 35 9f bd
       0.019114135 0.009487953 0.08672455 -0.07773861
000330 0a d2 97 3d ac fe be 3c af 7a 99 3d cc 94 18 3d
       0.07413109 0.023314796 0.07494103 0.03725128
000340 5c 13 77 3d 1a e8 68 bd 6f 26 86 3c 41 19 2a bd
       0.060321197 -0.056861974 0.016375748 -0.04152799
000350 a9 5a 07 3e 12 be 94 bd 08 ef b5 3d f4 0c 9f 3d
       0.13218178 -0.072628155 0.08883482 0.077661425
000360 74 f6 3a 3e 36 13 6c 3d 20 ba 3a be 08 4f 8a 3d
       0.18258077 0.05763551 -0.18235064 0.06753355
000370 5a a9 01 3e 26 7b a0 bd b2 09 9c 3d cc 9c 0a bd
       0.12662259 -0.07835989 0.07619037 -0.03384094
000380 d3 27 d5 bd 51 95 28 bd db 9c f1 3b 69 a1 98 3c
       -0.104079865 -0.041158024 0.007373435 0.018631654
000390 88 43 6e bd 10 8b be 3b 79 cb 27 bd 4f 8c b1 3d
       -0.05816987 0.0058149174 -0.04096553 0.0866934
0003a0 7f 75 83 3b 82 c5 92 3d 8f b4 a6 3d af b0 43 bd
       0.0040118094 0.07166578 0.081399076 -0.04777592
0003b0 c7 77 21 bc c0 a9 80 3d 68 fb 05 3d 5e 06 cb bd
       -0.009855217 0.06282377 0.032710463 -0.09913324
0003c0 cb 0b a4 bd d1 5e 91 bc c2 95 ac 3a 4f b5 11 bc
       -0.08010062 -0.017745407 0.001316719 -0.008893325
0003d0 63 b7 db 3a d1 fd ac bc 11 05 b4 bc f9 3d 7b 3b
       0.0016763028 -0.021117123 -0.021975072 0.00383365
0003e0 51 60 ee 3b 77 b0 fd 3d 62 0b af 3d e8 7c b8 bd
       0.0072746654 0.123871736 0.08547093 -0.09008199
0003f0 b6 2f b0 bd 7f f9 07 be 79 26 08 bd ca 92 2a 3b
       -0.0860285 -0.13278769 -0.033239815 0.0026027435

network_body._body_endoder.seq_layers.2.bias f4 [256]
000000 9a d0 5a 3c 7e b9 29 3c 3f 11 0f bc e9 a0 aa bb
       0.013355399 0.010359166 -0.008732139 -0.0052071703
000010 73 5f 33 3c f2 e0 a3 bc 9a 96 98 bc 41 b4 c2 bc
       0.01094805 -0.020004723 -0.0186265 -0.023767592
000020 18 79 0a bc d2 3f ff 3b cd d7 0d 3c 1f 61 41 3c
       -0.008451723 0.0077895904 0.008657408 0.011802941
000030 e9 e1 22 bc 1c f9 a8 3c 83 50 07 3b fd 51 0d 3b
       -0.0099415565 0.020626597 0.0020647354 0.0021563761
000040 54 13 2d bc 8f 4f 6f bc 27 f5 6d bb 70 bb 31 3b
       -0.01056369 -0.014606371 -0.0036309452 0.0027119778
000050 42 96 48 3c e8 e4 33 3c 69 6c 30 bc d1 12 5f 3c
       0.0122428555 0.0109798685 -0.0107680345 0.013615326
000060 b4 95 ac 3c be 0e 2c bc 45 ca 9e bc 65 25 85 3c
       0.021067478 -0.010501562 -0.019383559 0.016253183
000070 d6 6a c5 bb 75 f8 a9 bb 90 4b 88 3c 0b b9 04 bb
       -0.0060246987 -0.005187089 0.016637594 -0.0020251896
000080 1f b9 d5 3b c2 63 8d bc 40 68 a8 3c 2e 76 13 bc
       0.0065223123 -0.017259482 0.020557523 -0.009000344
000090 11 fa 8c bc e3 e7 14 3c eb 7a ff bb 4e 49 8e 3c
       -0.017209085 0.009088489 -0.0077966354 0.017368939
0000a0 fe 41 17 3d 34 5d 9b bb c6 c6 a0 bc 12 27 47 bc
       0.03692817 -0.0047413353 -0.019626033 -0.012155311
0000b0 fb 15 4f 3c a2 3b 08 3c 55 a1 9c bc 6b e5 7e 3c
       0.012639518 0.008314999 -0.019119898 0.015557627
0000c0 3d 91 33 bc a9 f2 8a bb cf 1a 3b 3c b1 69 a6 bb
       -0.0109599205 -0.004240353 0.011419966 -0.0050785174
0000d0 e5 a4 cf 3c c2 65 29 bc 09 89 96 bb 9e b4 b1 3c
       0.025347183 -0.010339202 -0.0045939726 0.02169257
0000e0 c6 34 cb 3c 24 60 70 3c 81 1b 74 39 a7 9c 11 3c
       0.024805438 0.014671359 0.000232799 0.0088874465
0000f0 93 f2 a3 ba b4 aa ad 3b 72 34 07 3d 9a 4c 04 3c
       -0.0012508206 0.0052998904 0.033009 0.008074904
000100 51 25 ba 3c 5b 5d 44 bc 2e c3 e5 3c 96 cb 01 3c
       0.022722872 -0.011985148 0.02804717 0.007922074
000110 5b 12 e5 3c 89 1d 44 bc 7c 1c 02 3d c8 83 6a 3c
       0.027962854 -0.011969932 0.031765446 0.014313646
000120 85 c0 bf 3b 4d 32 18 3c 6d 44 3b bc 06 c4 bd 3a
       0.0058518075 0.009289336 -0.011429888 0.0014477975
000130 0d bb 94 bb 55 0a 16 bc 31 eb 78 bc 9d be a3 bb
       -0.0045388998 -0.009157737 -0.015192793 -0.004997088
000140 66 29 89 3b 20 9d 58 b5 e6 b5 2f bc 1b 0a 20 3c
       0.0041858433 -8.069492e-07 -0.01072452 0.009768034
000150 75 70 6f bc 82 d2 f8 3b 28 18 13 3d bb 5d 11 3d
       -0.014614214 0.007593454 0.03591171 0.03548978
000160 5e 3c c8 3b 36 10 b9 bb 54 fc 9f 3b db 9d ac bc
       0.006110712 -0.0056476844 0.004882375 -0.021071365
000170 bb 79 a1 3b b7 32 eb 39 6e 9c cf 3c 08 cf ff bb
       0.0049278415 0.00044860478 0.025343146 -0.0078066625
000180 61 8d 66 3c d5 b4 c1 3c 0b 59 05 bd cc 05 80 3c
       0.014071793 0.023645798 -0.03255562 0.015627764
000190 d8 7e 6f 3c ca d7 d7 3c 16 3e 9f bb 56 c6 aa 3b
       0.014617644 0.026348013 -0.004859696 0.005211632
0001a0 aa 0f 43 3b a0 83 cb 3c 05 60 0f 3d d1 91 fb bb
       0.0029763975 0.024843037 0.03500368 -0.007677295
0001b0 1c 3c d5 3a d9 d4 e2 bb 5f 53 96 bc c8 d3 c7 3c
       0.0016268524 -0.006922346 -0.018350301 0.024392977
0001c0 31 c5 7b bc 63 76 0c 3d 2d da ac ba 3e f6 7c bc
       -0.015366838 0.03429259 -0.001318758 -0.015439568
0001d0 6b 27 c5 bc 17 46 0f b9 ea cb 9e 39 bb 13 9f 3c
       -0.024066648 -0.00013663653 0.00030288036 0.019418588
0001e0 4b c4 86 3c 82 f6 cd ba 16 21 08 3c af 19 b3 b9
       0.016451022 -0.0015713724 0.00830867 -0.00034160676
0001f0 e8 70 6f 3b 3f c8 b6 3c f9 3d a9 3c dc ed 87 bc
       0.0036535803 0.022312282 0.020659434 -0.016592912
000200 a0 6a 04 3d 34 e6 c0 3c b5 ca fe 3c 22 64 ce bc
       0.032328248 0.02354727 0.031102518 -0.025194231
000210 b1 72 7d bc 12 a7 a4 3a ea 96 c1 3b 9f 62 2d bc
       -0.015469239 0.0012561998 0.005907883 -0.010582595
000220 24 08 d6 3c fb 01 78 bc 94 01 f0 3b eb 5d a5 bb
       0.026126929 -0.015137191 0.007324407 -0.0050465963
000230 68 d6 38 bc 38 11 16 bb 46 91 89 3c fc 3d cf 3c
       -0.011281587 -0.0022898447 0.016792905 0.025298111
000240 f6 76 24 3c d0 85 b8 bb 14 fd 33 3c 44 25 ed 39
       0.010038128 -0.005631186 0.0109856315 0.00045231928
000250 43 06 d1 3b 9a 8f ea b9 2b d3 74 bb c7 3e 05 bc
       0.0063789203 -0.0004473895 -0.0037357311 -0.008132643
000260 d9 89 e8 3c 7d 07 25 3d 1b ac f4 3c 7a 34 a4 3c
       0.028386043 0.040290345 0.029867223 0.020044554
000270 38 a0 bf bb 86 6a 91 bb 05 0c 2c bc 3b da 0a 3c
       -0.005847957 -0.0044377474 -0.010500913 0.008474882
000280 16 06 c4 ba 7f 96 39 3c db 12 8d bc 91 e3 96 3c
       -0.0014955427 0.011327385 -0.017220905 0.018419059
000290 86 5e 9d bc 6d 6c c6 38 e6 6a a1 bc e5 6f 19 bc
       -0.019210111 9.4615716e-05 -0.019704293 -0.009365057
0002a0 a5 e4 bb ba ab 2a 09 b9 a9 3c 64 3c 6c 6a 2a 3b
       -0.0014335109 -0.00013081233 0.013930478 0.0026003374
0002b0 0a e2 ce 3c cb 84 2c 3c 1d 02 98 3c 92 a1 04 3d
       0.025254268 0.010529707 0.018555695 0.032380648
0002c0 58 76 d3 3c 5a f9 a0 bb 81 b1 4d bc a9 47 c8 3b
       0.025813267 -0.0049125375 -0.012554527 0.006112058
0002d0 c6 a5 1a 3c f5 d6 56 3b 27 8d 3a 3b 00 d9 1b 3b
       0.0094389375 0.0032781933 0.002846548 0.0023780465
0002e0 7f a5 b2 3c 90 b4 00 bb 07 8c 70 3b e2 7e 3e 3c
       0.02180743 -0.0019638874 0.0036704557 0.011626931
0002f0 d3 78 23 3c d4 b4 12 bc 0e ab 4a bc c1 e3 39 3b
       0.009977537 -0.008954246 -0.012369884 0.0028364512
000300 ec 84 07 3b 26 5a 17 3d 8f b6 a3 3c 03 44 a9 3b
       0.0020678593 0.036951207 0.019984512 0.0051655783
000310 c4 74 59 3b 61 56 48 3b 0e 0c a7 bc 33 38 54 3c
       0.003318117 0.0030569064 -0.02039149 0.012952852
000320 64 51 63 bb 5f 6c 6d bc 83 02 ed 3a 39 2f c0 3b
       -0.0034685964 -0.01449117 0.0018082414 0.0058650044
000330 6a 7a 9b 3c 74 79 7d bc ec 2e bc 3c e7 45 f5 3c
       0.01897927 -0.015470851 0.022971593 0.029940559
000340 02 d1 00 bc 15 c2 62 3c 77 f1 33 3c 6f e3 bd 3b
       -0.007862331 0.013840218 0.010982863 0.0057949345
000350 f8 88 34 3b ea 7d 5b bc 43 4e 9b 3c 0d 8f 5b 3c
       0.002754746 -0.0133967195 0.018958217 0.013400805
000360 2d 4a 9b 3c c0 1d 4b bc 1c 7b ae 3b 55 e7 85 bc
       0.018956268 -0.01239723 0.0053247344 -0.01634566
000370 d7 2b 11 bb 32 15 ae 3c 15 c3 79 3c 9f 76 b5 bb
       -0.0022151375 0.021250341 0.015244265 -0.0055378224
000380 29 a6 22 bc c2 99 b8 3c 4c fa b3 3a ae 7a c9 bb
       -0.009927311 0.022534255 0.001373121 -0.0061486578
000390 7c 14 d8 bb 02 98 12 3d 01 20 e8 bb b4 8c 38 3c
       -0.006594239 0.035789497 -0.0070838933 0.011264015
0003a0 3f 2e 49 3b 64 eb 96 3c 8d fa 97 bb e2 0a c3 3b
       0.003069773 0.01842279 -0.0046380223 0.005952225
0003b0 eb 35 98 3c 93 68 ef 3c ed d7 90 3c be d1 07 3c
       0.018580398 0.02922467 0.017681086 0.0082897525
0003c0 40 7c 98 bc 88 29 5c bc af 17 c8 bb 27 a9 e1 3c
       -0.018613935 -0.013437636 -0.006106339 0.027546478
0003d0 f8 c7 85 3c d9 ab f2 3c 80 dc 61 bc 78 03 d6 3a
       0.016330704 0.029622959 -0.013785481 0.0016327938
0003e0 40 52 22 bc a0 72 ea bb 68 81 e2 bb 82 10 c2 bb
       -0.009907305 -0.0071547776 -0.006912399 -0.005922378
0003f0 34 13 09 bc 90 1b fb b9 61 a2 2d bc 5d 92 96 bc
       -0.008366395 -0.00047894986 -0.010597796 -0.018380338

action_model._continuous_distribution.log_sigma f4 [1, 6]
000000 e1 81 6c 3d da 78 3b 3b 3b 96 e7 3d bf 6e 9f 3c
       0.05774105 0.0028605969 0.11307951 0.019461988
000010 29 4e 9f 3d be 83 85 3d
       0.0777858 0.065192685

action_model._continuous_distribution.mu.weight f4 [6, 256]
000000 1d 4e a8 bc 5d 81 0d bd 0a 5d 49 bd 5c f3 a6 3b
       -0.02054506 -0.0345472 -0.049160995 0.0050949287
000010 3a 09 b5 3b c8 91 cc 3c 83 f3 b5 3b 8c ac a9 bc
       0.0055247815 0.024971858 0.0055527105 -0.02071216
000020 da 5e a3 bc 28 d8 10 3b 97 31 40 bd 82 25 22 bb
       -0.01994269 0.0022101495 -0.046922293 -0.0024741595
000030 7c 97 bd bc 71 c6 ba 3c fc 3d 31 bc 83 5a 3a bc
       -0.023143522 0.022799702 -0.010818001 -0.011374119
000040 a6 50 61 bb e6 c8 71 bc 8b b4 3d 3c 23 d8 ec 3c
       -0.0034380346 -0.014757371 0.011578689 0.028911656
000050 ec 8b 79 3c 32 14 0f 3d 71 ad 18 bc 1c 2c 0b bb
       0.015231114 0.03493137 -0.009318695 -0.0021236008
000060 f6 0e 11 3d 65 0b b7 bc 8b 79 d1 3c fa 2e 02 3c
       0.03541466 -0.0223443 0.025570652 0.00794577
000070 be 0c a9 bb cd 3e a9 3c 71 79 d0 3b 91 08 47 bc
       -0.0051589897 0.020659829 0.006362133 -0.0121480385
000080 c8 8c 8c bc c4 df b1 bc e3 65 17 bc 0c e4 04 bc
       -0.017156973 -0.021713145 -0.0092406 -0.008111011
000090 e9 9a 82 bc 98 af de bc ee 8b d1 3c 56 0a 2c 3c
       -0.015943008 -0.027183339 0.025579419 0.010500511
0000a0 e0 d4 86 bc 3b ee 27 3c fe 08 33 bd 97 c6 56 bc
       -0.016458929 0.01024967 -0.043709747 -0.013108871
0000b0 13 1b ca 3c bc b6 c4 bc 9d 11 6b bc 6a 24 03 bd
       0.024671113 -0.024012916 -0.014347461 -0.03201715
0000c0 9a 99 9f bb 2a 35 17 3d 86 24 d3 3c fe a4 47 3c
       -0.0048706057 0.036915936 0.025774252 0.012185333
0000d0 33 1e 1a 3d 32 35 6a bc d0 9a 7e 3c d3 39 67 3c
       0.037626456 -0.014294909 0.01553984 0.014112907
0000e0 11 37 1f bc 1d 95 03 3d 59 ae 20 bd c0 dd a2 3b
       -0.009717719 0.032124627 -0.03922877 0.0049702823
0000f0 b5 ec 68 bd 98 e4 a6 bb bc ba 41 bd 9c 8f ca bc
       -0.056866366 -0.0050931685 -0.047297224 -0.024726681
000100 dd 9a c8 3c 9e 38 34 bd 9f bb 0e bc e1 d8 57 bc
       0.024487907 -0.043999307 -0.008711725 -0.013174267
000110 34 8e d0 3c 2b 3d 1b bd 0d e9 9e 3c a4 01 35 bd
       0.025458433 -0.03790013 0.019398237 -0.044191018
000120 06 85 06 bc b6 f4 be 3a f8 fe a2 bc b3 54 31 3b
       -0.008210426 0.0014568779 -0.01989697 0.0027058541
000130 f7 10 3d bc 32 35 b5 3b 1c 93 24 3c ea 98 45 bc
       -0.011539689 0.005530023 0.010044839 -0.012060383
000140 13 d4 6b 3d 03 13 25 3d 18 76 3c bc 84 2b cd bc
       0.057575297 0.040301334 -0.011502765 -0.025045164
000150 16 da d6 bc 28 de 1f 3d af 65 0f 3d 83 b2 51 3b
       -0.026227038 0.039030224 0.035009082 0.003199727
000160 69 4e 68 3c d9 d2 20 bc 40 ff 23 bb 83 51 f1 bc
       0.014178851 -0.009815895 -0.0025023967 -0.029457813
000170 42 f8 55 3c a5 f8 85 bc d2 bc 9a bc b5 83 81 3c
       0.013059678 -0.016353915 -0.018888865 0.015809873
000180 9c e5 27 bd 62 9a 02 bd 83 5b d9 3a 54 b9 9a bc
       -0.040990457 -0.031885512 0.0016583059 -0.0188872
000190 df 9b 5f 3d 29 ed 56 bd bb a3 25 3d 21 8f a4 3c
       0.05459201 -0.052472267 0.04043935 0.02008778
0001a0 fc e1 86 39 c4 58 02 3c 1b e9 88 39 12 65 00 3b
       0.00025726843 0.007955734 0.00026113619 0.0019591493
0001b0 94 82 92 bc 70 92 3e 3c 9c 51 ce bb fc 1a 74 3c
       -0.01788453 0.011631593 -0.0062963497 0.014899012
0001c0 81 48 88 3b 69 ba a9 bc b5 20 33 bc d1 f0 5d 3c
       0.0041590338 -0.02071877 -0.010933091 0.013546185
0001d0 ba 00 78 bc 27 0a 8b 38 76 e4 07 3d 81 bf dc 3c
       -0.015136892 6.6299275e-05 0.03317686 0.026946785
0001e0 fc cb bb bc 1e 62 f1 bc de 0b 46 bd 6f 90 a0 ba
       -0.022924416 -0.029465731 -0.04835116 -0.0012250076
0001f0 6e 31 60 bc ad d8 1f bd 47 74 c7 bc eb 7e d8 3b
       -0.01368366 -0.039024998 -0.024347438 0.0066069267
000200 c4 37 35 bd 06 a7 9f 3c 70 0b c1 3c e9 1b f8 bb
       -0.044242635 0.019488823 0.023565024 -0.0075716865
000210 0f 4a 86 3b 74 83 d1 3c c6 6c ba bc de 07 57 3c
       0.004098184 0.025575377 -0.022756945 0.013124434
000220 88 f9 8d 3c 49 a8 8a 3a 84 2a a2 3c 8d 49 b8 bc
       0.0173309 0.0010578717 0.019795664 -0.02249601
000230 ae 7e db bc 56 1f ed bc 37 08 44 bd b3 a7 2e bb
       -0.026793804 -0.028945606 -0.047859397 -0.002665025
000240 b0 fd d9 3c 3a 09 af 3b 45 d2 23 bc 23 c7 c1 bc
       0.026610225 0.005341676 -0.009998863 -0.023654526
000250 e0 71 e5 3c 80 eb cf bb 17 24 ee ba 56 b8 12 bd
       0.028008401 -0.0063452125 -0.0018168715 -0.035820328
000260 ab 24 18 bb 62 99 21 3c b4 a5 9a bc b6 c3 17 bc
       -0.0023215215 0.0098632295 -0.018877842 -0.00926297
000270 c4 9c b6 3c 26 45 24 3d 4e b0 93 bc be f4 00 bc
       0.022291549 0.040105008 -0.018028405 -0.007870851
000280 9e 05 bd 3c 7d dd 35 ba ce 64 4c 3c ed eb 4c 3a
       0.023073968 -0.00069376064 0.012475206 0.0007817138
000290 7f 97 cc bb 48 74 18 bc 5f 43 92 3c 7b d1 39 3c
       -0.0062436457 -0.009305067 0.01785439 0.011341448
0002a0 80 07 37 3a bf 6d 5c 3c 0c bb 17 3c d5 ce 05 bd
       0.00069820136 0.0134539 0.009260904 -0.032667954
0002b0 61 95 fe bc 29 c5 c0 3b cc 07 bb bc a4 b3 c2 3c
       -0.031077089 0.0058828783 -0.022830866 0.0237673
0002c0 9b ab 82 bc ba 37 26 3b 30 98 f2 3c 58 7f 8f bc
       -0.015950968 0.0025362805 0.029613584 -0.017516777
0002d0 68 d0 a1 bb 13 9e 25 3d 90 65 b5 bc 05 f3 9c 39
       -0.004938174 0.040433954 -0.022143155 0.00029935702
0002e0 a5 7b 0c bd 77 a2 a6 3c 0a 7f 18 bb 03 94 01 3c
       -0.034297604 0.020341141 -0.002326908 0.007908824
0002f0 90 e5 de bb cc 2d eb bc 73 a4 19 bd cc df 8f bb
       -0.0068022683 -0.028708361 -0.037510347 -0.0043906923
000300 87 93 36 bd 1a 19 fd 39 3c c6 05 bd ea 26 dc bb
       -0.044574287 0.00048274623 -0.032659754 -0.006718506
000310 0a e3 e8 bc 79 9f 9f bb 56 39 ec 3c d3 f7 7a ba
       -0.028428573 -0.0048713055 0.028835934 -0.0009573672
000320 02 c1 b5 bc 78 62 da bc 52 ab a3 3c ab 44 e3 3c
       -0.02218676 -0.026658282 0.019979153 0.027742704
000330 b1 9d ba ba ce 13 fd bc 05 38 d3 3b ec 5c 12 bd
       -0.001423767 -0.030893233 0.006445887 -0.03573315
000340 6f 14 e3 bc ca 98 8b 3c 8d b2 28 3d f9 68 e5 3b
       -0.027719704 0.017040629 0.041185904 0.007001039
000350 6c d9 a8 3c cc 33 4c bb 64 32 9e 3b a3 44 5b 3d
       0.020611487 -0.0031158803 0.0048277844 0.053532254
000360 d1 2e 87 3c fb 79 c9 3c ed b9 9f 3b 27 61 f7 3b
       0.016501816 0.024594298 0.004874459 0.0075494233
000370 7a c8 a5 3c 77 3b 9a 3b 47 37 2f 3d e8 fa 8a 3c
       0.020237196 0.004706796 0.042777326 0.016965345
000380 06 75 2d bc 41 3b e2 bc 83 62 a0 bc 3d cd d4 bb
       -0.010586983 -0.027616145 -0.019578224 -0.006494193
000390 e4 4d ab 3c 1e 25 79 3d e6 e0 3b 3c 04 f3 9b 3b
       0.020911165 0.060826413 0.011467194 0.0047591943
0003a0 6e bf 9d bc d0 8d b1 3b 6f 34 09 bd 70 58 06 bd
       -0.01925632 0.0054185167 -0.03349727 -0.032799184
0003b0 67 e5 d2 3c 9c 53 0e 3d be fc e2 bb df 13 74 3a
       0.025744153 0.034747705 -0.006927102 0.00093108224
0003c0 fa d9 58 3c c0 e1 83 3c 2d 7a 82 bc e6 b7 f6 bb
       0.013235563 0.016098857 -0.015927399 -0.0075292466
0003d0 b3 2d 6b bb 93 4f ab bb 0d 74 92 3c a7 d5 4b 3a
       -0.0035885393 -0.005227992 0.017877603 0.0007775672
0003e0 bd 7e d3 bc 06 a9 8c bb 0b 5e 22 3d 4a f9 d2 bb
       -0.02581727 -0.00429261 0.039640468 -0.006438409
0003f0 e0 5d 5d 3c c6 cf 10 bc fb a7 a2 bc 90 57 37 bc
       0.013511151 -0.0088386 -0.01985549 -0.01119031

action_model._continuous_distribution.mu.bias f4 [6]
000000 ea c0 4b 3b 48 32 4a 3b c6 f7 b8 3c 22 1c a8 bc
       0.0031090328 0.0030852724 0.022579085 -0.020521227
000010 71 a0 97 3c 44 3a 3f 3a
       0.018509122 0.0007294754

onnx::Div_71 f4 [100]
000000 bc da 4c 3e 0d 36 a4 3d 11 cb 0b 3d b4 7c 32 3e
       0.20005316 0.08018122 0.034129206 0.17430383
000010 cc 17 49 3e ef 03 a5 3d 8c 75 0d 3d aa 29 33 3e
       0.19637984 0.08057391 0.03453593 0.17496362
000020 94 b8 51 3e b7 96 a4 3d a4 12 0b 3d 84 84 31 3e
       0.20480567 0.08036559 0.033953324 0.17335707
000030 ef 7c 46 3e 0e 63 a1 3d 2b 67 0e 3d 7a 13 34 3e
       0.19383596 0.07880221 0.034766357 0.17585555
000040 58 d4 53 3e d7 18 a3 3d 06 cb 0b 3d 6f e8 30 3e
       0.20686471 0.07963722 0.034129165 0.17276166
000050 e5 2b 46 3e fb 55 a1 3d 09 93 0f 3d f2 e4 34 3e
       0.19352682 0.078777276 0.035052333 0.1766546
000060 26 d8 52 3e f3 34 a1 3d de a0 0c 3d c7 ee 30 3e
       0.20590267 0.078714274 0.034333102 0.17278586
000070 0f 46 46 3e 78 75 9c 3d a7 75 0d 3d f6 13 35 3e
       0.19362663 0.07639593 0.03453603 0.17683396
000080 79 2e 50 3e 84 f2 98 3d 83 75 0d 3d 28 d2 30 3e
       0.20330228 0.07468131 0.034535896 0.17267668
000090 7d 27 47 3e 44 ed 96 3d 36 fc 0c 3d b4 e2 34 3e
       0.19448657 0.073694736 0.034420215 0.17664605
0000a0 18 d8 4a 3e 50 60 90 3d 4f 57 0d 3d 0c 83 30 3e
       0.19808996 0.0704962 0.034507092 0.1723749
0000b0 a2 32 47 3e 03 08 90 3d a8 45 10 3d 68 51 34 3e
       0.19452909 0.07032778 0.03522268 0.17609179
0000c0 50 33 46 3e 1e 3b 8a 3d 3f 41 09 3d 0f 19 30 3e
       0.19355512 0.06749557 0.03350949 0.17197059
0000d0 bd 7b 46 3e bc 0d 89 3d 03 75 0f 3d 49 1a 33 3e
       0.1938314 0.06692073 0.0350237 0.17490496
0000e0 a0 08 43 3e c1 fb 83 3d 2a 78 0a 3d e0 06 2f 3e
       0.19046259 0.064445026 0.033806004 0.17092466
0000f0 1b 1e 46 3e cb 96 82 3d 3f 85 0e 3d cb a0 31 3e
       0.19347422 0.06376418 0.034795042 0.17346494
000100 91 5b 40 3e 53 92 78 3d 69 82 0c 3d b8 65 2e 3e
       0.1878493 0.06068642 0.034304056 0.1703099
000110 7f d5 44 3e 68 14 76 3d 6a 63 10 3d a9 d5 2f 3e
       0.19222067 0.060078055 0.03525106 0.17171349
000120 aa a8 3f 3e 4d 53 70 3d 39 d0 0d 3d 3f 4d 2d 3e
       0.18716684 0.05867319 0.034622405 0.16923998
000130 f3 62 43 3e ba ea 66 3d 46 a3 0e 3d f7 b7 2d 3e
       0.19080715 0.056376196 0.03482368 0.16964708
000140 58 e5 3e 3e 58 a2 6b 3d cc 93 0d 3d e5 d6 2b 3e
       0.18642175 0.05752787 0.03456478 0.16781195
000150 02 68 42 3e c5 01 5e 3d 83 ec 0f 3d 2d dd 2b 3e
       0.18984988 0.054200906 0.035137665 0.1678359
000160 1c 10 3e 3e 24 d0 64 3d d0 dd 0c 3d 0a b0 2a 3e
       0.18560833 0.05586256 0.034391224 0.16668716
000170 c0 00 41 3e 3f 35 5b 3d 10 28 10 3d cd 09 2a 3e
       0.18847942 0.053517576 0.035194457 0.16605301
000180 9e 98 3d 3e 16 28 5e 3d 1e b2 0d 3d 5e 12 29 3e
       0.1851525 0.054237448 0.034593694 0.16510913

onnx::Div_74 f4 [52]
000000 64 39 fb 3e 4f 71 40 3d 1b 03 83 3e 3c 27 8c 3e
       0.49067223 0.04698306 0.25588307 0.27373683
000010 9e 3f fb 3e c7 42 3e 3d 15 65 83 3e 2f 4d 8c 3e
       0.49071974 0.046450403 0.25663057 0.27402636
000020 b9 3f fb 3e f6 c9 40 3d 47 b7 82 3e f6 0a 8c 3e
       0.49072054 0.047067605 0.25530455 0.27352113
000030 66 4e fb 3e a5 6f 3e 3d 33 de 83 3e ed 7c 8c 3e
       0.4908325 0.04649319 0.25755462 0.2743906
000040 46 68 fb 3e 7f f8 43 3d db 2f 82 3e fc e7 8b 3e
       0.49102992 0.047844406 0.25427136 0.27325428
000050 fc 7b fb 3e f2 06 3d 3d 92 33 84 3e f8 c1 8c 3e
       0.4911803 0.0461492 0.25820595 0.27491736
000060 5f 95 fb 3e 78 e9 41 3d 31 0d 82 3e bc d2 8b 3e
       0.491374 0.047341794 0.2540069 0.27309215
000070 39 b1 fb 3e 23 8c 39 3d 2e 95 84 3e 6f eb 8c 3e
       0.49158648 0.04529966 0.25895065 0.27523372
000080 95 e1 fb 3e 1b e9 41 3d 41 e8 81 3e f3 c7 8b 3e
       0.49195543 0.047341447 0.25372508 0.27300987
000090 91 f8 fb 3e 26 2c 35 3d 1b c9 84 3e 1d 1d 8d 3e
       0.4921308 0.044231556 0.2593468 0.27561274
0000a0 b0 37 fc 3e da 90 41 3d 55 d7 81 3e e5 c9 8b 3e
       0.49261236 0.04725728 0.25359598 0.2730247
0000b0 78 53 fc 3e 18 7a 32 3d 03 f6 84 3e 74 4d 8d 3e
       0.49282432 0.04357347 0.25968942 0.27598155
0000c0 47 90 fc 3e 85 57 42 3d 7f f6 81 3e 06 d4 8b 3e
       0.49328825 0.047446746 0.25383374 0.273102

onnx::Div_77 f4 [8]
000000 61 d4 82 41 7f 15 b8 3f a4 91 d0 40 b8 39 91 3f
       16.3537 1.438156 6.5177784 1.1345739
000010 14 f8 ec 3e 25 4e bc 3e 3b 4e 04 3e 16 67 0c 3e
       0.4628302 0.3677837 0.12920468 0.13711199
