Assets/results/5/CoinChaser/CoinChaser-7947.pt (torch, 886900 bytes, 36 tensors)

network_body.observation_encoder.processors.0.normalizer.running_mean f4 [100]
0	0x3f7797e7	0.9671616
1	0x3b904c46	0.0044036238
2	0x3903edf7	0.00012581782
3	0x3e4fa462	0.20277551
4	0x3f782c53	0.96942633
5	0x3b775e2e	0.0037745344
6	0x3903edf7	0.00012581782
7	0x3e4e0847	0.20120345
8	0x3f77b0a5	0.96753913
9	0x3ba908e4	0.0051585305
10	0x3983edf7	0.00025163565
11	0x3e50fa65	0.20408018
12	0x3f7734f3	0.9656517
13	0x3bb147c4	0.0054101665
14	0x3903edf7	0.00012581782
15	0x3e4cb56b	0.1999108
16	0x3f77a026	0.9672874
17	0x3bdea18f	0.0067941616
18	0x39c5e4f1	0.00037745343
19	0x3e53dd3a	0.2068986
20	0x3f785dca	0.9701811
21	0x3b2d2855	0.0026421745
22	0x00000000	0.0
23	0x3e4b24e4	0.19838291
24	0x3f78a802	0.9713136
25	0x3bd24340	0.006416708
26	0x39c5e4f1	0.00037745343
27	0x3e57f123	0.2108808
28	0x3f783cd1	0.969678
29	0x3b946bb4	0.004529441
30	0x00000000	0.0
31	0x3e4828ce	0.19546816
32	0x3f78e1b8	0.9721942
33	0x3b9caa94	0.0047810767
34	0x39c5e4f1	0.00037745343
35	0x3e5a38fc	0.213108
36	0x3f78f234	0.9724457
37	0x3b7f9d10	0.0039003529
38	0x00000000	0.0
39	0x3e45c920	0.19315004
40	0x3f79342e	0.97345245
41	0x3b904c46	0.0044036238
42	0x39c5e4f1	0.00037745343
43	0x3e5cbe8d	0.21557064
44	0x3f79a7a1	0.97521406
45	0x3b24e973	0.002516356
46	0x00000000	0.0
47	0x3e443c1b	0.19163553
48	0x3f788f43	0.970936
49	0x3b880d65	0.0041519874
50	0x39c5e4f1	0.00037745343
51	0x3e5f3c49	0.2180034
52	0x3f79c899	0.9757171
53	0x3b5662b3	0.0032712638
54	0x00000000	0.0
55	0x3e4383b2	0.19093207
56	0x3f794ce9	0.9738298
57	0x3b5ea190	0.003397081
58	0x39c5e4f1	0.00037745343
59	0x3e5fd4bf	0.218585
60	0x3f79342e	0.97345245
61	0x3b83edf9	0.0040261713
62	0x00000000	0.0
63	0x3e429caa	0.19005075
64	0x3f784d4c	0.96992946
65	0x3bad2853	0.005284348
66	0x39c5e4f1	0.00037745343
67	0x3e5cb73e	0.21554276
68	0x3f79d0d7	0.9758429
69	0x3aa4e972	0.0012581779
70	0x00000000	0.0
71	0x3e4117b1	0.18856694
72	0x3f77f29a	0.96854556
73	0x3bb147c4	0.0054101665
74	0x39c5e4f1	0.00037745343
75	0x3e5bfbe0	0.21482801
76	0x3f7986a1	0.9747105
77	0x3b1caa93	0.002390538
78	0x00000000	0.0
79	0x3e4005bc	0.18752187
80	0x3f76eabf	0.96451944
81	0x3bc1c582	0.0059134373
82	0x39c5e4f1	0.00037745343
83	0x3e597991	0.2123778
84	0x3f797624	0.97445893
85	0x3b5662b1	0.0032712633
86	0x3983edf7	0.00025163565
87	0x3e3fe477	0.18739496
88	0x3f76a8ca	0.963513
89	0x3ba908e5	0.005158531
90	0x39c5e4f1	0.00037745343
91	0x3e58f5f5	0.21187575
92	0x3f79d917	0.9759688
93	0x3b3da611	0.0028938095
94	0x3983edf7	0.00025163565
95	0x3e40042b	0.1875159
96	0x3f764e16	0.962129
97	0x3b83edf9	0.0040261713
98	0x39c5e4f1	0.00037745343
99	0x3e579c39	0.21055688

network_body.observation_encoder.processors.0.normalizer.running_variance f4 [100]
0	0x437d6de0	253.4292
1	0x420f6229	35.84586
2	0x3ffffbe1	1.9998742
3	0x43511c52	209.11063
4	0x436c9213	236.5706
5	0x41f71815	30.886759
6	0x3ffffbe1	1.9998742
7	0x434a4acb	202.29216
8	0x437aa006	250.62509
9	0x4227276e	41.788506
10	0x403ff7c2	2.999497
11	0x43513725	209.21541
12	0x43844fbd	264.62296
13	0x422f11c6	43.767357
14	0x3ffffbe1	1.9998742
15	0x43484cfe	200.30075
16	0x437c7ea6	252.49472
17	0x425a8854	54.633133
18	0x407fed73	3.9988678
19	0x435568e6	213.40976
20	0x4366eed3	230.9329
21	0x41af8e5b	21.94451
22	0x3f800000	1.0
23	0x433fcfba	191.81143
24	0x435e75a3	222.45952
25	0x424eb0e5	51.67275
26	0x407fed73	3.9988678
27	0x435df67d	221.96284
28	0x436ab13f	234.69237
29	0x42135907	36.83694
30	0x3f800000	1.0
31	0x4339ba22	185.72708
32	0x4357dadc	215.85492
33	0x421b45f7	38.818325
34	0x407fed73	3.9988678
35	0x4362b8ee	226.72238
36	0x4355f732	213.9656
37	0x41ff085d	31.879084
38	0x3f800000	1.0
39	0x4333a08a	179.6271
40	0x434e6604	206.3985
41	0x420f6229	35.84586
42	0x407fed73	3.9988678
43	0x4365cbeb	229.79655
44	0x43411dff	193.11717
45	0x41a798ed	20.94967
46	0x3f800000	1.0
47	0x4332a77d	178.65425
48	0x4361494a	225.28629
49	0x420773b1	33.86298
50	0x407fed73	3.9988678
51	0x436de2cc	237.88593
52	0x433d503a	189.31339
53	0x41d751d2	26.914951
54	0x3f800000	1.0
55	0x433368fc	179.4101
56	0x434b8e7c	203.55658
57	0x41df4428	27.90828
58	0x407fed73	3.9988678
59	0x436eaf5d	238.68501
60	0x434e6601	206.39845
61	0x42037c12	32.871162
62	0x3f800000	1.0
63	0x43317088	177.43958
64	0x4368d02d	232.81319
65	0x422b1cbc	42.77806
66	0x407fed73	3.9988678
67	0x4366beab	230.7448
68	0x433c5ca2	188.36185
69	0x412fcc77	10.987418
70	0x3f800000	1.0
71	0x432dc76d	173.779
72	0x437322ec	243.13641
73	0x422f11c5	43.767353
74	0x407fed73	3.9988678
75	0x4367b72a	231.71548
76	0x4344eab8	196.91687
77	0x419fa2fb	19.95458
78	0x3f800000	1.0
79	0x432c1450	172.07935
80	0x43887f4a	272.99445
81	0x423ee367	47.722073
82	0x407fed73	3.9988678
83	0x4364d3c6	228.82724
84	0x4346d0b0	198.81519
85	0x41d751d1	26.91495
86	0x403ff7c2	2.999497
87	0x432f00c2	175.00296
88	0x438c3599	280.41873
89	0x4227276d	41.7885
90	0x407fed73	3.9988678
91	0x43645fb7	228.37389
92	0x433b68fa	187.41006
93	0x41bf77ae	23.933437
94	0x403ff7c2	2.999497
95	0x432e5f6f	174.37279
96	0x43914ce5	290.60074
97	0x42037c13	32.871166
98	0x407fed73	3.9988678
99	0x43646b0d	228.41817

network_body.observation_encoder.processors.1.normalizer.running_mean f4 [52]
0	0x3f03c4be	0.5147208
1	0x3ac5e4f0	0.0015098136
2	0x3d3147c4	0.04328133
3	0x3ea1bc5f	0.31589028
4	0x3f03dd78	0.5150981
5	0x3ac5e4f2	0.0015098138
6	0x3d366f0e	0.044539504
7	0x3ea26fb5	0.3172585
8	0x3f0406b3	0.5157272
9	0x3ab56731	0.0013839958
10	0x3d36f2fd	0.044665325
11	0x3ea1fbc6	0.316374
12	0x3f04ab9c	0.51824355
13	0x3ac5e4f0	0.0015098136
14	0x3d3902b4	0.045168594
15	0x3ea31702	0.3185349
16	0x3f03bc7c	0.5145948
17	0x3ab56733	0.001383996
18	0x3d3776eb	0.044791143
19	0x3ea245f9	0.3169401
20	0x3f05927b	0.52176636
21	0x3ab56731	0.0013839958
22	0x3d35eb21	0.04441369
23	0x3ea3182f	0.31854388
24	0x3f036a0a	0.5133368
25	0x3ad662b1	0.0016356317
26	0x3d3e29ff	0.04642677
27	0x3ea31927	0.31855127
28	0x3f06cbd5	0.52654773
29	0x3aa4e971	0.0012581778
30	0x3d34e347	0.04416206
31	0x3ea3ab4e	0.31966633
32	0x3f03490c	0.51283336
33	0x3b03edf7	0.0020130852
34	0x3d43d539	0.047810767
35	0x3ea3efa9	0.32018784
36	0x3f081de3	0.53170604
37	0x3ab5672f	0.0013839955
38	0x3d30c3d2	0.0431555
39	0x3ea408fd	0.32038108
40	0x3f028b69	0.50993973
41	0x3b03edf7	0.0020130852
42	0x3d4a0463	0.04932059
43	0x3ea54fd4	0.32287467
44	0x3f0967b7	0.5367388
45	0x3a946bb6	0.0011323604
46	0x3d31cbb3	0.043407153
47	0x3ea53d82	0.3227349
48	0x3f02c520	0.5108204
49	0x3b0c2cd6	0.002138903
50	0x3d4c9808	0.049949676
51	0x3ea6fa02	0.32612616

network_body.observation_encoder.processors.1.normalizer.running_variance f4 [52]
0	0x44f848e4	1986.2778
1	0x414fb5cc	12.981884
2	0x43a50e3d	330.11124
3	0x43e9abf0	467.34326
4	0x44f84605	1986.1881
5	0x414fb5ca	12.981882
6	0x43a99dd3	339.233
7	0x43eca89f	473.31735
8	0x44f84118	1986.0342
9	0x413fc1a4	11.984776
10	0x43aa1268	340.1438
11	0x43ebc9e7	471.57736
12	0x44f82b58	1985.3545
13	0x414fb5cc	12.981884
14	0x43abe46a	343.7845
15	0x43ee7f4d	476.99454
16	0x44f849cf	1986.3065
17	0x413fc1a3	11.984775
18	0x43aa86f5	341.05435
19	0x43ed0e10	474.10986
20	0x44f8077e	1984.2341
21	0x413fc1a6	11.984777
22	0x43a92937	338.322
23	0x43ed8e56	475.112
24	0x44f852c4	1986.5864
25	0x415fa8e6	13.978735
26	0x43b06f29	352.86844
27	0x43ef61b0	478.76318
28	0x44f7ccc4	1982.3989
29	0x412fcc7b	10.987422
30	0x43a83fe6	336.4992
31	0x43ede2ea	475.77277
32	0x44f8561c	1986.6909
33	0x4187be08	16.967789
34	0x43b56a7b	362.83188
35	0x43f0ac9d	481.34854
36	0x44f78053	1980.0101
37	0x413fc1a6	11.984777
38	0x43a4994d	329.19766
39	0x43ee15f7	476.1716
40	0x44f866df	1987.2147
41	0x4187be09	16.96779
42	0x43bad548	373.66626
43	0x43f213b2	484.15387
44	0x44f728b4	1977.272
45	0x411fd644	9.989811
46	0x43a58324	331.02454
47	0x43efc690	479.55127
48	0x44f86239	1987.0695
49	0x418fb588	17.963638
50	0x43bd15c6	378.1701
51	0x43f535c6	490.4201

network_body.observation_encoder.processors.2.normalizer.running_mean f4 [9]
0	0x3fd6aca9	1.6771442
1	0x4017bbc2	2.3708348
2	0xbfc31647	-1.5241174
3	0x3f52d400	0.82354736
4	0x3ee60a0c	0.4492954
5	0x3f5d2e82	0.8639909
6	0xbef24767	-0.473201
7	0x3cdcc6ee	0.026950326
8	0x3f045d06	0.5170444

network_body.observation_encoder.processors.2.normalizer.running_variance f4 [9]
0	0x499f7269	1.3061891e+06
1	0x467689c0	15778.4375
2	0x480fbb3f	147180.98
3	0x4613c8e4	9458.223
4	0x44f5f220	1967.5664
5	0x4469be55	934.97394
6	0x46c3f36a	25081.707
7	0x4283d10b	65.90829
8	0x46d4313b	27160.615

network_body.processors.0.normalizer.running_mean f4 [100]
0	0x3f7797e7	0.9671616
1	0x3b904c46	0.0044036238
2	0x3903edf7	0.00012581782
3	0x3e4fa462	0.20277551
4	0x3f782c53	0.96942633
5	0x3b775e2e	0.0037745344
6	0x3903edf7	0.00012581782
7	0x3e4e0847	0.20120345
8	0x3f77b0a5	0.96753913
9	0x3ba908e4	0.0051585305
10	0x3983edf7	0.00025163565
11	0x3e50fa65	0.20408018
12	0x3f7734f3	0.9656517
13	0x3bb147c4	0.0054101665
14	0x3903edf7	0.00012581782
15	0x3e4cb56b	0.1999108
16	0x3f77a026	0.9672874
17	0x3bdea18f	0.0067941616
18	0x39c5e4f1	0.00037745343
19	0x3e53dd3a	0.2068986
20	0x3f785dca	0.9701811
21	0x3b2d2855	0.0026421745
22	0x00000000	0.0
23	0x3e4b24e4	0.19838291
24	0x3f78a802	0.9713136
25	0x3bd24340	0.006416708
26	0x39c5e4f1	0.00037745343
27	0x3e57f123	0.2108808
28	0x3f783cd1	0.969678
29	0x3b946bb4	0.004529441
30	0x00000000	0.0
31	0x3e4828ce	0.19546816
32	0x3f78e1b8	0.9721942
33	0x3b9caa94	0.0047810767
34	0x39c5e4f1	0.00037745343
35	0x3e5a38fc	0.213108
36	0x3f78f234	0.9724457
37	0x3b7f9d10	0.0039003529
38	0x00000000	0.0
39	0x3e45c920	0.19315004
40	0x3f79342e	0.97345245
41	0x3b904c46	0.0044036238
42	0x39c5e4f1	0.00037745343
43	0x3e5cbe8d	0.21557064
44	0x3f79a7a1	0.97521406
45	0x3b24e973	0.002516356
46	0x00000000	0.0
47	0x3e443c1b	0.19163553
48	0x3f788f43	0.970936
49	0x3b880d65	0.0041519874
50	0x39c5e4f1	0.00037745343
51	0x3e5f3c49	0.2180034
52	0x3f79c899	0.9757171
53	0x3b5662b3	0.0032712638
54	0x00000000	0.0
55	0x3e4383b2	0.19093207
56	0x3f794ce9	0.9738298
57	0x3b5ea190	0.003397081
58	0x39c5e4f1	0.00037745343
59	0x3e5fd4bf	0.218585
60	0x3f79342e	0.97345245
61	0x3b83edf9	0.0040261713
62	0x00000000	0.0
63	0x3e429caa	0.19005075
64	0x3f784d4c	0.96992946
65	0x3bad2853	0.005284348
66	0x39c5e4f1	0.00037745343
67	0x3e5cb73e	0.21554276
68	0x3f79d0d7	0.9758429
69	0x3aa4e972	0.0012581779
70	0x00000000	0.0
71	0x3e4117b1	0.18856694
72	0x3f77f29a	0.96854556
73	0x3bb147c4	0.0054101665
74	0x39c5e4f1	0.00037745343
75	0x3e5bfbe0	0.21482801
76	0x3f7986a1	0.9747105
77	0x3b1caa93	0.002390538
78	0x00000000	0.0
79	0x3e4005bc	0.18752187
80	0x3f76eabf	0.96451944
81	0x3bc1c582	0.0059134373
82	0x39c5e4f1	0.00037745343
83	0x3e597991	0.2123778
84	0x3f797624	0.97445893
85	0x3b5662b1	0.0032712633
86	0x3983edf7	0.00025163565
87	0x3e3fe477	0.18739496
88	0x3f76a8ca	0.963513
89	0x3ba908e5	0.005158531
90	0x39c5e4f1	0.00037745343
91	0x3e58f5f5	0.21187575
92	0x3f79d917	0.9759688
93	0x3b3da611	0.0028938095
94	0x3983edf7	0.00025163565
95	0x3e40042b	0.1875159
96	0x3f764e16	0.962129
97	0x3b83edf9	0.0040261713
98	0x39c5e4f1	0.00037745343
99	0x3e579c39	0.21055688

network_body.processors.0.normalizer.running_variance f4 [100]
0	0x437d6de0	253.4292
1	0x420f6229	35.84586
2	0x3ffffbe1	1.9998742
3	0x43511c52	209.11063
4	0x436c9213	236.5706
5	0x41f71815	30.886759
6	0x3ffffbe1	1.9998742
7	0x434a4acb	202.29216
8	0x437aa006	250.62509
9	0x4227276e	41.788506
10	0x403ff7c2	2.999497
11	0x43513725	209.21541
12	0x43844fbd	264.62296
13	0x422f11c6	43.767357
14	0x3ffffbe1	1.9998742
15	0x43484cfe	200.30075
16	0x437c7ea6	252.49472
17	0x425a8854	54.633133
18	0x407fed73	3.9988678
19	0x435568e6	213.40976
20	0x4366eed3	230.9329
21	0x41af8e5b	21.94451
22	0x3f800000	1.0
23	0x433fcfba	191.81143
24	0x435e75a3	222.45952
25	0x424eb0e5	51.67275
26	0x407fed73	3.9988678
27	0x435df67d	221.96284
28	0x436ab13f	234.69237
29	0x42135907	36.83694
30	0x3f800000	1.0
31	0x4339ba22	185.72708
32	0x4357dadc	215.85492
33	0x421b45f7	38.818325
34	0x407fed73	3.9988678
35	0x4362b8ee	226.72238
36	0x4355f732	213.9656
37	0x41ff085d	31.879084
38	0x3f800000	1.0
39	0x4333a08a	179.6271
40	0x434e6604	206.3985
41	0x420f6229	35.84586
42	0x407fed73	3.9988678
43	0x4365cbeb	229.79655
44	0x43411dff	193.11717
45	0x41a798ed	20.94967
46	0x3f800000	1.0
47	0x4332a77d	178.65425
48	0x4361494a	225.28629
49	0x420773b1	33.86298
50	0x407fed73	3.9988678
51	0x436de2cc	237.88593
52	0x433d503a	189.31339
53	0x41d751d2	26.914951
54	0x3f800000	1.0
55	0x433368fc	179.4101
56	0x434b8e7c	203.55658
57	0x41df4428	27.90828
58	0x407fed73	3.9988678
59	0x436eaf5d	238.68501
60	0x434e6601	206.39845
61	0x42037c12	32.871162
62	0x3f800000	1.0
63	0x43317088	177.43958
64	0x4368d02d	232.81319
65	0x422b1cbc	42.77806
66	0x407fed73	3.9988678
67	0x4366beab	230.7448
68	0x433c5ca2	188.36185
69	0x412fcc77	10.987418
70	0x3f800000	1.0
71	0x432dc76d	173.779
72	0x437322ec	243.13641
73	0x422f11c5	43.767353
74	0x407fed73	3.9988678
75	0x4367b72a	231.71548
76	0x4344eab8	196.91687
77	0x419fa2fb	19.95458
78	0x3f800000	1.0
79	0x432c1450	172.07935
80	0x43887f4a	272.99445
81	0x423ee367	47.722073
82	0x407fed73	3.9988678
83	0x4364d3c6	228.82724
84	0x4346d0b0	198.81519
85	0x41d751d1	26.91495
86	0x403ff7c2	2.999497
87	0x432f00c2	175.00296
88	0x438c3599	280.41873
89	0x4227276d	41.7885
90	0x407fed73	3.9988678
91	0x43645fb7	228.37389
92	0x433b68fa	187.41006
93	0x41bf77ae	23.933437
94	0x403ff7c2	2.999497
95	0x432e5f6f	174.37279
96	0x43914ce5	290.60074
97	0x42037c13	32.871166
98	0x407fed73	3.9988678
99	0x43646b0d	228.41817

network_body.processors.1.normalizer.running_mean f4 [52]
0	0x3f03c4be	0.5147208
1	0x3ac5e4f0	0.0015098136
2	0x3d3147c4	0.04328133
3	0x3ea1bc5f	0.31589028
4	0x3f03dd78	0.5150981
5	0x3ac5e4f2	0.0015098138
6	0x3d366f0e	0.044539504
7	0x3ea26fb5	0.3172585
8	0x3f0406b3	0.5157272
9	0x3ab56731	0.0013839958
10	0x3d36f2fd	0.044665325
11	0x3ea1fbc6	0.316374
12	0x3f04ab9c	0.51824355
13	0x3ac5e4f0	0.0015098136
14	0x3d3902b4	0.045168594
15	0x3ea31702	0.3185349
16	0x3f03bc7c	0.5145948
17	0x3ab56733	0.001383996
18	0x3d3776eb	0.044791143
19	0x3ea245f9	0.3169401
20	0x3f05927b	0.52176636
21	0x3ab56731	0.0013839958
22	0x3d35eb21	0.04441369
23	0x3ea3182f	0.31854388
24	0x3f036a0a	0.5133368
25	0x3ad662b1	0.0016356317
26	0x3d3e29ff	0.04642677
27	0x3ea31927	0.31855127
28	0x3f06cbd5	0.52654773
29	0x3aa4e971	0.0012581778
30	0x3d34e347	0.04416206
31	0x3ea3ab4e	0.31966633
32	0x3f03490c	0.51283336
33	0x3b03edf7	0.0020130852
34	0x3d43d539	0.047810767
35	0x3ea3efa9	0.32018784
36	0x3f081de3	0.53170604
37	0x3ab5672f	0.0013839955
38	0x3d30c3d2	0.0431555
39	0x3ea408fd	0.32038108
40	0x3f028b69	0.50993973
41	0x3b03edf7	0.0020130852
42	0x3d4a0463	0.04932059
43	0x3ea54fd4	0.32287467
44	0x3f0967b7	0.5367388
45	0x3a946bb6	0.0011323604
46	0x3d31cbb3	0.043407153
47	0x3ea53d82	0.3227349
48	0x3f02c520	0.5108204
49	0x3b0c2cd6	0.002138903
50	0x3d4c9808	0.049949676
51	0x3ea6fa02	0.32612616

network_body.processors.1.normalizer.running_variance f4 [52]
0	0x44f848e4	1986.2778
1	0x414fb5cc	12.981884
2	0x43a50e3d	330.11124
3	0x43e9abf0	467.34326
4	0x44f84605	1986.1881
5	0x414fb5ca	12.981882
6	0x43a99dd3	339.233
7	0x43eca89f	473.31735
8	0x44f84118	1986.0342
9	0x413fc1a4	11.984776
10	0x43aa1268	340.1438
11	0x43ebc9e7	471.57736
12	0x44f82b58	1985.3545
13	0x414fb5cc	12.981884
14	0x43abe46a	343.7845
15	0x43ee7f4d	476.99454
16	0x44f849cf	1986.3065
17	0x413fc1a3	11.984775
18	0x43aa86f5	341.05435
19	0x43ed0e10	474.10986
20	0x44f8077e	1984.2341
21	0x413fc1a6	11.984777
22	0x43a92937	338.322
23	0x43ed8e56	475.112
24	0x44f852c4	1986.5864
25	0x415fa8e6	13.978735
26	0x43b06f29	352.86844
27	0x43ef61b0	478.76318
28	0x44f7ccc4	1982.3989
29	0x412fcc7b	10.987422
30	0x43a83fe6	336.4992
31	0x43ede2ea	475.77277
32	0x44f8561c	1986.6909
33	0x4187be08	16.967789
34	0x43b56a7b	362.83188
35	0x43f0ac9d	481.34854
36	0x44f78053	1980.0101
37	0x413fc1a6	11.984777
38	0x43a4994d	329.19766
39	0x43ee15f7	476.1716
40	0x44f866df	1987.2147
41	0x4187be09	16.96779
42	0x43bad548	373.66626
43	0x43f213b2	484.15387
44	0x44f728b4	1977.272
45	0x411fd644	9.989811
46	0x43a58324	331.02454
47	0x43efc690	479.55127
48	0x44f86239	1987.0695
49	0x418fb588	17.963638
50	0x43bd15c6	378.1701
51	0x43f535c6	490.4201

network_body.processors.2.normalizer.running_mean f4 [9]
0	0x3fd6aca9	1.6771442
1	0x4017bbc2	2.3708348
2	0xbfc31647	-1.5241174
3	0x3f52d400	0.82354736
4	0x3ee60a0c	0.4492954
5	0x3f5d2e82	0.8639909
6	0xbef24767	-0.473201
7	0x3cdcc6ee	0.026950326
8	0x3f045d06	0.5170444

network_body.processors.2.normalizer.running_variance f4 [9]
0	0x499f7269	1.3061891e+06
1	0x467689c0	15778.4375
2	0x480fbb3f	147180.98
3	0x4613c8e4	9458.223
4	0x44f5f220	1967.5664
5	0x4469be55	934.97394
6	0x46c3f36a	25081.707
7	0x4283d10b	65.90829
8	0x46d4313b	27160.615

network_body._body_endoder.seq_layers.0.weight f4 [256, 161]
0	0x3cb1600c	0.021652244
1	0x3d374d44	0.04475142
2	0xbd8387e7	-0.06422406
3	0xbdb79e18	-0.08965701
4	0x3d57bb88	0.052669078
5	0xbb1c8cac	-0.0023887558
6	0x3cae97b6	0.021312576
7	0xbe1ad637	-0.15120779
8	0xbd88b758	-0.06675595
9	0xbc9dd747	-0.019267691
10	0x3e5c951e	0.21541259
11	0x3d6d189f	0.05788481
12	0xbda5f2bd	-0.08102939
13	0xbda0384b	-0.07823237
14	0x3d03e805	0.032203693
15	0xbe0979bf	-0.13425349
16	0xbd2253cd	-0.0396307
17	0xbdb92bf6	-0.09041588
18	0xbd93f5d7	-0.072246246
19	0x3d81daaf	0.06340539
20	0xbd2c3ab4	-0.04204817
21	0xbd9e8495	-0.07740132
22	0x3c2df54c	0.010617565
23	0xbc723f18	-0.014785551
24	0xbc3939e8	-0.01130531
25	0x3cf20022	0.029541079
26	0xbdb84e61	-0.089993246
27	0xbd3c3416	-0.04594811
28	0xbc8ddafd	-0.017316336
29	0x3b2581ea	0.0025254437
30	0xbc7de48c	-0.015496384
31	0xbd9c8741	-0.07642985
32	0x3c443dd0	0.011977628
33	0x3ddbc8c5	0.10731653
34	0xbdb772c8	-0.0895744
35	0x3cfa9003	0.030586248
36	0xbc174778	-0.009233348
37	0xbdbffb56	-0.093741104
38	0x3cd59f77	0.026077015
39	0xbd8198d1	-0.063279755
40	0x3d7a2357	0.06106886
41	0x3e07f008	0.13275158
42	0x3de30483	0.11084845
43	0xbc2ed39c	-0.010670569
44	0xbdda67cd	-0.1066433
45	0xbdbcb186	-0.092135474
46	0xbccaacf7	-0.02474068
47	0xbdb0f9f6	-0.08641426
48	0xbd07843b	-0.03308509
49	0xbd75a66c	-0.059973165
50	0x3dd7c3d9	0.10535402
51	0xbe1ef6a7	-0.15523778
52	0x3c097470	0.008389577
53	0x3d10857a	0.035283543
54	0xbd56be20	-0.05242741
55	0xbcefbf6e	-0.029266085
56	0x3c3106df	0.010804861
57	0x3c209063	0.0098000495
58	0x3dc23cee	0.09484278
59	0x3d82be11	0.063839085
60	0xbd8125e3	-0.063060544
61	0x3da0f49b	0.07859155
62	0x3de1b17d	0.11020181
63	0xbd836b83	-0.064169906
64	0xbccc5148	-0.024941102
65	0x3d6a6209	0.0572224
66	0x3c9cafd5	0.019126812
67	0xbe413cac	-0.188708
68	0x3cb1ff84	0.021728285
69	0x3d438890	0.047737658
70	0xbba7902d	-0.0051136226
71	0xbcd6a56f	-0.026201932
72	0x3d302c9e	0.0430113
73	0xbd76d0fc	-0.060257897
74	0x3d514b89	0.051097427
75	0xbb82acdb	-0.003987891
76	0x3dc24eb5	0.094876684
77	0x3d9fdc29	0.07805664
78	0xbd5ac3ed	-0.053409506
79	0x3c36c8c5	0.011156266
80	0xbc9c1414	-0.019052543
81	0xbd49701e	-0.04917919
82	0xbd96db97	-0.07366102
83	0x3db12fb6	0.08651678
84	0xbdd1eaed	-0.10249887
85	0x3d9ec39f	0.077521555
86	0xbda8fd42	-0.0825143
87	0x3e0c1c11	0.13682581
88	0xbcabe314	-0.020982303
89	0xbdfc6003	-0.12323
90	0xbd8497a4	-0.06474236
91	0xbc183957	-0.009291015
92	0xbd154394	-0.0364414
93	0x3c9f3394	0.019433774
94	0x3b83d9f6	0.0040237857
95	0x3c876c44	0.016531117
96	0x3cf74b91	0.0301874
97	0x3dbe00fc	0.092775315
98	0xbc71d2b4	-0.014759708
99	0xbd848344	-0.064703494
100	0xbdd77f34	-0.10522309
101	0x3e24e426	0.16102657
102	0xbd964648	-0.07337624
103	0xbd6df7ad	-0.05809753
104	0x3d552f30	0.052046955
105	0x3d851759	0.06498594
106	0x3de97c0b	0.114006124
107	0xbcf18bff	-0.0294857
108	0xbdbe0a11	-0.09279264
109	0x3d82864a	0.0637327
110	0xbe30efda	-0.17278996
111	0x3d59ccae	0.053173713
112	0xbd8d6445	-0.069038905
113	0xbda3bd6c	-0.07995114
114	0x3e09967f	0.13436316
115	0x3e140c22	0.14457753
116	0x3d26f284	0.040758625
117	0x3db02fba	0.08602853
118	0x3d5ceca5	0.05393662
119	0xbca13a11	-0.019681009
120	0x3d006e64	0.031355277
121	0xbe2dde8a	-0.16979423
122	0xbdf4160e	-0.11918269
123	0xbb93a53b	-0.004505781
124	0x3d4bfdd9	0.049802635
125	0x3d40a357	0.047030773
126	0x3cad26d6	0.021136682
127	0x3b0be630	0.002134692
128	0xbdd738ed	-0.105089046
129	0x3d1beb43	0.03806616
130	0xbc956233	-0.018235302
131	0x3bbbde3f	0.005733281
132	0x3cbd3a2a	0.023099024
133	0x3cf75f76	0.030196887
134	0x3dd6a7a4	0.10481194
135	0x3d997159	0.074923225
136	0x3b950b4d	0.0045484663
137	0xbde93a37	-0.11388057
138	0x3ca90e91	0.020636829
139	0xbc0e8f20	-0.008701116
140	0xbd8afc31	-0.06786383
141	0xbdb17dd9	-0.08666582
142	0x3b982dc4	0.0046441276
143	0x38cf579a	9.886846e-05
144	0xbdd07803	-0.101791404
145	0xbdced591	-0.10099328
146	0xbd4d3dec	-0.05010788
147	0x3c9432e9	0.018090682
148	0x3e1d4f24	0.15362221
149	0xbe1b0495	-0.15138467
150	0x3cca681c	0.024707846
151	0x3d34e37b	0.044162255
152	0xbbf55e33	-0.007488036
153	0x3c9f4058	0.019439861
154	0x3c130c18	0.008975051
155	0xbc726c6a	-0.014796356
156	0x3da7b4cf	0.081887834
157	0x3dbeb51e	0.09311889
158	0xbc1d23e8	-0.00959108
159	0xbdfd54e1	-0.12369705
160	0x3d7db3cc	0.061939046
161	0x3ce47956	0.027889889
162	0xbde59c0b	-0.112114035
163	0x3bcefc81	0.006316722
164	0xbb4f76ef	-0.0031656583
165	0xbd96e060	-0.07367015
166	0xbd677b6d	-0.056514192
167	0x3ddc570b	0.1075879
168	0xbd9e4ddf	-0.077296965
169	0xbd806c61	-0.06270672
170	0xbc83092c	-0.015995584
171	0xbd7a3c07	-0.061092403
172	0x3b46c95b	0.003033242
173	0xbd7eac57	-0.062176075
174	0xbc398c1f	-0.011324911
175	0x3d97e361	0.07416416
176	0x3cbc9741	0.023021342
177	0xbd8896bb	-0.066693746
178	0xbe14e083	-0.1453877
179	0x3d9d1507	0.07670026
180	0xbd76eb62	-0.060283072
181	0x3e044b64	0.12919384
182	0x3c4ee360	0.012627453
183	0x3d3f1a0e	0.046655707
184	0x3daf7267	0.085667424
185	0xbd06e27a	-0.03293083
186	0x3e08a236	0.13343129
187	0xbd98eeb8	-0.07467407
188	0xbd7aac87	-0.06119969
189	0xbd6265ee	-0.05527299
190	0xbb960b07	-0.0045789513
191	0xbdafd7aa	-0.085860565
192	0x3d216c85	0.039410133
193	0x3d9fb04a	0.07797296
194	0x3e12810d	0.14307041
195	0x3e101eb4	0.14074212
196	0x3d3f69fd	0.046731938
197	0xbc7c4cce	-0.015399171
198	0xbdd15f92	-0.10223307
199	0xbdc2fe07	-0.09521108
200	0x3e03f87e	0.12887761
201	0xbd94dcb3	-0.072686575
202	0xbdf47d4e	-0.119379625
203	0x3d3f3966	0.0466856
204	0x3e1910d0	0.1494782
205	0xbda532bc	-0.080663174
206	0x3da43528	0.08017951
207	0xbce38da3	-0.027777499
208	0xbdee08b4	-0.11622754
209	0xbd6e782d	-0.058220077
210	0xbd61454f	-0.05499774
211	0xbd885a6a	-0.0665787
212	0xbd1a79a8	-0.037713677
213	0xbd95794c	-0.07298526
214	0x3ca4239b	0.02003651
215	0xbde0e275	-0.10980693
216	0x3bb88ff5	0.0056323954
217	0xbd5c9c67	-0.053860094
218	0xbe05ff71	-0.13085724
219	0xbdb683ba	-0.089118436
220	0xbd47a103	-0.048737537
221	0x3dfc9d65	0.12334708
222	0x3ddd6cc1	0.10811759
223	0x3d9ac08c	0.07556257
224	0x3db62e79	0.08895583
225	0x3e1bae99	0.15203322
226	0x3d8f9471	0.07010735
227	0xbd505928	-0.050866276
228	0x3e2ee735	0.17080386
229	0x3d0f1f19	0.034941766
230	0xbd0f661d	-0.035009492
231	0xbdc26758	-0.094923675
232	0xbda762ff	-0.08173179
233	0x3d06d723	0.032920014
234	0x3c11afde	0.008892028
235	0x3a8ade5a	0.001059483
236	0x3d510f88	0.051040202
237	0xbd0199eb	-0.03164093
238	0x3dee0131	0.11621321
239	0xbd6f9e62	-0.058500655
240	0x3df1518a	0.117831305
241	0xbdb55dac	-0.08855757
242	0xbe778d0b	-0.24174897
243	0x3d1fe87d	0.039040077
244	0xbd43998c	-0.047753856
245	0xbc3f4684	-0.011674527
246	0xbd4d246f	-0.050083574
247	0x3bedeb18	0.0072606914
248	0x3d03986f	0.032127794
249	0x3d11e7a0	0.035621285
250	0xbdabcabc	-0.08388278
251	0x3c8f29c2	0.017475966
252	0x3e06067c	0.13088411
253	0x3d8f6140	0.07000971
254	0xbcb11bea	-0.021619756
255	0xbc438a66	-0.011934852

network_body._body_endoder.seq_layers.0.bias f4 [256]
0	0x00000000	0.0
1	0x00000000	0.0
2	0x00000000	0.0
3	0x00000000	0.0
4	0x00000000	0.0
5	0x00000000	0.0
6	0x00000000	0.0
7	0x00000000	0.0
8	0x00000000	0.0
9	0x00000000	0.0
10	0x00000000	0.0
11	0x00000000	0.0
12	0x00000000	0.0
13	0x00000000	0.0
14	0x00000000	0.0
15	0x00000000	0.0
16	0x00000000	0.0
17	0x00000000	0.0
18	0x00000000	0.0
19	0x00000000	0.0
20	0x00000000	0.0
21	0x00000000	0.0
22	0x00000000	0.0
23	0x00000000	0.0
24	0x00000000	0.0
25	0x00000000	0.0
26	0x00000000	0.0
27	0x00000000	0.0
28	0x00000000	0.0
29	0x00000000	0.0
30	0x00000000	0.0
31	0x00000000	0.0
32	0x00000000	0.0
33	0x00000000	0.0
34	0x00000000	0.0
35	0x00000000	0.0
36	0x00000000	0.0
37	0x00000000	0.0
38	0x00000000	0.0
39	0x00000000	0.0
40	0x00000000	0.0
41	0x00000000	0.0
42	0x00000000	0.0
43	0x00000000	0.0
44	0x00000000	0.0
45	0x00000000	0.0
46	0x00000000	0.0
47	0x00000000	0.0
48	0x00000000	0.0
49	0x00000000	0.0
50	0x00000000	0.0
51	0x00000000	0.0
52	0x00000000	0.0
53	0x00000000	0.0
54	0x00000000	0.0
55	0x00000000	0.0
56	0x00000000	0.0
57	0x00000000	0.0
58	0x00000000	0.0
59	0x00000000	0.0
60	0x00000000	0.0
61	0x00000000	0.0
62	0x00000000	0.0
63	0x00000000	0.0
64	0x00000000	0.0
65	0x00000000	0.0
66	0x00000000	0.0
67	0x00000000	0.0
68	0x00000000	0.0
69	0x00000000	0.0
70	0x00000000	0.0
71	0x00000000	0.0
72	0x00000000	0.0
73	0x00000000	0.0
74	0x00000000	0.0
75	0x00000000	0.0
76	0x00000000	0.0
77	0x00000000	0.0
78	0x00000000	0.0
79	0x00000000	0.0
80	0x00000000	0.0
81	0x00000000	0.0
82	0x00000000	0.0
83	0x00000000	0.0
84	0x00000000	0.0
85	0x00000000	0.0
86	0x00000000	0.0
87	0x00000000	0.0
88	0x00000000	0.0
89	0x00000000	0.0
90	0x00000000	0.0
91	0x00000000	0.0
92	0x00000000	0.0
93	0x00000000	0.0
94	0x00000000	0.0
95	0x00000000	0.0
96	0x00000000	0.0
97	0x00000000	0.0
98	0x00000000	0.0
99	0x00000000	0.0
100	0x00000000	0.0
101	0x00000000	0.0
102	0x00000000	0.0
103	0x00000000	0.0
104	0x00000000	0.0
105	0x00000000	0.0
106	0x00000000	0.0
107	0x00000000	0.0
108	0x00000000	0.0
109	0x00000000	0.0
110	0x00000000	0.0
111	0x00000000	0.0
112	0x00000000	0.0
113	0x00000000	0.0
114	0x00000000	0.0
115	0x00000000	0.0
116	0x00000000	0.0
117	0x00000000	0.0
118	0x00000000	0.0
119	0x00000000	0.0
120	0x00000000	0.0
121	0x00000000	0.0
122	0x00000000	0.0
123	0x00000000	0.0
124	0x00000000	0.0
125	0x00000000	0.0
126	0x00000000	0.0
127	0x00000000	0.0
128	0x00000000	0.0
129	0x00000000	0.0
130	0x00000000	0.0
131	0x00000000	0.0
132	0x00000000	0.0
133	0x00000000	0.0
134	0x00000000	0.0
135	0x00000000	0.0
136	0x00000000	0.0
137	0x00000000	0.0
138	0x00000000	0.0
139	0x00000000	0.0
140	0x00000000	0.0
141	0x00000000	0.0
142	0x00000000	0.0
143	0x00000000	0.0
144	0x00000000	0.0
145	0x00000000	0.0
146	0x00000000	0.0
147	0x00000000	0.0
148	0x00000000	0.0
149	0x00000000	0.0
150	0x00000000	0.0
151	0x00000000	0.0
152	0x00000000	0.0
153	0x00000000	0.0
154	0x00000000	0.0
155	0x00000000	0.0
156	0x00000000	0.0
157	0x00000000	0.0
158	0x00000000	0.0
159	0x00000000	0.0
160	0x00000000	0.0
161	0x00000000	0.0
162	0x00000000	0.0
163	0x00000000	0.0
164	0x00000000	0.0
165	0x00000000	0.0
166	0x00000000	0.0
167	0x00000000	0.0
168	0x00000000	0.0
169	0x00000000	0.0
170	0x00000000	0.0
171	0x00000000	0.0
172	0x00000000	0.0
173	0x00000000	0.0
174	0x00000000	0.0
175	0x00000000	0.0
176	0x00000000	0.0
177	0x00000000	0.0
178	0x00000000	0.0
179	0x00000000	0.0
180	0x00000000	0.0
181	0x00000000	0.0
182	0x00000000	0.0
183	0x00000000	0.0
184	0x00000000	0.0
185	0x00000000	0.0
186	0x00000000	0.0
187	0x00000000	0.0
188	0x00000000	0.0
189	0x00000000	0.0
190	0x00000000	0.0
191	0x00000000	0.0
192	0x00000000	0.0
193	0x00000000	0.0
194	0x00000000	0.0
195	0x00000000	0.0
196	0x00000000	0.0
197	0x00000000	0.0
198	0x00000000	0.0
199	0x00000000	0.0
200	0x00000000	0.0
201	0x00000000	0.0
202	0x00000000	0.0
203	0x00000000	0.0
204	0x00000000	0.0
205	0x00000000	0.0
206	0x00000000	0.0
207	0x00000000	0.0
208	0x00000000	0.0
209	0x00000000	0.0
210	0x00000000	0.0
211	0x00000000	0.0
212	0x00000000	0.0
213	0x00000000	0.0
214	0x00000000	0.0
215	0x00000000	0.0
216	0x00000000	0.0
217	0x00000000	0.0
218	0x00000000	0.0
219	0x00000000	0.0
220	0x00000000	0.0
221	0x00000000	0.0
222	0x00000000	0.0
223	0x00000000	0.0
224	0x00000000	0.0
225	0x00000000	0.0
226	0x00000000	0.0
227	0x00000000	0.0
228	0x00000000	0.0
229	0x00000000	0.0
230	0x00000000	0.0
231	0x00000000	0.0
232	0x00000000	0.0
233	0x00000000	0.0
234	0x00000000	0.0
235	0x00000000	0.0
236	0x00000000	0.0
237	0x00000000	0.0
238	0x00000000	0.0
239	0x00000000	0.0
240	0x00000000	0.0
241	0x00000000	0.0
242	0x00000000	0.0
243	0x00000000	0.0
244	0x00000000	0.0
245	0x00000000	0.0
246	0x00000000	0.0
247	0x00000000	0.0
248	0x00000000	0.0
249	0x00000000	0.0
250	0x00000000	0.0
251	0x00000000	0.0
252	0x00000000	0.0
253	0x00000000	0.0
254	0x00000000	0.0
255	0x00000000	0.0

network_body._body_endoder.seq_layers.2.weight f4 [256, 256]
0	0x3bc9d678	0.0061596
1	0x3d816b11	0.063192494
2	0xbd4cbaa4	-0.049982682
3	0x3c855804	0.01627732
4	0xbd0212f1	-0.031756345
5	0x3da3d91f	0.08000397
6	0x3d06123f	0.032732245
7	0xbd176c12	-0.0369683
8	0x375d6ba8	1.3197692e-05
9	0x3cc639af	0.024197428
10	0x3c707388	0.014675982
11	0xbc951d20	-0.018202364
12	0x3c44907a	0.0119973365
13	0xbd93bc2e	-0.07213627
14	0xbd021b21	-0.031764153
15	0xbd435cd0	-0.047695935
16	0xbc580286	-0.013184195
17	0xbd1ed885	-0.038780708
18	0x3ce84cc7	0.028356923
19	0x3c4169d4	0.011805017
20	0x3d677434	0.056507304
21	0xbdcbd74b	-0.09953173
22	0x3d817a35	0.06322137
23	0xbd50aa64	-0.050943747
24	0xbd2b2543	-0.041783582
25	0xbc87ac05	-0.016561517
26	0x3c9df872	0.019283507
27	0x3c8ed3e8	0.01743503
28	0x3c50406d	0.012710673
29	0xba97ed47	-0.00115911
30	0x3db24af1	0.087057
31	0xbdd97d9d	-0.10619662
32	0xbd7576c1	-0.059927706
33	0xbd6d8629	-0.057989273
34	0x3bca478c	0.00617308
35	0x3ce851e3	0.02835936
36	0xbcfbde6d	-0.03074571
37	0xbde94640	-0.11390352
38	0x3d7f1e88	0.062284976
39	0xbc7eff66	-0.015563821
40	0xbc98d64b	-0.01865687
41	0x3cd234b9	0.025659906
42	0x3d818f36	0.063261434
43	0x3e027fc1	0.12744047
44	0xbd8f6651	-0.07001937
45	0xbb1565df	-0.0022796316
46	0xbb34bf41	-0.0027579817
47	0xbdec8071	-0.11547936
48	0x3c672757	0.0141085
49	0x3d4f43ae	0.050601654
50	0xbc8dfba6	-0.01733191
51	0x3d613dbb	0.05499051
52	0x3d8b84ec	0.06812462
53	0xbd1c3974	-0.03814073
54	0x3d346b71	0.044047777
55	0xbcb54a4e	-0.022130158
56	0xbc627bba	-0.013823444
57	0xbd2909a9	-0.04126898
58	0x3d340209	0.043947253
59	0x3ccb4345	0.02481235
60	0x3c6282cc	0.01382513
61	0xbd332fab	-0.04374663
62	0xbdbe5daa	-0.09295209
63	0x3cb56df6	0.02214716
64	0xbd137a38	-0.03600523
65	0x3c005376	0.007832399
66	0xbd46e209	-0.048555408
67	0x3ce954d5	0.028482834
68	0xbd4a3eda	-0.049376346
69	0x3dce5121	0.10074068
70	0xbd8481ae	-0.06470047
71	0x3d3b3f80	0.045714855
72	0xbd9f33b9	-0.07773537
73	0x3d907ad6	0.07054679
74	0x3cd79388	0.026315466
75	0x3cbcbd49	0.023039477
76	0xbcaed98f	-0.021343974
77	0x3d335567	0.043782618
78	0x3dc8b7d2	0.09800686
79	0xbda9d2e7	-0.082921796
80	0xbce6eac1	-0.028188111
81	0xbdccb1bb	-0.09994837
82	0x3c7f5c64	0.0155859925
83	0x3d8f7763	0.07005193
84	0xbdd3e96f	-0.10347258
85	0x3d529940	0.05141568
86	0x3c30e80a	0.01079751
87	0xbdb4f2db	-0.088353835
88	0xbb4679eb	-0.003028507
89	0x3caf4ca3	0.021398848
90	0x3db9ac63	0.09066083
91	0x3dddfb12	0.108389035
92	0xbd41dc9b	-0.047329526
93	0xbcbeb76c	-0.023280822
94	0xbce50555	-0.027956644
95	0xbdfc232e	-0.123113975
96	0xbcd334be	-0.025781985
97	0x3d16a812	0.036781378
98	0xbd880ca7	-0.06643038
99	0x3e205959	0.15659083
100	0x3cfe0826	0.031009745
101	0xbc91ee68	-0.017813876
102	0x3d2b136a	0.04176656
103	0xbdfd5ac9	-0.123708315
104	0x3cabadd3	0.02095691
105	0x3da9cf62	0.08291508
106	0x3df73a40	0.12071657
107	0x3d85cdbc	0.06533381
108	0xbbe111d6	-0.0068685813
109	0xbbd5cf5d	-0.006524964
110	0x3d814ec6	0.06313853
111	0xbd851839	-0.06498761
112	0x3b6cf412	0.003615622
113	0xbd0448ed	-0.03229611
114	0xbcef3f44	-0.029204972
115	0xbb9188ff	-0.00444138
116	0xbe0446de	-0.12917659
117	0xbcbe0c9d	-0.023199374
118	0xbd3bbc4f	-0.045833882
119	0xbdde731d	-0.108618
120	0x3d8859e8	0.06657773
121	0x3d554b3e	0.05207371
122	0xbd070956	-0.032967888
123	0x3e13aeeb	0.14422195
124	0xbd61374d	-0.05498438
125	0xbc2e9f82	-0.010658147
126	0xbdf440e2	-0.11926438
127	0xbd456e61	-0.04820097
128	0x3d18e599	0.037328336
129	0x3c8877bc	0.016658656
130	0x3d8ffd14	0.07030693
131	0x3d232c59	0.039837215
132	0xbc18348f	-0.009289875
133	0xbbf5bce0	-0.0074993223
134	0xbce826fe	-0.028338905
135	0x3d3863ac	0.04501693
136	0xbce6d169	-0.028176026
137	0xbcc1566a	-0.023600776
138	0x3c7d55ab	0.015462319
139	0xbdf2035c	-0.11817047
140	0xbca75104	-0.020424373
141	0xbd03cf79	-0.032180283
142	0xbca54888	-0.020176187
143	0xbde02fd3	-0.10946622
144	0x3bbad94d	0.005702174
145	0x3e0df232	0.13861921
146	0xbdf71d5b	-0.12066146
147	0xbdedaa12	-0.11604704
148	0x3d992c7f	0.0747919
149	0x3d3b9187	0.045793083
150	0xbdf00b24	-0.11720875
151	0x3d367334	0.04454346
152	0x3d8f6a68	0.07002717
153	0xbdc10de1	-0.09426475
154	0xbb21d4b6	-0.0024693436
155	0x3d6681fd	0.05627631
156	0x3c03ef5b	0.008052672
157	0xbe145171	-0.14484192
158	0x3db99eb3	0.090634726
159	0xbdd74133	-0.10510483
160	0xbba0c2cb	-0.0049060336
161	0x3def697a	0.1169004
162	0x3e2781e2	0.1635814
163	0xbd8991ee	-0.06717287
164	0xbd6d1992	-0.057885714
165	0xbacfedbe	-0.0015863699
166	0x3d99ada7	0.07503825
167	0x3db2f5d5	0.08738295
168	0xbbcd5694	-0.0062664244
169	0x3c85637d	0.016282791
170	0x39ff8034	0.0004873291
171	0xba9b4907	-0.0011847325
172	0x3dfb872d	0.12281642
173	0xbdd58353	-0.10425439
174	0x3cb87e91	0.022521289
175	0xbdc08c47	-0.09401756
176	0x3cac4d2c	0.021032892
177	0xbd968a5e	-0.0735061
178	0xbd027882	-0.031853206
179	0x3d82e4a9	0.0639127
180	0x3c74a200	0.014931202
181	0xbdfbb165	-0.12289695
182	0xbd81c938	-0.063372076
183	0xbbcd2dbd	-0.006261556
184	0xbd7d6684	-0.061865345
185	0x3dbb0692	0.091321126
186	0x3e1758a4	0.14779907
187	0x3d5bb8a1	0.053642873
188	0xbc83fe7a	-0.016112555
189	0xbd5a692b	-0.053322952
190	0x3ad546b6	0.0016271684
191	0xbd4846ec	-0.04889576
192	0x3d01a182	0.031648166
193	0x3d17d82e	0.0370714
194	0x3b86d181	0.0041143303
195	0xbcd34c45	-0.025793204
196	0x3d9d75c5	0.076884784
197	0x3b5a3eef	0.0033301672
198	0xbc8eeefa	-0.017447937
199	0xbdc5c7e1	-0.096572645
200	0xbcf0defa	-0.029403199
201	0x3d0a9fa0	0.033843637
202	0xbd3d326d	-0.046190668
203	0x3de0afa0	0.10970998
204	0x3c9bd26d	0.019021237
205	0x3d900f5b	0.07034179
206	0xbd0d8522	-0.034550793
207	0x3a814097	0.0009861168
208	0x3c86d345	0.016458163
209	0x3dd874b8	0.10569137
210	0xbdb1a7ab	-0.08674558
211	0xbc417a6a	-0.011808971
212	0x3bdafd37	0.0066830176
213	0x3dd1a87f	0.10237216
214	0x3d582e5d	0.05277859
215	0xbcd88a91	-0.026433261
216	0xbcca8774	-0.024722792
217	0xbd4a7ed9	-0.049437378
218	0x3d6bed31	0.05759925
219	0xbdcbd369	-0.09952433
220	0xbc5f7a3f	-0.013639986
221	0xbb95a38c	-0.0045666154
222	0xbd8150cb	-0.06314238
223	0x3c2a3b5c	0.010390129
224	0x3d04450f	0.032292422
225	0xbcdfc9f9	-0.027317988
226	0x3c5f9316	0.013645908
227	0xbda20933	-0.07911911
228	0x3c6f07b0	0.014589235
229	0x3d322533	0.043492507
230	0xbdf966d6	-0.121778175
231	0xbdcb7b53	-0.099356316
232	0x3cded48c	0.02720096
233	0x3d1dacbf	0.03849482
234	0x3d5c326e	0.05375903
235	0xbde0cf4a	-0.10977037
236	0xbd0c96c7	-0.03432348
237	0x3d2fc2fc	0.04291056
238	0xbd24538e	-0.040118746
239	0x3b0ed992	0.0021797162
240	0xbc52a581	-0.012856842
241	0xbc3d4d25	-0.011554037
242	0x3d24847e	0.040165417
243	0x3ddd041c	0.107917994
244	0xbd516766	-0.051124
245	0x3ca32bbd	0.019918317
246	0xbd88c22a	-0.06677659
247	0x3d50cd86	0.050977252
248	0xbd56a3ff	-0.052402493
249	0x3da7f853	0.08201661
250	0xbbce9386	-0.0063042073
251	0xbd936323	-0.07196643
252	0x3da017dd	0.078170516
253	0xbdb481c3	-0.088138126
254	0xbc84cbb6	-0.016210418
255	0xbdf1146b	-0.117714725

network_body._body_endoder.seq_layers.2.bias f4 [256]
0	0x00000000	0.0
1	0x00000000	0.0
2	0x00000000	0.0
3	0x00000000	0.0
4	0x00000000	0.0
5	0x00000000	0.0
6	0x00000000	0.0
7	0x00000000	0.0
8	0x00000000	0.0
9	0x00000000	0.0
10	0x00000000	0.0
11	0x00000000	0.0
12	0x00000000	0.0
13	0x00000000	0.0
14	0x00000000	0.0
15	0x00000000	0.0
16	0x00000000	0.0
17	0x00000000	0.0
18	0x00000000	0.0
19	0x00000000	0.0
20	0x00000000	0.0
21	0x00000000	0.0
22	0x00000000	0.0
23	0x00000000	0.0
24	0x00000000	0.0
25	0x00000000	0.0
26	0x00000000	0.0
27	0x00000000	0.0
28	0x00000000	0.0
29	0x00000000	0.0
30	0x00000000	0.0
31	0x00000000	0.0
32	0x00000000	0.0
33	0x00000000	0.0
34	0x00000000	0.0
35	0x00000000	0.0
36	0x00000000	0.0
37	0x00000000	0.0
38	0x00000000	0.0
39	0x00000000	0.0
40	0x00000000	0.0
41	0x00000000	0.0
42	0x00000000	0.0
43	0x00000000	0.0
44	0x00000000	0.0
45	0x00000000	0.0
46	0x00000000	0.0
47	0x00000000	0.0
48	0x00000000	0.0
49	0x00000000	0.0
50	0x00000000	0.0
51	0x00000000	0.0
52	0x00000000	0.0
53	0x00000000	0.0
54	0x00000000	0.0
55	0x00000000	0.0
56	0x00000000	0.0
57	0x00000000	0.0
58	0x00000000	0.0
59	0x00000000	0.0
60	0x00000000	0.0
61	0x00000000	0.0
62	0x00000000	0.0
63	0x00000000	0.0
64	0x00000000	0.0
65	0x00000000	0.0
66	0x00000000	0.0
67	0x00000000	0.0
68	0x00000000	0.0
69	0x00000000	0.0
70	0x00000000	0.0
71	0x00000000	0.0
72	0x00000000	0.0
73	0x00000000	0.0
74	0x00000000	0.0
75	0x00000000	0.0
76	0x00000000	0.0
77	0x00000000	0.0
78	0x00000000	0.0
79	0x00000000	0.0
80	0x00000000	0.0
81	0x00000000	0.0
82	0x00000000	0.0
83	0x00000000	0.0
84	0x00000000	0.0
85	0x00000000	0.0
86	0x00000000	0.0
87	0x00000000	0.0
88	0x00000000	0.0
89	0x00000000	0.0
90	0x00000000	0.0
91	0x00000000	0.0
92	0x00000000	0.0
93	0x00000000	0.0
94	0x00000000	0.0
95	0x00000000	0.0
96	0x00000000	0.0
97	0x00000000	0.0
98	0x00000000	0.0
99	0x00000000	0.0
100	0x00000000	0.0
101	0x00000000	0.0
102	0x00000000	0.0
103	0x00000000	0.0
104	0x00000000	0.0
105	0x00000000	0.0
106	0x00000000	0.0
107	0x00000000	0.0
108	0x00000000	0.0
109	0x00000000	0.0
110	0x00000000	0.0
111	0x00000000	0.0
112	0x00000000	0.0
113	0x00000000	0.0
114	0x00000000	0.0
115	0x00000000	0.0
116	0x00000000	0.0
117	0x00000000	0.0
118	0x00000000	0.0
119	0x00000000	0.0
120	0x00000000	0.0
121	0x00000000	0.0
122	0x00000000	0.0
123	0x00000000	0.0
124	0x00000000	0.0
125	0x00000000	0.0
126	0x00000000	0.0
127	0x00000000	0.0
128	0x00000000	0.0
129	0x00000000	0.0
130	0x00000000	0.0
131	0x00000000	0.0
132	0x00000000	0.0
133	0x00000000	0.0
134	0x00000000	0.0
135	0x00000000	0.0
136	0x00000000	0.0
137	0x00000000	0.0
138	0x00000000	0.0
139	0x00000000	0.0
140	0x00000000	0.0
141	0x00000000	0.0
142	0x00000000	0.0
143	0x00000000	0.0
144	0x00000000	0.0
145	0x00000000	0.0
146	0x00000000	0.0
147	0x00000000	0.0
148	0x00000000	0.0
149	0x00000000	0.0
150	0x00000000	0.0
151	0x00000000	0.0
152	0x00000000	0.0
153	0x00000000	0.0
154	0x00000000	0.0
155	0x00000000	0.0
156	0x00000000	0.0
157	0x00000000	0.0
158	0x00000000	0.0
159	0x00000000	0.0
160	0x00000000	0.0
161	0x00000000	0.0
162	0x00000000	0.0
163	0x00000000	0.0
164	0x00000000	0.0
165	0x00000000	0.0
166	0x00000000	0.0
167	0x00000000	0.0
168	0x00000000	0.0
169	0x00000000	0.0
170	0x00000000	0.0
171	0x00000000	0.0
172	0x00000000	0.0
173	0x00000000	0.0
174	0x00000000	0.0
175	0x00000000	0.0
176	0x00000000	0.0
177	0x00000000	0.0
178	0x00000000	0.0
179	0x00000000	0.0
180	0x00000000	0.0
181	0x00000000	0.0
182	0x00000000	0.0
183	0x00000000	0.0
184	0x00000000	0.0
185	0x00000000	0.0
186	0x00000000	0.0
187	0x00000000	0.0
188	0x00000000	0.0
189	0x00000000	0.0
190	0x00000000	0.0
191	0x00000000	0.0
192	0x00000000	0.0
193	0x00000000	0.0
194	0x00000000	0.0
195	0x00000000	0.0
196	0x00000000	0.0
197	0x00000000	0.0
198	0x00000000	0.0
199	0x00000000	0.0
200	0x00000000	0.0
201	0x00000000	0.0
202	0x00000000	0.0
203	0x00000000	0.0
204	0x00000000	0.0
205	0x00000000	0.0
206	0x00000000	0.0
207	0x00000000	0.0
208	0x00000000	0.0
209	0x00000000	0.0
210	0x00000000	0.0
211	0x00000000	0.0
212	0x00000000	0.0
213	0x00000000	0.0
214	0x00000000	0.0
215	0x00000000	0.0
216	0x00000000	0.0
217	0x00000000	0.0
218	0x00000000	0.0
219	0x00000000	0.0
220	0x00000000	0.0
221	0x00000000	0.0
222	0x00000000	0.0
223	0x00000000	0.0
224	0x00000000	0.0
225	0x00000000	0.0
226	0x00000000	0.0
227	0x00000000	0.0
228	0x00000000	0.0
229	0x00000000	0.0
230	0x00000000	0.0
231	0x00000000	0.0
232	0x00000000	0.0
233	0x00000000	0.0
234	0x00000000	0.0
235	0x00000000	0.0
236	0x00000000	0.0
237	0x00000000	0.0
238	0x00000000	0.0
239	0x00000000	0.0
240	0x00000000	0.0
241	0x00000000	0.0
242	0x00000000	0.0
243	0x00000000	0.0
244	0x00000000	0.0
245	0x00000000	0.0
246	0x00000000	0.0
247	0x00000000	0.0
248	0x00000000	0.0
249	0x00000000	0.0
250	0x00000000	0.0
251	0x00000000	0.0
252	0x00000000	0.0
253	0x00000000	0.0
254	0x00000000	0.0
255	0x00000000	0.0

action_model._continuous_distribution.log_sigma f4 [1, 6]
0	0x00000000	0.0
1	0x00000000	0.0
2	0x00000000	0.0
3	0x00000000	0.0
4	0x00000000	0.0
5	0x00000000	0.0

action_model._continuous_distribution.mu.weight f4 [6, 256]
0	0xbb946062	-0.0045280913
1	0xbc855ff6	-0.01628111
2	0xbc2d5f85	-0.010581856
3	0xbc2caa68	-0.010538675
4	0x3c139733	0.009008217
5	0x3b162c6d	0.0022914663
6	0x3c393d38	0.0113061
7	0xbbdd99af	-0.0067627053
8	0x3c6fa4c3	0.014626685
9	0x3c302999	0.010752105
10	0x3b42107f	0.0029611883
11	0x3c3bf3cf	0.011471703
12	0xbc46ba3b	-0.012129362
13	0xbbec31b7	-0.007208075
14	0xbc2cf157	-0.010555587
15	0xbc41c25d	-0.011826125
16	0xbbd23fc8	-0.0064162947
17	0xba939657	-0.0011260015
18	0x3ba3783f	0.0049886997
19	0xbc58a878	-0.01322376
20	0xbd084236	-0.03326627
21	0xbc0a16b2	-0.008428263
22	0xbbf7b983	-0.0075599565
23	0x3cb0e343	0.021592742
24	0xb9a57d24	-0.0003156449
25	0xbbdc77c3	-0.006728144
26	0xbc8bdb6b	-0.0170724
27	0xba2ceede	-0.0006596873
28	0xb83531c2	-4.3200103e-05
29	0xbba8861f	-0.0051429416
30	0x3c096e6b	0.008388142
31	0xbb072583	-0.0020621724
32	0x3c0d3eeb	0.008620958
33	0xbc525e30	-0.012839839
34	0x3c595ea2	0.013267191
35	0x3baf9069	0.005357791
36	0x3b9714fc	0.004610656
37	0xbbc82bee	-0.0061087525
38	0x3a9d65e5	0.0012008516
39	0x38b43fb3	8.594934e-05
40	0x3b48f91e	0.0030666064
41	0xbb2a2d64	-0.0025966996
42	0xbc71c072	-0.014755355
43	0xbb7067e8	-0.0036683027
44	0x3ac94fb4	0.0015358836
45	0x3bd9dcb3	0.006648624
46	0xbca8e23b	-0.020615688
47	0xbbde2fdd	-0.006780608
48	0x3b30898c	0.0026937453
49	0xbc9babc4	-0.019002803
50	0xbc0924f4	-0.008370627
51	0x3bb968d3	0.005658248
52	0xbb7211db	-0.0036936912
53	0x3a836c84	0.0010026847
54	0xbb9ef571	-0.0048510362
55	0x3c33c64e	0.0109725725
56	0x3a54ea63	0.00081220845
57	0xbc9369c1	-0.017994763
58	0x3c2fd21f	0.010731249
59	0xbc428093	-0.011871475
60	0x39cb3e83	0.00038765752
61	0xbc3cf58a	-0.01153315
62	0xb9548145	-0.00020266052
63	0x3baa525b	0.005197806
64	0x3b3d8ab2	0.002892178
65	0x3b8d772b	0.0043171844
66	0x3bb052de	0.0053809723
67	0xbc30c926	-0.010790145
68	0x3c40a335	0.011757662
69	0xbc9b091c	-0.018925242
70	0xbc60eab8	-0.013727836
71	0x3c533ef2	0.012893425
72	0xbc4805c7	-0.012208409
73	0x3a0e66eb	0.0005432206
74	0xbc0d0cf6	-0.008609047
75	0x3c30d3a4	0.010792647
76	0xbc46d180	-0.01213491
77	0x3b201c9e	0.002443112
78	0xbb8269be	-0.0039798906
79	0x3b8f7d2a	0.0043789344
80	0x3b3dc755	0.0028957922
81	0xbc15f3f7	-0.009152404
82	0x3c5f9af8	0.013647787
83	0xbc1f7620	-0.009732753
84	0xbc4c0a03	-0.012453559
85	0xbc9af553	-0.018915808
86	0x3cba5549	0.022745745
87	0x3ba33ad1	0.0049813767
88	0xbc3b53d9	-0.011433565
89	0x3c0ed584	0.008717898
90	0xbc7340a3	-0.014846954
91	0x3c71de92	0.014762538
92	0x3c2a89f2	0.010408865
93	0x3b0face1	0.0021923112
94	0x3c8d3dec	0.01724144
95	0xbc6bcd4d	-0.014392209
96	0x3cad3d8d	0.021147514
97	0x3a82eaed	0.0009988226
98	0x38a71462	7.966977e-05
99	0xbc9904d3	-0.018679058
100	0xbce037fd	-0.027370447
101	0x3b6006a7	0.0034183653
102	0xbb9f6240	-0.0048640072
103	0xb9bcade1	-0.00035987704
104	0xbb8262ee	-0.0039790785
105	0x3c51073f	0.012758075
106	0xbbec7df7	-0.0072171646
107	0x3b361bb6	0.0027787513
108	0x3b09da70	0.002103474
109	0x3c87314b	0.016502997
110	0x3b77bcb2	0.003780168
111	0x3cca8524	0.02472169
112	0x3c830484	0.015993364
113	0x3b9e2466	0.0048261164
114	0xbcde2342	-0.027116422
115	0xbc36dfe5	-0.011161779
116	0x3b881b1b	0.004153622
117	0xbbe872a3	-0.007093744
118	0x3c580da7	0.013186849
119	0x3aad87f8	0.0013239374
120	0xbc0f7327	-0.008755482
121	0xbc56e285	-0.01311553
122	0x3c068cd9	0.008212292
123	0x3c85113e	0.016243573
124	0x3c6a0130	0.01428251
125	0xbc80996d	-0.01569816
126	0x3c87ea0f	0.0165911
127	0xbc8c5213	-0.01712898
128	0x3bd70d3b	0.0065628565
129	0xbc7c9f28	-0.015418805
130	0x3bd6918a	0.0065481113
131	0x3c42cdeb	0.011889915
132	0x3c127924	0.008940015
133	0x3c138be0	0.009005517
134	0x3c38b98b	0.011274706
135	0xbbfbc553	-0.007683435
136	0x3c0f4b1e	0.008745937
137	0xbce6aad5	-0.028157631
138	0x3b0dc426	0.0021631806
139	0xbc70cce0	-0.0146972835
140	0x3ba7a58c	0.0051161703
141	0x3bf0b783	0.007346095
142	0x3c75183d	0.014959392
143	0x3c803dd8	0.01565449
144	0x3ab55c26	0.0013836666
145	0xbb9a4f4b	-0.0047091595
146	0xbc1e1290	-0.00964798
147	0x3bd29f27	0.006427664
148	0x3b4c7b9f	0.0031201614
149	0xbc020d53	-0.007937747
150	0xbbf49727	-0.007464308
151	0xbc6340b0	-0.013870403
152	0x3be2e58f	0.006924338
153	0xbc87d5af	-0.016581384
154	0x3b9faeca	0.0048731314
155	0xbc69b05a	-0.014263237
156	0x3c71733a	0.014736945
157	0xba03eceb	-0.0005032557
158	0xbc51d977	-0.012808195
159	0xbcab72a7	-0.020928694
160	0xbc9a5727	-0.018840386
161	0xbc7f31d5	-0.015575846
162	0x3b8fa8bf	0.00438413
163	0x39b771b7	0.00034989204
164	0x3b1ee239	0.0024243726
165	0xbad4031a	-0.0016175241
166	0xbc1c6df9	-0.009547704
167	0xbc2d7b2b	-0.010588448
168	0x3bd2d52a	0.0064341025
169	0xbb00ade8	-0.0019634906
170	0xbc828218	-0.015931174
171	0xbc35ff15	-0.01110818
172	0x3cab3808	0.020900741
173	0xbbad7dfb	-0.005294559
174	0xbc229783	-0.0099238185
175	0xbc67b137	-0.014141372
176	0x3bb2ed29	0.0054604006
177	0xbbfba80b	-0.0076799444
178	0x3c805fab	0.015670618
179	0x3c703ae2	0.014662476
180	0xbaed67db	-0.0018112616
181	0x3afecb15	0.0019439185
182	0xba668565	-0.0008793681
183	0x3c1fbec6	0.009750074
184	0x3cd07def	0.025450675
185	0x3ca194b0	0.01972422
186	0x3bc32322	0.005955116
187	0x3c00f5be	0.0078710895
188	0x3beac912	0.0071650827
189	0x3bdfd18b	0.0068303994
190	0xba8b8f57	-0.0010647577
191	0x3cd5c5fd	0.026095385
192	0xbc4ed6c5	-0.012624447
193	0xbc8ca68f	-0.017169265
194	0xbc96635b	-0.018357923
195	0xbb96883f	-0.0045938785
196	0xbc4dd72b	-0.012563507
197	0xbb8d1763	-0.0043057664
198	0xbbcbf6d5	-0.006224493
199	0x3c0c623a	0.008568341
200	0x3c412c5b	0.01179036
201	0x3aa9053f	0.001289524
202	0x3a3959b7	0.00070705585
203	0x3c3e273e	0.011606036
204	0x3c1165a5	0.008874332
205	0x3bcee0bb	0.006313411
206	0xbc76cd25	-0.015063559
207	0xbbf5f832	-0.007506394
208	0xbaf016a3	-0.0018317293
209	0xbb2b4bcf	-0.0026137715
210	0xbbdc203f	-0.006717711
211	0x3c3d87db	0.011568035
212	0x3c29f307	0.010372884
213	0x3cba8880	0.022770166
214	0xbb9c12ae	-0.004762969
215	0xbc6661bb	-0.014061387
216	0x3cb67e49	0.022277014
217	0xbb06e35e	-0.0020582299
218	0xbbe91da5	-0.0071141296
219	0xb9f21d70	-0.0004617977
220	0x3cc45c7a	0.023969878
221	0xbcd804da	-0.0263695
222	0x3c9313c1	0.017953755
223	0x3c482ba7	0.012217439
224	0xbb5b4277	-0.0033456364
225	0x3c873813	0.01650623
226	0x3bf79ac0	0.0075562894
227	0x3bd3a877	0.0064592916
228	0x3cba12ff	0.022714136
229	0x3bdf4365	0.006813454
230	0xbbc5d505	-0.006037357
231	0x3bd30930	0.006440304
232	0x3c76242f	0.015023275
233	0xbc374e3c	-0.011188086
234	0x3b51c44a	0.0032007867
235	0xbba32dd2	-0.0049798274
236	0xbc8970c3	-0.016777402
237	0x3c232f3a	0.00995999
238	0xbb8a1c6b	-0.0042148135
239	0xba97abe6	-0.0011571615
240	0xbb9fc6bc	-0.004875986
241	0x3d082525	0.03323855
242	0x3c2e480b	0.010637294
243	0x3c5985b8	0.01327651
244	0x3caf3b7f	0.021390675
245	0x3be6a3a7	0.007038552
246	0xbca41cc7	-0.020033253
247	0xbbe0e15d	-0.006862803
248	0x3b93407b	0.0044937707
249	0x3c3fd18e	0.011707677
250	0xbb2ce013	-0.0026378676
251	0xbc32b2c9	-0.0109068835
252	0xbba7d72b	-0.0051220856
253	0x3b92fdb9	0.0044858125
254	0x3bd15142	0.0063878605
255	0xbb23e692	-0.0025009257

action_model._continuous_distribution.mu.bias f4 [6]
0	0x00000000	0.0
1	0x00000000	0.0
2	0x00000000	0.0
3	0x00000000	0.0
4	0x00000000	0.0
5	0x00000000	0.0

network_body.observation_encoder.processors.0.normalizer.running_mean f4 [100]
0	0x3f7797e7	0.9671616
1	0x3b904c46	0.0044036238
2	0x3903edf7	0.00012581782
3	0x3e4fa462	0.20277551
4	0x3f782c53	0.96942633
5	0x3b775e2e	0.0037745344
6	0x3903edf7	0.00012581782
7	0x3e4e0847	0.20120345
8	0x3f77b0a5	0.96753913
9	0x3ba908e4	0.0051585305
10	0x3983edf7	0.00025163565
11	0x3e50fa65	0.20408018
12	0x3f7734f3	0.9656517
13	0x3bb147c4	0.0054101665
14	0x3903edf7	0.00012581782
15	0x3e4cb56b	0.1999108
16	0x3f77a026	0.9672874
17	0x3bdea18f	0.0067941616
18	0x39c5e4f1	0.00037745343
19	0x3e53dd3a	0.2068986
20	0x3f785dca	0.9701811
21	0x3b2d2855	0.0026421745
22	0x00000000	0.0
23	0x3e4b24e4	0.19838291
24	0x3f78a802	0.9713136
25	0x3bd24340	0.006416708
26	0x39c5e4f1	0.00037745343
27	0x3e57f123	0.2108808
28	0x3f783cd1	0.969678
29	0x3b946bb4	0.004529441
30	0x00000000	0.0
31	0x3e4828ce	0.19546816
32	0x3f78e1b8	0.9721942
33	0x3b9caa94	0.0047810767
34	0x39c5e4f1	0.00037745343
35	0x3e5a38fc	0.213108
36	0x3f78f234	0.9724457
37	0x3b7f9d10	0.0039003529
38	0x00000000	0.0
39	0x3e45c920	0.19315004
40	0x3f79342e	0.97345245
41	0x3b904c46	0.0044036238
42	0x39c5e4f1	0.00037745343
43	0x3e5cbe8d	0.21557064
44	0x3f79a7a1	0.97521406
45	0x3b24e973	0.002516356
46	0x00000000	0.0
47	0x3e443c1b	0.19163553
48	0x3f788f43	0.970936
49	0x3b880d65	0.0041519874
50	0x39c5e4f1	0.00037745343
51	0x3e5f3c49	0.2180034
52	0x3f79c899	0.9757171
53	0x3b5662b3	0.0032712638
54	0x00000000	0.0
55	0x3e4383b2	0.19093207
56	0x3f794ce9	0.9738298
57	0x3b5ea190	0.003397081
58	0x39c5e4f1	0.00037745343
59	0x3e5fd4bf	0.218585
60	0x3f79342e	0.97345245
61	0x3b83edf9	0.0040261713
62	0x00000000	0.0
63	0x3e429caa	0.19005075
64	0x3f784d4c	0.96992946
65	0x3bad2853	0.005284348
66	0x39c5e4f1	0.00037745343
67	0x3e5cb73e	0.21554276
68	0x3f79d0d7	0.9758429
69	0x3aa4e972	0.0012581779
70	0x00000000	0.0
71	0x3e4117b1	0.18856694
72	0x3f77f29a	0.96854556
73	0x3bb147c4	0.0054101665
74	0x39c5e4f1	0.00037745343
75	0x3e5bfbe0	0.21482801
76	0x3f7986a1	0.9747105
77	0x3b1caa93	0.002390538
78	0x00000000	0.0
79	0x3e4005bc	0.18752187
80	0x3f76eabf	0.96451944
81	0x3bc1c582	0.0059134373
82	0x39c5e4f1	0.00037745343
83	0x3e597991	0.2123778
84	0x3f797624	0.97445893
85	0x3b5662b1	0.0032712633
86	0x3983edf7	0.00025163565
87	0x3e3fe477	0.18739496
88	0x3f76a8ca	0.963513
89	0x3ba908e5	0.005158531
90	0x39c5e4f1	0.00037745343
91	0x3e58f5f5	0.21187575
92	0x3f79d917	0.9759688
93	0x3b3da611	0.0028938095
94	0x3983edf7	0.00025163565
95	0x3e40042b	0.1875159
96	0x3f764e16	0.962129
97	0x3b83edf9	0.0040261713
98	0x39c5e4f1	0.00037745343
99	0x3e579c39	0.21055688
