Assets/results/5/CoinChaser/CoinChaser-42544.onnx (onnx, 443643 bytes, 13 tensors)

network_body.observation_encoder.processors.0.normalizer.running_mean f4 [100]
00000000: 94c2 743f 308b 793b 6133 203a f125 503e
00000010: 85e7 743f f82c 8c3b 82af 323a 3bea 4f3e
00000020: b8a3 743f 4d7e 513b b4e0 133a 9243 503e
00000030: af3a 753f 827c 8e3b b3a7 573a 7840 4f3e
00000040: 8575 743f 82af 323b 090a 1a3a 1aee 503e
00000050: 5b53 753f b67f 983b 4c7e 513a b11b 4f3e
00000060: 636f 743f ef54 4b3b f08d 073a 9dc2 513e
00000070: 09cd 753f 26f2 8c3b f254 4b3a fe3a 4e3e
00000080: d8a6 743f d59a 2f3b f18d 073a 7786 523e
00000090: 6d15 763f b2e0 933b d7d8 383a b3fa 4c3e
000000a0: 38b6 743f b87f 183b 7676 f639 6319 533e
000000b0: 62ed 753f e982 a23b 80af 323a 4668 4c3e
000000c0: 939d 743f 854e 373b 6733 203a 95a9 533e
000000d0: 9de2 753f bcbd a13b 81af 323a 0b66 4b3e
000000e0: 606f 743f 4edf 4c3b 070a 1a3a 1d5d 543e
000000f0: bfe8 753f 016b 953b 1a86 2c3a da15 4a3e
00000100: 4658 743f f1f3 4f3b 6b33 203a b2d3 533e
00000110: a2f6 753f 783e 853b 6433 203a a39c 493e
00000120: f626 743f 204d 703b 2386 2c3a d390 533e
00000130: 0f67 763f 6799 683b 7daf 323a a0fc 473e
00000140: fa26 743f e954 4b3b ace0 133a e24a 533e
00000150: 6673 763f a2a7 573b dcd8 383a 8013 473e
00000160: 58e9 733f 27ec 743b a064 013a 1df9 523e
00000170: 7e76 763f 729f 803b 2186 2c3a ecc3 453e
00000180: d7c2 733f c861 733b 59b7 0d3a 41b8 513e
0.956094 0.0038077347 0.00061111717 0.20326973 0.9566577 0.0042778216 0.0006816314 0.20304196
0.95562315 0.003196615 0.00056410884 0.20338276 0.9579267 0.0043483386 0.0008226588 0.20239437
0.9549182 0.0027265255 0.0005876129 0.20403329 0.95830315 0.004653896 0.0007991537 0.20225407
0.9548246 0.0031025966 0.00051709916 0.20484395 0.96015984 0.0043013273 0.0007756493 0.20139691
0.95567083 0.0026795168 0.0005170992 0.20559107 0.96126443 0.0045128698 0.00070513546 0.20017509
0.95590544 0.0023269486 0.00047009037 0.20615153 0.9606534 0.0049594534 0.00068163127 0.19961652
0.9555294 0.0027970385 0.0006111175 0.20670159 0.9604891 0.004935948 0.0006816313 0.19863145
0.95482445 0.003126103 0.0005876128 0.20738645 0.9605827 0.004559875 0.0006581262 0.19734898
0.95447195 0.0031731094 0.00061111775 0.20686224 0.96079457 0.0040662847 0.00061111734 0.19688658
0.9537195 0.0036667064 0.0006581267 0.20660715 0.96251005 0.0035491826 0.0006816311 0.19529963
0.95371974 0.0031025952 0.00056410837 0.20634034 0.96269834 0.0032906313 0.00070513575 0.19441032
0.9527793 0.0037372203 0.0004935954 0.20602842 0.96274555 0.0039252574 0.0006581266 0.1931302
0.95219177 0.003713714 0.0005406044 0.20480444

network_body.observation_encoder.processors.1.normalizer.running_mean f4 [52]
00000000: b611 f33e 3e02 bf3a 4d8d 333d b19d 9e3e
00000010: b85e f33e ee54 cb3a 06ff 343d 88b1 9e3e
00000020: 39da f23e 3f40 c83a e6ef 333d 17a4 9e3e
00000030: b68f f43e d261 f33a db39 343d 5bdd 9e3e
00000040: f28c f33e 83af b23a a474 333d 3aba 9e3e
00000050: 9ebd f53e c961 f33a 9d1b 323d 402c 9f3e
00000060: 0fb8 f33e 89ed bb3a e14c 323d ca5e 9f3e
00000070: 9eee f63e 86b4 ff3a 52ea 313d f977 9f3e
00000080: 98f2 f33e d6d8 b83a 5f43 333d 1414 a03e
00000090: 9ad2 f73e aa41 0f3b 6ef9 323d 1cf6 9f3e
000000a0: e395 f43e 2186 ac3a 1f0e 363d c4ef a03e
000000b0: 8431 fa3e f88d 073b 4f30 353d 9796 a03e
000000c0: ad73 f53e 84af b23a 33c0 383d bef0 a13e
0.4747445 0.0014572812 0.043835927 0.30979684 0.47533202 0.0015512982 0.04418852 0.3099482
0.47432116 0.0015277936 0.043929957 0.30984566 0.47765893 0.0018568581 0.044000488 0.31028256
0.4756847 0.0013632629 0.04381241 0.31001455 0.4799623 0.0018568571 0.043483365 0.31088448
0.47601363 0.0014337759 0.04353035 0.31127006 0.48228925 0.0019508756 0.043436356 0.3114622
0.47646022 0.0014102708 0.043765422 0.31265318 0.48402864 0.0021859207 0.043694906 0.31242454
0.47770604 0.0013162532 0.04444706 0.31432927 0.48865902 0.0020683985 0.044235524 0.3136489
0.47939816 0.001363263 0.04510517 0.31628984

network_body.observation_encoder.processors.2.normalizer.running_mean f4 [9]
00000000: 0363 913d 7474 1340 c490 e6be 75bf 4e3f
00000010: 8215 fb3e d4ce 5a3f 83e8 34bd 86ad a33c
00000020: ef0a 253d
0.07098963 2.3039827 -0.45032322 0.8076089 0.49039847 0.85471845 -0.044167053 0.019980203
0.04029363

network_body._body_endoder.seq_layers.0.weight f4 [256, 161]
00000000: cbc2 b23d 6905 ddbd 7878 15be 0137 9d3c
00000010: 9270 3c3d 4fdc 1c3e 8f88 573d c3f2 b13d
00000020: aed7 2dbe d05a a2bd ba38 47bd 994e 0fbc
00000030: 29b2 0e3c 499c 233c d6d7 e4bc 3d47 35bd
00000040: 2e36 c83d 4466 7fbd cd49 a33d 9143 b7bd
00000050: 5338 cabc dc81 cfbd 9176 243d 9cc4 313d
00000060: d3d4 953d 4699 ecbc 1b0d 83bd 6fde 17bd
00000070: 72b2 4bbe f08e abbd 2e1f 113e 92f2 103e
00000080: 83e2 743d ca8d 3dbd d0fa c43d e6d2 d73d
00000090: e312 c9bc 3ef2 f23d fcec 9abd dc69 0dbb
000000a0: 0cd3 4c3d 78ec 963d 69a8 2cbc 03d3 6dbc
000000b0: b8df 693b 503a 3ebe bb88 44be 25ef 443e
000000c0: f3ee 13bd 4965 c13d 4802 9a3c bd8b 29bd
000000d0: 591b d8bd 696e cf3d 1be4 bfbd 5d63 4f3c
000000e0: 9f0c 9bbd d6fb c23d 839e 62bd 4c44 2e3d
000000f0: f56e 1ebd a1f0 12bd 30f2 62bd 9e9e 67be
00000100: a331 6e3b 6b69 43bd 32e0 33bb 69dc 653d
00000110: 0ce8 2bbd b715 76bd 184d 67bd ea37 84bc
00000120: 6755 ce3b efee d6bc 9318 dfbc fe52 073c
00000130: 29b7 dd3a ee90 37bc d511 8b3d e333 49bd
00000140: ee06 873d 1747 f1bd 33c7 79bd 461c 1e3e
00000150: 5fe1 243d 5a3c 603e 7d44 043d 21ea 2a3d
00000160: 9e1a 01be e359 ec3d b34d 53be cd17 19be
00000170: 1125 b5bd 0f82 203e d210 573e 7171 f0bc
00000180: c70c 34bd a1d2 1aba 0859 53bc 1dda 2b3d
00000190: 1bc0 c8bc f788 e23d 14e2 10be d78b 1b3c
000001a0: d2d9 b13a fa2e ea3b 1866 e0bc fb22 2fbb
000001b0: 387b a43d 4de2 8a3d 6f8e 583d 5664 02bc
000001c0: 4eaa 71bb 8801 2b3b 54b5 a6bd 231a 303d
000001d0: 1b4f b83d 36ff cc3a 2b44 843d d64a 803c
000001e0: 90c1 cc3b 8efd 383e a3e7 7cbd 7db3 f2bd
000001f0: ea89 463c 65d5 ad3d 8935 edbd c62e b73d
00000200: 2ff8 153c e3a7 313e 06e0 263e b95a ff3b
00000210: d661 113e 442d 89bd b32b 783d b6e1 08be
00000220: 6187 4a3e 57a2 2b3c bba3 28bd 077c f73c
00000230: e199 803d 4828 133e 6b1f 413d bb9e 483e
00000240: f93c 4a3d 45bf e0bc d7de 9bbb eff0 2cbd
00000250: a64a 0bbd 4563 cf3d df11 863b 3c1c da3c
00000260: 62db ae3b ea4a dc3c 3682 95bd 6e70 7bbd
00000270: e874 fd3c beb1 d23d c90b e83c 34db 75bd
00000280: 1af7 a73c 8000 99bd 154e 9cbd 802d bcbd
00000290: dd10 97bd 133e 3f3c c610 46bd 6f1e 7ebd
000002a0: f7d3 82bd d8ca c03d da45 953c c393 663c
000002b0: fd70 193e e118 87bd 8397 aa3d 2c02 d8bb
000002c0: 2c36 b9bd 6361 18bd 297e b5bc a0ca 7e3b
000002d0: 4dce 023d 2c5d fe3b df99 c03d 6dbd 63bc
000002e0: a5f4 87bd aadc 16be bf17 863d bcce 76bc
000002f0: eb7f 9f3d 2947 eabd 927e be3d 4d1e 0ebe
00000300: 8a7f 9ebd 6bae 893d f73c 1abd f606 2cbd
00000310: 08a9 6d3e a8ef 9fbd 867f 093d 3edb 533d
00000320: cedd 4a3d ee91 fbbc af66 883d c377 82bd
00000330: 8030 8dbc 133a de3d f92e 353d 2a53 3aba
00000340: 8de2 11bd 134e 7bbd eec4 29be 8804 65bd
00000350: b63f 7bbd fe46 afbd abb9 f0bd f557 a73d
00000360: 4735 01bd c5f8 db3c 8d5a 0e3c 6dd4 d9bd
00000370: 43f2 d9bb 8edf 753d 78a8 9ebd 7ddd 333c
00000380: a53c b93b 8840 f0bb a120 a83c 7f7f ba3d
00000390: b8bf 973d 5ca0 503c 4757 943c aa7a 413d
000003a0: 9907 1ebb 2a64 96bd 36a9 bd3d aa76 bb3d
000003b0: 0abd c0bd 8e22 50bd cad2 043e 5a85 01be
000003c0: 698c 01be 05c0 30bd 9fef aa3d fee3 eebd
000003d0: 34ee 3fbc 852f 103d 2d37 75bd 79e9 a9bd
000003e0: 3c72 83bd 651e 603d 62d0 933c af35 d93d
000003f0: bb9a 5abd 1115 413d 2bb1 4bbd b90a 303e
0.0872856 -0.107920475 -0.14596736 0.019191267 0.046005793 0.15318416 0.052620467 0.08688881
-0.16976807 -0.07927477 -0.048638083 -0.0087467665 0.008709469 0.009985992 -0.02793495 -0.04425739
0.09775959 -0.062353387 0.07973061 -0.08948434 -0.02468506 -0.101321906 0.040152136 0.043400392
0.073159836 -0.02888168 -0.06398984 -0.037077364 -0.1989229 -0.083768725 0.1417205 0.14155033
0.05978633 -0.0462778 0.09618151 0.105382726 -0.024545139 0.1186261 -0.075647324 -0.002157799
0.050005957 0.073693216 -0.010538199 -0.014515641 0.0035686325 -0.18576932 -0.19192784 0.19231851
-0.03611655 0.09443147 0.018799916 -0.04139303 -0.10552091 0.10128481 -0.093696795 0.012657967
-0.07570767 0.0952069 -0.05532695 0.0425456 -0.038680036 -0.035874013 -0.05540675 -0.22619101
0.0036345504 -0.047707956 -0.0027446863 0.056118403 -0.041969344 -0.060079303 -0.056470007 -0.016139943
0.006296802 -0.02623698 -0.027233398 0.008259533 0.0016915548 -0.0112039875 0.067905106 -0.04912175
0.065931186 -0.117811374 -0.060980987 0.15440473 0.040253993 0.21898022 0.032291878 0.04172719
-0.1260781 0.11540582 -0.20635109 -0.14950486 -0.088449605 0.15674613 0.2100251 -0.029350968
-0.043957498 -0.000590602 -0.012899645 0.041956056 -0.024505666 0.1106128 -0.14148742 0.00949379
0.0013568944 0.0071467133 -0.027392432 -0.002672373 0.080313146 0.06781445 0.05287021 -0.007958492
-0.003687519 0.0026093442 -0.08140054 0.042993676 0.08999463 0.0015640024 0.064583145 0.015660685
0.0062486604 0.18065473 -0.061744343 -0.11850641 0.012117842 0.084879674 -0.11582477 0.08944468
0.00915341 0.173492 0.16296396 0.0077927974 0.14197478 -0.06698087 0.06058855 -0.13367352
0.19778205 0.010475717 -0.04117177 0.030210508 0.0627935 0.14370835 0.047149103 0.19591801
0.049374554 -0.027434954 -0.004756789 -0.04222196 -0.034006737 0.10126356 0.004091486 0.026624791
0.005336211 0.02689119 -0.073002264 -0.06138652 0.030939534 0.10287808 0.028325932 -0.0600235
0.02050357 -0.074707985 -0.076320805 -0.09188366 -0.07376263 0.0116725145 -0.04835584 -0.062040742
-0.06388085 0.094136894 0.018221784 0.014073315 0.14984508 -0.06596542 0.0832968 -0.006592056
-0.090435356 -0.03720225 -0.022154884 0.0038878098 0.031935025 0.007762572 0.094043486 -0.013900143
-0.06638459 -0.14732614 0.06547498 -0.015063938 0.0778807 -0.11439354 0.09301485 -0.13878746
-0.0773917 0.06722721 -0.037655797 -0.041998826 0.23209012 -0.07809383 0.03356888 0.051722758
0.049527936 -0.030709233 0.0666021 -0.06370499 -0.01723504 0.108509205 0.04423425 -0.00071077293
-0.035616446 -0.061353754 -0.16579029 -0.055912524 -0.061340056 -0.085584626 -0.11754163 0.08171073
-0.03154495 0.026852021 0.008688581 -0.1063622 -0.0066511943 0.06002765 -0.077469766 0.0109781
0.0056529813 -0.0073319115 0.020523371 0.09106349 0.07409614 0.012733545 0.018108023 0.047236122
-0.0024113415 -0.073433235 0.0926079 0.09153493 -0.09411056 -0.050814204 0.12971035 -0.12648526
-0.12651218 -0.043151874 0.08346485 -0.1166458 -0.011714507 0.03520157 -0.059867073 -0.082964845
-0.06418273 0.054716486 0.0180437 0.106059425 -0.05337022 0.04713923 -0.049729507 0.1719159

network_body._body_endoder.seq_layers.0.bias f4 [256]
00000000: 3e72 1ebb 992a 3eba 354e f4ba d6a1 433b
00000010: db8e 8f3b 694c 98bb 7b55 02b9 0ac4 53b8
00000020: a93c 0ebb f376 773b 6f52 983a 6604 e13b
00000030: 7696 b33b 01e4 b138 4928 5ebb c500 bebb
00000040: 6a0b 87ba 2bff 7a3a 55da 90bb 4e03 bd3b
00000050: dfed 903b 9ec4 17bc 2bc7 dc39 167b c1b8
00000060: 5f71 4eba 513d 47ba fb2b 86bb 8155 683b
00000070: 31e3 023b 1aa8 5239 3526 c33a 0381 cb3b
00000080: 2e82 87b9 7fb0 59bb 94c6 ea3a 49d3 a43b
00000090: 5c8f 7ebb 4b36 0bbc 2e0f 813b d9e8 303a
000000a0: b098 083b 0fc6 6a3b aedb 833b acc6 0a3a
000000b0: 2ea2 15bb 356f 8a3b 5e57 1d3b c738 b5bb
000000c0: b3a8 40ba a63e 5fba b309 14ba e370 80ba
000000d0: 7829 be3b 610b 293b d449 77bb f60b 4d3b
000000e0: fa6b 023b c87b e93b e58f 5a3b 0459 f4ba
000000f0: 0400 713b da94 a3bb ae6e 94bb 1033 b838
00000100: 340b 8fbb a9a4 9c3b 0660 26ba 3609 00bc
00000110: bef3 073b 6a8e fa3a 96f3 63bb afef ab3b
00000120: 424e fe3a 1aa9 2aba 03a2 843b 91fe 913b
00000130: a0b5 c83a 38b2 e2ba 97ba 933b a714 5d3b
00000140: 2529 b3bb e643 133b f1e6 ec39 47ed 93b7
00000150: 7dcf 6e3b 3621 3b3b b489 913b 67e1 51bb
00000160: 9ad6 193b f5a5 9d3b 001a c9bb 40e9 b7ba
00000170: 05d8 f0ba 9348 08ba 1bc0 ddba c16d 3d3a
00000180: 66fd 05bc 9378 cf3b cfcc 74bb 9df5 4d3b
00000190: aa0c 673b da39 bf3b f3e5 36bb badf 5e3b
000001a0: 3f45 9d3b aceb a93b a2c2 cbbb 85ac 953b
000001b0: 29f0 a33a 1d5e 633b 54cf b0ba 359e b9bb
000001c0: c76b d8bb efe5 ecbb ac74 e8bb d42c 9ebb
000001d0: f544 3e3b bf05 97b9 c7bb b4bb 94f2 4639
000001e0: 1fcc 2fba 2bca ccbb 917a 9b3b 8fc1 81bb
000001f0: bf46 b13b 6c01 963a 2f63 543b 3e7a 3fbb
00000200: 3e9d b3bb 22be 8a3b 36b3 ee39 48d0 213c
00000210: 4125 a13a 3901 17bb 11e1 24bb 29ff f0b9
00000220: 0c02 73bb 84b1 e83a 184f 7abb 124a 37bb
00000230: 0c6f dcba d7b3 fc3a 0c81 393b 5d38 e5b8
00000240: dd24 ccbb c2c7 2b3c 35ba aa39 47b9 a1ba
00000250: ff82 953b 1842 8eba 96be d5ba f0e7 40bb
00000260: 0e12 183a 5de4 683b 9a64 36bb beb8 023b
00000270: e26f 65bb f2ab 29bb 828f 0fbc 399f 1ebb
00000280: c833 f53b a89d 6e3b 3b48 043c efb1 983b
00000290: 0064 b2ba dae1 f1bb 7996 973a 0bd9 963b
000002a0: 7d8f ce38 0368 813b ba9a 53ba cd36 9dbb
000002b0: 3ac8 c5bb 1abc 1bba 0f60 f03b 6ab4 4fbb
000002c0: ad98 4abb bb17 27ba e135 76bb b842 b7bb
000002d0: 5f01 c43a 64b0 b03b b27f a43a f5f4 c4bb
000002e0: 2232 c13b 6d1f bc3b bafe e73a 5f15 083c
000002f0: b0bb ebba eade 2eb8 f63f 8bbb fa65 7dbb
00000300: afc3 973b 05ba 87bb 2733 d9b9 2cb5 533a
00000310: 643a 9f3a be8e 703b 40bc 823b 96b5 dc3b
00000320: 97af feba 9932 753a 44a2 113b 0476 f2bb
00000330: 7efb 9b3a 8a5b 9039 6122 263c 973d b33b
00000340: 2abc 8739 9358 27bb 5bc3 0b3b 2791 543a
00000350: 774c ba3a 0c72 d53b 0fea 99bb 7aab a6bb
00000360: 8471 763b 8f7c 43bb d515 263c b07f a33b
00000370: 3cf8 32bb 6c4d 80bb 4972 743b 1239 96bb
00000380: e286 01bb 90af 9b3b fff1 3fbb a20f 0bba
00000390: 3582 1f3a 9a3f e83b 2d79 9d3b 19dc 9cba
000003a0: d063 d83a 72d8 1c3b fab1 44b9 4dd2 343b
000003b0: 986f 963a 2e6b c03b ec63 913a 05f2 dc3a
000003c0: e24c 0cba 72aa 2cbb ba0e 57ba 8301 38ba
000003d0: 5002 3f3b aacf f3bb 7cf4 8fbb c39a 0eb9
000003e0: a94d 07bc ad10 b83a 5bc9 e73b 8a3f ac3a
000003f0: 37dd 633b e8ce f2b9 e1a8 063b 8d1a 90bb
-0.002417698 -0.00072542724 -0.001863903 0.00298511 0.0043810434 -0.0046477807 -0.0001242961 -5.0488896e-05
-0.0021703637 0.0037760108 0.0011621247 0.0068669794 0.005480583 8.482487e-05 -0.0033898524 -0.0057984316
-0.0010303084 0.0009574766 -0.0044205585 0.005768216 0.0044228877 -0.009263186 0.00042110062 -9.225884e-05
-0.000787517 -0.00076003844 -0.0040945983 0.0035451355 0.0019971842 0.00020089783 0.0014888706 0.0062104478
-0.00025846198 -0.0033216772 0.0017911964 0.00503007 -0.0038842773 -0.008496831 0.003938577 0.0006748564
0.0020842962 0.0035823619 0.0040239906 0.00052938866 -0.0022832262 0.0042246827 0.0024008374 -0.00553045
-0.0007349357 -0.000851611 -0.0005647197 -0.0009799268 0.0058032833 0.0025794136 -0.0037733214 0.0031287647
0.0019900785 0.0071253516 0.0033349928 -0.0018642251 0.003677369 -0.0049921097 -0.0045297956 8.783315e-05
-0.004365349 0.004780371 -0.0006346706 -0.007814696 0.0020744647 0.0019115929 -0.003478264 0.0052470784
0.0019401985 -0.00065101834 0.0040476336 0.0044553955 0.0015312918 -0.0017295545 0.004508327 0.0033734234
-0.0054675513 0.002247089 0.00045185492 -1.7634256e-05 0.003643959 0.002855373 0.0044414643 -0.003202522
0.002347386 0.0048110434 -0.0061371326 -0.0014031306 -0.0018374926 -0.00051988027 -0.0016918214 0.00072261324
-0.008178091 0.0063315122 -0.003735352 0.0031426915 0.003525535 0.005835754 -0.0027908057 0.0034007863
0.0047995145 0.005185565 -0.0062182704 0.004567685 0.0012507486 0.0034693547 -0.0013489523 -0.0056646117
-0.006604645 -0.0072295587 -0.0070939865 -0.0048271213 0.00290328 -0.00028805246 -0.005515549 0.00018973119
-0.00067061366 -0.0062496862 0.0047448357 -0.0039598416 0.005410045 0.0011444516 0.003240775 -0.002921715
-0.005481391 0.0042340914 0.0004552842 0.009876318 0.0012294428 -0.00230415 -0.0025158564 -0.00045966476
-0.0037080077 0.0017753099 -0.0038194116 -0.0027967733 -0.0016817763 0.0019279671 0.0028305678 -0.000109300694
-0.0062299804 0.010484638 0.00032563662 -0.0012338542 0.004562735 -0.0010853438 -0.0016307409 -0.002943512
0.000580103 0.0035536506 -0.002783096 0.001994654 -0.0035009314 -0.002588984 -0.008762242 -0.002420379
0.0074829794 0.0036409888 0.008073862 0.004659883 -0.0013610125 -0.00738166 0.001156523 0.0046035103
9.849572e-05 0.0039491667 -0.0008072067 -0.0047977925 -0.0060358318 -0.000594081 0.00733567 -0.0031693229
-0.0030913756 -0.00063740805 -0.0037568735 -0.0055926703 0.0014954022 0.005392121 0.0012550263 -0.0060106465
0.005895869 0.005741051 0.0017699816 0.0083058765 -0.0017985012 -4.1692438e-05 -0.004249568 -0.003866552
0.0046314816 -0.0041420483 -0.00041427577 0.0008076008 0.0012148139 0.0036706175 0.0039897263 0.006735514
-0.0019430992 0.0009353548 0.0022221962 -0.0073993225 0.0011900512 0.00027534022 0.0101400325 0.0054699886
0.000258894 -0.0025534972 0.0021326158 0.00081087876 0.0014213462 0.0065138396 -0.0046970914 -0.0050863596
0.0037604282 -0.0029828881 0.010137041 0.004989587 -0.0027308604 -0.0039154794 0.0037299565 -0.00458444
-0.0019764234 0.0047511533 -0.0029288528 -0.00053047587 0.0006084771 0.00708766 0.004805705 -0.001196745
0.0016509239 0.0023932722 -0.00018758318 0.002759117 0.0011477349 0.005872152 0.0011092401 0.0016856795
-0.00053520326 -0.002634671 -0.00082037935 -0.0007019268 0.0029145665 -0.007440527 -0.0043931585 -0.00013599829
-0.008258262 0.0014043056 0.007073564 0.0013141495 0.0034769305 -0.00046311994 0.0020547437 -0.0043976963

network_body._body_endoder.seq_layers.2.weight f4 [256, 256]
00000000: f7bb 183d bb3e 98bd e836 e3bc d913 983d
00000010: 47a6 6fbd f5f0 c73c 6400 70bd 1d7e 25bd
00000020: 09ec 793d 3bba 7cbd e33b fc3b 6657 833d
00000030: 2d0e 82bd 7512 56bd 0d26 a53b dd26 7bbd
00000040: faac a13c 00b2 9f3d 915d d93d bd58 e0bd
00000050: a8c3 bdbd 4f39 e23b 1593 79bd dbb2 453d
00000060: 90f5 7abd a18c 0b3c 611b 01be 73df dc3c
00000070: bb02 053a f4f7 5fbc 598c 28bc 8d7e a93b
00000080: 01ed a0bc da65 143d 135a c1bd fb22 8d3d
00000090: 46ca 203c 3e63 973d 473e 2fbd 9958 343b
000000a0: ee9f 803c 704d 69bd ddeb 043e cc2c 76bd
000000b0: 0a68 15bd 4642 f5bd 6abf 053d 7a59 dd3c
000000c0: 55dc 86bc 3805 0d3e dffe 83bd c312 cabb
000000d0: fce7 8d3d 6d46 98bd 33b1 ccbb 175b 8c3c
000000e0: 35bb 85bd 43fd 4dbd be7a 1b3d 4d56 acbd
000000f0: 7d93 033d a301 9cbc d61b 1e3d ba55 443c
00000100: 3b99 53bd 85c5 47bd 472e 973d 393e a43b
00000110: 744a bbbd 1b46 6dbd 5f36 803c 6568 32bc
00000120: 0cd3 a03c 4370 2a3d 25af 25bd 68aa 87bb
00000130: 1400 f43a e709 bc3d 68c9 14bd 9ac8 763d
00000140: fae5 fcbc f0a9 c3bd a331 ec3c d666 5fbc
00000150: 80f6 60bd e61d d53d 2b50 9ebd c205 96bc
00000160: 31a0 1ebc eca5 a0bc 1493 943d 1498 89bc
00000170: 8294 37bd 4d54 2bbd fafe 5a3d 214d 873d
00000180: 6126 1b3b f20c 2e3c 8c38 303c ab12 b83c
00000190: 6944 753d 063f 283e d023 8ebb e99a 25bd
000001a0: 5192 93bd 773c 1cbd 4a24 8ebd e5cc ef3c
000001b0: 095d 643d fec7 233e c351 2dbd 960e b63c
000001c0: 1497 60bc 1fdc e33b f8a7 f23c 2468 b0bd
000001d0: 5d72 d13d 9fa8 913b 2132 4a3d 46b1 753c
000001e0: f67a d0bc 014b 5fbd 0419 343d 79f2 2b3d
000001f0: bb5a 7c3c 05ce b43d f750 6d3b cc1f 8a3d
00000200: 6010 f63d ff4a 3ebd f37c 8abc 7776 963d
00000210: e693 a3bd aa9f 113d d5ec 06bd 0f9b a43c
00000220: 8bc0 543d 2b80 e1bd 87ef 9b3c 8e3e 0cbd
00000230: 8775 bb3b bda5 83bd b751 26bd fe16 64bd
00000240: 7cea b43d 7edc 023d 3f97 a53d 333d 1e3d
00000250: 6a2b 3b3d cc2b e13d 0275 9a3d 2ed8 a93c
00000260: e075 863c 6e40 03bd 67ac 913b 23ed 9d3d
00000270: 20b6 95bb f27a 203c d33f 8e3d ca3f 343c
00000280: 512a dcbd aa11 893d ba04 703c 4f4f c5bc
00000290: 7023 62bd 4af1 92bc 377a 323d eb69 593d
000002a0: aba9 df3c f3d4 9bbd 345f f13d 4a19 9e3c
000002b0: 9e21 aa3c 4ada 143e 7d87 92bc 1f3e d2bc
000002c0: 3dce 09bd 589f 873d d606 d23c 86ba 62bc
000002d0: ecaf a0bd 4ab9 4d3b a99a 483c 2127 3d3e
000002e0: 8ef3 fa3c bc49 1c3d 2e37 80bd d2fb 943d
000002f0: da37 943c 52e4 973d 259d 8fbd ddf2 8a3c
00000300: 3a19 88bc a4a9 053d 0b8e 5d3a 8807 8bbc
00000310: b8af 0dbd a399 e2bd cee7 52bd f35d 85bd
00000320: 0eb7 c1bc 5d81 f8bb 091d b73b cb21 bb3d
00000330: 30e1 cebd 0852 0cbd ddf6 2bbd dfba 86bd
00000340: f321 573d f570 aebc 2ecd 8e3c a9fb b5bd
00000350: 93dc d5bc c477 9bbd 9736 8c3a a819 083e
00000360: 262c 7f3d 427e a93d 63f9 633d 7c89 0f3d
00000370: f4c1 833d a8d8 c4bc f8c9 a5bd 36c8 893d
00000380: 24b9 d93c dbda 2cbc 3965 a43d 2739 8e3c
00000390: f49a 38bb 7c6d 1bbc c9a7 9e3d 0945 97bd
000003a0: fa2e 693d 4dbf f03b d6d8 3ebd ba0d e6bd
000003b0: dd30 513d 3ff7 a43d c04f ea3d 87ab 26bd
000003c0: 57d3 4abc fed0 6ebd e694 fcbc 5081 0dbe
000003d0: 2412 123d 30dd aa3d d5b9 973d a5d6 073c
000003e0: 82bc ed3c bb84 d93d a316 35bd d1e2 a23d
000003f0: bbba 18be 74fa 323d 3d85 63bc c625 55bd
0.037288632 -0.0743384 -0.027736142 0.07425661 -0.058508184 0.02440689 -0.058594123 -0.040403474
0.061016116 -0.06170104 0.0076975687 0.06413154 -0.0635036 -0.052263696 0.0050399364 -0.06131636
0.019735802 0.07797623 0.106135495 -0.109544255 -0.09265834 0.0069038044 -0.060931284 0.048266273
-0.061269343 0.008517415 -0.126081 0.026962018 0.0005073954 -0.0136699565 -0.010287368 0.0051725567
-0.019644262 0.036229946 -0.094410084 0.068914376 0.009813851 0.07391976 -0.042784 0.0027518629
0.01570126 -0.056958616 0.129806 -0.060101315 -0.036476173 -0.11975531 0.03265325 0.027020205
-0.016462484 0.13771522 -0.06445097 -0.0061667874 0.06929013 -0.07435308 -0.0062467097 0.017133279
-0.065298475 -0.050290357 0.037958853 -0.08414898 0.032123078 -0.01904375 0.038600765 0.011983329
-0.051659804 -0.048772354 0.073818736 0.0050123003 -0.0914506 -0.057928186 0.015650926 -0.010889147
0.019631885 0.041610967 -0.040450234 -0.004140187 0.0018615746 0.09181576 -0.03632489 0.060249902
-0.03087138 -0.095538974 0.028832262 -0.013635358 -0.05492258 0.10406093 -0.077301346 -0.018313292
-0.009681747 -0.019610368 0.072546154 -0.01679615 -0.044819362 -0.041828442 0.05346582 0.06606508
0.0023673999 0.010623204 0.010755669 0.02246984 0.059879694 0.16430292 -0.0043377653 -0.040430937
-0.07205642 -0.0381436 -0.06940515 0.029272506 0.055752788 0.1599426 -0.042314302 0.022223752
-0.013707895 0.0069537307 0.02962111 -0.08613613 0.10226891 0.00444515 0.049364213 0.014995879
-0.025449257 -0.05451489 0.04396917 0.041979287 0.015402491 0.088283576 0.003621159 0.06744346
0.12014842 -0.04645824 -0.016905284 0.07346814 -0.07987194 0.03555266 -0.032940704 0.020093469
0.051941436 -0.11010774 0.019035114 -0.034239344 0.0057207975 -0.064280964 -0.040605273 -0.05568599
0.08833787 0.03194856 0.080854885 0.038632583 0.0456957 0.10994682 0.07541849 0.020732965
0.016413629 -0.032043867 0.004445601 0.07711246 -0.00456883 0.009794937 0.06945767 0.011001537
-0.10750259 0.06692822 0.014649564 -0.024085669 -0.055209577 -0.017937321 0.043573584 0.053079527
0.027302584 -0.07608976 0.11785737 0.019299168 0.020767983 0.14536396 -0.017886871 -0.025664387
-0.03364395 0.06622189 0.025638025 -0.013838416 -0.078460544 0.0031390958 0.012243905 0.18471958
0.030633714 0.038156256 -0.06260525 0.072745934 0.018093038 0.074165955 -0.07012395 0.01696151
-0.016613591 0.032632485 0.0008451647 -0.016971365 -0.034591407 -0.1106446 -0.051490597 -0.0651206
-0.023646858 -0.0075837807 0.005588178 0.09137305 -0.10101545 -0.03425792 -0.041983474 -0.065786116
0.05252261 -0.021294096 0.017431822 -0.08885891 -0.026106155 -0.07591203 0.0010697421 0.13291037
0.062297963 0.08276035 0.055657756 0.035043225 0.06433478 -0.024029091 -0.08095163 0.0672764
0.02657754 -0.010550226 0.08027119 0.017361237 -0.002816853 -0.009486552 0.07746846 -0.07386214
0.056929566 0.0073470236 -0.04659351 -0.11233087 0.05107199 0.08054971 0.11440992 -0.040690925
-0.012379489 -0.05830478 -0.030832719 -0.1381886 0.03566183 0.083429694 0.074084915 0.008290921
0.029020552 0.106210195 -0.04421104 0.07953418 -0.14914982 0.043695882 -0.013886747 -0.052037977

network_body._body_endoder.seq_layers.2.bias f4 [256]
00000000: ff23 d2bb 08d7 e2ba 5776 843b 948e ad3b
00000010: b77b d7bb 0441 033a 1746 123b 39ad 2f3b
00000020: ddef 253b 76ca b63a 56b2 773b 2448 9e3b
00000030: c2db b33a 1720 03bc a02c 923b 3fdc 8339
00000040: d00a 30bb 89b2 97bb 429c 6a39 92cb 8c3b
00000050: dc14 90bb cdbc 683a d214 88bb 1ba0 51bb
00000060: 595f b53b 9039 993b be9e f6bb daa8 a63b
00000070: b61a 4a3b 39b0 e1ba 5680 2e3a 067e 61bb
00000080: 16b2 e4ba 89c3 18bb cfbf 933a 778e aa3b
00000090: 4dfb 1d3b 5a0c 443b 6f88 a8bb e948 fbbb
000000a0: 2ae0 5b3b 0f92 d63a 4645 073b cc27 983b
000000b0: 0dee c1bb c14b d1b9 1f2b 233b ddea f5ba
000000c0: 47fa 213b 0ea2 edba 8cfd ea3a 46b1 8b3b
000000d0: 6aba 6c3a b7c3 bbb8 8ab9 5dbb 0b80 8a39
000000e0: 04bf 1f3c 4621 a4ba 841c 703a 51ce d9ba
000000f0: ed4c cebb 426e 97bb f957 6d3a 4385 41bb
00000100: 3fcd 0dbb a98e 8f3a 29b5 d0bb 0d6e 693b
00000110: fb1d d139 cede 02bb 3818 ff3a cb39 e9ba
00000120: 60fa 123c 8e0e 2b3b aca1 613b 4781 ef39
00000130: 5298 4bbb 46d8 863b 7043 9d3b b4b6 eb3b
00000140: 74b1 51bb caad e5bb 967c 0dba c781 f9ba
00000150: ddae 28bb cf71 1d3b aae6 3b3b aa19 013b
00000160: c6a6 d7bb d1e8 14bb 6ab2 ab3b 7d0c ab3b
00000170: 9720 a83b f301 37bb efe6 d73a f49a 34ba
00000180: b623 273b 8006 a9ba af6a d33b abcb f8bb
00000190: 91b5 89bb de89 1fb9 323f 963a ae35 a7bb
000001a0: 877a 82ba c257 aa3a a91e 50ba 2d10 32bb
000001b0: 99fe d6bb 5672 673b d412 0abb 5622 aa3b
000001c0: df53 fe3a 9b9e c0b6 46c5 043c 4d88 433b
000001d0: 7bd2 0e3a b7a6 8eba bca8 cb3b a0b6 9cbb
000001e0: a2ce df3b 67de 173c b981 85bb f4df cebb
000001f0: d0b1 26bb 9f42 a43a 514b 8dba baef b9bb
00000200: ec03 173b 55fd b93b 1908 8f3b fcdd 3a3a
00000210: 3077 ecbb d7e2 70bb 6464 69bb fe1c 70bb
00000220: dcf4 a03a 0c29 31bb 9397 1a3a ae81 f33a
00000230: 0d9b 3d3b 3647 ba3b fe69 573a 62c7 2bba
00000240: b7f7 bbb9 c04b a1b9 b4b8 9c3b 3b46 e8b8
00000250: 9482 633b 8be7 3f3b c047 863b 1101 bc3a
00000260: 3f6f 45ba d9b4 75bb f767 0e3b 89ea 003c
00000270: 1627 6038 8f1b 31bb ef47 9bbb 3a5d 803b
00000280: 0d7b 0bbb 34d2 093b d9cb 1e3b 4084 a7b7
00000290: 1c9c a3bb d86b 8cbb 1915 7c39 9943 2c3b
000002a0: 036d 083b 764d a13a 9421 20bb bed2 beba
000002b0: 0f7c c5bb b2e4 acba a5fd 11bb 0486 77ba
000002c0: d438 263c 6e05 9d3b 88fc c9ba 48ef 233b
000002d0: 3425 47bb fe2a f7b9 dde4 83bb 3403 b93b
000002e0: 6e5d 833b e5fa 403a 00da c2bb de58 023b
000002f0: 0deb 843b c640 5c3b dd78 57bb 4559 41bb
00000300: b617 18ba 7e1e 9c3b 08e7 85bb 45f1 1a3b
00000310: 559f 6a3a cf27 7bba f577 31bb 8be3 81bb
00000320: 09f3 79bb 4749 d53b c2b8 663b a6c1 3bbb
00000330: 1cd1 583b 1060 ef3b 2563 c13a 40d9 b43b
00000340: e9c1 173c 7e5e ad3b e617 093c d4c9 0a3a
00000350: 4fda 033c 4eab 0abb 10db 1ebb 18a3 d6bb
00000360: 4908 dd38 81d1 50bb daaf 033a 3b0e 86bb
00000370: 4ca0 f33b 875a 853a c3e8 59bb e5fd d73b
00000380: 43b0 92bb 2bda cc3a 7d8c a93b c8ba bdba
00000390: 992f 80bb 5248 ccb9 0af4 aebb 4b92 843a
000003a0: 878c 99bb 309b f7ba cc73 44b9 7887 743b
000003b0: 5f81 4ebb 40b1 00bb cc7f f7bb 9c19 c6bb
000003c0: 1b38 0a3a 6c11 943a 5716 e037 a648 2fbb
000003d0: 8399 0f39 5fed a8b7 ef11 40bb 7bc8 a23a
000003e0: 782b 58bb 1dd6 5d3b d13e ae3a a97b 643b
000003f0: 39fe 4a37 89b5 87bb 2bb1 963b aeec 1ebc
-0.0064129825 -0.0017306516 0.0040424275 0.0052965377 -0.0065760273 0.00050069415 0.0022319609 0.002680613
0.0025319972 0.0013945836 0.0037795505 0.004830377 0.0013722109 -0.008003256 0.004460886 0.00025150363
-0.0026861914 -0.0046294373 0.0002237419 0.0042967284 -0.004397018 0.0008878231 -0.0041528726 -0.00319863
0.005535048 0.0046760514 -0.0075262478 0.0050860466 0.0030838675 -0.0017218656 0.0006656697 -0.0034407391
-0.0017448093 -0.0023309907 0.0011272373 0.0052049714 0.0024106086 0.0029914589 -0.0051432173 -0.0076686037
0.003355036 0.0016370433 0.0020640655 0.004643416 -0.0059182704 -0.00039920027 0.0024897528 -0.0018762011
0.0024715827 -0.0018129961 0.0017928346 0.004263076 0.00090304634 -8.9533096e-05 -0.0033832514 0.0002641681
0.0097501315 -0.0012522123 0.00091595226 -0.0016617273 -0.0062957914 -0.004621298 0.00090539415 -0.0029528893
-0.0021637229 0.001095255 -0.006369252 0.0035618574 0.00039885924 -0.0019969228 0.0019462174 -0.0017793713
0.008970827 0.0026101205 0.003442864 0.0004568195 -0.0031066132 0.0041151373 0.004799299 0.007193411
-0.003199664 -0.0070092427 -0.0005397288 -0.0019035869 -0.0025738992 0.0024024134 0.0028671422 0.0019699135
-0.0065811602 -0.0022721777 0.0052397745 0.0052199946 0.005130838 -0.0027924746 0.0016472022 -0.0006889545
0.0025503463 -0.0012895614 0.0064519267 -0.0075926385 -0.0042025526 -0.00015214781 0.0011462925 -0.0051028347
-0.0009954729 0.0012996125 -0.0007939139 -0.0027170286 -0.006561112 0.0035315952 -0.0021068351 0.0051920814
0.0019403658 -5.74051e-06 0.008103674 0.002983588 0.0005448234 -0.0010883425 0.006215183 -0.004782513
0.0068300525 0.009269333 -0.004074302 -0.0063133184 -0.0025435574 0.0012532062 -0.0010779892 -0.0056743296
0.002304311 0.0056759515 0.004364979 0.0007128415 -0.0072163567 -0.00367563 -0.0035612816 -0.0036638374
0.0012280005 -0.0027032522 0.000589722 0.0018578076 0.0028931529 0.0056847585 0.0008217393 -0.00065528427
-0.0003585198 -0.0003076475 0.0047827605 -0.000110757035 0.0034715282 0.0029282297 0.0040979087 0.001434358
-0.00075315306 -0.0037491827 0.0021729448 0.007868418 5.3442163e-05 -0.0027024483 -0.0047387998 0.0039173635
-0.002128306 0.0021029832 0.002423039 -1.9969535e-05 -0.004992975 -0.004285317 0.00024040452 0.0026285409
0.002081693 0.001230641 -0.0024434077 -0.0014558656 -0.006026752 -0.0013190715 -0.0022276428 -0.0009442272
0.010145385 0.004791907 -0.0015410343 0.002501445 -0.0030387165 -0.00047143543 -0.0040250854 0.005646134
0.0040089404 0.0007361605 -0.005946398 0.0019889395 0.0040563405 0.0033607944 -0.0032878437 -0.0029502672
-0.0005801873 0.004764377 -0.004086379 0.0023642343 0.0008950134 -0.0009580822 -0.0027079557 -0.003963893
-0.0038139245 0.0065089795 0.003520534 -0.002864936 0.0033083623 0.0073051527 0.0014754279 0.0055190623
0.00926254 0.0052908054 0.008367514 0.0005294357 0.008047654 -0.0021159234 -0.0024239458 -0.006550204
0.000105396444 -0.0031863155 0.00050234573 -0.004091052 0.0074348804 0.0010174074 -0.003325031 0.006591546
-0.0044765784 0.0015628984 0.005174218 -0.0014475221 -0.003911924 -0.00038963795 -0.0053391503 0.00101144
-0.0046859416 -0.0018890854 -0.00018735154 0.003731219 -0.0031510217 -0.00196369 -0.0075530764 -0.0060455333
0.00052726426 0.0011296696 2.6713284e-05 -0.0026746183 0.0001369473 -2.0137695e-05 -0.0029307564 0.0012419367
-0.0032984894 0.0033849545 0.0013293867 0.0034863746 1.2099329e-05 -0.0041415137 0.004598757 -0.0096999835

action_model._continuous_distribution.log_sigma f4 [1, 6]
00000000: c544 d23b 8654 c238 e3cb 813c 6831 a8ba
00000010: 7337 313b 253e 233a
0.0064168894 9.2663846e-05 0.015844291 -0.0012832107 0.0027041107 0.0006227217

action_model._continuous_distribution.mu.weight f4 [6, 256]
00000000: 0f0b 6b3b 1e92 a9bc 1d2d 39bc 3607 32bc
00000010: 64da 843c 9fd9 34bc a1ca 8fbc 27a4 e9bb
00000020: 77cf 91bc a363 773c 1b5b d9bb 4cae 4aba
00000030: b94d f3bb 2535 bf3c eefa 323b 95ec aa3a
00000040: b1ea 02ba d310 823a 13d6 adbc 434d 353b
00000050: 2c81 df3c a84b f83c 18fe 343c d7fa 843b
00000060: 68a8 9fbc ae89 e63c 77ae e33c a112 e3bc
00000070: 8140 c7bc 4b4e c7bb 67dd a3bc b9f1 94bb
00000080: 7523 213c b30c 873a 999f 03bc 6e7c bcbc
00000090: 59b7 f2bb e8a8 17bc c0e3 e1b9 5871 8f3b
000000a0: a4d9 0ebb 7ab6 0e3d afa2 87bc 849d 2cbc
000000b0: 4540 babb 56ee 79bb 8065 a3bb bd48 f23c
000000c0: dac2 243c 3f9b 0ebc 4408 eebb 458e 493c
000000d0: 474f b43a fc96 6e3c a102 a63a 3139 b9bb
000000e0: 294d d63b 3c76 0e3c 0b4e 55bc 6d73 163c
000000f0: ecfb fdba 1397 38bc a251 0e3a cebb 0ebb
00000100: b479 8d3b fcf7 02bc f06f 0ebc ec69 73bc
00000110: 8ee9 27b9 13e3 f53b 4e30 d93c 4a33 143b
00000120: 26d3 a2bc b121 66bc 950e 9e3c ed8a aebc
00000130: f0e9 9f3c 33e4 f0ba 262d 89bb 9994 93bc
00000140: b82f 67bc f571 013c 93b5 a5bc 21f2 153b
00000150: 5be5 8a3c 1daf db3b 1b3c f4bb 8156 e43b
00000160: 400c ad3c 6453 133a 1196 993b 15cf 9bbb
00000170: 3893 87bb 4f3c c9bb f552 07bc 4997 2a3c
00000180: 6d2b 4c3c 5513 1f3c 0989 dbbc c140 caba
00000190: 2aa1 063a 2058 a13c 0f2a 84bc 3ceb c93b
000001a0: 6322 92bc 4242 dfbc 721c 74bc 8e4b f5ba
000001b0: 9aa4 fe3b 81e7 fdbb 3d71 963b 316e 133c
000001c0: afa8 a13b 72a6 94bb 5ed8 bc3b d04f b439
000001d0: a542 3fbc caab 5f3c cef7 4dbc a027 653c
000001e0: 9922 19bc 4868 26bc 9ad5 893c e8e3 0cbb
000001f0: 10be 12bc 2ba6 c7bb d0c1 913c 1f19 863c
00000200: 1409 0cbc f8f1 47ba 1564 f9bb 8499 52bc
00000210: a468 1e3b 56cc fc3b b182 9a3c cfec 363b
00000220: 4e6c 03bc ddbe 543c cbe7 5abc c5d2 99bb
00000230: 405a 55bc 6106 d2bc 5c05 d7bb db12 8b3c
00000240: a9ea 4b3c becf c7bc 606f deba e47d 8cbc
00000250: edc4 0dbc 1e36 79bc 240d 11bb c942 3b3b
00000260: d4f2 37bc 54f4 0ebb 5a35 21bc 79ac 5ebc
00000270: a020 26bb 0f57 073d 4eb9 3c3b 33fb 25bc
00000280: 6e47 453c 5b80 513c 4ae3 c3bb 6c34 50bc
00000290: dc2b 1e3c 4a0a a13c 464f a1bc 9dd0 03bb
000002a0: ba61 2cbc 7cc0 aeba 23c7 a83c 5f0e 053c
000002b0: 26b8 583c e085 2e38 5ac5 d2bb bfca 7dbc
000002c0: 4206 c2bc cb9d 673c d746 223c 6659 22bb
000002d0: 0291 893b 0df3 a83c 0039 5fbb 6947 bb3b
000002e0: badf c0bb 8674 733c 42d5 ec3c 9f33 3bbc
000002f0: b6b8 2c3b a943 b2bc 18b0 933b ff64 abbb
00000300: cfa5 083c 407d af3c bae1 3b3c 0ac0 bdbc
00000310: 5f01 43bc 93dc a13c 022b 02ba 4dce a1bc
00000320: fdfe faba dd6f 1dbc a2a5 4b3b 1628 d93b
00000330: b33f 86bc abd9 adbc 5186 083b 655e d2bb
00000340: 6984 f8bc 2dd7 93bb 626d a2bc a232 d9bb
00000350: bbcf e33b ead6 f23a f0db b53c 8e82 893c
00000360: 7c92 07bd e283 4b3c 1cb9 b4b9 7b07 0f3c
00000370: 4bfa 473c 2851 da3b 89f5 2b3b 3f83 5d3c
00000380: 77a4 a6bb f495 25bc 6f73 0aba ce1f a8bc
00000390: 19cf ebba e3a2 3abc 3fca e13b a841 003b
000003a0: ba23 a4bb 4b3e 723c f8ea 6c3b ef2a 40bc
000003b0: 8ba4 1d3c bf4f 39bc 667f bb3a 87a6 953a
000003c0: 0a45 7fbc 07a6 5bbb 50e2 d13a bfa6 8dbb
000003d0: b23e 3bbc a9c5 95bb d385 843b bf60 463c
000003e0: e7a0 d13b 6320 8ebc c62f de3b dcb5 c4bc
000003f0: 635f ea3c 0e8e bd3b b7d1 9d3c 9b27 003b
0.0035864746 -0.020699557 -0.01130226 -0.010865977 0.016217418 -0.011038213 -0.017552676 -0.007130164
-0.017799122 0.015099439 -0.006633175 -0.0007731661 -0.0074250367 0.023340771 0.002731021 0.0013040478
-0.0004994078 0.0009923227 -0.021220243 0.002766446 0.027283274 0.030309513 0.011046909 0.0040582228
-0.019489482 0.028141823 0.027793152 -0.027718844 -0.02432275 -0.0060823313 -0.020003034 -0.004545417
0.009835114 0.0010303467 -0.0080336565 -0.023008551 -0.0074071107 -0.009256579 -0.0004308503 0.0043775253
-0.0021797204 0.034841992 -0.016557066 -0.0105356015 -0.005683931 -0.0038136444 -0.004986465 0.0295757
0.010056222 -0.008704006 -0.007264169 0.012301986 0.0013756537 0.014562365 0.0012665578 -0.0056525697
0.00653996 0.008695181 -0.013019095 0.009182793 -0.0019377447 -0.011266488 0.00054290344 -0.002177942
0.0043174867 -0.007993694 -0.00869368 -0.014856797 -0.00016013367 0.007503876 0.026512291 0.0022613578
-0.019876074 -0.014046119 0.019294063 -0.02130648 0.01952073 -0.0018378556 -0.0041862903 -0.018015193
-0.014110498 0.007900705 -0.020228183 0.0022879916 0.016955068 0.0067042247 -0.007453454 0.00696832
0.021124005 0.0005620031 0.0046870788 -0.0047549107 -0.004137423 -0.0061412225 -0.008259525 0.010412046
0.012461525 0.009709199 -0.026798742 -0.0015430675 0.00051357097 0.019695342 -0.016133336 0.0061620753
-0.017838662 -0.027253274 -0.01489936 -0.0018714534 0.007771087 -0.0077485447 0.004591136 0.00899844
0.0049334387 -0.0045364434 0.0057630977 0.0003439174 -0.011673604 0.013651798 -0.012571288 0.013986498
-0.009346628 -0.0101566985 0.016825486 -0.0021498147 -0.008956447 -0.006092807 0.017792612 0.0163694
-0.008547086 -0.0007627304 -0.0076108077 -0.012853984 0.0024171257 0.0077147884 0.018861147 0.0027912145
-0.008021427 0.0129849585 -0.013360928 -0.004694315 -0.013022006 -0.025637807 -0.006561918 0.016976764
0.012446084 -0.024391051 -0.0016970448 -0.017149873 -0.008652908 -0.015210656 -0.0022133077 0.0028573743
-0.011227328 -0.0021813111 -0.00983938 -0.013590925 -0.0025349036 0.03304201 0.0028796974 -0.010130691
0.012040956 0.01278695 -0.0059780227 -0.012707811 0.009654012 0.019658227 -0.01969112 -0.0020113357
-0.010521347 -0.0013332511 0.020602768 0.008121102 0.013227498 4.1609514e-05 -0.0064322175 -0.015490233
-0.023684625 0.014136742 0.009904585 -0.0024772524 0.0041981945 0.020623708 -0.0034061074 0.0057153
-0.0058860453 0.014859324 0.028910283 -0.011425882 0.0026355213 -0.021760779 0.004507076 -0.0052305455
0.008340313 0.021422029 0.011467392 -0.02316286 -0.011902182 0.019758498 -0.0004965515 -0.019751692
-0.0019149479 -0.00960919 0.0031074067 0.006627093 -0.016387796 -0.021221956 0.0020832012 -0.006419944
-0.030336576 -0.004511735 -0.019827548 -0.0066283504 0.0069522536 0.0018527184 0.022199601 0.016785886
-0.033098683 0.01242158 -0.00034470193 0.008729811 0.012205671 0.0066625066 0.002623888 0.013520061
-0.0050855237 -0.010106552 -0.0005281483 -0.020522978 -0.0017990797 -0.011391374 0.0068905647 0.0019570384
-0.0050091418 0.01478536 0.0036150794 -0.011728986 0.00962175 -0.011310517 0.0014304935 0.0011417427
-0.015580425 -0.0033515708 0.0016012881 -0.004322856 -0.011428522 -0.004570682 0.0040442734 0.012108027
0.006397355 -0.017349428 0.0067805974 -0.024012499 0.028609937 0.0057847565 0.019265039 0.0019554857

action_model._continuous_distribution.mu.bias f4 [6]
00000000: 222b 6ebb 174f a03a 2db9 eebb 8c93 55bb
00000010: 4f77 64bb 4f4d 373b
-0.0036341627 0.0012230602 -0.0072852583 -0.0032589165 -0.0034861153 0.0027969663

onnx::Div_71 f4 [100]
00000000: ecdc 513e c90c 7d3d 4a4f ce3c d766 293e
00000010: 9c92 503e f107 863d 3f76 d93c 1ad3 293e
00000020: 57ee 523e 1c10 683d bc86 c63c 06bc 293e
00000030: 50a2 4d3e d21e 873d 6533 ee3c 751e 293e
00000040: 5a85 543e b781 563d 9f74 ca3c eedd 293e
00000050: eec0 4c3e bcbd 8b3d 35df ea3c 3cff 293e
00000060: 59bb 543e 2aa9 643d 996c be3c 8a83 2a3e
00000070: cd56 483e 2b65 863d b97e e73c ef72 293e
00000080: 12d3 523e a0ab 543d 996c be3c d83f 2b3e
00000090: 42a8 453e cda0 893d cf0d dd3c d7f9 283e
000000a0: 7e4a 523e e859 463d fcf5 b53c 9ea4 2b3e
000000b0: 6425 473e 1436 903d 3f76 d93c e942 2a3e
000000c0: d124 533e 503b 593d 4d4f ce3c 19c1 2b3e
000000d0: 708b 473e 56df 8f3d 3d76 d93c 861a 2a3e
000000e0: 56bb 543e 2884 653d 9e74 ca3c 3764 2c3e
000000f0: 2951 473e 0e56 8a3d 30cf d53c 602b 2a3e
00000100: 3a85 553e 9837 673d 4a4f ce3c 7c0e 2c3e
00000110: bccd 463e 20b5 823d 484f ce3c d34c 2b3e
00000120: f030 573e d25d 783d 2fcf d53c 419f 2b3e
00000130: b694 423e d964 743d 3d76 d93c d1e7 293e
00000140: f130 573e 2ea9 643d ba86 c63c f0e8 2a3e
00000150: 8c1c 423e 4b6a 6b3d cf0d dd3c 63bd 293e
00000160: fd41 593e 1eb8 7a3d a33d ba3c 87ed 2a3e
00000170: 79fe 413e 7b71 803d 2ecf d53c 53fc 283e
00000180: 8b89 5a3e 03f0 793d 7e84 c23c a921 293e
0.20494431 0.06177977 0.025184292 0.16543137 0.20368427 0.065444835 0.026545642 0.16584435
0.20598732 0.056655988 0.024234168 0.16575631 0.20081449 0.065976754 0.029077241 0.16515525
0.20753995 0.0523698 0.024713812 0.16588566 0.19995472 0.06823298 0.028670887 0.1660127
0.20774592 0.05582539 0.023245143 0.1665174 0.19564362 0.06562265 0.028258668 0.1654775
0.2058833 0.051921487 0.023245143 0.16723573 0.19302467 0.067201234 0.026984124 0.16501556
0.20536229 0.048425585 0.022212021 0.16762015 0.19447857 0.070415646 0.026545642 0.16627087
0.20619513 0.05303508 0.025184298 0.1677288 0.19486785 0.0702502 0.026545638 0.1661168
0.20774588 0.056034237 0.02471381 0.16835104 0.19464554 0.06754695 0.026099771 0.16618109
0.20851603 0.056449503 0.025184292 0.168024 0.19414419 0.06382203 0.025184289 0.16728525
0.21014762 0.06063635 0.02609977 0.1675997 0.19002041 0.05966649 0.026545638 0.16592337
0.21014763 0.055825405 0.024234165 0.16690421 0.18956202 0.057474416 0.026984124 0.16576152
0.21216579 0.061210744 0.022734469 0.16692172 0.1894473 0.06271645 0.026099768 0.16502504
0.21341531 0.06101991 0.023744818 0.16516747

onnx::Div_74 f4 [52]
00000000: 6baf ff3e 4881 1d3d c8b3 513e 27ca 7a3e
00000010: 48b3 ff3e aa6b 223d 2e81 523e a519 7b3e
00000020: 97ac ff3e b034 213d a2ea 513e 78c3 7a3e
00000030: a6c1 ff3e d873 313d bd13 523e 475d 7b3e
00000040: 8db5 ff3e 186e 183d 09a6 513e e656 7a3e
00000050: 6ece ff3e d873 313d 6ce5 503e adaf 7b3e
00000060: 9eb7 ff3e 7740 1c3d fd00 513e 0cef 7a3e
00000070: f7d9 ff3e 7dd3 353d d4c9 503e 5ce6 7b3e
00000080: 69ba ff3e 07fd 1a3d 948a 513e d0ba 7b3e
00000090: a5e1 ff3e 7e52 403d 5861 513e 9b57 7c3e
000000a0: e8c1 ff3e e5d3 153d 3217 533e 3597 7c3e
000000b0: 36f2 ff3e fc25 3b3d 7c9c 523e f1c8 7c3e
000000c0: 6acb ff3e 136e 183d da92 543e 425b 7d3e
0.4993852 0.03845337 0.20478737 0.24491177 0.49941468 0.039653458 0.2055709 0.24521501
0.49936363 0.039356887 0.20499662 0.24488628 0.4995243 0.043323368 0.20515342 0.24547301
0.499432 0.03721437 0.20473494 0.24447212 0.4996218 0.043323368 0.20400017 0.24578734
0.49944776 0.038147416 0.20410533 0.24505252 0.4997098 0.044391144 0.20389491 0.24599594
0.49946907 0.037838962 0.2046302 0.24582982 0.4997684 0.04695367 0.2044729 0.24642794
0.49952626 0.03657903 0.20614317 0.24667056 0.4998948 0.04569052 0.20567507 0.24686028
0.4995988 0.03721435 0.20759144 0.24741843

onnx::Div_77 f4 [9]
00000000: 7b51 8241 730a be3f 8577 df40 c74e 883f
00000010: fef6 ff3e 1970 b43e 3212 603f a480 a93d
00000020: 8162 5c3f
16.289785 1.4846939 6.98334 1.0649041 0.49993128 0.35241774 0.87527764 0.082764894
0.86087805
