Assets/results/5/CoinChaser/CoinChaser-116578.onnx (onnx, 443643 bytes, 13 tensors)

network_body.observation_encoder.processors.0.normalizer.running_mean f4 [100]
0	0x3f74685a	0.9547173
1	0x3b4ca04d	0.0031223476
2	0x3a511f9d	0.0007977428
3	0x3e49a4c7	0.19691764
4	0x3f74d7a4	0.9564154
5	0x3b57de8b	0.0032939042
6	0x3a5a1e32	0.00083205395
7	0x3e4a8864	0.19778591
8	0x3f741a3f	0.9535255
9	0x3b4fffb2	0.00317381
10	0x3a5a1e31	0.0008320539
11	0x3e48da82	0.19614604
12	0x3f754039	0.9580112
13	0x3b57de88	0.0032939035
14	0x3a679c1c	0.0008835213
15	0x3e4bf5ec	0.1991803
16	0x3f742606	0.9537052
17	0x3b3b3302	0.0028564339
18	0x3a5a1e33	0.000832054
19	0x3e488b50	0.19584394
20	0x3f75bd93	0.9599239
21	0x3b470123	0.0030365668
22	0x3a5a1e2f	0.0008320538
23	0x3e4d4b12	0.20048168
24	0x3f744a08	0.9542546
25	0x3b4f6fdc	0.0031652367
26	0x3a60dd23	0.0008577874
27	0x3e486d8c	0.19573039
28	0x3f7601a3	0.9609625
29	0x3b37d380	0.0028049648
30	0x3a5c5dd0	0.0008406313
31	0x3e4e9cc2	0.20176986
32	0x3f747789	0.95494896
33	0x3b4c105b	0.0031137678
34	0x3a5c5dd9	0.00084063184
35	0x3e48c4db	0.19606344
36	0x3f762860	0.9615536
37	0x3b36b3ae	0.0027878094
38	0x3a57de88	0.0008234759
39	0x3e4f7467	0.20259248
40	0x3f74ca2e	0.95621
41	0x3b47012a	0.0030365684
42	0x3a5e9d78	0.00084920926
43	0x3e496d8c	0.19670695
44	0x3f7670e2	0.96265996
45	0x3b40d21d	0.0029422112
46	0x3a4820fb	0.0007634309
47	0x3e506854	0.20352298
48	0x3f750146	0.9570507
49	0x3b56beba	0.003276749
50	0x3a631cd0	0.0008663656
51	0x3e4a2259	0.19739665
52	0x3f767562	0.9627286
53	0x3b470130	0.0030365698
54	0x3a511f92	0.00079774216
55	0x3e50f549	0.20406069
56	0x3f751224	0.95730805
57	0x3b6b8b85	0.0035941314
58	0x3a5a1e33	0.000832054
59	0x3e4a4348	0.19752228
60	0x3f768800	0.9630127
61	0x3b48b0df	0.0030623002
62	0x3a5c5dcb	0.000840631
63	0x3e516b6e	0.20451137
64	0x3f752da6	0.9577278
65	0x3b802c22	0.003911511
66	0x3a535f36	0.0008063199
67	0x3e4a1255	0.19733556
68	0x3f76c894	0.9639981
69	0x3b4af090	0.003096614
70	0x3a4ca047	0.00078058656
71	0x3e523f7e	0.20532033
72	0x3f7564c8	0.95856905
73	0x3b82b3bc	0.003988711
74	0x3a45e150	0.0007548528
75	0x3e4994a6	0.19685611
76	0x3f76effe	0.9645995
77	0x3b4af083	0.003096611
78	0x3a3ce2b7	0.0007205414
79	0x3e529080	0.20562935
80	0x3f75748a	0.9588095
81	0x3b7cf8cc	0.0038600443
82	0x3a43a1aa	0.00074627495
83	0x3e497728	0.19674361
84	0x3f777143	0.966572
85	0x3b311486	0.002702029
86	0x3a4820f7	0.00076343067
87	0x3e532514	0.20619613
88	0x3f755869	0.9583803
89	0x3b89baaa	0.0042031603
90	0x3a4820fa	0.00076343084
91	0x3e49383b	0.19650356
92	0x3f776f91	0.9665461
93	0x3b38636d	0.0028135434
94	0x3a3f225b	0.0007291191
95	0x3e537088	0.20648396
96	0x3f7588c2	0.959118
97	0x3b86a31d	0.0041088
98	0x3a416202	0.000737697
99	0x3e48df21	0.19616367

network_body.observation_encoder.processors.1.normalizer.running_mean f4 [52]
0	0x3ef4d0ed	0.47815648
1	0x3a91097b	0.0011065447
2	0x3d129545	0.035786886
3	0x3ea1d5d7	0.3160846
4	0x3ef4967c	0.4777106
5	0x3a9468fe	0.0011322794
6	0x3d136d21	0.035992745
7	0x3ea24e82	0.31700522
8	0x3ef56314	0.47927153
9	0x3a9468fc	0.0011322792
10	0x3d123255	0.03569253
11	0x3ea1bcb1	0.31589273
12	0x3ef4e88d	0.47833672
13	0x3a97c876	0.0011580128
14	0x3d146903	0.03623296
15	0x3ea2e07d	0.31811896
16	0x3ef66c66	0.48129576
17	0x3a8b6a62	0.0010636563
18	0x3d11a26c	0.03555529
19	0x3ea1afaf	0.31579348
20	0x3ef51b19	0.47872236
21	0x3a97c880	0.0011580139
22	0x3d15a3cb	0.03653316
23	0x3ea3ab71	0.31966737
24	0x3ef75be9	0.4831231
25	0x3a8daa08	0.001080812
26	0x3d145fff	0.03622436
27	0x3ea1e42e	0.316194
28	0x3ef5870b	0.47954592
29	0x3a9b27ef	0.0011837463
30	0x3d16e797	0.036841955
31	0x3ea4858d	0.3213314
32	0x3ef8d6c2	0.48601347
33	0x3a838b9d	0.0010036115
34	0x3d1606bc	0.036627516
35	0x3ea24ef8	0.31700873
36	0x3ef5e33c	0.4802493
37	0x3a98e853	0.0011665918
38	0x3d196f34	0.037459567
39	0x3ea5a111	0.32349446
40	0x3efa6caa	0.4891103
41	0x3a8daa0a	0.0010808122
42	0x3d15fdba	0.036618926
43	0x3ea2c4c4	0.31790745
44	0x3ef72cb1	0.48276284
45	0x3a8a4a8f	0.0010550785
46	0x3d1b1eea	0.03787128
47	0x3ea6a990	0.3255124
48	0x3efc6106	0.49292773
49	0x3a97c877	0.0011580129
50	0x3d179280	0.037004948
51	0x3ea34a2d	0.3189253

network_body.observation_encoder.processors.2.normalizer.running_mean f4 [9]
0	0x3f9c2c10	1.2200947
1	0x4019b778	2.401823
2	0x3ef7c150	0.48389673
3	0x3f521e31	0.8207732
4	0x3ed4ef74	0.41588938
5	0x3f5a82d0	0.85355854
6	0x393da9e6	0.00018087737
7	0x3cc20e3d	0.02368843
8	0x3c91db3d	0.017804736

network_body._body_endoder.seq_layers.0.weight f4 [256, 161]
0	0xbda5f097	-0.081025295
1	0x3d18b992	0.03728635
2	0x3c9a1e17	0.018813176
3	0x3bfd275d	0.0077256397
4	0x3db17592	0.08665003
5	0xbd4961c3	-0.0491655
6	0xbccac779	-0.02475332
7	0xbc97dc94	-0.018537797
8	0x3c909c9c	0.017652802
9	0x3de5ff97	0.112303905
10	0xbe21946f	-0.15779279
11	0x3c3189b7	0.010836056
12	0xbc8741c4	-0.016510852
13	0xbd5bd08a	-0.053665675
14	0xbd18b804	-0.037284866
15	0xbd0e328a	-0.034716167
16	0x3c1b6c57	0.009486279
17	0xbd44ea4d	-0.04807501
18	0x3d5de9da	0.054178096
19	0xbba31ac2	-0.004977555
20	0x3d704c5e	0.05866658
21	0x3d1b199d	0.037866224
22	0xbe36ac27	-0.17839108
23	0x3d01222c	0.03152673
24	0x3d1d0c09	0.038341556
25	0x3d4b59b3	0.04964609
26	0x3ca64e19	0.020300912
27	0xbd4936cc	-0.049124524
28	0x3dbe5da4	0.09295204
29	0x3e0901d6	0.13379607
30	0x3daaaa28	0.08333236
31	0x3beba6fa	0.007191536
32	0xbc4dd29d	-0.012562421
33	0x3c292249	0.010323116
34	0x3d737246	0.05943515
35	0xbcfcc008	-0.030853286
36	0x3db82f3f	0.089933865
37	0x3be5d3ea	0.0070137875
38	0x3ca3acc4	0.019979842
39	0x3cb35fd5	0.021896282
40	0xbde0f41a	-0.10984059
41	0x3c0e3870	0.008680448
42	0x3cb00dd4	0.021490969
43	0x3bd274a5	0.0064225965
44	0xbc96edc6	-0.018423926
45	0x3d198a67	0.037485506
46	0xbd853189	-0.06503589
47	0xbc5b883f	-0.013399183
48	0x3c2850d7	0.01027318
49	0x3e045709	0.12923826
50	0x3d14ea0f	0.03635603
51	0xbc71b261	-0.0147520015
52	0x3dca8679	0.0988893
53	0xbcf3a39d	-0.029741103
54	0xbdc807c2	-0.09767105
55	0x3bf67ed3	0.007522443
56	0x3d82351b	0.06357785
57	0xbd1ac905	-0.037789363
58	0xbdb9916f	-0.090609424
59	0x3cc2e21e	0.023789462
60	0xbdbbeb27	-0.09175711
61	0x3dacd2d4	0.0843865
62	0x3c6b3ddd	0.014358011
63	0xbbaf7d0f	-0.0053554843
64	0x3b619098	0.003441846
65	0xbacb15ec	-0.0015494204
66	0xbd50008c	-0.05078177
67	0x3c32d684	0.010915402
68	0x3d857ae5	0.06517581
69	0xbe0a9141	-0.13531972
70	0xbd8d3f72	-0.06896867
71	0x3d7824b2	0.06058187
72	0x3c194080	0.009353757
73	0x3d9ca8ff	0.07649421
74	0xbe0a1496	-0.13484415
75	0xbd3cb9e8	-0.04607573
76	0xbda2abe4	-0.07942942
77	0xbd0e98b5	-0.0348136
78	0x3d669710	0.05629641
79	0x3c3838b1	0.011243985
80	0x3d592275	0.053011376
81	0xbdd7c9dd	-0.10536549
82	0x3d8bd45b	0.06827613
83	0x3e09723f	0.13422488
84	0xbad5b6ae	-0.0016305053
85	0xbd212b02	-0.039347656
86	0xbcc7e615	-0.024401704
87	0xbc4c2f02	-0.012462379
88	0x3dafb6b9	0.085797735
89	0x3cd72161	0.026261033
90	0xbd253727	-0.0403358
91	0x3e645784	0.2229901
92	0x3d4137d4	0.047172382
93	0x3d972a45	0.07381109
94	0x3d5457ef	0.051841673
95	0xbde97717	-0.11399668
96	0xbdcd9e1d	-0.10039923
97	0x3addcddb	0.0016922312
98	0xbdb9a77f	-0.090651505
99	0x3e22f012	0.15911892
100	0xbd4359d6	-0.047693096
101	0x3d904ab4	0.070454985
102	0xbdab80c2	-0.08374168
103	0xbde15f04	-0.11004451
104	0xbd35cfe5	-0.044387717
105	0xbd8bf460	-0.0683372
106	0xbceb5e28	-0.02873142
107	0xbdfdd271	-0.12393654
108	0x3dfe6e18	0.124233425
109	0xbccbf0a9	-0.02489503
110	0xbdd134cf	-0.102151506
111	0xbcc0d9b7	-0.023541315
112	0x3d8b9d7b	0.068171464
113	0xbd5b91b2	-0.053605743
114	0x3c712097	0.014717243
115	0x3d70f581	0.05882788
116	0xba17d6ef	-0.00057922205
117	0x3cfe5312	0.03104547
118	0x3dc3beee	0.09557901
119	0xbdd59ce1	-0.10430313
120	0xbc8fec2e	-0.017568674
121	0x3d63acf4	0.055584863
122	0xbd9fbbb2	-0.07799472
123	0x3d18cc32	0.03730411
124	0x3c545383	0.012959364
125	0x3d471ac8	0.048609525
126	0xbdabca12	-0.08388151
127	0xbdee5988	-0.116381705
128	0xbd8a139b	-0.06742021
129	0x3d36ec72	0.044659086
130	0x3cc5c5ab	0.024142107
131	0xbd229d4f	-0.039700802
132	0x3d2da5f9	0.042394612
133	0xbd1172e3	-0.035509955
134	0x3cbdec07	0.023183836
135	0xbd2af574	-0.04173799
136	0xbc963f3d	-0.018340701
137	0x3de96fc3	0.1139827
138	0xbdb2a50e	-0.08722888
139	0x3c5748ab	0.013139884
140	0xbdd6783c	-0.10472152
141	0xbdb33e54	-0.087521225
142	0x3da2a7fd	0.079421975
143	0x3c50762f	0.01272349
144	0x3df4f544	0.11960843
145	0x3d0d3754	0.034476593
146	0xbd93f973	-0.07225313
147	0xbbed006f	-0.0072327177
148	0x3d0c085b	0.034187656
149	0x3d9a59a4	0.07536629
150	0x3d498a5d	0.04920422
151	0xbdf795e0	-0.12089133
152	0x3c6a0fd3	0.014285999
153	0xbd25b54b	-0.040456098
154	0x3d012f2b	0.031539124
155	0x3dcddaf5	0.10051528
156	0x3dc62dd7	0.09676712
157	0xbd699503	-0.057026874
158	0xbd8711f3	-0.065952204
159	0xbe12a3b5	-0.14320262
160	0xbd5a3652	-0.05327446
161	0x3da1df03	0.07903864
162	0xbd88a277	-0.06671613
163	0xbe05f40d	-0.13081379
164	0xbcfd8ba2	-0.030950371
165	0xbe1360c7	-0.14392386
166	0x3ded9125	0.1159995
167	0x3d0fb34d	0.035083104
168	0xbca1f700	-0.0197711
169	0xbda6c1b1	-0.081424125
170	0xbd91624f	-0.07098829
171	0x3d191761	0.03737581
172	0xbd98eb9b	-0.07466813
173	0x3d8be5b7	0.06830924
174	0xbd7592e5	-0.059954543
175	0xbc42b58b	-0.0118841035
176	0xbe33217b	-0.1749324
177	0x3dbcfcbf	0.09227895
178	0xbe22e940	-0.1590929
179	0xbbf91361	-0.007601187
180	0xbd9d34d0	-0.07676089
181	0xbd803fc3	-0.062621616
182	0x3de0a85f	0.10969614
183	0x3e37258a	0.17885414
184	0x3da96472	0.082711115
185	0x3d583e42	0.05279375
186	0xbddb41e0	-0.10705924
187	0xbb03f334	-0.0020133974
188	0xbbb2ddc4	-0.0054585654
189	0xbdd956ae	-0.10612236
190	0xbdafe062	-0.085877195
191	0x3d8047a3	0.062636636
192	0x3db3b1da	0.08774157
193	0x3c7d998c	0.015478503
194	0x3dab33d4	0.08359495
195	0xbd7993c3	-0.060931932
196	0x3d81365d	0.06309197
197	0x3e13bede	0.14428279
198	0x3de80c32	0.11330451
199	0xbc9940b2	-0.018707607
200	0xbe1052ba	-0.14094058
201	0x3d653273	0.055956315
202	0x3c26cddd	0.010180918
203	0x3d64ff80	0.055907726
204	0x3c33d86c	0.010976892
205	0xbd210362	-0.039309867
206	0x3d195729	0.037436638
207	0x3db30e6f	0.08742987
208	0x3df890d2	0.12136997
209	0xbd2b0e2b	-0.04176156
210	0x3dd1a888	0.10237223
211	0x3d5a9088	0.053360492
212	0xbd9bdc32	-0.07610358
213	0xbd816e69	-0.06319887
214	0x3c35d3d6	0.011097869
215	0x3da1378e	0.07871924
216	0x3ddaeafe	0.106893525
217	0x3d8a81bb	0.067630254
218	0x3e0b14fa	0.1358222
219	0x3ad2c62a	0.0016080786
220	0x3d8cba76	0.06871502
221	0xbc57b798	-0.013166331
222	0xbbda21d4	-0.0066568647
223	0x3b03183f	0.0020003465
224	0xbc1b0a0a	-0.009462843
225	0xbd5480cf	-0.051880654
226	0x3d091610	0.033468306
227	0x3d526c73	0.051372956
228	0xbcdc1d6d	-0.0268695
229	0x3d837b37	0.06419986
230	0xbc61cd3e	-0.013781844
231	0x3db885b0	0.09009874
232	0xbde5e8f0	-0.1122607
233	0xbd891cbe	-0.06694935
234	0xbc98f22a	-0.01867016
235	0x3bf9b35a	0.0076202573
236	0xbd145141	-0.036210302
237	0xb98b7bc1	-0.0002660435
238	0xbd0f5a69	-0.03499833
239	0xbe067701	-0.13131334
240	0xbd82ea76	-0.06392376
241	0x3ce486ef	0.027896373
242	0xbd6ec1a7	-0.05829015
243	0x3e2c6054	0.16833621
244	0x3d443daa	0.04791037
245	0x3e2301b8	0.15918624
246	0x3c58cdc2	0.01323265
247	0x3e2a0dd5	0.16606839
248	0x3bf46bbf	0.0074591334
249	0xbde1e406	-0.1102982
250	0xbe296503	-0.16542439
251	0x3d007f4b	0.031371396
252	0xbd168e9f	-0.036757108
253	0xbb027cb1	-0.0019910748
254	0x3e0aa4b9	0.13539399
255	0xbe0bbc08	-0.13645947

network_body._body_endoder.seq_layers.0.bias f4 [256]
0	0xbad52ceb	-0.0016263997
1	0xbb9c3ba6	-0.004767853
2	0x3b873064	0.0041256417
3	0x398990a8	0.00026238454
4	0xba14592d	-0.000565904
5	0x3c056f30	0.008144185
6	0x3b1c6d23	0.0023868761
7	0x3c0984b5	0.008393456
8	0x3b4251f5	0.00296509
9	0x3a2d233d	0.0006604677
10	0x3c32d2ce	0.010914518
11	0xbaeabf4b	-0.0017909793
12	0x39cc290c	0.00038940494
13	0xbb8faef3	-0.0043848692
14	0x3b8bdce4	0.0042682756
15	0xbc190cca	-0.009341428
16	0xbb1a549c	-0.0023548966
17	0x3b4da93c	0.003138139
18	0x3c0b41c3	0.0084995655
19	0x3ae5694c	0.0017502694
20	0xbb6b2900	-0.0035882592
21	0x3b807f18	0.0039214008
22	0xbacbafd3	-0.0015540071
23	0x3b3cc8b8	0.002880616
24	0x3ac6417d	0.0015125718
25	0x3bb1cbbe	0.0054258993
26	0x3afd8f87	0.0019345143
27	0xbb80c9c4	-0.0039303023
28	0x3ba67600	0.0050799847
29	0xbb2939c2	-0.002582178
30	0x3beb295b	0.007176561
31	0x3bdb35ed	0.006689778
32	0xbbee77c5	-0.0072774612
33	0x3b93f2aa	0.004515012
34	0x3b738a76	0.0037161387
35	0xbb4c3c7d	-0.0031163984
36	0x3c36202c	0.011116069
37	0x3c0d3b9e	0.008620171
38	0x3ac3b4b5	0.0014931174
39	0x3928f1e7	0.00016111844
40	0xbac6451a	-0.0015126795
41	0xbb96b578	-0.0045992695
42	0xbb1db75a	-0.0024065585
43	0xb98b467f	-0.0002656467
44	0x3b8b97c0	0.0042600334
45	0x3bae94ad	0.005327782
46	0x3b4a54b8	0.003087325
47	0x3c0adde0	0.008475751
48	0xbb78ecf7	-0.003798304
49	0xbb4abb95	-0.0030934562
50	0x3b076dfc	0.002066492
51	0xbb76cb31	-0.0037657733
52	0x3ba43404	0.0050110836
53	0x3a94cfae	0.0011353397
54	0x3be63c44	0.007026227
55	0x3c1ccb3d	0.00956994
56	0xbb0a1566	-0.0021069883
57	0xbc30a32d	-0.010781092
58	0xbb6f71ac	-0.003653626
59	0xbba128f6	-0.004918213
60	0x3b6c0685	0.0036014628
61	0xbba86539	-0.00513902
62	0xbc3929c0	-0.011301458
63	0xbbc63842	-0.006049187
64	0x3c0e277c	0.008676406
65	0xbbd9ebf9	-0.0066504446
66	0xbbfa10d2	-0.0076313997
67	0x3bc2ae79	0.005941209
68	0xbbbf3367	-0.005834985
69	0x3abaa884	0.0014240895
70	0x3c73b9de	0.014875857
71	0xbb6f66a2	-0.003652968
72	0xbb7a78b9	-0.003821893
73	0x3a119554	0.00055535627
74	0x3bdaf379	0.0066818562
75	0x3c3e1db8	0.011603765
76	0xbc051846	-0.008123463
77	0xbb885ee8	-0.0041617043
78	0x3b510140	0.0031891614
79	0xba8c06cf	-0.0010683181
80	0xbaf8629c	-0.0018950286
81	0x3bb6779b	0.0055684573
82	0x3baa28f0	0.0051928684
83	0xbba314c8	-0.0049768426
84	0xbbde6c81	-0.006787837
85	0xbac861f8	-0.0015287986
86	0x3bfd6c33	0.0077338456
87	0xbbd1ee77	-0.006406601
88	0xb880a3e5	-6.134043e-05
89	0xbb449494	-0.0029995786
90	0x3af7bbcb	0.0018900571
91	0xbbafa025	-0.005359667
92	0xb99ade36	-0.0002953873
93	0xbb4444fb	-0.0029948342
94	0xbbf19191	-0.007372089
95	0xb72b1cb0	-1.0199074e-05
96	0x3b815de8	0.003947962
97	0xbc5ea2c9	-0.013588616
98	0x3be288f3	0.0069132983
99	0xbb6c792c	-0.0036082966
100	0xb9228bfb	-0.0001550167
101	0x3be10e65	0.006868171
102	0xbbb62685	-0.005558791
103	0xbbf9dae0	-0.007624969
104	0xbb821221	-0.0039694463
105	0xbb9b207c	-0.004734097
106	0x3bcaca59	0.0061886725
107	0xbb397f77	-0.0028304735
108	0x3b0db8ca	0.0021625035
109	0xbb8b0f5d	-0.004243775
110	0xbbde7dd4	-0.006789902
111	0x3be288af	0.0069132666
112	0x3b857140	0.0040723383
113	0x3c44c82c	0.012010615
114	0xbb57d628	-0.0032934044
115	0x3b93e1e7	0.0045130136
116	0xbb1dc031	-0.0024070854
117	0x3b97328b	0.0046141795
118	0xbb4e05ea	-0.003143663
119	0x3b9d0410	0.004791744
120	0x3acf4974	0.0015814737
121	0x3bc01153	0.00586144
122	0xbb6524ea	-0.003496463
123	0x3b3bd4f4	0.0028660866
124	0x3c1a9905	0.009435897
125	0xbc031209	-0.007999905
126	0xbc48c13f	-0.012253105
127	0xba373649	-0.0006988985
128	0x3b889a65	0.004168796
129	0x3c32fc7d	0.010924456
130	0x3ae1e199	0.0017233371
131	0x3ad4b9b1	0.0016229657
132	0x3bd6e573	0.006558114
133	0x3be1b5b5	0.0068881162
134	0xbc00ef3c	-0.007869538
135	0x3c64e7b4	0.013971258
136	0xbb16210e	-0.0022907886
137	0x3b2dc37e	0.0026514228
138	0x3c147f56	0.009063562
139	0xbb887316	-0.00416411
140	0x3b81708a	0.0039501833
141	0xbb1e253f	-0.0024131087
142	0x3c10691e	0.008814124
143	0xbbb630fd	-0.005560039
144	0xbc22783b	-0.0099163605
145	0x3bf65ce3	0.007518397
146	0xbb61ad0e	-0.0034435424
147	0xba5ad012	-0.0008347045
148	0xbc05dedd	-0.0081708105
149	0x3c36c98b	0.01115645
150	0xbb3aae91	-0.0028485397
151	0xbc1161b1	-0.008873389
152	0xb9a2ecfa	-0.0003107561
153	0xbc1c1bcc	-0.009528112
154	0x3a09f44d	0.0005262539
155	0x3c4aeb16	0.01238515
156	0xbc333267	-0.01093731
157	0x3b28508e	0.002568278
158	0xbb949e6e	-0.004535488
159	0xbb43a666	-0.002985382
160	0xbb546b68	-0.0032412652
161	0xbc143249	-0.009045192
162	0xbbd673c6	-0.006544563
163	0x3b1ec83f	0.0024228243
164	0x3c02b982	0.007978799
165	0x3b392204	0.0028249035
166	0xbc2545ae	-0.010087414
167	0xbb91263d	-0.004429607
168	0x3c01c63d	0.007920799
169	0x3b65c592	0.0035060388
170	0xbbcc50c8	-0.006235216
171	0x3b8ac49b	0.004234863
172	0xba8221cc	-0.0009928285
173	0x3994c41c	0.00028374873
174	0x3c033eb7	0.008010558
175	0xbbf325fb	-0.007420299
176	0xbbba9d5b	-0.0056950278
177	0x3bd8feda	0.0066221775
178	0xbb168631	-0.0022968168
179	0xbc12ae37	-0.008952669
180	0x3c20a5f5	0.009805192
181	0x3bde19e6	0.0067779897
182	0xbb8356b0	-0.0040081367
183	0xbb976302	-0.004619957
184	0xbc560dad	-0.013064784
185	0xbbb2c10d	-0.0054551424
186	0x3b151888	0.0022750217
187	0xbb58d270	-0.0033084415
188	0x3c47acfb	0.012187238
189	0x3ba9d909	0.0051833433
190	0xbbb8b16e	-0.0056363856
191	0xbb8c7e5f	-0.0042875255
192	0x3b75960d	0.003747347
193	0x3bfd2227	0.0077250185
194	0xbb5ebeb9	-0.0033988191
195	0x3a955f3d	0.0011396181
196	0xbbe0f23b	-0.0068648136
197	0x3af0c0c8	0.0018368
198	0x3c102a10	0.008799091
199	0x3bcce127	0.006252426
200	0x3c57c004	0.013168339
201	0xbaa4bc59	-0.0012568339
202	0xbbfd0fef	-0.0077228467
203	0x3ae4f019	0.0017466574
204	0x3a8361cf	0.0010023656
205	0xbb320d5d	-0.002716861
206	0xbba5bb43	-0.0050577237
207	0x3b28fa83	0.0025784082
208	0xbb886771	-0.004162722
209	0x3bb8d5f4	0.0056407396
210	0x3b811719	0.003939521
211	0x3b773da4	0.003772595
212	0xbc2b7948	-0.010465927
213	0xbbee2f24	-0.007268803
214	0xbbd20c5d	-0.006410165
215	0xbb81a23e	-0.0039561084
216	0x3b93392b	0.004492899
217	0xba9b00f1	-0.0011825842
218	0xba0bf997	-0.0005339621
219	0x3b988ce8	0.004655469
220	0xbb8bfdd7	-0.0042722034
221	0x3c068e8f	0.0082127
222	0x3c032442	0.00800425
223	0x3bfb9cd3	0.007678607
224	0x3c3a8c31	0.011385963
225	0x3c5e89a8	0.0135826245
226	0xbb9220bd	-0.004459469
227	0x3c190803	0.009340289
228	0x3bc2c307	0.005943659
229	0x3c64e772	0.0139711965
230	0xbafa72b3	-0.0019107669
231	0xbb04b425	-0.0020248976
232	0x3b0ee8f4	0.0021806331
233	0x3bde78d2	0.0067893052
234	0x3aea02f8	0.0017853668
235	0x3852a804	5.022438e-05
236	0x3bf1149e	0.007357194
237	0x3c2131cb	0.009838532
238	0x3af3280e	0.0018551366
239	0x3a275bea	0.00063842407
240	0xbbf78669	-0.0075538647
241	0xbc0cb937	-0.008589081
242	0xba5e06a3	-0.0008469617
243	0xb94c8278	-0.0001950356
244	0x3a1d8813	0.00060093513
245	0xbaee564b	-0.0018183676
246	0xbaddf198	-0.0016932962
247	0xbbd7de75	-0.0065877982
248	0xbb0c3023	-0.0021390996
249	0xbbac5a1a	-0.0052597644
250	0x3b9c4432	0.0047688717
251	0xbbfecb51	-0.007775702
252	0xba8077c6	-0.000980132
253	0x3b9bff9a	0.0047606947
254	0xba91d34a	-0.0011125591
255	0xba947bc3	-0.0011328388

network_body._body_endoder.seq_layers.2.weight f4 [256, 256]
0	0xbdf252bd	-0.11832187
1	0xbd5f7d26	-0.05456271
2	0x3bb91b8f	0.005649037
3	0xbd096098	-0.033539385
4	0x3d926122	0.07147433
5	0xbdb0329f	-0.08603405
6	0xbc19eacb	-0.009394358
7	0xbb333854	-0.0027346807
8	0xbc328398	-0.010895632
9	0x3d9295db	0.07157489
10	0x3d5dc158	0.054139465
11	0xbd069879	-0.032860253
12	0xbd818ed1	-0.06326068
13	0x3c01b27e	0.007916091
14	0x3c09a759	0.008401715
15	0x3cb986db	0.022647312
16	0x3da79152	0.081820145
17	0x3c9eea4c	0.01939883
18	0xbd02daa3	-0.03194679
19	0xbca04313	-0.019563233
20	0x3d719777	0.05898234
21	0xbda200db	-0.079103194
22	0xbc0b652b	-0.008508007
23	0xbc50e975	-0.012750973
24	0xbd637634	-0.05553265
25	0x3d9ed4f3	0.077554606
26	0xbe2dbedd	-0.1696734
27	0xbd362b4c	-0.044474885
28	0x3d1d7c02	0.03844834
29	0xbd15f293	-0.03660829
30	0x3d47ac50	0.048748314
31	0xba1b92f3	-0.0005934678
32	0x3c889503	0.016672617
33	0xbcaeb99e	-0.021328744
34	0xbde31a1d	-0.11088965
35	0xbd863ca2	-0.065545335
36	0xbcf463d2	-0.029832754
37	0x3d352a0c	0.044229552
38	0xbd77b9bb	-0.06047986
39	0x3d85f2f5	0.06540481
40	0xbd5d1c1d	-0.05398189
41	0x3d8a7737	0.0676102
42	0x3cfc9235	0.030831436
43	0x3c169762	0.009191366
44	0xbc624006	-0.01380921
45	0xbd103586	-0.035207294
46	0xbd4ee152	-0.05050785
47	0xbcc618dc	-0.024181776
48	0xbd4a65a5	-0.049413342
49	0xbdf0c440	-0.11756182
50	0x3d820675	0.06348888
51	0xbd325e13	-0.043546747
52	0x3c5a07f6	0.013307562
53	0x3b7f9486	0.003899844
54	0xbdbe6b29	-0.09297783
55	0xbd12910b	-0.035782855
56	0xbcf78ad6	-0.03021757
57	0xbdabb15c	-0.08383438
58	0xbcdb4cb4	-0.026769973
59	0x3d90843a	0.0705647
60	0x3d781e11	0.06057555
61	0x3d77cdb7	0.06049892
62	0xbdaf17eb	-0.08549484
63	0xbda00b83	-0.07814696
64	0x3d895c20	0.067070246
65	0xbdc7704f	-0.09738218
66	0xbdbe07be	-0.092788205
67	0x3da6dda4	0.08147743
68	0x3c725595	0.014790912
69	0xbbb4d6c2	-0.005518765
70	0x3d4aeaf1	0.049540464
71	0xbd1b17be	-0.03786444
72	0x3b5bab8e	0.0033519003
73	0xbd9182f2	-0.07105054
74	0xbd325dc4	-0.043546453
75	0xbccda0de	-0.025101122
76	0x3dcebe99	0.10094947
77	0x3df2c1b4	0.11853352
78	0xbd63fd62	-0.055661567
79	0x3b7322bd	0.0037099563
80	0x3aec5077	0.0018029351
81	0x3dfaa964	0.1223934
82	0x3d67c564	0.05658473
83	0x3cf1de2a	0.029524881
84	0xbc14bb16	-0.009077808
85	0x3e0517f0	0.12997413
86	0x3cadef38	0.021232232
87	0x3d3970d4	0.045273617
88	0xbc6dd1f5	-0.01451539
89	0xbd74ff36	-0.0598137
90	0xbd32bb7d	-0.043635834
91	0x3d550f33	0.05201645
92	0xbd9c6d6f	-0.0763806
93	0xbd032bcb	-0.032024186
94	0x3c6b1d1e	0.014350204
95	0x3d4dc308	0.050234824
96	0x3bb7a198	0.0056039803
97	0x3d263b69	0.040584
98	0xbddfeb7f	-0.10933589
99	0x3dcd1943	0.10014584
100	0x3dc1f04a	0.094696596
101	0xbd0c4f6e	-0.034255438
102	0x3df5d174	0.12002841
103	0xbcd492c2	-0.025948886
104	0x3d6aef43	0.057357084
105	0xbcf5e36a	-0.030015666
106	0xbdf94262	-0.12170865
107	0xbdf5f0cc	-0.12008819
108	0x3d7c7f1d	0.061644662
109	0x3d1531af	0.036424335
110	0x3d19aa58	0.037515968
111	0xbd04cab3	-0.03241987
112	0x3cb9778d	0.022640014
113	0x3da190e3	0.07888963
114	0x3d573232	0.052538104
115	0x3d87ad7f	0.06624889
116	0x3ca8756a	0.0205638
117	0xbd8f08da	-0.0698411
118	0x3b688f7a	0.003548591
119	0x3dd87620	0.105694056
120	0x3d6236c9	0.05522803
121	0x3e0e6ae8	0.13907969
122	0x3c7b92fb	0.015354867
123	0x3d55b91c	0.052178487
124	0x3ca4e7ad	0.020130003
125	0xbdb2ceb3	-0.08730831
126	0xbd7e68c1	-0.06211162
127	0x3d431875	0.047630746
128	0xbd13bd95	-0.03606947
129	0x3d224c4e	0.03962355
130	0xbced0209	-0.028931635
131	0xbdc83594	-0.09775844
132	0x3c2344d2	0.0099651385
133	0xbcd8eedf	-0.02648109
134	0x3c545d63	0.012961718
135	0x3b35cfaf	0.0027742197
136	0xbdea8519	-0.114511676
137	0xbd24c3b3	-0.040225696
138	0xbd250740	-0.040290117
139	0xbdf87a8f	-0.12132751
140	0xbd7a7ec5	-0.061156053
141	0xbdda104d	-0.106476404
142	0x3bb0b3f6	0.0053925468
143	0xbcdb9993	-0.026806628
144	0x3ccc2a44	0.024922498
145	0x3dd914b6	0.105996534
146	0x3d12d373	0.035846185
147	0x3dcf3370	0.10117233
148	0x3cc1fcd2	0.023680124
149	0x3bff1c2c	0.007785341
150	0x3a2946f5	0.0006457412
151	0xbdb25e41	-0.08709384
152	0xbd467bf4	-0.048458055
153	0xbd72dfc5	-0.059295435
154	0x3d0c0f88	0.0341945
155	0xbd59a21e	-0.053133123
156	0xbdf4b5c8	-0.119487345
157	0x3cf3ae06	0.029746067
158	0xbcd97e53	-0.026549494
159	0xbd3f090e	-0.046639495
160	0xbab83051	-0.0014052485
161	0xbced6301	-0.028977873
162	0xbc218c6c	-0.009860139
163	0xbd501bd7	-0.0508078
164	0x3d08e3b7	0.03342029
165	0xbd74ce5b	-0.05976711
166	0x3cc9af2c	0.024619661
167	0xbce7e388	-0.028306738
168	0x3da04c26	0.07827024
169	0x3d730a44	0.059335962
170	0x3dae2477	0.08503049
171	0x3cf13470	0.02944395
172	0xbd8d4372	-0.0689763
173	0x3d23b607	0.039968517
174	0x3d48f131	0.049058143
175	0xbd0ec3fe	-0.03485488
176	0xbca2c6a3	-0.019870108
177	0x3d45f092	0.04832513
178	0xbe01924f	-0.12653469
179	0x3d5d4a1e	0.05402576
180	0xbd319614	-0.043356016
181	0x3cfe4ec9	0.031043427
182	0x3c228b19	0.009920859
183	0x3da8364f	0.082134835
184	0x3dcf1778	0.10111898
185	0x3d9e6690	0.07734406
186	0xbd6f41c3	-0.058412325
187	0x3d42c108	0.04754737
188	0xbacf90c5	-0.0015835991
189	0x3d1bdefe	0.03805446
190	0xbcf1d670	-0.029521197
191	0xbd008149	-0.031373296
192	0x3dc851b2	0.09781207
193	0x3cdc6ffe	0.02690887
194	0x3d05741e	0.03258144
195	0x3bbd006f	0.005767874
196	0xbd38ce03	-0.045118343
197	0xbdc143a1	-0.09436727
198	0x3c78899e	0.015169529
199	0xbd208299	-0.039187048
200	0xbdc13c37	-0.09435313
201	0x3cf1fbc9	0.029539006
202	0xbca0edf7	-0.01964472
203	0x3bb8d3f5	0.0056405016
204	0xbdc27ef3	-0.0949687
205	0xbd4aa7f1	-0.049476568
206	0xbdf200e6	-0.118165776
207	0x3d6c25fb	0.05765341
208	0xbc8efdbe	-0.017454978
209	0xbd1f683b	-0.03891776
210	0xbd1230de	-0.035691135
211	0xbdc72a5d	-0.09724877
212	0x3de6f65b	0.11277457
213	0xbd2017b7	-0.039085116
214	0xbd28a331	-0.041171256
215	0x3d246b82	0.04014159
216	0x3da201e6	0.07910518
217	0xbd25a602	-0.04044152
218	0xbd0f6c03	-0.035015117
219	0xbc370f0a	-0.011173019
220	0x3d87dd77	0.06634038
221	0x3dca2f5f	0.098723166
222	0x3c6fcfa8	0.014636911
223	0x3d8e5b23	0.06950977
224	0x3dff9298	0.124791324
225	0xbd3c8fac	-0.046035454
226	0x3cd7d144	0.026344903
227	0xbd4bb426	-0.04973235
228	0x3d81021b	0.0629923
229	0xbae20a1a	-0.0017245442
230	0xbd89f3ee	-0.06735979
231	0xbd35a597	-0.044347372
232	0x3d97cb2f	0.07411801
233	0xbd893cbe	-0.06701039
234	0xbce24ee2	-0.027625505
235	0xbd136c07	-0.035991695
236	0x3d69b4b8	0.057057112
237	0x3bbee48f	0.005825586
238	0x3d476f58	0.04869017
239	0xbd69ae11	-0.05705077
240	0xbd00613a	-0.031342722
241	0x3d71285b	0.058876377
242	0x3dabd140	0.08389521
243	0xbddc1668	-0.10746461
244	0xbd4d9e2f	-0.050199684
245	0x3d84c510	0.06482899
246	0xbcffbf2b	-0.031219086
247	0xbdac23c3	-0.084052585
248	0x3ca45330	0.020059198
249	0x3df537d2	0.119735375
250	0xbc4d2b04	-0.012522463
251	0xbc937a13	-0.018002545
252	0x3dc123e4	0.09430674
253	0xbcf9510b	-0.030434152
254	0xbde24e3d	-0.11050079
255	0x3cc39286	0.023873579

network_body._body_endoder.seq_layers.2.bias f4 [256]
0	0xbbbbcd7b	-0.0057312823
1	0x3b02646f	0.001989629
2	0xb9d8a7b2	-0.00041323673
3	0xbb49a2f9	-0.0030767305
4	0xbb902bee	-0.004399768
5	0x3c28ad7b	0.010295267
6	0x3b829f09	0.0039862436
7	0xbb0945cb	-0.002094614
8	0xbbc5db30	-0.006038092
9	0xbc106c39	-0.008814865
10	0xbafc688b	-0.001925723
11	0x3b3fac0d	0.0029246837
12	0xbbc4699d	-0.0059940354
13	0xbc236da9	-0.0099748755
14	0x3abd9c25	0.001446609
15	0x3bb7cfe1	0.005609498
16	0xbb3b3938	-0.002856804
17	0xbb1599d8	-0.0022827294
18	0x3bc65745	0.006052884
19	0xbb5a4410	-0.0033304729
20	0xbbc5670a	-0.006024246
21	0xbaaa7a8e	-0.0013006495
22	0x3c1f7709	0.00973297
23	0x3b28e7d9	0.0025772958
24	0x3bba55f8	0.005686518
25	0x3ba0102f	0.0048847417
26	0x3b55a39d	0.0032598742
27	0x3bc957f6	0.006144519
28	0x39f0dcad	0.00045940783
29	0xbbfca179	-0.0077096787
30	0x3b1ab01e	0.002360351
31	0x3b94b36b	0.00453799
32	0x3b03ac3f	0.002009168
33	0x3c438284	0.011932973
34	0x3bdb7965	0.006697821
35	0x3af3e73d	0.0018608343
36	0x3b5cc4b6	0.0033686585
37	0x3b73678b	0.0037140574
38	0xbbab5d06	-0.005229595
39	0xbb646656	-0.0034851036
40	0x3a7c502f	0.00096249854
41	0x3c1f5b6a	0.009726385
42	0x3b41831d	0.0029527612
43	0x3b57c1a6	0.003292182
44	0xbb202088	-0.0024433453
45	0xbb59132a	-0.0033122995
46	0xbb9eaa6e	-0.004842094
47	0x3c156550	0.009118393
48	0xbc588bff	-0.013216971
49	0xbb416b01	-0.0029513242
50	0xbc109385	-0.008824234
51	0x3afa2942	0.0019085782
52	0x3b7ee504	0.0038893828
53	0x3b1ac0e4	0.0023613507
54	0xbb8442f3	-0.0040363013
55	0x3b23e487	0.002500804
56	0x3b8a66d0	0.004223682
57	0x3c26f73b	0.01019078
58	0x3bf528db	0.007481677
59	0x3c048f2e	0.008090777
60	0x3c02c4f4	0.007981528
61	0x3b7a592b	0.003820012
62	0x3b859a70	0.0040772483
63	0x3b229aec	0.002481158
64	0xbbeba9af	-0.0071918587
65	0xbc01fc51	-0.007933692
66	0x3b34ff8e	0.0027618143
67	0x3bb32f0d	0.0054682554
68	0x3bb6daa9	0.0055802655
69	0x3bbc416a	0.0057451027
70	0x3bd55959	0.006510895
71	0xbbafb81f	-0.005362525
72	0x3b1736ac	0.0023073358
73	0xbab122e1	-0.0013514423
74	0xbbb80f48	-0.005617056
75	0xbac6d0e4	-0.0015168455
76	0x3be6b1cd	0.0070402385
77	0xbc093ddf	-0.008376568
78	0xbba4bfc9	-0.0050277454
79	0x3c2f4cf4	0.010699499
80	0x3c09c2a6	0.008408224
81	0x394877d1	0.00019118121
82	0x3be687c8	0.0070352294
83	0xbb886c60	-0.00416331
84	0xbb0dd926	-0.0021644323
85	0x3b8ef59c	0.004362775
86	0x3beced49	0.007230435
87	0xba476014	-0.00076055643
88	0xbb7fa9bf	-0.0039011089
89	0x3b2fac96	0.002680575
90	0xbb25f604	-0.0025323639
91	0x3ba018a7	0.0048857513
92	0xbc00d731	-0.007863806
93	0xbbdd4b7a	-0.0067533823
94	0x3973dfc0	0.00023257639
95	0xbb564ce1	-0.0032699632
96	0x3b00b43d	0.001963868
97	0x3b8cd9c7	0.004298422
98	0x3c087de2	0.008330794
99	0x3c0984e1	0.008393497
100	0x3b7cd2dd	0.0038577833
101	0x3c354298	0.0110632405
102	0x3c1c4b7a	0.009539479
103	0xbb9e87db	-0.0048379726
104	0xbbc78694	-0.006089041
105	0xbbfe8755	-0.0077675977
106	0xbb907a73	-0.0044091283
107	0xba911a66	-0.0011070489
108	0x3bd6182e	0.006533644
109	0x3b802253	0.0039103418
110	0xbbfc7005	-0.0077037835
111	0xbb14f74d	-0.002273041
112	0x3b867409	0.004103188
113	0x3ba75cfa	0.005107519
114	0x3b2f4285	0.002674253
115	0x3aa42329	0.0012522686
116	0x3c0d3ac3	0.008619967
117	0xbbcaaae4	-0.0061849225
118	0x3ba66c11	0.0050788005
119	0x3bef0c88	0.007295195
120	0x39d0eca3	0.0003984916
121	0xbace0d40	-0.0015720502
122	0x3a9740cf	0.00115397
123	0xbc30c652	-0.010789471
124	0x3b9c0c11	0.0047621806
125	0x3c16bb9f	0.009200006
126	0x3bbbecf0	0.0057350323
127	0xbb68cd45	-0.003552274
128	0xba888971	-0.0010416937
129	0xb9daa6a9	-0.00041704372
130	0x3c2943cb	0.0103311045
131	0xb933d684	-0.00017150684
132	0x3c3158fc	0.010824438
133	0x3ae8ce24	0.001776163
134	0xbb0a8ff5	-0.0021142934
135	0xbc34d0fa	-0.011036152
136	0x3ad7d5ca	0.0016466912
137	0x3ae28dd6	0.0017284702
138	0xbb944341	-0.004524619
139	0x3aafc895	0.0013411219
140	0x3ba279a5	0.004958349
141	0xbb885fc0	-0.004161805
142	0x3b11cbc3	0.0022246696
143	0x3c50daec	0.012747508
144	0xbb925c81	-0.0044665937
145	0x3bac18b9	0.0052519706
146	0x3c04b20d	0.008099091
147	0x3c653d18	0.013991617
148	0xbc21cb89	-0.009875187
149	0xbc3dd520	-0.0115864575
150	0xbbaa4b88	-0.0051969923
151	0x3aeb6baf	0.0017961169
152	0x3c273328	0.010205068
153	0x3bd825ba	0.006596294
154	0xbbbfd0a5	-0.00585373
155	0x3b5a0951	0.0033269713
156	0x3bcf4c86	0.006326261
157	0xbb4e0fbc	-0.0031442484
158	0xbb8f7dcd	-0.0043790103
159	0xbc213919	-0.009840273
160	0xbbed63e1	-0.0072445725
161	0x39df2515	0.00042561503
162	0xba84a52a	-0.0010120024
163	0xbb3f2685	-0.0029167247
164	0x3bfdbb97	0.0077433097
165	0x3b2596d2	0.0025266898
166	0xbc31c9ab	-0.010851304
167	0xbbb56ed2	-0.0055368925
168	0x3c344845	0.0110035585
169	0xbbb5ac38	-0.0055442117
170	0x3a7d3e7d	0.00096604956
171	0xbbc9b204	-0.0061552543
172	0x3ae7a239	0.0017672247
173	0x3b82de41	0.00399378
174	0x397cefd8	0.00024121942
175	0x3b80cd39	0.0039307144
176	0xbaf37780	-0.0018575042
177	0xbb8f6125	-0.004375594
178	0x3715cbc6	8.928537e-06
179	0xbb0a108b	-0.002106699
180	0x3b386076	0.0028133667
181	0xba840e0a	-0.0010074985
182	0x3bb8d99e	0.0056411764
183	0xbc4b92ba	-0.012425119
184	0x3b4667fe	0.0030274387
185	0xbb8ad416	-0.0042367084
186	0x3c06bedb	0.008224214
187	0xbc2337c2	-0.009962024
188	0x3ba52930	0.0050403103
189	0xba60b424	-0.0008571765
190	0xbb95467d	-0.004555522
191	0xbb40eb5e	-0.0029437165
192	0xbc20b5a8	-0.009808935
193	0x3c178d3a	0.00924998
194	0x3ad48d81	0.0016216488
195	0x39f5ca2c	0.0004688067
196	0xbbc110c4	-0.005891891
197	0x391456fb	0.00014146783
198	0xbc0958fc	-0.008383032
199	0x3ba93ea5	0.0051649385
200	0x3bfd8c73	0.00773769
201	0xbc512127	-0.012764252
202	0xbba039df	-0.0048897113
203	0x3bd15588	0.00638837
204	0x3a9db141	0.0012030975
205	0xbbeb5a0c	-0.0071823653
206	0xbbed8a2c	-0.0072491374
207	0xbb639064	-0.0034723515
208	0xbbafeaa1	-0.005368546
209	0x3bf22804	0.007390024
210	0x3b9e5238	0.0048315786
211	0x3ab0bf95	0.001348483
212	0x3b41592d	0.0029502616
213	0x3b773664	0.0037721628
214	0xbbcd0b53	-0.0062574535
215	0x3b78657f	0.0037902293
216	0x3af06d87	0.0018343189
217	0xbb61b456	-0.0034439764
218	0xba7dbf64	-0.00096797035
219	0x3b1a1f9b	0.0023517373
220	0x3bdfcfdd	0.006830199
221	0xbac8c4be	-0.0015317423
222	0x3bb7c27a	0.0056079
223	0x3bbb34b7	0.005713071
224	0xbb8ee797	-0.0043611038
225	0x3c4934db	0.012280668
226	0x3ade7cc0	0.0016974434
227	0xbb277977	-0.0025554576
228	0x3a922fcb	0.001115316
229	0xb98ee2b0	-0.00027253246
230	0x3b879a7c	0.004138289
231	0x3c1abdc1	0.009444655
232	0x3bb1903d	0.005418806
233	0xbb97161d	-0.0046107904
234	0xbb3fc5f7	-0.0029262283
235	0xbb885d77	-0.0041615325
236	0x39b1e4dd	0.00033930587
237	0xbb8225e6	-0.003971803
238	0x3c1d24fd	0.009591338
239	0x39fae9a9	0.00047857806
240	0xbb20786b	-0.0024485837
241	0xbc003275	-0.00782453
242	0x3c5cc10c	0.01347376
243	0x3c199cc9	0.009375759
244	0xbb064ba4	-0.0020491863
245	0xbadd2cd4	-0.0016874322
246	0xbacb5d5d	-0.0015515495
247	0xba3c7137	-0.0007188501
248	0x3b91a62a	0.004444857
249	0x3b998cf2	0.0046859914
250	0x3b0ce4da	0.002149871
251	0xbb5d6111	-0.003377978
252	0x3b7fe720	0.0039047673
253	0x3c0ee0ee	0.00872062
254	0x3bbdf42c	0.00579693
255	0xbb8e9bf5	-0.0043520876

action_model._continuous_distribution.log_sigma f4 [1, 6]
0	0x3d06af79	0.032882188
1	0x3c24118f	0.010013952
2	0x3d424f19	0.047438715
3	0x3ca5a87a	0.020221937
4	0x3d17a987	0.03702691
5	0x3c7966a1	0.015222223

action_model._continuous_distribution.mu.weight f4 [6, 256]
0	0x3c557727	0.013028896
1	0x3b371690	0.0027937032
2	0x3b8b2532	0.0042463774
3	0x3ab979b2	0.0014150648
4	0xbb92e4ce	-0.004482842
5	0xbb8982ec	-0.0041965153
6	0x3b96a1e2	0.0045969347
7	0x3c4817cb	0.012212704
8	0x3c9afbf9	0.018918978
9	0x3b85133a	0.00406113
10	0x3c3f0612	0.011659162
11	0x3bb4fac4	0.0055230577
12	0xbbc744ca	-0.0060811983
13	0x3c1b0998	0.009462737
14	0xbc5404e7	-0.012940622
15	0xbc40fff8	-0.011779778
16	0xbc3dfb76	-0.0115955975
17	0x3c22857f	0.009919523
18	0x3b9f0fcf	0.0048541795
19	0x3ba47878	0.005019244
20	0x3b2576b7	0.0025247762
21	0xbc419e68	-0.011817552
22	0xbd0f0022	-0.034912236
23	0xbc96ec60	-0.01842326
24	0xbd15a562	-0.036534674
25	0x3c2ae3a0	0.010430247
26	0xbc28ed08	-0.010310419
27	0xbc624e3f	-0.013812601
28	0x3c2bc602	0.01048422
29	0x3bb3793c	0.0054770987
30	0xbc43ad64	-0.011943195
31	0x3cac6563	0.021044439
32	0x3cbb92f6	0.022897225
33	0x3abfa99f	0.0014622695
34	0xbcaa212f	-0.020767776
35	0x3c82cc58	0.01596658
36	0xb99d7265	-0.00030030604
37	0xbc22a22c	-0.00992636
38	0x3b8040d4	0.003913978
39	0x3c5c3c81	0.01344216
40	0x3c13356c	0.008984905
41	0xbd0c9be3	-0.034328353
42	0x3cc490d4	0.02399484
43	0xbc1ff2e5	-0.0097625
44	0xbc32a7b8	-0.010904245
45	0x3d2ea4b5	0.042637546
46	0xbbf7b9f6	-0.00756001
47	0xbcac3291	-0.021020206
48	0xbc065585	-0.0081991
49	0x3cfb9d9a	0.030714799
50	0xbbbcd003	-0.0057621016
51	0x3c84ad48	0.016195908
52	0xbcdfe97d	-0.027333016
53	0x3c550f59	0.013004147
54	0x3c8f4170	0.017487258
55	0xbbe360e5	-0.006939041
56	0xbcf90081	-0.030395748
57	0xbc5237bf	-0.012830674
58	0xbaa05cbd	-0.0012234669
59	0xbc108db1	-0.008822844
60	0xbbd059e6	-0.006358373
61	0x3cd71aeb	0.026257953
62	0xbbabb9f8	-0.005240675
63	0xbc0d229f	-0.008614211
64	0x3c812e93	0.015769279
65	0xba3a9336	-0.0007117273
66	0x3c6060c8	0.013694949
67	0xbc01e9e3	-0.007929298
68	0xbb50c3b7	-0.0031854936
69	0xbc163c31	-0.009169624
70	0xbc911039	-0.01770793
71	0xbbc196ae	-0.005907855
72	0xbc49beff	-0.012313603
73	0x3bdac4e0	0.0066763014
74	0x3b031bc0	0.0020005554
75	0x3b2094e7	0.0024502815
76	0x3b64f456	0.0034935675
77	0x3ccd23e1	0.025041522
78	0xbbc22592	-0.005924889
79	0xbc46e9ba	-0.012140686
80	0x3bd61753	0.006533542
81	0x3bc96d7b	0.0061470843
82	0xbccec904	-0.025242336
83	0xbbdbb5e6	-0.0067050336
84	0x3a5cb587	0.00084193837
85	0xbb16910f	-0.0022974645
86	0x3c2890c3	0.01028842
87	0xbc819fee	-0.01582333
88	0xbbf75548	-0.007548008
89	0x3c55f67f	0.0130592575
90	0xbbd89479	-0.006609496
91	0xbc2e100e	-0.010623945
92	0x3c2f34aa	0.010693708
93	0xbc2bc492	-0.010483878
94	0xbbaac184	-0.005211057
95	0x3cf32f2b	0.029685577
96	0x3c80f5ea	0.015742261
97	0xbd276503	-0.040867817
98	0x3bef5f03	0.0073050275
99	0xbc9ffc52	-0.019529495
100	0xbc8af439	-0.016962158
101	0xbaabd16d	-0.0013108678
102	0x3bbae5ac	0.0057036486
103	0xbac387b4	-0.0014917762
104	0xbc99bb16	-0.018765967
105	0x3c618ad8	0.013766013
106	0xbc3457de	-0.011007277
107	0x3c6a4bce	0.0143003
108	0xbba1fbc4	-0.004943343
109	0xbc8a9fb7	-0.016921861
110	0x3a8c19d7	0.0010688853
111	0x3cad2c50	0.021139294
112	0x3c4acaee	0.012377484
113	0x3b88c60c	0.0041739997
114	0xbcfa4cd8	-0.03055422
115	0xbc398ea5	-0.011325513
116	0x3bba20b1	0.0056801667
117	0x3b82c8fb	0.003991244
118	0x3c779259	0.015110576
119	0xbc0bffc8	-0.00854487
120	0xbc33ebae	-0.010981483
121	0xbbe93c12	-0.0071177566
122	0x3caf8e25	0.021430084
123	0xba87aeb5	-0.0010351749
124	0xbcdd5fff	-0.027023314
125	0x3bcea3e7	0.00630616
126	0x3be67644	0.0070331413
127	0x3b782137	0.0037861594
128	0x3c67337a	0.014111394
129	0x3ba695db	0.005083782
130	0xbbde32bb	-0.00678095
131	0xbc095f57	-0.008384547
132	0xbca1cd03	-0.019751078
133	0xbccd19ec	-0.025036775
134	0x3ca7ec38	0.02049838
135	0x3b8ccf08	0.004297141
136	0x3baba61e	0.0052383086
137	0x3cb2f819	0.021846818
138	0x3c67d803	0.014150622
139	0xbc6d690a	-0.014490375
140	0x3ca61c89	0.020277278
141	0x3b74f717	0.0037378722
142	0x3b337eff	0.0027388928
143	0xbc1cd748	-0.009572811
144	0x3a6227d2	0.00086271495
145	0xbc83d3ff	-0.016092299
146	0x3bfffcb4	0.007812107
147	0xbcbea4ba	-0.023271907
148	0x3c2c6159	0.010521256
149	0xba152486	-0.00056893413
150	0x3ca8bbbf	0.020597337
151	0x3d36917e	0.044572346
152	0xbba2c7c5	-0.004967662
153	0xbc855604	-0.016276367
154	0xbaba86fe	-0.0014230905
155	0x3ca40880	0.020023584
156	0x3cacb3eb	0.021081885
157	0xbb344cef	-0.0027511676
158	0xbc782ff8	-0.015148155
159	0x3ccbeef3	0.024894213
160	0x3be06fdd	0.0068492726
161	0x3c40e438	0.011773162
162	0x3b31adf9	0.0027111752
163	0x3c0465e0	0.0080809295
164	0xbb11e0a9	-0.0022259152
165	0x3bbdbedf	0.005790576
166	0x3c4d3e80	0.012527108
167	0xbb930410	-0.0044865683
168	0xbca0b994	-0.01961974
169	0x3ab3e72a	0.0013725508
170	0xbc111ea4	-0.008857403
171	0x3b651623	0.0034955821
172	0x3d012b7b	0.031535607
173	0x39d62acb	0.00040849144
174	0xbbf7b304	-0.007559182
175	0x3c8e9e38	0.017409429
176	0x3baa7c3b	0.0052027977
177	0x3ba972f8	0.005171176
178	0x3a2b4aeb	0.0006534296
179	0x3b811296	0.003938983
180	0xbc3fdcf1	-0.011710391
181	0xbcafa810	-0.021442443
182	0x3c16be13	0.009200591
183	0x3bea2e4e	0.007146633
184	0xbc981f6e	-0.018569674
185	0x3924c305	0.00015712909
186	0xbc050b40	-0.008120358
187	0x3c880c4f	0.016607432
188	0xbd18a326	-0.037264965
189	0xbb1476d6	-0.002265384
190	0xbc1dbeff	-0.009628057
191	0xb956de92	-0.00020491544
192	0xbbd13c80	-0.006385386
193	0x3c556dc8	0.013026662
194	0x3c12ce85	0.008960371
195	0x3c3d8ddc	0.011569466
196	0xbad35a8c	-0.0016125008
197	0x3a42104e	0.0007402942
198	0x3c276d22	0.01021889
199	0xbc691591	-0.014226333
200	0xbcd97383	-0.026544338
201	0x3ba73046	0.00510219
202	0xbbc5de18	-0.0060384385
203	0xbc9b55c1	-0.01896179
204	0x3bf1ca44	0.0073788483
205	0xbbc863fb	-0.006115434
206	0x3cbc51cb	0.02298822
207	0x3c224757	0.009904704
208	0x3bd2e779	0.006436285
209	0x3bed30be	0.0072384765
210	0xbc5777e0	-0.013151139
211	0x3cb2eef7	0.021842463
212	0xbcb25f9e	-0.02177411
213	0xba1e26bf	-0.00060329953
214	0x3bcf5a3b	0.006327895
215	0xbbeb9a54	-0.007190028
216	0x3cb0c30b	0.021577379
217	0x3cc3780e	0.023860957
218	0xbc0998f9	-0.008398288
219	0x3cef216e	0.029190745
220	0xbca420f8	-0.020035252
221	0x3a0d76de	0.0005396436
222	0x3c894e4c	0.016760968
223	0xbc48f1b7	-0.012264661
224	0x3a9e0ea5	0.0012058808
225	0xbc9a1a50	-0.018811375
226	0x3caaa147	0.020828856
227	0x3bd7cbb4	0.0065855626
228	0xbcc2619b	-0.023728183
229	0xbcc0dee1	-0.023543777
230	0xbc97f5c2	-0.018549804
231	0xbb9b0850	-0.0047312155
232	0xbae6131f	-0.0017553306
233	0x3ca44f1d	0.020057255
234	0x3c9355da	0.017985273
235	0xbbf7c019	-0.0075607416
236	0x3ca7a3d4	0.020463862
237	0x3c9afb45	0.018918643
238	0xbc819ebb	-0.015822759
239	0xbc450bd6	-0.012026748
240	0x3b93bb53	0.004508415
241	0xbc02ea2c	-0.007990401
242	0xbb9991c6	-0.004686567
243	0xbca390b4	-0.01996646
244	0xbb1fc35a	-0.0024377913
245	0x3c13b6fc	0.009015795
246	0xbc973756	-0.018459003
247	0x3a08114a	0.00051905646
248	0xbc952528	-0.018206194
249	0x3c872f63	0.016502088
250	0xbba4b963	-0.0050269826
251	0x3c0c9d8f	0.008582487
252	0x3bff9096	0.0077992184
253	0x3c6a73e9	0.014309862
254	0x3c31170c	0.010808717
255	0x3cd5a2d8	0.026078627

action_model._continuous_distribution.mu.bias f4 [6]
0	0xbb249d4b	-0.0025118168
1	0xbb06b568	-0.0020554904
2	0x3c4a55ce	0.012349559
3	0xbba52025	-0.0050392323
4	0xbb513edb	-0.0031928334
5	0x3aa9273b	0.0012905368

onnx::Div_71 f4 [100]
0	0x3e54ef37	0.20794378
1	0x3d64d552	0.0558675
2	0x3ce886bf	0.028384564
3	0x3e1f13b4	0.1553486
4	0x3e5116ed	0.20418902
5	0x3d6affb2	0.057372756
6	0x3ced6b0d	0.02898171
7	0x3e1eb739	0.15499581
8	0x3e579598	0.21053159
9	0x3d66b34c	0.056323335
10	0x3ced6b0d	0.02898171
11	0x3e1ec694	0.15505439
12	0x3e4d6614	0.20058471
13	0x3d6affb3	0.05737276
14	0x3cf4925b	0.029854944
15	0x3e1f67f4	0.15566999
16	0x3e572fc6	0.21014318
17	0x3d5aeddc	0.053449497
18	0x3ced6b11	0.028981717
19	0x3e1ede5a	0.15514508
20	0x3e48ddec	0.19615906
21	0x3d61afc3	0.05509926
22	0x3ced6b0e	0.028981712
23	0x3e1ffc42	0.15623572
24	0x3e55f7ff	0.20895384
25	0x3d6663e8	0.05624762
26	0x3cf10583	0.029421574
27	0x3e1f08ce	0.15530702
28	0x3e465b35	0.1937073
29	0x3d58f597	0.052968588
30	0x3ceea01a	0.029129077
31	0x3e208a9c	0.15677875
32	0x3e546a4e	0.20743677
33	0x3d64853a	0.055791117
34	0x3ceea016	0.02912907
35	0x3e1f741f	0.1557164
36	0x3e44e863	0.19229273
37	0x3d584c82	0.05280734
38	0x3cec346f	0.028833596
39	0x3e210a90	0.15726686
40	0x3e518f64	0.20464855
41	0x3d61afbb	0.05509923
42	0x3cefd391	0.029275687
43	0x3e201a47	0.15635024
44	0x3e422a6b	0.18961494
45	0x3d5e2c3c	0.054241404
46	0x3ce38778	0.027774557
47	0x3e2126e7	0.15737496
48	0x3e4fa171	0.20276429
49	0x3d6a63b8	0.057224005
50	0x3cf235f6	0.029566746
51	0x3e215771	0.15756012
52	0x3e41fe7f	0.18944739
53	0x3d61afbd	0.055099238
54	0x3ce886bf	0.028384564
55	0x3e2170b4	0.15765649
56	0x3e4f0917	0.20218311
57	0x3d756943	0.05991484
58	0x3ced6b0f	0.028981714
59	0x3e21a7e4	0.15786701
60	0x3e4148e4	0.18875462
61	0x3d62a297	0.05533084
62	0x3ceea014	0.029129066
63	0x3e21ddb1	0.15807225
64	0x3e4e0f2d	0.20122977
65	0x3d7ff3bf	0.062488314
66	0x3ce9c24d	0.028535033
67	0x3e22122c	0.15827245
68	0x3e3ec9bb	0.18631642
69	0x3d63e4cc	0.05563812
70	0x3ce60a9c	0.02808123
71	0x3e229de3	0.15880542
72	0x3e4c170d	0.19930668
73	0x3d81399e	0.06309818
74	0x3ce2433b	0.027619949
75	0x3e220b94	0.15824729
76	0x3e3d3fe4	0.18481404
77	0x3d63e4ce	0.055638127
78	0x3cdd1f91	0.026992591
79	0x3e22eab8	0.1590985
80	0x3e4b85f7	0.19875322
81	0x3d7e45dc	0.06207834
82	0x3ce0fd21	0.027464451
83	0x3e22dce7	0.1590458
84	0x3e3816fa	0.17977515
85	0x3d54f6f9	0.051993344
86	0x3ce3877a	0.027774561
87	0x3e23882b	0.15969913
88	0x3e4c88bd	0.19974037
89	0x3d84a1c0	0.06476164
90	0x3ce38778	0.027774557
91	0x3e236f70	0.15960479
92	0x3e38287f	0.17984198
93	0x3d5949ff	0.053049084
94	0x3cde6b55	0.02715079
95	0x3e23bd6f	0.15990232
96	0x3e4acab1	0.19803883
97	0x3d8324d6	0.0640351
98	0x3cdfb52e	0.027308073
99	0x3e233f46	0.15942106

onnx::Div_74 f4 [52]
0	0x3effc28f	0.49953124
1	0x3d08b45b	0.033375125
2	0x3e3e3d7f	0.18578146
3	0x3e7478ae	0.2387416
4	0x3effbff9	0.4995115
5	0x3d0a4567	0.033757593
6	0x3e3ec424	0.18629509
7	0x3e74c36c	0.23902673
8	0x3effc8c6	0.49957865
9	0x3d0a456c	0.033757612
10	0x3e3dffa4	0.1855455
11	0x3e74aa8d	0.23893185
12	0x3effc395	0.49953905
13	0x3d0bd1f3	0.03413577
14	0x3e3f60ac	0.18689221
15	0x3e751d43	0.23936944
16	0x3effd33d	0.4996585
17	0x3d060d82	0.032727726
18	0x3e3da587	0.18520175
19	0x3e74d25b	0.23908369
20	0x3effc5c0	0.4995556
21	0x3d0bd1f0	0.03413576
22	0x3e402386	0.18763551
23	0x3e75a153	0.23987322
24	0x3effdbc6	0.4997236
25	0x3d071ea3	0.0329882
26	0x3e3f5b15	0.18687089
27	0x3e755cdd	0.23961206
28	0x3effca4b	0.49959025
29	0x3d0d5a1b	0.03450976
30	0x3e40eb00	0.18839645
31	0x3e76452e	0.24049827
32	0x3effe778	0.49981284
33	0x3d023fc1	0.03179908
34	0x3e40608d	0.18786831
35	0x3e75d6eb	0.24007766
36	0x3effcdf9	0.49961832
37	0x3d0c551b	0.03426085
38	0x3e427728	0.18990767
39	0x3e773f4d	0.24145241
40	0x3efff196	0.49989003
41	0x3d071ea8	0.03298822
42	0x3e405b04	0.1878472
43	0x3e76276b	0.24038474
44	0x3effda28	0.49971128
45	0x3d058418	0.032596678
46	0x3e437d3a	0.19090739
47	0x3e77e755	0.2420934
48	0x3efffa92	0.49995857
49	0x3d0bd1f0	0.03413576
50	0x3e4153e6	0.18879661
51	0x3e766fa1	0.2406602

onnx::Div_77 f4 [9]
0	0x4181e1c4	16.235237
1	0x3fb74cff	1.4320372
2	0x40bd5c38	5.917507
3	0x3f8aaeaf	1.0834559
4	0x3efc5b37	0.4928834
5	0x3eb505e1	0.35356048
6	0x3f4a8688	0.7911153
7	0x3da99ba7	0.082816415
8	0x3f46bf94	0.77636075
