Assets/results/5/CoinChaser/CoinChaser-4000.pt (torch, 886900 bytes, 36 tensors)

network_body.observation_encoder.processors.0.normalizer.running_mean f4 [100]
0.9690078 0.0044988757 0.0007498125 0.16977352 0.97625595 0.0027493127 0.0 0.17167914
0.96950763 0.0024993748 0.00024993753 0.17074831 0.9765059 0.0037490637 0.00049987505 0.17034334
0.96525866 0.0034991256 0.00024993753 0.17112659 0.97475636 0.0042489376 0.0 0.16977277
0.96475875 0.0024993753 0.0 0.17235331 0.9715072 0.0044988752 0.00049987505 0.1710512
0.964009 0.0032491875 0.0 0.17078634 0.9725069 0.0024993748 0.00049987505 0.17124325
0.96250933 0.0022494374 0.00049987505 0.17348209 0.972257 0.0022494376 0.00049987505 0.1747035
0.964009 0.0012496874 0.0007498125 0.17516607 0.972007 0.0024993748 0.0 0.17601961
0.96175957 0.0032491866 0.00024993753 0.17511329 0.97125715 0.0024993748 0.0 0.17808637
0.9577605 0.0042489376 0.00024993753 0.17352867 0.9692577 0.0044988752 0.0 0.1792271
0.9565108 0.0039990004 0.0 0.17390256 0.9685079 0.0039990004 0.0 0.1807899
0.9567608 0.0052486877 0.0 0.17386013 0.97400635 0.0027493136 0.0 0.1840833
0.95751065 0.0039990004 0.0 0.17559603 0.9747563 0.0019994997 0.0007498125 0.1845482
0.9537615 0.002749313 0.0 0.17548706
00000000: e510 783f 4e6b 933b 118f 443a 1cd9 2d3e
00000010: e9eb 793f d02d 343b 0000 0000 a8cc 2f3e
00000020: a731 783f 8dcc 233b 0c0a 8339 a5d8 2e3e
00000030: 4afc 793f dab2 753b 0c0a 033a 7c6e 2e3e
00000040: 311b 773f 9651 653b 0c0a 8339 cf3b 2f3e
00000050: a289 793f ac3a 8b3b 0000 0000 ead8 2d3e
00000060: 6efa 763f 8fcc 233b 0000 0000 637d 303e
00000070: b2b4 783f 4d6b 933b 0c0a 033a 0c28 2f3e
00000080: 4bc9 763f 52f0 543b 0000 0000 9de2 2e3e
00000090: 36f6 783f 8dcc 233b 0c0a 033a 645a 2f3e
000000a0: 0367 763f 4c6b 133b 0c0a 033a 4aa5 313e
000000b0: d6e5 783f 4d6b 133b 0c0a 033a 79e5 323e
000000c0: 4bc9 763f 8dcc a33a 118f 443a bc5e 333e
000000d0: 73d5 783f 8dcc 233b 0000 0000 7c3e 343e
000000e0: e035 763f 4ef0 543b 0c0a 8339 e650 333e
000000f0: 4fa4 783f 8dcc 233b 0000 0000 465c 363e
00000100: cb2f 753f ac3a 8b3b 0c0a 8339 80b1 313e
00000110: 4621 783f 4d6b 933b 0000 0000 4f87 373e
00000120: e4dd 743f 0c0a 833b 0000 0000 8313 323e
00000130: 22f0 773f 0c0a 833b 0000 0000 fd20 393e
00000140: 47ee 743f 2ffd ab3b 0000 0000 6408 323e
00000150: 7b58 793f d42d 343b 0000 0000 5580 3c3e
00000160: 6b1f 753f 0c0a 833b 0000 0000 72cf 333e
00000170: a189 793f 0a0a 033b 118f 443a 34fa 3c3e
00000180: b729 743f d12d 343b 0000 0000 e1b2 333e

network_body.observation_encoder.processors.0.normalizer.running_variance f4 [100]
121.15696 18.91902 3.9977505 94.3067 93.74431 11.969757 1.0 98.216415
119.279915 10.975003 1.9997498 98.33961 92.791565 15.943765 2.9990008 93.130066
135.17096 14.9510145 1.9997498 98.56762 99.45039 17.927761 1.0 87.283806
137.03099 10.975006 1.0 99.8986 111.75183 18.919014 2.9990008 86.55972
139.8173 13.957762 1.0 93.5455 107.97577 10.975005 2.9990008 82.863174
145.37642 9.979755 2.9990008 98.97108 108.92052 9.979756 2.9990008 87.15326
139.81729 5.993754 3.9977505 99.56546 109.86478 10.975004 1.0 85.52401
148.1492 13.957762 1.9997498 98.71354 112.69459 10.975004 1.0 87.538605
162.86154 17.927767 1.9997498 94.12232 120.21869 18.919016 1.0 88.2429
167.4329 16.936016 1.0 94.51391 123.032 16.936016 1.0 89.86853
166.51964 21.889778 1.0 93.45937 102.296684 11.969759 1.0 96.0741
163.77681 16.93602 1.0 95.6701 99.45038 8.984007 3.9977508 95.95879
177.44588 11.969757 1.0 95.40108
00000000: 5d50 f242 275a 9741 25db 7f40 089d bc42
00000010: 167d bb42 2084 3f41 0000 803f ce6e c442
00000020: 518f ee42 9d99 2f41 cdf7 ff3f e1ad c442
00000030: 4895 b942 a919 7f41 a1ef 3f40 9842 ba42
00000040: c42b 0743 5b37 6f41 cdf7 ff3f 9f22 c542
00000050: 9ae6 c642 0e6c 8f41 0000 803f 4f91 ae42
00000060: ef07 0943 a099 2f41 0000 803f 15cc c742
00000070: f080 df42 245a 9741 a1ef 3f40 941e ad42
00000080: 3bd1 0b43 fe52 5f41 0000 803f 4c17 bb42
00000090: 98f3 d742 9f99 2f41 a1ef 3f40 f2b9 a542
000000a0: 5d60 1143 14ad 1f41 a1ef 3f40 31f1 c542
000000b0: 4ed7 d942 15ad 1f41 a1ef 3f40 784e ae42
000000c0: 3ad1 0b43 d5cc bf40 25db 7f40 8421 c742
000000d0: c4ba db42 9e99 2f41 0000 803f 4b0c ab42
000000e0: 3226 1443 fe52 5f41 cdf7 ff3f 556d c542
000000f0: a163 e142 9e99 2f41 0000 803f c413 af42
00000100: 8edc 2243 116c 8f41 cdf7 ff3f a13e bc42
00000110: f86f f042 255a 9741 0000 803f 5d7c b042
00000120: d36e 2743 f67c 8741 0000 803f 1f07 bd42
00000130: 6210 f642 f67c 8741 0000 803f b0bc b342
00000140: 0785 2643 441e af41 0000 803f 33eb ba42
00000150: e797 cc42 2284 3f41 0000 803f f025 c042
00000160: ddc6 2343 f87c 8741 0000 803f 1757 bf42
00000170: 98e6 c642 7ebe 0f41 26db 7f40 e7ea bf42
00000180: 2572 3143 2084 3f41 0000 803f 5acd be42

network_body.observation_encoder.processors.1.normalizer.running_mean f4 [52]
0.48237938 0.00049987505 0.024743814 0.27590036 0.47963017 0.0012496873 0.025493626 0.27688643
0.48362908 0.0 0.024493871 0.27597007 0.4786303 0.0012496873 0.025743565 0.277524
0.47838044 0.0012496873 0.0259935 0.27563465 0.47588104 0.00024993753 0.026743315 0.2790919
0.4771307 0.0017495628 0.027243186 0.27636522 0.47288173 0.0002499375 0.028242938 0.28119582
0.48112974 0.0017495628 0.026493372 0.27767187 0.4736315 0.000749812 0.02699325 0.2827064
0.48637843 0.0007498125 0.02574356 0.2785104 0.47488132 0.0009997496 0.027743064 0.28465614
0.49137723 0.0004998748 0.024993747 0.27945128
00000000: 6efa f63e 0c0a 033a 8ab3 ca3c d042 8d3e
00000010: 1692 f53e 8ccc a33a 02d8 d03c 0fc4 8d3e
00000020: 3b9e f73e 0000 0000 5fa7 c83c f34b 8d3e
00000030: 080f f53e 8ccc a33a 2be4 d23c a017 8e3e
00000040: 48ee f43e 8ccc a33a 52f0 d43c fc1f 8d3e
00000050: aea6 f33e 0c0a 8339 cc14 db3c 22e5 8e3e
00000060: 7a4a f43e 9651 e53a 1a2d df3c be7f 8d3e
00000070: 8e1d f23e 0b0a 8339 bc5d e73c e6f8 8f3e
00000080: a356 f63e 9651 e53a a108 d93c 022b 8e3e
00000090: d47f f23e 088f 443a f320 dd3c e5be 903e
000000a0: 9806 f93e 118f 443a 29e4 d23c ea98 8e3e
000000b0: a523 f33e 080a 833a 6c45 e33c 73be 913e
000000c0: cc95 fb3e 080a 033a b0bf cc3c 3d14 8f3e

network_body.observation_encoder.processors.1.normalizer.running_variance f4 [52]
1000.00775 2.9990008 97.55036 181.06813 999.5898 5.9937553 100.39963 181.57446
1000.1776 1.0 96.59959 182.05338 999.4228 5.9937553 101.3484 181.00237
999.37994 5.993752 102.29668 183.90034 998.9224 1.9997498 105.13848 182.81021
999.15735 7.987755 107.03048 187.72174 998.3076 1.9997499 110.808556 186.72426
999.82526 7.9877543 104.1917 189.32802 998.4681 3.9977505 106.08472 186.45119
1000.50757 3.997751 101.34841 189.35992 998.7255 4.995999 108.920525 186.83429
1000.9524 2.9990005 98.500626 189.77855
00000000: 7f00 7a44 a1ef 3f40 c919 c342 7111 3543
00000010: bfe5 7944 d8cc bf40 9ccc c842 1093 3543
00000020: 5e0b 7a44 0000 803f fd32 c142 aa0d 3643
00000030: 0fdb 7944 d8cc bf40 61b2 ca42 9b00 3543
00000040: 51d8 7944 d1cc bf40 e697 cc42 7de6 3743
00000050: 09bb 7944 cdf7 ff3f e746 d242 6acf 3643
00000060: 12ca 7944 b09b ff40 9b0f d642 c4b8 3b43
00000070: b093 7944 cef7 ff3f fb9d dd42 69b9 3a43
00000080: d1f4 7944 af9b ff40 2762 d042 f953 3d43
00000090: f59d 7944 25db 7f40 602b d442 8173 3a43
000000a0: 7c20 7a44 27db 7f40 63b2 ca42 245c 3d43
000000b0: 6fae 7944 39df 9f40 4fd7 d942 94d5 3a43
000000c0: f43c 7a44 a0ef 3f40 5200 c542 4fc7 3d43

network_body.observation_encoder.processors.2.normalizer.running_mean f4 [9]
-2.7038825 2.0440378 7.9813657 0.785763 0.48712817 0.8827793 0.055033118 0.054650042
0.019975156
00000000: 690c 2dc0 84d1 0240 5967 ff40 c427 493f
00000010: dd68 f93e d3fd 613f 686a 613d b9d8 5f3d
00000020: f0a2 a33c

network_body.observation_encoder.processors.2.normalizer.running_variance f4 [9]
1.6342174e+06 5941.748 67157.99 4113.3916 1000.5871 415.0234 15717.103 28.287788
15615.5625
00000000: 4b7d c749 fcad b945 ff2a 8347 228b 8045
00000010: 9325 7a44 ff82 cf43 6994 7546 644d e241
00000020: 40fe 7346

network_body.processors.0.normalizer.running_mean f4 [100]
0.9690078 0.0044988757 0.0007498125 0.16977352 0.97625595 0.0027493127 0.0 0.17167914
0.96950763 0.0024993748 0.00024993753 0.17074831 0.9765059 0.0037490637 0.00049987505 0.17034334
0.96525866 0.0034991256 0.00024993753 0.17112659 0.97475636 0.0042489376 0.0 0.16977277
0.96475875 0.0024993753 0.0 0.17235331 0.9715072 0.0044988752 0.00049987505 0.1710512
0.964009 0.0032491875 0.0 0.17078634 0.9725069 0.0024993748 0.00049987505 0.17124325
0.96250933 0.0022494374 0.00049987505 0.17348209 0.972257 0.0022494376 0.00049987505 0.1747035
0.964009 0.0012496874 0.0007498125 0.17516607 0.972007 0.0024993748 0.0 0.17601961
0.96175957 0.0032491866 0.00024993753 0.17511329 0.97125715 0.0024993748 0.0 0.17808637
0.9577605 0.0042489376 0.00024993753 0.17352867 0.9692577 0.0044988752 0.0 0.1792271
0.9565108 0.0039990004 0.0 0.17390256 0.9685079 0.0039990004 0.0 0.1807899
0.9567608 0.0052486877 0.0 0.17386013 0.97400635 0.0027493136 0.0 0.1840833
0.95751065 0.0039990004 0.0 0.17559603 0.9747563 0.0019994997 0.0007498125 0.1845482
0.9537615 0.002749313 0.0 0.17548706
00000000: e510 783f 4e6b 933b 118f 443a 1cd9 2d3e
00000010: e9eb 793f d02d 343b 0000 0000 a8cc 2f3e
00000020: a731 783f 8dcc 233b 0c0a 8339 a5d8 2e3e
00000030: 4afc 793f dab2 753b 0c0a 033a 7c6e 2e3e
00000040: 311b 773f 9651 653b 0c0a 8339 cf3b 2f3e
00000050: a289 793f ac3a 8b3b 0000 0000 ead8 2d3e
00000060: 6efa 763f 8fcc 233b 0000 0000 637d 303e
00000070: b2b4 783f 4d6b 933b 0c0a 033a 0c28 2f3e
00000080: 4bc9 763f 52f0 543b 0000 0000 9de2 2e3e
00000090: 36f6 783f 8dcc 233b 0c0a 033a 645a 2f3e
000000a0: 0367 763f 4c6b 133b 0c0a 033a 4aa5 313e
000000b0: d6e5 783f 4d6b 133b 0c0a 033a 79e5 323e
000000c0: 4bc9 763f 8dcc a33a 118f 443a bc5e 333e
000000d0: 73d5 783f 8dcc 233b 0000 0000 7c3e 343e
000000e0: e035 763f 4ef0 543b 0c0a 8339 e650 333e
000000f0: 4fa4 783f 8dcc 233b 0000 0000 465c 363e
00000100: cb2f 753f ac3a 8b3b 0c0a 8339 80b1 313e
00000110: 4621 783f 4d6b 933b 0000 0000 4f87 373e
00000120: e4dd 743f 0c0a 833b 0000 0000 8313 323e
00000130: 22f0 773f 0c0a 833b 0000 0000 fd20 393e
00000140: 47ee 743f 2ffd ab3b 0000 0000 6408 323e
00000150: 7b58 793f d42d 343b 0000 0000 5580 3c3e
00000160: 6b1f 753f 0c0a 833b 0000 0000 72cf 333e
00000170: a189 793f 0a0a 033b 118f 443a 34fa 3c3e
00000180: b729 743f d12d 343b 0000 0000 e1b2 333e

network_body.processors.0.normalizer.running_variance f4 [100]
121.15696 18.91902 3.9977505 94.3067 93.74431 11.969757 1.0 98.216415
119.279915 10.975003 1.9997498 98.33961 92.791565 15.943765 2.9990008 93.130066
135.17096 14.9510145 1.9997498 98.56762 99.45039 17.927761 1.0 87.283806
137.03099 10.975006 1.0 99.8986 111.75183 18.919014 2.9990008 86.55972
139.8173 13.957762 1.0 93.5455 107.97577 10.975005 2.9990008 82.863174
145.37642 9.979755 2.9990008 98.97108 108.92052 9.979756 2.9990008 87.15326
139.81729 5.993754 3.9977505 99.56546 109.86478 10.975004 1.0 85.52401
148.1492 13.957762 1.9997498 98.71354 112.69459 10.975004 1.0 87.538605
162.86154 17.927767 1.9997498 94.12232 120.21869 18.919016 1.0 88.2429
167.4329 16.936016 1.0 94.51391 123.032 16.936016 1.0 89.86853
166.51964 21.889778 1.0 93.45937 102.296684 11.969759 1.0 96.0741
163.77681 16.93602 1.0 95.6701 99.45038 8.984007 3.9977508 95.95879
177.44588 11.969757 1.0 95.40108
00000000: 5d50 f242 275a 9741 25db 7f40 089d bc42
00000010: 167d bb42 2084 3f41 0000 803f ce6e c442
00000020: 518f ee42 9d99 2f41 cdf7 ff3f e1ad c442
00000030: 4895 b942 a919 7f41 a1ef 3f40 9842 ba42
00000040: c42b 0743 5b37 6f41 cdf7 ff3f 9f22 c542
00000050: 9ae6 c642 0e6c 8f41 0000 803f 4f91 ae42
00000060: ef07 0943 a099 2f41 0000 803f 15cc c742
00000070: f080 df42 245a 9741 a1ef 3f40 941e ad42
00000080: 3bd1 0b43 fe52 5f41 0000 803f 4c17 bb42
00000090: 98f3 d742 9f99 2f41 a1ef 3f40 f2b9 a542
000000a0: 5d60 1143 14ad 1f41 a1ef 3f40 31f1 c542
000000b0: 4ed7 d942 15ad 1f41 a1ef 3f40 784e ae42
000000c0: 3ad1 0b43 d5cc bf40 25db 7f40 8421 c742
000000d0: c4ba db42 9e99 2f41 0000 803f 4b0c ab42
000000e0: 3226 1443 fe52 5f41 cdf7 ff3f 556d c542
000000f0: a163 e142 9e99 2f41 0000 803f c413 af42
00000100: 8edc 2243 116c 8f41 cdf7 ff3f a13e bc42
00000110: f86f f042 255a 9741 0000 803f 5d7c b042
00000120: d36e 2743 f67c 8741 0000 803f 1f07 bd42
00000130: 6210 f642 f67c 8741 0000 803f b0bc b342
00000140: 0785 2643 441e af41 0000 803f 33eb ba42
00000150: e797 cc42 2284 3f41 0000 803f f025 c042
00000160: ddc6 2343 f87c 8741 0000 803f 1757 bf42
00000170: 98e6 c642 7ebe 0f41 26db 7f40 e7ea bf42
00000180: 2572 3143 2084 3f41 0000 803f 5acd be42

network_body.processors.1.normalizer.running_mean f4 [52]
0.48237938 0.00049987505 0.024743814 0.27590036 0.47963017 0.0012496873 0.025493626 0.27688643
0.48362908 0.0 0.024493871 0.27597007 0.4786303 0.0012496873 0.025743565 0.277524
0.47838044 0.0012496873 0.0259935 0.27563465 0.47588104 0.00024993753 0.026743315 0.2790919
0.4771307 0.0017495628 0.027243186 0.27636522 0.47288173 0.0002499375 0.028242938 0.28119582
0.48112974 0.0017495628 0.026493372 0.27767187 0.4736315 0.000749812 0.02699325 0.2827064
0.48637843 0.0007498125 0.02574356 0.2785104 0.47488132 0.0009997496 0.027743064 0.28465614
0.49137723 0.0004998748 0.024993747 0.27945128
00000000: 6efa f63e 0c0a 033a 8ab3 ca3c d042 8d3e
00000010: 1692 f53e 8ccc a33a 02d8 d03c 0fc4 8d3e
00000020: 3b9e f73e 0000 0000 5fa7 c83c f34b 8d3e
00000030: 080f f53e 8ccc a33a 2be4 d23c a017 8e3e
00000040: 48ee f43e 8ccc a33a 52f0 d43c fc1f 8d3e
00000050: aea6 f33e 0c0a 8339 cc14 db3c 22e5 8e3e
00000060: 7a4a f43e 9651 e53a 1a2d df3c be7f 8d3e
00000070: 8e1d f23e 0b0a 8339 bc5d e73c e6f8 8f3e
00000080: a356 f63e 9651 e53a a108 d93c 022b 8e3e
00000090: d47f f23e 088f 443a f320 dd3c e5be 903e
000000a0: 9806 f93e 118f 443a 29e4 d23c ea98 8e3e
000000b0: a523 f33e 080a 833a 6c45 e33c 73be 913e
000000c0: cc95 fb3e 080a 033a b0bf cc3c 3d14 8f3e

network_body.processors.1.normalizer.running_variance f4 [52]
1000.00775 2.9990008 97.55036 181.06813 999.5898 5.9937553 100.39963 181.57446
1000.1776 1.0 96.59959 182.05338 999.4228 5.9937553 101.3484 181.00237
999.37994 5.993752 102.29668 183.90034 998.9224 1.9997498 105.13848 182.81021
999.15735 7.987755 107.03048 187.72174 998.3076 1.9997499 110.808556 186.72426
999.82526 7.9877543 104.1917 189.32802 998.4681 3.9977505 106.08472 186.45119
1000.50757 3.997751 101.34841 189.35992 998.7255 4.995999 108.920525 186.83429
1000.9524 2.9990005 98.500626 189.77855
00000000: 7f00 7a44 a1ef 3f40 c919 c342 7111 3543
00000010: bfe5 7944 d8cc bf40 9ccc c842 1093 3543
00000020: 5e0b 7a44 0000 803f fd32 c142 aa0d 3643
00000030: 0fdb 7944 d8cc bf40 61b2 ca42 9b00 3543
00000040: 51d8 7944 d1cc bf40 e697 cc42 7de6 3743
00000050: 09bb 7944 cdf7 ff3f e746 d242 6acf 3643
00000060: 12ca 7944 b09b ff40 9b0f d642 c4b8 3b43
00000070: b093 7944 cef7 ff3f fb9d dd42 69b9 3a43
00000080: d1f4 7944 af9b ff40 2762 d042 f953 3d43
00000090: f59d 7944 25db 7f40 602b d442 8173 3a43
000000a0: 7c20 7a44 27db 7f40 63b2 ca42 245c 3d43
000000b0: 6fae 7944 39df 9f40 4fd7 d942 94d5 3a43
000000c0: f43c 7a44 a0ef 3f40 5200 c542 4fc7 3d43

network_body.processors.2.normalizer.running_mean f4 [9]
-2.7038825 2.0440378 7.9813657 0.785763 0.48712817 0.8827793 0.055033118 0.054650042
0.019975156
00000000: 690c 2dc0 84d1 0240 5967 ff40 c427 493f
00000010: dd68 f93e d3fd 613f 686a 613d b9d8 5f3d
00000020: f0a2 a33c

network_body.processors.2.normalizer.running_variance f4 [9]
1.6342174e+06 5941.748 67157.99 4113.3916 1000.5871 415.0234 15717.103 28.287788
15615.5625
00000000: 4b7d c749 fcad b945 ff2a 8347 228b 8045
00000010: 9325 7a44 ff82 cf43 6994 7546 644d e241
00000020: 40fe 7346

network_body._body_endoder.seq_layers.0.weight f4 [256, 161]
0.052814163 0.06191007 0.06788516 -0.012850285 0.036225483 0.06718553 -0.08952766 0.08993491
-0.12657765 0.050835535 0.16985454 -0.041048303 0.016226145 0.036055088 -0.02360288 -0.107287936
-0.09216799 -0.124878205 -0.058100324 0.12554273 -0.034013435 -0.02999874 0.06497316 0.0026833885
0.09085257 0.057847064 -0.109919325 -0.088407286 0.041899398 -0.019958587 0.049691077 0.0931279
-0.1726435 -0.099263854 0.00013218568 0.06730872 0.09413235 0.093183786 0.078776814 0.15622659
0.11956315 -0.030925369 0.06769236 -0.06237365 0.14482276 -0.048115097 0.038292855 0.10955413
0.01771658 0.07979173 0.09108543 -0.009306166 0.010452118 0.005284752 -0.0459476 -0.001878489
0.28339782 0.1678064 0.0702779 0.10564141 -0.048273437 0.012048955 -0.026840039 -0.050891172
-0.043491162 0.13667196 0.046163168 -0.07689855 -0.056829046 0.056802984 0.11410599 0.0014493124
-0.09621657 -0.012507655 -0.024442255 -0.07638692 -0.046610307 -0.02887975 0.05108045 -0.10725878
-0.03348352 -0.07051647 0.07783934 -0.041854348 -0.003487172 -0.039671883 -0.021841822 0.070621
-0.05570819 0.12863462 -0.029143116 0.01910909 -0.0064348327 -0.019330313 -0.0338653 0.08415671
0.042066466 -0.071664214 -0.039158586 -0.05701108 -0.050853174 -0.08203032 0.008751485 0.11321888
-0.05398586 0.12584478 -0.0026560717 -0.010637195 -0.1737052 0.11495432 0.018076837 -0.14819749
-0.05532644 0.16763657 -0.11139358 -0.016392289 0.057912644 -0.094411746 0.20114656 0.078473486
0.060898304 -0.1205673 -0.059847686 0.06423002 -0.09226464 0.116822064 -0.032832596 -0.024538895
0.0035486366 -0.09360742 0.048710093 0.038079757 -0.06385808 0.15335868 -0.034902062 -0.10480132
0.042622667 0.13430855 -0.05435263 -0.07000093 -0.013733097 0.049878936 0.024468567 0.08342162
-0.04997596 0.08641886 0.015918111 0.00035712222 -0.05870269 0.018051088 -0.008642039 -0.029839624
0.0070566945 -0.10594891 0.03616464 0.07191246 0.114089236 -0.086642 -0.11054866 -0.09734332
0.10161485 -0.110720016 -0.027607147 -0.049208354 0.09060023 0.11032347 -0.040700138 -0.10871287
-0.13170478 -0.018822776 0.02041417 0.11281445 0.07179518 -0.10276631 -0.0678403 -0.011395147
0.08136977 -0.17796454 0.08999573 0.16448243 0.087564595 0.085441045 -0.030163376 0.21583776
-0.021030646 -0.05884305 0.09644673 -0.09189128 -0.061368085 -0.10007142 0.12712066 -0.0044176187
-0.08449485 0.0036032428 -0.013883622 0.0032962677 0.044394143 0.043991655 0.05399332 -0.073597655
0.12023522 -0.022763154 -0.064228244 0.009924921 -0.19126168 -0.011276183 0.053133734 -0.013628564
-0.088604495 -0.0017669733 0.13183269 -0.16591835 -0.13471816 -0.036799494 -0.09471368 -0.0011564257
0.06198303 0.049476795 -0.020427879 -0.08847927 0.0072603035 0.0071318196 0.043107256 -0.08299082
0.08934901 -0.14029662 -0.07057985 -0.0966988 -0.23451173 0.08053019 0.093438976 -0.026036453
0.07481609 -0.045912344 -0.05353151 0.09540839 0.0038914194 0.03525603 -0.08399849 0.022106003
-0.04449395 0.11797772 -0.078405514 0.027971026 -0.06431809 -0.11383541 -0.052079786 0.22155568
0.17118844 0.10362156 -0.09784484 0.07448736 -0.07544904 -0.07345973 0.09805846 0.033255942
00000000: aa53 583d 6a95 7d3d 6007 8b3d 008a 52bc
00000010: 2c61 143d 9198 893d 475a b7bd cb2f b83d
00000020: 929d 01be ec38 503d 59ee 2d3e 4422 28bd
00000030: b1ec 843c 80ae 133d d45a c1bc c7b9 dbbd
00000040: 92c2 bcbd 25c0 ffbd 9bfa 6dbd 468e 003e
00000050: ac51 0bbd ebbf f5bc a610 853d cadb 2f3b
00000060: ea10 ba3d 0bf1 6c3d 621d e1bd e10e b5bd
00000070: b49e 2b3d 3180 a3bc df88 4b3d d7b9 be3d
00000080: 75c9 30be d94a cbbd 539b 0a39 27d9 893d
00000090: 76c8 c03d 24d7 be3d bd55 a13d ddf9 1f3e
000000a0: 86dd f43d 3357 fdbc 4ba2 8a3d 837b 7fbd
000000b0: 6b4c 143e 5614 45bd f8d8 1c3d ea5d e03d
000000c0: 5c22 913c d969 a33d ff8a ba3d e478 18bc
000000d0: 5c3f 2b3c b72b ad3b 8d33 3cbd a237 f6ba
000000e0: 8519 913e 71d5 2b3e dced 8f3d 865a d83d
000000f0: 5eba 45bd fb68 453c a4df dbbc 4373 50bd
00000100: ca23 32bd bcf3 0b3e 9715 3d3d fd7c 9dbd
00000110: 93c5 68bd 3faa 683d 67b0 e93d dbf6 bd3a
00000120: 310d c5bd e8ec 4cbc 203b c8bc bf70 9cbd
00000130: 73ea 3ebd 3a95 ecbc bc39 513d 7eaa dbbd
00000140: 0426 09bd f06a 90bd 3b6a 9f3d 776f 2bbd
00000150: 0a89 64bb fc7e 22bd 9fed b2bc bea1 903d
00000160: 452e 64bd cbb8 033e 8bbd eebc ab8a 9c3c
00000170: 4adb d2bb 9b5a 9ebc 57b6 0abd 5a5a ac3d
00000180: e34d 2c3d b0c4 92bd c164 20bd 7384 69bd
00000190: 6b4b 50bd 83ff a7bd 6362 0f3c 4ddf e73d
000001a0: 4720 5dbd 74dd 003e 7d11 2ebb a147 2ebc
000001b0: c7df 31be 2c6d eb3d e015 943c 15c1 17be
000001c0: fa9d 62bd eca8 2b3e 5122 e4bd 1f49 86bc
000001d0: cf35 6d3d f25a c1bd 5df9 4d3e b5b6 a03d
000001e0: 8070 793d fdeb f6bd d922 75bd 078b 833d
000001f0: 3ef5 bcbd 6840 ef3d 797b 06bd cb05 c9bc
00000200: 3e90 683b 3fb5 bfbd 3c84 473d 85f9 1b3d
00000210: 06c8 82bd 0f0a 1d3e 77f5 0ebd 13a2 d6bd
00000220: 1b95 2e3d 2e88 093e dda0 5ebd a65c 8fbd
00000230: c900 61bc db4d 4c3d 4e72 c83c f4d8 aa3d
00000240: 98b3 4cbd 5ffc b03d b366 823c 223c bb39
00000250: 3b72 70bd e0df 933c 5797 0dbc 3a72 f4bc
00000260: d83b e73b befb d8bd 6021 143d d746 933d
00000270: 9ea7 e93d 5c71 b1bd 5667 e2bd ef5b c7bd
00000280: 721b d03d 2dc1 e2bd 6228 e2bc b38e 49bd
00000290: 9d8c b93d 45f1 e13d 30b5 26bd daa4 debd
000002a0: 9edd 06be 3932 9abc 9e3b a73c 430b e73d
000002b0: 5a09 933d 2577 d2bd dbef 8abd b6b2 3abc
000002c0: 32a5 a63d 563c 36be ae4f b83d 156e 283e
000002d0: 1155 b33d b7fb ae3d 2f19 f7bc 9304 5d3e
000002e0: 7648 acbc 6905 71bd dd85 c53d 7f31 bcbd
000002f0: 1a5d 7bbd 3ff2 ccbd eb2b 023e acc1 90bb
00000300: a30b adbd 6224 6c3b 2278 63bc 3206 583b
00000310: a2d6 353d 9830 343d 1928 5d3d 5eba 96bd
00000320: e23d f63d cb79 babc 198a 83bd 239c 223c
00000330: 1ada 43be bdbf 38bc c2a2 593d 574a 5fbc
00000340: 4676 b5bd c999 e7ba 26ff 063e 80e6 29be
00000350: 8ff3 09be 11bb 16bd 3ff9 c1bd 3593 97ba
00000360: ebe1 7d3d 2ea8 4a3d 5e58 a7bc 9f34 b5bd
00000370: d7e7 ed3b 0ab2 e93b 3c91 303d 17f7 a9bd
00000380: 9dfc b63d eba9 0fbe 2b8c 90bd 050a c6bd
00000390: d823 70be 03ed a43d ef5c bf3d 664a d5bc
000003a0: 2e39 993d 950e 3cbd db43 5bbd 7965 c33d
000003b0: 2f07 7f3b a068 103d 6607 acbd a617 b53c
000003c0: 4a3f 36bd 4e9e f13d 1293 a0bd 7e23 e53c
000003d0: 34b9 83bd 8a22 e9bd 9d51 55bd 7edf 623e
000003e0: 064c 2f3e 8a37 d43d e062 c8bd d48c 983d
000003f0: 0785 9abd 0e72 96bd e0d2 c83d 6237 083d

network_body._body_endoder.seq_layers.0.bias f4 [256]
0.0 0.0 0.0 0.0 0.0 0.0 0.0 0.0
0.0 0.0 0.0 0.0 0.0 0.0 0.0 0.0
0.0 0.0 0.0 0.0 0.0 0.0 0.0 0.0
0.0 0.0 0.0 0.0 0.0 0.0 0.0 0.0
0.0 0.0 0.0 0.0 0.0 0.0 0.0 0.0
0.0 0.0 0.0 0.0 0.0 0.0 0.0 0.0
0.0 0.0 0.0 0.0 0.0 0.0 0.0 0.0
0.0 0.0 0.0 0.0 0.0 0.0 0.0 0.0
0.0 0.0 0.0 0.0 0.0 0.0 0.0 0.0
0.0 0.0 0.0 0.0 0.0 0.0 0.0 0.0
0.0 0.0 0.0 0.0 0.0 0.0 0.0 0.0
0.0 0.0 0.0 0.0 0.0 0.0 0.0 0.0
0.0 0.0 0.0 0.0 0.0 0.0 0.0 0.0
0.0 0.0 0.0 0.0 0.0 0.0 0.0 0.0
0.0 0.0 0.0 0.0 0.0 0.0 0.0 0.0
0.0 0.0 0.0 0.0 0.0 0.0 0.0 0.0
0.0 0.0 0.0 0.0 0.0 0.0 0.0 0.0
0.0 0.0 0.0 0.0 0.0 0.0 0.0 0.0
0.0 0.0 0.0 0.0 0.0 0.0 0.0 0.0
0.0 0.0 0.0 0.0 0.0 0.0 0.0 0.0
0.0 0.0 0.0 0.0 0.0 0.0 0.0 0.0
0.0 0.0 0.0 0.0 0.0 0.0 0.0 0.0
0.0 0.0 0.0 0.0 0.0 0.0 0.0 0.0
0.0 0.0 0.0 0.0 0.0 0.0 0.0 0.0
0.0 0.0 0.0 0.0 0.0 0.0 0.0 0.0
0.0 0.0 0.0 0.0 0.0 0.0 0.0 0.0
0.0 0.0 0.0 0.0 0.0 0.0 0.0 0.0
0.0 0.0 0.0 0.0 0.0 0.0 0.0 0.0
0.0 0.0 0.0 0.0 0.0 0.0 0.0 0.0
0.0 0.0 0.0 0.0 0.0 0.0 0.0 0.0
0.0 0.0 0.0 0.0 0.0 0.0 0.0 0.0
0.0 0.0 0.0 0.0 0.0 0.0 0.0 0.0
00000000: 0000 0000 0000 0000 0000 0000 0000 0000
00000010: 0000 0000 0000 0000 0000 0000 0000 0000
00000020: 0000 0000 0000 0000 0000 0000 0000 0000
00000030: 0000 0000 0000 0000 0000 0000 0000 0000
00000040: 0000 0000 0000 0000 0000 0000 0000 0000
00000050: 0000 0000 0000 0000 0000 0000 0000 0000
00000060: 0000 0000 0000 0000 0000 0000 0000 0000
00000070: 0000 0000 0000 0000 0000 0000 0000 0000
00000080: 0000 0000 0000 0000 0000 0000 0000 0000
00000090: 0000 0000 0000 0000 0000 0000 0000 0000
000000a0: 0000 0000 0000 0000 0000 0000 0000 0000
000000b0: 0000 0000 0000 0000 0000 0000 0000 0000
000000c0: 0000 0000 0000 0000 0000 0000 0000 0000
000000d0: 0000 0000 0000 0000 0000 0000 0000 0000
000000e0: 0000 0000 0000 0000 0000 0000 0000 0000
000000f0: 0000 0000 0000 0000 0000 0000 0000 0000
00000100: 0000 0000 0000 0000 0000 0000 0000 0000
00000110: 0000 0000 0000 0000 0000 0000 0000 0000
00000120: 0000 0000 0000 0000 0000 0000 0000 0000
00000130: 0000 0000 0000 0000 0000 0000 0000 0000
00000140: 0000 0000 0000 0000 0000 0000 0000 0000
00000150: 0000 0000 0000 0000 0000 0000 0000 0000
00000160: 0000 0000 0000 0000 0000 0000 0000 0000
00000170: 0000 0000 0000 0000 0000 0000 0000 0000
00000180: 0000 0000 0000 0000 0000 0000 0000 0000
00000190: 0000 0000 0000 0000 0000 0000 0000 0000
000001a0: 0000 0000 0000 0000 0000 0000 0000 0000
000001b0: 0000 0000 0000 0000 0000 0000 0000 0000
000001c0: 0000 0000 0000 0000 0000 0000 0000 0000
000001d0: 0000 0000 0000 0000 0000 0000 0000 0000
000001e0: 0000 0000 0000 0000 0000 0000 0000 0000
000001f0: 0000 0000 0000 0000 0000 0000 0000 0000
00000200: 0000 0000 0000 0000 0000 0000 0000 0000
00000210: 0000 0000 0000 0000 0000 0000 0000 0000
00000220: 0000 0000 0000 0000 0000 0000 0000 0000
00000230: 0000 0000 0000 0000 0000 0000 0000 0000
00000240: 0000 0000 0000 0000 0000 0000 0000 0000
00000250: 0000 0000 0000 0000 0000 0000 0000 0000
00000260: 0000 0000 0000 0000 0000 0000 0000 0000
00000270: 0000 0000 0000 0000 0000 0000 0000 0000
00000280: 0000 0000 0000 0000 0000 0000 0000 0000
00000290: 0000 0000 0000 0000 0000 0000 0000 0000
000002a0: 0000 0000 0000 0000 0000 0000 0000 0000
000002b0: 0000 0000 0000 0000 0000 0000 0000 0000
000002c0: 0000 0000 0000 0000 0000 0000 0000 0000
000002d0: 0000 0000 0000 0000 0000 0000 0000 0000
000002e0: 0000 0000 0000 0000 0000 0000 0000 0000
000002f0: 0000 0000 0000 0000 0000 0000 0000 0000
00000300: 0000 0000 0000 0000 0000 0000 0000 0000
00000310: 0000 0000 0000 0000 0000 0000 0000 0000
00000320: 0000 0000 0000 0000 0000 0000 0000 0000
00000330: 0000 0000 0000 0000 0000 0000 0000 0000
00000340: 0000 0000 0000 0000 0000 0000 0000 0000
00000350: 0000 0000 0000 0000 0000 0000 0000 0000
00000360: 0000 0000 0000 0000 0000 0000 0000 0000
00000370: 0000 0000 0000 0000 0000 0000 0000 0000
00000380: 0000 0000 0000 0000 0000 0000 0000 0000
00000390: 0000 0000 0000 0000 0000 0000 0000 0000
000003a0: 0000 0000 0000 0000 0000 0000 0000 0000
000003b0: 0000 0000 0000 0000 0000 0000 0000 0000
000003c0: 0000 0000 0000 0000 0000 0000 0000 0000
000003d0: 0000 0000 0000 0000 0000 0000 0000 0000
000003e0: 0000 0000 0000 0000 0000 0000 0000 0000
000003f0: 0000 0000 0000 0000 0000 0000 0000 0000

network_body._body_endoder.seq_layers.2.weight f4 [256, 256]
0.058873802 0.058572814 0.0344131 -0.00026505822 -0.004844011 -0.0059785126 0.019051595 0.04536414
-0.06064655 0.08940768 0.045393422 0.08195618 0.021863632 0.022223627 0.011990993 0.036432687
-0.017890975 0.07361521 0.03776754 -0.06682457 0.007012949 0.026655164 -0.045046467 -0.026698206
0.02058283 -0.009663449 -0.044018324 0.01376376 0.063345574 -0.03054592 0.037855744 -0.017024988
-0.015251324 -0.020910224 -0.030492485 -0.019752603 -0.022361519 -0.011823916 0.029134167 0.052764192
0.10412612 -0.046043254 -0.004024705 -0.019406777 -0.00055422384 0.0007737273 0.0807557 -0.10094142
-0.018444777 -0.05977101 -0.13852784 -0.11592026 -0.038317192 0.104705326 -0.025640728 0.03972075
-0.006543622 0.05186245 0.047927476 -0.007450652 0.026411548 0.0436245 0.027891798 0.056185845
-0.011491721 -0.008376181 -0.003070815 0.024907457 0.036414795 0.009574628 -0.03456306 0.071385026
0.042754166 -0.018304192 -0.0015924057 -0.14807217 -0.0005522555 -0.04311053 0.07651342 0.091691636
0.046099417 -0.044232465 0.038625944 0.049249303 0.06974567 -0.10307127 -0.0022505356 0.0297631
0.021370746 -0.054129507 -0.042292792 -0.13326491 0.00053710036 -0.06513716 -0.10188737 0.04518171
0.015669798 -0.05063628 0.13971949 -0.021189703 0.054165833 -0.024961473 -0.023165418 -0.013495294
0.15219755 0.04744384 0.0028615596 -0.06543804 0.016305571 -0.03025201 0.018253312 -0.04928631
-0.05043576 -0.07171685 -0.01591197 -0.101273775 -0.053338155 0.07399315 -0.0836586 0.0724315
-0.06525122 -0.002041695 0.01978067 0.053980973 0.06031476 0.01354989 0.016778037 -0.018403986
-0.16538666 -0.014479266 -0.015063696 0.008964617 -0.012943423 -0.007846404 -0.025050122 -0.18995063
-0.02273378 0.021657433 0.0003573723 -0.04320283 -0.036432207 0.02610697 -0.043489464 -0.0025042878
-0.023263602 0.11280478 -0.065556586 0.10098039 -0.03722137 -0.004901365 -0.034423612 0.039154485
-0.021646602 -0.09780757 0.017667178 -0.031382047 -0.018030811 -0.07402605 0.0037401083 -0.13446078
-0.09976094 -0.041964266 -0.06655103 -0.049781833 -0.022342501 -0.077444516 -0.064844556 -0.07198482
-0.025094608 0.026098784 0.02300842 0.044509582 0.010870292 -0.045847896 -0.018514115 0.007877204
0.018837819 -0.17008542 -0.106726214 -0.0010320855 0.060931057 -0.030605871 -0.02916863 -0.004472378
0.0852264 0.042809356 -0.10004904 -0.090655014 0.008394762 0.04657022 -0.011671801 -0.0715835
0.051641002 0.07012559 0.0074789957 -0.0019868377 0.02591093 0.07460706 -0.020069744 0.10831154
0.021072041 -0.036845066 0.08370418 -0.000116881216 -0.1048604 0.029988863 0.07385106 0.009827463
-0.0043268763 -0.14064042 0.1363336 0.059722032 0.05781137 -0.023535058 0.024980823 0.053100847
-0.02234519 0.080838285 -0.073835485 0.12166692 -0.021436637 0.13969651 -0.048243288 0.12783536
0.0066992342 0.06619566 0.030833693 -0.040346775 -0.037080705 -0.02377909 0.050099872 -0.035232436
-0.025976745 -0.053670537 0.06856392 -0.099415615 -0.019010434 0.034655623 -0.079358585 0.041444797
-0.047289964 0.011233964 0.040726557 -0.045767296 -0.05032218 0.029748615 0.017264659 -0.031051327
-0.08744572 0.02720147 0.055253223 0.07142313 0.0029681977 -0.0393968 0.09677068 -0.11625192
00000000: a825 713d 0cea 6f3d c0f4 0c3d 83f7 8ab9
00000010: 82ba 9ebb 66e7 c3bb 1712 9c3c c0cf 393d
00000020: 8468 78bd 601b b73d 74ee 393d a4d8 a73d
00000030: 5c1b b33c 530e b63c df75 443c 713a 153d
00000040: 1890 92bc 92c3 963d 23b2 1a3d 52db 88bd
00000050: e1cc e53b ee5b da3c a582 38bd 32b6 dabc
00000060: 539d a83c 7153 1ebc 8f4c 34bd 6581 613c
00000070: 53bb 813d 703b fabc a00e 1b3d fd77 8bbc
00000080: b0e0 79bc eb4b abbc 60cb f9bc 36d0 a1bc
00000090: 812f b7bc 19b9 41bc c7aa ee3c 441f 583d
000000a0: 1340 d53d da97 3cbd ace1 83bb f6fa 9ebc
000000b0: 5549 11ba f6d3 4a3a 3f63 a53d 60ba cebd
000000c0: 8019 97bc 72d2 74bd 3eda 0dbe 9a67 edbd
000000d0: 7df2 1cbd bf6f d63d 810c d2bc 3ab2 223d
000000e0: e16b d6bb b86d 543d 9a4f 443d 9924 f4bb
000000f0: 085d d83c 9baf 323d 577d e43c 2123 663d
00000100: c547 3cbc 403c 09bc ba3f 49bb b90a cc3c
00000110: ae27 153d e7de 1c3c ff91 0dbd 5032 923d
00000120: fe1e 2f3d acf2 95bc 45b8 d0ba 3ba0 17be
00000130: 3dc5 10ba ab94 30bd 11b3 9c3d d3c8 bb3d
00000140: bed2 3c3d 1a2d 35bd 3d36 1e3d a3b9 493d
00000150: d1d6 8e3d 0817 d3bd b97d 13bb bfd1 f33c
00000160: b411 af3c e7b6 5dbd 353b 2dbd 9976 08be
00000170: 32cc 0c3a a266 85bd 53aa d0bd 7510 393d
00000180: f35d 803c fd67 4fbd a012 0f3e 0796 adbc
00000190: fedc 5d3d 017c ccbc 67c5 bdbc 5e1b 5dbc
000001a0: add9 1b3e 7954 423d 0189 3b3b 6104 86bd
000001b0: 4393 853c 10d3 f7bc f887 953c 71e0 49bd
000001c0: ba95 4ebd 49e0 92bd d259 82bc a068 cfbd
000001d0: 1c79 5abd b889 973d 3355 abbd f756 943d
000001e0: 6ea2 85bd f5cd 05bb 120b a23c 271b 5d3d
000001f0: 9c0c 773d 5c00 5e3c 1872 893c f5c3 96bc
00000200: 1f5b 29be 713a 6dbc b8cd 76bc 54e0 123c
00000210: a710 54bc 348e 00bc ea35 cdbc 6b82 42be
00000220: 313c babc ee6a b13c b35d bb39 73f5 30bd
00000230: f039 15bd 49de d53c 0222 32bd fa1e 24bb
00000240: 4f93 bebc 3106 e73d 8842 86bd cfce ce3d
00000250: 6f75 18bd a19b a0bb c6ff 0cbd 7460 203d
00000260: 3754 b1bc 564f c8bd c2ba 903c 768a 00bd
00000270: 5ab5 93bc f89a 97bd 9b1c 753b 16b0 09be
00000280: 774f ccbd b9e2 2bbd e84b 88bd 09e8 4bbd
00000290: 9f07 b7bc 3b9b 9ebd 39cd 84bd c76c 93bd
000002a0: 3593 cdbc 1ecd d53c 277c bc3c ae4f 363d
000002b0: 4f19 323c 01cb 3bbd eaaa 97bc 630f 013c
000002c0: c551 9a3c df2a 2ebe 4693 dabd 0b47 87ba
000002d0: d892 793d 2ab9 fabc 0df3 eebc 078d 92bb
000002e0: 2e8b ae3d dd58 2f3d 83e6 ccbd 56a9 b9bd
000002f0: 2f8a 093c 6ac0 3e3d 153b 3fbc 5f9a 92bd
00000300: 8485 533d 019e 8f3d 5d12 f53b 9b35 02bb
00000310: 2943 d43c 96cb 983d 4e69 a4bc 71d2 dd3d
00000320: 469f ac3c daea 16bd 196d ab3d 201e f5b8
00000330: 0dc1 d6bd 34ab f53c 393f 973d 5e03 213c
00000340: 78c8 8dbb 0b04 10be 099b 0b3e 179f 743d
00000350: 9dcb 6c3d 98cc c0bc 95a4 cc3c 4680 593d
00000360: 430d b7bc 8b8e a53d 0f37 97bd 822c f93d
00000370: e39b afbc 9a0c 0f3e c19a 45bd 46e7 023e
00000380: 4085 db3b 9791 873d f196 fc3c a942 25bd
00000390: f0e1 17bd 5ecc c2bc 8635 4d3d e34f 10bd
000003a0: 2fcd d4bc a3d5 5bbd 3e6b 8c3d 6a9a cbbd
000003b0: c5bb 9bbc 0ef3 0d3d c186 a2bd 05c2 293d
000003c0: 1fb3 41bd a90e 383c e4d0 263d 7d76 3bbd
000003d0: a11e 4ebd 5eb3 f33c 9d6e 8d3c 5a5f febc
000003e0: be16 b3bd 9ed5 de3c 3451 623d 4a46 923d
000003f0: 1886 423b 8a5e 21bd b52f c63d 7d15 eebd

network_body._body_endoder.seq_layers.2.bias f4 [256]
0.0 0.0 0.0 0.0 0.0 0.0 0.0 0.0
0.0 0.0 0.0 0.0 0.0 0.0 0.0 0.0
0.0 0.0 0.0 0.0 0.0 0.0 0.0 0.0
0.0 0.0 0.0 0.0 0.0 0.0 0.0 0.0
0.0 0.0 0.0 0.0 0.0 0.0 0.0 0.0
0.0 0.0 0.0 0.0 0.0 0.0 0.0 0.0
0.0 0.0 0.0 0.0 0.0 0.0 0.0 0.0
0.0 0.0 0.0 0.0 0.0 0.0 0.0 0.0
0.0 0.0 0.0 0.0 0.0 0.0 0.0 0.0
0.0 0.0 0.0 0.0 0.0 0.0 0.0 0.0
0.0 0.0 0.0 0.0 0.0 0.0 0.0 0.0
0.0 0.0 0.0 0.0 0.0 0.0 0.0 0.0
0.0 0.0 0.0 0.0 0.0 0.0 0.0 0.0
0.0 0.0 0.0 0.0 0.0 0.0 0.0 0.0
0.0 0.0 0.0 0.0 0.0 0.0 0.0 0.0
0.0 0.0 0.0 0.0 0.0 0.0 0.0 0.0
0.0 0.0 0.0 0.0 0.0 0.0 0.0 0.0
0.0 0.0 0.0 0.0 0.0 0.0 0.0 0.0
0.0 0.0 0.0 0.0 0.0 0.0 0.0 0.0
0.0 0.0 0.0 0.0 0.0 0.0 0.0 0.0
0.0 0.0 0.0 0.0 0.0 0.0 0.0 0.0
0.0 0.0 0.0 0.0 0.0 0.0 0.0 0.0
0.0 0.0 0.0 0.0 0.0 0.0 0.0 0.0
0.0 0.0 0.0 0.0 0.0 0.0 0.0 0.0
0.0 0.0 0.0 0.0 0.0 0.0 0.0 0.0
0.0 0.0 0.0 0.0 0.0 0.0 0.0 0.0
0.0 0.0 0.0 0.0 0.0 0.0 0.0 0.0
0.0 0.0 0.0 0.0 0.0 0.0 0.0 0.0
0.0 0.0 0.0 0.0 0.0 0.0 0.0 0.0
0.0 0.0 0.0 0.0 0.0 0.0 0.0 0.0
0.0 0.0 0.0 0.0 0.0 0.0 0.0 0.0
0.0 0.0 0.0 0.0 0.0 0.0 0.0 0.0
00000000: 0000 0000 0000 0000 0000 0000 0000 0000
00000010: 0000 0000 0000 0000 0000 0000 0000 0000
00000020: 0000 0000 0000 0000 0000 0000 0000 0000
00000030: 0000 0000 0000 0000 0000 0000 0000 0000
00000040: 0000 0000 0000 0000 0000 0000 0000 0000
00000050: 0000 0000 0000 0000 0000 0000 0000 0000
00000060: 0000 0000 0000 0000 0000 0000 0000 0000
00000070: 0000 0000 0000 0000 0000 0000 0000 0000
00000080: 0000 0000 0000 0000 0000 0000 0000 0000
00000090: 0000 0000 0000 0000 0000 0000 0000 0000
000000a0: 0000 0000 0000 0000 0000 0000 0000 0000
000000b0: 0000 0000 0000 0000 0000 0000 0000 0000
000000c0: 0000 0000 0000 0000 0000 0000 0000 0000
000000d0: 0000 0000 0000 0000 0000 0000 0000 0000
000000e0: 0000 0000 0000 0000 0000 0000 0000 0000
000000f0: 0000 0000 0000 0000 0000 0000 0000 0000
00000100: 0000 0000 0000 0000 0000 0000 0000 0000
00000110: 0000 0000 0000 0000 0000 0000 0000 0000
00000120: 0000 0000 0000 0000 0000 0000 0000 0000
00000130: 0000 0000 0000 0000 0000 0000 0000 0000
00000140: 0000 0000 0000 0000 0000 0000 0000 0000
00000150: 0000 0000 0000 0000 0000 0000 0000 0000
00000160: 0000 0000 0000 0000 0000 0000 0000 0000
00000170: 0000 0000 0000 0000 0000 0000 0000 0000
00000180: 0000 0000 0000 0000 0000 0000 0000 0000
00000190: 0000 0000 0000 0000 0000 0000 0000 0000
000001a0: 0000 0000 0000 0000 0000 0000 0000 0000
000001b0: 0000 0000 0000 0000 0000 0000 0000 0000
000001c0: 0000 0000 0000 0000 0000 0000 0000 0000
000001d0: 0000 0000 0000 0000 0000 0000 0000 0000
000001e0: 0000 0000 0000 0000 0000 0000 0000 0000
000001f0: 0000 0000 0000 0000 0000 0000 0000 0000
00000200: 0000 0000 0000 0000 0000 0000 0000 0000
00000210: 0000 0000 0000 0000 0000 0000 0000 0000
00000220: 0000 0000 0000 0000 0000 0000 0000 0000
00000230: 0000 0000 0000 0000 0000 0000 0000 0000
00000240: 0000 0000 0000 0000 0000 0000 0000 0000
00000250: 0000 0000 0000 0000 0000 0000 0000 0000
00000260: 0000 0000 0000 0000 0000 0000 0000 0000
00000270: 0000 0000 0000 0000 0000 0000 0000 0000
00000280: 0000 0000 0000 0000 0000 0000 0000 0000
00000290: 0000 0000 0000 0000 0000 0000 0000 0000
000002a0: 0000 0000 0000 0000 0000 0000 0000 0000
000002b0: 0000 0000 0000 0000 0000 0000 0000 0000
000002c0: 0000 0000 0000 0000 0000 0000 0000 0000
000002d0: 0000 0000 0000 0000 0000 0000 0000 0000
000002e0: 0000 0000 0000 0000 0000 0000 0000 0000
000002f0: 0000 0000 0000 0000 0000 0000 0000 0000
00000300: 0000 0000 0000 0000 0000 0000 0000 0000
00000310: 0000 0000 0000 0000 0000 0000 0000 0000
00000320: 0000 0000 0000 0000 0000 0000 0000 0000
00000330: 0000 0000 0000 0000 0000 0000 0000 0000
00000340: 0000 0000 0000 0000 0000 0000 0000 0000
00000350: 0000 0000 0000 0000 0000 0000 0000 0000
00000360: 0000 0000 0000 0000 0000 0000 0000 0000
00000370: 0000 0000 0000 0000 0000 0000 0000 0000
00000380: 0000 0000 0000 0000 0000 0000 0000 0000
00000390: 0000 0000 0000 0000 0000 0000 0000 0000
000003a0: 0000 0000 0000 0000 0000 0000 0000 0000
000003b0: 0000 0000 0000 0000 0000 0000 0000 0000
000003c0: 0000 0000 0000 0000 0000 0000 0000 0000
000003d0: 0000 0000 0000 0000 0000 0000 0000 0000
000003e0: 0000 0000 0000 0000 0000 0000 0000 0000
000003f0: 0000 0000 0000 0000 0000 0000 0000 0000

action_model._continuous_distribution.log_sigma f4 [1, 6]
0.0 0.0 0.0 0.0 0.0 0.0
00000000: 0000 0000 0000 0000 0000 0000 0000 0000
00000010: 0000 0000 0000 0000

action_model._continuous_distribution.mu.weight f4 [6, 256]
-0.0067070774 0.007730969 -0.0024428896 -0.003498379 0.017570045 -0.008296306 -0.017614461 0.020051502
0.014300197 0.00079126324 0.012171603 0.006561074 -0.005412183 -0.02235816 0.006720026 0.00084719755
-0.014888777 -0.010326596 -0.009511632 -0.003792587 -0.002183898 0.00085931196 -0.026218658 0.0021570604
-0.01286749 -0.003374738 0.0034924631 0.014123519 0.007370524 -0.017295187 -0.016051864 -0.038386818
0.009476883 0.015964268 0.0014358809 0.021907134 -0.0061424323 -0.0126029765 0.0072114104 -0.02609337
-0.019076679 0.021487812 -0.013087413 -0.0070928396 0.0036938067 -0.005585976 0.0103407195 -0.0049344157
-0.006208865 0.00081325526 -0.003437465 -0.0011930357 -0.014012391 0.01916983 -0.007662151 -0.018317979
-0.007419666 -0.0052083307 -7.0156144e-05 0.015814817 -0.0038168074 -0.00574666 0.0046619466 -0.009194817
0.0072250078 0.016104016 0.01983717 -0.009236757 1.423627e-05 -0.009523704 -0.012221549 -0.0031137418
-0.0039823577 -0.019029101 -0.0005315932 -0.006806662 -0.005209615 0.01099476 0.013286046 0.00021248891
0.033244226 0.0005423372 -0.011361568 -0.034061782 0.00024680534 -0.015421221 0.014251234 -0.021884782
0.0050573447 -0.0069816797 0.0015076448 -0.007356996 0.0053629237 0.022562638 -0.0037545704 0.0009804699
-0.0076606907 0.00066305255 0.011750848 -0.0061549656 0.011984562 -0.014314613 -0.012755084 0.013227674
0.0029980955 0.013983384 -0.010728364 0.007949057 -0.022668436 0.013503735 0.0059553063 -0.008072072
0.0017597532 -0.005081884 -0.009819537 -0.000776103 0.0062825643 -0.004446061 -0.005016323 0.0036863412
-0.005193019 0.013532025 0.0015020282 -0.010510066 0.0024671739 0.007052029 -0.0041093794 -0.003048605
0.0033393844 -0.014949269 0.0028267635 0.012640155 -0.013601354 -0.016161015 -0.018063053 -0.007688459
-0.0016153901 -0.0030125182 -0.009834284 -0.004168161 -0.0012916848 -0.0022986138 0.028878916 0.002105747
-0.0036629296 0.0021960938 0.014668623 0.002503528 0.0021213244 -0.014713185 -0.009550001 -0.0016559701
0.008611321 -0.02129942 -0.00674379 -0.014696354 -0.01916988 0.007880968 -0.00701513 0.0053091883
-0.004167599 -0.01362517 -0.003542497 0.017387023 0.001438165 -0.015712466 -0.013664118 0.010108846
0.012353941 -0.008582664 0.01121134 -0.0014110743 -0.014012903 0.0062860507 -0.013376961 -0.0036996026
0.005674138 0.026752139 -0.0025626977 0.018847216 0.004760463 0.016386341 -0.009925383 0.004701723
-0.0021607056 0.0071820947 0.005038626 0.025017653 0.0078982385 -0.00064077304 0.016262261 -0.020080423
0.005255366 0.0021820436 0.019988256 0.007103001 0.03087539 0.0004979672 0.022552133 0.0103016645
0.006317021 0.0022933935 0.0052202423 0.014781122 0.014229012 -0.008655227 0.0006097303 0.0034978376
-0.015166256 -0.00096368557 0.0056319926 0.0069596507 -0.025483979 -0.007550364 -0.008323164 -0.017767636
0.008124142 0.0064256242 -0.002499554 0.023883399 0.019653765 -0.004499189 0.005310702 0.0033846651
-0.0054359636 0.0013544777 0.011019323 0.007100074 -0.00043634695 -0.007117574 0.020915985 -0.0013731156
0.012600036 0.008315591 -0.0025674198 -0.001172431 0.00034286026 -0.0025445472 0.011534284 -0.02434959
-0.01542718 0.007314287 0.016895505 -0.0018146223 0.0038251483 0.0004871898 0.009333925 -0.004324473
-0.02449034 0.0072763613 0.011123184 -0.018012619 -0.007964001 0.00732967 0.009526374 0.012338423
00000000: 0bc7 dbbb 1254 fd3b e318 20bb 0f45 65bb
00000010: 0eef 8f3c 3bed 07bc 344c 90bc 0c43 a43c
00000020: 604b 6a3c c76c 4f3a 676b 473c 47fe d63b
00000030: ae58 b1bb 7628 b7bc aa33 dc3b 7716 5e3a
00000040: 0ff0 73bc e230 29bc add6 1bbc 0d8d 78bb
00000050: ba1f 0fbb 7343 613a 83c8 d6bc 785d 0d3b
00000060: 2ad2 52bc b52a 5dbb cfe1 643b 5566 673c
00000070: 7084 f13b a3ae 8dbc 337f 83bc 7f3b 1dbd
00000080: ee44 1b3c 7fc7 823c 2b34 bc3a 9776 b33c
00000090: 7546 c9bb b77c 4ebc b24d ec3b c3c1 d5bc
000000a0: b246 9cbc 3507 b03c 976c 56bc 0d6b e8bb
000000b0: cb13 723b 900a b7bb 1f6c 293c e1b0 a1bb
000000c0: bc73 cbbb a330 553a 1847 61bb a35f 9cba
000000d0: 3a94 65bc 0c0a 9d3c c812 fbbb 960f 96bc
000000e0: ab20 f3bb a5aa aabb cb20 93b8 138e 813c
000000f0: 6723 7abb 7a4e bcbb 3ec3 983b dca5 16bc
00000100: c2bf ec3b 92ec 833c 9081 a23c c455 17bc
00000110: 50d8 6e37 4f09 1cbc e43c 48bc eb0f 4cbb
00000120: 707e 82bb ebe2 9bbc 9e5a 0bba 6b0a dfbb
00000130: 6bb5 aabb 5e23 343c b7ad 593c 8fcf 5e39
00000140: 192b 083d a22b 0e3a df25 3abc 5e84 0bbd
00000150: a765 8139 4aa9 7cbc 027e 693c b747 b3bc
00000160: 15b8 a53b 93c6 e4bb 2a9c c53a f512 f1bb
00000170: 77bb af3b 48d5 b83c 3d0f 76bb 1c83 803a
00000180: 8806 fbbb b4d0 2d3a a186 403c 98af c9bb
00000190: e55a 443c d787 6abc b3fa 50bc e3b8 583c
000001a0: b27b 443b 901a 653c 05c6 2fbc c33c 023c
000001b0: 28b3 b9bc c53e 5d3c bb24 c33b b940 04bc
000001c0: 85a7 e63a ef85 a6bb 20e2 20bc 6473 4bba
000001d0: f8dd cd3b 43b0 91bb f85f a4bb 8b96 713b
000001e0: 332a aabb 6db5 5d3c b4df c43a 6932 2cbc
000001f0: 4fb0 213b b514 e73b f9a7 86bb 1bcb 47bb
00000200: 93d9 5a3b c7ed 74bc 3941 393b a718 4f3c
00000210: 37d8 5ebc 1b64 84bc f8f8 93bc 78ef fbbb
00000220: 7fbb d3ba ab6d 45bb fa1f 21bc 1295 88bb
00000230: c04d a9ba 57a4 16bb 7a93 ec3c 9200 0a3b
00000240: c30d 70bb 57ec 0f3b aa54 703c 3b12 243b
00000250: eb05 0b3b 920f 71bc 9b77 1cbc 230d d9ba
00000260: 8016 0d3c 1f7c aebc 03fb dcbb fac8 70bc
00000270: 270a 9dbc 2d1f 013c 2ddf e5bb b3f8 ad3b
00000280: 5b90 88bb 1b3c 5fbc 3d29 68bb 3b6f 8e3c
00000290: cf80 bc3a 6eb7 80bc 77df 5fbc 939f 253c
000002a0: 2f68 4a3c 4d9e 0cbc c5af 373c ccf3 b8ba
000002b0: 6096 65bc 37fb cd3b 0b2b 5bbc 0875 72bb
000002c0: 1fee b93b 4d27 db3c eff2 27bb 7a65 9a3c
000002d0: a8fd 9b3b a63c 863c 139e 22bc e910 9a3b
000002e0: a09a 0dbb c757 eb3b 0f1b a53b d2f1 cc3c
000002f0: 9d67 013c 8df9 27ba 6f38 853c b37f a4bc
00000300: 3535 ac3b 9e00 0f3b 69be a33c 4ac0 e83b
00000310: 63ee fc3c 038a 023a 40bf b83c 50c8 283c
00000320: 03ff ce3b c24c 163b 910e ab3b 852c 723c
00000330: cd20 693c a7ce 0dbc 4fd6 1f3a fa3b 653b
00000340: e37b 78bc d89f 7cba 948c b83b c80d e43b
00000350: c7c3 d0bc 0b69 f7bb e15d 08bc 6f8d 91bc
00000360: 1f1b 053c 0b8e d23b 8fcf 23bb 1ea7 c33c
00000370: ef00 a13c ef6d 93bb 6605 ae3b 42d1 5d3b
00000380: 2b20 b2bb bb88 b13a 648a 343c bda7 e83b
00000390: 7fc5 e4b9 8a3a e9bb 0058 ab3c 1dfa b3ba
000003a0: 6270 4e3c 1e3e 083c 2842 28bb 42ac 99ba
000003b0: edc1 b339 6bc2 26bb 4bfa 3c3c cb78 c7bc
000003c0: 48c2 7cbc b0ac ef3b 7168 8a3c 9fd8 edba
000003d0: 57af 7a3b 826d ff39 52ed 183c 4fb4 8dbb
000003e0: f79f c8bc 8b6e ee3b 043e 363c 338f 93bc
000003f0: 717b 02bc ba2d f03b 8214 1c3c 1927 4a3c

action_model._continuous_distribution.mu.bias f4 [6]
0.0 0.0 0.0 0.0 0.0 0.0
00000000: 0000 0000 0000 0000 0000 0000 0000 0000
00000010: 0000 0000 0000 0000

network_body.observation_encoder.processors.0.normalizer.running_mean f4 [100]
0.9690078 0.0044988757 0.0007498125 0.16977352 0.97625595 0.0027493127 0.0 0.17167914
0.96950763 0.0024993748 0.00024993753 0.17074831 0.9765059 0.0037490637 0.00049987505 0.17034334
0.96525866 0.0034991256 0.00024993753 0.17112659 0.97475636 0.0042489376 0.0 0.16977277
0.96475875 0.0024993753 0.0 0.17235331 0.9715072 0.0044988752 0.00049987505 0.1710512
0.964009 0.0032491875 0.0 0.17078634 0.9725069 0.0024993748 0.00049987505 0.17124325
0.96250933 0.0022494374 0.00049987505 0.17348209 0.972257 0.0022494376 0.00049987505 0.1747035
0.964009 0.0012496874 0.0007498125 0.17516607 0.972007 0.0024993748 0.0 0.17601961
0.96175957 0.0032491866 0.00024993753 0.17511329 0.97125715 0.0024993748 0.0 0.17808637
0.9577605 0.0042489376 0.00024993753 0.17352867 0.9692577 0.0044988752 0.0 0.1792271
0.9565108 0.0039990004 0.0 0.17390256 0.9685079 0.0039990004 0.0 0.1807899
0.9567608 0.0052486877 0.0 0.17386013 0.97400635 0.0027493136 0.0 0.1840833
0.95751065 0.0039990004 0.0 0.17559603 0.9747563 0.0019994997 0.0007498125 0.1845482
0.9537615 0.002749313 0.0 0.17548706
00000000: e510 783f 4e6b 933b 118f 443a 1cd9 2d3e
00000010: e9eb 793f d02d 343b 0000 0000 a8cc 2f3e
00000020: a731 783f 8dcc 233b 0c0a 8339 a5d8 2e3e
00000030: 4afc 793f dab2 753b 0c0a 033a 7c6e 2e3e
00000040: 311b 773f 9651 653b 0c0a 8339 cf3b 2f3e
00000050: a289 793f ac3a 8b3b 0000 0000 ead8 2d3e
00000060: 6efa 763f 8fcc 233b 0000 0000 637d 303e
00000070: b2b4 783f 4d6b 933b 0c0a 033a 0c28 2f3e
00000080: 4bc9 763f 52f0 543b 0000 0000 9de2 2e3e
00000090: 36f6 783f 8dcc 233b 0c0a 033a 645a 2f3e
000000a0: 0367 763f 4c6b 133b 0c0a 033a 4aa5 313e
000000b0: d6e5 783f 4d6b 133b 0c0a 033a 79e5 323e
000000c0: 4bc9 763f 8dcc a33a 118f 443a bc5e 333e
000000d0: 73d5 783f 8dcc 233b 0000 0000 7c3e 343e
000000e0: e035 763f 4ef0 543b 0c0a 8339 e650 333e
000000f0: 4fa4 783f 8dcc 233b 0000 0000 465c 363e
00000100: cb2f 753f ac3a 8b3b 0c0a 8339 80b1 313e
00000110: 4621 783f 4d6b 933b 0000 0000 4f87 373e
00000120: e4dd 743f 0c0a 833b 0000 0000 8313 323e
00000130: 22f0 773f 0c0a 833b 0000 0000 fd20 393e
00000140: 47ee 743f 2ffd ab3b 0000 0000 6408 323e
00000150: 7b58 793f d42d 343b 0000 0000 5580 3c3e
00000160: 6b1f 753f 0c0a 833b 0000 0000 72cf 333e
00000170: a189 793f 0a0a 033b 118f 443a 34fa 3c3e
00000180: b729 743f d12d 343b 0000 0000 e1b2 333e

network_body.observation_encoder.processors.0.normalizer.running_variance f4 [100]
121.15696 18.91902 3.9977505 94.3067 93.74431 11.969757 1.0 98.216415
119.279915 10.975003 1.9997498 98.33961 92.791565 15.943765 2.9990008 93.130066
135.17096 14.9510145 1.9997498 98.56762 99.45039 17.927761 1.0 87.283806
137.03099 10.975006 1.0 99.8986 111.75183 18.919014 2.9990008 86.55972
139.8173 13.957762 1.0 93.5455 107.97577 10.975005 2.9990008 82.863174
145.37642 9.979755 2.9990008 98.97108 108.92052 9.979756 2.9990008 87.15326
139.81729 5.993754 3.9977505 99.56546 109.86478 10.975004 1.0 85.52401
148.1492 13.957762 1.9997498 98.71354 112.69459 10.975004 1.0 87.538605
162.86154 17.927767 1.9997498 94.12232 120.21869 18.919016 1.0 88.2429
167.4329 16.936016 1.0 94.51391 123.032 16.936016 1.0 89.86853
166.51964 21.889778 1.0 93.45937 102.296684 11.969759 1.0 96.0741
163.77681 16.93602 1.0 95.6701 99.45038 8.984007 3.9977508 95.95879
177.44588 11.969757 1.0 95.40108
00000000: 5d50 f242 275a 9741 25db 7f40 089d bc42
00000010: 167d bb42 2084 3f41 0000 803f ce6e c442
00000020: 518f ee42 9d99 2f41 cdf7 ff3f e1ad c442
00000030: 4895 b942 a919 7f41 a1ef 3f40 9842 ba42
00000040: c42b 0743 5b37 6f41 cdf7 ff3f 9f22 c542
00000050: 9ae6 c642 0e6c 8f41 0000 803f 4f91 ae42
00000060: ef07 0943 a099 2f41 0000 803f 15cc c742
00000070: f080 df42 245a 9741 a1ef 3f40 941e ad42
00000080: 3bd1 0b43 fe52 5f41 0000 803f 4c17 bb42
00000090: 98f3 d742 9f99 2f41 a1ef 3f40 f2b9 a542
000000a0: 5d60 1143 14ad 1f41 a1ef 3f40 31f1 c542
000000b0: 4ed7 d942 15ad 1f41 a1ef 3f40 784e ae42
000000c0: 3ad1 0b43 d5cc bf40 25db 7f40 8421 c742
000000d0: c4ba db42 9e99 2f41 0000 803f 4b0c ab42
000000e0: 3226 1443 fe52 5f41 cdf7 ff3f 556d c542
000000f0: a163 e142 9e99 2f41 0000 803f c413 af42
00000100: 8edc 2243 116c 8f41 cdf7 ff3f a13e bc42
00000110: f86f f042 255a 9741 0000 803f 5d7c b042
00000120: d36e 2743 f67c 8741 0000 803f 1f07 bd42
00000130: 6210 f642 f67c 8741 0000 803f b0bc b342
00000140: 0785 2643 441e af41 0000 803f 33eb ba42
00000150: e797 cc42 2284 3f41 0000 803f f025 c042
00000160: ddc6 2343 f87c 8741 0000 803f 1757 bf42
00000170: 98e6 c642 7ebe 0f41 26db 7f40 e7ea bf42
00000180: 2572 3143 2084 3f41 0000 803f 5acd be42

network_body.observation_encoder.processors.1.normalizer.running_mean f4 [52]
0.48237938 0.00049987505 0.024743814 0.27590036 0.47963017 0.0012496873 0.025493626 0.27688643
0.48362908 0.0 0.024493871 0.27597007 0.4786303 0.0012496873 0.025743565 0.277524
0.47838044 0.0012496873 0.0259935 0.27563465 0.47588104 0.00024993753 0.026743315 0.2790919
0.4771307 0.0017495628 0.027243186 0.27636522 0.47288173 0.0002499375 0.028242938 0.28119582
0.48112974 0.0017495628 0.026493372 0.27767187 0.4736315 0.000749812 0.02699325 0.2827064
0.48637843 0.0007498125 0.02574356 0.2785104 0.47488132 0.0009997496 0.027743064 0.28465614
0.49137723 0.0004998748 0.024993747 0.27945128
00000000: 6efa f63e 0c0a 033a 8ab3 ca3c d042 8d3e
00000010: 1692 f53e 8ccc a33a 02d8 d03c 0fc4 8d3e
00000020: 3b9e f73e 0000 0000 5fa7 c83c f34b 8d3e
00000030: 080f f53e 8ccc a33a 2be4 d23c a017 8e3e
00000040: 48ee f43e 8ccc a33a 52f0 d43c fc1f 8d3e
00000050: aea6 f33e 0c0a 8339 cc14 db3c 22e5 8e3e
00000060: 7a4a f43e 9651 e53a 1a2d df3c be7f 8d3e
00000070: 8e1d f23e 0b0a 8339 bc5d e73c e6f8 8f3e
00000080: a356 f63e 9651 e53a a108 d93c 022b 8e3e
00000090: d47f f23e 088f 443a f320 dd3c e5be 903e
000000a0: 9806 f93e 118f 443a 29e4 d23c ea98 8e3e
000000b0: a523 f33e 080a 833a 6c45 e33c 73be 913e
000000c0: cc95 fb3e 080a 033a b0bf cc3c 3d14 8f3e

network_body.observation_encoder.processors.1.normalizer.running_variance f4 [52]
1000.00775 2.9990008 97.55036 181.06813 999.5898 5.9937553 100.39963 181.57446
1000.1776 1.0 96.59959 182.05338 999.4228 5.9937553 101.3484 181.00237
999.37994 5.993752 102.29668 183.90034 998.9224 1.9997498 105.13848 182.81021
999.15735 7.987755 107.03048 187.72174 998.3076 1.9997499 110.808556 186.72426
999.82526 7.9877543 104.1917 189.32802 998.4681 3.9977505 106.08472 186.45119
1000.50757 3.997751 101.34841 189.35992 998.7255 4.995999 108.920525 186.83429
1000.9524 2.9990005 98.500626 189.77855
00000000: 7f00 7a44 a1ef 3f40 c919 c342 7111 3543
00000010: bfe5 7944 d8cc bf40 9ccc c842 1093 3543
00000020: 5e0b 7a44 0000 803f fd32 c142 aa0d 3643
00000030: 0fdb 7944 d8cc bf40 61b2 ca42 9b00 3543
00000040: 51d8 7944 d1cc bf40 e697 cc42 7de6 3743
00000050: 09bb 7944 cdf7 ff3f e746 d242 6acf 3643
00000060: 12ca 7944 b09b ff40 9b0f d642 c4b8 3b43
00000070: b093 7944 cef7 ff3f fb9d dd42 69b9 3a43
00000080: d1f4 7944 af9b ff40 2762 d042 f953 3d43
00000090: f59d 7944 25db 7f40 602b d442 8173 3a43
000000a0: 7c20 7a44 27db 7f40 63b2 ca42 245c 3d43
000000b0: 6fae 7944 39df 9f40 4fd7 d942 94d5 3a43
000000c0: f43c 7a44 a0ef 3f40 5200 c542 4fc7 3d43

network_body.observation_encoder.processors.2.normalizer.running_mean f4 [9]
-2.7038825 2.0440378 7.9813657 0.785763 0.48712817 0.8827793 0.055033118 0.054650042
0.019975156
00000000: 690c 2dc0 84d1 0240 5967 ff40 c427 493f
00000010: dd68 f93e d3fd 613f 686a 613d b9d8 5f3d
00000020: f0a2 a33c

network_body.observation_encoder.processors.2.normalizer.running_variance f4 [9]
1.6342174e+06 5941.748 67157.99 4113.3916 1000.5871 415.0234 15717.103 28.287788
15615.5625
00000000: 4b7d c749 fcad b945 ff2a 8347 228b 8045
00000010: 9325 7a44 ff82 cf43 6994 7546 644d e241
00000020: 40fe 7346
