Assets/results/3/CoinChaser/CoinChaser-7999917.onnx (onnx, 371399 bytes, 13 tensors)

network_body.observation_encoder.processors.0.normalizer.running_mean f4 [68]
00000000: f770 673f 23ac 9d3c 5fa8 0f39 1aa1 6f3e
00000010: ccf7 683f 16de 2f3c 8b3a 1139 ac7d 653e
00000020: 3bea 673f 74d1 9f3c 3b8f 0d39 f3dc 753e
00000030: c15f 6b3f 0868 883b 80c4 1439 933c 5f3e
00000040: 7d51 6a3f 327d 543c f5c4 1439 6763 713e
00000050: f578 6e3f 56d8 f83a 162d 1839 e8ea 5d3e
00000060: 27ef 6c3f 4415 e93b 71c8 1739 403e 663e
00000070: ec4d 6f3f 8424 b83a 56b2 2039 e4e9 5d3e
00000080: a582 6e3f 9f9b 7c3b d57b 2139 e1ca 5a3e
00000090: 4d0a 6c3f 8757 ad3a 6a7f 2439 555e 5b3e
000000a0: 6db2 6e3f 01dc 173b da51 2339 d6d0 513e
000000b0: ebf5 673f 1d58 ac3a a97b 2139 141d 553e
000000c0: d776 6e3f 01cf c43a 5f66 2239 9150 4d3e
000000d0: 29cd 663f 0da2 9c3a 14bb 1e39 1283 4f3e
000000e0: 0ded 6e3f ff5d 853a 9da5 1f39 aa61 4b3e
000000f0: 2c2b 693f 62c1 8e3a 9a58 0e39 2071 4e3e
00000100: 20cf 6f3f 6712 603a 71c3 1c39 c541 4a3e
0.90406746 0.01924712 0.00013700266 0.23401299 0.9100311 0.010734102 0.00013850087 0.22411221
0.9059178 0.019509055 0.00013500165 0.24010067 0.91942984 0.004162792 0.00014187582 0.21800451
0.9153059 0.012969302 0.00014187752 0.23573075 0.93153316 0.0018985372 0.00014512645 0.21671641
0.9255242 0.0071131308 0.00014475152 0.22484684 0.93478274 0.0014048968 0.00015325224 0.21671253
0.931681 0.0038544906 0.00015400288 0.21366455 0.9220322 0.0013224938 0.00015687724 0.21422704
0.93241006 0.0023171904 0.00015575383 0.20489821 0.90609616 0.0013148818 0.00015400223 0.20811874
0.93150085 0.0015015305 0.0001548766 0.20050265 0.901568 0.001195015 0.00015137746 0.20264843
0.9333046 0.0010175108 0.00015225117 0.19861475 0.910815 0.0010891373 0.00013575182 0.20160341
0.9367542 0.0008547664 0.00014950127 0.19751652

network_body.observation_encoder.processors.1.normalizer.running_mean f4 [20]
00000000: 94f9 7c3e 0b25 8e3b a300 3e3d 9b01 9c3e
00000010: 81e7 8a3e c765 1d3b 932a 2e3d fdfe 9b3e
00000020: 7e4d 7e3e 227c 9b3b 1399 353d 3d8c 9e3e
00000030: f436 9c3e 0a59 873a afb3 1e3d 5c36 a23e
00000040: 87ea 943e e96f 603b 2f0f 183d 6bfa a23e
0.24704581 0.004337912 0.046387326 0.30469975 0.27129748 0.0024016963 0.04252107 0.30467978
0.24834248 0.0047450224 0.044335436 0.30966368 0.30510676 0.0010326218 0.03874558 0.31682098
0.2908518 0.003424639 0.037123855 0.3183168

network_body.observation_encoder.processors.2.normalizer.running_mean f4 [5]
00000000: 1e17 553f 4197 f53f 617e 9bbf d737 693f
00000010: 51cc 2b3f
0.832384 1.9186784 -1.2147943 0.9110083 0.6710864

network_body._body_endoder.seq_layers.0.weight f4 [256, 93]
00000000: 0fed 963e 3b7b 6dbd a4ae 383d 58f5 ec3b
00000010: 4772 bc3c 327b 80be b8e1 b1bd 90ea fe3d
00000020: 81e9 c43d 8f11 b3bd eac7 263e 079e ebbd
00000030: 7fc7 1dbd 8808 99bd 840f 01bc 16a9 f8bc
00000040: f256 273d 65fa 41be bf78 61bd ec9b 42be
00000050: 3155 dcbd bdb9 45be f89d a73d 0b36 063c
00000060: 80f2 debd 8e01 9cbd 9c29 73bd ebe0 743c
00000070: 1104 dd3d 7e66 f83c 8512 b23d bec1 08bd
00000080: befe a73d 5ea9 413d 5386 a2bd 6be6 49be
00000090: 4f45 993b d30b eabd 4131 12bd b236 2cbe
000000a0: d05f 21be 45c5 a43d d172 0f3e d629 6fbd
000000b0: 2a89 fabd 5249 303b 2a86 05bd 97d7 b8be
000000c0: 939a 1a3e c761 02be 7729 0abe 3e88 c3bb
000000d0: 64b8 4cbd 394c 2b3d 7a17 423e 7aca ac3a
000000e0: 82c1 cdbd b464 0a3e 422a 3cbd 305d 303e
000000f0: fb7c 173e 7b33 0cbd 8315 9f38 6442 fabd
00000100: 14f7 f73c 6f66 c7bc 9d16 f33d 7781 213e
00000110: 2837 af3c 8ed9 c93c 9b89 4ebe d7c8 90bd
00000120: 85cf 17bd 6b1d f2bd 53d1 9fbe 7078 0cbd
00000130: dea1 f2bc 413d 9c3d 8d19 dcbc 3a9c b53c
00000140: 1f12 97bd a827 9d3d 8a21 12be f775 f6bd
00000150: 4017 c8bd f53f aebd c5ee e3bd 346a 013e
00000160: c244 cdbd 315f 4abe ab8d 5c3d 7a70 1a3b
00000170: af1a fa3d ea41 373d 7d15 503d 55a7 ee3d
00000180: ce23 2f3d 3fb7 943c 06c8 9ebd 6fcc 59bd
00000190: 247c 1ebd 8ac0 653e e0bc 9b3d d301 d43d
000001a0: 5f42 4fbd a325 2c3e 2c73 6ebe 9f70 793c
000001b0: 8ac2 fa3c 14de 80bd 2e55 27bd 7fd1 1b3e
000001c0: ae66 0abd 37a9 a2be 2e62 a63e a7de 5a3e
000001d0: acfc 863d f4a7 60bc b1b3 b8bd 4f95 393d
000001e0: f3bd 3fbe 2704 8abc d544 613d 67a9 c63c
000001f0: 2977 a63d f183 3fbd 55ad 1d3e 20cd acbd
00000200: 8a6b 16be 2508 fabd dd38 05bc b0f2 d13d
00000210: bc90 7ebd 4250 23bc f5ac 86be 2396 46bc
00000220: 2a51 d63d 93b8 3a3e 2a5e 113e dcaf 403a
00000230: 813e 083e 0eb6 0b3e b35d abbc f439 273e
00000240: 50ab 3dbd 019a 423c 9462 0a3e 6543 dabd
00000250: afb1 85b9 a772 c5bd 5949 123c 5a71 653c
00000260: c1ec b7bd 16f9 ffbd d554 333e 06be c0bd
00000270: 294c 423e d7a9 92bd 21a3 283e 6718 ebbc
00000280: 746d 9cbd 638b 81bc 68da 03be f930 723e
00000290: 0023 e7bd e5e8 423d 0d61 1e3e ab2c 123e
000002a0: 3789 ac3d 0772 103e a775 9c3d 7ee0 48bd
000002b0: ba3e 893d ecc1 45be 3c00 4abd ffdb 4dbe
000002c0: eb27 c13d dd1e 74bc 62f0 113e 24bf 5abd
000002d0: e8df 5fbd eb0a a8bd 5750 5dbe 0ec0 ba3d
000002e0: af05 3bbe e38f 8ebd 5865 a7ba 6274 c3bd
000002f0: a68a a73d 5d5e 3abd 9951 09bd ed52 a1be
00000300: e634 aebc ae70 7bbd 677c 4f3e d2dd 5fbe
00000310: debd df3d 3230 f7bc eaea 17bd 8764 08be
00000320: 9449 ba3d 186a 1abd 6902 f43c a4ba a2bd
00000330: f6b1 b2bb 7d5a 14be fb59 06bc 547b cdbd
00000340: 0bc5 a3bd 9f36 37bd 5998 b5bd 1fee 693e
00000350: 7144 b0bd bfcf 27bd 3f32 a0bd 0ace 5abb
00000360: 8bd6 00be cc43 25be f010 cebd 6870 013e
00000370: f2d9 603e c071 503e 88e8 393d 4d06 1bbe
00000380: c7af d63d 3f9a 9cbd e33b f43d 131c 2e3c
00000390: 162a 193e 2409 4ebd cea3 903d 6eec 073e
000003a0: b646 a6bd fb69 f4bd db84 a03d 5e15 c63c
000003b0: eca5 4f3d 4229 163d 19f5 8ebc 764a 1a3d
000003c0: 0c02 0fbe 1bbc 04be 4adc ecbd ce3f a23e
000003d0: 0d73 d83c 3c7e 4f3d 3b07 a03d bfcf 843d
000003e0: ec28 a23d 2030 c63d 8877 f1bd aa6c 473e
000003f0: d525 683d 2aba 39bd 338c 313c c176 f0bb
0.29477736 -0.05797885 0.045088425 0.0072313957 0.02300371 -0.2509399 -0.086856306 0.12447083
0.0961485 -0.087435834 0.16287199 -0.11504751 -0.038520332 -0.0747233 -0.007877234 -0.030354064
0.040854402 -0.18943174 -0.055046793 -0.19004792 -0.107584365 -0.19309135 0.08184427 0.008191596
-0.10886097 -0.07617484 -0.059365854 0.014946203 0.10791791 0.03032231 0.086949386 -0.033387892
0.08202885 0.04728066 -0.079357766 -0.19716804 0.0046774517 -0.114280365 -0.035691503 -0.1681774
-0.15759206 0.08045439 0.14008643 -0.058389507 -0.12233193 0.002689917 -0.032598652 -0.36101982
0.15098028 -0.12732612 -0.1349238 -0.005967169 -0.049980536 0.04182074 0.18954268 0.0013182901
-0.10046674 0.13514978 -0.045938738 0.17223048 0.1479377 -0.034228783 7.585718e-05 -0.12219694
0.030269183 -0.024340836 0.118695475 0.15772043 0.021388605 0.024639871 -0.2016968 -0.07069557
-0.03706314 -0.11822017 -0.3121439 -0.034294546 -0.0296182 0.07628871 -0.026867652 0.022169221
-0.07376503 0.076735795 -0.14270607 -0.12034219 -0.097700596 -0.085082926 -0.11129526 0.1263817
-0.1002288 -0.19762875 0.053846043 0.0023565576 0.12212121 0.044740595 0.050801743 0.1165301
0.042758755 0.018153785 -0.07752995 -0.05317348 -0.03869261 0.22436729 0.076043844 0.103519104
-0.050600406 0.16811232 -0.23286122 0.015224605 0.030610342 -0.06292358 -0.040852718 0.15216635
-0.03378933 -0.31769726 0.3249678 0.21373998 0.06591162 -0.013711918 -0.090186484 0.045308407
-0.18724804 -0.016847683 0.054997284 0.0242507 0.08128197 -0.04675669 0.15398152 -0.08437562
-0.1468946 -0.12208585 -0.008131233 0.10251367 -0.06214975 -0.009967865 -0.2630383 -0.012120756
0.104646996 0.18234472 0.14196077 0.0007350424 0.13305093 0.13643667 -0.020918703 0.16330701
-0.046305954 0.011877538 0.13514167 -0.10657386 -0.0002550012 -0.09641009 0.00892862 0.014004076
-0.08980704 -0.12498681 0.1751283 -0.09411244 0.18974365 -0.07161301 0.16468479 -0.02869816
-0.07638064 -0.015813535 -0.12876284 0.23651494 -0.112859726 0.047585387 0.1546671 0.14274852
0.08424609 0.14105998 0.07639628 -0.049042217 0.06701417 -0.19312257 -0.04931663 -0.20103453
0.09431442 -0.0148999365 0.14251855 -0.053404942 -0.054656893 -0.082052074 -0.21612678 0.09118663
-0.18263887 -0.06961038 -0.0012771292 -0.09543683 0.08180742 -0.045500148 -0.033525083 -0.3150858
-0.021265458 -0.061386757 0.202623 -0.21861961 0.10924886 -0.030174349 -0.037089266 -0.13319598
0.09096065 -0.037698835 0.029786306 -0.07945755 -0.0054533435 -0.14487644 -0.008200164 -0.100332886
-0.07996567 -0.044729825 -0.08866949 0.22844742 -0.08606804 -0.040969606 -0.07822084 -0.003338697
-0.12581842 -0.16139144 -0.10061824 0.12640536 0.2195814 0.20355892 0.045387775 -0.15139122
0.104827456 -0.076466076 0.11925485 0.010626811 0.14957461 -0.050301686 0.07062493 0.13273785
-0.08118956 -0.11934277 0.0783784 0.02418011 0.050695345 0.03666044 -0.017450856 0.037668668
-0.13965625 -0.12962382 -0.11565454 0.31689304 0.026422048 0.050657496 0.07813879 0.06484937
0.079179615 0.09677148 -0.11790377 0.19475046 0.056676704 -0.045343556 0.010836649 -0.0073383753

network_body._body_endoder.seq_layers.0.bias f4 [256]
00000000: 7e60 95bc 5e30 9cbd 4623 03bd 32c7 8abc
00000010: eff6 04bd 61bd 023d 69b5 d4bc 43ac 1f3d
00000020: 7071 9b3d e76e a73c b5f5 95bc 356f f3bc
00000030: 9310 c83c 2338 903c dcf4 cd3b 5e5c 87bc
00000040: 2bca 823d eaf5 093c 0ded 763d 79f6 203d
00000050: 2e6a abbd a33e 8d3c fea8 3abc 4a16 a3bc
00000060: 4c54 7dbc 81eb 9a3b 69fc 50bc 1eef b3bd
00000070: ef3e 9e3c 5c64 62bd a650 debc 8c75 31bc
00000080: d08b fbbb 6b7c 13bd 4928 1b3d 64d3 81bd
00000090: 8bcc 54bb f969 1bbd b9f0 b4bb 6bfd 9ebc
000000a0: bbcf 8e3c cad7 273d 4600 833d bff1 3abb
000000b0: a701 41bd c251 0cbc e729 083d 2a88 2d3d
000000c0: f8e5 843a 9e13 c8ba fc67 a93b d08d 9e3d
000000d0: db13 80bd 426c 8fbd e6f9 7dbd 7f37 44bc
000000e0: b308 823b aaee ef3b dd07 8fbc 296f bdbc
000000f0: bb3e 863c 048b 16bd 362a fb3c 8572 dcbc
00000100: 89c8 033b 521f b73d 42e6 2a3d 8a52 433d
00000110: ec6f 403c b03e da3c d75c 043c f36e 82bb
00000120: e670 a8bc 541c 403d 5fe4 09bd 8a3c 3e3d
00000130: a98c 303d 13bd 603d 1f7f ccbc d003 ccbb
00000140: 4501 c3bb dbe4 29bc 49b6 40bc 4589 01bd
00000150: f4fb 26bd 8ad4 2dbc fd32 42bd a5ee 8bbc
00000160: 9cf3 50bc 62f3 99bb 304f 59bc 77c7 d53c
00000170: b1ce e23d c8f8 473d f236 79bc 0868 4ebd
00000180: 13b0 10bd 24b8 08bc 6b3a af3c a90d 2bba
00000190: cf99 383c de9c 113c a2ad 05bc a15e 7dbd
000001a0: 465b 56bc 1b0f 81bb 410c ea3b 0a21 3d3d
000001b0: 9cae 06bd c84a 2d3d 534d 023d cb34 5cbc
000001c0: 0abb 57bd 5d63 c1bc 41d6 89bc 9d33 0dbc
000001d0: e6e6 bb3b 0f57 903d b23d 0b3c 0afd d439
000001e0: 858b 62bd 5a6d 20bd 46b2 213b 5f29 4dbc
000001f0: adc0 4abc 0f0e 1c3c b691 8e3d ea36 973b
00000200: 2035 953d 42f5 033d 22e0 91bc 1fb7 99bd
00000210: 3537 583d feef 913c a41a 423c 07b0 653c
00000220: 7bbc 413c 8f62 02bd 1d47 a9bc 2032 5abc
00000230: 1947 c13a fc32 91bc 8f3b a33c 75d3 433c
00000240: 09d8 d03c 48a9 85bc 33a2 1e3d f902 d8bb
00000250: 3ef4 4f3b 01ca 32bd adb0 113c b128 18bd
00000260: 53ad 843d 3ae0 90bc 88ca 75bd 7050 e3bb
00000270: 4268 91bc 7e32 693b 1c4a 9b3b 707a 22bd
00000280: b615 95bb f648 0b3d 1837 163b 1087 203d
00000290: ed1e 52bd bdf7 963c fd2a 4d3d 9128 9cbc
000002a0: cf78 823d c9b2 f1bc 9bf4 053c 3fc9 2abb
000002b0: 684f 793d 5ee7 173d e4ee 18bd 4d8c 1e3d
000002c0: 8604 3a3d 0722 0d3d 8aa6 1bb9 81b1 48bd
000002d0: 8ba4 563d 4627 d0bb 3e54 06bd 0aaa 443c
000002e0: 0bbd b6bb f79f c6bc f443 2abd 58d0 90bd
000002f0: 7c34 3bbd 042f 99bc 65ac 5f3c 3131 363d
00000300: 04ac ccbc 1537 d8bc 0094 1dbd e2bc 293d
00000310: 188f 133b 5ea2 983c 06e0 6abd edd4 71bd
00000320: 2c91 86bd 5cd4 a43c a60e 1e3d dec4 153d
00000330: 2b82 b3bb 9686 523c 9795 9cbb 59c6 0d3c
00000340: ed9a e63b db08 373d 19f5 833d cf1e e13b
00000350: 2ce4 a33d 8bbc 233c 3a27 c13a d349 0d3d
00000360: 29b2 3a3d 9081 213d 1baa 8e3d 3997 52bc
00000370: 5182 3d3d 5d2f 583d 5f68 ec3c ece6 bc3c
00000380: 3dd4 373d c97b c2bb 639d e4bc 14cc 01bb
00000390: 01d0 653d 9241 b8bd e0e4 5b3c dc82 913b
000003a0: 9d11 e43b 07e3 7c3d 1b64 513d 36e6 f7bc
000003b0: afe5 53bc b0ac 4d3d f46f a5bc 8473 9639
000003c0: d827 0f3c 46b4 293d b41f 21bd 5e04 1ebd
000003d0: df27 88bd 37eb 01bd 79e5 01bd 23f8 dbbb
000003e0: dca2 5abd 9ea4 9abc a20d babc 5038 603d
000003f0: 7152 9a3c e12b 26bc 73b9 123d 4d73 a2bb
-0.018234488 -0.07626413 -0.03201606 -0.016940687 -0.032462057 0.031918887 -0.02596541 0.03898264
0.07589996 0.020438625 -0.018305639 -0.029716114 0.024421966 0.017604893 0.006285293 -0.016523536
0.06386217 0.008420447 0.060284663 0.039297555 -0.083698615 0.017241782 -0.01139283 -0.01990809
-0.0154619925 0.0047277813 -0.012755492 -0.08785842 0.019317118 -0.05527149 -0.027138066 -0.010831248
-0.007676579 -0.036007326 0.037880216 -0.06339148 -0.003247055 -0.03794286 -0.0055218604 -0.019407948
0.017433038 0.040977277 0.063965365 -0.002852544 -0.047120716 -0.008564414 0.033243086 0.042366184
0.0010139337 -0.0015264635 0.0051698666 0.07741892 -0.06253787 -0.070030704 -0.0620059 -0.011976122
0.003968322 0.007322152 -0.017459804 -0.023124294 0.016387334 -0.03675367 0.030659776 -0.026910076
0.0020108542 0.08941521 0.041723497 0.047686137 0.011745434 0.02664122 0.008078775 -0.0039805113
-0.020561647 0.046902016 -0.033665057 0.046444453 0.043102894 0.054867815 -0.02496296 -0.0062260404
-0.005951079 -0.010369505 -0.01176221 -0.03162505 -0.040767625 -0.010609755 -0.047411907 -0.017081568
-0.0127533935 -0.004698203 -0.013263509 0.026096089 0.110745795 0.04882124 -0.015210854 -0.05039218
-0.035324167 -0.008344684 0.02139016 -0.0006525168 0.01126714 0.008887498 -0.008159073 -0.061857823
-0.013083285 -0.0039385683 0.007142574 0.046174087 -0.032881364 0.042307645 0.031812023 -0.013440321
-0.05266861 -0.02360695 -0.016825797 -0.008618263 0.0057343123 0.07047855 0.008498596 0.0004062432
-0.055308837 -0.039166786 0.002467291 -0.012522071 -0.012375039 0.009524836 0.06961386 0.0046147006
0.072855234 0.032216318 -0.01780707 -0.07505631 0.052787025 0.017814633 0.011847172 0.014019019
0.011824722 -0.031832274 -0.020663792 -0.013317615 0.001474592 -0.017724507 0.01992586 0.011952271
0.025493639 -0.016316071 0.038728904 -0.0065921512 0.0031731273 -0.043649677 0.00889222 -0.03714818
0.064783715 -0.017685045 -0.060007602 -0.006937079 -0.01774991 0.0035583074 0.004739059 -0.039667547
-0.0045497073 0.034005128 0.0022921022 0.039191306 -0.051299024 0.018428678 0.050089825 -0.019062312
0.06370699 -0.029504197 0.008175994 -0.0026059893 0.060866743 0.037085883 -0.0373372 0.03870802
0.04541447 0.03445628 -0.00014843993 -0.048997406 0.052403014 -0.006352338 -0.032795183 0.012003431
-0.005576735 -0.024246199 -0.04156871 -0.070709884 -0.04570435 -0.018699177 0.013651942 0.044480506
-0.024984367 -0.026393453 -0.038471222 0.0414399 0.002251571 0.01863211 -0.05734255 -0.059040952
-0.06570658 0.020120792 0.03858819 0.0365647 -0.0054781637 0.012849471 -0.0047785747 0.008653247
0.0070375116 0.04468618 0.06443233 0.0068701277 0.08002505 0.009993683 0.0014736422 0.034494232
0.045580063 0.0394302 0.06966039 -0.012853437 0.046266858 0.052779544 0.028858362 0.02305933
0.04488014 -0.0059351665 -0.02790708 -0.0019805478 0.05610657 -0.089968815 0.013421267 0.0044406485
0.0069601075 0.061739948 0.05112086 -0.03026114 -0.012933179 0.050213516 -0.020194985 0.00028696295
0.008737527 0.041431688 -0.039336875 -0.038578384 -0.0664823 -0.03171846 -0.031712983 -0.00671293
-0.05337797 -0.018877324 -0.022711579 0.054741204 0.01883814 -0.0101422975 0.03582139 -0.0049575926

network_body._body_endoder.seq_layers.2.weight f4 [256, 256]
00000000: 99b8 3c3d 1840 49bd b053 b33c df69 75bd
00000010: b28b bfbd c67d e03b 6da4 4bbe c4e4 a03d
00000020: 2f3c dabd fe79 54bd 171a 05bc f61c d3bc
00000030: 4701 1dbe c22d abbd b482 b6bd a65f 58bd
00000040: 9d60 303d 0bd8 b0bd 990c 123c 2fc7 b43d
00000050: 78c5 09bd 5fb5 813d ee8a 333e ac47 693d
00000060: 356a f93c c8d4 603d ab6b 06be d67d 90bd
00000070: e689 5b3a 89c4 a8bc f794 4cbd 80e2 2cbe
00000080: 6b53 013e de0b dbbd c99b 433d 4193 19bd
00000090: 732d 65bd 5cd2 cfbc da3b e13d 9c4d e1bd
000000a0: aec2 c5bd 1d48 673c 905c 68be 2a14 323d
000000b0: d7bd b1bc ab57 34bd af9d 71bd d708 213e
000000c0: 539e f33c 7628 8ebb ff56 a23c 423e 75bd
000000d0: 7381 2e3c e9a9 b9bd 2c35 acbd b24c 59bd
000000e0: d7e4 bcbb 03fc a6bd 828b a53c 0848 7abd
000000f0: f417 a53d cd72 7bbd 8504 303d 7436 2e3d
00000100: 5a53 5e3d 0d3b 953d 239a 443d 6278 a1bc
00000110: ea5b 463d 0d83 cf3d 1e08 f4bd 16e5 053c
00000120: 23e6 cf3d 9161 a6bd d456 5abd 3efc 94bd
00000130: 79d0 aa3d e228 61bd cb75 01be 8c00 b33b
00000140: cd5c 24bd 29a6 013e b2ba 6ebc f65e a53d
00000150: 0454 c3bd f119 87bd d520 9d3c d1a1 1bbd
00000160: 033b 9fbd f1ee 803d 0d09 833c 322d e23d
00000170: c2ac cebd db5a bb3c 03d8 5fbc 37d4 0d3d
00000180: 9a04 0dbd cee2 8a3d d283 9dbc 01ad 543d
00000190: 1695 77bd 9854 8c3d c775 3c3d a11f febc
000001a0: 74e7 093e 7e0d 9cbd 6a13 793d 0096 593d
000001b0: 076c 22bb eea3 3abd 09cc 7e3c 87a5 17bc
000001c0: 2b23 1cbc 40f2 1bbe b3e1 a43d e569 9c3d
000001d0: a67e 44be 9dfb 35bd ac5f 31bd 5bc8 02be
000001e0: 8f26 aa3b 5221 40bc 2ff8 04bc 06a3 273d
000001f0: 37ae c8bc 87aa 0fbe 362d 79bb d475 81bc
00000200: 8292 d73c fd61 32bb c09e 1abd 8056 f03d
00000210: 72c8 9fbd 591e a63d c275 b8bc 7bfb 6abd
00000220: 549b a0bd 6080 9f3d 6dff 0abd bdea 243e
00000230: 53bd 983d bcf2 213d ee19 eebd e6d8 acbe
00000240: cc30 a43c 1842 15bd f76a e5bd 966a 9e3d
00000250: 1ea2 03be b40d dbbd ff73 923c 998a 6d3d
00000260: 5e73 7ebc 0684 02bc 843f 9abd 4427 76bd
00000270: 45b7 2dbd e58f 80bd a198 5fbc e050 18be
00000280: b6d8 123e 75fb af3d b4f9 79bd daa5 a2b9
00000290: 1fe3 5ebd 034d 23bd 7491 7a3c 8c0e 16bd
000002a0: a007 da3d 0da6 48bb 6bb7 0e3d eb97 b63c
000002b0: 4e48 483c d319 38bd 9df9 19bd 9cc1 65be
000002c0: ecc3 aa3d 4f99 5b3d 2dd7 1abd 493e 063d
000002d0: e7d1 5a3d 0c50 223d a993 a73c 3c79 cc3d
000002e0: 1e4e 76bd e77c 70bd 4988 853d d6b7 96bd
000002f0: 7876 2fbc 9dae cf3d ff06 f33b 572d 8e3c
00000300: fa34 d0bd f712 e93c d9c5 9b3d 1cee 95bd
00000310: 35cf 893c 20a7 ad3d 5d66 8ebc 9d52 1ebe
00000320: 8c50 e0bd 602a f73c 3728 973d 8791 b33d
00000330: 14e3 88bd 4b05 66bd fc78 a03d 28a3 033d
00000340: 44f4 603d 9617 b03a a41d 353d a2f6 2abb
00000350: c5ef 0a3e c77f 1ebe ab8e 39bd 6366 033d
00000360: df37 aa3c e743 96bc 65ec 21ba 5322 033d
00000370: e0e0 a7bd 89ae 383e 3876 dc3d 5d0b 943c
00000380: 0959 86be c825 ed3b 4ce7 16be f2e4 f7bb
00000390: 7aec 7d3b a1ca 7d3d ce7b 3fbd 61b6 98bc
000003a0: 200e 88bd ab0b 51bb 8bf5 e53d 16eb babd
000003b0: 58f3 d73d c3c5 ab3d 2a54 983d d86f 433b
000003c0: 0c61 043d e5d4 a23d ac24 aa3c e24b 86bb
000003d0: 175b 863c 5e99 b93c 9474 263e 135d 453d
000003e0: bc8f 54bd abac cd3d 484e a63d 99a9 d13d
000003f0: d870 173e 9e7c 71bd 2a5a 3abd da0b bebd
0.046074484 -0.04913339 0.021890491 -0.05991542 -0.09352817 0.006850931 -0.19886942 0.078561336
-0.1065601 -0.051874153 -0.008123896 -0.025770646 -0.15332519 -0.08358337 -0.089116484 -0.052825592
0.043060888 -0.08634957 0.008914136 0.08827054 -0.033635587 0.06333422 0.17533466 0.056953117
0.030446151 0.054890424 -0.1312701 -0.07055251 0.00083747355 -0.020601528 -0.04994675 -0.16883278
0.12629478 -0.10695623 0.04775599 -0.037493948 -0.055951547 -0.025368862 0.10997744 -0.11001131
-0.09656273 0.014116314 -0.2269156 0.04347626 -0.021696968 -0.04402892 -0.05898827 0.15726028
0.02973858 -0.0043383194 0.019816874 -0.059873827 0.01065098 -0.09065611 -0.08408579 -0.053051658
-0.0057645845 -0.08153536 0.020208124 -0.06110385 0.08061209 -0.06138878 0.04297306 0.0425324
0.05427871 0.07286654 0.04799856 -0.019710723 0.0484275 0.10132418 -0.11915611 0.008172294
0.10151317 -0.08124078 -0.053305462 -0.07274674 0.08340544 -0.05497063 -0.1264259 0.0054627117
-0.040127564 0.12661041 -0.014570879 0.08074753 -0.09537509 -0.06596745 0.019180695 -0.037996117
-0.077749275 0.062955745 0.015995527 0.110437766 -0.10091545 0.022870472 -0.013662341 0.034626212
-0.034428217 0.06781541 -0.019227896 0.051922802 -0.060444914 0.068520725 0.04601076 -0.031020941
0.13467199 -0.07619761 0.06080953 0.053121567 -0.0024783628 -0.04556649 0.015551575 -0.009255773
-0.009529869 -0.1522913 0.08050861 0.07637385 -0.19188938 -0.04442941 -0.04330413 -0.12771742
0.005192585 -0.011726694 -0.008115812 0.040926956 -0.024497135 -0.14029895 -0.0038021333 -0.015803255
0.026314978 -0.002721905 -0.037749052 0.117352486 -0.07801904 0.08111257 -0.022517089 -0.057368737
-0.078421265 0.077881575 -0.033935 0.1610517 0.07457986 0.03953813 -0.116260394 -0.3375923
0.0200428 -0.036439985 -0.112020425 0.077351734 -0.12854812 -0.10695973 0.017877577 0.057993505
-0.015530435 -0.007966047 -0.07531646 -0.06009604 -0.042411108 -0.06277446 -0.013647229 -0.14874601
0.14340481 0.085928835 -0.06102915 -0.00031022617 -0.05441582 -0.039868366 0.015293468 -0.036634967
0.106459856 -0.0030616552 0.03484289 0.022289237 0.01222427 -0.044946503 -0.037591565 -0.22437137
0.083381504 0.053613003 -0.037802864 0.032774244 0.053422835 0.03962712 0.020456152 0.09984061
-0.060133092 -0.058712866 0.06520135 -0.07359283 -0.0107093975 0.10140727 0.0074166055 0.017355604
-0.101663545 0.028451426 0.07606096 -0.073208064 0.016822437 0.08479142 -0.017382795 -0.15461202
-0.10952863 0.030171573 0.07380717 0.087679915 -0.06683937 -0.05615739 0.07835576 0.03213802
0.05492045 0.0013434764 0.04421772 -0.0026086946 0.13568027 -0.1547843 -0.045302074 0.032080065
0.020778595 -0.018342925 -0.0006176888 0.032015156 -0.081971884 0.1803533 0.10764736 0.018071825
-0.26239803 0.00723717 -0.1473667 -0.007565134 0.0038745687 0.06196082 -0.04674893 -0.018641653
-0.06643319 -0.0031897824 0.11228474 -0.0912687 0.10544461 0.083873294 0.07437928 0.0029821303
0.032319114 0.07950763 0.02076944 -0.0040984014 0.016400857 0.022656139 0.16255409 0.048184466
-0.05189489 0.100426994 0.081204 0.10237426 0.1478914 -0.058956735 -0.045496143 -0.09279604

network_body._body_endoder.seq_layers.2.bias f4 [256]
00000000: 8726 a43c a423 873c e95b 30bc d49b 703d
00000010: 6197 2cbd ae6a c1bc 33ee 71bc 82bc 5abd
00000020: 8275 babb abed cdbb ee81 b6bc bf98 aa3b
00000030: 60e7 4a3d 37da 04bc e5bd 633c 7c0a 6b3c
00000040: 851e 2d3d 23b7 31bd 7e6b 7bbd 2321 333b
00000050: d3de 3a3c ee63 833b bb16 293c 4d6d 91bd
00000060: f344 78bd eb93 ef38 4339 c43c 97a1 353d
00000070: 2728 d3bc 0efe 5c3c c2be 62bd ee08 19bd
00000080: 4141 443d 625c a33b 8b78 4b3d f322 283d
00000090: 54b5 1a3b 075c 1ebd 43ea 61bd 9e99 483c
000000a0: 39f7 6f3c d97e 5bbd 1f95 373d 5652 98bb
000000b0: 801d 8dbd cd0d 9f3b 32ca 01bd d393 a23c
000000c0: fda4 f13c 5c34 ddbc 5fd8 78bc 2e59 653d
000000d0: 4f8b d63a 8604 bd3c 55ca da3c 28a4 bebc
000000e0: f258 26bb c5e8 b63b 2ad4 053d a737 0cbc
000000f0: 0d08 153d a5de 49bd 8244 3c3d ae4f 83bd
00000100: 0782 10bd 168c 31bd 8efc 043d 8cad 01bd
00000110: 349b cdbc b9bd 23bc cbe2 7e3d 9db3 76bc
00000120: 155b 3ebc 79ad d2bc 8c73 84bc e902 35bd
00000130: 7685 9fbd 4eb4 c6bb ad7c 843c e482 bf3c
00000140: ef68 57bc decb 8bbd 1aa5 583d 7524 923d
00000150: 5c7e f0bc a9f5 12bd 2a3a 73bc 7e48 823c
00000160: b09b 4abd 5fe3 a53d 5b5c 0d3d 4096 0bbd
00000170: a474 203c 9aa2 03bd cbd9 f13c 53e0 eb3a
00000180: a591 d73c e6a1 0bbd 0f64 093d c53a 783c
00000190: 9c81 3cbd b54b 343b af83 183d 9539 66bc
000001a0: 0281 28bd 8b3f 1a3d ab8e 4cbd 0d52 cc3b
000001b0: 7d65 7fbd f507 98bc 40b0 c33d 6eba 1fbd
000001c0: e326 86bc 8a89 15bd 8f3c 83bd e3ba 37bd
000001d0: a037 5abc f438 053d 8ace 8d3c 7ead 1d3d
000001e0: 084b 203c 3445 a5bc 1686 abbb 240a cdbc
000001f0: 59d6 62bc 7b0b 563c d116 24bd 98d0 683d
00000200: db3c dabc 511f fd3c 855f aabc 160e 28bd
00000210: 9f4b 5abc 237c 0f3d eec7 b63c 8402 ee3b
00000220: b11d dd3c 8416 57bd 6b53 c63a 9556 a63c
00000230: 860f 433c fa18 e0bc 0f72 f1ba d2ea d7bc
00000240: 8328 5f3b 3bd6 083d 9390 543c c613 fc3c
00000250: 7c36 0ebd dfd4 53bd 19c8 a8bd 1a54 153b
00000260: 9bea 4b3d fca2 283d 9713 983c 278e db3c
00000270: 81c3 663c 5dcc 993c 006a ba3c 4c1b ee3c
00000280: 136d 93bc d97f 27bd e10c 9fbd f837 23bc
00000290: be91 a93c 9c71 a93c 6961 2a3c defd 233c
000002a0: 9b5b 483c d477 fb3c 36c5 203d 8213 0b3c
000002b0: a04a 0fbc dea3 e83c cd1d e5bc 5ac8 b3bb
000002c0: f547 1abd 6616 d1bc 2866 443c 18d7 893c
000002d0: 5090 3b3c 583e 90bd d534 1d3d 94c4 04bd
000002e0: 271a eabb 1370 93bc 0733 e7bb 8220 883c
000002f0: 3ffe 18bd afb0 8bbd ee26 5fbd 693d 63bc
00000300: f108 4bbd 0178 90bd 3c27 d1bc e18d f5bc
00000310: 5bad f63c d83b 78bd 7b69 4d3d 35c2 363d
00000320: 08a9 29bd d411 33bd 7a37 153d 9c50 893d
00000330: b889 3cbb 8595 aabd 8a08 bbbc 26d9 1a3d
00000340: ad6b 3abc 36bc 9fbc 0748 80bd 1c16 fd3c
00000350: a977 c6bd 9d87 ee3c e6de 14bc bb57 2fbd
00000360: 57e3 c1bb c805 c6bc 2e52 95bd 35dd 48bd
00000370: f30c d8bb 4119 9fbc 76ed 07bd 0635 093c
00000380: dfbf 023b c3ef 91bb d9c9 a5bc 33be d53c
00000390: 471d f4bc aeab 10bd 8b4a da3c d738 ba3b
000003a0: 7285 c83c 353c 193d e974 e2bc 5eac eebc
000003b0: b6fa 1e3b ebe7 42bd 7420 3dbd 0f44 5fbd
000003c0: 67b0 d33b 476a 653c 8aaf 75bd 2c55 7bbd
000003d0: d92e b2bd 631d 563d 7a68 17bd c72d b2bb
000003e0: 4374 bd3a fba4 18bd 56a8 cfbc cb07 053c
000003f0: 273b 57bd 24d4 98bc ab84 57bd adad ebbc
0.020037903 0.016496487 -0.010764101 0.05874236 -0.042136554 -0.02361044 -0.014766264 -0.05340243
-0.0056902776 -0.0062844357 -0.022278752 0.005206197 0.049537063 -0.008108667 0.013900255 0.014345761
0.042265434 -0.043387543 -0.06138181 0.0027332983 0.0114056645 0.0040097153 0.010320361 -0.071009256
-0.06061263 0.0001142396 0.023953086 0.044343557 -0.025775982 0.013488306 -0.055357702 -0.03736203
0.047913793 0.004985378 0.049675506 0.041048955 0.0023606615 -0.038661983 -0.05515505 0.012243656
0.014646345 -0.05358777 0.044819947 -0.004648487 -0.06890392 0.00485394 -0.03168697 0.019845879
0.029497618 -0.027002506 -0.015188306 0.05599325 0.0016368421 0.023073446 0.026707808 -0.023271635
-0.0025382605 0.0055819475 0.03267304 -0.00855819 0.03638463 -0.049284596 0.04596377 -0.06411682
-0.035280254 -0.043346487 0.032467417 -0.031659648 -0.02509842 -0.009993964 0.062228005 -0.015057472
-0.011618395 -0.025717484 -0.016168378 -0.04419223 -0.077891275 -0.0060639745 0.016172731 0.023377843
-0.013147577 -0.06825994 0.052891828 0.0713586 -0.029357128 -0.03587881 -0.01484541 0.015903708
-0.04946488 0.08100008 0.034511905 -0.034078836 0.009793434 -0.03213749 0.029522797 0.0017995931
0.026314566 -0.034089945 0.03354269 0.0151507305 -0.046022043 0.0027510945 0.03723496 -0.014051815
-0.041138656 0.037658256 -0.049940746 0.006235367 -0.062352646 -0.018558482 0.095551014 -0.038996153
-0.016375965 -0.03650812 -0.06408035 -0.044855963 -0.013318926 0.032525018 0.0173104 0.038495533
0.009783514 -0.0201746 -0.00523449 -0.02502925 -0.01384505 0.013064261 -0.040060822 0.056839556
-0.026640346 0.030898722 -0.0207975 -0.04102906 -0.013323694 0.035030495 0.02231213 0.0072634835
0.026991697 -0.052511707 0.0015131062 0.020304957 0.011905557 -0.02735566 -0.0018420833 -0.026357088
0.0034051246 0.03340743 0.012973922 0.030771147 -0.03471993 -0.05171668 -0.082412906 0.0022785724
0.049784284 0.04117106 0.018564029 0.026801182 0.014084698 0.018774206 0.022755623 0.02906575
-0.017996347 -0.04089341 -0.07766128 -0.009962074 0.020699378 0.020684056 0.010399201 0.010009257
0.012228872 0.030696787 0.039250575 0.008488538 -0.008745819 0.02839845 -0.027968312 -0.0054865303
-0.03766628 -0.025523376 0.011987247 0.016826198 0.011447981 -0.07043141 0.038380463 -0.032414034
-0.007144231 -0.017997777 -0.0070556435 0.016617063 -0.037351843 -0.06820809 -0.054480486 -0.013869622
-0.049569074 -0.07054139 -0.025531404 -0.02997488 0.03011196 -0.060603946 0.050149422 0.044618804
-0.041420966 -0.043718174 0.03642986 0.06704828 -0.002876861 -0.083293 -0.02283122 0.037804745
-0.011378211 -0.019498926 -0.06263738 0.030894332 -0.09690792 0.0291174 -0.009086346 -0.042808276
-0.0059169936 -0.024172679 -0.07291065 -0.049039084 -0.0065933405 -0.019421222 -0.033185445 0.008374458
0.001995079 -0.0044536307 -0.02023785 0.02609167 -0.029799117 -0.035319977 0.026646873 0.0056830454
0.024477694 0.037410934 -0.027643638 -0.029134925 0.0024258322 -0.047584455 -0.046173528 -0.054508265
0.006460238 0.014002389 -0.05998186 -0.061360523 -0.08700342 0.05227412 -0.03696487 -0.005437586
0.0014454204 -0.037266713 -0.025348824 0.008119534 -0.052546646 -0.018655844 -0.052616756 -0.028769339

action_model._continuous_distribution.log_sigma f4 [1, 4]
00000000: f368 b7be b4c3 dbbe 5503 2fbf 093d 38be
-0.35822257 -0.42922747 -0.6836446 -0.17992033

action_model._continuous_distribution.mu.weight f4 [4, 256]
00000000: c20f 9dbc 8cd8 93bd 1d61 64bc 207d 723d
00000010: 1206 1fbe d718 943c 4854 b8bd 3697 8fbd
00000020: 25dd 19bc a1c2 b0bd 2532 7ebc b86e 1cbc
00000030: d849 ba3d 2846 94bd 8816 103d 3df5 813d
00000040: 053a 313d 323c a1bc c61b c2bd 3a38 8b3c
00000050: 6f37 4fbc a470 68bd 1eaa 7ebd 4530 16be
00000060: 6ffc b5bd 39af 753d a455 683d 11ad a93d
00000070: 51d9 adbc d629 bb3c 773f b9bd fd3d 88bd
00000080: 2d3f 533d d1e2 513d 6124 463d 4ef0 913d
00000090: a809 cdbb e0c5 b1bb 4269 72bc ecd9 583c
000000a0: 4cd5 2f3d d697 73bd 983e 443d 3038 753c
000000b0: 38d7 e0bd bcdc be3c 2b59 42bd e9b5 a33d
000000c0: d12f 263d a54a 92bd d71f 3d3d cded a63c
000000d0: 7059 a2bc 8667 b33c cc8d 06bb dbc7 8abd
000000e0: debb 1bbd 4797 163c fe51 0c3d 1e84 883d
000000f0: 0922 6d3b 573b 5abd d600 073e ac10 c2bd
00000100: de39 e6bd 536b 7cbd f9a4 283d e3a7 f7bd
00000110: a8a7 c0bd 1087 5bbd 685c d03d 9c79 72bb
00000120: 5c97 afbd 3fba 703d 28a6 96bc 64ae ccbc
00000130: 1ca9 21be 8c67 f63b 1dba 8fbd 9efb 1d3d
00000140: 12cb a1bc eaed b6bd eb67 423d d3e8 1a3d
00000150: 0cf4 5d3d 1980 60bd 8606 8bbd 847e 943c
00000160: 60eb a4bd 7bfc 833d 0c9f a53d f9d5 6fbd
00000170: a0a7 7cbb 753e f5bd 46ea c43c 237a 82bd
00000180: 48ac 413d 6ded 2cbb cd20 1d3d 5ca2 0d3c
00000190: 48e7 47bd 7ec0 66bd effa 913d f155 f9bc
000001a0: f04e f2bd 0cb3 2d3d 3062 acbd ce7b 2b3d
000001b0: e4a7 07be 009a 5fbc 35f1 c53d 1e9a b6bd
000001c0: c04c 0f3d a4f0 a9bc 178a c2bd d7b3 e8bd
000001d0: 91b6 34bc bef9 b33d 96f9 8a3d 9209 4abb
000001e0: d910 c6bd 40fb 913c f9df 553d 4a12 263d
000001f0: aea9 2e3d 3dc0 263d db4a 94bd ae8b a93d
00000200: bf0d c73c d4b3 3ebd 8bc9 8a3c bed9 fcbc
00000210: 3144 ddbd d71c 803d dd91 1a3d 1c69 21bd
00000220: 76f7 603d ba97 babd cc34 713c 8ac2 d5bc
00000230: 405c fcbb 0197 ec3b 3339 d93b f1c2 5cbd
00000240: 8f21 6e3c e6b2 833d 6d60 d13c 3e1d 2f3d
00000250: 86f3 87bd 10bf 25bd 4f12 c2bd 8420 9abd
00000260: 86fe d03c 79f5 923d 8dd9 803d 8f32 c7bc
00000270: 54c0 323d 2769 2b3c eadd 953c 0346 d23c
00000280: b2b9 67bd 0a6c 1dbe fcda 1bbd 14b0 68bd
00000290: dea4 463d d443 7a3c f4af 44bc 9d08 2d3d
000002a0: e02f 7c3d d894 d3bc f3d3 f83c 1335 b93c
000002b0: b8b4 9d3c dfdd aa3d c67f 4dbd f8ab 083d
000002c0: beb1 a1bd 663c 1cbc a262 063d bf90 0b3d
000002d0: d7ac 503b 179a c3bd 5af7 2e3d 6765 32bd
000002e0: 5a2e d2bc 029d d2bd 1604 1c3b 3bb1 ca3d
000002f0: ff77 cabd 41d5 a9bd 7959 c8bc 9120 00ba
00000300: 6d34 a33c e7a7 58bd d4a9 7b3b 3477 7fbd
00000310: 81b5 853d 9b70 babd a645 a03d 7c8b 503d
00000320: 410b 26be 5587 3fbd 2fcb a23c 81c1 ca3d
00000330: f9f8 633d c887 74bd 7c0d b93b e103 7f3d
00000340: c892 8a3d 3dcb 1f3c b066 27be 16ab 573d
00000350: bdcb 01be 3622 ee3c 2d27 253d bf5f d7bd
00000360: d64d eabb f36b 3b3d f3cb bdbd 8496 cbbd
00000370: f1c7 0b3a 375f 37bd 15cf 20bd 50dc 2bbd
00000380: e252 2fbc 0415 a43d 4282 5c3d 7e8f 943b
00000390: 9234 ea3c d062 babd fd13 32bd b21a e7bd
000003a0: a244 613d d218 643c 1db0 fabd a0c3 afbc
000003b0: 9bf1 f83c 9c53 173c 1926 c9bd 878f 42bc
000003c0: 06a0 e43b db5e a1bc 2def ccbd 2d11 82bd
000003d0: 304a 13be 68e0 d23c 6b52 5abc 003c 503c
000003e0: 273e d9bc d122 15be 48c0 c1bd 73c7 24bb
000003f0: 6400 1bbd 059e 113d 1e00 93bb 2cb4 493c
-0.019172553 -0.072190374 -0.013939169 0.05920136 -0.1552966 0.01807825 -0.090004504 -0.07011263
-0.009391104 -0.086308725 -0.015514885 -0.009547882 0.09096116 -0.07239944 0.035177737 0.063456036
0.043268222 -0.019682024 -0.094779536 0.016994584 -0.012647494 -0.056748047 -0.062173955 -0.14666851
-0.088860385 0.05998156 0.0567223 0.08284963 -0.021221789 0.022847097 -0.09045308 -0.06652448
0.05157392 0.0512417 0.048374537 0.071259126 -0.0062572546 -0.0054252 -0.014795603 0.01323555
0.042928025 -0.059470974 0.047911257 0.014967009 -0.1097855 0.023298614 -0.04744832 0.07993681
0.040572945 -0.071431436 0.046172943 0.020377064 -0.019818038 0.02189995 -0.0020531295 -0.06776401
-0.03802096 0.009191341 0.03425788 0.06665824 0.0036183617 -0.053279247 0.13183913 -0.09475836
-0.11241506 -0.06162579 0.041172955 -0.12092569 -0.09406978 -0.053595603 0.10173875 -0.0036998754
-0.085737914 0.058771368 -0.018389776 -0.0249855 -0.15787166 0.007519668 -0.0701792 0.03857004
-0.019750152 -0.08932097 0.047462385 0.037819695 0.05418782 -0.054809663 -0.067883536 0.018126734
-0.08052707 0.06444641 0.080869764 -0.05855367 -0.003855206 -0.11974803 0.024037492 -0.06370952
0.04728344 -0.0026386634 0.03836136 0.0086446665 -0.04880455 -0.05633592 0.0712794 -0.030436488
-0.118314624 0.04240708 -0.08417165 0.041866116 -0.13247639 -0.013647556 0.09665147 -0.08916114
0.034985304 -0.02074463 -0.09498995 -0.11362427 -0.011029855 0.08787869 0.06785886 -0.0030828458
-0.09671182 0.01782 0.05221555 0.040544786 0.042642288 0.040710676 -0.0724084 0.08278595
0.024298547 -0.046558216 0.016941806 -0.030865546 -0.10804022 0.06255501 0.037736762 -0.03940688
0.054923497 -0.09110971 0.01472206 -0.02609374 -0.0077014267 0.0072201495 0.006629133 -0.053896848
0.014534368 0.064306065 0.025558675 0.042752497 -0.06638245 -0.040465415 -0.09476148 -0.07525733
0.025511991 0.071757264 0.062914945 -0.0243161 0.04364045 0.010462082 0.018294293 0.02566815
-0.056573577 -0.15373245 -0.038050637 -0.056808546 0.048497073 0.015274961 -0.012004841 0.042244542
0.061569095 -0.02582781 0.030374503 0.022608316 0.019251212 0.083431 -0.050170682 0.033367127
-0.0789523 -0.0095358845 0.032808907 0.034073588 0.0031841302 -0.09550875 0.04271636 -0.043553736
-0.025656868 -0.10283853 0.0023806146 0.09897085 -0.09886169 -0.08292628 -0.024456726 -0.0004887665
0.01992246 -0.0528945 0.0038400786 -0.06236954 0.0652876 -0.09103509 0.078257844 0.050914273
-0.1621523 -0.046759922 0.019872276 0.09900189 0.05565736 -0.059699804 0.0056473594 0.06225956
0.067662776 0.009753046 -0.16347766 0.052653395 -0.12675376 0.029069047 0.040320564 -0.10516309
-0.007150392 0.045757245 -0.09267416 -0.09940818 0.0005332223 -0.04476854 -0.03925999 -0.041958153
-0.010700913 0.08011821 0.05383516 0.004533707 0.02858952 -0.09100878 -0.043476094 -0.112843886
0.054997094 0.013921933 -0.12240622 -0.021455586 0.030388644 0.009236243 -0.0982172 -0.01187504
0.006977084 -0.01969855 -0.10006557 -0.06350932 -0.14383769 0.02574177 -0.013325314 0.012709618
-0.026518894 -0.14564063 -0.09460503 -0.0025143295 -0.03784217 0.03555109 -0.004486098 0.012311023

action_model._continuous_distribution.mu.bias f4 [4]
00000000: a453 bf3d 6783 61bb a7c4 a8bb 5ac2 233d
0.09342125 -0.0034410597 -0.005150396 0.03998027

onnx::Div_71 f4 [68]
00000000: 6ac5 963e d2b1 0c3e f8d2 3f3c 323b 123e
00000010: 4c81 923e 620d d33d f1de 403c f266 0a3e
00000020: 5f7b 953e 60a1 0d3e f86b 3e3c 30f5 193e
00000030: f65a 8b3e dcdf 833d 8c32 433c ba13 073e
00000040: aa8e 8e3e 01b5 e73d 5d34 433c 4f84 1b3e
00000050: e64b 813e 9a41 323d 156a 453c c917 083e
00000060: 1a6a 863e 541e ac3d 332d 453c c466 173e
00000070: 83d0 7c3e 7866 193d 56db 4a3c ee98 0b3e
00000080: d02a 813e acd0 7d3d b25e 4b3c 2e3c 113e
00000090: b048 893e e8d6 143d 363d 4d3c 5e49 0f3e
000000a0: ae81 803e 73f2 443d 2486 4c3c 0bdb 0b3e
000000b0: 6758 953e c962 143d 655b 4b3c 4646 103e
000000c0: d854 813e 9f8b 1e3d e2f2 4b3c 1855 093e
000000d0: 7886 983e a27c 0d3d 14a0 493c 83cd 0f3e
000000e0: 7879 7f3e 2d92 023d f736 4a3c 0baa 073e
000000f0: a5ec 913e 1018 073d 0cf2 3e3c c3cb 103e
00000100: 343e 793e 2b59 ef3c 8261 483c 5c0f 073e
0.2944749 0.13739708 0.011708014 0.14280394 0.2861427 0.10305287 0.011771903 0.13515833
0.29195687 0.13831091 0.011622421 0.15034938 0.27217835 0.06439182 0.011913907 0.13191119
0.2784322 0.11313821 0.01191434 0.1518719 0.25253218 0.043519594 0.012049218 0.13290323
0.26252824 0.08404222 0.012034702 0.14785296 0.24688916 0.037451237 0.012381395 0.13632557
0.25227976 0.061966583 0.012412714 0.14183113 0.2681327 0.036337763 0.012526801 0.13992831
0.25098938 0.04808278 0.0124831535 0.13657777 0.29169008 0.03622702 0.012411927 0.14089307
0.25260043 0.03870737 0.0124480445 0.13411367 0.29790092 0.034542687 0.012306232 0.1404324
0.2494868 0.031877685 0.012342206 0.1324846 0.28500858 0.032981932 0.011654388 0.14140229
0.24340135 0.029217323 0.012230279 0.13189453

onnx::Div_74 f4 [20]
00000000: c8d2 dc3e 529d 863d f85d 573e 1e5b 823e
00000010: 76a6 e33e 6f7a 483d d89c 4e3e 18e9 803e
00000020: 1036 dd3e 87c2 8c3d b3c8 523e ed07 813e
00000030: a3c0 eb3e eb89 033d 489f 453e 22c7 7f3e
00000040: 3086 e83e 3154 6f3d 479b 413e 1d64 7a3e
0.43129563 0.06572975 0.2103194 0.25460142 0.44462937 0.048944887 0.20177019 0.25177836
0.4320531 0.06873041 0.20584373 0.2520136 0.46045408 0.03211395 0.19299042 0.24978307
0.45414877 0.0584299 0.1890689 0.24452253

onnx::Div_77 f4 [5]
00000000: 7e94 7941 9e5f a13f 871d 8540 1d0e 8d3f
00000010: e38b f03e
15.598753 1.2607305 4.1598544 1.1019932 0.46981725
