Assets/results/3/CoinChaser/CoinChaser-640.pt (torch, 738378 bytes, 36 tensors)

network_body.observation_encoder.processors.0.normalizer.running_mean f4 [68]
000000 50 b7 35 3f b2 42 59 3d 00 00 00 00 85 00 48 3e
       0.7098284 0.05304212 0.0 0.19531448
000010 8c 21 2c 3f 16 49 c9 3d 00 00 00 00 ec 1d 50 3e
       0.6723869 0.09828393 0.0 0.20323914
000020 ea b4 3b 3f 12 d2 f2 3c 00 00 00 00 24 38 40 3e
       0.7332293 0.029641185 0.0 0.18771416
000030 26 23 28 3f a6 62 89 3d 00 00 00 00 e1 5b 6c 3e
       0.6567863 0.06708269 0.0 0.23081924
000040 85 b2 41 3f a2 eb 32 3d 00 00 00 00 b9 b2 33 3e
       0.75663024 0.04368175 0.0 0.17548646
000050 23 27 1e 3f 7c c6 8f 3d 00 00 00 00 36 26 73 3e
       0.6177847 0.0702028 0.0 0.23745045
000060 68 79 50 3f 6a f8 12 3d 00 00 00 00 ed 35 26 3e
       0.8143525 0.035881437 0.0 0.16231509
000070 4d bf 21 3f 40 5c 19 3d 00 00 00 00 70 b4 7b 3e
       0.63182527 0.037441492 0.0 0.2458055
000080 60 0e 5c 3f a1 eb 32 3c 00 00 00 00 dc 66 1f 3e
       0.85959435 0.010920436 0.0 0.15566581
000090 10 59 21 3f 3a 6e 6c 3d 00 00 00 00 3f 37 80 3e
       0.63026524 0.057722308 0.0 0.2504215
0000a0 b3 3e 63 3f 41 5c 19 3c 00 00 00 00 36 1c 13 3e
       0.88767546 0.009360374 0.0 0.1436623
0000b0 a0 ef 28 3f 2d 8e 9c 3d 00 00 00 00 12 6f 83 3e
       0.6599064 0.076443054 0.0 0.25670677
0000c0 78 d4 6c 3f 42 5c 99 3b 00 00 00 00 cc 29 08 3e
       0.925117 0.0046801874 0.0 0.13297194
0000d0 64 85 32 3f 52 b3 bf 3d 00 00 00 00 7a 63 83 3e
       0.6973479 0.093603745 0.0 0.25661832
0000e0 df d2 70 3f 00 00 00 00 00 00 00 00 7b 3c 00 3e
       0.94071764 0.0 0.0 0.12523071
0000f0 14 4d 3f 3f de 55 a9 3d 00 00 00 00 b7 72 82 3e
       0.74726987 0.08268331 0.0 0.25478145
000100 f4 9c 77 3f 00 00 00 00 00 00 00 00 1e 79 eb 3d
       0.96723866 0.0 0.0 0.11497711

network_body.observation_encoder.processors.0.normalizer.running_variance f4 [68]
000000 31 07 05 43 49 c9 04 42 00 00 80 3f 74 9b e3 40
       133.02809 33.196568 1.0 7.112726
000010 85 33 0e 43 82 3b 67 42 00 00 80 3f 7c e0 f8 40
       142.20125 57.808113 1.0 7.777403
000020 b2 c3 fc 42 9a 7e 9b 41 00 00 80 3f 78 1d e8 40
       126.38222 19.436817 1.0 7.2535973
000030 34 7e 11 43 38 76 24 42 00 00 80 3f 69 1a 17 41
       145.49298 41.115448 1.0 9.443948
000040 94 11 ee 42 1d 37 de 41 00 00 80 3f 14 13 d5 40
       119.03433 27.77691 1.0 6.658579
000050 75 5b 18 43 0e 5d 2b 42 00 00 80 3f 63 b3 12 41
       152.35725 42.840874 1.0 9.168796
000060 e0 d0 c3 42 d7 65 b9 41 00 00 80 3f 1a 6c 72 40
       97.90796 23.174726 1.0 3.787848
000070 5b 1c 16 43 ad cf c0 41 00 00 80 3f cc a3 f2 40
       150.11076 24.101404 1.0 7.5824947
000080 1c ba 9c 42 c7 8d fd 40 00 00 80 3f 49 2a 83 40
       78.363495 7.923557 1.0 4.098912
000090 74 5f 16 43 04 75 0f 42 00 00 80 3f fe 2a f3 40
       150.37286 35.864273 1.0 7.598998
0000a0 45 d3 81 42 eb 33 de 40 00 00 80 3f 16 b3 3c 40
       64.912636 6.9438376 1.0 2.9484305
0000b0 0f dc 10 43 64 04 39 42 00 00 80 3f 62 b8 05 41
       144.8596 46.254288 1.0 8.357515
0000c0 5a 9f 35 42 f5 19 7f 40 00 00 80 3f c4 d2 27 40
       45.405617 3.9859593 1.0 2.622239
0000d0 16 49 08 43 fc 88 5d 42 00 00 80 3f df ff 12 41
       136.28549 55.383774 1.0 9.187469
0000e0 34 fd 12 42 00 00 80 3f 00 00 80 3f 22 9e 24 40
       36.74727 1.0 1.0 2.5721517
0000f0 8d 1d f4 42 9c 78 46 42 00 00 80 3f b8 d6 15 41
       122.05772 49.617783 1.0 9.364922
000100 01 7f aa 41 00 00 80 3f 00 00 80 3f a2 2b 1b 40
       21.312014 1.0 1.0 2.4245381

network_body.observation_encoder.processors.1.normalizer.running_mean f4 [20]
000000 4c c3 17 3f 00 00 00 00 ef ac cf 3e 58 38 32 3f
       0.59282374 0.0 0.40561625 0.69617224
000010 9a ff 00 3f 00 00 00 00 51 34 fd 3e fc 94 43 3f
       0.5039002 0.0 0.49453977 0.7639921
000020 b7 b9 2f 3f 00 00 00 00 1a c0 9f 3e 1c d7 23 3f
       0.68642753 0.0 0.3120125 0.64000106
000030 3f e5 c2 3e 00 00 00 00 25 27 1e 3f 71 19 55 3f
       0.38065526 0.0 0.6177848 0.83241946
000040 2c 13 50 3f 00 00 00 00 5e 1a 3e 3e c3 4d 14 3f
       0.81279254 0.0 0.18564746 0.57931155

network_body.observation_encoder.processors.1.normalizer.running_variance f4 [20]
000000 1a ba 1b 43 00 00 80 3f 30 8a 1b 43 ca f5 4b 42
       155.72696 1.0 155.5398 50.99003
000010 82 3d 21 43 00 00 80 3f 1c 3b 21 43 28 01 3b 42
       161.24026 1.0 161.2309 46.75113
000020 ce f8 0a 43 00 00 80 3f f6 98 0a 43 06 79 4c 42
       138.9719 1.0 138.5975 51.118187
000030 be 1e 18 43 00 00 80 3f 72 5b 18 43 a8 12 23 42
       152.12009 1.0 152.35721 40.76822
000040 f4 11 c5 42 00 00 80 3f e0 d0 c3 42 25 ec 2e 42
       98.535065 1.0 97.90796 43.73061

network_body.observation_encoder.processors.2.normalizer.running_mean f4 [3]
000000 1b 18 cd 41 41 39 86 3f f6 49 d2 c0
       25.63677 1.0486223 -6.5715284

network_body.observation_encoder.processors.2.normalizer.running_variance f4 [3]
000000 e0 87 10 45 81 7b 07 40 36 4b 01 45
       2312.4922 2.116913 2068.7007

network_body.processors.0.normalizer.running_mean f4 [68]
000000 50 b7 35 3f b2 42 59 3d 00 00 00 00 85 00 48 3e
       0.7098284 0.05304212 0.0 0.19531448
000010 8c 21 2c 3f 16 49 c9 3d 00 00 00 00 ec 1d 50 3e
       0.6723869 0.09828393 0.0 0.20323914
000020 ea b4 3b 3f 12 d2 f2 3c 00 00 00 00 24 38 40 3e
       0.7332293 0.029641185 0.0 0.18771416
000030 26 23 28 3f a6 62 89 3d 00 00 00 00 e1 5b 6c 3e
       0.6567863 0.06708269 0.0 0.23081924
000040 85 b2 41 3f a2 eb 32 3d 00 00 00 00 b9 b2 33 3e
       0.75663024 0.04368175 0.0 0.17548646
000050 23 27 1e 3f 7c c6 8f 3d 00 00 00 00 36 26 73 3e
       0.6177847 0.0702028 0.0 0.23745045
000060 68 79 50 3f 6a f8 12 3d 00 00 00 00 ed 35 26 3e
       0.8143525 0.035881437 0.0 0.16231509
000070 4d bf 21 3f 40 5c 19 3d 00 00 00 00 70 b4 7b 3e
       0.63182527 0.037441492 0.0 0.2458055
000080 60 0e 5c 3f a1 eb 32 3c 00 00 00 00 dc 66 1f 3e
       0.85959435 0.010920436 0.0 0.15566581
000090 10 59 21 3f 3a 6e 6c 3d 00 00 00 00 3f 37 80 3e
       0.63026524 0.057722308 0.0 0.2504215
0000a0 b3 3e 63 3f 41 5c 19 3c 00 00 00 00 36 1c 13 3e
       0.88767546 0.009360374 0.0 0.1436623
0000b0 a0 ef 28 3f 2d 8e 9c 3d 00 00 00 00 12 6f 83 3e
       0.6599064 0.076443054 0.0 0.25670677
0000c0 78 d4 6c 3f 42 5c 99 3b 00 00 00 00 cc 29 08 3e
       0.925117 0.0046801874 0.0 0.13297194
0000d0 64 85 32 3f 52 b3 bf 3d 00 00 00 00 7a 63 83 3e
       0.6973479 0.093603745 0.0 0.25661832
0000e0 df d2 70 3f 00 00 00 00 00 00 00 00 7b 3c 00 3e
       0.94071764 0.0 0.0 0.12523071
0000f0 14 4d 3f 3f de 55 a9 3d 00 00 00 00 b7 72 82 3e
       0.74726987 0.08268331 0.0 0.25478145
000100 f4 9c 77 3f 00 00 00 00 00 00 00 00 1e 79 eb 3d
       0.96723866 0.0 0.0 0.11497711

network_body.processors.0.normalizer.running_variance f4 [68]
000000 31 07 05 43 49 c9 04 42 00 00 80 3f 74 9b e3 40
       133.02809 33.196568 1.0 7.112726
000010 85 33 0e 43 82 3b 67 42 00 00 80 3f 7c e0 f8 40
       142.20125 57.808113 1.0 7.777403
000020 b2 c3 fc 42 9a 7e 9b 41 00 00 80 3f 78 1d e8 40
       126.38222 19.436817 1.0 7.2535973
000030 34 7e 11 43 38 76 24 42 00 00 80 3f 69 1a 17 41
       145.49298 41.115448 1.0 9.443948
000040 94 11 ee 42 1d 37 de 41 00 00 80 3f 14 13 d5 40
       119.03433 27.77691 1.0 6.658579
000050 75 5b 18 43 0e 5d 2b 42 00 00 80 3f 63 b3 12 41
       152.35725 42.840874 1.0 9.168796
000060 e0 d0 c3 42 d7 65 b9 41 00 00 80 3f 1a 6c 72 40
       97.90796 23.174726 1.0 3.787848
000070 5b 1c 16 43 ad cf c0 41 00 00 80 3f cc a3 f2 40
       150.11076 24.101404 1.0 7.5824947
000080 1c ba 9c 42 c7 8d fd 40 00 00 80 3f 49 2a 83 40
       78.363495 7.923557 1.0 4.098912
000090 74 5f 16 43 04 75 0f 42 00 00 80 3f fe 2a f3 40
       150.37286 35.864273 1.0 7.598998
0000a0 45 d3 81 42 eb 33 de 40 00 00 80 3f 16 b3 3c 40
       64.912636 6.9438376 1.0 2.9484305
0000b0 0f dc 10 43 64 04 39 42 00 00 80 3f 62 b8 05 41
       144.8596 46.254288 1.0 8.357515
0000c0 5a 9f 35 42 f5 19 7f 40 00 00 80 3f c4 d2 27 40
       45.405617 3.9859593 1.0 2.622239
0000d0 16 49 08 43 fc 88 5d 42 00 00 80 3f df ff 12 41
       136.28549 55.383774 1.0 9.187469
0000e0 34 fd 12 42 00 00 80 3f 00 00 80 3f 22 9e 24 40
       36.74727 1.0 1.0 2.5721517
0000f0 8d 1d f4 42 9c 78 46 42 00 00 80 3f b8 d6 15 41
       122.05772 49.617783 1.0 9.364922
000100 01 7f aa 41 00 00 80 3f 00 00 80 3f a2 2b 1b 40
       21.312014 1.0 1.0 2.4245381

network_body.processors.1.normalizer.running_mean f4 [20]
000000 4c c3 17 3f 00 00 00 00 ef ac cf 3e 58 38 32 3f
       0.59282374 0.0 0.40561625 0.69617224
000010 9a ff 00 3f 00 00 00 00 51 34 fd 3e fc 94 43 3f
       0.5039002 0.0 0.49453977 0.7639921
000020 b7 b9 2f 3f 00 00 00 00 1a c0 9f 3e 1c d7 23 3f
       0.68642753 0.0 0.3120125 0.64000106
000030 3f e5 c2 3e 00 00 00 00 25 27 1e 3f 71 19 55 3f
       0.38065526 0.0 0.6177848 0.83241946
000040 2c 13 50 3f 00 00 00 00 5e 1a 3e 3e c3 4d 14 3f
       0.81279254 0.0 0.18564746 0.57931155

network_body.processors.1.normalizer.running_variance f4 [20]
000000 1a ba 1b 43 00 00 80 3f 30 8a 1b 43 ca f5 4b 42
       155.72696 1.0 155.5398 50.99003
000010 82 3d 21 43 00 00 80 3f 1c 3b 21 43 28 01 3b 42
       161.24026 1.0 161.2309 46.75113
000020 ce f8 0a 43 00 00 80 3f f6 98 0a 43 06 79 4c 42
       138.9719 1.0 138.5975 51.118187
000030 be 1e 18 43 00 00 80 3f 72 5b 18 43 a8 12 23 42
       152.12009 1.0 152.35721 40.76822
000040 f4 11 c5 42 00 00 80 3f e0 d0 c3 42 25 ec 2e 42
       98.535065 1.0 97.90796 43.73061

network_body.processors.2.normalizer.running_mean f4 [3]
000000 1b 18 cd 41 41 39 86 3f f6 49 d2 c0
       25.63677 1.0486223 -6.5715284

network_body.processors.2.normalizer.running_variance f4 [3]
000000 e0 87 10 45 81 7b 07 40 36 4b 01 45
       2312.4922 2.116913 2068.7007

network_body._body_endoder.seq_layers.0.weight f4 [256, 91]
000000 c2 ed 79 bc eb f3 62 bd 1e f6 0c 3e 4e 2f d1 3d
       -0.01525444 -0.0554084 0.13765761 0.10214101
000010 12 71 b4 3d 12 84 5a 3e 37 bb 1e 3d 85 1e 5e 3d
       0.08810629 0.21339443 0.03875276 0.054228324
000020 a7 1d 2f be c8 7a 36 3c 08 44 97 bc 6f a2 29 3d
       -0.17101155 0.011137672 -0.018465057 0.041414674
000030 65 31 14 3e 26 9c a8 bb 29 79 1b 3e a4 25 d0 bd
       0.14471968 -0.0051455675 0.15182938 -0.101634294
000040 f4 ce 73 3d b4 d9 d6 3d a5 a4 29 bd 42 29 8f bd
       0.059523538 0.10490742 -0.041416783 -0.06990291
000050 ad 41 e4 3d 14 f7 57 3e 2e 3e 20 be da 44 77 bd
       0.11145339 0.21090347 -0.1564872 -0.060368396
000060 5f 0a 6a bd 11 24 66 3e 36 bc 20 bd 1a 87 e4 3d
       -0.057138797 0.22474696 -0.039241992 0.11158581
000070 13 fd 1b 3c bf d8 79 3d f8 67 a2 bb 25 4f 82 3d
       0.009520787 0.06099772 -0.0049562417 0.06362752
000080 cb b3 93 3c dd da 07 3d fc ea 30 3d 31 45 a0 3c
       0.018030068 0.03316771 0.04319285 0.019564243
000090 5d d7 65 be 3f f1 56 3d c0 05 2c 3e 84 ce fb 3b
       -0.22445436 0.052476164 0.16799068 0.0076845307
0000a0 c5 02 d4 3c 0e 5b 18 3d 4f 58 b4 bb 7e 01 62 bd
       0.025880227 0.03719621 -0.0055036913 -0.055177204
0000b0 6b 4e 21 be 82 66 a6 bd 62 0e ba 3b 31 c5 a7 bd
       -0.1575257 -0.081250206 0.005677984 -0.08191908
0000c0 59 4b 01 be 48 92 df bd 60 c5 de bd 16 66 50 3c
       -0.12626399 -0.10916573 -0.1087749 0.012719652
0000d0 f6 54 64 bd 3a f8 ad bd 5c d1 83 3d c1 43 05 3d
       -0.055745088 -0.08494611 0.064364165 0.03253532
0000e0 78 55 27 3d 45 e6 da 3d 77 26 0b 3d 53 4d 5c 3e
       0.040852994 0.10688452 0.03397223 0.21513872
0000f0 d6 4c e4 3c 25 ae 99 bd 0a 56 38 3d 1a c2 da bd
       0.02786867 -0.075039186 0.04500393 -0.10681553
000100 97 d8 7b bd 4b f8 6e bd 56 c1 65 be d7 1a 20 3e
       -0.061485853 -0.05834226 -0.22437033 0.15635239
000110 bb 73 a3 bd 26 cb 46 bd f9 9b 0d 3e 1f 8e 38 3d
       -0.07981058 -0.04853358 0.1382903 0.045057412
000120 ef 3a 06 3e 18 a4 b9 bc 94 71 84 be ec 35 9b bd
       0.13108419 -0.022661254 -0.25867903 -0.07578644
000130 8f 63 26 3e d3 3c 87 bd db a8 e6 3c b6 c0 60 3e
       0.16248916 -0.06603398 0.028156688 0.21948513
000140 1b 60 f1 bd ff e3 6b bc 1e 3c 92 3d fd 1a 43 3d
       -0.11785909 -0.01439762 0.07140373 0.04763316
000150 eb 3c a2 3d 0a 75 a1 bb 43 af 3c 3e 2d 6c c4 bd
       0.079217754 -0.004927282 0.18426232 -0.095909454
000160 76 57 94 3d 3f 80 fc 3d 0f 3a 0c bd 51 ee fe 3c
       0.07243244 0.123291485 -0.034235056 0.031119497
000170 2e 12 b7 3d b4 4e ac bc cf 51 03 bd 11 93 6b bb
       0.089390144 -0.021033622 -0.03206044 -0.0035945813
000180 a2 c0 e6 bd 85 6c 34 bd 8b bf 21 bd 5a a9 aa 3d
       -0.112672105 -0.044048805 -0.03948931 0.083330825
000190 45 d7 f5 bd 0c 4c 53 bd 31 14 05 bd 08 84 6a bd
       -0.1200395 -0.051586196 -0.03248996 -0.05725482
0001a0 51 fd 39 3c e9 d8 f1 bc 99 32 21 bc c7 5d b4 3d
       0.011351899 -0.029522376 -0.009838724 0.08806949
0001b0 48 05 47 3c 1a 3a 78 bd 81 bf a5 3d d2 c7 f8 3d
       0.012147255 -0.060602285 0.08093167 0.12147488
0001c0 d9 a4 8b 3d d6 b8 c3 bd b5 73 63 3e 70 76 36 bd
       0.068185516 -0.09556739 0.22212107 -0.044546545
0001d0 ad 61 5f 3d a3 67 d0 3c b1 30 ce bd ce cc a9 bc
       0.05453651 0.025440043 -0.10067881 -0.020727541
0001e0 60 e5 04 3d fa af 82 bd 8b 92 3a 3d cf 2a 28 3d
       0.03244531 -0.06381221 0.04554991 0.04105645
0001f0 26 62 4a be bf 41 a3 be 7c 89 37 bd 45 4c c4 3d
       -0.19764003 -0.31886098 -0.04480885 0.0958486
000200 b7 86 32 3c 3a 2f e2 bc fb 56 1b bd 4c b9 0a 3e
       0.010896376 -0.02761041 -0.037924748 0.13547248
000210 8a 5f c6 bc e8 76 2e 3d 2d a9 3a 3d 03 6d 9c 3c
       -0.024215478 0.042593867 0.045571495 0.01909495
000220 c4 19 1b be 4f 39 b2 bd 99 e0 a1 bd 15 ac c2 ba
       -0.15146548 -0.08702337 -0.07904167 -0.001485231
000230 88 55 61 3d ac 24 f9 bd b2 ea 84 bd c1 a8 30 3e
       0.05501321 -0.12165198 -0.06490077 0.17251875
000240 e0 74 cc bd cc 86 07 be 19 3d 34 3d 56 82 06 3d
       -0.0998323 -0.13235015 0.04400358 0.03283914
000250 53 c6 e4 ba 6b a1 15 be f8 a2 ed bd d0 a0 9e bd
       -0.0017454125 -0.14612357 -0.116033494 -0.07745516
000260 35 07 bc bc 73 91 02 be 99 5f 35 bb 64 ab 6d bc
       -0.022952655 -0.12750797 -0.002767539 -0.014506195
000270 37 95 92 bd a7 92 80 3d dc 21 29 3d f1 4a d9 3d
       -0.07157367 0.06277972 0.041292056 0.10609997
000280 94 54 00 3d 7c 0b f0 bb ca fc 54 bd c7 a1 d9 3d
       0.03133066 -0.007325588 -0.05199889 0.1062656
000290 b6 19 62 3d 91 2e af bb 8f 29 9d bc b4 14 bb 3d
       0.0552003 -0.0053461273 -0.019184856 0.09134808
0002a0 38 de 37 bd 47 fc 11 3b 69 e8 c8 bc 72 c0 a4 bd
       -0.04488966 0.0022275613 -0.024524884 -0.080445185
0002b0 18 03 f9 bb 0e dc 60 3d b8 9c 68 bd 7f 2b e3 bc
       -0.0075992458 0.05489736 -0.056790084 -0.027730701
0002c0 eb 02 e7 bd 58 3a 86 3d 96 45 0b bd 9c dc ac 3d
       -0.112798534 0.06554097 -0.03400191 0.084405154
0002d0 09 65 f4 3c d8 b2 9d 3c 30 3f 8f 3b ea 30 99 3d
       0.029833334 0.019250318 0.004371546 0.07480033
0002e0 87 8a 61 bd c1 c7 c2 3b 64 fb 82 bd f2 68 0e 3e
       -0.05506375 0.0059442227 -0.06395605 0.13907221
0002f0 19 85 57 be db ce 05 3d d1 74 38 3d 41 b6 f5 bc
       -0.21046866 0.032667976 0.04503328 -0.029994132
000300 7d af ad 3d 7e df 72 3b a4 c0 c0 3b 8c 70 ea 3d
       0.08480737 0.0037059481 0.0058823396 0.11447248
000310 8b 0e b1 bd 27 42 3d be 60 7d 4d be bf ae 9b 3d
       -0.08645352 -0.18482266 -0.20067358 0.076016895
000320 a5 6f d5 bd 88 71 9c bd dc 8d 5f bd 24 d3 2e 3e
       -0.10421685 -0.07638842 -0.054578647 0.17072731
000330 45 c7 a5 bd ea 65 22 be d1 94 9f 3d 9d 30 17 3a
       -0.08094648 -0.1585919 0.07792056 0.0005767437
000340 50 d4 0b bb dd 3a 14 bc 36 09 88 bd 5b 86 e9 bc
       -0.0021336265 -0.009047237 -0.06642382 -0.028506448
000350 a1 09 06 3e fb 61 c4 3d df ab a8 3d f1 d0 ff bb
       0.1308961 0.09589001 0.08235907 -0.00780689
000360 66 70 10 be 1c e3 b7 bd d5 da ae bd 12 26 4f 3c
       -0.14105377 -0.089788646 -0.08537833 0.012643354
000370 2f 61 5f 3e 2d e9 b7 bd 5d ed 71 be a6 e0 2e 3d
       0.21814416 -0.089800216 -0.23625703 0.04269471
000380 26 bb 63 3d f7 5c 81 3c 43 74 f1 bc 7f 9e 12 3c
       0.0555984 0.0157914 -0.029474383 0.008948921
000390 f6 b5 84 3d d1 1c 02 3e 9c cd 0b 3d 76 91 44 3d
       0.06480019 0.12706305 0.03413163 0.047990285
0003a0 e6 80 84 3d 95 27 95 bb 59 0e 24 be 8b 2d 37 bd
       0.06469898 -0.0045518377 -0.16021098 -0.044721168
0003b0 94 eb 4f 3d 86 e9 26 3d 02 29 d5 3d 18 26 b7 bd
       0.050761774 0.04075005 0.10408212 -0.08942813
0003c0 ab 15 92 3c 19 31 7d 3e 35 4a 04 bd d3 4c 2f 3d
       0.017832598 0.2472576 -0.03229733 0.042797875
0003d0 37 52 93 bd cd a1 e9 bd 92 90 90 bd e2 a8 4e bd
       -0.071934156 -0.11407814 -0.070588246 -0.050454028
0003e0 00 8f f0 3b 01 b7 39 3c d3 9a 9d 3d dd ee 53 3e
       0.0073412657 0.011335135 0.07695546 0.20696588
0003f0 6f 2c ad 3d 3c bd 79 3d 2c 99 ae 3d 44 11 2d 3e
       0.08455741 0.060971484 0.08525309 0.16901118

network_body._body_endoder.seq_layers.0.bias f4 [256]
000000 00 00 00 00 00 00 00 00 00 00 00 00 00 00 00 00
       0.0 0.0 0.0 0.0
000010 00 00 00 00 00 00 00 00 00 00 00 00 00 00 00 00
       0.0 0.0 0.0 0.0
000020 00 00 00 00 00 00 00 00 00 00 00 00 00 00 00 00
       0.0 0.0 0.0 0.0
000030 00 00 00 00 00 00 00 00 00 00 00 00 00 00 00 00
       0.0 0.0 0.0 0.0
000040 00 00 00 00 00 00 00 00 00 00 00 00 00 00 00 00
       0.0 0.0 0.0 0.0
000050 00 00 00 00 00 00 00 00 00 00 00 00 00 00 00 00
       0.0 0.0 0.0 0.0
000060 00 00 00 00 00 00 00 00 00 00 00 00 00 00 00 00
       0.0 0.0 0.0 0.0
000070 00 00 00 00 00 00 00 00 00 00 00 00 00 00 00 00
       0.0 0.0 0.0 0.0
000080 00 00 00 00 00 00 00 00 00 00 00 00 00 00 00 00
       0.0 0.0 0.0 0.0
000090 00 00 00 00 00 00 00 00 00 00 00 00 00 00 00 00
       0.0 0.0 0.0 0.0
0000a0 00 00 00 00 00 00 00 00 00 00 00 00 00 00 00 00
       0.0 0.0 0.0 0.0
0000b0 00 00 00 00 00 00 00 00 00 00 00 00 00 00 00 00
       0.0 0.0 0.0 0.0
0000c0 00 00 00 00 00 00 00 00 00 00 00 00 00 00 00 00
       0.0 0.0 0.0 0.0
0000d0 00 00 00 00 00 00 00 00 00 00 00 00 00 00 00 00
       0.0 0.0 0.0 0.0
0000e0 00 00 00 00 00 00 00 00 00 00 00 00 00 00 00 00
       0.0 0.0 0.0 0.0
0000f0 00 00 00 00 00 00 00 00 00 00 00 00 00 00 00 00
       0.0 0.0 0.0 0.0
000100 00 00 00 00 00 00 00 00 00 00 00 00 00 00 00 00
       0.0 0.0 0.0 0.0
000110 00 00 00 00 00 00 00 00 00 00 00 00 00 00 00 00
       0.0 0.0 0.0 0.0
000120 00 00 00 00 00 00 00 00 00 00 00 00 00 00 00 00
       0.0 0.0 0.0 0.0
000130 00 00 00 00 00 00 00 00 00 00 00 00 00 00 00 00
       0.0 0.0 0.0 0.0
000140 00 00 00 00 00 00 00 00 00 00 00 00 00 00 00 00
       0.0 0.0 0.0 0.0
000150 00 00 00 00 00 00 00 00 00 00 00 00 00 00 00 00
       0.0 0.0 0.0 0.0
000160 00 00 00 00 00 00 00 00 00 00 00 00 00 00 00 00
       0.0 0.0 0.0 0.0
000170 00 00 00 00 00 00 00 00 00 00 00 00 00 00 00 00
       0.0 0.0 0.0 0.0
000180 00 00 00 00 00 00 00 00 00 00 00 00 00 00 00 00
       0.0 0.0 0.0 0.0
000190 00 00 00 00 00 00 00 00 00 00 00 00 00 00 00 00
       0.0 0.0 0.0 0.0
0001a0 00 00 00 00 00 00 00 00 00 00 00 00 00 00 00 00
       0.0 0.0 0.0 0.0
0001b0 00 00 00 00 00 00 00 00 00 00 00 00 00 00 00 00
       0.0 0.0 0.0 0.0
0001c0 00 00 00 00 00 00 00 00 00 00 00 00 00 00 00 00
       0.0 0.0 0.0 0.0
0001d0 00 00 00 00 00 00 00 00 00 00 00 00 00 00 00 00
       0.0 0.0 0.0 0.0
0001e0 00 00 00 00 00 00 00 00 00 00 00 00 00 00 00 00
       0.0 0.0 0.0 0.0
0001f0 00 00 00 00 00 00 00 00 00 00 00 00 00 00 00 00
       0.0 0.0 0.0 0.0
000200 00 00 00 00 00 00 00 00 00 00 00 00 00 00 00 00
       0.0 0.0 0.0 0.0
000210 00 00 00 00 00 00 00 00 00 00 00 00 00 00 00 00
       0.0 0.0 0.0 0.0
000220 00 00 00 00 00 00 00 00 00 00 00 00 00 00 00 00
       0.0 0.0 0.0 0.0
000230 00 00 00 00 00 00 00 00 00 00 00 00 00 00 00 00
       0.0 0.0 0.0 0.0
000240 00 00 00 00 00 00 00 00 00 00 00 00 00 00 00 00
       0.0 0.0 0.0 0.0
000250 00 00 00 00 00 00 00 00 00 00 00 00 00 00 00 00
       0.0 0.0 0.0 0.0
000260 00 00 00 00 00 00 00 00 00 00 00 00 00 00 00 00
       0.0 0.0 0.0 0.0
000270 00 00 00 00 00 00 00 00 00 00 00 00 00 00 00 00
       0.0 0.0 0.0 0.0
000280 00 00 00 00 00 00 00 00 00 00 00 00 00 00 00 00
       0.0 0.0 0.0 0.0
000290 00 00 00 00 00 00 00 00 00 00 00 00 00 00 00 00
       0.0 0.0 0.0 0.0
0002a0 00 00 00 00 00 00 00 00 00 00 00 00 00 00 00 00
       0.0 0.0 0.0 0.0
0002b0 00 00 00 00 00 00 00 00 00 00 00 00 00 00 00 00
       0.0 0.0 0.0 0.0
0002c0 00 00 00 00 00 00 00 00 00 00 00 00 00 00 00 00
       0.0 0.0 0.0 0.0
0002d0 00 00 00 00 00 00 00 00 00 00 00 00 00 00 00 00
       0.0 0.0 0.0 0.0
0002e0 00 00 00 00 00 00 00 00 00 00 00 00 00 00 00 00
       0.0 0.0 0.0 0.0
0002f0 00 00 00 00 00 00 00 00 00 00 00 00 00 00 00 00
       0.0 0.0 0.0 0.0
000300 00 00 00 00 00 00 00 00 00 00 00 00 00 00 00 00
       0.0 0.0 0.0 0.0
000310 00 00 00 00 00 00 00 00 00 00 00 00 00 00 00 00
       0.0 0.0 0.0 0.0
000320 00 00 00 00 00 00 00 00 00 00 00 00 00 00 00 00
       0.0 0.0 0.0 0.0
000330 00 00 00 00 00 00 00 00 00 00 00 00 00 00 00 00
       0.0 0.0 0.0 0.0
000340 00 00 00 00 00 00 00 00 00 00 00 00 00 00 00 00
       0.0 0.0 0.0 0.0
000350 00 00 00 00 00 00 00 00 00 00 00 00 00 00 00 00
       0.0 0.0 0.0 0.0
000360 00 00 00 00 00 00 00 00 00 00 00 00 00 00 00 00
       0.0 0.0 0.0 0.0
000370 00 00 00 00 00 00 00 00 00 00 00 00 00 00 00 00
       0.0 0.0 0.0 0.0
000380 00 00 00 00 00 00 00 00 00 00 00 00 00 00 00 00
       0.0 0.0 0.0 0.0
000390 00 00 00 00 00 00 00 00 00 00 00 00 00 00 00 00
       0.0 0.0 0.0 0.0
0003a0 00 00 00 00 00 00 00 00 00 00 00 00 00 00 00 00
       0.0 0.0 0.0 0.0
0003b0 00 00 00 00 00 00 00 00 00 00 00 00 00 00 00 00
       0.0 0.0 0.0 0.0
0003c0 00 00 00 00 00 00 00 00 00 00 00 00 00 00 00 00
       0.0 0.0 0.0 0.0
0003d0 00 00 00 00 00 00 00 00 00 00 00 00 00 00 00 00
       0.0 0.0 0.0 0.0
0003e0 00 00 00 00 00 00 00 00 00 00 00 00 00 00 00 00
       0.0 0.0 0.0 0.0
0003f0 00 00 00 00 00 00 00 00 00 00 00 00 00 00 00 00
       0.0 0.0 0.0 0.0

network_body._body_endoder.seq_layers.2.weight f4 [256, 256]
000000 03 2c 21 bd 96 bf bd bc 03 59 03 3d 08 e1 83 3d
       -0.039348613 -0.023162644 0.03206731 0.06439406
000010 fc a7 0c be 10 4e d4 bc 9c 01 47 3c fe bb bc 3d
       -0.13735956 -0.02591613 0.01214638 0.09215544
000020 c3 d0 ea 3c 95 66 a3 3d eb 6c dc bd fe c8 4e be
       0.028663998 0.0797855 -0.10762962 -0.2019386
000030 60 87 0e bd 09 d1 ef 3c e3 eb 64 3d bd 82 0b 3d
       -0.034797072 0.02927448 0.05588902 0.03406023
000040 29 88 e3 3d ce 56 73 3c b2 4c b0 3d 3e 36 18 3e
       0.11109955 0.014852239 0.086083785 0.14864442
000050 9a e1 cf bc bb 53 84 bd 9c c0 d9 3d d6 48 d5 3c
       -0.02537613 -0.06461283 0.106324404 0.026035707
000060 e8 5c 11 3c 20 90 10 3d 14 5f 81 bc f1 9b 1a 3d
       0.008872248 0.0352937 -0.015792407 0.037746374
000070 78 99 2a bc ce 41 97 bd 63 7f bb 3d 14 94 88 3c
       -0.010412566 -0.07385598 0.091551565 0.016672172
000080 4e 6a fd 3d ec e1 11 be 84 cb 5d 3a 7f 9d 55 bd
       0.12373792 -0.14246339 0.0008460807 -0.052152153
000090 ba 6d 4d bd 90 50 f8 bd b8 d6 4e bd 5e b5 8b bd
       -0.05015347 -0.12124741 -0.05049774 -0.068217024
0000a0 3e 55 a4 bc ed f0 85 bd 25 dc 7b 3d a5 77 c6 3c
       -0.020060178 -0.065400936 0.061489243 0.024226973
0000b0 84 38 05 be 27 02 5f 3c 62 8e 9c 3c e9 aa 1a 3a
       -0.1300984 0.013611353 0.019110862 0.00059001014
0000c0 b8 1f aa bd d3 05 2a bc 75 92 83 bd bd 6e 78 3d
       -0.08306831 -0.010377365 -0.06424419 0.060652483
0000d0 33 92 a5 bc 81 f9 b1 3d a9 96 36 3d 56 90 fa 3c
       -0.020211315 0.08690167 0.044577274 0.030586403
0000e0 c0 d2 4d bd d0 80 3c be 23 0f 97 3b 3d e7 78 3d
       -0.050249815 -0.18408513 0.0046099587 0.0607674
0000f0 d6 73 a4 3d 75 28 64 bc bb 29 b6 bd 28 c5 96 bc
       0.080299065 -0.013925661 -0.08894678 -0.018404558
000100 a7 72 2c bd 47 9e 84 bd 17 6e 90 3c 27 3f 01 3d
       -0.04210153 -0.064755015 0.01763062 0.031554367
000110 a1 96 35 bd 27 31 51 bd 2d 65 27 3d 35 7a 08 bd
       -0.044333104 -0.051072266 0.040867973 -0.03331967
000120 b2 32 f5 bc af b5 35 bc f7 7e 85 3d 8e d9 c5 bd
       -0.0299314 -0.01109068 0.06518357 -0.09660636
000130 5f 94 22 3d b3 7d 10 3c 99 47 68 bd 5d fa 16 3b
       0.03969228 0.0088190315 -0.056708906 0.0023037412
000140 81 05 cb bd 62 36 4f 3d c5 0f d9 3c 64 ee e9 bd
       -0.09913159 0.050588973 0.026496777 -0.114224225
000150 de d9 ad 3c c3 cf d8 bc 55 1b 61 3d 00 7c f9 bc
       0.021222051 -0.026466256 0.054957706 -0.030454636
000160 d8 6c 90 bd ff 2b db 3c e5 db 72 3d 7a 5d 61 b9
       -0.0705201 0.026754377 0.05929174 -0.00021492495
000170 3d fb 18 3d 59 c1 f9 bc 93 9d 1c 3d 87 3f 65 3c
       0.037348974 -0.030487703 0.038236212 0.013992197
000180 cd 1a aa 3d 68 35 df 3b 44 72 f4 bd e6 d3 bb bb
       0.08305893 0.0068117864 -0.11935857 -0.0057320474
000190 85 2c 25 bd 2e 64 09 bc 09 c2 b7 3c c7 3f 03 3e
       -0.04032566 -0.008385701 0.02243139 0.12817298
0001a0 68 fc 22 3d d2 0b 37 bd 2d 3f 9e 3d d5 6f 5c 3c
       0.039791495 -0.044689007 0.077268936 0.013454397
0001b0 7b 75 97 3d cc 3d 05 3d 07 ae 43 bd a2 a2 68 3d
       0.073954545 0.032529637 -0.047773387 0.056795724
0001c0 20 76 0c bd ee fe a9 bd 5e 1a 8e 3b ab 7b f5 3d
       -0.03429234 -0.08300577 0.0043366393 0.119864784
0001d0 bc 5a 12 3d bb c4 da bc 05 b0 20 3d 34 a3 37 bd
       0.035731062 -0.026705137 0.039230365 -0.044833377
0001e0 d7 95 8a bc 6f a2 b7 bd 43 16 a4 3b af c1 a8 bc
       -0.016917152 -0.089665286 0.0050075366 -0.020600168
0001f0 65 b0 05 3c 9a 1a 98 bc 71 d1 ca bc 9f 5d 84 3c
       0.0081597315 -0.018567372 -0.024758073 0.016157923
000200 a4 80 24 3d 69 ae bb bd 9a 0a e2 3d 18 26 78 bc
       0.040161744 -0.091641255 0.11037178 -0.015145801
000210 98 f8 ba 3d c6 6a 06 3d 2a 2f ec bc 85 58 95 bc
       0.09129447 0.03281667 -0.028831083 -0.018230686
000220 29 25 0b bd 9a d1 72 bd 8d 9b 81 bc 4d 1e 10 3e
       -0.033970986 -0.059281923 -0.015821243 0.14074059
000230 19 63 a7 bd 6b df 5a 3d ae 28 99 3d c2 c0 bb 3c
       -0.08173198 0.053435724 0.07478462 0.022919063
000240 fb 94 96 bc e5 5b 8e 3d 45 66 5e bd 42 0c ee bd
       -0.018381586 0.06951121 -0.05429675 -0.11623432
000250 21 a2 d4 bd 33 bb 9a bb 3f 53 bb b8 8a ad 7e 3d
       -0.10382486 -0.004722023 -8.932361e-05 0.06217722
000260 72 9d f7 3d ac 8d 95 3d 71 0c 5e bd 1a 01 d2 bc
       0.12090577 0.073024124 -0.054211084 -0.02563529
000270 fc c2 92 bc 96 5c 19 3d 62 ed 6c bd 9c ec 04 be
       -0.017915241 0.037441812 -0.057843573 -0.12980884
000280 37 a3 c0 3c ac 18 a4 3d 8f 67 2d 3d a9 da cf 3c
       0.023515327 0.08012518 0.04233509 0.02537282
000290 06 49 41 3d 11 1a a1 bc 25 1d 47 bc 50 78 08 3e
       0.04718878 -0.01966575 -0.012152945 0.13327146
0002a0 47 6d 62 3c 92 df 48 3d e4 3b 8d 3d b4 bb b6 bc
       0.013819999 0.04904134 0.06896189 -0.0223063
0002b0 28 00 8f bc 80 0b 0c 3e 6f 25 10 3e 19 cf ae 3d
       -0.01745613 0.13676262 0.1407678 0.085355945
0002c0 93 fa c2 3d 8c e3 17 3d 93 8a a3 bc 41 bf de ba
       0.095204495 0.03708224 -0.019963538 -0.0016994254
0002d0 d8 03 97 3d 38 b3 9a 3d 57 8c 12 3d ef b1 a1 3d
       0.0737378 0.075537145 0.03577837 0.07895266
0002e0 99 53 90 3d d7 ed 04 be a4 01 40 bd b9 9e 38 3e
       0.07047195 -0.12981354 -0.046876565 0.18029298
0002f0 fa 2a 93 bd 9d 81 bb bd 2e 2d ec 3b 08 d2 0a 3e
       -0.071859315 -0.09155581 0.0072075343 0.13556683
000300 31 35 03 3d 34 d5 5a bd 0b 7c 22 3e b9 17 88 bd
       0.03203315 -0.053425983 0.15867631 -0.0664515
000310 0f 68 24 3d 83 bc e8 bd 2c 37 8f 3c 1b 28 64 3d
       0.0401383 -0.11364081 0.017482363 0.05570231
000320 45 19 3a 3c 2f 13 22 bd 33 c9 05 3e 6b af 69 bd
       0.011358564 -0.039569076 0.13065033 -0.057052057
000330 79 c4 a3 bc 00 a0 09 3d 69 a0 9a bd ca ba 28 3c
       -0.019991146 0.033599854 -0.07550127 0.01029844
000340 71 50 00 be 3b eb 22 3d 32 59 04 3c b4 67 89 3d
       -0.12530686 0.039775115 0.008077906 0.06709233
000350 07 f8 cb 3c 64 f0 4d bd 3a d5 04 be 7e 3d ad 3d
       0.024898542 -0.050278082 -0.12971964 0.08458994
000360 88 a3 97 bc fc 50 b2 3d 5c f5 99 bd 9a 47 ea bc
       -0.018510595 0.08706853 -0.07517502 -0.028598595
000370 fe 45 08 3d 6d 2a c5 bd 3b f2 8d 3c 02 10 ce bc
       0.033269875 -0.09627233 0.017327419 -0.025154117
000380 91 20 ca bc 95 c8 df bd 54 37 86 3b f9 82 3e bc
       -0.024673732 -0.1092693 0.004095951 -0.011627906
000390 45 d9 89 3c 5d 7a bd bd fb da 4a bd 38 1b 13 3d
       0.016827235 -0.092518546 -0.049525242 0.03591463
0003a0 36 25 df 3c 41 dc a7 bc d7 c6 cf bc 86 48 4b 3c
       0.027239423 -0.020490767 -0.025363369 0.012407428
0003b0 bb 52 19 3d 74 68 f5 3b 22 73 84 bc 35 84 87 3b
       0.037432414 0.0074892584 -0.01616818 0.0041356334
0003c0 f4 06 62 3c 5e b1 42 bd 52 83 1b 3d f3 8d 60 3d
       0.013795603 -0.04753243 0.037967034 0.054822873
0003d0 52 70 0c bd 4d 84 c5 39 ed dc 1d 3e e4 ad 0f bc
       -0.034286804 0.0003767334 0.15416308 -0.008769486
0003e0 1c e3 b4 bd 03 b8 cb ba bf e5 c4 3a f6 68 5c bb
       -0.0883238 -0.0015542511 0.0015022083 -0.0033631898
0003f0 7d 5e 39 bd e2 92 0e be de 97 36 3d 0b b9 83 bd
       -0.045256127 -0.13923219 0.044578426 -0.064317785

network_body._body_endoder.seq_layers.2.bias f4 [256]
000000 00 00 00 00 00 00 00 00 00 00 00 00 00 00 00 00
       0.0 0.0 0.0 0.0
000010 00 00 00 00 00 00 00 00 00 00 00 00 00 00 00 00
       0.0 0.0 0.0 0.0
000020 00 00 00 00 00 00 00 00 00 00 00 00 00 00 00 00
       0.0 0.0 0.0 0.0
000030 00 00 00 00 00 00 00 00 00 00 00 00 00 00 00 00
       0.0 0.0 0.0 0.0
000040 00 00 00 00 00 00 00 00 00 00 00 00 00 00 00 00
       0.0 0.0 0.0 0.0
000050 00 00 00 00 00 00 00 00 00 00 00 00 00 00 00 00
       0.0 0.0 0.0 0.0
000060 00 00 00 00 00 00 00 00 00 00 00 00 00 00 00 00
       0.0 0.0 0.0 0.0
000070 00 00 00 00 00 00 00 00 00 00 00 00 00 00 00 00
       0.0 0.0 0.0 0.0
000080 00 00 00 00 00 00 00 00 00 00 00 00 00 00 00 00
       0.0 0.0 0.0 0.0
000090 00 00 00 00 00 00 00 00 00 00 00 00 00 00 00 00
       0.0 0.0 0.0 0.0
0000a0 00 00 00 00 00 00 00 00 00 00 00 00 00 00 00 00
       0.0 0.0 0.0 0.0
0000b0 00 00 00 00 00 00 00 00 00 00 00 00 00 00 00 00
       0.0 0.0 0.0 0.0
0000c0 00 00 00 00 00 00 00 00 00 00 00 00 00 00 00 00
       0.0 0.0 0.0 0.0
0000d0 00 00 00 00 00 00 00 00 00 00 00 00 00 00 00 00
       0.0 0.0 0.0 0.0
0000e0 00 00 00 00 00 00 00 00 00 00 00 00 00 00 00 00
       0.0 0.0 0.0 0.0
0000f0 00 00 00 00 00 00 00 00 00 00 00 00 00 00 00 00
       0.0 0.0 0.0 0.0
000100 00 00 00 00 00 00 00 00 00 00 00 00 00 00 00 00
       0.0 0.0 0.0 0.0
000110 00 00 00 00 00 00 00 00 00 00 00 00 00 00 00 00
       0.0 0.0 0.0 0.0
000120 00 00 00 00 00 00 00 00 00 00 00 00 00 00 00 00
       0.0 0.0 0.0 0.0
000130 00 00 00 00 00 00 00 00 00 00 00 00 00 00 00 00
       0.0 0.0 0.0 0.0
000140 00 00 00 00 00 00 00 00 00 00 00 00 00 00 00 00
       0.0 0.0 0.0 0.0
000150 00 00 00 00 00 00 00 00 00 00 00 00 00 00 00 00
       0.0 0.0 0.0 0.0
000160 00 00 00 00 00 00 00 00 00 00 00 00 00 00 00 00
       0.0 0.0 0.0 0.0
000170 00 00 00 00 00 00 00 00 00 00 00 00 00 00 00 00
       0.0 0.0 0.0 0.0
000180 00 00 00 00 00 00 00 00 00 00 00 00 00 00 00 00
       0.0 0.0 0.0 0.0
000190 00 00 00 00 00 00 00 00 00 00 00 00 00 00 00 00
       0.0 0.0 0.0 0.0
0001a0 00 00 00 00 00 00 00 00 00 00 00 00 00 00 00 00
       0.0 0.0 0.0 0.0
0001b0 00 00 00 00 00 00 00 00 00 00 00 00 00 00 00 00
       0.0 0.0 0.0 0.0
0001c0 00 00 00 00 00 00 00 00 00 00 00 00 00 00 00 00
       0.0 0.0 0.0 0.0
0001d0 00 00 00 00 00 00 00 00 00 00 00 00 00 00 00 00
       0.0 0.0 0.0 0.0
0001e0 00 00 00 00 00 00 00 00 00 00 00 00 00 00 00 00
       0.0 0.0 0.0 0.0
0001f0 00 00 00 00 00 00 00 00 00 00 00 00 00 00 00 00
       0.0 0.0 0.0 0.0
000200 00 00 00 00 00 00 00 00 00 00 00 00 00 00 00 00
       0.0 0.0 0.0 0.0
000210 00 00 00 00 00 00 00 00 00 00 00 00 00 00 00 00
       0.0 0.0 0.0 0.0
000220 00 00 00 00 00 00 00 00 00 00 00 00 00 00 00 00
       0.0 0.0 0.0 0.0
000230 00 00 00 00 00 00 00 00 00 00 00 00 00 00 00 00
       0.0 0.0 0.0 0.0
000240 00 00 00 00 00 00 00 00 00 00 00 00 00 00 00 00
       0.0 0.0 0.0 0.0
000250 00 00 00 00 00 00 00 00 00 00 00 00 00 00 00 00
       0.0 0.0 0.0 0.0
000260 00 00 00 00 00 00 00 00 00 00 00 00 00 00 00 00
       0.0 0.0 0.0 0.0
000270 00 00 00 00 00 00 00 00 00 00 00 00 00 00 00 00
       0.0 0.0 0.0 0.0
000280 00 00 00 00 00 00 00 00 00 00 00 00 00 00 00 00
       0.0 0.0 0.0 0.0
000290 00 00 00 00 00 00 00 00 00 00 00 00 00 00 00 00
       0.0 0.0 0.0 0.0
0002a0 00 00 00 00 00 00 00 00 00 00 00 00 00 00 00 00
       0.0 0.0 0.0 0.0
0002b0 00 00 00 00 00 00 00 00 00 00 00 00 00 00 00 00
       0.0 0.0 0.0 0.0
0002c0 00 00 00 00 00 00 00 00 00 00 00 00 00 00 00 00
       0.0 0.0 0.0 0.0
0002d0 00 00 00 00 00 00 00 00 00 00 00 00 00 00 00 00
       0.0 0.0 0.0 0.0
0002e0 00 00 00 00 00 00 00 00 00 00 00 00 00 00 00 00
       0.0 0.0 0.0 0.0
0002f0 00 00 00 00 00 00 00 00 00 00 00 00 00 00 00 00
       0.0 0.0 0.0 0.0
000300 00 00 00 00 00 00 00 00 00 00 00 00 00 00 00 00
       0.0 0.0 0.0 0.0
000310 00 00 00 00 00 00 00 00 00 00 00 00 00 00 00 00
       0.0 0.0 0.0 0.0
000320 00 00 00 00 00 00 00 00 00 00 00 00 00 00 00 00
       0.0 0.0 0.0 0.0
000330 00 00 00 00 00 00 00 00 00 00 00 00 00 00 00 00
       0.0 0.0 0.0 0.0
000340 00 00 00 00 00 00 00 00 00 00 00 00 00 00 00 00
       0.0 0.0 0.0 0.0
000350 00 00 00 00 00 00 00 00 00 00 00 00 00 00 00 00
       0.0 0.0 0.0 0.0
000360 00 00 00 00 00 00 00 00 00 00 00 00 00 00 00 00
       0.0 0.0 0.0 0.0
000370 00 00 00 00 00 00 00 00 00 00 00 00 00 00 00 00
       0.0 0.0 0.0 0.0
000380 00 00 00 00 00 00 00 00 00 00 00 00 00 00 00 00
       0.0 0.0 0.0 0.0
000390 00 00 00 00 00 00 00 00 00 00 00 00 00 00 00 00
       0.0 0.0 0.0 0.0
0003a0 00 00 00 00 00 00 00 00 00 00 00 00 00 00 00 00
       0.0 0.0 0.0 0.0
0003b0 00 00 00 00 00 00 00 00 00 00 00 00 00 00 00 00
       0.0 0.0 0.0 0.0
0003c0 00 00 00 00 00 00 00 00 00 00 00 00 00 00 00 00
       0.0 0.0 0.0 0.0
0003d0 00 00 00 00 00 00 00 00 00 00 00 00 00 00 00 00
       0.0 0.0 0.0 0.0
0003e0 00 00 00 00 00 00 00 00 00 00 00 00 00 00 00 00
       0.0 0.0 0.0 0.0
0003f0 00 00 00 00 00 00 00 00 00 00 00 00 00 00 00 00
       0.0 0.0 0.0 0.0

action_model._continuous_distribution.log_sigma f4 [1, 2]
000000 00 00 00 00 00 00 00 00
       0.0 0.0

action_model._continuous_distribution.mu.weight f4 [2, 256]
000000 67 3a b7 bb 19 57 0a 3c 79 06 38 3b 8d 85 db 3c
       -0.005591679 0.008443617 0.002808003 0.02679708
000010 f8 29 36 bc a7 27 4e 3c bb 69 81 bb c8 83 9e 3b
       -0.011118405 0.012582696 -0.0039493716 0.004837487
000020 c0 3b 6c 3c cb 3f 4c 3c af 1c 08 3d 0b 56 16 3c
       0.014418542 0.012466381 0.03323048 0.009175788
000030 de 04 83 3c 82 9c 23 3d 4a 8f 83 bb dd 5f cb 3c
       0.015993532 0.03994418 -0.004014884 0.024825985
000040 3c 92 8d bc bf 01 06 bc 7d 87 ca 3b 2f 07 02 bc
       -0.017281644 -0.008179127 0.0061807022 -0.007936283
000050 c3 c5 47 3c ac 6c 0e 3b 9e f2 8a 3c f0 dc 47 bc
       0.012193146 0.0021732254 0.016961392 -0.012198672
000060 5b ab 0e 3c 0c 0f 21 bb e2 5b 7c 3b f8 db 8e 3c
       0.0087078465 -0.002457562 0.0038506915 0.017438874
000070 b6 01 31 bc 7d 9c d7 bb 33 62 a5 ba a0 53 f0 3b
       -0.010803631 -0.006579934 -0.0012617767 0.0073341876
000080 c7 4b da bc fc e7 97 38 fa 49 54 3c eb a6 b4 3b
       -0.026647462 7.2434515e-05 0.0129570905 0.0055130622
000090 77 af a0 3c 2b 28 3e 3c 30 44 f0 3b 9a 5a a0 3b
       0.019614918 0.0116062565 0.0073323473 0.004893613
0000a0 af 6a 82 bc 7f e8 de ba 7f 1d 02 bc 62 76 46 bc
       -0.015920011 -0.0017006545 -0.007941603 -0.012113186
0000b0 2f ae a2 3b 5d f2 fa 3c bd 0a ef ba f6 53 9f bb
       0.004964612 0.030633146 -0.0018237453 -0.004862304
0000c0 45 5f 92 bc 6d 4a f3 bb 6b b6 9f ba 1a b3 c4 3c
       -0.017867694 -0.0074246437 -0.0012185102 0.024011184
0000d0 8a 1c df bb 3f c6 b2 3c 7a 7a 7b 3c 15 aa e5 3b
       -0.006808822 0.021823047 0.015349025 0.0070088007
0000e0 a4 db 82 ba 0f a4 cb bc af 43 75 3c bd cb 89 bb
       -0.0009983671 -0.024858503 0.01496975 -0.0042051957
0000f0 cf 25 55 3b 4f 2d 83 3c c7 5b 70 bb 12 20 c1 3c
       0.0032523756 0.016012816 -0.0036675797 0.023574863
000100 84 e1 9a 3b cd 2b 91 3c 7a 8b 6e 3c cf ef 87 3c
       0.0047265906 0.017721081 0.014559621 0.016593842
000110 3c ce 43 bc 68 ab 31 bc be 60 0c bc e1 3f 04 bc
       -0.011951026 -0.010844089 -0.008567987 -0.008071871
000120 f5 9b a1 3b 9b 81 fb 3b c4 13 a3 3c 03 68 b1 bb
       0.0049319216 0.0076753623 0.019906886 -0.0054140105
000130 a3 a5 f6 bc 30 2f dd 3a 06 c6 95 3c 4b 54 01 bc
       -0.030108279 0.0016875025 0.018282901 -0.007893632
000140 6b 8f 8d 3c b9 75 11 bc aa 89 46 3c 87 58 66 bb
       0.017280301 -0.008878165 0.012117783 -0.0035147981
000150 e1 63 46 bc 74 01 c7 bc a0 7f 52 bc 18 f9 cd bb
       -0.012108774 -0.024292685 -0.012847811 -0.006285798
000160 ca a7 1e ba 88 1f bc bc a8 8e aa 3c 91 c8 99 bc
       -0.0006052224 -0.022964254 0.020819977 -0.018772395
000170 9e bb bf 3c c7 f6 37 3c ba b5 29 bc 1f a0 38 3b
       0.023404893 0.01122827 -0.010358268 0.0028171611
000180 02 2c 5f bc c9 6c 24 bc 3d ae cd 3b 9b 2e 47 3b
       -0.013621332 -0.010035702 0.0062768743 0.003039277
000190 14 90 30 bc b7 7b 7b ba c8 87 51 3c 03 84 06 3c
       -0.010776538 -0.0009593325 0.01278872 0.008210185
0001a0 b0 ab c3 3b 8f 77 a2 bc 13 96 46 bc 7f cb 39 bc
       0.0059713945 -0.0198324 -0.012120741 -0.011340021
0001b0 68 33 34 3c 0b ae 82 3c b0 8d be bc 40 c9 2e bc
       0.010998584 0.01595213 -0.023260921 -0.010668099
0001c0 e3 22 c6 3a c0 ba f0 bb 28 88 72 bc 00 5d cb 3b
       0.0015116598 -0.007346481 -0.01480297 0.006206155
0001d0 ab b7 86 3c ff 85 89 bc 23 11 da 3a 23 ae ac 3b
       0.016445002 -0.016787527 0.0016637187 0.005269782
0001e0 70 64 19 3b 10 c9 fb 3b 02 c8 69 bc f0 59 53 3c
       0.0023405813 0.0076838806 -0.014268877 0.012899861
0001f0 cd 9a 61 3c 80 99 ce bb fa aa 15 3c b3 1e 8e 3c
       0.013769818 -0.0063049197 0.009135002 0.017348623
000200 7a ce f8 3b 87 8f 5b 3b 61 56 25 3b f3 68 3a 3b
       0.0075929733 0.0033502297 0.0025228488 0.0028443902
000210 87 66 8b ba e7 97 ed bb aa a0 63 bc c0 3e bd 3b
       -0.0010635414 -0.007250774 -0.013893286 0.0057753026
000220 40 53 33 bc 02 dd 60 3b 35 13 60 bb eb 2f 17 3a
       -0.010945141 0.0034311418 -0.0034191136 0.0005767333
000230 c2 9d 61 bc a3 65 a8 3c 74 b3 a6 bb b2 f7 9c bc
       -0.013770523 0.020556277 -0.0050873104 -0.01916108
000240 77 f1 0c bc 4a 5d 1b 3c 6e d6 18 3c bf 6f d4 bb
       -0.008602492 0.009482691 0.009328468 -0.0064830477
000250 94 43 38 3c 1f d7 3c bc f7 8c 24 bc be ef 27 bc
       0.011246581 -0.011525898 -0.010043374 -0.01025003
000260 d8 51 9d 3b 27 4c 03 bd af 22 d0 3c ae b1 bb 3c
       0.0048010163 -0.032055046 0.025407163 0.022911873
000270 43 16 47 ba 3b 64 e7 38 f7 59 19 3b 3a a3 b7 bc
       -0.0007594565 0.00011033608 0.002339957 -0.0224167
000280 aa 81 6a 3b 7b 25 a0 3c 08 e0 84 ba 85 06 7b 3c
       0.0035782852 0.019549122 -0.0010137567 0.015321379
000290 95 fb 53 38 f5 e5 e2 3b 23 6c 2e bc 4a 9b 55 ba
       5.0540624e-05 0.0069243857 -0.010645899 -0.0008148445
0002a0 61 92 18 3c b5 70 96 bc 78 f0 42 3c db 85 74 bc
       0.009312243 -0.01836429 0.0118981525 -0.014924492
0002b0 4f 6e de 3b 62 99 5e 3c 88 f1 61 3c db 21 a0 bc
       0.006788052 0.013586374 0.013790496 -0.019547394
0002c0 ad 6e 76 3c 75 eb a4 ba e7 34 9f 3c fa 68 c9 ba
       0.015041036 -0.0012582379 0.019434405 -0.0015366368
0002d0 d0 f9 7e bb ec a4 34 3c 3d 18 0a bc e5 0e f3 ba
       -0.0038906224 0.011025649 -0.00842863 -0.0018543868
0002e0 7d 46 80 3c 5d 90 0e bc 90 52 73 3c 3d 81 f1 3b
       0.015658611 -0.008701411 0.014851227 0.0073701427
0002f0 7a 76 19 3c 0f 69 8b 3c 5b 68 c5 ba a6 b3 10 bc
       0.009366626 0.01701787 -0.0015061008 -0.008831894
000300 d8 15 d7 bb 56 04 8e bc e9 60 1d 3c 3a 19 5d 3c
       -0.0065638833 -0.017336052 0.009605625 0.013494784
000310 c6 38 41 3c 7f d5 b1 bb bf 9c 67 3b 6b 85 87 bc
       0.011793321 -0.005427062 0.003534123 -0.01654311
000320 09 c5 80 bb 6f 23 c0 bb 10 a7 c6 bb d2 02 a8 3c
       -0.0039297384 -0.005863599 -0.006062396 0.020509157
000330 55 ce 72 3c fb 5c f3 3b 97 86 b5 3b ca e4 e9 bb
       0.014819701 0.0074268556 0.005539726 -0.0071378695
000340 b3 82 46 bc 1b bd 36 bc 5b 30 1b 3c 73 7b ac 3c
       -0.012116122 -0.011153485 0.009471978 0.021054959
000350 b0 56 40 bc c3 28 5e bb 3d 3c 3c bc 7a 49 f2 3b
       -0.011739418 -0.0033898808 -0.011488971 0.007394013
000360 da c5 db bc 06 d4 24 39 5d 00 be 3b 9d 15 ad bb
       -0.026827741 0.00015719244 0.005798383 -0.0052821175
000370 a1 e6 ab bc 77 4d 01 bc e2 22 f2 3b 3e 7c 9e bc
       -0.020983996 -0.007892004 0.0073894123 -0.019346353
000380 02 c3 f9 bb 99 02 80 3c ba 08 7f bc 55 f3 d6 bc
       -0.0076221237 0.015626239 -0.015566045 -0.026239077
000390 8b 28 74 3c 8a 50 34 3c f1 44 c8 bb 95 bc 82 bc
       0.014902244 0.01100553 -0.006111734 -0.015959064
0003a0 3b da bd 3b bb 00 9f 3c e0 8c 77 3b 88 ef db bb
       0.0057938374 0.019409528 0.0037773177 -0.006711904
0003b0 45 f5 c6 39 8b 90 9b 3a af 59 38 bb eb 6c 98 bc
       0.00037948243 0.0011868639 -0.0028129627 -0.018606624
0003c0 d8 6d b5 3b b5 69 6e bc f0 d2 e8 bc da 03 8d bc
       0.005536776 -0.01455157 -0.028420895 -0.01721375
0003d0 80 a8 46 bb 50 b5 b3 bb 54 18 0d bc 50 f3 de bb
       -0.0030312836 -0.0054842606 -0.008611757 -0.0068039075
0003e0 2d 2e 10 3a 40 9f 23 3c 83 3e 27 3c 77 2d dc 3b
       0.0005500045 0.009986699 0.010207775 0.006719287
0003f0 f3 c8 f9 bb 27 15 16 bb 41 3f 37 bc 8e d1 37 3a
       -0.007622832 -0.0022900791 -0.0111845145 0.0007012122

action_model._continuous_distribution.mu.bias f4 [2]
000000 00 00 00 00 00 00 00 00
       0.0 0.0

network_body.observation_encoder.processors.0.normalizer.running_mean f4 [68]
000000 50 b7 35 3f b2 42 59 3d 00 00 00 00 85 00 48 3e
       0.7098284 0.05304212 0.0 0.19531448
000010 8c 21 2c 3f 16 49 c9 3d 00 00 00 00 ec 1d 50 3e
       0.6723869 0.09828393 0.0 0.20323914
000020 ea b4 3b 3f 12 d2 f2 3c 00 00 00 00 24 38 40 3e
       0.7332293 0.029641185 0.0 0.18771416
000030 26 23 28 3f a6 62 89 3d 00 00 00 00 e1 5b 6c 3e
       0.6567863 0.06708269 0.0 0.23081924
000040 85 b2 41 3f a2 eb 32 3d 00 00 00 00 b9 b2 33 3e
       0.75663024 0.04368175 0.0 0.17548646
000050 23 27 1e 3f 7c c6 8f 3d 00 00 00 00 36 26 73 3e
       0.6177847 0.0702028 0.0 0.23745045
000060 68 79 50 3f 6a f8 12 3d 00 00 00 00 ed 35 26 3e
       0.8143525 0.035881437 0.0 0.16231509
000070 4d bf 21 3f 40 5c 19 3d 00 00 00 00 70 b4 7b 3e
       0.63182527 0.037441492 0.0 0.2458055
000080 60 0e 5c 3f a1 eb 32 3c 00 00 00 00 dc 66 1f 3e
       0.85959435 0.010920436 0.0 0.15566581
000090 10 59 21 3f 3a 6e 6c 3d 00 00 00 00 3f 37 80 3e
       0.63026524 0.057722308 0.0 0.2504215
0000a0 b3 3e 63 3f 41 5c 19 3c 00 00 00 00 36 1c 13 3e
       0.88767546 0.009360374 0.0 0.1436623
0000b0 a0 ef 28 3f 2d 8e 9c 3d 00 00 00 00 12 6f 83 3e
       0.6599064 0.076443054 0.0 0.25670677
0000c0 78 d4 6c 3f 42 5c 99 3b 00 00 00 00 cc 29 08 3e
       0.925117 0.0046801874 0.0 0.13297194
0000d0 64 85 32 3f 52 b3 bf 3d 00 00 00 00 7a 63 83 3e
       0.6973479 0.093603745 0.0 0.25661832
0000e0 df d2 70 3f 00 00 00 00 00 00 00 00 7b 3c 00 3e
       0.94071764 0.0 0.0 0.12523071
0000f0 14 4d 3f 3f de 55 a9 3d 00 00 00 00 b7 72 82 3e
       0.74726987 0.08268331 0.0 0.25478145
000100 f4 9c 77 3f 00 00 00 00 00 00 00 00 1e 79 eb 3d
       0.96723866 0.0 0.0 0.11497711

network_body.observation_encoder.processors.0.normalizer.running_variance f4 [68]
000000 31 07 05 43 49 c9 04 42 00 00 80 3f 74 9b e3 40
       133.02809 33.196568 1.0 7.112726
000010 85 33 0e 43 82 3b 67 42 00 00 80 3f 7c e0 f8 40
       142.20125 57.808113 1.0 7.777403
000020 b2 c3 fc 42 9a 7e 9b 41 00 00 80 3f 78 1d e8 40
       126.38222 19.436817 1.0 7.2535973
000030 34 7e 11 43 38 76 24 42 00 00 80 3f 69 1a 17 41
       145.49298 41.115448 1.0 9.443948
000040 94 11 ee 42 1d 37 de 41 00 00 80 3f 14 13 d5 40
       119.03433 27.77691 1.0 6.658579
000050 75 5b 18 43 0e 5d 2b 42 00 00 80 3f 63 b3 12 41
       152.35725 42.840874 1.0 9.168796
000060 e0 d0 c3 42 d7 65 b9 41 00 00 80 3f 1a 6c 72 40
       97.90796 23.174726 1.0 3.787848
000070 5b 1c 16 43 ad cf c0 41 00 00 80 3f cc a3 f2 40
       150.11076 24.101404 1.0 7.5824947
000080 1c ba 9c 42 c7 8d fd 40 00 00 80 3f 49 2a 83 40
       78.363495 7.923557 1.0 4.098912
000090 74 5f 16 43 04 75 0f 42 00 00 80 3f fe 2a f3 40
       150.37286 35.864273 1.0 7.598998
0000a0 45 d3 81 42 eb 33 de 40 00 00 80 3f 16 b3 3c 40
       64.912636 6.9438376 1.0 2.9484305
0000b0 0f dc 10 43 64 04 39 42 00 00 80 3f 62 b8 05 41
       144.8596 46.254288 1.0 8.357515
0000c0 5a 9f 35 42 f5 19 7f 40 00 00 80 3f c4 d2 27 40
       45.405617 3.9859593 1.0 2.622239
0000d0 16 49 08 43 fc 88 5d 42 00 00 80 3f df ff 12 41
       136.28549 55.383774 1.0 9.187469
0000e0 34 fd 12 42 00 00 80 3f 00 00 80 3f 22 9e 24 40
       36.74727 1.0 1.0 2.5721517
0000f0 8d 1d f4 42 9c 78 46 42 00 00 80 3f b8 d6 15 41
       122.05772 49.617783 1.0 9.364922
000100 01 7f aa 41 00 00 80 3f 00 00 80 3f a2 2b 1b 40
       21.312014 1.0 1.0 2.4245381

network_body.observation_encoder.processors.1.normalizer.running_mean f4 [20]
000000 4c c3 17 3f 00 00 00 00 ef ac cf 3e 58 38 32 3f
       0.59282374 0.0 0.40561625 0.69617224
000010 9a ff 00 3f 00 00 00 00 51 34 fd 3e fc 94 43 3f
       0.5039002 0.0 0.49453977 0.7639921
000020 b7 b9 2f 3f 00 00 00 00 1a c0 9f 3e 1c d7 23 3f
       0.68642753 0.0 0.3120125 0.64000106
000030 3f e5 c2 3e 00 00 00 00 25 27 1e 3f 71 19 55 3f
       0.38065526 0.0 0.6177848 0.83241946
000040 2c 13 50 3f 00 00 00 00 5e 1a 3e 3e c3 4d 14 3f
       0.81279254 0.0 0.18564746 0.57931155

network_body.observation_encoder.processors.1.normalizer.running_variance f4 [20]
000000 1a ba 1b 43 00 00 80 3f 30 8a 1b 43 ca f5 4b 42
       155.72696 1.0 155.5398 50.99003
000010 82 3d 21 43 00 00 80 3f 1c 3b 21 43 28 01 3b 42
       161.24026 1.0 161.2309 46.75113
000020 ce f8 0a 43 00 00 80 3f f6 98 0a 43 06 79 4c 42
       138.9719 1.0 138.5975 51.118187
000030 be 1e 18 43 00 00 80 3f 72 5b 18 43 a8 12 23 42
       152.12009 1.0 152.35721 40.76822
000040 f4 11 c5 42 00 00 80 3f e0 d0 c3 42 25 ec 2e 42
       98.535065 1.0 97.90796 43.73061

network_body.observation_encoder.processors.2.normalizer.running_mean f4 [3]
000000 1b 18 cd 41 41 39 86 3f f6 49 d2 c0
       25.63677 1.0486223 -6.5715284

network_body.observation_encoder.processors.2.normalizer.running_variance f4 [3]
000000 e0 87 10 45 81 7b 07 40 36 4b 01 45
       2312.4922 2.116913 2068.7007

network_body.processors.0.normalizer.running_mean f4 [68]
000000 50 b7 35 3f b2 42 59 3d 00 00 00 00 85 00 48 3e
       0.7098284 0.05304212 0.0 0.19531448
000010 8c 21 2c 3f 16 49 c9 3d 00 00 00 00 ec 1d 50 3e
       0.6723869 0.09828393 0.0 0.20323914
000020 ea b4 3b 3f 12 d2 f2 3c 00 00 00 00 24 38 40 3e
       0.7332293 0.029641185 0.0 0.18771416
000030 26 23 28 3f a6 62 89 3d 00 00 00 00 e1 5b 6c 3e
       0.6567863 0.06708269 0.0 0.23081924
000040 85 b2 41 3f a2 eb 32 3d 00 00 00 00 b9 b2 33 3e
       0.75663024 0.04368175 0.0 0.17548646
000050 23 27 1e 3f 7c c6 8f 3d 00 00 00 00 36 26 73 3e
       0.6177847 0.0702028 0.0 0.23745045
000060 68 79 50 3f 6a f8 12 3d 00 00 00 00 ed 35 26 3e
       0.8143525 0.035881437 0.0 0.16231509
000070 4d bf 21 3f 40 5c 19 3d 00 00 00 00 70 b4 7b 3e
       0.63182527 0.037441492 0.0 0.2458055
000080 60 0e 5c 3f a1 eb 32 3c 00 00 00 00 dc 66 1f 3e
       0.85959435 0.010920436 0.0 0.15566581
000090 10 59 21 3f 3a 6e 6c 3d 00 00 00 00 3f 37 80 3e
       0.63026524 0.057722308 0.0 0.2504215
0000a0 b3 3e 63 3f 41 5c 19 3c 00 00 00 00 36 1c 13 3e
       0.88767546 0.009360374 0.0 0.1436623
0000b0 a0 ef 28 3f 2d 8e 9c 3d 00 00 00 00 12 6f 83 3e
       0.6599064 0.076443054 0.0 0.25670677
0000c0 78 d4 6c 3f 42 5c 99 3b 00 00 00 00 cc 29 08 3e
       0.925117 0.0046801874 0.0 0.13297194
0000d0 64 85 32 3f 52 b3 bf 3d 00 00 00 00 7a 63 83 3e
       0.6973479 0.093603745 0.0 0.25661832
0000e0 df d2 70 3f 00 00 00 00 00 00 00 00 7b 3c 00 3e
       0.94071764 0.0 0.0 0.12523071
0000f0 14 4d 3f 3f de 55 a9 3d 00 00 00 00 b7 72 82 3e
       0.74726987 0.08268331 0.0 0.25478145
000100 f4 9c 77 3f 00 00 00 00 00 00 00 00 1e 79 eb 3d
       0.96723866 0.0 0.0 0.11497711

network_body.processors.0.normalizer.running_variance f4 [68]
000000 31 07 05 43 49 c9 04 42 00 00 80 3f 74 9b e3 40
       133.02809 33.196568 1.0 7.112726
000010 85 33 0e 43 82 3b 67 42 00 00 80 3f 7c e0 f8 40
       142.20125 57.808113 1.0 7.777403
000020 b2 c3 fc 42 9a 7e 9b 41 00 00 80 3f 78 1d e8 40
       126.38222 19.436817 1.0 7.2535973
000030 34 7e 11 43 38 76 24 42 00 00 80 3f 69 1a 17 41
       145.49298 41.115448 1.0 9.443948
000040 94 11 ee 42 1d 37 de 41 00 00 80 3f 14 13 d5 40
       119.03433 27.77691 1.0 6.658579
000050 75 5b 18 43 0e 5d 2b 42 00 00 80 3f 63 b3 12 41
       152.35725 42.840874 1.0 9.168796
000060 e0 d0 c3 42 d7 65 b9 41 00 00 80 3f 1a 6c 72 40
       97.90796 23.174726 1.0 3.787848
000070 5b 1c 16 43 ad cf c0 41 00 00 80 3f cc a3 f2 40
       150.11076 24.101404 1.0 7.5824947
000080 1c ba 9c 42 c7 8d fd 40 00 00 80 3f 49 2a 83 40
       78.363495 7.923557 1.0 4.098912
000090 74 5f 16 43 04 75 0f 42 00 00 80 3f fe 2a f3 40
       150.37286 35.864273 1.0 7.598998
0000a0 45 d3 81 42 eb 33 de 40 00 00 80 3f 16 b3 3c 40
       64.912636 6.9438376 1.0 2.9484305
0000b0 0f dc 10 43 64 04 39 42 00 00 80 3f 62 b8 05 41
       144.8596 46.254288 1.0 8.357515
0000c0 5a 9f 35 42 f5 19 7f 40 00 00 80 3f c4 d2 27 40
       45.405617 3.9859593 1.0 2.622239
0000d0 16 49 08 43 fc 88 5d 42 00 00 80 3f df ff 12 41
       136.28549 55.383774 1.0 9.187469
0000e0 34 fd 12 42 00 00 80 3f 00 00 80 3f 22 9e 24 40
       36.74727 1.0 1.0 2.5721517
0000f0 8d 1d f4 42 9c 78 46 42 00 00 80 3f b8 d6 15 41
       122.05772 49.617783 1.0 9.364922
000100 01 7f aa 41 00 00 80 3f 00 00 80 3f a2 2b 1b 40
       21.312014 1.0 1.0 2.4245381

network_body.processors.1.normalizer.running_mean f4 [20]
000000 4c c3 17 3f 00 00 00 00 ef ac cf 3e 58 38 32 3f
       0.59282374 0.0 0.40561625 0.69617224
000010 9a ff 00 3f 00 00 00 00 51 34 fd 3e fc 94 43 3f
       0.5039002 0.0 0.49453977 0.7639921
000020 b7 b9 2f 3f 00 00 00 00 1a c0 9f 3e 1c d7 23 3f
       0.68642753 0.0 0.3120125 0.64000106
000030 3f e5 c2 3e 00 00 00 00 25 27 1e 3f 71 19 55 3f
       0.38065526 0.0 0.6177848 0.83241946
000040 2c 13 50 3f 00 00 00 00 5e 1a 3e 3e c3 4d 14 3f
       0.81279254 0.0 0.18564746 0.57931155

network_body.processors.1.normalizer.running_variance f4 [20]
000000 1a ba 1b 43 00 00 80 3f 30 8a 1b 43 ca f5 4b 42
       155.72696 1.0 155.5398 50.99003
000010 82 3d 21 43 00 00 80 3f 1c 3b 21 43 28 01 3b 42
       161.24026 1.0 161.2309 46.75113
000020 ce f8 0a 43 00 00 80 3f f6 98 0a 43 06 79 4c 42
       138.9719 1.0 138.5975 51.118187
000030 be 1e 18 43 00 00 80 3f 72 5b 18 43 a8 12 23 42
       152.12009 1.0 152.35721 40.76822
000040 f4 11 c5 42 00 00 80 3f e0 d0 c3 42 25 ec 2e 42
       98.535065 1.0 97.90796 43.73061

network_body.processors.2.normalizer.running_mean f4 [3]
000000 1b 18 cd 41 41 39 86 3f f6 49 d2 c0
       25.63677 1.0486223 -6.5715284

network_body.processors.2.normalizer.running_variance f4 [3]
000000 e0 87 10 45 81 7b 07 40 36 4b 01 45
       2312.4922 2.116913 2068.7007
