Assets/results/3/CoinChaser/CoinChaser-8499978.onnx (onnx, 371399 bytes, 13 tensors)

network_body.observation_encoder.processors.0.normalizer.running_mean f4 [68]
0.9003945 0.021190021 0.00013400191 0.2343935 0.9075657 0.011804871 0.00013494132 0.22384486
0.9017856 0.021494567 0.0001347062 0.24066466 0.91793185 0.004522322 0.00013729384 0.21733487
0.9116803 0.014285018 0.00014141237 0.2354765 0.93066585 0.0019667195 0.00014023606 0.2157509
0.92283887 0.007848597 0.00014470622 0.22370356 0.9343224 0.0014008306 0.00014776581 0.21548305
0.929949 0.00419618 0.0001532964 0.21217163 0.9222411 0.001303165 0.00015176623 0.21282052
0.9314292 0.002414031 0.00015447383 0.20332186 0.907113 0.0012837591 0.0001496479 0.20665346
0.931043 0.0015002575 0.00015353068 0.19891356 0.9029795 0.0011545911 0.00014564872 0.20118809
0.93310654 0.0009914184 0.00015000066 0.19702393 0.91191775 0.0010538845 0.00013047128 0.2001917
0.93656784 0.0008244819 0.00014835288 0.19589004
00000000: 4180 663f b296 ad3c dd82 0c39 da04 703e
00000010: 3a56 683f 3869 413c 097f 0d39 9637 653e
00000020: 6cdb 663f 6015 b03c ec3f 0d39 cc70 763e
00000030: 95fd 6a3f fd2f 943b 89f6 0f39 088d 5e3e
00000040: e163 693f b50b 6a3c 1848 1439 c020 713e
00000050: 1e40 6e3f 14e4 003b 550c 1339 ceed 5c3e
00000060: 2b3f 6c3f 6797 003c 48bc 1739 8c12 653e
00000070: c12f 6f3f 139c b73a 95f1 1a39 97a7 5c3e
00000080: 2311 6e3f 1c80 893b 30be 2039 8543 593e
00000090: fe17 6c3f f6ce aa3a 7023 1f39 9fed 593e
000000a0: 2572 6e3f b834 1e3b 41fa 2139 9b33 503e
000000b0: 8f38 683f cf43 a83a cdea 1c39 f79c 533e
000000c0: d658 6e3f 4aa4 c43a 14fd 2039 ffaf 4b3e
000000d0: aa29 673f a655 973a 48b9 1839 4004 4e3e
000000e0: 12e0 6e3f 7bf2 813a 7f49 1d39 a4c0 493e
000000f0: 7173 693f 7f22 8a3a 1ecf 0839 0eff 4c3e
00000100: e9c2 6f3f 0b22 583a 2c8f 1b39 6697 483e

network_body.observation_encoder.processors.1.normalizer.running_mean f4 [20]
0.24527584 0.004891047 0.047215547 0.30221152 0.27143678 0.0026726436 0.043058407 0.30169863
0.24582812 0.0053489436 0.044941384 0.30714026 0.30642325 0.0011070642 0.038979452 0.31328553
0.28985125 0.0038252312 0.03701131 0.31502452
00000000: 9729 7b3e 1345 a03b 1765 413d 78bb 9a3e
00000010: c3f9 8a3e 8527 2f3b 035e 303d 3e78 9a3e
00000020: 5eba 7b3e 3146 af3b 7514 383d 7d41 9d3e
00000030: 82e3 9c3e e91a 913a eba8 1f3d f666 a03e
00000040: 6267 943e bbb0 7a3b 2c99 173d e54a a13e

network_body.observation_encoder.processors.2.normalizer.running_mean f4 [5]
0.7370854 1.9022642 -1.2636901 0.91230386 0.6799768
00000000: a1b1 3c3f 657d f33f 99c0 a1bf bf8c 693f
00000010: f612 2e3f

network_body._body_endoder.seq_layers.0.weight f4 [256, 93]
0.29241002 -0.049103104 0.045952566 0.011258717 0.011574143 -0.244252 -0.08465957 0.13310067
0.10001138 -0.091046296 0.16191043 -0.1099119 -0.036278956 -0.09436288 -0.0063161836 -0.03169879
0.044038035 -0.18442123 -0.05487544 -0.1992791 -0.09200278 -0.20698579 0.0827795 0.016518062
-0.09199901 -0.085199684 -0.059998274 0.01554192 0.10311162 0.011786757 0.08863506 -0.034238704
0.08564776 0.04397422 -0.0786395 -0.19408473 0.0044373167 -0.10928258 -0.034571026 -0.17017813
-0.14376542 0.06871661 0.14013162 -0.053060465 -0.12021678 0.009168384 -0.03147709 -0.36598498
0.16374715 -0.12095092 -0.13372439 -0.004705468 -0.051976018 0.023597082 0.19108896 -0.0054744096
-0.101006836 0.13326852 -0.045811016 0.17190245 0.1512002 -0.044135332 0.0015793066 -0.12344492
0.034271594 -0.0405706 0.11753169 0.16161346 0.011201061 0.023036825 -0.1921608 -0.06299318
-0.03605459 -0.123161525 -0.30057383 -0.027928514 -0.03345046 0.07052534 -0.03123228 0.021497535
-0.071815394 0.0931582 -0.13668299 -0.121944785 -0.10136946 -0.080250055 -0.10658072 0.1226385
-0.11118505 -0.2056278 0.053698972 -0.0056363577 0.12185013 0.05140519 0.029735418 0.12004005
0.043199927 0.011964663 -0.098308474 -0.042591702 -0.042038176 0.22457781 0.06017862 0.10561001
-0.04225442 0.14738198 -0.24849153 0.02614001 0.042694114 -0.06601235 -0.05443505 0.15858534
-0.028326353 -0.33190542 0.32081434 0.22709861 0.062095657 -0.0065129767 -0.09417926 0.058471438
-0.18681163 -0.018300083 0.049428664 0.035126742 0.08473991 -0.035395395 0.14680573 -0.083568655
-0.13332663 -0.11551074 -0.00129657 0.11619288 -0.064285435 -0.00074578373 -0.25726184 -0.0019332865
0.11775311 0.20340313 0.15899487 0.004683559 0.14157721 0.15422581 0.017311897 0.17830262
-0.04062157 0.029353369 0.13865004 -0.100466184 0.005510997 -0.08192479 -0.0033876353 0.034030262
-0.08724886 -0.12940384 0.20046632 -0.08825401 0.18497413 -0.060662843 0.16920413 -0.014192575
-0.07354221 -0.0071582664 -0.12671584 0.23746154 -0.10160308 0.059294548 0.14033501 0.13950928
0.09332995 0.14269225 0.070009105 -0.049599327 0.076779425 -0.19502072 -0.054288127 -0.20378236
0.10316694 -0.0005479655 0.14281134 -0.07236348 -0.056274526 -0.09187507 -0.21810982 0.097474456
-0.17474481 -0.08667826 -0.0011083217 -0.09642115 0.089630544 -0.051658522 -0.03420272 -0.3007983
-0.012918267 -0.061449554 0.19829333 -0.20836392 0.12355971 -0.03554669 -0.032943677 -0.14404736
0.10276588 -0.037421294 0.026291821 -0.06736919 0.0089953635 -0.13856758 0.001044963 -0.079351805
-0.06652806 -0.047772076 -0.08460354 0.23391514 -0.07321012 -0.03187092 -0.07575189 -0.0038337929
-0.11432707 -0.16135368 -0.09819811 0.1382923 0.23868035 0.21231793 0.037426163 -0.16238748
0.114657216 -0.07153456 0.12553982 0.0072386274 0.16684665 -0.042788465 0.06430819 0.1331967
-0.07374141 -0.116552286 0.08472504 0.019231964 0.06602376 0.03971338 -0.02411926 0.031090096
-0.13179733 -0.124814995 -0.11281916 0.3101965 0.039611068 0.04800434 0.065485865 0.061063726
0.08135182 0.10756529 -0.11387388 0.18743171 0.072503775 -0.03666607 0.009066105 0.011455556
00000000: c4b6 953e 5620 49bd c238 3c3d 7b76 383c
00000010: 79a1 3d3c 321d 7abe ff61 adbd 8b4b 083e
00000020: c4d2 cc3d 7b76 babd d9cb 253e 7d19 e1bd
00000030: 3e99 14bd 5341 c1bd fdf7 cebb 97d6 01bd
00000040: 3a61 343d ebd8 3cbe 12c5 60bd d20f 4cbe
00000050: f46b bcbd 15f4 53be 4c88 a93d e350 873c
00000060: fa69 bcbd 2c7d aebd c0c0 75bd 8aa3 7e3c
00000070: 2f2c d33d 3e1d 413c 4c86 b53d e23d 0cbd
00000080: 1868 af3d 501e 343d bf0d a1bd 26be 46be
00000090: e966 913b 8ccf dfbd 599a 0dbd 2d43 2ebe
000000a0: 3e37 13be 4bbb 8c3d aa7e 0f3e ee55 59bd
000000b0: 3734 f6bd fd36 163c 1fee 00bd 6262 bbbe
000000c0: 55ad 273e 1eb5 f7bd 0cef 08be 5430 9abb
000000d0: cee4 54bd ab4e c13c d3ac 433e ad62 b3bb
000000e0: acdc cebd 8b77 083e 55a4 3bbd 3207 303e
000000f0: 3ad4 1a3e 40c7 34bd bc00 cf3a b1d0 fcbd
00000100: 5f60 0c3d 5c2d 26bd 74b4 f03d 007e 253e
00000110: a884 373c b9b7 bc3c cdc5 44be 9102 81bd
00000120: faad 13bd 1c3c fcbd d0e4 99be 57ca e4bc
00000130: 5903 09bd 976f 903d d7da ffbc 991b b03c
00000140: f313 93bd bac9 be3d a0f6 0bbe 30be f9bd
00000150: cb9a cfbd 245a a4bd fe46 dabd e529 fb3d
00000160: fdb4 e3bd 1890 52be 74f3 5b3d 32b1 b8bb
00000170: 908c f93d 408e 523d b197 f33c 8fd7 f53d
00000180: 68f2 303d 6f07 443c f455 c9bd a374 2ebd
00000190: 3930 2cbd baf7 653e db7d 763d 104a d83d
000001a0: f912 2dbd 4deb 163e 9074 7ebe 9323 d63c
000001b0: 06e0 2e3d 7c31 87bd 49f7 5ebd 3264 223e
000001c0: ab0c e8bc 82ef a9be c741 a43e 8a8c 683e
000001d0: 0458 7e3d cf6a d5bb 0ee1 c0bd bf7f 6f3d
000001e0: 8c4b 3fbe 0eea 95bc b675 4a3d 0fe1 0f3d
000001f0: 1e8c ad3d c3fa 10bd 3e54 163e 0b26 abbd
00000200: c786 08be e590 ecbd abf1 a9ba 88f6 ed3d
00000210: 15a8 83bd b380 43ba d3b7 83be 5566 fdba
00000220: 8b28 f13d e948 503e 8dcf 223e 8a78 993b
00000230: 9ef9 103e 5fed 1d3e aed1 8d3c f694 363e
00000240: ce62 26bd 7a76 f03c 47fa 0d3e 37c1 cdbd
00000250: 9895 b43b 2fc8 a7bd 1703 5ebb 5163 0b3d
00000260: 88af b2bd 7182 04be 0b47 4d3e 85be b4bd
00000270: dc69 3d3e 9a79 78bd d943 2d3e f987 68bc
00000280: 4c9d 96bd e48f eabb ccc1 01be 1e29 733e
00000290: 4715 d0bd d7de 723d fbb3 0f3e 85db 0e3e
000002a0: c623 bf3d eb1d 123e ef60 8f3d aa28 4bbd
000002b0: 883e 9d3d 83b3 47be 3a5d 5ebd 53ac 50be
000002c0: 3049 d33d 58a5 0fba 233d 123e 4e33 94bd
000002d0: 1e80 66bd ff28 bcbd 2e58 5fbe b0a0 c73d
000002e0: 4ef0 32be 5f84 b1bd 1b45 91ba 7478 c5bd
000002f0: 3890 b73d e397 53bd 2718 0cbd 3c02 9abe
00000300: 24a7 53bc 87b2 7bbd 680d 4b3e 5a5d 55be
00000310: e00c fd3d 6899 11bd f3ef 06bd 2781 13be
00000320: eb76 d23d 1247 19bd f261 d73c dcf8 89bd
00000330: 4a61 133c a9e4 0dbe 24f7 883a 3383 a2bd
00000340: dd3f 88bd a7ac 43bd 9f44 adbd 7387 6f3e
00000350: 30ef 95bd 158b 02bd cf23 9bbd 5f40 7bbb
00000360: 5024 eabd e639 25be 171c c9bd 7f9c 0d3e
00000370: 9f68 743e df69 593e 2d4c 193d e748 26be
00000380: 67d1 ea3d b680 92bd 838d 003e 0232 ed3b
00000390: d9d9 2a3e f542 2fbd 03b4 833d b764 083e
000003a0: bd05 97bd f7b2 eebd 5284 ad3d 5a8c 9d3c
000003b0: 7737 873d 7faa 223d c195 c5bc a8b0 fe3c
000003c0: e1f5 06be 019f ffbd bb0d e7bd 13d2 9e3e
000003d0: 373f 223d 33a0 443d 741d 863d f51d 7a3d
000003e0: c89b a63d 314b dc3d b536 e9bd 19ee 3f3e
000003f0: dc7c 943d 292f 16bd 008a 143c 16b0 3b3c

network_body._body_endoder.seq_layers.0.bias f4 [256]
-0.020901226 -0.07959416 -0.03792016 -0.019308759 -0.03806559 0.039104626 -0.017819034 0.037355717
0.07891841 0.029276527 -0.01952372 -0.030249046 0.024244582 0.014664875 0.012507947 -0.010891108
0.0633802 0.0070912195 0.062602535 0.038942818 -0.088140756 0.022151517 -0.01093086 -0.018616999
-0.00966698 0.0022995092 -0.0144406045 -0.09165044 0.022843631 -0.060223784 -0.028231943 -0.008548895
-0.007116948 -0.039495993 0.04581928 -0.06350049 -0.0051714047 -0.040159825 0.004074463 -0.027408538
0.02315697 0.04427581 0.06831538 0.005102351 -0.05090084 -0.0048076995 0.041410353 0.039428875
0.003727594 -0.0012299457 0.008026935 0.07605547 -0.06502776 -0.07818406 -0.053014405 -0.01481752
0.0051692706 0.0057916385 -0.01478189 -0.022875994 0.023702815 -0.039634313 0.034400582 -0.022369293
0.002629343 0.09229221 0.048067942 0.048619755 0.01799513 0.023767339 0.008702131 -0.00094561937
-0.02114244 0.050186638 -0.03891878 0.048447214 0.03267612 0.061382044 -0.027095215 -0.014600545
-0.0062980317 -0.008869911 -0.008328095 -0.02845403 -0.037819874 -0.018321687 -0.047853444 -0.012298512
-0.011171031 -0.0036762827 -0.01535366 0.033725068 0.12507927 0.05538105 -0.014900077 -0.053948477
-0.039017074 -0.006795971 0.028400008 -8.167952e-05 0.011708347 0.013885104 -0.004329915 -0.06282324
-0.011606889 -0.00020031541 0.0005391591 0.051620226 -0.03240254 0.047110178 0.035004884 -0.016647618
-0.056981403 -0.027017832 -0.011470527 -0.013663626 0.013021342 0.07212829 0.0044855396 0.0003849839
-0.055854853 -0.039473124 -0.0014118928 -0.00948547 -0.010520991 0.008796653 0.071182825 0.0016475747
0.07556292 0.029371025 -0.016789937 -0.0741365 0.05430803 0.016884878 0.010527497 0.012092266
0.013403037 -0.038434774 -0.021301659 -0.01570252 0.0046200813 -0.021530341 0.021532405 0.017142052
0.023554448 -0.019488392 0.048462212 -0.005108454 0.0059208865 -0.048062176 0.013669108 -0.047323268
0.06903541 -0.0165239 -0.05802543 -0.0107117025 -0.016522957 -0.0006287265 0.008002426 -0.04284148
-0.006140942 0.037963074 0.0036553254 0.036956444 -0.04786562 0.020057749 0.05297748 -0.019576294
0.065853156 -0.02917541 0.0038145243 0.0015526118 0.06160402 0.036538504 -0.031998787 0.039893012
0.049585223 0.03509148 -0.0009620612 -0.052068967 0.057492048 -0.006854723 -0.03198297 0.00844494
0.00017670488 -0.034741834 -0.042920895 -0.07174259 -0.049510203 -0.014858955 0.011630889 0.04662531
-0.025043175 -0.022346588 -0.040464833 0.039705105 0.0015389065 0.021771176 -0.055879332 -0.06059121
-0.0644419 0.021791656 0.044293884 0.037456453 -0.0021838904 0.018210405 -0.005108414 0.0056197178
0.0031076097 0.047886033 0.06232798 0.0074129566 0.081938155 0.0072144894 -0.0057643396 0.037128206
0.044948727 0.03979417 0.071699396 -0.007344574 0.049814228 0.055413622 0.036679156 0.024104698
0.04664852 -0.008009753 -0.022516623 -0.0064312792 0.056669436 -0.09061555 0.018026616 -0.0006279066
0.005026168 0.06304658 0.046666313 -0.033900235 -0.019558206 0.05524626 -0.017981887 0.0046661934
0.008046996 0.04607367 -0.044419464 -0.034502625 -0.06873601 -0.031661455 -0.038496807 -0.0033722722
-0.056695662 -0.018852985 -0.0285409 0.056935873 0.010150916 -0.015189404 0.030754676 -0.012105451
00000000: 0c39 abbc 4302 a3bd 2b52 1bbd 672d 9ebc
00000010: aaea 1bbd 2c2c 203d 39f9 91bc 4f02 193d
00000020: fa9f a13d 54d5 ef3c 35f0 9fbc d9cc f7bc
00000030: 939c c63c f244 703c 22ee 4c3c 9e70 32bc
00000040: 7acd 813d 765d e83b c235 803d 8182 1f3d
00000050: 2483 b4bd 1977 b53c 5a17 33bc ad82 98bc
00000060: 4162 1ebc 5db3 163b 4998 6cbc 3ab3 bbbd
00000070: 9122 bb3c 37ad 76bd ad46 e7bc aa10 0cbc
00000080: 4935 e9bb 8dc6 21bd ffac 3b3d 8b0c 82bd
00000090: e374 a9bb a17e 24bd 1383 853b df87 e0bc
000000a0: b0b3 bd3c 8d5a 353d efe8 8b3d 9f31 a73b
000000b0: 667d 50bd e889 9dbb e79d 293d 2c80 213d
000000c0: a64a 743b 2136 a1ba 6883 033c f8c2 9b3d
000000d0: 462d 85bd f71e a0bd a225 59bd 2fc5 72bc
000000e0: fc62 a93b c9c7 bd3b be2f 72bc 7066 bbbc
000000f0: 682c c23c 9757 22bd a0e7 0c3d cf3f b7bc
00000100: 0e51 2c3b b303 bd3d e4e2 443d 8225 473d
00000110: 866a 933c b9b3 c23c 6293 0e3c 71e3 77ba
00000120: e932 adbc 8190 4d3d 4c69 1fbd 9670 463d
00000130: 65d7 053d bd6b 7b3d c9f6 ddbc 2037 6fbc
00000140: b85f cebb 1a53 11bc 9072 08bc 6d18 e9bc
00000150: 03e9 1abd 5d17 96bc f901 44bd b37f 49bc
00000160: b306 37bc caed 70bb eb8d 7bbc 4c23 0a3d
00000170: c814 003e 3dd7 623d 741f 74bc 14f9 5cbd
00000180: 5ed0 1fbd bdb0 debb 22a7 e83c 5c4b abb8
00000190: 5ed4 3f3c 597e 633c f6e1 8dbb 79a9 80bd
000001a0: d22a 3ebc c20b 52b9 5b56 0d3a bb6f 533d
000001b0: 87b8 04bd 9af6 403d 4861 0f3d 9660 88bc
000001c0: 5565 69bd 8054 ddbc e1ee 3bbc 67dd 5fbc
000001d0: 7857 553c ffb7 933d 6ffb 923b aad7 c939
000001e0: 0fc8 64bd 92ae 21bd 430f b9ba f268 1bbc
000001f0: 3c60 2cbc d61f 103c 4dc8 913d 6ff3 d73a
00000200: bbc0 9a3d 819b f03c 0d8b 89bc e1d4 97bd
00000210: 1972 5e3d 2852 8a3c 867b 2c3c a41e 463c
00000220: 6998 5b3c c86d 1dbd d180 aebc 92a2 80bc
00000230: 0d64 973b 6660 b0bc ba64 b03c 7d6d 8c3c
00000240: 42f5 c03c 1fa6 9fbc 5080 463d d164 a7bb
00000250: ff03 c23b d8dc 44bd 65f4 5f3c 0bd6 41bd
00000260: 7062 8d3d 215d 87bc 13ac 6dbd 2380 2fbc
00000270: 275b 87bc 1fd1 24ba 9b1c 033c 8c7a 2fbd
00000280: f539 c9bb 2b7f 1b3d 2f8e 6f3b a45f 173d
00000290: be0e 44bd 2650 a43c eafe 583d 775e a0bc
000002a0: 05de 863d 4501 efbc 19fd 793b 0281 cb3a
000002b0: 7f54 7c3d 66a9 153d 2911 03bd db66 233d
000002c0: e019 4b3d 15bc 0f3d d632 7cba 4546 55bd
000002d0: c87c 6b3d 969d e0bb 9300 03bd a55c 0a3c
000002e0: db49 3939 744d 0ebd d2cd 2fbd c7ed 92bd
000002f0: 36cb 4abd f972 73bc 7c8f 3e3c 2efa 3e3d
00000300: 5827 cdbc 3110 b7bc 74be 25bd d2a1 223d
00000310: 22b5 c93a 7759 b23c bae1 64bd 7d2e 78bd
00000320: 1dfa 83bd 6a84 b23c 816d 353d f06b 193d
00000330: 9a1f 0fbb fd2d 953c 7c64 a7bb 9c25 b83b
00000340: 0aa9 4b3b 2524 443d a04b 7f3d 63e8 f23b
00000350: 31cf a73d 8667 ec3b c9e2 bcbb bf13 183d
00000360: 281c 383d 36ff 223d 22d7 923d c1aa f0bb
00000370: 010a 4c3d 65f9 623d e23c 163d 3777 c53c
00000380: 8512 3f3d 573b 03bc c874 b8bc 7bbd d2bb
00000390: 361e 683d a594 b9bd 8eac 933c 199a 24ba
000003a0: 8eb2 a43b 911e 813d 2d25 3f3d f9da 0abd
000003b0: 8838 a0bc e749 623d c04e 93bc dee6 983b
000003c0: 8cd7 033c bfb7 3c3d 2ff1 35bd a052 0dbd
000003d0: 77c5 8cbd 71af 01bd d4ae 1dbd 5701 5dbb
000003e0: b639 68bd 9371 9abc 9bce e9bc 9735 693d
000003f0: 0750 263c fadc 78bc 3bf1 fb3c f155 46bc

network_body._body_endoder.seq_layers.2.weight f4 [256, 256]
0.042267185 -0.050565735 0.024515111 -0.05471092 -0.10255483 0.017311547 -0.2173295 0.06283095
-0.11553679 -0.050778594 -0.01639719 -0.01857968 -0.14294904 -0.081157304 -0.075665645 -0.053933013
0.03654202 -0.09974894 0.016964722 0.0915392 -0.040327962 0.058234923 0.17272055 0.058408972
0.030910961 0.053515777 -0.14235078 -0.064498305 -0.0011783026 -0.010032028 -0.053677578 -0.16395116
0.1175685 -0.09711098 0.031070404 -0.018157637 -0.052662812 -0.028185647 0.11200301 -0.1233804
-0.09838083 0.0029751472 -0.23245396 0.050810196 -0.021254512 -0.0396084 -0.06576093 0.15457019
0.03442399 -0.013327519 0.021106752 -0.06490317 0.011114739 -0.07877316 -0.09948911 -0.06521586
0.001158636 -0.075480044 0.029345844 -0.06409194 0.080817595 -0.06390376 0.04743088 0.023386711
0.06568764 0.079022415 0.044152595 -0.020975575 0.04251512 0.10570954 -0.12803811 0.013541109
0.09608646 -0.09195806 -0.051359944 -0.062009983 0.07933686 -0.0678022 -0.12492078 0.0055647255
-0.04034508 0.10928382 -0.009031825 0.076952875 -0.090533644 -0.07020909 0.020885434 -0.043168295
-0.060772385 0.052408997 0.0042828815 0.10580753 -0.10920322 0.018677834 0.00032602137 0.02252417
-0.03599175 0.07050496 -0.0018134085 0.039547857 -0.053483218 0.0654862 0.053459983 -0.021345856
0.13945943 -0.07890043 0.07643981 0.040470764 -0.007334302 -0.05272966 0.008389687 -0.011316274
-0.0014462252 -0.16242655 0.075970836 0.057997447 -0.1960242 -0.03489689 -0.047838017 -0.13057311
-0.010592873 -0.021775011 -0.016849853 0.03122567 -0.015599133 -0.12721427 -0.0052394383 -0.011402675
0.02193178 -0.016675385 -0.03662763 0.11930682 -0.06349803 0.08307219 -0.025134254 -0.07057827
-0.078935154 0.084367864 -0.040452674 0.16086815 0.070910424 0.045074426 -0.1112187 -0.35566002
0.023341363 -0.04413766 -0.122436754 0.090588585 -0.14160798 -0.101281844 0.01847243 0.052295003
-0.01104062 -0.008754824 -0.0785704 -0.062650345 -0.056400955 -0.068020284 -0.010804161 -0.15297732
0.1508836 0.08948688 -0.06002166 0.00083435344 -0.04566454 -0.046839017 0.006272005 -0.02289699
0.09836774 0.006260565 0.04496301 0.0051281224 0.01592452 -0.044747543 -0.049805697 -0.22721022
0.07800557 0.05666095 -0.04558992 0.04045696 0.05825405 0.029186968 0.012563402 0.10332441
-0.057416234 -0.042406544 0.05510073 -0.0764781 -0.016288565 0.11347256 0.008283185 0.018239126
-0.09305718 0.04321294 0.084972054 -0.07560656 0.024066856 0.08070915 -0.0147998445 -0.15582985
-0.12268153 0.02948488 0.056190357 0.08422145 -0.059117023 -0.04821488 0.07544902 0.044813205
0.06521343 0.0061495807 0.041179262 0.0042041666 0.1351272 -0.16961254 -0.039403837 0.028094903
0.019246822 -0.01832115 0.0008786693 0.019502625 -0.071519725 0.17912322 0.11284594 0.0092273895
-0.26091522 0.022991976 -0.14825344 -0.0035419043 -0.0036403597 0.055075746 -0.045161564 -0.014855556
-0.06455761 0.00035347376 0.1169521 -0.08360611 0.09944596 0.0922286 0.073315956 0.0029509696
0.0214418 0.08273987 0.013060175 -0.016483271 -0.00061735266 0.012714945 0.17475924 0.033241443
-0.048045013 0.09970448 0.07337476 0.10835159 0.14249553 -0.073476925 -0.05347611 -0.098475605
00000000: 5b20 2d3d 041e 4fbd ead3 c83c 8f18 60bd
00000010: 4408 d2bd f2d0 8d3c a08b 5ebe 83ad 803d
00000020: 8d9e ecbd 37fd 4fbd 6653 86bc 6a34 98bc
00000030: 3c61 12be cd35 a6bd 97f6 9abd dde8 5cbd
00000040: 16ad 153d 2c49 ccbd 9af9 8a3c e778 bb3d
00000050: ef2e 25bd be87 6e3d a8dd 303e 3f3e 6f3d
00000060: fc38 fd3c 5c33 5b3d 67c4 11be b017 84bd
00000070: 4671 9aba 605d 24bc 05dd 5bbd d0e2 27be
00000080: c1c7 f03d 1fe2 c6bd 5c87 fe3c 53bf 94bc
00000090: f6b4 57bd 96e5 e6bc d661 e53d ddae fcbd
000000a0: e37b c9bd b0fa 423b 6908 6ebe 5a1e 503d
000000b0: f11d aebc 6b3c 22bd abad 86bd a647 1e3e
000000c0: 2b00 0d3d ab5b 5abc 11e8 ac3c f4eb 84bd
000000d0: 981a 363c d353 a1bd f2c0 cbbd e58f 85bd
000000e0: 5fdd 973a 4895 9abd b266 f03c a342 83bd
000000f0: b283 a53d f9df 82bd e246 423d 7d95 bf3c
00000100: 3e87 863d 81d6 a13d 5ad9 343d f8d4 abbc
00000110: 5624 2e3d 3e7e d83d 6c1c 03be 87db 5d3c
00000120: fac8 c43d 8254 bcbd ce5e 52bd 2efe 7dbd
00000130: 5d7b a23d e1db 8abd 77d6 ffbd 4d58 b63b
00000140: e240 25bd 32d0 df3d 38fa 13bc 7899 9d3d
00000150: b469 b9bd c9c9 8fbd ee17 ab3c 3dd1 30bd
00000160: 77ec 78bd d1aa 563d 6a57 8c3b 9eb1 d83d
00000170: f0a5 dfbd 4202 993c d9ed aa39 9c84 b83c
00000180: 166c 13bd e864 903d e4af edba effc 213d
00000190: 3811 5bbd a11d 863d dbf8 5a3d 81dd aebc
000001a0: 74ce 0e3e 8c96 a1bd 7a8c 9c3d acc4 253d
000001b0: 9654 f0bb 0efb 57bd e674 093c e567 39bc
000001c0: 448f bdba 2553 26be 9996 9b3d bb8e 6d3d
000001d0: 91ba 48be 0bf0 0ebd ccf1 43bd f5b4 05be
000001e0: bb8d 2dbc 8261 b2bc b408 8abc facc ff3c
000001f0: 8293 7fbc 7544 02be 98af abbb 49d2 3abc
00000200: 47aa b33c d19a 88bc db06 16bd 2257 f43d
00000210: 410b 82bd c121 aa3d 5ae6 cdbc 578b 90bd
00000220: c1a8 a1bd 0fc9 ac3d b4b1 25bd 9fba 243e
00000230: 7c39 913d f69f 383d a1c6 e3bd 1219 b6be
00000240: 6336 bf3c b1c9 34bd 1fc0 fabd 8286 b93d
00000250: af01 11be db6c cfbd 7e53 973c 4933 563d
00000260: b7e3 34bc 6570 0fbc 85e9 a0bd d34e 80bd
00000270: b004 67bd 384e 8bbd f003 31bc 16a6 1cbe
00000280: 3b81 1a3e e644 b73d 46d9 75bd 83b8 5a3a
00000290: be0a 3bbd 45da 3fbd 6485 cd3b 7892 bbbc
000002a0: 0775 c93d 6d25 cd3b 222b 383d cf09 a83b
000002b0: 2474 823c 3349 37bd 0f01 4cbd cca9 68be
000002c0: 62c1 9f3d 5015 683d 7fbc 3abd 33b6 253d
000002d0: cc9b 6e3d 8219 ef3c bad6 4d3c c09b d33d
000002e0: 492d 6bbd 7cb2 2dbd 4eb1 613d 8da0 9cbd
000002f0: 996f 85bc 4d64 e83d 32b6 073c 386a 953c
00000300: c394 bebd 0d00 313d d405 ae3d 9dd7 9abd
00000310: db27 c53c d74a a53d 0c7b 72bc dc91 1fbe
00000320: 7440 fbbd 468a f13c dc27 663d 4c7c ac3d
00000330: b124 72bd f77c 45bd 0485 9a3d 0d8e 373d
00000340: 9e8e 853d 6c82 c93b 96ab 283d 1bc3 893b
00000350: c95e 0a3e e9ae 2dbe eb65 21bd 4827 e63c
00000360: 83ab 9d3c 3d16 96bc 8056 663a f8c3 9f3c
00000370: ef78 92bd 146c 373e c61b e73d 7a2e 173c
00000380: ae96 85be ab59 bc3c c0cf 17be 4b1f 68bb
00000390: 1a93 6ebb 1b97 613d 55fb 38bd b864 73bc
000003a0: c836 84bd 7252 b939 9584 ef3d ae39 abbd
000003b0: 53aa cb3d 59e2 bc3d ad26 963d 0e65 413b
000003c0: b7a6 af3c 8573 a93d 58fa 553c ed07 87bc
000003d0: d6d5 21ba 5852 503c 16f4 323e 2e28 083d
000003e0: d9ca 44bd dd31 cc3d 8245 963d 70e7 dd3d
000003f0: 59ea 113e 127b 96bd c409 5bbd 94ad c9bd

network_body._body_endoder.seq_layers.2.bias f4 [256]
0.01693938 0.019495338 -0.011139906 0.061635282 -0.04463806 -0.023150621 -0.01563734 -0.057289686
-0.006202996 -0.012343399 -0.02584648 0.0044677416 0.051979475 -0.009291876 0.016629599 0.01509117
0.04301167 -0.042842742 -0.064844534 0.00746996 0.010121373 0.0068484386 0.015369189 -0.072710045
-0.065112844 0.0038724872 0.028294368 0.047919765 -0.029246995 0.018207535 -0.056517214 -0.040143747
0.042853378 -3.574312e-05 0.05305942 0.04677808 0.002127964 -0.037205346 -0.05518375 0.00982309
0.016943397 -0.05735364 0.046087474 -0.0059697167 -0.067490414 0.007860805 -0.035002865 0.022948833
0.02357941 -0.033423558 -0.008560623 0.058400635 0.00090093113 0.023794893 0.022997368 -0.024914535
-0.0028218534 0.006743264 0.033692904 -0.011561225 0.034603987 -0.054809242 0.046145625 -0.06628765
-0.038435876 -0.048006896 0.03561125 -0.03836271 -0.022084845 -0.012860949 0.06372181 -0.015832786
-0.012197079 -0.0258456 -0.014236554 -0.049780175 -0.07973862 -0.007841171 0.01452899 0.025120828
-0.015992166 -0.06405184 0.052116655 0.07120399 -0.02499202 -0.041078705 -0.019878853 0.016333576
-0.04935424 0.08155485 0.034780975 -0.04004954 0.0077452157 -0.04244536 0.031058338 0.00017535774
0.029674202 -0.037165247 0.033318482 0.013024561 -0.051220167 0.003956626 0.040257946 -0.01106977
-0.045875248 0.039733697 -0.062508106 0.012935631 -0.06967613 -0.0228302 0.09974779 -0.04550751
-0.018505676 -0.035205003 -0.06995397 -0.048226856 -0.014378483 0.035091266 0.016649153 0.04018874
3.2354623e-05 -0.023154715 -0.004373152 -0.02106708 -0.0094980905 0.009020338 -0.04380001 0.060228385
-0.028715787 0.029231323 -0.024638373 -0.046322737 -0.01624371 0.040842798 0.02641981 0.0022385218
0.030779209 -0.04959692 0.003351415 0.015625004 0.004427272 -0.033086926 -0.00069292577 -0.030786915
0.0021072002 0.034882713 0.012749975 0.031460278 -0.039951727 -0.054353565 -0.08842592 -0.008912074
0.053164568 0.047894616 0.022536196 0.02801793 0.016821563 0.01578436 0.024856968 0.02933279
-0.020260274 -0.045542434 -0.08147164 -0.013785103 0.022184916 0.026570134 0.00400202 0.0062552285
0.01936858 0.028287623 0.038969982 0.008390161 -0.010513489 0.03250224 -0.019223273 -0.00032228575
-0.05233596 -0.034853037 0.009070864 0.018245703 0.010080439 -0.0765335 0.04145858 -0.03431031
-0.0054057734 -0.020919222 -0.008555896 0.014260137 -0.04725583 -0.07058103 -0.056802627 -0.017803203
-0.050023764 -0.07091053 -0.028631607 -0.03431988 0.029855298 -0.067843586 0.051165972 0.04232429
-0.041936535 -0.045169722 0.0325313 0.06977431 0.0004503718 -0.07978902 -0.030671874 0.04313749
-0.01726352 -0.0217542 -0.06110441 0.03672628 -0.087198995 0.028028887 -0.007505818 -0.03949025
-0.004897527 -0.024102012 -0.07463629 -0.050060738 -0.008649356 -0.022993622 -0.033454396 0.0051460094
1.15465355e-05 -0.006522226 -0.024227927 0.026007986 -0.028318126 -0.036275294 0.021680236 0.004356203
0.022856127 0.03558254 -0.025025351 -0.033343785 0.002737146 -0.046029076 -0.055745713 -0.057729665
0.0090341605 0.016318671 -0.06654376 -0.06909203 -0.09535629 0.05734017 -0.038187414 -0.005173609
-0.0011977031 -0.043749798 -0.02426046 0.012642802 -0.06369496 -0.020814724 -0.053708006 -0.028806496
00000000: 74c4 8a3c b0b4 9f3c 2784 36bc 4775 7c3d
00000010: 66d6 36bd 5fa6 bdbc e119 80bc 97a8 6abd
00000020: 8042 cbbb f83b 4abc ffbb d3bc 2266 923b
00000030: 6ee8 543d f43c 18bc cc3a 883c f440 773c
00000040: 012d 303d df7b 2fbd 36cd 84bd 91c6 f43b
00000050: 1ed4 253c de68 e03b 0dcf 7b3c 01e9 94bd
00000060: e259 85bd 8ec9 7d3b 97c9 e73c 8447 443d
00000070: 6597 efbc f827 953c 987e 67bd c56d 24bd
00000080: 0687 2f3d e2ea 15b8 d654 593d 5f9a 3f3d
00000090: 5075 0b3b a264 18bd 5b08 62bd 07f1 203c
000000a0: e1cc 8a3c a7eb 6abd 38c6 3c3d 9d9d c3bb
000000b0: 6a38 8abd 9bca 003c 2a5f 0fbd 31ff bb3c
000000c0: 9b29 c13c 24e7 08bd db41 0cbc 8135 6f3d
000000d0: 772c 6c3a 82ed c23c fa64 bc3c 9119 ccbc
000000e0: d8ee 38bb 99f6 dc3b 9201 0a3d 4b6b 3dbc
000000f0: e9bc 0d3d a87f 60bd 3203 3d3d d2c1 87bd
00000100: f06e 1dbd e1a2 44bd 1add 113d 3822 1dbd
00000110: 47eb b4bc bbb6 52bc 9580 823d c2b3 81bc
00000120: 42d6 47bc 27ba d3bc 6f40 69bc 4ce6 4bbd
00000130: 004e a3bd 4178 00bc 000b 6e3c 32ca cd3c
00000140: 0102 83bc 9c2d 83bd 4678 553d 66d3 913d
00000150: 11bc ccbc 2542 28bd fad8 a2bc fecd 853c
00000160: ac27 4abd 3b06 a73d 7f76 0e3d fd0a 24bd
00000170: 94cb fd3b 30db 2dbd 0e6e fe3c 3ce0 3739
00000180: 5017 f33c 963a 18bd f678 083d f864 553c
00000190: 3dcc 51bd 96a6 813b 84e5 243d fb5d 35bc
000001a0: afe7 3bbd cdbf 223d 4004 80bd f8ef 533c
000001b0: 5cb2 8ebd 6606 bbbc 9248 cc3d 1566 3abd
000001c0: 3799 97bc 1f33 10bd 0744 8fbd 8689 45bd
000001d0: bb93 6bbc dcbb 0f3d ce63 883c f39c 243d
000001e0: 83b4 0738 f5ae bdbc a84c 8fbb de94 acbc
000001f0: e19d 1bbc 0aca 133c a467 33bd 0ab2 763d
00000200: 5f3d ebbc 8776 ef3c 6ad6 c9bc e9bc 3dbd
00000210: 8711 85bc c74a 273d 5b6e d83c 2ab4 123b
00000220: ae24 fc3c 2426 4bbd 6aa3 5b3b 0200 803c
00000230: a612 913b 2886 07bd 76a5 35ba d734 fcbc
00000240: f418 0a3b 2de1 0e3d 45e5 503c 7edc 003d
00000250: 6ca4 23bd d8a1 5ebd a618 b5bd f303 12bc
00000260: 17c3 593d 252d 443d d49d b83c dc85 e53c
00000270: 60cd 893c 344e 813c d7a0 cb3c 524b f03c
00000280: e0f8 a5bc b48a 3abd 9ada a6bd eada 61bc
00000290: 24bd b53c 9ca9 d93c 6123 833b a9f8 cc3b
000002a0: dbaa 9e3c 72bb e73c fd9e 1f3d e376 093c
000002b0: c540 2cbc 1221 053d 207a 9dbc 76f8 a8b9
000002c0: 3b5e 56bd 0fc2 0ebd f69d 143c 0378 953c
000002d0: 6d28 253c 98bd 9cbd 79d0 293d f888 0cbd
000002e0: ea22 b1bb ca5e abbc 072e 0cbc 5aa3 693c
000002f0: 548f 41bd c98c 90bd dfa9 68bd 06d8 91bc
00000300: b8e5 4cbd 8a39 91bd d58c eabc 0193 0cbd
00000310: 1993 f43c 94f1 8abd 6993 513d 3c5c 2d3d
00000320: a5c5 2bbd e303 39bd 8a3f 053d d5e5 8e3d
00000330: e11f ec39 6d68 a3bd 9543 fbbc f0b0 303d
00000340: 3a6c 8dbc dd35 b2bc 9e48 7abd 4c6e 163d
00000350: 6395 b2bd d69c e53c 5df3 f5bb 87c0 21bd
00000360: 6f7b a0bb 9571 c5bc e9da 98bd 7d0c 4dbd
00000370: 07b6 0dbc 1f5d bcbc 7a07 09bd db9f a83b
00000380: feb7 4137 66b8 d5bb a579 c6bc b30e d53c
00000390: 6afb e7bc 6795 14bd c09a b13c 7bbe 8e3b
000003a0: c63c bb3c ffbe 113d f701 cdbc 7e93 08bd
000003b0: b161 333b fc88 3cbd 9e55 64bd f175 6cbd
000003c0: 0404 143c bcae 853c 1848 88bd 1f80 8dbd
000003d0: 294a c3bd 87dd 6a3d 686a 1cbd 6187 a9bb
000003e0: 3ffc 9cba fd32 33bd dfbd c6bc c123 4f3c
000003f0: 8172 82bd a483 aabc edfc 5bbd 9afb ebbc

action_model._continuous_distribution.log_sigma f4 [1, 4]
-0.4205202 -0.47278896 -0.73424083 -0.22046565
00000000: 6c4e d7be 6511 f2be 35f7 3bbf bfc1 61be

action_model._continuous_distribution.mu.weight f4 [4, 256]
-0.022124207 -0.07757341 -0.0086491145 0.06107359 -0.16018282 0.022477847 -0.0973565 -0.072230525
-0.011342251 -0.09879161 -0.009578726 -0.010141424 0.086914934 -0.08119729 0.04712032 0.06752353
0.046144564 -0.02148678 -0.106269315 0.013612601 -0.02042575 -0.057607587 -0.06804573 -0.15843564
-0.084424876 0.055843532 0.051397327 0.08250841 -0.019850086 0.015665472 -0.09559523 -0.06874603
0.054348446 0.04383418 0.050008662 0.070631914 -0.0047044237 -0.005329791 0.0010227974 0.012403035
0.04514642 -0.061461788 0.05006627 0.022269236 -0.12159555 0.022810604 -0.05131093 0.08301735
0.044102132 -0.061445482 0.050846875 0.018432165 -0.027979149 0.025961265 -0.0059863897 -0.072385535
-0.04853724 0.009587795 0.04491294 0.06441105 0.0059255804 -0.050414402 0.13274367 -0.099756084
-0.11725204 -0.06802342 0.046786305 -0.1308006 -0.10156433 -0.058403734 0.10054123 0.00944174
-0.083230436 0.05980028 -0.028882436 -0.024928678 -0.16488315 0.0074853217 -0.06588577 0.043705374
-0.02155865 -0.101827785 0.05411752 0.041888226 0.05652326 -0.05422837 -0.06594806 0.020771233
-0.08900957 0.060371447 0.08043052 -0.05319185 -0.016074397 -0.12611346 0.02521066 -0.063734874
0.052408777 -0.00033523887 0.039918825 0.012657374 -0.04656319 -0.06584194 0.07575826 -0.039952397
-0.11779292 0.042401336 -0.08711764 0.052615106 -0.13379775 -0.017391222 0.09335672 -0.097134046
0.024294088 -0.023070648 -0.098008394 -0.11441989 -0.0036134408 0.089606866 0.07020521 0.0044868616
-0.093151 0.00992768 0.047386397 0.04325704 0.045304783 0.038098365 -0.07521253 0.07752898
0.0311554 -0.039922588 0.0055467593 -0.034659848 -0.11727078 0.06238881 0.032164227 -0.03433987
0.055493794 -0.09473797 0.015911328 -0.02834106 -0.013516811 -0.0028409834 0.006888905 -0.04996883
0.0068231933 0.06270663 0.018930882 0.05016058 -0.06610616 -0.046424527 -0.10390097 -0.086040504
0.028405728 0.070493646 0.06193014 -0.031203099 0.039679628 0.016356304 0.025884748 0.015299815
-0.06093853 -0.15744165 -0.035318363 -0.06017174 0.05035772 0.012627475 -0.00933168 0.04392741
0.06580702 -0.02298022 0.02704581 0.02001785 0.010165403 0.08724805 -0.052524406 0.03038224
-0.0759042 -0.011366474 0.026428249 0.031231184 0.002609209 -0.10293522 0.04345852 -0.042124573
-0.025634957 -0.114906624 0.0028286877 0.098459594 -0.10641755 -0.08087092 -0.028710881 -0.0019444283
0.025204845 -0.05826436 0.0064986986 -0.057823025 0.06405509 -0.08542093 0.07720777 0.047671616
-0.17293136 -0.04694176 0.016411847 0.09363145 0.054497454 -0.07519442 -0.011470912 0.059597358
0.064257815 0.010642618 -0.17713541 0.067715965 -0.14051442 0.036587745 0.031729262 -0.122522905
-0.005291011 0.04752702 -0.10323463 -0.09836347 0.0025195165 -0.03924068 -0.039146397 -0.036707953
-0.023235418 0.08048213 0.053207908 0.008022816 0.028668048 -0.104751185 -0.04845514 -0.11524988
0.05233885 0.021072002 -0.13120623 -0.023167888 0.01908667 0.00603801 -0.10054682 -0.020360088
0.012347765 -0.025292315 -0.11401284 -0.07235938 -0.15551385 0.028338049 -0.02840586 0.015526991
-0.015757762 -0.15996405 -0.10807103 0.0052450155 -0.034901615 0.0390303 -0.008659886 0.003422543
00000000: d33d b5bc cfde 9ebd 04b5 0dbc 4d28 7a3d
00000010: f706 24be 7623 b83c d862 c7bd 99ed 93bd
00000020: d9d4 39bc 4153 cabd 17f0 1cbc 3728 26bc
00000030: 7500 b23d c44a a6bd 3d01 413d c749 8a3d
00000040: 1502 3d3d 0b05 b0bc baa3 d9bd 6307 5f3c
00000050: e753 a7bc eff5 6bbd 8f5b 8bbd f43c 22be
00000060: f3e6 acbd 30bc 643d 0186 523d 2bfa a83d
00000070: a69c a2bc e054 803c 6fc7 c3bd b8ca 8cbd
00000080: 7a9c 5e3d 788b 333d e2d5 4c3d 77a7 903d
00000090: 9127 9abb 87a5 aebb 630f 863a 1936 4b3c
000000a0: 74eb 383d 5bbf 7bbd 4a12 4d3d f96d b63c
000000b0: 1607 f9bd 4edd ba3c 692b 52bd 0005 aa3d
000000c0: 70a4 343d 42ae 7bbd d044 503d 0dff 963c
000000d0: 8734 e5bc b8ac d43c 7a29 c4bb de3e 94bd
000000e0: fcce 46bd 2016 1d3c a2f6 373d f1e9 833d
000000f0: 5f2b c23b 557f 4ebd f5ed 073e eb4c ccbd
00000100: d621 f0bd dd4f 8bbd ffa2 3f3d 98f0 05be
00000110: f600 d0bd c138 6fbd 8fe8 cd3d 87b1 1a3c
00000120: b874 aabd 23f1 743d dc9a ecbc 3a37 ccbc
00000130: 21d7 28be 6e47 f53b 1eef 86bd 6804 333d
00000140: c49b b0bc 168b d0bd 55aa 5d3d fd92 2b3d
00000150: ef84 673d 911e 5ebd c70f 87bd 6f28 aa3c
00000160: a64a b6bd 0d48 773d c2b8 a43d b3df 59bd
00000170: 74ae 83bc e323 01be 9686 ce3c 6e87 82bd
00000180: 96aa 563d 00c3 afb9 ec81 233d e060 4f3c
00000190: 0bb9 3ebd 24d8 86bd 2627 9b3d 20a5 23bd
000001a0: 6a3d f1bd 06ad 2d3d bc6a b2bd f082 573d
000001b0: 4702 09be 0978 8ebc cf31 bf3d 37ee c6bd
000001c0: 6504 c73c a8fe bcbc a0b8 c8bd fa54 eabd
000001d0: 7acf 6cbb ce83 b73d c0c7 8f3d 8606 933b
000001e0: f4c5 bebd b5a7 223c 3d18 423d 4b2e 313d
000001f0: 8291 393d 080d 1c3d 0709 9abd 84c7 9e3d
00000200: 9c39 ff3c de85 23bd 97c1 b53b 7cf7 0dbd
00000210: aa2b f0bd 698b 7f3d a3be 033d f7a7 0cbd
00000220: 764d 633d fb05 c2bd 7958 823c 832b e8bc
00000230: 9d75 5dbc cb2f 3abb 53bc e13b 1eac 4cbd
00000240: 1895 df3b 556c 803d f014 9b3c 2e75 4d3d
00000250: ab62 87bd a527 3ebd 08ca d4bd 0136 b0bd
00000260: 21b3 e83c f95e 903d 75aa 7d3d a49d ffbc
00000270: 1b87 223d a8fd 853c 400c d43c 13ac 7a3c
00000280: ae9a 79bd 6238 21be fda9 10bd a476 76bd
00000290: e643 4e3d 78e3 4e3c e7e3 18bc 3aed 333d
000002a0: d5c5 863d 0441 bcbc 2d8f dd3c 79fc a33c
000002b0: ca8c 263c 1baf b23d d523 57bd 2de4 f83c
000002c0: a973 9bbd 733a 3abc 0e80 d83c 8ad8 ff3c
000002d0: 43ff 2a3b b3cf d2bd 9001 323d d18a 2cbd
000002e0: 6700 d2bc 2a54 ebbd 8161 393b 2fa5 c93d
000002f0: 72f1 d9bd a79f a5bd 1533 ebbc 30dc feba
00000300: 647a ce3c 9ca6 6ebd 09f3 d43b d6d7 6cbd
00000310: 512f 833d 2bf1 aebd 1b1f 9e3d 5043 433d
00000320: eb14 31be 0146 40bd 2372 863c d8c1 bf3d
00000330: b938 5f3d 88ff 99bd 7ef0 3bbc 5c1c 743d
00000340: 9a99 833d 605e 2e3c fc62 35be abae 8a3d
00000350: 03e3 0fbe 08dd 153d 8bf6 013d 4aed fabd
00000360: 3860 adbb b1ab 423d ad6c d3bd c972 c9bd
00000370: 791e 253b d6ba 20bd f957 20bd 145b 16bd
00000380: 3458 bebc d1d3 a43d 89f0 593d 2172 033c
00000390: 41d9 ea3c ca87 d6bd e678 46bd 2108 ecbd
000003a0: 4361 563d 319f ac3c ed5a 06be 95ca bdbc
000003b0: a65b 9c3c 80da c53b 7eeb cdbd 33ca a6bc
000003c0: 484e 4a3c d431 cfbc 907f e9bd 2831 94bd
000003d0: 063f 1fbe 3225 e83c 68b3 e8bc ec64 7e3c
000003e0: 6c16 81bc 9ecd 23be 5854 ddbd 61de ab3b
000003f0: fff4 0ebd 3cde 1f3d 32e2 0dbc be4c 603b

action_model._continuous_distribution.mu.bias f4 [4]
0.09897943 -0.0025031774 -0.007638471 0.041637227
00000000: bab5 ca3d 590c 24bb 244c fabb cc8b 2a3d

onnx::Div_71 f4 [68]
0.29943478 0.14402097 0.011578891 0.1441755 0.28965524 0.1080105 0.011619472 0.13628836
0.2976207 0.14503138 0.011609429 0.1516993 0.27448222 0.067105524 0.011719827 0.13288847
0.28374493 0.11865957 0.011894559 0.15266377 0.25404394 0.044291623 0.011844342 0.13365847
0.26686406 0.088248454 0.012032518 0.14803033 0.2477295 0.03739576 0.012157657 0.13681617
0.25523967 0.06464516 0.012383917 0.14165589 0.2678029 0.036070473 0.01232093 0.14006118
0.25269324 0.049071923 0.01243147 0.13623741 0.2902819 0.035795428 0.012235082 0.14063771
0.25340983 0.038690045 0.012393548 0.13369802 0.29599103 0.03395321 0.012071013 0.13991335
0.24981004 0.031465895 0.012250399 0.13199492 0.28342938 0.03244346 0.011425378 0.14079662
0.2437049 0.028694969 0.012182967 0.13137332
00000000: 844f 993e 3c7a 133e 64b5 3d3c bea2 133e
00000010: b14d 943e 9c34 dd3d 995f 3e3c 2d8f 0b3e
00000020: be61 983e 1b83 143e 7935 3e3c 1057 1b3e
00000030: ef88 8c3e 9f6e 893d 8404 403c ea13 083e
00000040: 0447 913e ca03 f33d 65e1 423c e453 1c3e
00000050: 0c12 823e 226b 353d c50e 423c c4dd 083e
00000060: 68a2 883e 9bbb b43d 0a24 453c 4395 173e
00000070: cdac 7d3e 4c2c 193d e930 473c 8a19 0c3e
00000080: c6ae 823e af64 843d eae5 4a3c 3e0e 113e
00000090: 761d 893e a2be 133d badd 493c 336c 0f3e
000000a0: 0261 813e a4ff 483d 5dad 4b3c d281 0b3e
000000b0: d49f 943e 3a9e 123d a775 483c 5503 103e
000000c0: efbe 813e 7479 1e3d 4f0e 4b3c 22e8 083e
000000d0: 238c 973e 8512 0b3d 80c5 453c 7245 0f3e
000000e0: 34ce 7f3e 62e2 003d e6b5 483c ad29 073e
000000f0: a81d 913e 6fe3 043d 8231 3b3c fd2c 103e
00000100: c78d 793e b611 eb3c 119b 473c ba86 063e

onnx::Div_74 f4 [20]
0.43025246 0.06977687 0.21209627 0.25501403 0.44470105 0.05162279 0.20298545 0.25189796
0.43057767 0.072951 0.20717953 0.25223768 0.46100962 0.033249673 0.1935483 0.2496731
0.45368832 0.061740134 0.18879548 0.2439419
00000000: 0d4a dc3e 2de7 8e3d c42f 593e 3391 823e
00000010: dbaf e33e 6b72 533d 6bdb 4f3e c5f8 803e
00000020: ad74 dc3e 5567 953d df26 543e 4c25 813e
00000030: 7409 ec3e cf30 083d 8731 463e 4eaa 7f3e
00000040: d649 e83e 39e3 7c3d 9a53 413e e8cb 793e

onnx::Div_77 f4 [5]
15.499979 1.2540017 4.141559 1.101683 0.4664851
00000000: eaff 7741 2183 a03f a787 8440 f303 8d3f
00000010: 23d7 ee3e
