Assets/results/3/CoinChaser/CoinChaser-280469.onnx (onnx, 371399 bytes, 13 tensors)

network_body.observation_encoder.processors.0.normalizer.running_mean f4 [68]
000000 af 50 66 3f 94 5e a6 3b 4a 97 86 3a f8 31 8b 3e
       0.89966863 0.0050771926 0.0010268476 0.2718656
000010 cf 2f 64 3f ef 9f 92 3b 68 78 8f 3a e1 59 8c 3e
       0.8913545 0.004474632 0.0010945918 0.27412322
000020 90 66 6a 3f ba d9 a4 3b 69 dc 66 3a 82 eb 88 3e
       0.9156275 0.005030838 0.00088066474 0.26742178
000030 ba fc 64 3f 7c ec 91 3b da e1 97 3a 25 b7 8c 3e
       0.8944813 0.00445324 0.0011587695 0.27483478
000040 81 c6 6e 3f 31 d7 9d 3b 96 ee 3a 3a 88 18 85 3e
       0.9327164 0.0048169126 0.0007130889 0.25995278
000050 0d bd 68 3f 9e f3 8d 3b c9 00 8f 3a 0a a8 8b 3e
       0.9091347 0.00433202 0.0010910268 0.2727664
000060 3b fd 71 3f 7b a2 99 3b 1e f5 1d 3a e4 a7 7f 3e
       0.94527024 0.0046885586 0.00060256 0.24966389
000070 62 69 6d 3f df 9a 84 3b 40 03 96 3a 4e 7b 88 3e
       0.92738926 0.0040467824 0.001144506 0.26656574
000080 ac 61 74 3f 4d bb 8b 3b 41 97 06 3a 77 9c 73 3e
       0.95461535 0.0042642714 0.0005134233 0.23790155
000090 51 98 71 3f e5 23 58 3b 28 8a 40 3a 83 12 83 3e
       0.9437304 0.003298038 0.00073448056 0.2560006
0000a0 68 4b 76 3f 36 18 67 3b f1 72 de 39 ac a5 65 3e
       0.9620881 0.0035262234 0.00042428778 0.2242648
0000b0 37 a5 74 3f e4 9c 2d 3b 48 b2 21 3a 6a 16 78 3e
       0.955646 0.002649122 0.00061682286 0.242273
0000c0 05 e2 77 3f c3 fa 44 3b 88 ee ba 39 48 a6 56 3e
       0.96829253 0.0030056692 0.00035654404 0.20961869
0000d0 13 75 76 3f b1 89 27 3b 89 c9 03 3a 2c 5a 68 3e
       0.9627239 0.0025564248 0.00050272845 0.22690648
0000e0 cc 2d 79 3f 95 a8 1e 3b a5 1b aa 39 22 3c 48 3e
       0.97335505 0.002420937 0.00032445524 0.19554189
0000f0 f2 cd 77 3f ea 30 1e 3b de b5 da 39 60 2f 59 3e
       0.9679862 0.0024138042 0.00041715702 0.21209478
000100 2e 11 7a 3f 38 6c 05 3b f7 c2 a0 39 6d 66 3b 3e
       0.97682464 0.0020358693 0.00030662838 0.18300791

network_body.observation_encoder.processors.1.normalizer.running_mean f4 [20]
000000 0c 3d 99 3e 5e c0 99 3a 98 ce a4 3d 28 96 c4 3e
       0.29929388 0.0011730304 0.08047217 0.3839581
000010 c4 51 9b 3e f0 7a 96 3a 30 07 ab 3d 3d 3d c8 3e
       0.3033582 0.001148073 0.0835098 0.3910922
000020 02 41 a5 3e aa 1b aa 3a 30 81 9d 3d 3a 05 c6 3e
       0.3227616 0.0012978215 0.07690656 0.38675863
000030 51 ca a9 3e 68 c0 99 3a 1c ce b3 3d 96 61 d2 3e
       0.33162168 0.0011730315 0.087795466 0.41090077
000040 2a 99 c0 3e 8c 36 c5 3a 80 d6 96 3d 05 7f cb 3e
       0.37616855 0.0015046163 0.073651314 0.39745346

network_body.observation_encoder.processors.2.normalizer.running_mean f4 [5]
000000 7f f2 4c bd 73 79 12 40 5d 26 a8 be d1 fd 57 3f
       -0.05003595 2.2886627 -0.3284177 0.8437167
000010 52 af f7 3e
       0.48375946

network_body._body_endoder.seq_layers.0.weight f4 [256, 93]
000000 60 83 d6 bc 7d 80 e0 bd 86 4a e7 3d b2 df ff bd
       -0.026185691 -0.10962007 0.11293511 -0.12493838
000010 6e f9 08 3e d5 62 fa 3c f3 70 fc 3b 0c bc 3f bd
       0.133764 0.030564705 0.0077038943 -0.046810195
000020 ce 26 9d 3d 65 84 29 3d 30 4e 12 bd 51 73 05 be
       0.07673417 0.041386027 -0.035719097 -0.13032271
000030 7f 33 26 3d 3c 86 9b 3d 55 82 97 bd 17 cd e7 bd
       0.040576454 0.075939626 -0.07397906 -0.11318415
000040 81 8d 3b be e3 e4 f6 bd f3 9c 9f 3d 80 66 a0 bd
       -0.18315698 -0.120553754 0.077936076 -0.0783205
000050 9f c6 23 3d c8 4e c3 bd 08 e8 99 3d bf 2c 7f bd
       0.03998434 -0.09536511 0.075149596 -0.062298533
000060 c5 7c 42 be 17 2e 29 bd 76 70 1e 3d 24 ba 05 3a
       -0.18992908 -0.04130372 0.03868147 0.00051012845
000070 4a 5d 32 bc 0c 27 74 3d 65 ad 1d bd 4e 01 81 3c
       -0.0108865 0.05960755 -0.03849544 0.015747692
000080 75 7e 59 3d 25 8c ec bd a7 70 cc bd 0f 6b bd bb
       0.053099114 -0.11550168 -0.09982424 -0.0057805846
000090 50 2e 72 3e cb 18 6c bd 9e 9e ec bd c1 59 02 be
       0.2365048 -0.057640832 -0.11553691 -0.12729551
0000a0 b1 ff 4c 3d d5 2d 34 bd 69 5c 84 bd 67 70 3c bd
       0.050048534 -0.04398902 -0.06462938 -0.046005633
0000b0 d8 e8 9b 3c c9 ff 15 bd e3 59 68 3d 5b 4e b0 3c
       0.019031927 -0.03662089 0.056726348 0.021521738
0000c0 f9 c1 b6 bd 8c 7e 9c 3d cf da 75 3c 1e 0f 5e 3e
       -0.08923716 0.076413244 0.015005781 0.21685454
0000d0 be 0c 83 3c 60 1e d3 3c b1 67 0d bd 47 75 9e 3d
       0.015997287 0.02577132 -0.034522716 0.07737213
0000e0 35 c6 dc bd 1d 18 f3 3b db b6 05 be dc 06 fd 3d
       -0.107799925 0.007418646 -0.13058035 0.12354824
0000f0 11 13 41 3e ec cf 00 bd da e7 19 bd af 2a b5 bc
       0.1885493 -0.03144829 -0.037574627 -0.02211508
000100 56 95 61 3e 92 7d f1 3d db bd bd 3a 31 59 80 3d
       0.22029623 0.11791529 0.0014476137 0.06267012
000110 7a 8b fb bc 91 ef c3 3d 34 c1 95 bd 6a 7c bf bb
       -0.030706156 0.09567178 -0.07312241 -0.0058436887
000120 43 f9 1b 3e 72 5f d3 3d 05 29 8b bd 87 ee 70 bd
       0.15231805 0.10320939 -0.06794933 -0.058821227
000130 e6 7c f5 3d 42 1c ee 3d af e1 ae bd 77 db d7 bb
       0.11986713 0.116264835 -0.085391395 -0.0065874415
000140 1f b9 31 3e 7b cf 99 bc 5f 4f d9 3c 60 2a 55 bd
       0.17355774 -0.018775692 0.026527105 -0.052042365
000150 a5 26 5b be 7b 2d 53 bd 14 f5 8e bc 7a fa d1 bd
       -0.2140146 -0.051557045 -0.017450847 -0.10252853
000160 bb fe e7 3c 6d 7a 9f bd 18 62 ea 3d da 12 41 3d
       0.028319707 -0.07787023 0.11444491 0.04713712
000170 b7 cb b4 3d e8 71 53 be 20 66 a6 bc 97 d7 cf bd
       0.08827918 -0.2064892 -0.020312369 -0.101485424
000180 cf 0d 88 3d 8e f7 8a bd 87 60 08 3e df 47 dc bd
       0.06643259 -0.067854986 0.13318072 -0.10755896
000190 ec 05 1e 3e 1c 83 c9 3d 8e 1a 44 3d c8 12 bd 3b
       0.15431947 0.0983946 0.047876887 0.005770061
0001a0 58 6a 5d be df d1 3f bd 3d 7b 33 3d 7e fa dd bd
       -0.21622598 -0.046831008 0.0438187 -0.10838793
0001b0 eb 7a 48 be 49 e6 3c 3d d5 98 28 3d 41 a7 b3 bd
       -0.1957814 0.046118055 0.041161377 -0.087721355
0001c0 3a b3 5b bd 75 e0 0b 3e 99 4a 01 3e 5c 92 17 3d
       -0.05363772 0.13659842 0.12626113 0.037004814
0001d0 88 de ae 3d 26 37 41 bd a8 e5 0c be f7 b4 67 3d
       0.08538538 -0.047171734 -0.13759482 0.056569066
0001e0 bc 3a 06 3d 17 5b 94 3d 00 61 38 3d 72 c5 21 3e
       0.032770857 0.072439365 0.04501438 0.15797976
0001f0 97 2a 8b 3d 32 b4 80 bd fd d9 0b 3e f1 84 12 3e
       0.06795233 -0.062843695 0.13657375 0.14308526
000200 99 55 f8 3d fb e3 88 3e 30 f3 0b be a9 96 14 3e
       0.121257015 0.26736435 -0.13666987 0.14510597
000210 0e 77 3a bc af 9c 29 bd e9 b8 41 be f3 94 c6 bd
       -0.011380924 -0.04140919 -0.18918194 -0.096963786
000220 7f 08 59 3e 72 0a b1 bc 22 f5 41 3c 62 8d e6 3c
       0.21194647 -0.021611426 0.011838229 0.028143588
000230 28 8f fe bd d3 22 c4 3d d2 71 e0 3b e1 f6 12 bd
       -0.12429649 0.09576955 0.006849506 -0.035879973
000240 c7 f7 59 3d ac 4a 14 3d 64 ec 54 be 45 37 24 be
       0.053214815 0.036204025 -0.20793301 -0.16036709
000250 02 16 28 be 5f 4e 21 3e 9d 01 e1 bc c2 9f 9c 3c
       -0.16414645 0.15752552 -0.02746659 0.019119147
000260 0c f0 d6 3d 76 60 d3 3d 31 89 27 be 6b 03 78 be
       0.10495004 0.10321133 -0.16360928 -0.24220054
000270 aa 23 33 bd 64 f2 4b 3d 95 46 87 3c 6d 0c 07 bc
       -0.043735184 0.04979171 0.016513148 -0.008242709
000280 53 bf 8d 3d b1 4b 31 3d 26 d1 72 3d f8 fb a3 bd
       0.06921258 0.043285076 0.05928149 -0.080070436
000290 6a 0a 65 bd de 10 89 bd 57 fc fa bb 1a 52 b9 3d
       -0.055918135 -0.0669267 -0.007659476 0.09048863
0002a0 74 2b 9e 3d a1 22 9f bc 9f 19 18 3e 56 0a d9 3c
       0.07723132 -0.019425692 0.14853524 0.026494186
0002b0 f6 ec 65 bd 38 5e 32 3d 67 33 aa 3d 10 98 26 3e
       -0.056134187 0.043546885 0.083105855 0.16268945
0002c0 8a 28 a0 bd 0d 1d c3 3b f6 99 38 bd 61 33 1d 3d
       -0.07820232 0.005954391 -0.045068704 0.038379077
0002d0 cd 17 3a 3d c3 36 0c be 02 b4 59 3e c2 01 a6 bc
       0.045432854 -0.13692765 0.21260074 -0.02026451
0002e0 8f 6e 0e 3c 6c 51 01 be 9b 2e 9c bd 37 a6 f8 3d
       0.008693351 -0.12628716 -0.07626077 0.12141078
0002f0 f1 ec 92 bc 95 88 1a 3d 93 09 c3 bd 9b ca 8f bc
       -0.017935248 0.03772791 -0.095233105 -0.017552665
000300 bd 63 1b 3d 57 d0 1d 3e 50 2e a0 3b 6f ec 64 bd
       0.037936915 0.15411507 0.0048883334 -0.055889543
000310 15 0b 23 3e 5a bd 16 3e 0c 4e 42 bc ae d6 0c 3e
       0.15922196 0.1472067 -0.011859428 0.13753769
000320 ce e1 67 bd ab 51 29 3d bc dc 2a 3d 2a a0 8d 3c
       -0.05661183 0.04133765 0.041714415 0.017288286
000330 39 65 79 3d ae a0 a0 3c f8 63 08 be fc 42 7f 3e
       0.06088755 0.019607868 -0.13319385 0.24927896
000340 1a f4 95 be 36 77 14 be 24 d1 67 3c 0f 66 0d 3e
       -0.29287797 -0.144986 0.014148984 0.13808464
000350 12 79 b0 bc 97 66 56 be 18 1d 8c 3d ef a7 30 3e
       -0.021542106 -0.20937572 0.06841487 0.17251562
000360 e5 dc 62 3d b3 a4 30 bd 01 76 39 be ee 78 45 be
       0.055386443 -0.04312582 -0.18111421 -0.19284412
000370 c0 40 9e bd 85 6a 5c 3d df c4 c0 3b 6f 6c 82 3e
       -0.07727194 0.053812522 0.005882844 0.25473353
000380 c5 ae 30 3e bf d7 3b 3d 47 74 fe bd 8e 2e 32 3d
       0.1725417 0.04586005 -0.12424522 0.04350143
000390 d2 0a e0 bc 79 50 71 3e 36 31 40 3c fc 1d 88 3d
       -0.02734891 0.23565854 0.011730483 0.06646344
0003a0 19 d2 96 bc 62 17 8f bd 99 88 42 bd 46 78 04 be
       -0.01841073 -0.06986882 -0.04749355 -0.12936506
0003b0 61 e6 f8 3d dc b0 c6 bd c8 8e 16 3e 6d 60 97 bd
       0.12153316 -0.09701702 0.14702904 -0.07391439
0003c0 f7 1e a5 bc fc 33 d1 bb 17 87 33 bd 5c 94 20 3e
       -0.020156367 -0.006384371 -0.043830004 0.15681595
0003d0 03 b8 ca bd 74 a9 82 3d aa 01 06 3e 7d 94 17 3e
       -0.09898379 0.06379977 0.13086572 0.14802738
0003e0 37 dc bf 3d d5 02 12 3e 95 68 03 3c 99 b6 ab bd
       0.093681745 0.14258893 0.00802054 -0.08384437
0003f0 ca 50 91 bb e0 c9 80 3c b9 a2 65 3d f4 9b e0 bc
       -0.0044346796 0.015721262 0.056063388 -0.027418114

network_body._body_endoder.seq_layers.0.bias f4 [256]
000000 57 fb 04 bc 77 aa 4b 3b 23 83 3d bb 3e d6 e1 39
       -0.008116565 0.0031076947 -0.0028917275 0.00043074967
000010 15 56 15 3c fb 3e 05 bb 44 06 30 3c cb 0b 16 3b
       0.009114762 -0.0020331729 0.010743681 0.0022895213
000020 40 7d a6 3b 27 b4 ae 3a b4 02 9a 3c a3 9e c6 bb
       0.005080849 0.0013328836 0.018800117 -0.0060613914
000030 51 22 ce 3b a8 17 2e bb 02 35 a9 39 17 35 b3 3b
       0.006290712 -0.0026564393 0.00032273686 0.0054689753
000040 0a 78 82 3a f5 03 15 bc fa e9 cb 3a 02 19 fd 3b
       0.0009953987 -0.009095182 0.0015557401 0.0077239284
000050 b5 3e 0e bc 3a b1 0b bc 44 7e 72 3b bc 35 81 ba
       -0.008681943 -0.008526141 0.003700153 -0.0009857933
000060 06 74 3d 3c c6 6b 90 3b 4c d5 0c bc 70 48 6a bb
       0.011563307 0.004407379 -0.008595776 -0.0035748743
000070 0b 41 a9 3b 25 3b 49 3c 96 80 07 3c 4c cc aa 3b
       0.0051652244 0.012282168 0.008270403 0.0052123424
000080 5a 37 33 bb ce a9 f4 3b 72 e5 65 39 d9 f8 8e 3c
       -0.0027346225 0.0074665314 0.00021924617 0.017452644
000090 4a 43 31 3c 1c f7 68 bb 4e 74 11 bc 19 aa 89 39
       0.010819266 -0.003554768 -0.008877827 0.0002625741
0000a0 ac 70 ce ba cb 42 ac 3b 37 28 da bb 70 b2 3b 3a
       -0.0015750132 0.005256986 -0.006657626 0.0007160073
0000b0 02 11 c8 ba a6 18 2e 3c 0c 56 cb 3b c0 07 91 3b
       -0.0015263858 0.010625994 0.006205326 0.0044259727
0000c0 99 0e b2 bc 97 44 7d 3a c9 fd 4e 3c e9 0b 98 3c
       -0.021735476 0.0009661405 0.012633749 0.018560367
0000d0 3e 58 c5 bb 60 7d 61 3c a9 f2 fc ba 2e 4e 0b ba
       -0.006022482 0.013762802 -0.0019298393 -0.0005314079
0000e0 56 2d 38 3c 33 7c 1a 3c fa 13 c5 3b 48 2f 16 3c
       0.011241278 0.009429025 0.0060143443 0.009166546
0000f0 4d 3a d7 3b 26 18 85 bb 60 3f 88 bb 8a a7 43 bc
       0.0065682293 -0.0040617166 -0.0041579455 -0.0119418
000100 dc c4 c4 bb 92 98 0b bc b9 57 d8 3b 13 67 96 3c
       -0.006004913 -0.008520262 0.006602254 0.018359696
000110 18 b5 42 3c e2 7c f1 3a c8 55 b8 3b 02 20 8b 3c
       0.011883996 0.0018424059 0.0056254603 0.016983036
000120 61 40 ac 3a 7c 56 3c 3a 79 42 88 3a 4d d6 81 bc
       0.0013141745 0.0007184518 0.0010395787 -0.015849257
000130 41 54 44 3b dd ff b2 bb a5 59 6f bb 04 99 08 3b
       0.0029957446 -0.00546263 -0.0036521938 0.0020843158
000140 cf db f7 3b 96 48 20 3b d3 08 24 ba 0c b7 ee 3b
       0.007564045 0.0024457327 -0.00062574184 0.0072850045
000150 6b 25 0e bb 08 80 1f bb a8 5b f8 39 5a f3 8f 3a
       -0.0021689783 -0.0024337787 0.00047370535 0.0010982559
000160 94 96 1d 39 eb 1e b2 bc 11 03 c3 3a 8c 01 fc b9
       0.00015028781 -0.021743258 0.0014878233 -0.00048066338
000170 3d 13 58 3b b5 af 0c bc 28 17 89 3b 42 e0 3a 3c
       0.0032970451 -0.008586814 0.0041836686 0.011406006
000180 98 70 34 3b 9f 3f 02 3c 70 77 02 3b 46 9b 00 bc
       0.0027532931 0.007949739 0.0019907616 -0.00784952
000190 67 31 6a 3c ed a5 ea 3a cb 24 26 bb 7e 0a 5f 3c
       0.014294005 0.0017902233 -0.002535152 0.013613341
0001a0 bf 4c 8a 39 00 b9 fe 3b 8e 44 0a 3c c1 11 8f 3c
       0.0002637859 0.0077735186 0.008439196 0.01746452
0001b0 fd c8 31 ba ba 75 a9 3c 16 2a b3 3b a9 ac a6 3c
       -0.0006781964 0.02068602 0.0054676635 0.020346003
0001c0 f8 67 00 3b 18 b1 db 3b ca d7 48 3c d5 34 86 3c
       0.001959322 0.006704461 0.012258479 0.016382614
0001d0 30 cb d6 3b 59 6b b6 bb 7a d5 a5 3c 56 68 49 3b
       0.0065549836 -0.005566996 0.020243395 0.0030732355
0001e0 82 72 1a ba 39 5a 9a 3b 8a 17 4b bc b3 ce 90 3c
       -0.0005891697 0.0047104624 -0.012395749 0.017676687
0001f0 d1 f1 88 3c bd ac a8 3b 3b 75 f4 39 37 e6 23 3c
       0.01671687 0.005147545 0.0004662665 0.010003618
000200 b0 af 8f 3c 21 e9 43 3c 89 01 78 3b 1b fe dc 3b
       0.017539829 0.011957438 0.0037842712 0.006744159
000210 3b 33 e8 3b 9d 64 76 bc 8a 79 31 bc e6 7f 3f 3b
       0.0070861853 -0.0150386365 -0.0108322 0.002922052
000220 18 88 93 bb 22 e8 b4 3b a8 7f d0 3a 1f ee f8 3b
       -0.0045023076 0.0055208365 0.0015907185 0.0075967456
000230 af 72 a7 3b 3a cd 29 3c f5 4f 2b bc 67 e2 16 bb
       0.005110107 0.010363871 -0.010456075 -0.002302313
000240 a9 da b2 3b dc 20 e9 3b a5 b5 8e 3a 6b 91 3f bb
       0.005458195 0.007114513 0.0010887875 -0.0029230963
000250 1f 9a 96 3b 4e 64 98 b9 fe ca 50 3a 9b 23 69 bc
       0.0045960094 -0.00029066432 0.00079648185 -0.01422968
000260 6c d3 eb 37 ef ce 44 3c c0 48 2b bc c7 f4 1f bc
       2.8112634e-05 0.012012227 -0.010454357 -0.009762949
000270 25 38 f0 ba 7d b4 6d 3c a5 84 c3 3b 42 6e 78 3c
       -0.0018327279 0.014508364 0.00596674 0.015163006
000280 4d 87 8d 3c 96 5c 9d bb 2a 58 11 b9 ed 65 16 3c
       0.01727643 -0.004802297 -0.00013861121 0.009179574
000290 6e 33 54 39 f4 c0 6d ba e3 81 5e 3b 2e 21 1d bc
       0.00020237055 -0.0009069585 0.003395193 -0.00959043
0002a0 24 85 36 bb 1a 74 23 bc 10 c7 f4 3a 14 17 74 3b
       -0.0027850354 -0.009976411 0.0018675048 0.00372452
0002b0 29 24 a8 3b b1 61 3a bc f4 16 e9 3b e7 46 4a 3c
       0.0051312638 -0.0113758305 0.007113332 0.012346006
0002c0 db 77 a1 bb d1 0f 25 bc 58 ae 9e bb 81 06 a8 3c
       -0.004927618 -0.010074572 -0.0048425607 0.020510914
0002d0 11 32 55 3c e9 32 1d bc 9a 2d 15 3c 61 95 2a 3b
       0.013012425 -0.009594657 0.009105111 0.0026028978
0002e0 66 e7 42 3b a5 7e 49 bb 95 c2 19 bb 1d 66 ad 3b
       0.0029739975 -0.0030745652 -0.0023461927 0.005291714
0002f0 ed 83 64 3b bc ac 19 bc e0 3f d7 3a b8 2d 92 3b
       0.0034868673 -0.009379562 0.0016422234 0.0044610165
000300 7e b1 7e 3c 7c 81 35 bc 30 d5 53 bb 65 8c 14 bb
       0.015545247 -0.011078235 -0.0032323115 -0.002266669
000310 86 cd 9a bb 14 e7 8f 3b 90 22 20 bc dd 7e 07 ba
       -0.0047242073 0.0043915603 -0.009773865 -0.00051687454
000320 45 7b 88 bb 59 7c 1f 3c 3d 1e 62 39 6f 8e 5a bb
       -0.0041650855 0.009734237 0.00021564304 -0.0033349057
000330 66 10 c8 3b 8c 9f a0 3b e9 71 51 bc 6e fa a1 39
       0.0061054705 0.004901832 -0.012783506 0.00030894898
000340 c6 f9 23 3b 83 d6 7e bb 91 50 01 bc d3 dc 9b 3c
       0.0025020703 -0.0038885183 -0.007892744 0.019026196
000350 50 2d df bb c4 e2 a9 bb 8d a3 77 39 70 f0 0a 3c
       -0.0068108216 -0.0051845033 0.00023616683 0.008480176
000360 0a 30 e8 3b 68 ff a1 3b 29 d5 85 bc db 89 f8 3b
       0.007085805 0.004943777 -0.016336994 0.007584793
000370 36 db dc 3c 0e 87 d1 bb 71 a4 ef bb 80 6c ae bb
       0.026959997 -0.0063942736 -0.007313304 -0.005322993
000380 f6 2a 1e bc 17 2a e7 bb 3d 60 82 bb 41 26 23 3c
       -0.009653797 -0.007054578 -0.0039787577 0.009957851
000390 a7 55 07 3c 83 40 b2 3b cf 9d 41 3b 32 59 55 3c
       0.008260167 0.0054398193 0.0029543524 0.013021754
0003a0 df 3a e7 3b bb 0f 9c bb 8e 9b 28 bc ba a9 8b 3b
       0.0070565785 -0.0047626174 -0.010290993 0.0042621763
0003b0 4b 08 cf b9 71 dc d6 3b ce bd 3a bb 52 f8 e0 3c
       -0.00039488295 0.0065570404 -0.002849448 0.027462158
0003c0 e6 d9 7a 3b a5 c0 94 3b 5e 7a 61 3a c8 34 8f 3a
       0.003827685 0.0045395666 0.0008601303 0.0010925764
0003d0 ab 33 60 bc a3 ba 82 3b 34 1b 3f bc c1 b2 ba bb
       -0.013684194 0.003989534 -0.011664201 -0.0056975787
0003e0 43 ef 89 bb 88 1a ae 3c 5d 66 33 3c 57 5a 39 bc
       -0.0042094304 0.021252885 0.010949698 -0.011313043
0003f0 f5 13 94 bb 18 46 58 3b 63 35 4a bc a3 06 21 3c
       -0.0045189806 0.0033000764 -0.01234183 0.0098282425

network_body._body_endoder.seq_layers.2.weight f4 [256, 256]
000000 06 bd 5d bc 53 f9 c4 3d 2a 7a 76 bc 35 aa bb 3c
       -0.013533836 0.09617867 -0.015043775 0.02290831
000010 00 ea 53 3d 5c c5 00 3b 21 9b cd 3d 78 b2 c5 bb
       0.05173683 0.0019648885 0.10039354 -0.006033238
000020 23 ad bf 3c 77 21 99 3d 57 12 19 3c 49 2a 49 3d
       0.023397988 0.07477086 0.0093427515 0.049112592
000030 45 28 c3 3c cb 45 28 bc 2a 36 8f bb e0 d3 00 bd
       0.023822913 -0.010270546 -0.0043704705 -0.03145206
000040 b9 73 c5 bd 20 1e 4d 3d 55 f7 6b 3c 0e 4f 0b bd
       -0.09641213 0.050077558 0.01440223 -0.03401094
000050 40 c1 9e 3a f5 27 5f bc 5a e1 2e bd a0 48 11 3c
       0.0012112036 -0.013620366 -0.04269538 0.008867413
000060 c4 73 cf bb b2 b5 dd bc 9b e1 56 3d 1c 61 3a be
       -0.006330939 -0.027064178 0.052461248 -0.18201107
000070 f3 fe 52 bc 08 e7 39 be e1 a0 6a bd 5a 8d af 3d
       -0.012878167 -0.18154538 -0.057282332 0.085718825
000080 59 d1 9c 3d 6b 01 b9 bd 01 41 10 3d 88 40 f8 bb
       0.076571174 -0.090334736 0.035218243 -0.007576052
000090 1a ca bb 3d c8 c3 bd bc 38 7a c0 bc ee fc 10 3d
       0.09169407 -0.023164645 -0.023495778 0.035397463
0000a0 78 dd 96 bc d3 60 19 3d 8f 6f f8 bc 7b 4c 24 3e
       -0.018416151 0.037445854 -0.030326633 0.160448
0000b0 71 b6 e2 bd 78 db fb 3c f1 92 1a bd cb d2 3e bd
       -0.11069954 0.0307443 -0.03773779 -0.046587747
0000c0 a5 da 81 bc 72 0b b9 bb f2 ac f5 3c 44 03 6d 3d
       -0.015851328 -0.0056471163 0.029989693 0.057864442
0000d0 47 bf 79 bc a6 50 37 3d 34 a7 7a 3b 7b 31 6c 3d
       -0.015243358 0.044754647 0.0038246633 0.057664376
0000e0 b0 d8 8a 3d 80 f4 5a bd 3b bc 78 bd 38 39 e5 bc
       0.06779611 -0.05345583 -0.060726386 -0.027981386
0000f0 68 5b d5 3d 83 2f 0f bc b1 3f a1 bd 67 80 05 3d
       0.10417825 -0.008739355 -0.07873476 0.032593157
000100 39 7d d2 bd e0 25 96 bd 65 a7 48 3d 02 7d f4 3c
       -0.102777906 -0.07331443 0.048987765 0.029844765
000110 ff 17 05 3e e6 65 ad 3a 03 27 7b bd 6a a8 c2 3d
       0.12997435 0.0013229221 -0.0613165 0.09504779
000120 d6 73 c9 3d 9c 5a 06 3d 14 8a 3c 3e 47 fc 23 bd
       0.09836547 0.032801256 0.18412048 -0.040035512
000130 ae 21 f4 3b 9d a0 34 3c b3 d5 ba bb 4d 12 80 ba
       0.007450304 0.011024621 -0.0057017445 -0.0009771079
000140 e1 ec 5d be 67 46 b8 bd 7c 4a 46 3c 8b bc b5 bc
       -0.21672393 -0.08997803 0.012102719 -0.02218463
000150 13 aa 81 bd 0d dd 0a be 04 7b 59 3c 0a 7c de bd
       -0.06331267 -0.13560887 0.013273958 -0.10863502
000160 5d 1c a7 bd 15 2e 7d bc 8f e9 97 3c 92 b9 9e bc
       -0.08159707 -0.015452881 0.018543987 -0.019375596
000170 ca 1b b1 bd 56 32 07 3c 64 bd 29 3d bd 21 3b 3d
       -0.086478785 0.008251747 0.041440383 0.045686472
000180 15 81 67 3d e1 6f 7d 3c ae 05 90 3c 52 9f 99 bd
       0.056519587 0.015468569 0.017580833 -0.07501091
000190 7b d5 a6 bc 8f 98 2e be 1e b8 13 be 6e 8d 9c 3c
       -0.020365467 -0.17050384 -0.14425704 0.019110408
0001a0 b6 82 a5 3c e8 f5 d1 3d e8 71 01 be dc 85 99 3d
       0.02020393 0.10251981 -0.12641108 0.07496235
0001b0 58 12 7f 3d 9c 9b 91 3d 06 28 b7 3c 00 fa 83 bd
       0.062273353 0.07109758 0.022357952 -0.06444168
0001c0 20 dc 55 bc e2 87 a0 bc 2d b1 ea 3d 22 0d 8d 3d
       -0.01305297 -0.019596044 0.11459575 0.068872705
0001d0 1f 5c b8 3d d2 f5 1d bd 60 7f 27 3d b5 f4 3a 3d
       0.09001946 -0.03856451 0.04089296 0.045643527
0001e0 13 92 0b 3c ed 38 11 bd a0 2a 39 3c ac 25 a6 bc
       0.0085187135 -0.03545468 0.0113016665 -0.020281635
0001f0 99 d9 9d 3c 11 21 7e 3d f3 a2 b5 bd 98 1d a9 bc
       0.019268798 0.062043253 -0.08868971 -0.020643994
000200 48 de b5 bc 82 7c 07 3e 61 7c c6 bc 1a b9 e8 bc
       -0.022200719 0.1323109 -0.02422923 -0.028408576
000210 65 19 b7 3d 2f fc 89 3d 07 7d fe bd f5 82 f1 bd
       0.089403905 0.06737553 -0.12426191 -0.11792556
000220 d8 7a 87 bd df 84 f6 bb 70 6b cf 3d 42 d6 17 bc
       -0.066152275 -0.0075231637 0.10127914 -0.009267392
000230 36 6b 8a ba 00 4f 35 bd 56 26 a3 39 ef 8e d8 bc
       -0.0010560516 -0.044264793 0.00031118345 -0.026435344
000240 21 9f 34 bd 4a 8b 50 3c 51 c2 72 bd 94 1c 83 3d
       -0.04409707 0.012728522 -0.059267346 0.06401935
000250 46 b2 09 bb 65 63 91 3d f4 43 89 bd 6b d4 ed 3c
       -0.00210108 0.07099036 -0.06702414 0.029031953
000260 9b a8 cd bd 25 e8 82 3d 4d 4b 69 bd f4 fd 84 bc
       -0.100419246 0.06391934 -0.056956578 -0.016234376
000270 1b 6e 5f bd 27 78 0f 3d 55 34 16 3d 99 da 40 bd
       -0.054548364 0.035026696 0.036671 -0.04708347
000280 65 9e 63 bb ca 88 50 3d 7d 23 9d bd 74 97 f5 bc
       -0.0034731862 0.050911702 -0.076727845 -0.029979445
000290 56 a0 61 3d ef 4e ad bd 5a 28 ef bc 19 5e e2 3d
       0.05508455 -0.08462321 -0.029194046 0.11053104
0002a0 6d 5b 8b 3d e7 94 08 be cd a3 2d 3d ca 03 c1 3d
       0.068045475 -0.13338052 0.04239254 0.09424551
0002b0 65 b9 dd 3c 79 66 01 3d 09 ef bb 3d 9e 07 1c bc
       0.027065942 0.031591866 0.09176452 -0.0095233
0002c0 2d e0 b2 bb fc 21 5b 3d c9 09 e8 3d cd 63 8a 3d
       -0.0054588527 0.053499207 0.11329991 0.06757317
0002d0 8e 76 0c 3c 23 7b 9e bc d3 dd cb 3d d1 b4 83 3d
       0.0085731875 -0.019345826 0.09954419 0.06430972
0002e0 66 59 f3 3c b4 21 b4 bd c7 8a 63 3c 1e 60 ce bb
       0.029705714 -0.08795491 0.013888068 -0.006298079
0002f0 46 67 ba bd 2f 78 86 3d 5b 84 97 3c e3 67 51 3d
       -0.09101729 0.06565892 0.01849573 0.051124465
000300 c9 9d 38 3d 9b fb 59 bd aa e5 22 3d 34 76 2d bd
       0.04507235 -0.053218465 0.039769806 -0.042349055
000310 2a 5e 13 bd 1f 9e 78 3d 21 a3 b1 bc d8 12 f0 3d
       -0.035978474 0.06069767 -0.021684231 0.11722344
000320 14 a4 0b bd 34 42 6a bd 09 e0 59 3d 54 55 33 3d
       -0.034092024 -0.057192042 0.053192172 0.043782547
000330 2d 37 ee 3c 82 0a ad bd c8 94 1b bd 10 ae ac 3c
       0.029079044 -0.0844927 -0.037983686 0.021079093
000340 78 74 02 3d c0 63 b4 3d 05 11 82 bd 9b 77 cc 3c
       0.031849355 0.08808088 -0.063509025 0.024959376
000350 7b 81 00 bd a0 80 25 3c 1b e9 8d 3d 0c 49 5f bc
       -0.031373482 0.010101467 0.06929227 -0.013628256
000360 e1 09 40 bd 9e 9a 32 3d 9b 5d af 3b 1e a4 8e 3d
       -0.04688442 0.043604486 0.005351735 0.069648966
000370 86 12 8f 3d a4 91 89 bc 08 b1 7c bd fc 8e 8b bc
       0.06985955 -0.01679308 -0.061692268 -0.017035954
000380 47 22 d3 3c 4d 21 2f 3d 7b 63 43 bd be aa a4 bc
       0.02577318 0.042756367 -0.047702294 -0.020100947
000390 0f 98 2b bc 4b 9e 0f be a8 94 38 3c 35 df d5 3d
       -0.010473265 -0.14025228 0.011265911 0.10442964
0003a0 be f6 ad bd ca 7d 68 3d ab 87 cd 3d 99 d0 d4 bd
       -0.08494328 0.056760587 0.10035642 -0.10391349
0003b0 14 f6 84 bd 7c 9c e2 3d c5 69 82 3d 93 d8 37 3d
       -0.06492248 0.11065003 0.0636783 0.044884276
0003c0 39 32 02 be da 61 ab 3d 31 38 bd 3d c0 ad d1 bd
       -0.12714471 0.08368273 0.09239233 -0.10238218
0003d0 44 1e f1 3b dd 9d 57 3c 55 14 00 3d 6f 45 a2 bd
       0.0073583443 0.013160196 0.03126939 -0.079234
0003e0 87 47 3e 3b a9 75 b7 3d bd 4d 30 3c df d4 de bd
       0.0029034333 0.08957989 0.010760722 -0.10880446
0003f0 65 24 15 bd 28 22 a1 bd 10 1d 0a bd b6 12 68 bc
       -0.03641166 -0.07867843 -0.033719122 -0.014164617

network_body._body_endoder.seq_layers.2.bias f4 [256]
000000 01 fb d4 3b ff 6a 0e 3b 26 98 63 3c 76 43 a8 3b
       0.0064996486 0.0021731255 0.0138912555 0.005134995
000010 ee bb 54 3c df c4 c6 b7 a6 b6 b5 b8 fb 6c 73 bb
       0.012984259 -2.3695115e-05 -8.6647735e-05 -0.0037143815
000020 ba 27 68 3c bf a1 38 3c 66 06 27 3b 30 a8 ac 3b
       0.014169628 0.011269032 0.0025485992 0.005269073
000030 21 f9 4c 3b 45 5f 3e bc 64 88 20 bb 17 d4 11 bb
       0.0031276422 -0.011619394 -0.0024495358 -0.002225166
000040 b7 bd 02 bc 4e 0d 90 3b d1 9d b5 b9 68 4a 33 ba
       -0.007979802 0.0043961173 -0.00034640593 -0.00068393955
000050 a9 0d f0 3b f5 f0 f0 3a 91 d7 1c 3c c5 41 36 bc
       0.007325847 0.0018382358 0.009572879 -0.011124079
000060 7e ba 3e 3b cb 64 24 3c 18 c3 b5 3c 5c fc e9 bb
       0.0029102857 0.010033797 0.022187755 -0.0071406793
000070 75 fc da 3a 31 b5 ce 3a c7 7e 85 3c 6b 1d 42 3c
       0.0016707318 0.0015770552 0.016295804 0.011847834
000080 ee 1d 2c bc 63 42 51 bb 69 ca 24 3b f0 83 dc bb
       -0.010505183 -0.0031930439 0.002514506 -0.0067295954
000090 83 43 b1 bb 76 43 24 3b bf ce 85 3c bb 6b 14 bc
       -0.0054096594 0.0025064624 0.016333936 -0.009058888
0000a0 e2 c4 a9 3b 23 fa 8a 3b 65 3e 2c 3b 4a 1a 37 3c
       0.005180941 0.0042412444 0.0026282307 0.011175701
0000b0 5e 1a ba bb 09 55 96 bb 78 40 a4 bb e2 9d 6a 3b
       -0.0056794127 -0.0045877737 -0.005012568 0.0035799672
0000c0 e8 65 0d 3c 12 ed f2 bb 52 6a bd 3c d7 b4 93 3c
       0.008630253 -0.007413515 0.023121987 0.018030567
0000d0 af a1 6e 3c b6 a2 67 3b f9 24 ed 39 b0 d7 bd bb
       0.014564916 0.0035344786 0.0004523171 -0.005793534
0000e0 3c 6b 59 3c b7 eb 46 3a fd d5 1d bb 4f 32 e6 3b
       0.013270196 0.0007588225 -0.0024083846 0.00702504
0000f0 46 ab 67 3a 17 7c 15 3c 77 44 2f 3a c4 6e 68 3b
       0.00088374724 0.009123824 0.0006685922 0.0035466412
000100 1f 08 43 3c 4a fb fb bb 71 4f 53 3c ca 5a 1a 3a
       0.011903792 -0.007689868 0.012897358 0.00058881624
000110 12 1d 78 39 5c 12 e7 3a da 01 09 3c a4 c7 8b 39
       0.00023661953 0.0017629373 0.008362258 0.0002666089
000120 7a cc a9 3a d8 14 45 3b ee 03 c6 ba 6a 4d 34 ba
       0.0012954616 0.0030072238 -0.0015107372 -0.00068779907
000130 7c e7 30 bc ae 25 a5 bb 62 50 b1 3b 8e b9 5f 3c
       -0.010797378 -0.005039892 0.0054111937 0.0136550795
000140 f4 4d a8 3b 6c 01 7e 3b 6d 3a 25 bc ed 06 26 bc
       0.005136246 0.0038758172 -0.010084731 -0.010133487
000150 fa 3b 44 bb c9 a7 d7 ba d1 76 7c 3a ed da 53 3b
       -0.0029942975 -0.0016453202 0.0009630742 0.0032326535
000160 57 da 37 3b b1 b3 b5 ba 08 f3 a5 3c 87 9c d9 3b
       0.0028053725 -0.0013862756 0.020257488 0.006640974
000170 6c 77 04 3c a6 d1 1e bc 79 c7 a9 3b 01 a9 82 bb
       0.008085113 -0.009693539 0.0051812497 -0.003987432
000180 df 79 72 bb 29 08 ee bb 3c ed a4 3b e1 36 c7 bb
       -0.003699891 -0.0072641564 0.0050331634 -0.00607954
000190 f9 ce a7 bb 6f c3 1a bc f0 f6 0e 3c 98 35 9c 3b
       -0.0051211086 -0.009446009 0.008725867 0.004767131
0001a0 08 a4 c8 3b ec d5 05 3c 55 b7 12 3c 2a ad b2 bb
       0.0061230697 0.008168679 0.008954843 -0.0054527717
0001b0 98 6c 1f 3c cd 1c a1 3b ad f6 c3 3a 35 8f b3 3a
       0.009730481 0.0049167634 0.0014950834 0.0013699295
0001c0 a2 b2 29 3c 4e 0c 50 ba 22 5e f2 3b 5c 04 43 bc
       0.010357531 -0.0007936404 0.0073964754 -0.011902895
0001d0 57 67 4f ba 6c 83 d2 3a 41 9d 17 bb a6 f5 e4 bb
       -0.0007911822 0.0016060895 -0.0023134502 -0.0069872914
0001e0 d2 9d 50 3b 64 35 98 3b 34 5d e7 bb 16 7a 7a 3c
       0.003183235 0.0046450365 -0.007060671 0.015287897
0001f0 c9 83 1e ba d6 6c 28 3c 92 3b 75 3c 9b e7 81 3c
       -0.0006046859 0.010279855 0.014967816 0.015857508
000200 cc 87 28 3c 23 74 24 bb 9f bb ee bb 46 ee 0f bb
       0.010286283 -0.0025093637 -0.00728555 -0.002196209
000210 00 cb c3 bb 2e 36 5b 3c 95 00 f9 b9 c0 8e ec ba
       -0.005975127 0.013379617 -0.00047493415 -0.0018047914
000220 ed ca b3 39 d5 fc 4d bc fe e1 fb bb 76 47 8a 3b
       0.00034292732 -0.012572487 -0.0076868525 0.0042199446
000230 5a 00 a3 3b 35 3d e9 3b ec f1 b5 bb 5a c7 f1 3b
       0.004974407 0.007117892 -0.005552521 0.007378501
000240 6c 24 2d bc 11 98 92 b8 5b 0b 1a 3b 52 75 86 3c
       -0.010567766 -6.990147e-05 0.0023505304 0.016413365
000250 65 e9 12 3c 7d 7e ba 3b 3c 1d 8c ba 61 57 cc 3b
       0.008966778 0.005691348 -0.0010689865 0.0062360023
000260 33 07 e9 3b 34 15 1a bc e5 64 03 bb 82 24 05 bc
       0.007111454 -0.009404469 -0.0020049151 -0.00812638
000270 b8 85 f1 3a 49 ea 18 bb a7 9f 1e 3a a2 b3 0c bc
       0.0018426692 -0.0023333004 0.0006051012 -0.00858775
000280 a3 fa 70 3b ef d2 6d bc a3 b1 0f 3c 55 73 2d bc
       0.0036770485 -0.0145156225 0.008770379 -0.010586579
000290 0c af 5a 3a b7 ba 0b bb 8b 89 7e 39 c4 5f d8 bb
       0.0008342124 -0.0021321008 0.00024274566 -0.006603213
0002a0 30 10 24 3c 19 dc 32 bc 28 0a ed 3b 4e 99 3e 3b
       0.010013625 -0.010916733 0.0072338767 0.0029083076
0002b0 50 af 36 b9 8c 1b ee bb d7 53 2e bc 4e b7 12 3c
       -0.00017422182 -0.0072664674 -0.010640106 0.008954836
0002c0 0b fb 23 3c 4d 38 a1 3a 12 08 32 3c 4a 23 63 3b
       0.010008584 0.0012300104 0.010866182 0.0034658485
0002d0 75 a8 47 3c aa 50 c2 bb e5 d1 0a bb a9 75 12 3a
       0.012186159 -0.005930026 -0.0021182236 0.0005586991
0002e0 f0 b3 be 3a c9 52 b1 37 99 7e 0b ba 6d 68 2f bb
       0.0014549475 2.1138594e-05 -0.0005321294 -0.0026765123
0002f0 b4 8a 85 3b 89 b1 1a 3c 3e 9f ff ba c0 f2 16 bc
       0.0040753726 0.009441742 -0.0019502414 -0.00921315
000300 95 c4 67 ba f7 b1 30 3b a9 cc 07 bc f6 df 4c bc
       -0.00088412437 0.0026961544 -0.008288541 -0.012504568
000310 ca 11 33 bc a5 b8 84 bb 9a 20 78 ba b3 d9 1d bc
       -0.010929534 -0.0040503317 -0.0009465307 -0.009634423
000320 62 c8 ae bb 50 d3 11 3a 9e b4 04 bc 57 54 c3 ba
       -0.005333946 0.0005562799 -0.008099703 -0.0014902455
000330 ab 16 c9 3a 38 8d 10 3c 6a ff ac 3a 8b 8f ec 3a
       0.0015341839 0.008822732 0.0013198678 0.001804815
000340 be 8b e9 bb a1 fc 9d bb 8a a6 06 bc 61 22 0a 3c
       -0.0071272543 -0.0048213755 -0.008218417 0.008431048
000350 da b7 3e 3b 88 0f be bb 23 1b 20 ba 31 40 83 3c
       0.0029101283 -0.0058001913 -0.00061075593 0.01602182
000360 9a b3 dd bb bd d3 da bb a4 ca 8d bb 9f 5d ff bb
       -0.006765795 -0.006678073 -0.004327135 -0.007793143
000370 f0 98 a8 3b 37 ce 0c 3c ce 4f cd 3a 43 23 0e bc
       0.0051451847 0.008594087 0.0015664042 -0.008675399
000380 a3 1d 9e 3a 96 0d ce 3a 9b 85 15 3c a9 c2 36 3c
       0.0012063276 0.0015720602 0.009126092 0.011154809
000390 a5 52 07 3c 15 f7 d7 ba b7 c1 9b bb 62 df a1 bb
       0.00825945 -0.0016476834 -0.004753317 -0.0049399594
0003a0 5c 3d 0b bc 7e 31 13 bc e3 02 8b 3b 0d 08 0d 3c
       -0.008498516 -0.008983968 0.0042422875 0.0086078765
0003b0 c3 97 79 3a ff bc 59 bb 9f 38 cd 38 40 10 73 3c
       0.00095212104 -0.0033224223 9.785708e-05 0.014835417
0003c0 03 73 5a bb 02 e8 0a bc 37 aa 79 3c d3 00 9a 39
       -0.0033332712 -0.008478167 0.015238336 0.00029373783
0003d0 94 8d 83 3b 3c 35 92 3b 4d 9b 9f 3b cd 9e e1 3b
       0.00401468 0.0044619124 0.004870808 0.0068853856
0003e0 2c d0 04 3c 27 e4 12 3a c7 4e d5 3b 56 71 8e 3c
       0.008106273 0.00056034554 0.006509635 0.017388027
0003f0 84 17 e2 bb ba 55 5f 3c e6 31 26 bc 38 c6 dc 3b
       -0.006899776 0.013631279 -0.010143733 0.0067374967

action_model._continuous_distribution.log_sigma f4 [1, 4]
000000 40 b3 d7 3b d2 30 a7 bc bf 11 1d 3c 2d c0 1d 3c
       0.0065826476 -0.020409022 0.0095867505 0.009628338

action_model._continuous_distribution.mu.weight f4 [4, 256]
000000 5d d9 91 bc fe 9a 0a ba 2b 37 6f bc c6 15 8a bc
       -0.017803842 -0.0005287378 -0.014600555 -0.016856086
000010 52 77 f1 b8 40 fe 83 ba 7f 0d 92 3c 63 26 a2 3c
       -0.00011514001 -0.0010070279 0.017828701 0.019793695
000020 77 5e 22 bd 41 a5 e9 3b 07 25 5c bc d6 36 39 bc
       -0.03964087 0.0071302955 -0.013436562 -0.011304578
000030 ae 09 7b bc bf 12 26 3c b7 71 0e 3a d7 41 01 3c
       -0.015322132 0.010136305 0.0005433815 0.007889233
000040 8c a6 6e 3c 15 50 2d bc 1b 46 72 ba 59 f5 f9 3a
       0.014566075 -0.010578175 -0.0009242014 0.0019070312
000050 1c e1 a8 3c c0 8e b1 3b b9 73 9b bc 05 99 ce 3b
       0.020615153 0.0054186285 -0.01897608 0.0063048624
000060 0a fa 0d ba 47 77 1f bc b6 c0 b1 bc c5 fa 0b 3c
       -0.0005415982 -0.009733028 -0.021698337 0.008543675
000070 be 43 03 3c bf ef 2a 3c aa f1 98 bc c4 c0 f4 3b
       0.008011756 0.0104331365 -0.018669922 0.0074692685
000080 55 d8 05 3b 3f 02 d0 3b 4a 4e a8 3b b8 06 62 3b
       0.0020423133 0.006347924 0.005136286 0.0034488868
000090 e1 68 0b bc fc 42 43 bc 6d 6a d7 bc 50 7d 06 3c
       -0.008508892 -0.011917826 -0.026295865 0.008208588
0000a0 9a 9b f1 ba 77 ed 0d bc 15 6e ee bb 0d 5f 9e 3a
       -0.0018433214 -0.008662573 -0.0072763064 0.0012082771
0000b0 c7 3d c1 3c cb 9a 2d ba 52 db 77 bb 8a 28 dc 3c
       0.023589028 -0.0006622492 -0.0037819934 0.0268748
0000c0 c1 7c 44 bc bb f1 c2 3c 01 75 03 bd 8e d3 ff bc
       -0.011992634 0.023796907 -0.032094005 -0.031228807
0000d0 0b f4 10 bd e5 7b a3 bc e9 1d e8 3b 11 ef 97 bb
       -0.035388988 -0.019956538 0.0070836437 -0.0046366532
0000e0 83 18 f1 bc 39 99 9d bb 82 63 50 bb d4 8c b4 3b
       -0.029430633 -0.0048095253 -0.0031797593 0.005509952
0000f0 7c bb 4f bc 8a 89 43 bc 0e 37 ac 3c 5c 32 4e bb
       -0.012678977 -0.011934647 0.021022346 -0.0031463122
000100 89 2d 76 bc 9d 14 13 bb 7f 82 b4 ba 46 60 8f bb
       -0.015025505 -0.0022442706 -0.0013771801 -0.0043754904
000110 a2 9c 03 bb 7b 83 f5 bc 7a 66 8b bc 08 18 94 3c
       -0.0020082374 -0.029969921 -0.017016638 0.018077865
000120 03 0f 12 3b db e0 4e bc f4 ce ce 3b 72 d1 50 3c
       0.002228678 -0.012626852 0.006311292 0.012745248
000130 d9 2a 47 bc 48 e9 05 bb 82 22 e2 3a 95 f7 24 bc
       -0.012156212 -0.0020433236 0.0017252716 -0.010068794
000140 45 41 e9 3c aa 0b 09 3c a8 9d fa 3c fa a2 f3 3c
       0.028473506 0.008364597 0.030592754 0.0297408
000150 a3 45 89 bc e0 ac 34 3d b4 1c 1c bc 8e c2 5f ba
       -0.016756838 0.04411018 -0.009528328 -0.0008535766
000160 52 0a 6b bc d5 92 7f 37 c1 a8 82 bc 3a 36 78 bc
       -0.014345722 1.5233371e-05 -0.015949609 -0.015149647
000170 78 88 f6 bc 38 1e b3 3c dc 52 01 bc df 07 c7 3c
       -0.03009437 0.021864995 -0.00789329 0.024295745
000180 17 25 64 3b 55 c6 d2 3c 9d 40 8c 3c c8 41 97 3b
       0.0034812146 0.025729338 0.017120654 0.004615996
000190 cc d8 7a bb bd 75 b5 3b 4d 2c 95 bc 8a 4f 31 bc
       -0.0038276194 0.005537717 -0.0182096 -0.010822186
0001a0 e0 06 b9 3c 0b ee 89 bc b2 06 95 bc 64 60 05 3a
       0.022586286 -0.01683714 -0.01819167 0.00050879107
0001b0 09 c6 49 bc 2c 87 a1 bc 62 a4 62 3c 34 63 96 3c
       -0.012315282 -0.019717775 0.013833137 0.01835785
0001c0 a7 07 52 bb 50 e0 95 3c c2 aa c4 bc 91 56 54 bb
       -0.0032048018 0.018295437 -0.024007205 -0.003240023
0001d0 3a be 4b 39 b2 ac 78 bc de 83 bb bb 1c 50 4e 3c
       0.00019430454 -0.0151778925 -0.005722507 0.012592342
0001e0 24 50 0d 3c f9 66 93 3a 69 bf ab 3b e3 0f f3 bb
       0.008625064 0.0011245898 0.0052413237 -0.0074176653
0001f0 5b 40 a5 3a ee 01 d7 bc 39 c7 a1 bc 52 7f e1 bc
       0.001260768 -0.026246037 -0.019748317 -0.027526531
000200 4c 47 02 bc 15 dc 1b bc cd 84 30 3c 14 f7 71 3c
       -0.007951569 -0.009512921 0.01077385 0.014768381
000210 c5 82 ec 3b 22 7f ac bc ca 77 15 3c f7 8f 0d bc
       0.0072177374 -0.021056715 0.009122798 -0.008640281
000220 55 cd bc bc 2d d3 8a 3b 29 d9 11 3d 17 5f 87 bc
       -0.023047129 0.0042366 0.03560749 -0.016524835
000230 7c 92 66 bc f9 8b a4 3c 0d 20 b2 3c a2 74 c3 3b
       -0.0140730105 0.020086275 0.021743799 0.0059648314
000240 90 76 65 39 fa a7 aa bb 3e d6 cc 3c d7 5a b0 3c
       0.0002188331 -0.0052080126 0.025004502 0.02152769
000250 f2 58 84 bc fc 05 dd 3b b0 ae a4 bc e2 77 62 bc
       -0.016155694 0.006745098 -0.020102829 -0.013822528
000260 24 83 86 bb 5c bc a1 3c f3 c8 2e 3c c1 d3 eb 3c
       -0.0041049886 0.019743137 0.010668027 0.028787496
000270 97 4e 5f bc 8d 58 44 bc 9e c6 78 bc 05 4e 07 bc
       -0.013629577 -0.011984003 -0.015184073 -0.008258347
000280 a3 73 83 bc ea 1e 77 3c c5 9e 09 3a 54 05 32 3c
       -0.01604635 0.015083054 0.0005249794 0.010865528
000290 38 ad 9a bc b9 96 37 bc b7 4d 16 bb de e3 0c 3c
       -0.018881425 -0.011205369 -0.0022934505 0.00859925
0002a0 d7 98 a2 3c b6 f6 da 3c 1c 06 8a bc 92 16 98 bc
       0.01984827 0.026728969 -0.016848616 -0.01856545
0002b0 a9 1e c2 bc 9d f8 a9 3b 72 46 96 3b b7 aa fe bb
       -0.02369626 0.0051871077 0.0045860345 -0.0077718156
0002c0 97 2b e1 bb 15 2e 32 bc d6 54 88 bc 2b dd 29 bc
       -0.0068716514 -0.010875245 -0.016642015 -0.010367672
0002d0 50 bd d6 bc 06 f6 1b 3a 5e 13 cf bb 50 48 28 bc
       -0.026213318 0.0005949441 -0.0063194474 -0.010271147
0002e0 04 e4 d6 bb e0 e2 1e bc b3 a6 67 bc 44 c4 88 3c
       -0.0065579433 -0.009697646 -0.014138865 0.01669515
0002f0 0a c9 c2 bc de e3 21 bd a5 e0 44 3c 59 25 33 3c
       -0.023777504 -0.03952395 0.01201645 0.010934197
000300 34 d8 0b 3c 9f 63 ca bc ce 9a e1 ba b0 ec b8 3c
       0.008535434 -0.024705706 -0.0017212273 0.022573799
000310 3a 15 01 3c c9 1c 17 bc 09 6c 8c 3a d9 f6 6f 3c
       0.007878596 -0.0092231715 0.0010713349 0.014646255
000320 99 fa b3 3b b5 66 0f bc 7b 95 5a 3c 09 9d 9a bc
       0.00549252 -0.008752515 0.013341303 -0.018873708
000330 51 91 f3 3c 8c 7c 03 bd e5 b1 2c 3d 5d 24 61 bc
       0.029732378 -0.0321012 0.04216184 -0.01374158
000340 06 3d c3 bb b0 15 32 3d 23 8e e1 3b 85 34 00 bc
       -0.0059582023 0.043477714 0.006883399 -0.007825022
000350 44 96 8c bb 8e a4 40 3c ad 6f 7e bc 8e 57 d0 3a
       -0.004290374 0.011757983 -0.015529555 0.0015895234
000360 4c b3 4d 3c a4 af 64 3c e4 72 96 3c ed 06 ca bb
       0.012554955 0.013957892 0.018365331 -0.0061653764
000370 4b 97 d3 3c 93 8a ad bb 76 98 ed 3b 2e 3e 95 3c
       0.025828978 -0.0052960603 0.007250841 0.018218126
000380 4d 7e d3 bb 93 37 83 bc 9e a6 91 bc 33 76 2e bc
       -0.006454265 -0.01601771 -0.017779645 -0.010648298
000390 de 5e 29 3b 24 91 78 3a 6c 6f 22 3b 5a 0e a8 3c
       0.0025843899 0.0009482077 0.002478565 0.020514656
0003a0 42 6e 08 3c 9e be 08 3d fb 7a 8d bb bf 7e bb bc
       0.008327069 0.03338491 -0.004317639 -0.022887586
0003b0 6b 51 e3 3c d1 58 9a 3b e0 b1 b8 3c e6 86 6e 3c
       0.027748784 0.004710295 0.022545755 0.0145585295
0003c0 8a 98 d6 3c ad e6 bd 3c 15 f9 a5 bc 9e 54 e9 3b
       0.026195783 0.023181284 -0.020260373 0.007120683
0003d0 73 e5 02 bd 4c 84 ef bc 66 4d 75 3b 7f 6b bc bc
       -0.0319571 -0.029237889 0.0037430166 -0.023000477
0003e0 a9 fc 0f bc d7 32 65 bb 37 29 74 bc ab 9b 35 3c
       -0.008788266 -0.003497293 -0.0149024045 0.011084477
0003f0 e7 2d 1d bc e0 80 53 3b 7d 46 9c 3b e6 37 aa bc
       -0.0095934635 0.003227286 0.004769145 -0.020778608

action_model._continuous_distribution.mu.bias f4 [4]
000000 93 08 3b bc 1f 37 ca 3b 31 07 0f 3b 25 65 26 bb
       -0.0114156185 0.0061711217 0.0021824355 -0.0025389877

onnx::Div_71 f4 [68]
000000 45 d4 99 3e 01 9c 91 3d 19 6a 03 3d 89 bc 30 3e
       0.3004476 0.071098335 0.032083604 0.1725942
000010 b4 55 9f 3e 6f be 88 3d 4a a9 07 3d 66 83 32 3e
       0.31120074 0.06676947 0.03312043 0.17432937
000020 c5 4f 8e 3e 86 f2 90 3d 87 7d f3 3c 6d f2 2e 3e
       0.27795234 0.07077508 0.029722942 0.17084666
000030 e2 4c 9d 3e 21 6b 88 3d 8f 90 0b 3d 1b 74 34 3e
       0.3072272 0.06661058 0.03407341 0.17622416
000040 16 44 80 3e 7f d9 8d 3d 81 39 db 3c 7e cb 2d 3e
       0.25051945 0.0692625 0.026760818 0.16972157
000050 36 29 93 3e 09 8f 86 3d de 70 07 3d 31 a7 34 3e
       0.2874238 0.065702505 0.033066623 0.17641903
000060 1d eb 68 3e f9 f4 8b 3d 9c 9f c9 3c 0d 02 2c 3e
       0.22745939 0.06833834 0.02461224 0.16797657
000070 8c dd 84 3e 59 13 82 3d bf b4 0a 3d 2c e4 33 3e
       0.25950277 0.063513465 0.03386378 0.1756751
000080 79 26 55 3e 05 82 85 3d 84 37 ba 3c 7b fb 29 3e
       0.20815457 0.0651894 0.02273155 0.16599838
000090 02 fb 6b 3e 6c f7 6a 3d 97 78 de 3c fe 0d 31 3e
       0.2304497 0.057364866 0.027157111 0.17290494
0000a0 3b 93 43 3e 28 ec 72 3d 98 69 a9 3c 03 6a 26 3e
       0.19099133 0.059307247 0.020680234 0.16251378
0000b0 ac d4 52 3e a8 ae 52 3d bd fa cb 3c 16 18 2d 3e
       0.2058894 0.051436096 0.024899835 0.1690372
0000c0 92 6f 33 3e bd 5a 60 3d a3 6d 9b 3c a8 e3 21 3e
       0.1752303 0.054774035 0.018973177 0.158095
0000d0 c4 fe 41 3e 68 fa 4e 3d 0a 48 b8 3c d7 ca 27 3e
       0.18944842 0.050531775 0.022495288 0.16385971
0000e0 30 eb 24 3e 91 70 49 3d 32 58 94 3c 57 9f 1d 3e
       0.16105342 0.049179617 0.018108461 0.15392815
0000f0 da 45 34 3e e7 24 49 3d de fe a7 3c a4 47 23 3e
       0.17604771 0.04910746 0.020507272 0.15945297
000100 5b 15 1a 3e 9b c9 38 3d 2f 42 90 3c 43 20 19 3e
       0.15047209 0.04511414 0.017609684 0.14953713

onnx::Div_74 f4 [20]
000000 bf 78 ea 3e b7 6a 0c 3d 6a 47 8b 3e 5f e0 8e 3e
       0.45795247 0.03428146 0.27202922 0.27905557
000010 79 5f eb 3e d5 eb 0a 3d 14 a6 8d 3e fd ce 8f 3e
       0.45971277 0.033916313 0.2766577 0.28087607
000020 e8 60 ef 3e 99 aa 13 3d 23 6c 88 3e 47 fb 8d 3e
       0.4675362 0.036051366 0.26645002 0.27730772
000030 a4 0c f1 3e ca 6a 0c 3d d3 e5 90 3e 21 0e 91 3e
       0.47079957 0.03428153 0.28300342 0.28331092
000040 ca 06 f8 3e 44 f3 1e 3d 3d bd 85 3e 39 f9 8c 3e
       0.4844268 0.038806215 0.2612094 0.27533892

onnx::Div_77 f4 [5]
000000 0b 0c 91 41 8e 12 ac 3f 28 c7 d7 40 f3 44 90 3f
       18.13088 1.3443162 6.743061 1.1271042
000010 dd dd ff 3e
       0.49973956
