Assets/results/3/CoinChaser/CoinChaser-8999874.onnx (onnx, 371399 bytes, 13 tensors)

network_body.observation_encoder.processors.0.normalizer.running_mean f4 [68]
0	0x3f65db3d	0.89787656
1	0x3cb8bdf8	0.022551522
2	0x390bb255	0.00013322507
3	0x3e70f55a	0.23531094
4	0x3f67eeb8	0.9059863
5	0x3c4c5412	0.012471216
6	0x390bed9e	0.00013344592
7	0x3e653dd2	0.22386864
8	0x3f661567	0.8987641
9	0x3cbae906	0.022816192
10	0x390d17e4	0.00013455708
11	0x3e779926	0.24179515
12	0x3f6ab63e	0.9168433
13	0x3b9ace56	0.004724304
14	0x390e06ad	0.00013544662
15	0x3e5ddf85	0.21667297
16	0x3f68b4ad	0.9090069
17	0x3c753643	0.01496655
18	0x39146f2e	0.00014155798
19	0x3e71378a	0.23556343
20	0x3f6e0c99	0.9298797
21	0x3b039c95	0.0020082344
22	0x39110e5f	0.00013833631
23	0x3e5bb3ed	0.21455355
24	0x3f6bb7ec	0.9207752
25	0x3c04b102	0.008098843
26	0x3917cfd3	0.00014477903
27	0x3e6403c7	0.22267066
28	0x3f6f0d94	0.93380094
29	0x3ab67870	0.0013921391
30	0x391847df	0.00014522624
31	0x3e5b06c7	0.21389304
32	0x3f6db2f2	0.92851174
33	0x3b8c3922	0.0042792717
34	0x39208d93	0.0001531153
35	0x3e57c6af	0.21071886
36	0x3f6c20ae	0.92237365
37	0x3aa84495	0.0012837822
38	0x391c9753	0.00014933692
39	0x3e580c88	0.2109853
40	0x3f6e370e	0.93052757
41	0x3b1f2d05	0.0024288308
42	0x3921b7fd	0.00015422697
43	0x3e4ea8bc	0.20181555
44	0x3f687ed4	0.90818524
45	0x3aa4524a	0.0012536731
46	0x391a4283	0.00014711362
47	0x3e51ae86	0.20476732
48	0x3f6e3a9a	0.9305817
49	0x3ac33398	0.0014892695
50	0x391fda26	0.00015244688
51	0x3e4a2ecd	0.19744416
52	0x3f67924a	0.90457594
53	0x3a925dbd	0.0011166852
54	0x3916a655	0.00014367078
55	0x3e4c2513	0.19936018
56	0x3f6ed6f2	0.9329673
57	0x3a7e92da	0.00097112136
58	0x391c1f97	0.00014889087
59	0x3e4852fc	0.19562906
60	0x3f69c7fc	0.91320777
61	0x3a85aa84	0.0010197912
62	0x3907da05	0.00012955822
63	0x3e4b2f24	0.19842201
64	0x3f6fb69c	0.93638015
65	0x3a517cc1	0.0007991307
66	0x391ab9c2	0.00014755785
67	0x3e4727f0	0.19448829

network_body.observation_encoder.processors.1.normalizer.running_mean f4 [20]
0	0x3e792d6c	0.24333733
1	0x3bad0d64	0.0052811373
2	0x3d45e1c0	0.048310995
3	0x3e99d8ef	0.3004832
4	0x3e8b318a	0.27186233
5	0x3b3bcc8b	0.0028655853
6	0x3d32ea19	0.043680284
7	0x3e99332d	0.29921857
8	0x3e78da86	0.2430211
9	0x3bbbd6da	0.0057323994
10	0x3d3c0780	0.04590559
11	0x3e9c6447	0.30545256
12	0x3e9def71	0.30846742
13	0x3a998105	0.0011711424
14	0x3d205771	0.03914589
15	0x3e9ebd59	0.31003836
16	0x3e93f098	0.28894496
17	0x3b84aa99	0.004048657
18	0x3d17f39a	0.03709755
19	0x3e9ff643	0.3124257

network_body.observation_encoder.processors.2.normalizer.running_mean f4 [5]
0	0x3f328e29	0.6974817
1	0x3ff16c30	1.8861141
2	0xbfa6d7e8	-1.3034639
3	0x3f6a19bc	0.9144552
4	0x3f300dea	0.6877123

network_body._body_endoder.seq_layers.0.weight f4 [256, 93]
0	0x3e96ce08	0.29454064
1	0xbd8b610c	-0.068056196
2	0x3d2e2bbd	0.04252218
3	0x3c928845	0.017887244
4	0x3c8fb5da	0.017542768
5	0xbe7256f1	-0.23665978
6	0xbdb47d95	-0.08813015
7	0x3df64608	0.12025076
8	0x3db65410	0.089027524
9	0xbdde7230	-0.10861623
10	0x3e22009c	0.15820545
11	0xbddeafe4	-0.10873392
12	0xbcba010b	-0.022705575
13	0xbdf5e050	-0.12005675
14	0xbc0d83c8	-0.008637376
15	0xbd166530	-0.036717594
16	0x3d0990c8	0.03358534
17	0xbe41b52d	-0.1891677
18	0xbd6eca70	-0.05829853
19	0xbe4fa62b	-0.20278232
20	0xbdb8eb7c	-0.0902929
21	0xbe4493ea	-0.1919705
22	0x3da0c01d	0.07849143
23	0x3c2a19e2	0.0103821475
24	0xbdbabc9b	-0.09118005
25	0xbdaac3d5	-0.08338133
26	0xbd826045	-0.06366018
27	0x3c597154	0.013271648
28	0x3de3ddb1	0.11126269
29	0x3c12e455	0.008965571
30	0x3dade03b	0.08490034
31	0xbcc14bed	-0.023595775
32	0x3dc0c4d2	0.094125405
33	0x3d266d4a	0.04063157
34	0xbda8ebed	-0.08248124
35	0xbe3864f1	-0.18007256
36	0x3b7bbe58	0.0038413014
37	0xbddb7c04	-0.107170135
38	0xbd1aa3ad	-0.03775375
39	0xbe29166c	-0.1651246
40	0xbe12adfe	-0.14324185
41	0x3d98d86b	0.074631535
42	0x3e0b0040	0.13574314
43	0xbd505260	-0.05085981
44	0xbdf70157	-0.120608024
45	0xbc1143f0	-0.008866295
46	0xbd0e20b5	-0.03469916
47	0xbeb5b01e	-0.3548593
48	0x3e2aac1c	0.16667217
49	0xbdab5f0f	-0.0836774
50	0xbe0bc1e4	-0.13648182
51	0x3b3fb241	0.0029250535
52	0xbd4e9c91	-0.050442282
53	0x3cafa5fd	0.021441454
54	0x3e3f4802	0.18679813
55	0x3aba325d	0.0014205683
56	0xbdddb496	-0.1082546
57	0x3e15803d	0.145997
58	0xbd473215	-0.048631746
59	0x3e34de56	0.1766294
60	0x3e1b5bd9	0.15171756
61	0xbd451c4e	-0.048122697
62	0xbb07bf91	-0.0020713548
63	0xbdea1226	-0.11429243
64	0x3cfa87a7	0.030582262
65	0xbcd52746	-0.026019704
66	0x3de9fabc	0.11424777
67	0x3e200614	0.15627319
68	0x3bb43ba3	0.0055002733
69	0x3c8fb54c	0.017542504
70	0xbe46a635	-0.1939934
71	0xbd83a78d	-0.06428442
72	0xbcff4d8e	-0.03116491
73	0xbe058129	-0.13037552
74	0xbe9e1073	-0.30871925
75	0xbd080010	-0.033203185
76	0xbd300e2f	-0.042982277
77	0x3d812aeb	0.06307014
78	0xbd01a913	-0.031655382
79	0x3c82861c	0.015933089
80	0xbd91cab3	-0.0711874
81	0x3de0f8f3	0.10984983
82	0xbe168b8e	-0.14701673
83	0xbdfbba27	-0.12291365
84	0xbdd3761f	-0.10325264
85	0xbd9f79bb	-0.0778689
86	0xbdec7b9b	-0.11547013
87	0x3dec06bb	0.11524721
88	0xbdf7a2c1	-0.1209159
89	0xbe5a324b	-0.21308248
90	0x3d49908c	0.049210116
91	0xbb4c3a58	-0.0031162705
92	0x3e0a20a9	0.13489021
93	0x3d27484e	0.04084044
94	0x3d2b7f53	0.041869473
95	0x3df125cc	0.11774787
96	0x3d48aac6	0.048990987
97	0x3abdc31e	0.0014477705
98	0xbdac32e7	-0.08408146
99	0xbd3b74f1	-0.04576582
100	0xbd0bcb9a	-0.034129716
101	0x3e5a03a5	0.21290453
102	0x3d7d049c	0.061771974
103	0x3dd1dc50	0.102470994
104	0xbd1d6ec7	-0.038435724
105	0x3e1b23fe	0.15150449
106	0xbe735ca5	-0.2376581
107	0x3c79238c	0.015206229
108	0x3d7a6bc7	0.06113794
109	0xbdb69cc2	-0.08916618
110	0xbd5bf569	-0.05370084
111	0x3e1fc65d	0.15603013
112	0xbd1d9da3	-0.038480412
113	0xbea85a68	-0.32881474
114	0x3ea7165d	0.3263425
115	0x3e5d897a	0.21634474
116	0x3d7fb8d9	0.062432144
117	0xbc58e695	-0.013238569
118	0xbdc4bbe0	-0.09606147
119	0x3d697b68	0.057002455
120	0xbe345168	-0.17609179
121	0xbcd2d979	-0.025738465
122	0x3d619fba	0.055083968
123	0x3cf33d8a	0.02969243
124	0x3d9f01dc	0.077640265
125	0xbd04cf09	-0.032424007
126	0x3e1292d6	0.14313826
127	0xbdb289d9	-0.087176986
128	0xbe02a121	-0.12756778
129	0xbde0232f	-0.10944211
130	0xbcc357e6	-0.023845624
131	0x3de27ade	0.11058591
132	0xbd9fa14a	-0.07794435
133	0x3c00579c	0.007833388
134	0xbe8425e6	-0.25810164
135	0xbb49fa07	-0.0030819194
136	0x3e01c0e6	0.12671241
137	0x3e4e764e	0.20162317
138	0x3e2a73a0	0.1664567
139	0xbb1b5e07	-0.0023707168
140	0x3e0d5efc	0.13805765
141	0x3e21c037	0.1579598
142	0x3cab20d8	0.020889685
143	0x3e329b49	0.17442049
144	0xbce7c876	-0.02829383
145	0x3d027571	0.031850282
146	0x3e06e7a7	0.13174306
147	0xbdd269d8	-0.10274094
148	0x3bb13a34	0.0054085497
149	0xbd8af7e3	-0.06785562
150	0x3c377a6a	0.011198619
151	0x3cdf6922	0.02727181
152	0xbdb5a6ed	-0.08869729
153	0xbe0a136d	-0.13483973
154	0x3e4d68ff	0.20059584
155	0xbdc090ed	-0.094026424
156	0x3e44d9a7	0.19223653
157	0xbd6fc063	-0.058533084
158	0x3e342f7d	0.1759624
159	0xbcf56356	-0.029954594
160	0xbd93f308	-0.07224089
161	0xbb8b7fc6	-0.004257175
162	0xbde65fac	-0.11248717
163	0x3e6fb37f	0.23408316
164	0xbdd3480b	-0.103164755
165	0x3d6ef753	0.058341336
166	0x3e13818f	0.14404891
167	0x3e0e8f2f	0.13921808
168	0x3dbe8422	0.09302546
169	0x3e12bc10	0.14329553
170	0x3d932598	0.07184905
171	0xbd356728	-0.04428783
172	0x3da1024f	0.078617685
173	0xbe4ec0b2	-0.20190695
174	0xbd721d02	-0.059109695
175	0xbe4c8cf0	-0.19975638
176	0x3dedbdd9	0.11608476
177	0x3b815611	0.0039470275
178	0x3e166765	0.1468788
179	0xbdc95442	-0.09830524
180	0xbd5d1f13	-0.053984713
181	0xbde7b01a	-0.113128856
182	0xbe6068a0	-0.21914911
183	0x3de6ea98	0.11275214
184	0xbe3be3ad	-0.1834857
185	0xbdab5b8a	-0.08367069
186	0x3c0c04ba	0.008546049
187	0xbdb952fe	-0.09049033
188	0x3db017b4	0.08598271
189	0xbd6b4d8a	-0.057446994
190	0xbd03f5ac	-0.032216713
191	0xbea17d0a	-0.3154071
192	0xbca15c17	-0.019697232
193	0xbd934c32	-0.071922675
194	0x3e4a740c	0.19770831
195	0xbe559dd5	-0.2086099
196	0x3dea53b8	0.11441749
197	0xbd058ac3	-0.032603037
198	0xbd1facc8	-0.038983136
199	0xbe2b5910	-0.16733193
200	0x3dc07642	0.09397556
201	0xbd5c601d	-0.0538026
202	0x3cc1448e	0.02359226
203	0xbd80c379	-0.062872835
204	0xba8aede2	-0.0010599459
205	0xbe0732e2	-0.13203004
206	0xbb095041	-0.0020952376
207	0xbd8ed12f	-0.06973492
208	0xbd9bf6df	-0.07615446
209	0xbd609ae2	-0.054835208
210	0xbdbb6bd1	-0.09151424
211	0x3e77d7ed	0.24203463
212	0xbdc72a27	-0.09724837
213	0xbd1a977a	-0.037742116
214	0xbd969231	-0.073521025
215	0xbc3d85c6	-0.011567539
216	0xbdf91506	-0.12162213
217	0xbe249275	-0.16071494
218	0xbdcc4d6e	-0.09975706
219	0x3e0a1e65	0.13488157
220	0x3e5efdf9	0.2177657
221	0x3e57e63c	0.21083921
222	0x3d0c4b1c	0.034251317
223	0xbe30b781	-0.17257501
224	0x3dd964e3	0.10614946
225	0xbd9423eb	-0.07233413
226	0x3df1c65f	0.118054144
227	0x3bdb4433	0.0066914796
228	0x3e141d3d	0.14464279
229	0xbd2d7c56	-0.042354904
230	0x3d864fc1	0.065581806
231	0x3e102e91	0.14080264
232	0xbda310ca	-0.07962187
233	0xbdd5fb9c	-0.10448381
234	0x3d9a2ada	0.075277045
235	0x3c90285b	0.017597368
236	0x3d40b7e0	0.047050357
237	0x3d1ae03c	0.037811503
238	0xbce5b4e0	-0.02804035
239	0x3d3694dc	0.044575557
240	0xbe0dd130	-0.1384933
241	0xbe0757ae	-0.13217041
242	0xbdef8754	-0.11695734
243	0x3e98ebdd	0.2986745
244	0x3ca2dc5d	0.019880468
245	0x3d546d6e	0.051862173
246	0x3d878271	0.066166766
247	0x3d824d64	0.06362417
248	0x3d9d3795	0.07676617
249	0x3dd2674f	0.10273611
250	0xbde45e24	-0.111507684
251	0x3e4aeeec	0.19817704
252	0x3d5dc50a	0.05414299
253	0xbd3081cf	-0.043092545
254	0x3c016002	0.007896425
255	0x3cabdf8f	0.020980624

network_body._body_endoder.seq_layers.0.bias f4 [256]
0	0xbc8a6846	-0.016895425
1	0xbda18fe4	-0.07888773
2	0xbd17bc0f	-0.03704458
3	0xbc96510c	-0.018349193
4	0xbd0da3a9	-0.034579907
5	0x3d203800	0.039115906
6	0xbcb3b033	-0.021934604
7	0x3d2fcd6d	0.04292052
8	0x3da4c30e	0.08045016
9	0x3d15a6d3	0.03653605
10	0xbc9e9926	-0.019360136
11	0xbd1745f9	-0.036931966
12	0x3cfa9111	0.030586751
13	0x3c6edd45	0.014579122
14	0x3c474a74	0.012163747
15	0xbb492b07	-0.0030695812
16	0x3d7c3a3a	0.061578967
17	0xbb0c1ff8	-0.002138136
18	0x3d7d741b	0.061878305
19	0x3d123083	0.035690796
20	0xbdc38247	-0.09546333
21	0x3cc3fa4a	0.023923058
22	0xbc6a1b69	-0.014288762
23	0xbcb2a935	-0.0218092
24	0xbc2c48f2	-0.010515438
25	0xbbdb1bbd	-0.0066866563
26	0xbc389b48	-0.011267491
27	0xbdc13b2e	-0.09435116
28	0x3c8ffeb5	0.017577508
29	0xbd63f04a	-0.05564908
30	0xbce0bcbf	-0.027433751
31	0xbc178da4	-0.009250078
32	0xbbdecc1d	-0.0067992345
33	0xbd2619ec	-0.040552065
34	0x3d279070	0.04090923
35	0xbd665e80	-0.056242466
36	0xbabc4362	-0.0014363343
37	0xbd26ce64	-0.040724173
38	0x3c4eab39	0.012614065
39	0xbcbc96e1	-0.023021163
40	0x3cc91f27	0.024550987
41	0x3d2fcdd0	0.042920887
42	0x3d8b25c7	0.06794315
43	0x3c0924f4	0.008370627
44	0xbd67a7ae	-0.056556396
45	0xbb74066d	-0.0037235275
46	0x3d18f78f	0.037345465
47	0x3d218c57	0.03944048
48	0x3b178591	0.0023120383
49	0x3b33f7ba	0.002746089
50	0x3c274531	0.010209368
51	0x3d9be6de	0.07612394
52	0xbd882300	-0.06647301
53	0xbd9b2c69	-0.0757683
54	0xbd50b816	-0.050956808
55	0xbc91571f	-0.017741738
56	0x3a82a830	0.0009968337
57	0x3bcbc1d3	0.006218174
58	0xbca83ba7	-0.020536257
59	0xbcb02722	-0.021503035
60	0x3cd09ff7	0.025466902
61	0xbd21a439	-0.039463256
62	0x3d21e3e4	0.039523974
63	0xbcbbda1e	-0.022931155
64	0x3bfe1d22	0.0077549377
65	0x3dc54916	0.09633081
66	0x3d457d9b	0.04821549
67	0x3d4735e1	0.048635367
68	0x3c8d1b56	0.017224949
69	0x3cb7f179	0.02245401
70	0x3c3e6a15	0.011621972
71	0xbc2f8ea6	-0.010715162
72	0xbcd56b3f	-0.026052115
73	0x3d500c55	0.05079301
74	0xbd1f92e9	-0.038958464
75	0x3d425b0a	0.047450103
76	0x3cba6eaf	0.022757856
77	0x3d85e413	0.06537642
78	0xbce43cb7	-0.027860982
79	0xbc94395a	-0.018093754
80	0xbb1ee385	-0.00242445
81	0xbc786012	-0.015159624
82	0xbc78b97f	-0.015180944
83	0xbcbcc43a	-0.023042787
84	0xbd0c5413	-0.034259867
85	0xbcaa0316	-0.020753425
86	0xbd4fe5ad	-0.050756145
87	0xbc8ba832	-0.017047975
88	0xbc8a846b	-0.016908845
89	0xbbeea858	-0.0072832517
90	0xbc865e85	-0.016402492
91	0x3ceddc72	0.02903578
92	0x3e01debb	0.12682621
93	0x3d75893d	0.059945334
94	0xbc53a79c	-0.012918379
95	0xbd552877	-0.052040543
96	0xbd1811fe	-0.037126534
97	0xbc06de1b	-0.008231665
98	0x3cea0a67	0.028569413
99	0xbb5e6206	-0.0033932938
100	0x3c389feb	0.011268596
101	0x3c2cc8d3	0.010545927
102	0xba83b787	-0.0010049202
103	0xbd80c123	-0.06286838
104	0xbc8ed592	-0.017435823
105	0x3b701208	0.0036631841
106	0x3b818f05	0.003953817
107	0x3d52b3a2	0.051440842
108	0xbd0d4e98	-0.03449878
109	0x3d4d201c	0.05007945
110	0x3d0cc621	0.034368638
111	0xbc8ddf9b	-0.017318537
112	0xbd3849a2	-0.044992097
113	0xbcd1e2fd	-0.025620932
114	0xbc455fa4	-0.012046728
115	0xbc637156	-0.013882002
116	0x3c4c0057	0.012451253
117	0x3d8f724f	0.070042245
118	0x3b2c0578	0.0026248377
119	0x3851a274	4.998078e-05
120	0xbd74f9d9	-0.059808586
121	0xbd1e9b49	-0.03872231
122	0xbb225797	-0.0024771446
123	0xbc4fc43e	-0.012681065
124	0xbbc7830b	-0.0060886196
125	0x3c0234fe	0.007947205
126	0x3d8c4ae7	0.06850224
127	0x3b05f8cb	0.0020442482
128	0x3d988ac5	0.07448343
129	0x3cf952d7	0.030435009
130	0xbc7131d9	-0.014721357
131	0xbd89a591	-0.067210324
132	0x3d5da661	0.05411375
133	0x3cb21e11	0.021742852
134	0x3c0e8991	0.008699791
135	0x3c8d9e75	0.017287472
136	0x3c78004c	0.0151367895
137	0xbd1eb3b4	-0.038745597
138	0xbc98f0d1	-0.018669518
139	0xbc809c1b	-0.015699437
140	0x3b4ad335	0.0030948643
141	0xbc955776	-0.018230181
142	0x3ce414d1	0.027841957
143	0x3c88bf7a	0.016692866
144	0x3c9a9cfa	0.01887368
145	0xbc6e578e	-0.014547242
146	0x3d35da75	0.04439779
147	0xbc10f3a0	-0.008847147
148	0x3b284ff7	0.0025682428
149	0xbd4c3b8f	-0.049861487
150	0x3c1cfd08	0.009581812
151	0xbd45dad9	-0.048304413
152	0x3d8da32d	0.06915889
153	0xbc7df76e	-0.015500886
154	0xbd6023df	-0.05472171
155	0xbc2cb39a	-0.010540867
156	0xbc85d304	-0.016335972
157	0xbc0a5614	-0.008443374
158	0x3bf507da	0.0074777426
159	0xbd261c95	-0.0405546
160	0xbc13e246	-0.009026116
161	0x3d155a7e	0.036463253
162	0x3b9fcd00	0.004876733
163	0x3d23d0ee	0.039994173
164	0xbd2bf7af	-0.041984256
165	0x3c9c1487	0.019052757
166	0x3d5fa955	0.054604847
167	0xbccbf75b	-0.024898222
168	0x3d88a502	0.06672098
169	0xbcd14d9a	-0.025549699
170	0xbaab8777	-0.0013086636
171	0x3a0c7b7e	0.0005358978
172	0x3d73193c	0.059350237
173	0x3d153f17	0.03643712
174	0xbd008e66	-0.0313858
175	0x3d3aa24d	0.04556494
176	0x3d515841	0.051109556
177	0x3d0b3f61	0.03399599
178	0x395eb029	0.00021237195
179	0xbd6bcabf	-0.0575664
180	0x3d64c54d	0.055852223
181	0xbc166b4a	-0.009180853
182	0xbd08f683	-0.033438217
183	0x3bf2df5d	0.007411881
184	0x3b875991	0.00413055
185	0xbcf68925	-0.030094692
186	0xbd39edfd	-0.04539298
187	0xbd947a8e	-0.07249938
188	0xbd506ccc	-0.050885007
189	0xbc8ad2ac	-0.01694616
190	0x3c66d082	0.014087798
191	0x3d2a012f	0.041505035
192	0xbc9ba561	-0.018999757
193	0xbcc894ab	-0.024484953
194	0xbd0af49a	-0.033924676
195	0x3d22496d	0.039620806
196	0x3b162714	0.0022911476
197	0x3ca6f184	0.020378835
198	0xbd77c830	-0.060493648
199	0xbd836561	-0.06415821
200	0xbd7a69e7	-0.061136153
201	0x3cce3d0f	0.0251756
202	0x3d33abea	0.043865122
203	0x3d230502	0.039799698
204	0xbb03f990	-0.0020137765
205	0x3c4395fe	0.011937616
206	0xbb91c810	-0.004448898
207	0x3b9bcdaa	0.0047547417
208	0x3b05b24d	0.0020400465
209	0x3d47c077	0.048767533
210	0x3d80047b	0.062508546
211	0x3c3e90df	0.01163122
212	0x3daadb79	0.08342642
213	0x3c4b1419	0.012394928
214	0xbb8529c9	-0.004063819
215	0x3d187d92	0.03722913
216	0x3d4574cb	0.048207086
217	0x3d26443d	0.04059242
218	0x3d99ac75	0.07503597
219	0xbc17c1d4	-0.009262521
220	0x3d405383	0.046954643
221	0x3d58e634	0.052953914
222	0x3d130edf	0.035902854
223	0x3cbc4dcc	0.022986315
224	0x3d41f91c	0.04735671
225	0xbc2ffb8e	-0.010741128
226	0xbcb94e45	-0.02262033
227	0xbbc39d94	-0.0059697125
228	0x3d678b07	0.05652907
229	0xbdb62a74	-0.08894816
230	0x3cc1870c	0.023623966
231	0x3b1b2cb8	0.0023677777
232	0x3bc5d4a8	0.0060373135
233	0x3d7c4243	0.06158663
234	0x3d3c09ba	0.045907713
235	0xbd0da101	-0.034577373
236	0xbc8ba9c5	-0.017048726
237	0x3d6509c5	0.05591752
238	0xbc715406	-0.014729505
239	0x39b8c271	0.00035240085
240	0x3b9ec552	0.0048452998
241	0x3d43999b	0.04775391
242	0xbd32978e	-0.043601565
243	0xbd16fec6	-0.036864065
244	0xbd90928d	-0.07059202
245	0xbce76289	-0.028245227
246	0xbd14c7db	-0.03632341
247	0xbc1673dd	-0.009182897
248	0xbd6322d5	-0.05545314
249	0xbc90b937	-0.017666442
250	0xbcfe1bf3	-0.031019187
251	0x3d6382b3	0.055544566
252	0x3c2631a2	0.010143669
253	0xbc8e2e86	-0.017356168
254	0x3ced6533	0.02897892
255	0xbc474fbe	-0.012165008

network_body._body_endoder.seq_layers.2.weight f4 [256, 256]
0	0x3d130e17	0.03590211
1	0xbd4b880d	-0.049690295
2	0x3cae8a69	0.021306233
3	0xbd327f62	-0.043578513
4	0xbdccc02b	-0.09997591
5	0x3c925852	0.01786438
6	0xbe58f84b	-0.21188466
7	0x3d7b8a98	0.06141147
8	0xbe05b5b2	-0.13057593
9	0xbd4e4656	-0.050360046
10	0xbc943008	-0.01808931
11	0xbc70b326	-0.01469115
12	0xbe18a4fa	-0.14906684
13	0xbda4c346	-0.08045058
14	0xbdc62665	-0.09675292
15	0xbd770d36	-0.060315333
16	0x3d14e568	0.03635159
17	0xbdaf7687	-0.08567529
18	0x3c034500	0.008012056
19	0x3dbae70d	0.09126101
20	0xbd6a21f2	-0.05716128
21	0x3d3c01e2	0.045900233
22	0x3e304e13	0.17217283
23	0x3d7b0e16	0.06129273
24	0x3cfc2fa6	0.03078444
25	0x3d3bd67d	0.04585885
26	0xbe076988	-0.1322385
27	0xbd55f9a2	-0.05224002
28	0xbc184ab4	-0.009295154
29	0xb8ea9a61	-0.00011186745
30	0xbd5d8834	-0.05408497
31	0xbe122f8d	-0.14275952
32	0x3de39f21	0.11114336
33	0xbdd3e4da	-0.10346384
34	0x3d0dc8cb	0.03461532
35	0xbd05b2b4	-0.032641128
36	0xbd83a541	-0.06428004
37	0xbd11673f	-0.035498854
38	0x3e0362ec	0.12830704
39	0xbde7dc1f	-0.11321282
40	0xbdd575c3	-0.10422852
41	0xb9812ea8	-0.0002463956
42	0xbe6f9318	-0.23395956
43	0x3d478efd	0.04872035
44	0xbcdf5589	-0.027262466
45	0xbd446aad	-0.047953296
46	0xbd9696e1	-0.073529966
47	0x3e2672e3	0.16254763
48	0x3d339441	0.043842558
49	0xba22293e	-0.0006185955
50	0x3cf2bddf	0.029631553
51	0xbd847df0	-0.06469333
52	0x3a1b311a	0.00059200975
53	0xbdaba5bb	-0.0838122
54	0xbdb8cea1	-0.09023786
55	0xbd917739	-0.07102818
56	0x3c0ecda7	0.0087160235
57	0xbd9e56ad	-0.07731376
58	0x3d4a21f9	0.049348805
59	0xbd820082	-0.06347753
60	0x3da249b3	0.07924213
61	0xbd84d6ba	-0.06486268
62	0x3d539840	0.05165887
63	0x3cfa337a	0.030542124
64	0x3d695926	0.056969784
65	0x3da9f9af	0.082995765
66	0x3d349f9d	0.04409753
67	0xbc4db2e4	-0.012554858
68	0x3d12703f	0.035751577
69	0x3decd784	0.11564544
70	0xbe0097d2	-0.12557915
71	0x3ca6e952	0.020374928
72	0x3dbffacd	0.09374008
73	0xbda825a3	-0.08210304
74	0xbd503c03	-0.05083848
75	0xbd8531fc	-0.065036744
76	0x3dc473d6	0.095924065
77	0xbdb50fc7	-0.088409
78	0xbe001579	-0.12508191
79	0x3bb91b53	0.0056490093
80	0xbccc1cc2	-0.024916057
81	0x3e02536f	0.1272714
82	0xbcb4a06a	-0.022049148
83	0x3d8f6a01	0.070026405
84	0xbde35b44	-0.11101392
85	0xbd9e8c10	-0.077415586
86	0x3c25cf73	0.0101202605
87	0xbd17bfcb	-0.037048142
88	0xbd84ac53	-0.06478181
89	0x3d34978f	0.04408985
90	0x3a900a4f	0.00109894
91	0x3df7c018	0.12097186
92	0xbdbdecec	-0.09273705
93	0x3bd9cc14	0.0066466425
94	0x3c80bdfe	0.015715595
95	0x3cd97922	0.026547018
96	0xbcb1c404	-0.021699913
97	0x3da1d9cf	0.07902872
98	0xbc268426	-0.010163343
99	0x3cfeff6f	0.03112766
100	0xbd86bc28	-0.06578857
101	0x3d8c9145	0.068636455
102	0x3d56b806	0.052421592
103	0xbcd6e27a	-0.02623104
104	0x3e072e8a	0.13201347
105	0xbdabf673	-0.08396616
106	0x3da194a2	0.078896776
107	0x3d29fb62	0.041499503
108	0xbc582f74	-0.013194907
109	0xbd7b60bf	-0.06137156
110	0x3c5f864e	0.013642861
111	0xbc3fcfdd	-0.011707273
112	0xbb923362	-0.0044616917
113	0xbe32219f	-0.17395638
114	0x3d8e27b4	0.069411665
115	0x3d383256	0.04496988
116	0xbe377b57	-0.17918144
117	0xbc957997	-0.018246455
118	0xbd328ce1	-0.043591384
119	0xbe1c02e5	-0.15235479
120	0xbba0cf30	-0.004907511
121	0xbc990a73	-0.01868174
122	0xbc826fa5	-0.015922377
123	0x3cabb5cf	0.020960717
124	0xbc15f15d	-0.009151784
125	0xbdf83b85	-0.121207274
126	0xbcb24707	-0.021762384
127	0xbc0a8218	-0.008453868
128	0x3cc8a5b8	0.024493083
129	0xbc5660d2	-0.013084607
130	0xbd1b92f8	-0.037981957
131	0x3de6f61b	0.1127741
132	0xbd910ed9	-0.0708291
133	0x3db6c5f6	0.08924477
134	0xbba23405	-0.004950049
135	0xbda42053	-0.08013978
136	0xbd8ebf71	-0.06970108
137	0x3d98f119	0.07467861
138	0xbcf2ed5f	-0.029654203
139	0x3e28fabf	0.16501902
140	0x3d8348c3	0.064103626
141	0x3d1a959c	0.037740335
142	0xbdec1c35	-0.115288176
143	0xbeb36cc2	-0.35043913
144	0x3d0fcc55	0.035106976
145	0xbd490c0e	-0.049083762
146	0xbdff94bd	-0.124795415
147	0x3dee4e42	0.1163602
148	0xbe04eb6d	-0.12980433
149	0xbdda71a6	-0.10666208
150	0x3ca0b7fe	0.019618984
151	0x3d807a1c	0.062732905
152	0x3ba49f0f	0.005023844
153	0x3b6678e7	0.0035167278
154	0xbd9202a4	-0.0712941
155	0xbd82c675	-0.06385509
156	0xbd8454df	-0.064615004
157	0xbd7b3d11	-0.061337534
158	0xbbe5e744	-0.0070160944
159	0xbe2707a4	-0.16311508
160	0x3e2837c1	0.16427518
161	0x3dcd2bef	0.10018145
162	0xbd6e8d29	-0.05824009
163	0xbb7caf5e	-0.0038556675
164	0xbcf7b9c6	-0.03023995
165	0xbd2c28db	-0.04203115
166	0x3c88bec1	0.016692521
167	0xbcc3a65a	-0.023883034
168	0x3dca0d3b	0.09865805
169	0x39783c11	0.000236735
170	0x3d535e6d	0.051603723
171	0x3bf6ce2c	0.007531902
172	0x3cd8e563	0.026476568
173	0xbd461f20	-0.048369527
174	0xbd2a6144	-0.041596666
175	0xbe633311	-0.22187449
176	0x3d938a17	0.07204073
177	0x3d42e97e	0.047585957
178	0xbd3c598f	-0.045983847
179	0x3d01a3dd	0.031650413
180	0x3d8d1abd	0.068898655
181	0x3cb05fc3	0.021530038
182	0x3bd8cc2a	0.006616135
183	0x3dd238d3	0.102647446
184	0xbd34354b	-0.043996137
185	0xbd4eac7d	-0.050457466
186	0x3d783b3c	0.060603365
187	0xbd99c2d5	-0.075078644
188	0xbc72d617	-0.014821551
189	0x3e006421	0.12538196
190	0x3c83cf29	0.016089993
191	0x3c28067a	0.01025545
192	0xbdcb1952	-0.09916939
193	0x3d234131	0.039857093
194	0x3db851e1	0.08999992
195	0xbda92427	-0.08258849
196	0x3c8764f0	0.016527623
197	0x3daa953e	0.08329247
198	0xbcc493fd	-0.023996348
199	0xbe12d349	-0.14338411
200	0xbe0022ab	-0.12513225
201	0x3d4a3452	0.049366303
202	0x3d724c9b	0.059155088
203	0x3dbb6579	0.09150214
204	0xbd5bc6c2	-0.053656347
205	0xbd19444d	-0.037418652
206	0x3da310f8	0.07962221
207	0x3d21dfc3	0.039520036
208	0x3d8e5a68	0.069508374
209	0x3cabeaff	0.020986078
210	0x3d0ba5f7	0.034093823
211	0x3be144ed	0.0068746717
212	0x3e0e61a6	0.13904437
213	0xbe33e697	-0.17568432
214	0xbd36e531	-0.044652168
215	0x3d1e81ce	0.03869801
216	0x3c61f9a1	0.013792426
217	0xbc933d07	-0.017973436
218	0x3c280d48	0.010257073
219	0x3d0451b7	0.03230449
220	0xbd815590	-0.06315148
221	0x3e2fe394	0.17176658
222	0x3dfa737f	0.122290604
223	0x3c378141	0.01120025
224	0xbe87b047	-0.26501676
225	0x3cf6508f	0.03006771
226	0xbe1d3d4b	-0.15355413
227	0xbc503c37	-0.012709669
228	0xbcb88992	-0.022526536
229	0x3da1ab5a	0.07894011
230	0xbd36567d	-0.044516075
231	0xbc6c7fc3	-0.014434758
232	0xbd800d4e	-0.06252538
233	0x3c5efbe6	0.013609862
234	0x3df146d2	0.11781086
235	0xbdbc8504	-0.09205058
236	0x3de17964	0.110094815
237	0x3dd8cf82	0.10586454
238	0x3d8dda5e	0.06926416
239	0x382f257c	4.175816e-05
240	0x3c68d4a4	0.014210854
241	0x3daad370	0.0834111
242	0x3c31f9ba	0.010862762
243	0xbcdbc64c	-0.026827954
244	0x3be6d7d8	0.0070447735
245	0x3bce232e	0.006290815
246	0x3e321503	0.17390828
247	0x3d06c87a	0.032906033
248	0xbd125d57	-0.035733547
249	0x3df38ba7	0.11891871
250	0x3d99177e	0.07475184
251	0x3dbcf8b9	0.092271276
252	0x3e185f28	0.14880049
253	0xbd8a7d3a	-0.06762166
254	0xbd3f6f1d	-0.046736825
255	0xbdbb933d	-0.09158943

network_body._body_endoder.seq_layers.2.bias f4 [256]
0	0x3c925e89	0.017867344
1	0x3c7b8748	0.015352078
2	0xbc296df3	-0.010341155
3	0x3d7b150d	0.061299372
4	0xbd526d04	-0.051373497
5	0xbcce15ba	-0.025156844
6	0xbc416359	-0.0118034715
7	0xbd6ecb53	-0.058299374
8	0xbbb8665f	-0.005627438
9	0xbb94c728	-0.004540343
10	0xbcc664b0	-0.024217933
11	0x3adff7ce	0.0017087401
12	0x3d5243f7	0.051334348
13	0xbb9eb114	-0.0048428867
14	0x3c46f134	0.012142468
15	0x3c69d72f	0.014272495
16	0x3d364077	0.044495072
17	0xbd20c94b	-0.039254468
18	0xbd7661ba	-0.060151793
19	0x3bc41406	0.0059838323
20	0x3bd4e0ed	0.00649654
21	0x3bb489e5	0.0055096024
22	0x3c836ff1	0.016044589
23	0xbd963568	-0.07334405
24	0xbd9bf03c	-0.076141804
25	0x3b39fa92	0.0028378111
26	0x3ca9cb01	0.020726683
27	0x3d4576a8	0.048208863
28	0xbd024f7a	-0.031814076
29	0x3c8e33c2	0.017358664
30	0xbd66b229	-0.05632225
31	0xbd15df65	-0.03659
32	0x3d2ede7f	0.042692658
33	0xbb8aa345	-0.004230889
34	0x3d65df8d	0.056121398
35	0x3d2e06ab	0.042486828
36	0x3b55140f	0.0032513177
37	0xbd1e7565	-0.038686175
38	0xbd65ef4a	-0.056136407
39	0x3c09e045	0.008415286
40	0x3c71fa71	0.014769183
41	0xbd4ce5cf	-0.05002385
42	0x3d34e7f3	0.044166517
43	0xbb993ab8	-0.0046761893
44	0xbd85d61f	-0.06534981
45	0x3b6ab608	0.0035814065
46	0xbd1cc2ce	-0.038271718
47	0x3cd4b33c	0.025964372
48	0x3cd0f7f7	0.025508864
49	0xbd110559	-0.03540549
50	0xbb8ca168	-0.004291702
51	0x3d74d19b	0.059770208
52	0xba3f9b5c	-0.0007309222
53	0x3cb5d4f0	0.022196263
54	0x3cc3fe99	0.023925113
55	0xbcedcd10	-0.029028445
56	0xbbb4ea2e	-0.0055210805
57	0x3bc54fc0	0.00602147
58	0x3d0691de	0.032853954
59	0xbc0835ec	-0.008313637
60	0x3d10ce82	0.03535319
61	0xbd51d123	-0.05122484
62	0x3d38b91e	0.045098417
63	0xbd8b34c5	-0.06797174
64	0xbd21ec84	-0.0395322
65	0xbd3e945d	-0.04652821
66	0x3d1e591b	0.038659196
67	0xbd121659	-0.035665844
68	0xbca14a46	-0.019688737
69	0xbc9658db	-0.018352916
70	0x3d84e96e	0.06489836
71	0xbc959289	-0.01825835
72	0xbc92cf2f	-0.017921058
73	0xbcc4b478	-0.024011835
74	0xbc6acc51	-0.014330939
75	0xbd541fca	-0.05178813
76	0xbda5a6de	-0.08088468
77	0xbc63c08d	-0.013900888
78	0x3c484f0b	0.012225877
79	0x3cb349f2	0.021885846
80	0xbc7ed96c	-0.015554767
81	0xbd646665	-0.055761714
82	0x3d499a20	0.04921925
83	0x3d99bede	0.07507108
84	0xbcca7bc5	-0.024717221
85	0xbd20b666	-0.03923645
86	0xbcbabfdd	-0.022796566
87	0x3c711d67	0.014716483
88	0xbd568dfc	-0.0523815
89	0x3da71446	0.08158164
90	0x3d1c26c6	0.038122915
91	0xbd12f13e	-0.035874598
92	0x3bae8465	0.0053258413
93	0xbd1eb992	-0.038751192
94	0x3d00a1ce	0.03140431
95	0x3b913391	0.004431196
96	0x3cce8d0b	0.025213739
97	0xbd1bb897	-0.038017835
98	0x3d042d09	0.03226951
99	0x3c69e411	0.014275567
100	0xbd629fe2	-0.055328257
101	0x3c053a36	0.008131554
102	0x3d1c5d4f	0.038174924
103	0xbc4c4fee	-0.012470229
104	0xbd467804	-0.0484543
105	0x3d1e8df7	0.038709607
106	0xbd901b90	-0.07036507
107	0x3c259634	0.010106612
108	0xbd95a1e7	-0.07306271
109	0xbcb76310	-0.022386104
110	0x3dcfd387	0.101477675
111	0xbd3554ee	-0.04427045
112	0xbc7971c4	-0.015224878
113	0xbceeb30d	-0.029138112
114	0xbd8e1978	-0.069384515
115	0xbd360215	-0.04443558
116	0xbc759f7f	-0.01499164
117	0x3cff67c7	0.031177415
118	0x3c7b4841	0.015337051
119	0x3d29158b	0.04128031
120	0x3b4b03c6	0.003097759
121	0xbcc40a9e	-0.023930844
122	0xbc05ac34	-0.008158732
123	0xbca9dbee	-0.020734753
124	0xbc0ef182	-0.008724572
125	0x3c4e209c	0.012581017
126	0xbd302086	-0.042999767
127	0x3d788037	0.06066915
128	0xbce47c6b	-0.027891358
129	0x3cf3950f	0.029734163
130	0xbcd3c6d9	-0.025851654
131	0xbd298f6c	-0.041396543
132	0xbc555531	-0.0130207995
133	0x3d2ad89a	0.041710474
134	0x3cf23c4c	0.029569767
135	0xb992f057	-0.00028026357
136	0x3ce597bf	0.02802646
137	0xbd4f79bd	-0.050653208
138	0x3b447c05	0.0029981148
139	0x3c933315	0.017968694
140	0x3b023e75	0.0019873653
141	0xbd032327	-0.032015946
142	0xbad83076	-0.0016493935
143	0xbd0845b1	-0.033269588
144	0xbb623e3a	-0.0034521953
145	0x3d0b9e81	0.034086708
146	0x3c79a641	0.015237392
147	0x3d023386	0.031787418
148	0xbd246079	-0.040131066
149	0xbd752d6e	-0.05985778
150	0xbdbbdf07	-0.091733985
151	0xbc261da5	-0.010138904
152	0x3d5fc662	0.054632552
153	0x3d389e39	0.045072768
154	0x3cb4c449	0.022066252
155	0x3ce615e5	0.028086612
156	0x3c7c7a67	0.015410042
157	0x3c8e36e8	0.017360166
158	0x3cdbdb8e	0.02683809
159	0x3cdd5c0e	0.027021434
160	0xbc9ee746	-0.01939739
161	0xbd527fcb	-0.051391404
162	0xbdb1c03b	-0.08679243
163	0xbbfda34f	-0.007740415
164	0x3c9f49f3	0.019444441
165	0x3cd3f393	0.025872981
166	0xbb2527ff	-0.0025200841
167	0xb7b82645	-2.195233e-05
168	0x3ca1e779	0.019763695
169	0x3d09cdaa	0.033643402
170	0x3d194cd5	0.03742679
171	0x3b77d131	0.0037813897
172	0xbbd978b3	-0.006636703
173	0x3d0947cd	0.03351574
174	0xbc8a9359	-0.016915964
175	0xb973c95b	-0.00023249297
176	0xbd636411	-0.055515353
177	0xbd241697	-0.040060606
178	0x3bdea785	0.006794872
179	0x3c92eddc	0.017935686
180	0x3bfbeece	0.00768838
181	0xbda3001e	-0.07959007
182	0x3d2a8140	0.04162717
183	0xbd1321f0	-0.035921037
184	0xbb1a00b2	-0.002349895
185	0xbcc060b9	-0.023483621
186	0xbc3d591a	-0.011556888
187	0x3c2167bd	0.009851393
188	0xbd33f9f8	-0.04393956
189	0xbd9209ef	-0.07130801
190	0xbd6e123f	-0.05812287
191	0xbc978f50	-0.018500954
192	0xbd4d85f2	-0.05017657
193	0xbd9d6e86	-0.07687096
194	0xbcef51dc	-0.029213838
195	0xbd162994	-0.036660746
196	0x3cea6ad6	0.028615396
197	0xbd87a859	-0.06623907
198	0x3d5442c5	0.05182149
199	0x3d2161e5	0.0394
200	0xbd24ba8f	-0.04021698
201	0xbd4225b4	-0.047399238
202	0x3d0c86c1	0.0343082
203	0x3d9147ac	0.070937485
204	0x3a15cfb9	0.0005714852
205	0xbd9b788c	-0.07591352
206	0xbd00de04	-0.03146173
207	0x3d25d740	0.04048848
208	0xbca440a5	-0.020050356
209	0xbcb1a95d	-0.021687204
210	0xbd5c96af	-0.05385464
211	0x3d10962e	0.035299473
212	0xbdb2076f	-0.08692824
213	0x3cdb6511	0.02678159
214	0xbc09c354	-0.008408386
215	0xbd0d40e7	-0.034485724
216	0xbbf32549	-0.007420216
217	0xbcb1d286	-0.02170683
218	0xbdaf6198	-0.085635364
219	0xbd4a1a4e	-0.049341492
220	0xbc3820a1	-0.011238248
221	0xbcc3255e	-0.023821529
222	0xbd0bc50d	-0.03412347
223	0x3acaf040	0.0015482977
224	0x3a29d2a7	0.0006478228
225	0xbb9df23a	-0.0048201354
226	0xbcc6506a	-0.024208266
227	0x3cdedcb1	0.027204843
228	0xbce4c1c1	-0.02792442
229	0xbd2e4f56	-0.04255613
230	0x3cba77c2	0.022762183
231	0x3bd5e422	0.0065274397
232	0x3ca4c11c	0.020111613
233	0x3d1273f2	0.035755105
234	0xbcd999b9	-0.026562558
235	0xbd113983	-0.035455238
236	0x3ac38659	0.0014917358
237	0xbd2a3d59	-0.041562412
238	0xbd4c0d19	-0.04981718
239	0xbd7c4dc5	-0.061597604
240	0x3c0f9043	0.008762422
241	0x3c9ac607	0.018893255
242	0xbd8e8a5d	-0.069599845
243	0xbd8d6dcb	-0.06905707
244	0xbdb74735	-0.089491285
245	0x3d580be0	0.0527457
246	0xbd17da3b	-0.037073355
247	0xbbcda62c	-0.0062759127
248	0xbb8db28f	-0.0043242644
249	0xbd37ef89	-0.044906173
250	0xbcdb7f6c	-0.026794158
251	0x3c3b7b70	0.011443004
252	0xbd80c6de	-0.06287931
253	0xbcb6a941	-0.022297503
254	0xbd49a3fe	-0.04922866
255	0xbcee2b71	-0.029073449

action_model._continuous_distribution.log_sigma f4 [1, 4]
0	0xbef1ad4a	-0.47202522
1	0xbf05cf44	-0.5226939
2	0xbf46f492	-0.77716935
3	0xbe7f4a43	-0.24930672

action_model._continuous_distribution.mu.weight f4 [4, 256]
0	0xbcaaf7d1	-0.020870121
1	0xbd96c856	-0.0736243
2	0xbbcde4e2	-0.0062833885
3	0x3d81e0d0	0.06341708
4	0xbe241ec4	-0.16027361
5	0x3c2767aa	0.0102175865
6	0xbddbacb8	-0.10726303
7	0xbd9a3da4	-0.07531288
8	0xbc0f7bba	-0.008757526
9	0xbdd7eba4	-0.10542992
10	0xbcc6e3a6	-0.024278473
11	0xbbcf3bfd	-0.00632429
12	0x3da1bbdb	0.07897159
13	0xbd9190d0	-0.07107699
14	0x3d31362a	0.043264546
15	0x3d870040	0.065918446
16	0x3d3fc493	0.046818327
17	0xbcd2314d	-0.025658274
18	0xbdeb8e06	-0.11501698
19	0x3c38f98b	0.011289964
20	0xbcb8c36a	-0.022554118
21	0xbd4df659	-0.050283764
22	0xbd981612	-0.074260846
23	0xbe23e4bf	-0.16005228
24	0xbdb1140d	-0.086464025
25	0x3d69a1fd	0.05703925
26	0x3d4ac776	0.049506627
27	0x3da5ab2c	0.08089289
28	0xbc5c0864	-0.013429735
29	0x3c83370a	0.016017456
30	0xbdbad44e	-0.09122525
31	0xbd886eab	-0.06661733
32	0x3d759655	0.05995782
33	0x3d429651	0.047506634
34	0x3d622a4e	0.055216126
35	0x3d93b77e	0.07212733
36	0xba035e8f	-0.0005011344
37	0xbc3ae0c7	-0.01140613
38	0x3b58850a	0.0033038282
39	0x3c3f9d08	0.011695154
40	0x3d4eb349	0.05046395
41	0xbd84098f	-0.06447136
42	0x3d3dea67	0.04636612
43	0x3c5ab078	0.0133477375
44	0xbdfa8565	-0.12232474
45	0x3cb4300d	0.021995569
46	0xbd509430	-0.050922573
47	0x3d9edea5	0.0775731
48	0x3d43d90a	0.047814406
49	0xbd83c29c	-0.06433603
50	0x3d33779b	0.043815237
51	0x3cf058f9	0.0293393
52	0xbd10ac52	-0.035320587
53	0x3d0afd39	0.0339329
54	0xbb8a83b7	-0.0042271274
55	0xbd969bcc	-0.07353935
56	0xbd47ad6a	-0.048749365
57	0x3b9b09a1	0.0047313725
58	0x3d3c6521	0.04599488
59	0x3d8bdc7d	0.06829164
60	0x3ba48655	0.0050208964
61	0xbd6e1743	-0.058127653
62	0x3e0d662e	0.1380851
63	0xbdc37607	-0.09543996
64	0xbdf74f48	-0.120756686
65	0xbd9d5c6f	-0.07683646
66	0x3d39b80b	0.045341533
67	0xbe07f5fd	-0.13277431
68	0xbdeb7f64	-0.11498907
69	0xbd61fd45	-0.055173177
70	0x3dc05e09	0.09392936
71	0x3b91c6e8	0.0044487603
72	0xbdaeee36	-0.08541529
73	0x3d6c77f1	0.057731573
74	0xbd15748c	-0.0364881
75	0xbd03590a	-0.032067336
76	0xbe2d937b	-0.1695079
77	0x3b54a402	0.003244639
78	0xbd930101	-0.07177926
79	0x3d229bd5	0.039699394
80	0xbcdb4fa6	-0.026771378
81	0xbde79a21	-0.11308695
82	0x3d795a43	0.060877096
83	0x3d2d2c95	0.042278845
84	0x3d843556	0.064554855
85	0xbd753ba8	-0.059871346
86	0xbd890008	-0.06689459
87	0x3c7263f2	0.014794337
88	0xbdb2a352	-0.08722557
89	0x3d86ce4a	0.06582315
90	0x3da994f8	0.08280367
91	0xbd5d1da2	-0.05398334
92	0xbcecf64b	-0.028926035
93	0xbdfdfa00	-0.12401199
94	0x3ca11a9f	0.019666014
95	0xbd7796f6	-0.060446702
96	0x3d53bd12	0.051693983
97	0xbbe8683d	-0.0070925043
98	0x3d245217	0.04011735
99	0x3c9649a6	0.018345665
100	0xbd3c3cf9	-0.045956586
101	0xbd91ac84	-0.07112983
102	0x3d9de51b	0.07709714
103	0xbd2bbeb2	-0.041929908
104	0xbdfb8bdf	-0.12282538
105	0x3d34b283	0.044115555
106	0xbdb76a4e	-0.08955823
107	0x3d69c7da	0.05707536
108	0xbe062c45	-0.13102825
109	0xbcfd1cc8	-0.030897513
110	0x3dc3cf21	0.09560991
111	0xbdd20c65	-0.1025627
112	0x3c7d14e0	0.0154468715
113	0xbd0754bb	-0.03303979
114	0xbdccb551	-0.09995521
115	0xbdf68966	-0.120379254
116	0xbc440164	-0.011963222
117	0x3db9d089	0.09072978
118	0x3d88db3b	0.0668244
119	0x3bd889ed	0.006608239
120	0xbdc24b89	-0.094870634
121	0x3c530b56	0.012881121
122	0x3d35cef7	0.04438683
123	0x3d25d306	0.04048445
124	0x3d41d2ae	0.04732006
125	0x3cfb120d	0.030648256
126	0xbda57a86	-0.0808001
127	0x3d9d6525	0.076853074
128	0x3d10a572	0.03531403
129	0xbd1d356c	-0.038381025
130	0x3c01a63e	0.00791317
131	0xbd39803f	-0.04528832
132	0xbdfc3e8a	-0.12316616
133	0x3d89393e	0.06700371
134	0x3d0f253f	0.03494763
135	0xbd01bc65	-0.031673808
136	0x3d727792	0.059196062
137	0xbdca2417	-0.09870165
138	0x3b9f24bf	0.0048566754
139	0xbcfaab4c	-0.030599259
140	0xbcaaf4bb	-0.02086865
141	0xbc39cc37	-0.0113401925
142	0x3b6fc4f4	0.00365859
143	0xbd902af2	-0.07039441
144	0x3aae8705	0.0013315385
145	0x3d784819	0.060615633
146	0x3cccf23d	0.025017852
147	0x3d353c5b	0.044247013
148	0xbd804c8e	-0.06264602
149	0xbd563e16	-0.052305304
150	0xbdd57177	-0.10422032
151	0xbdc39041	-0.095489986
152	0x3d14b0af	0.03630131
153	0x3d920941	0.07130671
154	0x3d7878d6	0.060662113
155	0xbd27a0f5	-0.040924985
156	0x3d0620da	0.032746173
157	0x3c825300	0.015908718
158	0x3cfc7791	0.030818732
159	0x3c7d6dee	0.015468104
160	0xbd7eaace	-0.06217461
161	0xbe1d8290	-0.15381837
162	0xbd2053f5	-0.039142568
163	0xbd707521	-0.058705453
164	0x3d445cbb	0.047939997
165	0x3c34a0ad	0.011024636
166	0xbc109355	-0.008824189
167	0x3d3848fb	0.044991475
168	0x3d7cd193	0.061723303
169	0xbc78484d	-0.015153957
170	0x3cf96a74	0.030446269
171	0x3c6912b9	0.014225655
172	0xba82be01	-0.0009974838
173	0x3da9ea55	0.082966484
174	0xbd33c202	-0.043886192
175	0x3ccd2934	0.025044061
176	0xbd9e131a	-0.07718487
177	0xbb322eba	-0.0027188496
178	0x3d0b46c6	0.03400304
179	0x3cb765e1	0.022387447
180	0x3a6db18e	0.000906729
181	0xbddbfa9c	-0.10741159
182	0x3d2aabd9	0.041667793
183	0xbd187441	-0.037220243
184	0xbceaeb4d	-0.028676653
185	0xbde4e2cd	-0.11176071
186	0x3bcbf756	0.006224553
187	0x3db48fbf	0.0881648
188	0xbdea7268	-0.114476025
189	0xbd9e3733	-0.07725372
190	0xbccc7019	-0.024955796
191	0xbc17c51d	-0.009263304
192	0x3cdf0811	0.027225526
193	0xbd72fe09	-0.059324298
194	0x3c57e803	0.0131778745
195	0xbd519635	-0.05116864
196	0x3d88c9d2	0.06679119
197	0xbdb54f93	-0.08853068
198	0x3daaa83b	0.08332869
199	0x3d284a8d	0.041086722
200	0xbe352c27	-0.17692624
201	0xbd30ff32	-0.043212123
202	0x3c336c4c	0.010951113
203	0x3dc41f23	0.09576251
204	0x3d5b076e	0.053473882
205	0xbda63222	-0.08115031
206	0xbc802f79	-0.015647637
207	0x3d61909a	0.055069543
208	0x3d6ee750	0.058326066
209	0x3c529c10	0.012854591
210	0xbe3e19d3	-0.18564539
211	0x3d8b9a92	0.06816591
212	0xbe0f9887	-0.14023028
213	0x3cca363b	0.024684062
214	0x3ce857c3	0.02836216
215	0xbe0e0cd4	-0.13872081
216	0xba868c3e	-0.0010265184
217	0x3d229eb6	0.03970214
218	0xbdcd45fd	-0.10023115
219	0xbddf8497	-0.109139614
220	0x37a092df	1.9141879e-05
221	0xbd0fa72b	-0.035071533
222	0xbd3332d5	-0.04374965
223	0xbd1b7177	-0.037950005
224	0xbc87c861	-0.01657504
225	0x3da66d99	0.08126373
226	0x3d6a605f	0.057220813
227	0x39a8d8af	0.000322049
228	0x3cd0ecfd	0.02550363
229	0xbdd798ad	-0.105271675
230	0xbd7af3da	-0.06126771
231	0xbdf379f9	-0.11888499
232	0x3d60cedb	0.054884773
233	0x3c22d2e4	0.009937976
234	0xbe0ad432	-0.13557509
235	0xbcce3551	-0.025171908
236	0x3c7eb83c	0.015546855
237	0x3b4ff23b	0.0031730074
238	0xbddb9610	-0.107219815
239	0xbccc46e6	-0.02493615
240	0x3c95c0ea	0.018280465
241	0xbd12856e	-0.03577178
242	0xbde5db43	-0.112234615
243	0xbd915c33	-0.07097664
244	0xbe31b6a1	-0.17354824
245	0x3cdcb786	0.02694298
246	0xbca1d3c5	-0.0197543
247	0x3cb511af	0.022103159
248	0xbc988963	-0.018620199
249	0xbe244bf1	-0.16044594
250	0xbddef585	-0.10886673
251	0x3b248485	0.0025103402
252	0xbd27cb4f	-0.040965375
253	0x3d1ed1dc	0.038774356
254	0xbc4a61e4	-0.0123524405
255	0x3bbf1bbe	0.0058321645

action_model._continuous_distribution.mu.bias f4 [4]
0	0x3dd1a439	0.10236401
1	0xbb18c48b	-0.0023310508
2	0xbbe8dd7e	-0.007106482
3	0x3d29c976	0.041451894

onnx::Div_71 f4 [68]
0	0x3e9b04f1	0.30277207
1	0x3e1808d1	0.14847113
2	0x3c3d278f	0.011545076
3	0x3e150c6c	0.1455552
4	0x3e956f5e	0.2918653
5	0x3de347f4	0.11097708
6	0x3c3d4ffb	0.011554713
7	0x3e0caea0	0.13738489
8	0x3e9a72b0	0.30165625
9	0x3e18e795	0.14932092
10	0x3c3e1980	0.011602759
11	0x3e1cbfec	0.15307587
12	0x3e8d6171	0.27613404
13	0x3d8c752f	0.068582885
14	0x3c3eb7cf	0.011640503
15	0x3e08fba7	0.13377248
16	0x3e933e62	0.28758532
17	0x3df8a951	0.121416695
18	0x3c42f9f7	0.011900417
19	0x3e1d1a99	0.15342177
20	0x3e82bf98	0.255368
21	0x3d375099	0.0447546
22	0x3c40bc54	0.011763651
23	0x3e097979	0.13425244
24	0x3e8a4b1c	0.2701043
25	0x3db79103	0.08963206
26	0x3c452fbb	0.012035306
27	0x3e17a119	0.14807548
28	0x3e7e9c12	0.24864224
29	0x3d18b143	0.037278425
30	0x3c457806	0.012052542
31	0x3e0c6929	0.1371199
32	0x3e83ea9c	0.2576493
33	0x3d85b2ac	0.065282196
34	0x3c4ac627	0.012376345
35	0x3e10cd87	0.14140902
36	0x3e89024e	0.2675957
37	0x3d12a3ad	0.035800625
38	0x3c483dd3	0.012221771
39	0x3e0f5223	0.13996176
40	0x3e822a0c	0.25422704
41	0x3d4999ca	0.04921893
42	0x3c4b82a5	0.012421285
43	0x3e0b2cbf	0.13591288
44	0x3e93d8f8	0.28876472
45	0x3d10e398	0.0353733
46	0x3c46c0a4	0.01213089
47	0x3e0f8836	0.14016804
48	0x3e822532	0.25419003
49	0x3d1de3c9	0.03854731
50	0x3c4a55a5	0.012349521
51	0x3e08872f	0.13332818
52	0x3e966d3c	0.29380214
53	0x3d08c4f7	0.033390965
54	0x3c446ba3	0.011988553
55	0x3e0e9596	0.1392425
56	0x3e80072c	0.25005472
57	0x3cff1d4c	0.0311419
58	0x3c47f693	0.012204784
59	0x3e06bc6a	0.13157812
60	0x3e902676	0.28154343
61	0x3d02b85d	0.031914104
62	0x3c3a8888	0.011385091
63	0x3e0f7408	0.14009106
64	0x3e79e5f1	0.24404122
65	0x3ce76d32	0.02825031
66	0x3c4710db	0.012150015
67	0x3e060fac	0.13091916

onnx::Div_74 f4 [20]
0	0x3edbb2d2	0.42909867
1	0x3d9476a2	0.0724919
2	0x3e5b908b	0.21441858
3	0x3e82ec60	0.25570965
4	0x3ee3cc6e	0.44491905
5	0x3d5aeda1	0.053449277
6	0x3e5148f5	0.20437987
7	0x3e81113e	0.25208467
8	0x3edb99e2	0.4289084
9	0x3d9aa175	0.07550327
10	0x3e564ec1	0.2092848
11	0x3e816ee3	0.25279912
12	0x3eec7914	0.46186125
13	0x3d0c121a	0.03419695
14	0x3e46993d	0.19394393
15	0x3e7f7308	0.24946225
16	0x3ee81288	0.45326638
17	0x3d8211d9	0.063510604
18	0x3e418b49	0.1890079
19	0x3e79697f	0.2435665

onnx::Div_77 f4 [5]
0	0x41763c44	15.389713
1	0x3f9f8689	1.2462932
2	0x4083d968	4.120289
3	0x3f8d3074	1.1030412
4	0x3eed4602	0.46342474
